source/models/SingleNoteTimbreCNN/model_256_1_0.002_MIDIsampledseen_evalmode.pth (torch, 201935 bytes, 26 tensors)

weight f4 [6, 1, 5, 5]
000000 ab bf 23 3d dd 06 40 3e 6d 14 c8 3d fb c6 44 bd
       0.03997771 0.18752618 0.09769521 -0.048041325
000010 84 5b d8 bd ab b9 3b 3d 86 60 24 3d ba 71 0e 3e
       -0.1056433 0.045831364 0.040131114 0.1391057
000020 ab c8 3f be bf 1b 94 bd 0a bf 46 3c e3 2e 5d 3d
       -0.18728893 -0.07231855 0.012130508 0.053999793
000030 af d6 3c be 9d 5c 4a be c5 37 0b bc b6 43 fe 3d
       -0.1844127 -0.19761892 -0.008497183 0.124152586
000040 d7 49 2a bd 16 6c 37 bd fe bc 86 3d 40 42 62 3a
       -0.041574325 -0.044780813 0.06579016 0.0008631088
000050 63 0b 19 3e b4 03 cb bd e3 8c 7a bd ff 27 c1 bd
       0.1494575 -0.09912816 -0.061169516 -0.09431457
000060 c0 98 a3 3d 79 e4 00 3e 32 53 12 be 73 be ab bd
       0.07988119 0.12587155 -0.14289549 -0.08385935
000070 c0 65 f4 3d 69 25 94 bb dd bf df 3d e9 89 61 bd
       0.1193347 -0.004521061 0.10925267 -0.055063162
000080 e1 03 cd 3d c7 40 2a be 0e a1 47 3d ab 09 a5 3c
       0.100105055 -0.16626273 0.048737578 0.020146212
000090 91 79 0f bc dd d6 10 be 90 49 c4 3d af f7 c9 3d
       -0.008757011 -0.14144464 0.095843434 0.09861695
0000a0 82 09 27 3e 3c af 56 bd d5 4a a1 3d 3b 94 26 3e
       0.1631222 -0.05241321 0.07875601 0.16267483
0000b0 1c e9 12 3d 3d 56 02 be 33 90 38 3e d9 1b 56 bd
       0.03586684 -0.1272821 0.18023758 -0.05227265
0000c0 3a 12 a7 3d f8 4a 3f be b9 29 ef bd 6a 1d b7 bd
       0.08157773 -0.18680942 -0.1167788 -0.08941157
0000d0 3f 50 e5 3d c2 10 90 3d d1 b2 42 bd 85 e3 b5 bd
       0.11196946 0.07034446 -0.047533814 -0.088812865
0000e0 31 cf 7e 3c 86 59 9a bd bb a0 d7 bd eb dd 04 be
       0.015552328 -0.075366065 -0.10528704 -0.1297528
0000f0 31 07 d6 bd 22 39 b0 3d e5 3a 44 3e 99 e7 cb bd
       -0.104505904 0.08604647 0.19163091 -0.09956283
000100 f8 63 47 3e 22 30 d9 bd 39 72 ea bb 16 ed 27 3d
       0.19471729 -0.10604884 -0.0071547297 0.040997587
000110 eb 0c 4a 3e 7f c1 29 be dc f8 b3 3d 57 e4 35 be
       0.1973149 -0.16577719 0.087877005 -0.17762886
000120 11 ce 3b be 9f a4 95 3c 4f 1e 0d 3e 59 21 83 bd
       -0.18340327 0.018266974 0.13781093 -0.06402845
000130 00 c5 0a be 80 6f 6e bd 43 fc 48 3e 7e a5 3f bd
       -0.13551712 -0.058211803 0.1962748 -0.046788685
000140 4b 43 16 be 3e a2 21 3e 15 8f 31 3e ef 11 0e be
       -0.14674108 0.15784547 0.17339738 -0.13874029
000150 29 91 cd bd 6e bd 1b 3e fe 2c d5 bd 8b 1c ba bd
       -0.10037453 0.1520898 -0.10408972 -0.090874754
000160 3b dd 93 3d 8c 40 ce 3b 7b 3e 44 bd 36 24 b3 bb
       0.07219931 0.0062943157 -0.04791115 -0.005466963
000170 58 89 71 bd 5e 91 04 be d4 fd cc 3d 57 27 7b bb
       -0.05896887 -0.12946078 0.100093514 -0.003832301
000180 a8 f1 46 3e c0 10 e6 bd ea 7b 34 3e 4a f9 03 3e
       0.19428122 -0.112336636 0.17625394 0.12888065
000190 91 5d 32 be 49 79 4a 3e a8 a9 f9 bd 7c 68 89 3d
       -0.17418505 0.19772829 -0.121905625 0.06709382
0001a0 79 3e 90 bb 11 a7 24 3e 80 92 35 3e 1c d0 ba 3d
       -0.0044019786 0.16079356 0.17731667 0.09121725
0001b0 bb 72 47 3e 95 f5 97 bd 1b 25 ee bd 9f 74 c7 3d
       0.1947736 -0.07419888 -0.11628171 0.097390406
0001c0 e7 e9 4f 3e 38 59 b6 3c 7e 4c 70 bd 7e 14 ad 3d
       0.2030407 0.02225934 -0.0586667 0.08451174
0001d0 75 dd c7 bc 6b 77 b0 bc 3e 6c ff 3d 2f 56 1d be
       -0.024397591 -0.021541318 0.124718174 -0.15364908
0001e0 4c 9a 1e 3c 31 60 a9 3d f1 7b c1 bd 34 58 06 be
       0.009680342 0.082703 -0.09447468 -0.13119584
0001f0 88 cd fd bd 2f a3 51 be 12 f1 1e bd 28 ca d4 3d
       -0.123927176 -0.20472406 -0.03880412 0.10390121
000200 a5 89 30 be 61 0b 04 3e c4 d2 2c 3e 2a c0 d0 3c
       -0.17240007 0.12894966 0.16877276 0.025482256
000210 a6 74 ea 3d 59 1c 1d 3e 95 30 33 3e b5 de 36 bd
       0.1144803 0.15342845 0.17499001 -0.044645984
000220 0d 3b 20 3e 02 7b 44 3e 5a 49 c0 bd 90 9c 02 bd
       0.15647526 0.19187549 -0.09388991 -0.03188759
000230 56 93 2f bd 75 f4 0f bd a8 b1 c5 3d a7 ac 37 3e
       -0.04286512 -0.03514524 0.09653026 0.17936955
000240 a6 94 ad 3d 86 d8 9d 3d 8e 50 87 bc c6 e7 66 3d
       0.08475618 0.07707314 -0.016517904 0.05637338
000250 7c d6 b3 3c 32 cd 22 3e
       0.02195286 0.15898588

weight f4 [6]
000000 bb e3 7f 3f b2 95 7e 3f 27 27 81 3f 99 a3 7e 3f
       0.99956864 0.99447167 1.0090073 0.9946838
000010 5e dd 7e 3f 0b ff 80 3f
       0.9955653 1.0077833

bias f4 [6]
000000 be 1d c5 ba 2d c5 1f bb 37 55 1a 3c e2 38 1f 3c
       -0.0015038771 -0.0024379 0.009419731 0.009718152
000010 cb 0a b7 3b bc 63 d8 3b
       0.0055860034 0.006603686

running_mean f4 [6]
000000 29 66 bd ba 4f 05 b4 3a f2 e2 ae ba 14 ec f8 b9
       -0.0014450002 0.0013734492 -0.0013342781 -0.00047478138
000010 c7 8f 2e 3b 90 61 e4 3b
       0.002663599 0.006969638

running_var f4 [6]
000000 8a d9 0b 3f 6c 9a 19 3f 3f 05 16 3f ae 38 0d 3f
       0.54628813 0.60001254 0.58601755 0.5516461
000010 c4 b5 23 3f b2 9e 99 3f
       0.6394923 1.2001555

weight f4 [18, 6, 5, 5]
000000 c0 49 1b 3d 9e b0 a6 bc 9a 84 37 bc a9 a3 29 3d
       0.03791213 -0.02034789 -0.011201048 0.041415844
000010 59 46 49 3d 0f de 83 3c d8 b6 b4 3c 34 75 6c 3d
       0.049139354 0.016097097 0.022059843 0.05772896
000020 f2 20 5e bd c3 08 79 bc 16 5a 8d bd 34 c5 c4 3c
       -0.054230638 -0.015199843 -0.06901948 0.024019815
000030 e5 c7 a7 bd 42 0d 8e 3d 03 90 85 bd bf 65 53 3d
       -0.08192424 0.069361225 -0.06521609 0.051610705
000040 6b 4d 5e bd 19 ea 94 bd c7 5f 82 bd d7 fe aa 3d
       -0.05427305 -0.07271213 -0.06365924 0.08349388
000050 76 83 a1 3d 57 d4 8f 3d 00 68 9c ba ba 6d 67 bd
       0.07886402 0.070229225 -0.001193285 -0.056501128
000060 23 5e 9b 3c a7 db 93 3c 7f 5f 69 bd 3d db 68 3d
       0.018965786 0.018049074 -0.056975838 0.056849707
000070 3a 5f 2b 3b f7 d0 4d 3c 79 7c 34 bd 82 d3 97 bc
       0.0026149289 0.012562028 -0.04406402 -0.018533472
000080 4b 51 c4 3c 58 2c b5 bc ec 85 21 3d 65 21 a9 3d
       0.023964545 -0.022115871 0.03943436 0.082583226
000090 3e 75 68 3d 43 b6 90 bd 27 1d 9e 3d 26 79 12 3d
       0.056752436 -0.07066014 0.07720404 0.035760067
0000a0 b8 b6 3f 3d 36 89 3d 3d f8 f1 a9 b9 45 8d d3 3c
       0.046805114 0.046273433 -0.00032414473 0.025824198
0000b0 34 03 b9 3c de 3e 8b bd 03 cb 66 3d 5a 48 d3 bc
       0.022584535 -0.067991 0.05634595 -0.025791336
0000c0 fc c6 1b bd c8 3d c7 bc 9d 41 dd bc ae 42 8d 3c
       -0.038031563 -0.024321452 -0.027008826 0.01724371
0000d0 6b 6c 9c bd 15 33 8b bd ec 17 3f bd 9c 5a 16 bd
       -0.076378666 -0.067968525 -0.046653673 -0.036707506
0000e0 9c 51 fe bc b7 ee 82 bb 2e cd 4c bd a6 cf 5a 3b
       -0.031044774 -0.003995742 -0.050000362 0.0033387928
0000f0 05 30 5e bd f2 d4 0c 3d 49 fe 49 bd ca 6d 80 bd
       -0.054245014 0.034382768 -0.04931477 -0.062709406
000100 f3 53 15 bc fa b4 50 bd 83 b4 25 bd d9 99 57 3c
       -0.009114253 -0.050953843 -0.040455353 0.013159239
000110 7f 62 07 3c 38 07 12 3d e6 b0 7b bc b9 d4 db bc
       0.008263229 0.035651416 -0.015362 -0.026834833
000120 07 7c 45 bd bb 12 85 3c 6b 04 ac b9 da 3f 85 bd
       -0.048213985 0.016244283 -0.00032809688 -0.06506319
000130 6c 07 b1 bc bd e4 9b 3d d1 86 6d bd 12 83 83 3d
       -0.021609984 0.07611988 -0.0579899 0.06421484
000140 a0 ed c5 3c ab 7e d9 3c 07 72 b3 3d 4b 77 51 bb
       0.02416116 0.026549658 0.08761983 -0.0031961973
000150 66 67 b1 3c d7 c6 82 bd db 00 4f 3d 57 af fe bc
       0.02165575 -0.06385582 0.050537925 -0.031089468
000160 00 38 58 bc 3d 99 f5 3b 79 f3 98 3c b0 0f 19 3d
       -0.013196945 0.007495074 0.018670784 0.037368476
000170 8f 31 41 3d 80 62 75 3d 33 4c f8 bc 44 c1 91 3d
       0.047166403 0.05990839 -0.030309772 0.071169406
000180 ae 1f 13 3c cc ab 39 3d 64 b1 e9 3c 06 4d 34 3d
       0.008979721 0.045329854 0.02852697 0.044018768
000190 a0 aa cc ba dd 89 50 bc fc 90 5c 3d 10 56 e6 bc
       -0.0015614815 -0.012728182 0.053849205 -0.02811721
0001a0 e7 d7 87 bd a6 66 63 bd 6a 2c 35 3d dc e9 96 3c
       -0.06632977 -0.055517815 0.04423181 0.01842206
0001b0 c6 7c 8e bd 5c d2 74 bd 50 56 b7 3c 75 c2 d3 bc
       -0.069573924 -0.059770927 0.022380024 -0.02584956
0001c0 e7 26 8d bc 48 fb ad 3c 77 c6 98 3d c5 13 c1 3c
       -0.017230464 0.021237984 0.07459729 0.023568997
0001d0 42 ec eb bc a8 2f 16 bb e2 8e 13 3c 87 2c 90 3d
       -0.02879918 -0.002291659 0.009006234 0.07039743
0001e0 a7 13 04 3d 6f 08 f9 3b 58 73 a4 bd ad 0e 43 bd
       0.032245304 0.0075998823 -0.080298126 -0.047621418
0001f0 c4 a7 a9 bd 03 22 9a bb 53 ef 92 bc a5 2c 96 3d
       -0.08283952 -0.0047037615 -0.017936384 0.07332734
000200 1e 09 9b 3d fe 0a e7 3b 31 58 52 bc 55 94 9e 3d
       0.07570098 0.007050871 -0.012838409 0.07743136
000210 87 95 3a bd db fe 87 3d d7 4c 07 bd de 46 f1 3c
       -0.045552757 0.06640407 -0.033032265 0.029452737
000220 58 85 6a bd 85 1e 07 bd 3f 9b 4a 3d b1 a4 3a bd
       -0.057256073 -0.03298809 0.04946446 -0.04556722
000230 fb 46 27 3d 21 a9 fa 3c 32 1e 94 3d fb e9 90 bd
       0.040839177 0.030598225 0.07232322 -0.07075878
000240 6a 46 76 bd c4 d3 a1 bd 0f 97 90 bd 71 33 fb 3b
       -0.060125746 -0.07901719 -0.07060062 0.0076660444
000250 3a d6 6f bd 3d 7a 89 3d a2 8d c0 bc af 30 69 bd
       -0.05855391 0.06712768 -0.023505036 -0.056931194
000260 84 d7 e3 bc e6 d4 80 3d 7f 6a 73 bd 00 d0 14 3d
       -0.027812727 0.06290607 -0.059427734 0.036331177
000270 05 4c f0 3b 51 b4 67 3d 1b 29 e5 bc d9 e0 12 bd
       0.007333281 0.056568448 -0.027973702 -0.035858963
000280 37 ae 64 3b e5 b0 27 bd 47 70 80 bd 65 13 18 bd
       0.003489388 -0.040940184 -0.06271415 -0.03712787
000290 e0 bb 4f bd 4d 76 90 3d 03 c2 5a bc 5b 7b 64 bb
       -0.05071628 0.07053814 -0.01335192 -0.0034863565
0002a0 69 76 e4 bc 74 ea 48 3c 95 98 83 bd 9c a1 61 bc
       -0.027888494 0.012262929 -0.06425587 -0.013771441
0002b0 28 0f 85 bd 87 46 b3 3c 47 b7 25 3c 07 6d 26 3d
       -0.064970315 0.021884216 0.0101144975 0.04063132
0002c0 44 c0 12 3d e1 37 34 bd e5 48 80 3c 54 38 5b bd
       0.03582789 -0.043998603 0.015659759 -0.053520516
0002d0 f9 7a 32 bd a0 b2 93 bd ea 74 01 bd 25 9b e7 bc
       -0.043574307 -0.072118044 -0.03160564 -0.02827222
0002e0 16 38 21 3d cb 59 a2 bc b4 46 4f 3d 32 e4 83 3d
       0.03936013 -0.019818207 0.050604537 0.06440009
0002f0 00 9a a9 3d 1e 00 ab 3d a5 49 ef bc 98 7c e2 bc
       0.08281326 0.08349632 -0.029209921 -0.027647302
000300 72 c4 c4 bc 59 41 d6 3c 87 35 37 bd 6e e4 b3 bc
       -0.024019454 0.026154207 -0.044728782 -0.02195951
000310 b6 37 3a 3d 38 4c a9 3d 79 30 06 3d 2d cd 2a bc
       0.045463286 0.08266491 0.03276107 -0.010424894
000320 64 84 8a 3d 7d 40 91 bd 0c 3d 84 3d bc b3 b0 bc
       0.06763533 -0.07092378 0.06456956 -0.021570079
000330 ce e0 24 bd 0f 6f 44 3d 64 43 22 3d 49 b6 29 3d
       -0.040253453 0.047957476 0.03961505 0.041433606
000340 56 a8 a5 bb 64 b2 4f bd 4b d0 a6 3d 04 78 4d bc
       -0.0050554676 -0.050707236 0.081451975 -0.012540821
000350 57 cf 9a bd ce 49 ab bd 5b 5b 6e 3d 02 89 0b 3d
       -0.07559078 -0.083636865 0.058192592 0.034066208
000360 03 f4 86 bd 1e 47 8f 3d 19 2b 96 bd 75 ad f7 bc
       -0.0658951 0.069959864 -0.07332439 -0.030234078
000370 1b b3 28 3c cf e4 d8 bb 5a 94 48 3c ca cf 2c bd
       0.010296608 -0.006619073 0.012242401 -0.04219035
000380 52 a6 38 bd fb 38 26 3d 95 94 32 3b 9e 18 fc 3c
       -0.04508049 0.040581685 0.0027249206 0.030773457
000390 7d 7b 88 bd 13 c6 a3 ba 06 16 fe bc 6d 17 5d bb
       -0.066641785 -0.0012494944 -0.031016361 -0.0033735887
0003a0 c8 17 e4 bc 62 7d 01 3d 77 99 8d 3d c6 b1 1b bc
       -0.027843371 0.031613715 0.06914037 -0.009502834
0003b0 9c 2e 86 bd 4a fa 88 3d d3 0e 9d 3d 41 67 7e 3d
       -0.06551859 0.06688364 0.07668843 0.06211019
0003c0 d2 b8 89 bd e2 cd 7b bd a5 f9 8b 3d 4d b4 d6 bc
       -0.06724705 -0.061475642 0.06834725 -0.026209021
0003d0 69 73 8c bd 73 f5 20 3d da 63 e6 bc c4 f2 9d 3c
       -0.0685795 0.03929658 -0.028123785 0.019280799
0003e0 b4 61 06 bd 9a 5c a5 3d b3 2c aa bd d2 ea 7f 3d
       -0.03280802 0.08074303 -0.08309307 0.0624798
0003f0 f1 ea 94 bc c7 6a ed 3c d1 62 3f 3d 03 62 87 3d
       -0.018178435 0.02898158 0.046725098 0.06610491

weight f4 [18]
000000 e3 8e 80 3f 24 ca 7e 3f 4d 05 81 3f 92 33 80 3f
       1.0043606 0.9952719 1.0079743 1.0015738
000010 14 fa 7d 3f 72 a9 80 3f 15 3c 7f 3f d1 0c 7f 3f
       0.99209714 1.0051711 0.9970105 0.9962893
000020 a0 b3 80 3f 50 c5 7e 3f 0a 70 7f 3f 67 18 80 3f
       1.0054817 0.99519825 0.99780333 1.0007447
000030 d1 39 80 3f 32 21 80 3f aa 50 7e 3f a5 36 80 3f
       1.0017644 1.001013 0.99341834 1.0016676
000040 d0 2e 81 3f 3b c5 7d 3f
       1.0092411 0.99129075

bias f4 [18]
000000 c2 68 d1 3b 57 b1 7e ba 86 9a 00 3c 44 36 df 3b
       0.006390662 -0.0009715757 0.007849341 0.006811889
000010 0a b3 cf 3b 2b c2 8b ba 4e 98 c1 3b df 1c 22 bb
       0.006338482 -0.0010662725 0.0059080487 -0.0024736447
000020 7b cd fc 3b 7e 37 97 bb 7e 58 86 3a a0 3d a8 38
       0.007714925 -0.0046147695 0.0010249761 8.022343e-05
000030 64 bd 26 bc ca d4 12 bc 8b 03 56 3a fe 23 92 3a
       -0.01017699 -0.008961866 0.000816398 0.0011149643
000040 fe 6e 5f 3a ee 60 9a bb
       0.0008523314 -0.004711262

running_mean f4 [18]
000000 67 3a 8d bc 58 9e ba bd 49 e9 a9 3b 89 40 8f 3c
       -0.017239762 -0.09112233 0.0051852805 0.017486827
000010 ba b9 73 3e ae 23 b6 be ad dd b2 3c d1 4e 08 be
       0.23801318 -0.35574096 0.021834219 -0.13311316
000020 b9 23 b9 bc 73 32 2d 3e cb 0a 7f 3d c5 42 c6 bd
       -0.022600042 0.16913776 0.062266152 -0.09680704
000030 eb ae 46 3d 39 0e f0 bd a9 84 ed 3c 1a b7 46 3e
       0.04850666 -0.11721463 0.028993921 0.19405785
000040 99 af 91 be af e8 82 3d
       -0.28454283 0.06392037

running_var f4 [18]
000000 12 79 20 3f 15 ac 0d 3f b4 50 1b 3f 0c f3 11 3f
       0.6268474 0.553407 0.6067002 0.57011485
000010 bd 7b 11 3f fe 47 12 3f 4a a9 22 3f 7b b4 33 3f
       0.56829435 0.571411 0.63539565 0.70197266
000020 d0 ce 12 3f 65 ff 15 3f 7d 7d 11 3f bc 99 20 3f
       0.5734682 0.58592826 0.56832105 0.6273458
000030 01 78 14 3f 9f 12 26 3f 28 85 3a 3f ce e9 22 3f
       0.5799561 0.64872164 0.7285943 0.6363801
000040 ce 0c 2e 3f 93 89 2b 3f
       0.6798829 0.67006797

weight f4 [45, 18, 5, 5]
000000 27 f0 1d 3d 8f 9b 44 3c 55 27 09 bc 24 41 30 bd
       0.038559105 0.011999979 -0.008371194 -0.043030873
000010 70 df 3a bd 7a aa 0a 3d d8 62 2b bd ed 39 15 3d
       -0.045623243 0.033853985 -0.04184231 0.036432195
000020 2a 27 2d bd e0 58 f9 3b 1f 45 84 3c 8b 25 8a bc
       -0.042273678 0.0076094717 0.01614624 -0.016863605
000030 14 89 2b bd 77 94 c1 3c b4 9a 1c bd c4 de 11 bc
       -0.041878775 0.023630364 -0.038233474 -0.008903209
000040 09 dc 81 3c 3b c4 58 3c 0c 26 de bb 56 73 88 3c
       0.015851991 0.013230379 -0.006779438 0.016656559
000050 92 b3 02 3c c6 b3 ec bb 17 e5 df bc 30 ec 1f bd
       0.007977383 -0.007223579 -0.027330918 -0.039043605
000060 3d d1 ed 3c 82 2c db bb 5c bf 0d 3c 3b 2b 35 3c
       0.029030437 -0.0066886554 0.008651581 0.01105767
000070 8a 15 3b bd 7d 27 00 3d ea d3 09 3d fc a4 f4 bc
       -0.045674838 0.03128766 0.033649363 -0.029863827
000080 cf f0 f3 3c 57 ef 74 3c f0 48 d4 3c a9 da 2e 3d
       0.029777912 0.014949641 0.025913686 0.042689
000090 13 5f cf 3c d4 e0 27 3c d5 6c c8 3c 83 8c 83 3c
       0.02531389 0.010246474 0.024465958 0.016058212
0000a0 df 87 40 3d 6f 31 5d 3b 1b 05 c1 3b 67 82 33 3d
       0.047004577 0.0033751389 0.005890501 0.043825533
0000b0 1b bd dc bc bb 6e 05 3d 4d 88 f9 bc d7 70 ce 3b
       -0.026945641 0.032576304 -0.030460501 0.0063000727
0000c0 ee 6f cf bc 7e 07 08 3c d1 7c e4 3c 05 16 e6 bc
       -0.025321927 0.0083025675 0.027891548 -0.028086672
0000d0 e7 98 7f bc 6d f2 c6 3c 36 fd 34 3d dd b3 0d bd
       -0.01560042 0.02428552 0.044186793 -0.03459536
0000e0 c1 94 9a bc 95 41 55 bc f6 d9 b6 3b 61 d3 49 3d
       -0.01886976 -0.013016124 0.005580182 0.049273852
0000f0 71 c4 bd 3b 1b 20 14 3b 23 03 11 bd 16 c2 12 bd
       0.00579124 0.0022602144 -0.035403382 -0.035829626
000100 b2 4b 51 bc 82 01 20 3d 1b cf dc 3c 65 84 0e 3d
       -0.012774395 0.039063938 0.026954224 0.03479423
000110 97 27 88 3c 04 3d 03 3c 30 44 c7 bc eb 92 53 3c
       0.01662044 0.008010153 -0.024324507 0.012913446
000120 c7 ea b6 ba 49 6d ab 3c 9d ee 10 bd 6e d6 88 3b
       -0.0013955467 0.020926135 -0.03538381 0.0041759526
000130 b1 c5 71 bc 7c ff 1d bc 77 bd 24 bd a8 82 9e 3c
       -0.014756606 -0.009643432 -0.04021975 0.019349411
000140 ee 68 50 bc fd e6 fe 3c 02 e1 4b 3d 0d b2 30 bc
       -0.01272033 0.031116003 0.04977513 -0.010784638
000150 89 8a ee 3a 7b d5 2b 3d ae 02 22 bc 4d ca 18 bd
       0.0018199246 0.041951638 -0.009888334 -0.037302304
000160 88 13 1a bd d4 7a 95 bb 48 c9 e6 3c f0 55 82 3b
       -0.037616283 -0.0045617614 0.02817215 0.0039775297
000170 6a be af bc 75 cd e7 3c 75 1b 69 3c 47 7f bb 3c
       -0.021453101 0.028296212 0.014227738 0.022887839
000180 70 aa 82 bc fb 6e 46 3d 34 18 e2 3c 4f ee fb 3c
       -0.015950412 0.048445683 0.027599432 0.030753283
000190 77 6b 28 bd b0 b1 23 bd 5f 9c fd bc 08 58 6c bc
       -0.04111811 -0.039964378 -0.030958353 -0.014425285
0001a0 82 ec fe bc 8d 14 85 bc 48 43 38 bd ad 05 2e bd
       -0.031118635 -0.016245151 -0.04498604 -0.04248588
0001b0 5e d9 d8 bc be 2a fb 3c ac 2b 03 bd f6 5d 50 bb
       -0.026470836 0.03066003 -0.03202407 -0.0031794286
0001c0 08 04 eb 3c c3 a5 13 3d 87 1f fa 3b e0 c0 18 bb
       0.028688446 0.036046755 0.007633153 -0.0023308322
0001d0 2c 40 ca 3b 02 19 c8 bc 90 d1 a9 bc 9d 55 02 bc
       0.0061722007 -0.024425987 -0.02072981 -0.007954982
0001e0 5f 91 86 bb 65 80 39 bd 50 a9 16 3d d7 33 b6 bc
       -0.004106685 -0.045288462 0.036782563 -0.022241516
0001f0 34 82 3f bd d1 7e c4 3b fe c4 b2 3c 78 a0 d5 3c
       -0.04675503 0.005996563 0.021822449 0.026077494
000200 00 ab 6f 3c b5 0c 38 bd c4 c8 f0 3c 2c ad fd 3b
       0.014628172 -0.044933993 0.029392608 0.007741591
000210 45 5a 09 3d 89 96 4c bc c0 6a e0 3c a8 d0 51 3d
       0.033533353 -0.012487062 0.027394652 0.05122438
000220 98 ee f0 bc d3 55 56 3d 90 ae 2b bc 4f 5e 93 3c
       -0.029410645 0.052327942 -0.010478631 0.017989306
000230 9d 6d e2 3c 27 a3 8a bb 71 25 de bb 37 7d 5f 3c
       0.027640158 -0.004230875 -0.0067793657 0.013640693
000240 7c 63 a7 ba 40 41 89 bc 57 6f 39 bd cc 20 65 3c
       -0.0012770738 -0.016754746 -0.045272198 0.01398487
000250 6c 13 77 bc 6c 10 ba 3c 0f 22 37 3d 1c 5d 0c 3d
       -0.015080314 0.022712909 0.044710215 0.034268484
000260 a2 5a 00 bd 5f d3 3b bd b7 72 eb 3b fa 89 f5 bc
       -0.031336434 -0.045855876 0.007185306 -0.029973019
000270 25 75 07 3d bd ec 57 3c cb d1 b7 3c 18 95 8e 3c
       0.033070702 0.013179001 0.022438904 0.017405078
000280 f2 96 f2 3c e1 98 15 bd d5 5f 84 bc c8 ae a2 bb
       0.029612992 -0.03652275 -0.016158978 -0.004964683
000290 ec 9f 81 3b bf 60 5c bd 04 52 9f 3a a9 7c b1 3c
       0.0039558318 -0.0538032 0.001215518 0.021665888
0002a0 68 54 af 3c 10 5c cf 3b 69 ce 1b bd 26 e6 b7 bc
       0.021402553 0.0063281134 -0.038038645 -0.02244861
0002b0 51 e0 3c 3c 0d 69 69 bc e3 a7 65 3b 59 21 30 3d
       0.011528091 -0.014246237 0.0035042695 0.043000553
0002c0 94 00 03 bd 16 dd c7 3c f5 a7 3e 3d 77 7b 72 bc
       -0.031982973 0.024397414 0.046546895 -0.014799944
0002d0 75 c4 95 3c 6e 66 e7 bc a6 8c a9 3c 4b 94 39 bd
       0.018282155 -0.028247084 0.02069695 -0.04530744
0002e0 5c a4 42 3d 48 9a 3c 3c 74 c8 f4 bc fa e6 3c 3c
       0.047520027 0.011511393 -0.02988074 0.0115296785
0002f0 b6 7b 17 3d bf c3 fd 3c 55 fb 35 3d d0 18 3d 3d
       0.036983214 0.030977128 0.044429142 0.04616624
000300 0d 38 97 3b 46 4a 9b 3c 4d f1 f9 3c 41 1c 0c 3d
       0.004614836 0.018956315 0.030510569 0.034206633
000310 55 6e cc bc 7f f9 17 3d 79 08 11 bd cf d8 06 bd
       -0.024954954 0.037103172 -0.03540847 -0.03292161
000320 b8 0a 87 3c d8 1c 50 bc 4d 98 07 bb 59 c4 92 3c
       0.016484603 -0.012702189 -0.0020690144 0.017915891
000330 40 c6 ab 3a 8e 6b 72 bb 53 bc 3f bd 76 86 fb bc
       0.0013105348 -0.0036990377 -0.04681046 -0.030703764
000340 ad 97 83 3c 40 74 9e bc 8a e4 93 3b c8 a1 8c 3c
       0.016063536 -0.019342542 0.004513328 0.017166987
000350 c4 f2 aa 3c f2 f5 0c bd e3 f9 c9 bc 01 83 cb 3c
       0.020867713 -0.03441424 -0.024655288 0.024842741
000360 c4 e3 bc bc 69 6d 94 3c dc e5 a3 bc 40 bf d8 bc
       -0.023057826 0.018118577 -0.020007066 -0.026458383
000370 84 44 3d bc 91 a2 cd bc b7 cd a9 3c 1b 56 d6 3c
       -0.01155198 -0.025101932 0.020727975 0.026164105
000380 dd 58 17 bc 79 05 44 3c 2a a9 0f 3d d2 cf 12 3c
       -0.009237495 0.011964195 0.035073437 0.008960681
000390 d2 62 d8 bc b4 75 3e 3c d7 79 7d bc ac c7 01 bd
       -0.026414309 0.011624742 -0.015470943 -0.031684563
0003a0 0e 51 b7 ba 38 42 10 bd 2c c8 da 3c aa 06 bb 3c
       -0.0013985948 -0.0352194 0.026706778 0.022830326
0003b0 8f 11 15 bd 4e f9 3e bb 97 b3 31 bd b4 77 26 bd
       -0.0363937 -0.0029140296 -0.04338416 -0.0406415
0003c0 9f b8 23 bd 5e eb bf 3c 6c 1d 4a bd 33 0c 47 bc
       -0.03997099 0.023427662 -0.049344465 -0.012148905
0003d0 79 7f d5 bc 05 60 71 3c 6c 05 ba 3c 57 4a 1b 3d
       -0.02606176 0.0147323655 0.022707663 0.037912693
0003e0 66 5d 6a bb 12 15 01 bd 83 3d 0f 3d 5e a2 cc 3c
       -0.0035761236 -0.031514235 0.03497077 0.024979766
0003f0 9d 4c 3a 39 38 e5 f8 3c a2 48 13 3d d1 18 bb bc
       0.00017766883 0.030382738 0.03595794 -0.022838982

weight f4 [45]
000000 79 b7 80 3f 23 9b 80 3f f3 f5 80 3f be b9 80 3f
       1.0055991 1.0047344 1.0075058 1.0056684
000010 1b 81 7d 3f ed c6 80 3f cf 4c 81 3f aa 43 7e 3f
       0.99025124 1.0060707 1.0101565 0.99322
000020 0a a8 80 3f 3e 5d 7e 3f 3e 57 7e 3f a5 f5 80 3f
       1.0051281 0.99361026 0.9935187 1.0074965
000030 82 6d 80 3f d3 31 7e 3f 53 e8 80 3f 80 af 7e 3f
       1.0033419 0.99294776 1.00709 0.9948654
000040 45 d0 80 3f 61 49 80 3f f9 1f 7f 3f e4 0b 81 3f
       1.0063559 1.0022393 0.9965816 1.0081754
000050 16 a5 80 3f 2f 51 7e 3f 3a 35 7e 3f ac ad 7e 3f
       1.005038 0.99342626 0.9929997 0.9948375
000060 38 7f 80 3f b0 cf 80 3f 59 ba 7e 3f 7b 4b 7f 3f
       1.0038824 1.0063381 0.99503094 0.9972455
000070 61 77 7e 3f 92 0e 81 3f 0d aa 7d 3f 0a 71 7f 3f
       0.9940091 1.0082572 0.990876 0.9978186
000080 e3 1e 7e 3f f1 dc 7f 3f 0c d8 7e 3f a7 5e 80 3f
       0.9926588 0.99946505 0.9954841 1.0028886
000090 b0 ad 7e 3f 43 d6 80 3f 68 bc 80 3f cc b6 7f 3f
       0.99483776 1.0065387 1.0057497 0.998883
0000a0 64 e2 80 3f 43 c7 7d 3f 05 7b 7e 3f 79 8d 7d 3f
       1.0069089 0.99132174 0.9940646 0.99043995
0000b0 b7 6f 80 3f
       1.0034093

bias f4 [45]
000000 f2 1c c5 3b 63 58 f0 3b d8 d7 10 3c d6 6e 97 3b
       0.0060154134 0.0073347553 0.008840524 0.004621367
000010 90 51 1b bc c6 5e f1 3b 24 c0 26 3c 2a 64 b7 3a
       -0.009479895 0.007366034 0.010177646 0.0013991643
000020 84 98 36 3b b3 27 d2 bb 85 e1 e2 bb ce fe 29 bc
       0.0027861902 -0.006413424 -0.0069238567 -0.010375692
000030 98 01 4a bb e3 85 22 bc 02 fa 0b 3c 3b 90 ad 3a
       -0.0030823704 -0.009919616 0.008543493 0.0013241837
000040 bf d3 dc 3a db df 62 3b f3 ae b3 bb 99 d6 64 3b
       0.0016847773 0.0034618292 -0.005483502 0.003491795
000050 5f 20 c6 3b 4b e9 ed bb a3 d5 1b bc 31 f8 18 3c
       0.0060463394 -0.0072604767 -0.009511384 0.009336517
000060 e6 d0 04 bc 2b 0b 83 3b 64 99 e3 bb de d3 fd bb
       -0.008106446 0.003999134 -0.006945776 -0.007746204
000070 5e 88 08 bc 4d ff 0a 3c 97 c7 25 bc 0f 6f 00 ba
       -0.008333294 0.00848372 -0.010118387 -0.00048993615
000080 1b fc 13 3c 17 fd c8 3a ad e8 44 3a 92 56 7a 39
       0.009032275 0.0015334216 0.0007511478 0.00023874108
000090 60 e4 7c bb 85 aa d2 bb 35 f3 34 bb 23 af 4f 3a
       -0.003858827 -0.006429019 -0.0027610783 0.0007922521
0000a0 2a de ce 3b 6f 5b 21 bc e3 f0 04 bc 76 e1 91 bb
       0.006313105 -0.00984846 -0.0081140725 -0.004451926
0000b0 35 d0 0b bc
       -0.008533527

running_mean f4 [45]
000000 c0 22 c6 3d cc b2 e9 bb 06 1c 75 be 95 14 b0 3d
       0.09674597 -0.00713191 -0.23936471 0.08597676
000010 7c dd cb 3e 4b 7b 52 3e 83 33 21 be 30 b2 57 be
       0.39817417 0.20554845 -0.15742306 -0.21064067
000020 97 1b 52 bd 48 b3 6e be fa 6b 53 3d 17 fe f0 3d
       -0.051295843 -0.23310578 0.051616646 0.11767214
000030 c5 f1 8c 3e 55 ef 05 bd d4 41 9a bc 61 ac 8c be
       0.27528206 -0.032698948 -0.018830217 -0.27475265
000040 49 e6 2c bd ea b8 49 be 1b a9 f4 3d d7 f1 3e 3e
       -0.042211805 -0.19699445 0.11946317 0.18646942
000050 2f 4e 08 3e 02 d9 ed be 5c 15 83 bd c5 f6 97 3e
       0.13311075 -0.46454626 -0.06400558 0.29680458
000060 2c 19 a8 3e 5f 46 67 3e d4 e5 a8 be 04 4b a7 3c
       0.32831705 0.22585438 -0.32987845 0.020421512
000070 8f 31 ee bc c8 ce 57 3d 75 69 84 3d 4a 99 fe bd
       -0.029076366 0.052687436 0.06465427 -0.12431581
000080 02 dd dc be e0 8e ed bd ea 07 1d 3e af ed 1b 3d
       -0.43137366 -0.11599517 0.1533505 0.03806847
000090 55 d1 37 be 24 96 7e bd 64 80 aa 3d d1 92 e3 bd
       -0.17950948 -0.062154904 0.0832527 -0.111119874
0000a0 a5 f8 b7 bd 3b 80 3c be db cd 87 bd df 89 9e bc
       -0.08982972 -0.18408291 -0.06631061 -0.019352851
0000b0 e6 57 3e 3e
       0.18588218

running_var f4 [45]
000000 3c 8f 38 3f 34 65 23 3f ed 16 1c 3f d8 17 21 3f
       0.7209356 0.638263 0.6097248 0.6292701
000010 39 8c 22 3f fb ef 1f 3f 16 a0 20 3f fd 1f 25 3f
       0.6349521 0.62475556 0.6274427 0.64501935
000020 c9 44 1e 3f 14 da 31 3f 30 fb 20 3f b4 0f 26 3f
       0.6182371 0.69473386 0.6288328 0.6486771
000030 b8 bf 16 3f 39 43 1a 3f 9b 92 1b 3f 4e 42 1a 3f
       0.5888629 0.60258824 0.6077058 0.6025742
000040 fe 8d 1f 3f b2 20 30 3f 85 20 18 3f c5 25 1b 3f
       0.6232604 0.6879989 0.5942462 0.60604507
000050 86 b8 1d 3f 61 77 3e 3f 53 b8 38 3f 85 92 1b 3f
       0.61609685 0.7440091 0.72156256 0.60770446
000060 84 9a 24 3f da fd 5a 3f 1b 7b 27 3f 3d 4f 1c 3f
       0.6429827 0.85543597 0.6542222 0.6105841
000070 01 f3 42 3f e5 c1 17 3f 11 47 53 3f 41 1e 2e 3f
       0.76152045 0.59280235 0.82530314 0.68014914
000080 a0 89 42 3f ab 3d 15 3f 28 9d 16 3f c7 d3 27 3f
       0.7599125 0.5829722 0.5883355 0.6555752
000090 c4 22 1f 3f 9b 08 18 3f d8 b3 12 3f b8 30 20 3f
       0.62162423 0.5938813 0.5730567 0.6257434
0000a0 c7 72 16 3f 43 c7 5a 3f 59 48 1a 3f f5 66 31 3f
       0.58768886 0.854603 0.60266644 0.69297725
0000b0 8e 5c 1b 3f
       0.606881

weight f4 [18, 45, 5, 5]
000000 44 1b e4 bc ca a7 eb bc 42 5a dd bc 4c 22 39 bc
       -0.027845033 -0.028766531 -0.027020577 -0.011299681
000010 a2 a9 19 3c d7 5b 2f ba b1 ec 81 bc ea dc 8a 3c
       0.0093788225 -0.00066894054 -0.015859934 0.016951043
000020 cf ea 82 bc 0e 81 7b bc b5 bd df b9 3e a3 8e bc
       -0.015981106 -0.015350593 -0.00042675217 -0.017411824
000030 d3 83 a9 bc bf 76 2f bc 9c 82 13 bc 28 3b c0 bc
       -0.020692741 -0.010709464 -0.009003308 -0.023465708
000040 81 83 ad bc 32 2e bf 3b 17 0d 40 bc 26 8e b5 bb
       -0.02118087 0.0058343643 -0.011721871 -0.005540627
000050 4a 2d 8e 3c 3b 29 65 bc a8 33 7c 3b de f3 8c 3c
       0.01735558 -0.013986881 0.0038482938 0.017206129
000060 64 0c 5b bc ba 22 d5 bc 99 77 08 bb bb ed 75 bb
       -0.013369653 -0.026017535 -0.002082324 -0.0037525732
000070 44 94 4e 3c 43 4d 82 bc b6 9f d4 bc 65 23 a4 bb
       0.0126085915 -0.015905982 -0.025955062 -0.005009102
000080 d2 df 49 39 e5 a9 0a 3c 57 f6 c0 3c 00 a7 ab 3c
       0.00019252233 0.008463358 0.023554964 0.020953655
000090 7f 24 16 bc 43 7b e6 3b fa 6b ef 3c 2c 1b ab 3c
       -0.009163975 0.007033737 0.029226292 0.02088698
0000a0 a4 d9 a5 3c ff b8 2a 3c 3a 2b fc 3b 45 ca 5f bc
       0.02024538 0.010420083 0.0076955827 -0.013659065
0000b0 61 9c 9b 3b 1e b6 03 bc 0e 74 8a 3c da a0 34 bc
       0.0047488664 -0.008039026 0.016901042 -0.011024678
0000c0 43 15 90 3c 00 72 83 3c 4f da a7 3b 52 c0 b7 3b
       0.017588263 0.01604557 0.00512246 0.005607643
0000d0 46 95 9e 3c 13 ac f8 3c 38 19 3c ba 80 9e b5 3c
       0.019358288 0.030355489 -0.0007175389 0.022170305
0000e0 f7 9a c0 3b 9a d8 d9 3c e0 99 98 3b a1 b5 80 bc
       0.0058778482 0.026592541 0.004657015 -0.015711607
0000f0 63 bb bb bc 95 71 b2 3c 16 22 85 bc c7 10 ba 3b
       -0.022916501 0.021782676 -0.016251605 0.0056782695
000100 b7 60 dc bc 0a aa 95 bc 8a 73 86 3c 2e 8b 86 bb
       -0.026901586 -0.018269558 0.016412515 -0.004105947
000110 1f 64 3a bc e7 fc a2 3c 04 c0 a0 3c d8 9f 18 bb
       -0.01137641 0.019895984 0.01962281 -0.0023288634
000120 a1 3e 9f bc 4c ff cc 3c c8 25 44 3c ee ed 6a 3c
       -0.019439043 0.025024079 0.011971898 0.014338953
000130 d3 ea d8 3c 82 85 71 3c 5b d0 e8 bb 1e 15 30 38
       0.02647916 0.014741303 -0.007104916 4.1981337e-05
000140 91 6f 93 bc c7 98 05 3d 86 44 7c bc 50 d0 ae bc
       -0.017997535 0.032616403 -0.015397197 -0.021339566
000150 4a fa c8 bb 2e 32 f8 3c c3 c6 59 3c 8f 1e 83 3c
       -0.0061333524 0.030297365 0.013292017 0.016005782
000160 bb 87 09 3d 63 69 fa 3b cb c5 17 3c 4d 4c 0e bc
       0.03357671 0.0076419576 0.009263466 -0.008685184
000170 f9 49 81 3c e3 05 8e 3c 6f f6 03 3b e5 ad b7 3c
       0.015782343 0.017336791 0.00201359 0.022421787
000180 d0 29 8b bc 91 0f 87 3c fb 1d cc 3c b8 67 ba 3c
       -0.016987711 0.016486915 0.02491664 0.022754535
000190 4d 31 e3 bc 04 2b 81 3c d5 d6 ec bb 93 0b 34 3c
       -0.02773347 0.015767582 -0.0072277584 0.010989088
0001a0 df f2 20 bc b6 9f 90 3b 48 4a b2 3b 7e b6 cb 3b
       -0.00982353 0.0044135703 0.005440984 0.006216823
0001b0 05 50 5a bc 89 02 e0 3c b7 a7 be bb c5 66 24 bc
       -0.013324742 0.027344959 -0.005818333 -0.010034268
0001c0 77 32 bc 3c 14 5e 53 3c 9e 5f bb bc 98 92 59 bc
       0.022973282 0.012900848 -0.022872742 -0.01327958
0001d0 64 5b 9a 3c 38 27 d3 3c 91 5f e1 3c 1c f2 66 bc
       0.018842407 0.025775537 0.02751139 -0.014095809
0001e0 b9 80 de bc 91 69 0e 3c 07 7d 16 bc 83 29 da bc
       -0.02716099 0.008692161 -0.009185082 -0.026631122
0001f0 58 d8 0b bd 11 f2 e6 bc f1 42 bc bb c2 a0 b8 bb
       -0.03414187 -0.028191598 -0.0057452847 -0.005634398
000200 07 5f f9 3b c5 fe 68 bc 61 53 84 3c d8 04 b2 bc
       0.007610205 -0.014220898 0.01615304 -0.021730825
000210 dc 2f fa 3c 0f 4f 3e bc 1e e5 0c bc 5e 2d c0 3b
       0.0305404 -0.011615529 -0.008599548 0.005864783
000220 21 72 97 bc c9 93 d7 bc ac a6 a4 3c 58 41 4d bc
       -0.018487038 -0.026315587 0.020099007 -0.012527786
000230 b2 c1 a6 bc c2 e5 0b 3c b6 40 a6 bc 85 72 16 3c
       -0.020356033 0.008538665 -0.020294528 0.009182577
000240 ff 6b 88 3b d2 39 d6 bc e3 62 9f 3c 78 ce 96 3c
       0.0041632648 -0.026150618 0.019456333 0.018408999
000250 67 9d b3 bc 14 b0 fa 3c 0c 61 82 3c 12 4e 25 3c
       -0.021925641 0.030601539 0.015915416 0.010089414
000260 bc 9d d1 bc 18 49 90 3c 99 4a d8 37 aa 66 3c 3b
       -0.025587909 0.017612979 2.5783944e-05 0.0028747716
000270 9b 80 a4 bc 98 c3 b7 bc ab a1 44 3c 8b 89 a1 3b
       -0.020080855 -0.022432134 0.012001435 0.0049297265
000280 a6 6b 6b 3a 78 f5 5e bc fe 7c 8b 3a 09 d8 7e bc
       0.00089805794 -0.013608329 0.0010642109 -0.0155544365
000290 08 32 50 bc 2c 20 5d bc ca 27 17 bd c8 50 f3 bc
       -0.012707241 -0.01349644 -0.03690318 -0.029701605
0002a0 ba dd b2 bc 69 98 b5 bc 30 1c fe 3b d4 75 f6 bc
       -0.021834243 -0.022167401 0.007754825 -0.030085482
0002b0 53 e7 f1 bc 45 7e fe bb e0 60 15 bd 3e 0b 9f 3c
       -0.02952925 -0.0077665173 -0.03646934 0.01941454
0002c0 6d ef 3a bc 8a 9b 40 bc 8e f2 65 3b e5 52 d5 bc
       -0.011409623 -0.011755833 0.00350872 -0.026040504
0002d0 e5 b7 7d bc b9 7e d8 3c 05 11 13 3c a8 6d 9d bc
       -0.015485738 0.026427614 0.008976226 -0.019217327
0002e0 65 b0 c2 3a cc e1 e2 bb bd 77 e7 bb 1d b2 fd bc
       0.0014853595 -0.0069238897 -0.0070638345 -0.03096872
0002f0 81 85 83 bc 7f 00 75 3c 46 ac 4c ba c1 3e 1b 3c
       -0.01605487 0.014953732 -0.0007807653 0.009475411
000300 79 d9 5c 3c ec b5 ae bc 6a c6 f0 bb c7 65 fe bc
       0.013479584 -0.021326981 -0.0073478715 -0.03105439
000310 ab d2 3a 3c 38 13 07 bd d7 84 dc 3b cc d8 fd bc
       0.011402766 -0.032977313 0.006729703 -0.030987166
000320 9f d6 66 3a e2 d8 33 3b 9f a6 95 bb 2a 73 89 bb
       0.0008805785 0.0027442505 -0.004566982 -0.004194637
000330 45 2c cc 3c 3e e6 1b 3b f0 6f ea 3b 9c 3e 06 3d
       0.024923453 0.0023788358 0.0071544573 0.032774553
000340 85 46 c0 3c 00 90 64 3c 06 f4 55 3c 96 63 cc bb
       0.023471126 0.013950348 0.013058668 -0.0062374575
000350 82 e7 81 bc 56 58 f2 3b 8b 06 d4 bb 32 3b 87 b8
       -0.015857462 0.0073957844 -0.0064705065 -6.4483276e-05
000360 a2 39 5d 3c c1 83 dc bc d9 57 b5 bc 42 8e 15 bc
       0.01350251 -0.026918294 -0.022136616 -0.009128155
000370 96 00 d0 bc 73 cf 01 3c cd ec 98 bc a5 16 e4 3b
       -0.025390904 0.007922995 -0.018667603 0.0069607073
000380 11 ee 37 3b 25 d7 9b bc 16 93 88 bc cb df 01 bd
       0.0028065483 -0.019023487 -0.016671699 -0.031707566
000390 70 a0 1e bb 60 9b d0 bb 00 23 43 3a 8b e2 92 b9
       -0.0024204515 -0.0063661784 0.0007443875 -0.00028016078
0003a0 fc ab 1a bc 6b 76 87 3c 50 8f e4 3c 49 fd c0 3c
       -0.009440418 0.016535958 0.027900368 0.023558276
0003b0 82 41 93 bc 80 c5 9a bc 6c 08 e2 bc e2 c8 9d bc
       -0.017975572 -0.018893003 -0.027591906 -0.019260827
0003c0 d3 f1 bb 3c b6 a2 94 3c 57 73 84 bc 3e 53 5a bc
       0.02294246 0.018143993 -0.01616828 -0.013325511
0003d0 5b 2a 9d 3c f3 6e e2 3b 82 6d fd bc f7 26 94 bc
       0.019185236 0.006910199 -0.030936006 -0.018084986
0003e0 5b de a6 bc 8d 8e 1d bd d3 b1 d7 bc 43 78 fb bc
       -0.0203697 -0.038466025 -0.02632991 -0.030696994
0003f0 77 ab 0f 3c 65 8d a5 3c 76 a8 94 bc c0 d1 76 3c
       0.008768908 0.020209024 -0.018146735 0.015064657

weight f4 [18]
000000 61 77 80 3f 77 bf 7d 3f fc 86 80 3f 08 62 80 3f
       1.0036432 0.9912028 1.0041194 1.0029917
000010 ec 23 7e 3f 2e 75 80 3f 04 7f 80 3f 32 d2 7e 3f
       0.9927356 1.003576 1.0038762 0.9953948
000020 18 e4 80 3f 20 3d 7e 3f 47 91 80 3f f5 5e 80 3f
       1.0069609 0.9931202 1.0044335 1.0028979
000030 c8 2d 7e 3f 75 38 80 3f e1 88 80 3f 37 60 80 3f
       0.99288607 1.0017229 1.0041772 1.0029362
000040 d3 f5 7f 3f c9 a6 80 3f
       0.99984473 1.0050899

bias f4 [18]
000000 a4 e5 8c 39 eb 91 c3 bb 65 ea d1 3b 55 d1 f8 3b
       0.00026873976 -0.0059683225 0.006406116 0.0075933137
000010 4d 87 0e bb 23 c9 09 bb 26 4b f2 bb eb 9e ba bb
       -0.0021748126 -0.0021024428 -0.0073942123 -0.005695214
000020 de 7f fd bb 23 8a 05 3c 54 3a fd 3a 04 e1 a8 3b
       -0.00773619 0.00815061 0.0019319751 0.005153777
000030 c0 c6 bf bb 96 50 97 3b 3d f8 0f ba 73 8a f9 3a
       -0.0058525503 0.004617761 -0.00054920075 0.0019038453
000040 5b 8c 3b 3b 24 2d e6 3b
       0.0028617594 0.007024424

running_mean f4 [18]
000000 56 2b 4c 3e 43 ea 20 3f 60 70 98 3e f2 78 2e 3d
       0.19938406 0.62857455 0.29773235 0.04259581
000010 40 cd 19 bf 6b 8a 97 bd 78 78 ee 3d d3 38 ca be
       -0.6007881 -0.07399448 0.11644071 -0.39496478
000020 f8 bc 09 be 65 da 21 3f 30 41 6d be 6a b8 4e 3d
       -0.13450992 0.6322387 -0.23169398 0.05046884
000030 2e c1 68 bf 9a 1c fc bd ec ef 14 3e 3c 34 45 3f
       -0.9091977 -0.12310143 0.14544648 0.7703283
000040 8d e2 04 3f 77 2d 7f be
       0.5190819 -0.24919687

running_var f4 [18]
000000 f2 ff 58 3f 11 38 48 3f 1f 77 48 3f 2d 8c 2b 3f
       0.8476554 0.7821055 0.78306764 0.67010766
000010 a5 52 b2 3f 0e af 56 3f ec 26 55 3f 20 46 48 3f
       1.3931471 0.8386086 0.83262515 0.78232
000020 8a a8 49 3f 77 f2 97 3f 0d 97 3e 3f 2d d0 1d 3f
       0.78772795 1.1870869 0.74449235 0.61645776
000030 0e 95 bf 3f 16 1f 32 3f f4 68 2c 3f 06 46 96 3f
       1.4967363 0.69578683 0.67347646 1.174012
000040 bc 8f 78 3f bd fb 7f 3f
       0.9709432 0.999935

weight f4 [6, 18, 5, 5]
000000 c7 77 00 3d 9c de 54 3a 5f 64 07 bc 86 ac c6 3b
       0.03136423 0.00081203296 -0.008263676 0.006063047
000010 83 ea 62 bb 41 bc 5b 3d ea a8 6a bc 57 d4 03 bd
       -0.0034624643 0.05364633 -0.014322499 -0.032184925
000020 9e 05 1e bd e9 8d 77 bb 8f 1d 00 3d 47 88 47 bc
       -0.038579576 -0.0037773794 0.03127819 -0.012178487
000030 e8 a2 5c 3c 2d dd 11 bc d0 36 9b bc b4 47 21 3b
       0.013466574 -0.00890283 -0.018947035 0.0024609389
000040 8a 35 f1 bc 46 3b a3 3c 02 88 01 bd a3 fc dc bc
       -0.029444475 0.019925725 -0.031623848 -0.026975935
000050 b4 dc 01 bd da f3 8a bb 39 ce dc bc d4 0e 24 bd
       -0.03170462 -0.004240495 -0.026953803 -0.040053204
000060 25 03 4f bc a5 c7 18 3d b9 b4 28 bd b8 24 c5 3c
       -0.012635027 0.03729977 -0.041187976 0.02406536
000070 6e 25 3e ba db 40 13 3d 2a 96 2f 3c 5c 19 20 3d
       -0.0007253502 0.035950523 0.010716954 0.039086685
000080 cc 9c af 3a 42 45 9f 3c 53 b9 ef bc c1 97 06 bd
       0.001339817 0.019442204 -0.029263174 -0.032859568
000090 7c 2e 53 3d 64 f1 1c 3b ac f2 23 bd f3 f9 e0 bb
       0.051558003 0.002394759 -0.04002635 -0.006865734
0000a0 98 a6 2a bd 80 29 37 bd 92 4e 27 bd f1 7c cc bc
       -0.041662782 -0.04471731 -0.040846415 -0.02496192
0000b0 0b 09 a1 3b 44 91 8e 3c 3a ee 15 bc 24 d7 a1 3c
       0.004914408 0.017403252 -0.009151036 0.019755907
0000c0 4c 13 31 bd 3f ec ce 3c bf 39 ed 3c 4b 19 93 3c
       -0.043231294 0.025259135 0.0289582 0.017956397
0000d0 fb 15 a3 bc 1e 37 b7 bc 7f c9 29 bc 7e 4b 47 bd
       -0.019907942 -0.02236515 -0.010362982 -0.04865598
0000e0 91 20 b6 3c f5 ef 92 3c 71 7a be bc bc 31 33 bd
       0.022232326 0.017936686 -0.023251744 -0.043748602
0000f0 1e 5f 06 bc b0 06 0d bb 25 f1 e9 3c 32 99 48 3d
       -0.008201389 -0.0021518879 0.02855737 0.048974223
000100 66 3d 1e ba 26 0c 05 bc 50 bd d2 bb f2 37 12 bc
       -0.0006036371 -0.008120572 -0.006431259 -0.008924471
000110 ab cc 33 3d 51 57 22 3c 1a 59 38 3c b2 b4 18 3d
       0.04389636 0.009908513 0.011251712 0.0372817
000120 f9 8e 16 3d 74 52 f2 bc 40 b7 f9 bc 61 fc 11 3d
       0.036757443 -0.029580332 -0.030482888 0.035641078
000130 f1 d7 ef 3b 65 10 ad 3a ce a7 4d bc 83 f8 1d 3d
       0.0073194434 0.0013203738 -0.012552215 0.038567077
000140 f8 3b 18 bd d8 14 a6 3c d7 5d 3a bd 0f ad 36 3d
       -0.037166566 0.020273611 -0.04549965 0.044598635
000150 7c 07 04 3d 53 8d d8 bc 28 81 6f 3c 0b f5 6a 3b
       0.0322337 -0.026434576 0.014618196 0.0035851623
000160 98 52 6c bc 84 cb 5e 3c 07 f3 b9 bb c7 7e 15 3d
       -0.014423989 0.013598327 -0.005674723 0.036497857
000170 82 c0 fd ba d8 ed 1d 3d ed 5f 14 3c e8 a0 34 bd
       -0.001935974 0.038556904 0.009056074 -0.044098765
000180 e7 81 d7 bc e9 ab ac 3b 7c 26 93 b9 99 a8 54 bd
       -0.02630706 0.0052695167 -0.00028066698 -0.0519186
000190 d5 f4 a2 bc 18 d7 5f 3c 32 79 2c bd b3 47 ff 3c
       -0.019892136 0.013662122 -0.04210777 0.031162119
0001a0 e5 a3 45 bd 17 3b 2f bd ba f8 60 3c f8 39 21 bd
       -0.048252005 -0.04278096 0.013731176 -0.039361924
0001b0 45 7a 08 bb cd 16 83 3c 50 0e cf 3c ad fc 11 3d
       -0.0020824831 0.016002083 0.02527538 0.03564136
0001c0 ca e3 00 bc 6b 31 ef 3c 35 dc 13 3c 81 f4 35 3d
       -0.007866809 0.029198369 0.009024669 0.04442263
0001d0 5c 5f 05 3d 29 32 03 3d 88 9f a3 3b 1a 75 cd b9
       0.032561645 0.03203026 0.004993383 -0.00039187894
0001e0 50 37 c0 bc 33 10 8e 3a 7c 6f 25 bb ef c1 19 bd
       -0.023463875 0.0010838568 -0.0025243452 -0.037538465
0001f0 61 4a 0d 3d c4 d0 ca 3c 6d e4 a2 3c 6d cf 31 bd
       0.03449476 0.02475775 0.019884313 -0.043410707
000200 e1 0d e3 3c fe 20 00 bd a3 2f c7 bc 90 ba 36 bc
       0.027716579 -0.031281464 -0.024314707 -0.011152878
000210 f7 df b6 3c b1 b5 d0 bb e8 f5 04 ba a4 fe 28 3d
       0.022323592 -0.0063693156 -0.0005072043 0.04125847
000220 2e bb 3f bc 7d 0e ce 3c 16 1a c3 3c fd 47 aa 3c
       -0.011702342 0.025153393 0.02381615 0.02078628
000230 67 da 00 3d 06 b0 38 3d 76 32 89 bc 65 51 cc bc
       0.031458285 0.045089744 -0.016747694 -0.024941156
000240 6e a9 a6 3b 65 b7 f4 3c e8 13 da 3b ca e2 96 bb
       0.0050861156 0.029872606 0.006655205 -0.004604672
000250 cb 76 4f 3c 91 14 1e bd b5 85 5b bd dd 61 42 bc
       0.0126626 -0.038593832 -0.05359431 -0.011864153
000260 d4 27 81 bc 04 22 1a bd 44 0f 2d bc 06 70 30 3c
       -0.015766062 -0.037630096 -0.010562722 0.010768896
000270 15 ec 48 bc fe fe 79 3c e0 ff b8 bb 57 93 f0 3c
       -0.012263318 0.015258549 -0.005645737 0.029367132
000280 da d8 13 3d 3a d9 85 3c 07 63 c4 bb 0b ae 47 3d
       0.036095478 0.016338933 -0.0059932503 0.048749965
000290 45 3c 3a 3d e7 ba 84 3b 01 dc 60 3c d3 12 ab 3c
       0.045467634 0.004050601 0.013724328 0.020883
0002a0 73 4a 59 b9 28 39 d0 bc 07 94 05 3d 24 73 56 3c
       -0.00020722467 -0.02541788 0.032611873 0.013088975
0002b0 ce b9 2d bd 07 48 e2 bc 84 e5 28 bd 10 7f dd bc
       -0.042413525 -0.027622236 -0.04123451 -0.027038127
0002c0 60 06 9c 3c e1 33 bc bc 1f 1a c8 3c 75 da 93 3b
       0.019046009 -0.022973957 0.024426518 0.004512126
0002d0 84 d8 1d bd a5 39 4a bc 0d a7 49 3d f0 8d fa bc
       -0.038536564 -0.012342845 0.049231578 -0.03058526
0002e0 cb 9a 1a bd b5 99 24 3d 0f 0a 1a 3d 53 a2 8f 3c
       -0.03774528 0.04018565 0.03760725 0.017533457
0002f0 ac a2 ff bc 3b 72 ac bc a2 e6 c8 bc d7 69 46 3d
       -0.031205498 -0.021050563 -0.024524037 0.04844078
000300 b2 26 84 3c 6b 7b 41 bb d9 d7 27 3d 14 bc 44 3d
       0.016131733 -0.0029523026 0.040977333 0.048030928
000310 55 0c d2 bc 0e 1b bf bc eb 4f 3a 3d 29 fb 95 bc
       -0.025640646 -0.02332833 0.045486372 -0.018308239
000320 88 5e 46 bd bf 71 a1 bb b1 3a de bc 66 d3 1b 3d
       -0.048429996 -0.0049268897 -0.027127596 0.038043402
000330 c6 32 5f 3c fd 70 9a bc 5e fc 38 bd 36 96 4b bd
       0.013622945 -0.018852705 -0.04516255 -0.0497038
000340 d5 72 02 3d 89 f5 4d bc 9c 0b 38 3d 76 d9 b5 3b
       0.031847794 -0.012570747 0.044932947 0.005549605
000350 c4 2c 0f bd 87 d8 9d bc 92 c5 61 bc bc 23 29 bc
       -0.0349548 -0.019268287 -0.013780015 -0.010323461
000360 95 96 b0 bc c7 44 bf bc 23 af e5 3c 26 d7 0d bd
       -0.021556178 -0.023348225 0.028037613 -0.03462901
000370 88 bd fb bc ec 08 1a bc e5 80 81 bc ee fa 4a 3d
       -0.030730024 -0.009401541 -0.015808532 0.04955571
000380 04 23 40 3c 07 35 a4 3c e3 6b a0 bb 0a 4a cb bb
       0.011727098 0.020044817 -0.0048956736 -0.0062038945
000390 cd d3 96 3c ce e0 1a bd 9d ff a8 3c e5 53 04 bd
       0.018411541 -0.037812047 0.020629698 -0.03230657
0003a0 8c b2 28 3d d5 45 3b 3d b2 e8 d0 bc 88 17 ff bc
       0.0411859 0.045720894 -0.025501583 -0.03113915
0003b0 0d b5 2b 3c cd 4a 13 3c e3 74 0d bd 1e 2c a8 3c
       0.010480178 0.008990002 -0.0345353 0.02052885
0003c0 dc b4 c7 bc c9 3b d8 bc f3 3d 53 bd de bc 57 3b
       -0.024378233 -0.026395695 -0.05157275 0.003291897
0003d0 35 71 06 3d 19 a7 d9 3c b8 3d fb 3b 99 2e 11 bd
       0.032822806 0.026568936 0.0076672696 -0.03544483
0003e0 65 c3 4a 3c 14 2a b0 3b 7d 21 b2 3c 7a 1e 06 bd
       0.012375687 0.00537611 0.021744484 -0.03274391
0003f0 8e 73 15 bd e5 c6 42 3d 68 31 07 3d 33 f3 b4 bb
       -0.036487155 0.04755296 0.0330061 -0.0055221557

weight f4 [6]
000000 03 29 7e 3f 8f 66 80 3f be e7 7f 3f 0b a0 80 3f
       0.9928133 1.0031298 0.99962986 1.0048841
000010 7f 36 7e 3f ea 9b 80 3f
       0.99301904 1.0047581

bias f4 [6]
000000 c6 89 23 bc f4 4d 13 3c 91 a4 bb 3b 1c 41 6d ba
       -0.009981578 0.008990753 0.005726405 -0.00090505346
000010 93 7b 2d bb df d8 9a 3b
       -0.002647136 0.00472556

running_mean f4 [6]
000000 47 27 16 be 32 45 a7 bc 85 63 d8 3d 39 9e 3b bd
       -0.1466342 -0.020418737 0.10565857 -0.04580519
000010 64 1e 1a 3e a9 24 cd 3e
       0.15050656 0.40067032

running_var f4 [6]
000000 08 09 1d 3f 27 d9 2d 3f 8f 7c 20 3f fe 76 24 3f
       0.61341906 0.67909473 0.6269006 0.6424407
000010 81 e2 27 3f f0 82 27 3f
       0.6557999 0.6543417

weight f4 [1, 6, 5, 3]
000000 15 57 dd bd d9 b3 be bd 77 56 73 3c 0b 99 18 3d
       -0.10807625 -0.09311647 0.014852158 0.03725533
000010 31 8d 98 3d fb 21 7e 3d d3 70 fd bc c0 80 47 bd
       0.07448805 0.062044125 -0.030937588 -0.04870677
000020 07 c2 b8 3d 2a a9 e4 bc de d3 9c bd 80 2e ba bb
       0.09021383 -0.027912695 -0.07657598 -0.0056818128
000030 dc e2 bd bd 4f a2 48 bd e1 82 0b bd 70 f9 91 3d
       -0.092717856 -0.048982915 -0.034060363 0.071276546
000040 50 d2 a3 3d 0b 1c 94 bd d5 92 40 bd fb ee 96 bd
       0.07999098 -0.07231911 -0.04701503 -0.07369801
000050 e1 d0 67 3d f6 8d df bc bb 7f ca bc c6 7b 37 3d
       0.056595687 -0.027289372 -0.02471911 0.044795774
000060 3d cb ec 3c 31 7e d3 3d 95 a7 bb bd 6f 1a d6 3b
       0.028905505 0.103268035 -0.09162823 0.006533913
000070 67 0a 9e 3d 6f e3 38 3d 1c 5e 3b 3d 25 12 b4 bd
       0.07716828 0.045138773 0.045744047 -0.08792523
000080 59 3a ce bd 17 c0 bb 3d f2 33 3a bc 46 69 45 bd
       -0.10069723 0.091674976 -0.011364924 -0.0481961
000090 8c e4 93 bd b0 de dd b9 fe 71 99 3d 36 5a 8c bb
       -0.07221326 -0.0004231832 0.074924454 -0.004283215
0000a0 07 47 81 bd 5a 99 a1 3d 1e 90 17 bd 2e a8 d0 bc
       -0.063123755 0.078905776 -0.037002675 -0.02547082
0000b0 4c 3f 15 bd 4d 0b d6 3c 3c 4f c9 bb 69 76 db bd
       -0.036437318 0.026128436 -0.0061434787 -0.10715944
0000c0 d6 a8 71 bc 0d bc 96 bd 84 3f a9 3d cc 93 96 bc
       -0.014749726 -0.073600866 0.08264068 -0.018381022
0000d0 ff f9 97 bd da 7e cc 3d b4 48 60 bc 9f be 62 3d
       -0.0742073 0.099851325 -0.013689209 0.05535757
0000e0 0c 00 49 3d 5d 54 ad bd a4 25 0f 3d dd d6 5d bd
       0.04907231 -0.08463357 0.034948006 -0.054159988
0000f0 44 fe ba bd 68 a5 9d bd 26 4f bd 3d 6d 08 9d bd
       -0.091305286 -0.07697564 0.09243612 -0.07667623
000100 34 c8 63 bb 26 08 6d bd af b6 b2 3d ac 06 4c 3d
       -0.0034756782 -0.0578691 0.087262504 0.04981105
000110 f5 a6 1d 3d 3c aa 04 bb b4 12 a4 bd 49 71 a0 bc
       0.0384893 -0.002024307 -0.0801138 -0.019585269
000120 e8 94 b4 3d db 20 a4 3c b8 92 59 bd a1 91 b8 3d
       0.08817464 0.020035198 -0.053118438 0.090121515
000130 e8 7a d1 bc b2 a2 81 bc 46 e9 7c 3d f7 ea 61 3c
       -0.025571302 -0.01582465 0.061745904 0.01378893
000140 d4 06 33 3c 82 17 ac 3d 2a 7c 89 3d 2a 2a 87 bd
       0.010926921 0.08402921 0.067131355 -0.06599839
000150 37 f1 78 3c b3 a1 22 bd 29 c8 b2 3d 78 e0 47 3d
       0.015194229 -0.03970499 0.08729584 0.048798054
000160 20 f9 c5 3d ab 64 b3 3b
       0.096666574 0.005474647
