source/models/SingleNoteTimbreCNN/model_128_25_0.002.pth (torch, 201935 bytes, 26 tensors)

weight f4 [6, 1, 5, 5]
-0.17137901 -0.13742167 -0.1303523 -0.09339353 -0.08871124 -0.08197946 0.039569777 -0.09817512
0.076013446 0.09548802 0.011958108 -0.1694127 -0.085540764 0.10393626 0.01697744 -0.10217067
0.015084666 -0.1708197 0.014506532 0.17672406 -0.048832193 0.1402632 -0.107421145 0.1498039
-0.0041018645 -0.0300358 -0.10433816 0.092314385 0.107333474 0.07692901 -0.16745815 0.13444887
-0.046821352 -0.17640142 0.14004868 -0.03354116 0.082195796 -0.13348885 -0.08884622 0.04549212
0.05451965 -0.13872287 0.18494107 0.06243278 -0.1686411 -0.19019525 -0.08194327 0.033430558
-0.069593966 0.037034158 -0.1930405 -0.011057966 0.02619489 -0.095898144 0.072737716 -0.0031928925
-0.08988879 -0.010167866 0.045743313 -0.09355459 -0.08413979 0.049594976 0.09544633 0.1780173
-0.050231915 -0.029198544 -0.004527248 0.17111078 0.09143272 -0.15178975 0.10028219 0.034343917
-0.061139356 -0.008855579 -0.15691878 -0.043294135 0.14669059 -0.10791763 0.149713 0.13748947
-0.17723691 -0.013148148 -0.07441431 0.00757772 -0.19839668 0.1991568 -0.06368741 -0.054795347
0.0102897985 -0.1892741 0.19951579 0.023634475 -0.17620714 0.12435931 -0.054621596 -0.043635152
0.12763396 0.1107661 0.07986761 -0.1561399 -0.18012406 0.102725975 0.09042929 0.10432771
0.15924181 -0.073176526 0.07377252 0.08165176 0.15016186 -0.011546472 0.053737294 -0.09027545
0.14452597 -0.056283813 -0.07180757 -0.029731954 0.033118095 0.10488838 -0.110851154 0.070006296
-0.070629306 -0.017432177 -0.03686502 0.08377745 -0.16938357 -0.19526953 0.20818292 -0.035262324
-0.029314995 -0.16615655 -0.17357579 0.09218757 -0.07617121 0.11854794 -0.12529267 -0.08156626
-0.071268134 0.17224254 -0.061680324 0.20994832 0.1707612 -0.16283943 -0.086867616 0.014194901
-0.080512665 0.091630585 -0.11448876 0.05119283 0.18362644 0.10596912
00000000: fb7d 2fbe 44b8 0cbe 137b 05be 1b45 bfbd
00000010: 3dae b5bd d9e4 a7bd eb13 223d 0a10 c9bd
00000020: f0ac 9b3d 398f c33d f1eb 433c 867a 2dbe
00000030: ff2f afbd 89dc d43d 4614 8b3c db3e d1bd
00000040: ad25 773c 5ceb 2ebe ceac 6d3c 27f7 343e
00000050: 4404 48bd 28a1 0f3e 9eff dbbd 3266 193e
00000060: ef68 86bb a30d f6bc 3faf d5bd 530f bd3d
00000070: a7d1 db3d f58c 9d3d 267a 2bbe f7ac 093e
00000080: bfc7 3fbd 93a2 34be ec68 0f3e 7562 09bd
00000090: 4556 a83d 4db1 08be 02f5 b5bd f255 3a3d
000000a0: ff4f 5f3d 5e0d 0ebe 3161 3d3e 84b9 7f3d
000000b0: 41b0 2cbe 8bc2 42be e0d1 a7bd 7bee 083d
000000c0: 4887 8ebd 21b1 173d 69ac 45be 792c 35bc
000000d0: aa96 d63c 3f66 c4bd 83f7 943d d93f 51bb
000000e0: 9d17 b8bd 1f97 26bc 575d 3b3d 8d99 bfbd
000000f0: 7b51 acbd 1a24 4b3d 5e79 c33d 2b4a 363e
00000100: fbbf 4dbd c931 efbc 4f59 94bb aa37 2f3e
00000110: 1441 bb3d c66e 1bbe c060 cd3d 35ac 0c3d
00000120: 436d 7abd fe16 11bc 51af 20be 3155 31bd
00000130: 0f36 163e eb03 ddbd 5d4e 193e 0aca 0c3e
00000140: 987d 35be 546b 57bc 8866 98bd 864e f83b
00000150: 8028 4bbe c3ef 4b3e 8b6e 82bd 1671 60bd
00000160: 8b96 283c 12d1 41be de4d 4c3e 169d c13c
00000170: a56f 34be 18b0 fe3d e5ba 5fbd c6ba 32bd
00000180: 7ab2 023e 56d9 e23d a191 a33d 23e3 1fbe
00000190: 7172 38be ff61 d23d fe32 b93d c4a9 d53d
000001a0: 4910 233e 93dd 95bd 0c16 973d 0a39 a73d
000001b0: 08c4 193e 6a2d 3dbc a31b 5c3d 56e2 b8bd
000001c0: 9efe 133e db89 66bd d90f 93bd 6d90 f3bc
000001d0: d7a6 073d b8cf d63d ee05 e3bd 765f 8f3d
000001e0: 19a6 90bd edcd 8ebc c6ff 16bd 8393 ab3d
000001f0: e372 2dbe bcf4 47be e72d 553e 3a6f 10bd
00000200: 0026 f0bc f124 2abe dabd 31be d6cc bc3d
00000210: a7ff 9bbd 43c9 f23d b94c 00be 360c a7bd
00000220: 07f5 91bd 5960 303e 82a4 7cbd b1fc 563e
00000230: 06dc 2e3e 61bf 26be a6e7 b1bd bb91 683c
00000240: d3e3 a4bd d1a8 bb3d 1579 eabd 93af 513d
00000250: 9208 3c3e 5706 d93d

weight f4 [6]
0.9821399 0.9922552 1.0003006 1.0153767 1.0005538 1.0090908
00000000: 856d 7b3f 7004 7e3f da09 803f ddf7 813f
00000010: 2612 803f e329 813f

bias f4 [6]
-0.026156772 -0.017152535 -0.021526694 0.011553834 -0.036954634 0.010166794
00000000: ba46 d6bc 7983 8cbc c058 b0bc 4b4c 3d3c
00000010: be5d 17bd a092 263c

running_mean f4 [6]
-0.008587782 0.00044870164 -0.004626845 -0.0041693733 0.009470675 -0.0034134055
00000000: c5b3 0cbc b73f eb39 ca9c 97bb 3d9f 88bb
00000010: e42a 1b3c 71b3 5fbb

running_var f4 [6]
0.44125986 0.16040194 0.0471969 0.030005485 0.16972768 0.049320325
00000000: d0ec e13e 6840 243e 8951 413d 10ce f53c
00000010: 18cd 2d3e 1c04 4a3d

weight f4 [18, 6, 5, 5]
0.06688547 0.03268294 0.03342415 0.035440203 0.009966135 0.011058505 -0.068337485 0.053315446
-0.006701419 -0.0017604999 -0.076939546 -0.010766288 0.052472528 -0.0073744375 0.029453171 -0.012095451
-0.09385613 0.047166437 0.04122173 -0.009061436 0.03332219 -0.08424637 -0.0586581 -0.07242612
-0.069934264 0.0024290045 0.06178823 -0.04267574 0.034793664 -0.017391391 0.012319728 0.0018855102
-0.044613745 0.044569757 -0.07032721 0.05648611 0.03856642 -0.053386636 -0.0707064 0.033479102
-0.0560904 -0.03026778 0.039289746 -0.0027815937 0.021315921 0.001162232 -0.05012567 0.012877303
0.036017586 -0.012590367 -0.010581424 -0.024523642 0.044782884 -0.007428266 -0.07857343 0.05918725
-0.0016192681 -0.09175561 0.0304962 -0.05831476 0.053430244 -0.08093275 -0.07319484 -0.04512956
-0.026285773 0.06259959 -0.05134131 -0.06907284 0.005333253 -0.06012748 0.05893916 -0.047714397
-0.011046243 -0.049899165 -0.08075788 0.08054 -8.636763e-05 -0.0098575195 0.05663438 0.07250258
0.00955826 0.025228603 0.05989415 -0.040100202 -0.02507033 0.014530172 0.100707635 -0.021106908
-0.023064766 -0.029721908 -0.08475507 -0.034097355 -0.08827801 0.024461374 -0.007864292 0.0742306
-0.008938232 -0.025048345 -0.032366645 0.050466135 -0.05887045 0.09007194 -0.0058931597 -0.0031332725
-0.039169647 -0.048280574 0.09790592 -0.020021273 0.094480604 0.07905335 -0.04748087 0.031358663
0.05491824 -0.0024742293 0.03906013 0.051653247 -0.03567404 -0.032860648 0.011173703 -0.028257802
-0.033999484 0.0033515962 0.08039169 0.08546089 0.09143465 -0.071517974 0.07725194 -0.0155024
0.01140366 -0.065354206 0.08516877 0.087418675 0.07329516 0.053911064 -0.013566681 0.017499942
0.058373284 0.013602515 0.07844922 0.054430388 -0.028577594 0.03679065 -0.055542856 0.0361356
0.07224319 0.008859404 0.037881948 0.04669145 0.041987263 -0.075061314 0.063052356 0.053118225
-0.031040084 -0.021529686 -0.08544309 -0.086200476 0.04676217 0.05682056 0.059319314 0.016878232
-0.059269752 0.043934833 0.071120776 0.03444228 0.03712513 0.05222589 -0.035766967 0.038085606
0.018447096 0.00079988886 -0.083660945 0.0051155062 -0.006660125 0.043707673 -0.014446954 -0.03547905
0.05094477 -0.012496231 -0.03638147 -0.025386894 -0.031376258 0.023856778 -0.050690033 0.024392083
-0.057291284 0.08149997 0.0932976 0.044133812 -0.046327084 -0.0020222603 -0.028875064 -0.025148997
0.05661503 0.01769199 -0.007491399 0.052111145 -0.07660463 -0.08708204 -0.08306077 0.07183857
-0.04803755 0.037917253 0.040122613 0.0022949658 -0.04986974 -0.05258876 0.056406662 0.08150486
-0.018054752 -0.019099923 0.050454617 -0.032596737 -0.06412975 0.028420923 0.0048176707 0.077452235
-0.07476132 -0.059201103 0.055273026 0.0028014372 -0.06349529 -0.01025901 0.042281147 0.0758449
0.032735955 0.09205694 0.041411452 -0.059820052 -0.058089007 0.007950059 -0.047449708 -0.059747703
-0.08574377 -0.098044865 0.04751712 0.059162546 -0.021092493 0.08362531 -0.009898726 0.07414991
-0.008510861 0.037247702 -0.06614473 -0.00978184 -0.09896494 -0.04169065 -0.05660934 -0.03824137
-0.0024290204 0.0016868358 -0.015861206 0.015232896 -0.044777982 0.021306464 0.042366393 0.06442134
00000000: 40fb 883d 8cde 053d c3e7 083d bf29 113d
00000010: 0049 233c bb2e 353c 86f4 8bbd 4c61 5a3d
00000020: 9497 dbbb 93c0 e6ba 7b92 9dbd 1665 30bc
00000030: 6fed 563d 44a5 f1bb c747 f13c 002c 46bc
00000040: a537 c0bd 9831 413d 1ed8 283d 6b76 14bc
00000050: d97c 083d 5c89 acbd 7a43 70bd 2554 94bd
00000060: b239 8fbd ef2f 1f3b a815 7d3d c2cc 2ebd
00000070: cd83 0e3d 6478 8ebc afd8 493c 3923 f73a
00000080: e7bc 36bd c78e 363d b607 90bd fb5d 673d
00000090: d3f7 1d3d f2ab 5abd 84ce 90bd 6221 093d
000000a0: 0cbf 65bd 23f4 f7bc 49ee 203d 664b 36bb
000000b0: ba9e ae3c 0956 983a 9350 4dbd 53fb 523c
000000c0: 2d87 133d d447 4ebc b65d 2dbc cee5 c8bc
000000d0: 426e 373d d068 f3bb 1beb a0bd 546e 723d
000000e0: 9f3d d4ba 5eea bbbd 2bd3 f93c 75db 6ebd
000000f0: acd9 5a3d 12c0 a5bd 2de7 95bd c6d9 38bd
00000100: 4355 d7bc 3734 803d 444b 52bd 1076 8dbd
00000110: 92c2 ae3b 3c48 76bd 306a 713d 2c70 43bd
00000120: 4dfb 34bc 1163 4cbd 6364 a5bd 28f2 a43d
00000130: 4520 b5b8 6f81 21bc 74f9 673d 3c7c 943d
00000140: 409a 1c3c 37ac ce3c 9153 753d 1c40 24bd
00000150: 4b60 cdbc f50f 6e3c ce3f ce3d 65e8 acbc
00000160: 52f2 bcbc 5c7b f3bc 1194 adbd aba9 0bbd
00000170: 1acb b4bd 3863 c83c 3bd9 00bc 3606 983d
00000180: aa71 12bc 3032 cdbc e392 04bd 94b5 4e3d
00000190: 2422 71bd a377 b83d 681b c1bb 9757 4dbb
000001a0: 5a70 20bd dac1 45bd e682 c83d a703 a4bc
000001b0: 0c7f c13d b9e6 a13d 4d7b 42bd f171 003d
000001c0: f3f1 603d ae26 22bb 84fd 1f3d 5b92 533d
000001d0: f11e 12bd e398 06bd e811 373c e87c e7bc
000001e0: 0b43 0bbd 74a6 5b3b 66a4 a43d 1e06 af3d
000001f0: 1742 bb3d 0478 92bd 4436 9e3d c7fd 7dbc
00000200: 6bd6 3a3c 6dd8 85bd f76c ae3d 9008 b33d
00000210: c61b 963d d9d1 5c3d c946 5ebc 0a5c 8f3c
00000220: d318 6f3d 15dd 5e3c fca9 a03d 66f2 5e3d
00000230: 8f1b eabc cbb1 163d e880 63bd ec02 143d
00000240: 3df4 933d 0927 113c 1a2a 1b3d 893f 3f3d
00000250: d6fa 2b3d bfb9 99bd 9821 813d 7f92 593d
00000260: c647 febc 065f b0bc c9fc aebd e089 b0bd
00000270: b089 3f3d adbc 683d cff8 723d 3844 8a3c
00000280: d7c4 72bd 03f5 333d c5a7 913d 5913 0d3d
00000290: 8510 183d d1ea 553d 6280 12bd a7ff 1b3d
000002a0: 5d1e 973c a2af 513a 6e56 abbd fa9f a73b
000002b0: 2e3d dabb d106 333d ebb2 6cbc 7b52 11bd
000002c0: 77ab 503d febc 4cbc bc04 15bd 2df8 cfbc
000002d0: 6484 00bd 4a6f c33c 5aa0 4fbd e8d1 c73c
000002e0: 44aa 6abd 75e9 a63d d012 bf3d a8c5 343d
000002f0: 78c1 3dbd e687 04bb 668b ecbc 4505 cebc
00000300: 29e5 673d cbee 903c 697a f5bb 7f72 553d
00000310: e3e2 9cbd 1258 b2bd c41b aabd 1a20 933d
00000320: 06c3 44bd 1f4f 1b3d 9c57 243d 2367 163b
00000330: 3644 4cbd 5067 57bd ac0a 673d 05ec a63d
00000340: 8fe7 93bc 7177 9cbc 80a9 4e3d 2884 05bd
00000350: 7556 83bd ffd2 e83c 8ddd 9d3b 479f 9e3d
00000360: 771c 99bd db7c 72bd f865 623d 5198 373b
00000370: d209 82bd 6815 28bc ff2e 2d3d 9254 9b3d
00000380: 2316 063d 5988 bc3d 0e9f 293d df05 75bd
00000390: bdee 6dbd f740 023c a05a 42bd 02ba 74bd
000003a0: 6e9a afbd bfcb c8bd 50a1 423d 6d54 723d
000003b0: 2aca acbc bf43 ab3d 442e 22bc e8db 973d
000003c0: 2371 0bbc 0c91 183d e376 87bd 0344 20bc
000003d0: 21ae cabd d1c3 2abd 32df 67bd fca2 1cbd
000003e0: 3330 1fbb d118 dd3a 5cef 81bc 6693 793c
000003f0: 1e69 37bd e58a ae3c 6288 2d3d 56ef 833d

weight f4 [18]
0.97800934 1.0248601 1.0077413 1.0048252 1.0324947 0.9975455 0.96900743 1.0002844
1.0205047 0.9672423 0.99120516 0.9844242 0.9956403 1.0412151 1.0169809 0.98511934
1.0333406 0.9912794
00000000: d25e 7a3f 9e2e 833f abfd 803f 1d9e 803f
00000010: c928 843f 245f 7f3f df10 783f 5209 803f
00000020: e69f 823f 319d 773f 9fbf 7d3f 3903 7c3f
00000030: 48e2 7e3f 8946 853f 6e2c 823f c830 7c3f
00000040: 8144 843f 7dc4 7d3f

bias f4 [18]
-0.027638212 -0.009278853 -0.030466171 -0.002792809 0.05176903 -0.0005544248 -0.030023646 -0.028663754
-0.0049879644 -0.033891957 -0.03715201 0.011069492 -0.0083805155 -0.016762322 -0.0077019082 -0.026356848
-0.0012834542 -0.03436656
00000000: 8869 e2bc 5506 18bc 3194 f9bc 8f07 37bb
00000010: c30b 543d d256 11ba 26f4 f5bc 40d0 eabc
00000020: 1472 a3bb 4bd2 0abd b52c 18bd d15c 353c
00000030: 6e4e 09bc 2351 89bc 4a60 fcbb 51ea d7bc
00000040: 9439 a8ba f3c3 0cbd

running_mean f4 [18]
0.22247763 -0.21237777 -0.18721397 0.2795245 0.031553846 0.6424292 -0.3574094 0.34712282
0.30888194 0.3273523 0.60148436 0.3004672 -0.24540028 -0.09335853 -0.4446122 0.6738341
0.2696571 -0.29571837
00000000: 2dd1 633e 8f79 59be 05b5 3fbe d61d 8f3e
00000010: 9b3e 013d 3d76 243f 5dfe b6be 15ba b13e
00000020: c625 9e3e b89a a73e e1fa 193f d6d6 993e
00000030: 364a 7bbe c232 bfbd 36a4 e3be 6480 2c3f
00000040: 7f10 8a3e 6668 97be

running_var f4 [18]
0.56655 0.24418376 0.24490142 0.1943966 0.09179464 0.34052268 0.06784335 0.4652318
0.14255668 0.39073318 0.29622892 0.13718407 0.17841965 0.088293634 0.12840521 0.69096154
0.17504722 0.42732427
00000000: 6c09 113f 4f0b 7a3e 70c7 7a3e e70f 473e
00000010: d4fe bb3d fd58 ae3e 74f1 8a3d dd32 ee3e
00000020: 61fa 113e 2e0e c83e 51ab 973e fb79 0c3e
00000030: a4b3 363e 4bd3 b43d a87c 033e dbe2 303f
00000040: 943f 333e 3fca da3e

weight f4 [45, 18, 5, 5]
0.015465971 0.008063615 0.003228785 0.009474459 -0.023302458 -0.027131325 -0.0011348943 -0.0021326276
-0.03505633 -0.0024376216 0.0023879025 -0.0039814184 0.010608307 0.042158138 0.0022431437 -0.0071733217
0.00010868778 0.008304484 -0.026457159 -0.025802918 0.018976625 0.00900607 -0.050618097 -0.062022932
0.023199655 0.061432168 -0.0075167376 0.08317022 0.02361357 0.012057981 0.015406439 -0.035093162
-0.018600872 0.05833563 0.012687503 -0.07224911 -0.055324152 -0.0036576658 -0.03544979 -0.02502419
0.017547483 0.024746606 0.030068932 0.05334486 -0.019486548 0.01933334 0.0077799666 -0.018225435
-0.010394309 0.01681189 -0.07001695 -0.067615606 -0.022859367 0.0038483983 0.007648411 0.015667398
-0.0153911235 0.008659673 0.045893885 0.043950677 0.006362031 0.05838471 0.057631593 0.047800276
0.064237155 -0.031037413 0.01644175 0.009715722 0.0014032656 0.006249189 0.02775347 0.046834316
0.009891041 -0.027627632 0.021897377 -0.041955587 -0.056213073 -0.025713496 -0.016555808 -0.006486493
0.01362479 0.031895768 0.026249966 0.023690298 0.04602729 -0.010022043 0.03380946 -0.000291996
-0.0183157 0.01641925 -0.00621784 0.006914229 -0.04891049 0.0029575913 -0.02294245 0.0053087194
-0.014966941 -0.021474984 0.0038407266 0.0054730317 -0.052153144 -0.01141358 -0.021920146 -0.0056851064
0.06577325 -0.029041378 -0.018554911 0.00020926255 0.00390672 0.015892537 -0.007899158 0.0564994
0.011621499 -0.02520244 0.04139595 0.050351642 0.00370756 -0.011784336 0.015826818 -0.00046288842
-0.041846093 -0.041654516 -0.049010895 -0.044890467 -0.0049924413 -0.012804755 -0.033190016 -0.046732534
-0.01876158 -0.0173397 0.0002983433 0.015130078 -0.014942225 0.03655352 0.020060342 -0.04326098
0.0030203664 -0.058308758 0.0004969815 0.020224962 -0.02692451 -0.049567077 -0.011714969 0.035066012
-0.02935825 -0.011368678 0.0039871284 -0.031932402 -0.0022239094 0.010156565 0.040351 0.010694228
0.05231917 0.056238502 7.2416387e-06 -0.04061955 -0.0353575 -0.028966028 -0.025359021 -0.013963924
-0.011056499 0.00210575 -0.021026097 0.0063392282 -0.020403573 -0.056014743 0.03263511 0.047217987
-0.030177796 -0.055622254 0.06175883 0.013014367 0.027107937 -0.018127877 -0.044035237 0.018964985
0.06348428 0.004042691 0.05738999 0.033548728 -0.034757283 0.037621684 -0.023932824 0.04470597
-0.029247576 -0.027250055 -0.07250153 -0.0058128904 -0.018104475 -0.046562064 0.03243595 0.050324783
-0.041139774 0.0063742185 0.001971658 0.035146546 0.04660676 -0.025411103 -0.030666437 0.027408844
0.0474426 -0.035080776 -0.04183654 -0.01814282 -0.027819598 -0.007675596 -0.047300916 0.0043681674
-0.032713775 0.006467256 -0.027632078 0.016903492 0.029090514 -0.020813847 -0.0026630142 0.003109169
0.031761557 -0.011533364 0.008633243 -0.0073680473 0.020216376 -0.000559019 -0.01617265 -0.053532936
-0.045787215 -0.00019157887 0.045998808 -0.015796887 -0.028856296 -0.024708925 -0.038884036 0.013751657
0.008755397 0.0012120596 -0.0004232243 -0.04144779 -0.025985576 -0.032516185 -0.04839101 0.004551323
-0.03307782 0.016725149 -0.007485846 0.012292986 -0.05440283 -0.024325205 -0.0046667946 -0.013575214
-0.022316273 -0.032469608 0.0011929311 0.029586228 0.039015204 0.056886513 0.0074000736 0.0015571694
00000000: fc64 7d3c 411d 043c 069a 533b c33a 1b3c
00000010: cce4 bebc 8342 debc bcc0 94ba 8ec3 0bbb
00000020: 3a97 0fbd 81c0 1fbb 5b7e 1c3b 8f76 82bb
00000030: 77ce 2d3c 03ae 2c3d b501 133b 2f0e ebbb
00000040: 4fef e338 880f 083c afbc d8bc a460 d3bc
00000050: de74 9b3c 328e 133c ec54 4fbd c20b 7ebd
00000060: 340d be3c 4ca0 7b3d f74e f6bb 2655 aa3d
00000070: 3f71 c13c d78e 453c 4a6b 7c3c d9bd 0fbd
00000080: db60 98bc 57f1 6e3d 3fdf 4f3c 57f7 93bd
00000090: 949b 62bd 73b5 6fbb cd33 11bd 88ff ccbc
000000a0: bdbf 8f3c 65b9 ca3c 1f53 f63c 2480 5a3d
000000b0: 41a2 9fbc f460 9e3c 17ef fe3b 824d 95bc
000000c0: e44c 2abc 17b9 893c 0c65 8fbd 0d7a 8abd
000000d0: 9143 bbbc 6935 7c3b 869f fa3b ea58 803c
000000e0: 0d2b 7cbc 4de1 0d3c 3afb 3b3d a005 343d
000000f0: 9678 d03b ce24 6f3d 1b0f 6c3d 39ca 433d
00000100: c58e 833d 2c42 febc d9b0 863c b12e 1f3c
00000110: c8ed b73a ffc5 cc3b 3f5b e33c 57d5 3f3d
00000120: 080e 223c 5853 e2bc 2162 b33c 9fd9 2bbd
00000130: ae3f 66bd 1ca5 d2bc 0ca0 87bc a68c d4bb
00000140: 833a 5f3c 23a5 023d 2b0a d73c 2812 c23c
00000150: 1d87 3c3d 7f33 24bc ca7b 0a3d 0a17 99b9
00000160: cf0a 96bc aa81 863c 06bf cbbb c290 e23b
00000170: 5e56 48bd 26d4 413b cef1 bbbc c4f4 ad3b
00000180: e737 75bc 4eec afbc b3b4 7b3b 1e57 b33b
00000190: 899e 55bd 0600 3bbc e191 b3bc 214a babb
000001a0: 20b4 863d 2fe8 edbc 7800 98bc 7d6d 5b39
000001b0: f103 803b 1131 823c 786b 01bc ea6b 673d
000001c0: 1a68 3e3c 5975 cebc cd8e 293d 863d 4e3d
000001d0: 89fa 723b 1613 41bc 3ea7 813c d5af f2b9
000001e0: cf66 2bbd ed9d 2abd a6bf 48bd 11df 37bd
000001f0: a297 a3bb 09cb 51bc 41f2 07bd 9d6a 3fbd
00000200: e3b1 99bc fd0b 8ebc f66a 9c39 26e4 773c
00000210: 3cd0 74bc 25b9 153d 9655 a43c 6d32 31bd
00000220: 57f1 453b 2ad5 6ebd dd47 023a d2ae a53c
00000230: ca90 dcbc d906 4bbd 24f0 3fbc 61a1 0f3d
00000240: b680 f0bc b143 3abc 75a6 823b 8dcb 02bd
00000250: 02bf 11bb b967 263c 1747 253d d836 2f3c
00000260: a04c 563d 585a 663d 34fd f236 af60 26bd
00000270: 07d3 10bd 2a4a edbc b9bd cfbc f1c8 64bc
00000280: 5126 35bc 9f00 0a3b ec3e acbc 4db9 cf3b
00000290: 6525 a7bc b76f 65bd 65ac 053d a667 413d
000002a0: 6d37 f7bc 29d4 63bd d4f6 7c3d 363a 553c
000002b0: 7711 de3c ea80 94bc 4b5e 34bd 755c 9b3c
000002c0: 0c04 823d 8d78 843b c411 6b3d 646a 093d
000002d0: a75d 0ebd 3219 1a3d c50e c4bc 9b1d 373d
000002e0: 9d98 efbc 823b dfbc af7b 94bd 0f7a bebb
000002f0: d64f 94bc ddb7 3ebd 8fdb 043d 5c21 4e3d
00000300: 2e82 28bd d2de d03b ef36 013b d3f5 0f3d
00000310: bbe6 3e3d f22a d0bc 2e38 fbbc 8388 e03c
00000320: 2c53 423d dcb0 0fbd cb5c 2bbd 40a0 94bc
00000330: ede5 e3bc 9183 fbbb 9bbe 41bd d822 8f3b
00000340: e1fe 05bd 47eb d33b ab5c e2bc 3179 8a3c
00000350: 3b4f ee3c cd81 aabc f785 2ebb 33c3 4b3b
00000360: 6818 023d 6ff6 3cbc 7272 0d3c a96f f1bb
00000370: d09c a53c 218b 12ba 817c 84bc 5a45 5bbd
00000380: 608b 3bbd 90e2 48b9 3f69 3c3d 7968 81bc
00000390: 0a64 ecbc 5f6a cabc de44 1fbd a14e 613c
000003a0: cc72 0f3c f9dd 9e3a 34e4 ddb9 28c5 29bd
000003b0: b4df d4bc b12f 05bd a735 46bd 4423 953b
000003c0: 9c7c 07bd 2e03 893c d44b f5bb 8568 493c
000003d0: 80d5 5ebd a745 c7bc e9eb 98bb 936a 5ebc
000003e0: 9ed0 b6bc dafe 04bd 205c 9c3a d15e f23c
000003f0: 68ce 1f3d d501 693d 517c f23b ef19 cc3a

weight f4 [45]
1.0187273 1.01192 0.9770786 1.0073214 0.98662335 1.0019498 1.0066319 1.015253
0.9926168 1.0215696 1.0292288 0.9847504 1.0045285 0.9935522 1.0057406 1.0342066
0.98268574 0.9876969 0.9902454 1.0260612 0.9667718 0.9784402 1.0167491 0.9979694
0.9820376 0.99966496 1.0192895 1.0375404 1.008845 0.9812251 1.0003359 0.996903
0.98998487 1.0012863 0.961564 0.9814737 0.97552943 0.9659139 1.0274364 1.0177697
0.9723677 1.031243 0.9906864 0.989017 0.9790323
00000000: a865 823f 9886 813f d321 7a3f e8ef 803f
00000010: 5993 7c3f e43f 803f 50d9 803f cff3 813f
00000020: 221c 7e3f cbc2 823f c5bd 833f 9a18 7c3f
00000030: 6494 803f 7059 7e3f 1cbc 803f e260 843f
00000040: 4b91 7b3f b4d9 7c3f b980 7d3f f955 833f
00000050: 5b7e 773f 0f7b 7a3f d624 823f ec7a 7f3f
00000060: d166 7b3f 0bea 7f3f 1478 823f 20ce 843f
00000070: d521 813f 9131 7b3f 020b 803f 0935 7f3f
00000080: a66f 7d3f 262a 803f 0f29 763f dc41 7b3f
00000090: 4cbc 793f 2246 773f 0983 833f 4746 823f
000000a0: 17ed 783f c5ff 833f a09d 7d3f 3830 7d3f
000000b0: dca1 7a3f

bias f4 [45]
-0.030203026 -0.010168946 -0.026788767 0.006140365 0.015992273 -0.037504043 -0.03348932 0.0127278045
-0.04278767 -0.025659887 -0.011855537 -0.024447434 -0.010971627 -0.020572547 -0.010602891 0.045304462
-0.03354935 -0.030377768 -0.005414522 0.0074682157 -0.008265884 -0.019559586 -0.016975177 -0.025101846
0.01921034 -0.0049128393 -0.028971989 -0.010920241 -0.017664358 -0.011872912 -0.031134294 -0.0071032336
-0.021933915 -0.034110766 -0.058142234 -0.010841275 -0.02110895 0.0050604553 -0.0020533383 0.00059633184
-0.026973024 -0.0031154193 -0.029142162 -0.005490585 -0.018347295
00000000: 566c f7bc a79b 26bc 1e74 dbbc 1d35 c93b
00000010: 3a02 833c d79d 19bd 192c 09bd 4888 503c
00000020: 2042 2fbd af34 d2bc ba3d 42bc fc45 c8bc
00000030: 57c2 33bc c287 a8bc c0b7 2dbc 2c91 393d
00000040: 0b6b 09bd ccda f8bc 4d6c b1bb efb7 f43b
00000050: a16d 07bc 6d3b a0bc 870f 8bbc 63a2 cdbc
00000060: 015f 9d3c e2fb a0bb aa56 edbc cfea 32bc
00000070: d8b4 90bc 9a86 42bc 590d ffbc 3ec2 e8bb
00000080: c1ae b3bc bbb7 0bbd 8d26 6ebd 9a9f 31bc
00000090: adec acbc 2dd2 a53b 4d91 06bb 2753 1c3a
000000a0: 88f6 dcbc 102c 4cbb 8bbb eebc 5eea b3bb
000000b0: 114d 96bc

running_mean f4 [45]
-0.09483725 -2.6921844 0.1854136 -0.55898243 -1.5363624 0.07304989 -0.56878453 0.26268822
0.35455057 0.90814364 -0.17813313 -0.74177605 -0.020698123 -1.5858223 0.6141549 0.1341566
1.0202222 1.8577032 -0.4288058 -0.561594 -0.48564354 0.20284198 -0.9536902 0.18922381
0.6467538 1.6292157 -0.26716882 -0.93853253 -0.4464462 0.38558385 1.5780287 -0.6075836
-0.96794397 -0.0054689343 -0.34478688 -0.9916215 1.2964691 -0.2893199 0.6319451 -0.96424204
-0.73347396 -0.1464669 -1.1461424 -0.5752179 -0.8103367
00000000: 083a c2bd c04c 2cc0 10dd 3d3e 7919 0fbf
00000010: 86a7 c4bf 2e9b 953d dd9b 11bf 127f 863e
00000020: a787 b53e 1a7c 683f 8868 36be 09e5 3dbf
00000030: 1c8f a9bc 3afc cabf 4139 1d3f 5960 093e
00000040: a496 823f 38c9 ed3f 6f8c dbbe a0c4 0fbf
00000050: 45a6 f8be cfb5 4f3e 0a25 74bf e3c3 413e
00000060: a891 253f 248a d03f 5aca 88be ab43 70bf
00000070: 9994 e4be 3f6b c53e d8fc c93f 998a 1bbf
00000080: 2dcb 77bf bf34 b3bb e887 b0be e8da 7dbf
00000090: b3f2 a53f bd21 94be 27c7 213f 91d8 76bf
000000a0: f3c4 3bbf 6bfb 15be cbb4 92bf 7b41 13bf
000000b0: 3a72 4fbf

running_var f4 [45]
0.5163161 0.7710986 0.49986914 0.5055935 0.7784324 1.28019 0.51344347 0.75390327
0.60485274 0.9424441 0.8298753 1.0773915 0.6223618 1.0731862 0.34391794 0.49311268
1.3445146 0.7548175 0.9657777 0.7867017 0.7635148 0.90393704 0.8048529 0.7293765
1.0232638 1.0710201 0.6417376 0.59572095 0.5930442 1.3844085 0.45439875 0.6738818
0.60511565 0.34999087 1.1344467 0.85929567 0.72378093 0.359407 0.90362674 0.7732661
0.6740841 0.3342133 0.46443844 0.7849212 0.60684013
00000000: 4b2d 043f b866 453f d9ee ff3e 936e 013f
00000010: 5947 473f 44dd a33f 0871 033f ceff 403f
00000020: a1d7 1a3f 0444 713f b572 543f f7e7 893f
00000030: 1a53 1f3f 2a5e 893f 0316 b03e 4479 fc3e
00000040: 0e19 ac3f b83b 413f 353d 773f 4865 493f
00000050: b575 433f 6b68 673f d70a 4e3f 6bb8 3a3f
00000060: 4ffa 823f 3017 893f ea48 243f 2b81 183f
00000070: bfd1 173f 4c34 b13f f4a6 e83e 8583 2c3f
00000080: dce8 1a3f 0132 b33e 8d35 913f cdfa 5b3f
00000090: b549 393f 3204 b83e 1554 673f c4f4 453f
000000a0: c790 2c3f 011e ab3e e0ca ed3e 99f0 483f
000000b0: e059 1b3f

weight f4 [18, 45, 5, 5]
-0.024633888 -0.021299247 -0.0011498288 0.00919727 0.018504089 0.015938986 0.0013102825 -0.0035820592
0.024359938 0.008742192 0.0033184772 0.049874943 0.031161837 0.000208198 0.016423186 -0.00016164868
-0.019366859 0.0019177123 -0.04428472 -0.0054652765 0.03928539 -0.0065665524 0.016580408 0.008299169
0.0196334 -0.006954056 -0.016966842 -0.025657281 -0.0056862915 -0.040364806 -0.010205111 0.017406117
0.036527265 0.041900337 0.016137019 0.018969316 0.058320094 0.0015574073 0.02232134 0.015557311
-0.025874045 -0.022059083 -0.034758102 -0.03951738 -0.04747148 -0.034352865 -0.019433716 -0.020048613
0.017921548 0.0070757777 0.00650174 0.026892537 -0.032167044 -0.022634678 -0.032207064 -0.002880413
0.018752066 -0.010593132 0.010124466 0.009582294 -0.010819062 -0.02451866 -0.026912764 -0.02091481
0.01816313 0.006115108 -0.010499984 0.0024116104 0.014053694 0.01978429 -0.0290019 -0.0032047415
-0.015815917 0.012788488 0.012658954 -0.026761144 -0.0066281636 0.0009671534 0.0033875476 0.028419038
-0.011255223 -0.015188746 0.010403755 0.0061605116 0.008588383 -0.015506589 0.014563815 -0.004663958
-0.0038741862 0.017506065 -0.020836685 -0.018163892 0.0117083425 0.005286387 -0.009833398 0.011992513
-0.027668064 -0.002640448 -0.020341417 -0.030659968 -0.012249481 -0.030539416 -0.023224907 0.027980376
-0.012654874 -0.045026604 -0.046639565 -0.04369899 -0.039918374 -0.00015500218 0.008778914 -0.007036243
-0.0017529553 -0.033521734 0.00044378947 -0.016769847 0.043731846 0.0031400104 0.015576353 0.029451678
-0.018897552 0.012307087 0.0019003934 -0.0013714271 -0.021252446 0.034763437 -0.017149255 0.0076838457
0.034325343 0.01933323 0.010537259 0.004398605 0.0066655017 0.010069468 -0.014924033 -0.015714722
-0.02163922 -0.037258804 -0.0015588719 -0.025494114 -0.0058656824 -0.03354642 -0.036455657 -0.015738677
-0.020646758 0.0074099316 -0.002933404 0.0053145667 -0.018066783 0.014627735 -0.004145652 -0.00352638
0.010380253 0.049379565 0.013238504 0.010178979 -0.011620073 0.033804193 0.0063281786 0.033894174
0.046078637 0.027463399 0.016983394 0.057699732 0.07206646 0.03383122 0.01882553 0.027274337
-0.012683795 -0.015394864 0.017222852 -0.024990305 -0.012187163 0.0074354336 0.008704448 -0.00785496
0.025825938 0.043682348 -0.0015360679 0.013731921 0.016808093 -0.027500365 0.03359842 0.0073239678
0.034210537 -0.017129587 -0.03173957 -0.033142187 0.012528146 -0.02304927 0.011559141 -0.016114887
0.015389084 0.03260229 0.027984079 -0.008275702 0.02509738 0.043163624 0.011100236 0.017479492
0.0076619782 0.036003612 0.0036950016 0.033498004 0.007638213 -0.0068687885 -0.0025514094 0.023147898
-0.003597375 -0.007560663 -0.02039739 0.019222973 0.035229214 -0.003410665 -0.028658349 0.009644441
-0.0354188 -0.066732384 -0.027759625 -0.070064306 0.0074732117 -0.049914356 -0.0044507086 -0.0470765
-0.028577203 0.041585226 0.0072236955 0.0124114845 0.024819097 0.01777793 0.019568011 0.026773797
0.060143 0.041541446 0.020530403 0.033066165 0.013003416 0.025985291 0.023509419 -0.00415416
0.025563883 -0.0017823868 -0.011830485 -0.027638063 0.009945171 -0.018197797 -0.026398279 -0.0372659
-0.010247943 -0.029133871 -0.023821745 0.009562299 0.022890488 0.030598225 0.0053021507 -0.0004605859
00000000: 02cd c9bc c27b aebc dab5 96ba 25b0 163c
00000010: e395 973c 7a92 823c c9bd ab3a fbc0 6abb
00000020: 7e8e c73c 693b 0f3c cf7a 593b ab49 4c3d
00000030: 1c47 ff3c ba4f 5a39 eb89 863c 3d80 29b9
00000040: 3fa7 9ebc bf5b fb3a e563 35bd 1016 b3bb
00000050: b8e9 203d 3c2c d7bb a3d3 873c 3df9 073c
00000060: 39d6 a03c dade e3bb 0cfe 8abc 382f d2bc
00000070: 1254 babb 9155 25bd 5633 27bc 4697 8e3c
00000080: 9d9d 153d b09f 2b3d c831 843c 8a65 9b3c
00000090: 0de1 6e3d eb21 cc3a 3edb b63c 17e4 7e3c
000000a0: cef5 d3bc 40b5 b4bc 835e 0ebd fadc 21bd
000000b0: 7471 42bd 97b5 0cbd 7533 9fbc fd3c a4bc
000000c0: 36d0 923c eddb e73b 8c0c d53b bd4d dc3c
000000d0: 97c1 03bd 5c6c b9bc 8eeb 03bd 50c5 3cbb
000000e0: ef9d 993c d18e 2dbc 17e1 253c 0eff 1c3c
000000f0: 6f42 31bc 5bdb c8bc 2878 dcbc 8955 abbc
00000100: d8ca 943c 3e61 c83b 2008 2cbc 1c0c 1e3b
00000110: 7741 663c aa12 a23c 6595 edbc a406 52bb
00000120: 6290 81bc ce86 513c 8067 4f3c 303a dbbc
00000130: 1131 d9bb 9188 7d3a 9e01 5e3b 0bcf e83c
00000140: d467 38bc 38da 78bc 8374 2a3c 1ede c93b
00000150: 4ab6 0c3c 590f 7ebc 119d 6e3c 1ed4 98bb
00000160: 0fe6 7dbb e168 8f3c b2b1 aabc 71cc 94bc
00000170: 59d4 3f3c 6e39 ad3b 431c 21bc 3f7c 443c
00000180: 23a8 e2bc 5e0b 2dbb 0ba3 a6bc 9d2a fbbc
00000190: 0cb2 48bc cc2d fabc 2942 bebc 1a37 e53c
000001a0: 6356 4fbc d16d 38bd 2109 3fbd b6fd 32bd
000001b0: 7381 23bd 1588 22b9 6fd5 0f3c 4990 e6bb
000001c0: 6bc3 e5ba 164e 09bd 6aac e839 eb60 89bc
000001d0: 2a20 333d a2c8 4d3b f633 7f3c a544 f13c
000001e0: 0acf 9abc aaa3 493c 9f16 f93a 75c1 b3ba
000001f0: 9c19 aebc 1b64 0e3d 987c 8cbc c5c8 fb3b
00000200: bb98 0c3d b960 9e3c 78a4 2c3c 2c22 903b
00000210: 486a da3b 69fa 243c ee83 74bc 29bc 80bc
00000220: bc44 b1bc b09c 18bd 1053 ccba 08d9 d0bc
00000230: e934 c0bb f967 09bd 8752 15bd 66ee 80bc
00000240: 6423 a9bc 03cf f23b 5a3e 40bb d125 ae3b
00000250: ca00 94bc 2ba9 6f3c 40d8 87bb d71a 67bb
00000260: f011 2a3c 3a42 4a3d 4fe6 583c bbc5 263c
00000270: 1e62 3ebc 4476 0a3d 9c5c cf3b 9ed4 0a3d
00000280: f4bc 3c3d ecfa e03c c220 8b3c 8e56 6c3d
00000290: 9597 933d 9b92 0a3d ff37 9a3c 6e6e df3c
000002a0: b1cf 4fbc bd3a 7cbc f016 8d3c 78b8 ccbc
000002b0: abac 47bc f0a4 f33b 1a9d 0e3c 17b2 00bc
000002c0: eb90 d33c 43ec 323d e355 c9ba dafb 603c
000002d0: 20b1 893c 7248 e1bc 7f9e 093d e5fd ef3b
000002e0: 5920 0c3d 5953 8cbc 5a01 02bd 1ac0 07bd
000002f0: da42 4d3c d3d1 bcbc 8d62 3d3c 5e03 84bc
00000300: 7f22 7c3c fb89 053d de3e e53c cf96 07bc
00000310: 0599 cd3c 57cc 303d c4dd 353c 2731 8f3c
00000320: 5511 fb3b 8678 133d d727 723b 3435 093d
00000330: fa49 fa3b 9313 e1bb 8c35 27bb a9a0 bd3c
00000340: f0c1 6bbb 70bf f7bb 6d18 a7bc 7f79 9d3c
00000350: 824c 103d 7785 5fbb eac4 eabc b803 1e3c
00000360: 4e13 11bd fdaa 88bd 2768 e3bc e07d 8fbd
00000370: d8e1 f43b ff72 4cbd 40d7 91bb 4ad3 40bd
00000380: bd1a eabc 4555 2a3d c0b4 ec3b 8a59 4b3c
00000390: 6b51 cb3c 05a3 913c 184d a03c b954 db3c
000003a0: 8258 763d 5d27 2a3d 602f a83c 6370 073d
000003b0: 480c 553c 1bdf d43c d396 c03c 9f1f 88bb
000003c0: 596b d13c fa9e e9ba a7d4 41bc 3869 e2bc
000003d0: 12f1 223c 8c13 95bc 3441 d8bc 21a4 18bd
000003e0: fde6 27bc 28aa eebc d225 c3bc 30ab 1c3c
000003f0: d584 bb3c 21a9 fa3c aabd ad3b cb7a f1b9

weight f4 [18]
1.0019648 0.967348 0.99784106 1.0114536 1.0080152 0.99695015 0.9633874 1.0021689
1.0040963 0.986986 0.9768236 1.0101823 1.0203292 1.0239674 0.9926812 0.9814138
1.068491 1.0170006
00000000: 6240 803f 1ea4 773f 8372 7f3f 5077 813f
00000010: a406 813f 2038 7f3f 8fa0 763f 1247 803f
00000020: 3a86 803f 1dab 7c3f 1d11 7a3f a74d 813f
00000030: 269a 823f 5d11 833f 5b20 7e3f ef3d 7b3f
00000040: 50c4 883f 132d 823f

bias f4 [18]
-0.018174466 -0.029908927 -0.011910239 -0.0025932791 0.004384299 -0.015270933 -0.028586913 0.0058920295
0.0040408205 -0.0010860366 -0.030324245 -0.018800138 0.046804816 -0.0009444994 -0.0025875028 -0.042844426
0.037492078 0.009853461
00000000: 9ee2 94bc 9103 f5bc 2a23 43bc 01f4 29bb
00000010: 2aaa 8f3b ef32 7abc 1a2f eabc ed11 c13b
00000020: dc68 843b 5759 8eba 8d6a f8bc bf02 9abc
00000030: 68b6 3f3d 4898 77ba 1893 29bb a37d 2fbd
00000040: 4b91 193d 6970 213c

running_mean f4 [18]
0.84095085 -2.8317783 1.0652127 -0.99345106 0.10604783 -1.1277807 2.8457806 1.1714137
2.2898042 -1.8314296 -1.5377827 -1.7912877 0.21404424 -0.33935535 2.3708978 0.88923955
-1.383319 -2.0362267
00000000: 8e48 573f db3b 35c0 e458 883f cf52 7ebf
00000010: 9b2f d93d 1e5b 90bf 4521 3640 e2f0 953f
00000020: 278c 1240 496c eabf 10d6 c4bf ea48 e5bf
00000030: 6a2e 5b3e fcbf adbe cabc 1740 34a5 633f
00000040: 9910 b1bf 8a51 02c0

running_var f4 [18]
4.050568 6.4310527 1.904472 2.076995 2.7778292 3.2126644 2.9683025 3.374698
4.8983936 3.072344 3.6269443 1.845397 1.1464922 4.3960395 4.3748536 2.009423
1.3363416 1.7765921
00000000: 419e 8140 2fcb cd40 bdc5 f33f 7ced 0440
00000010: f4c7 3140 4b9c 4d40 abf8 3d40 0dfb 5740
00000020: a4bf 9c40 49a1 4440 db1f 6840 f835 ec3f
00000030: 42c0 923f 5bac 8c40 cdfe 8b40 639a 0040
00000040: 3e0d ab3f 5f67 e33f

weight f4 [6, 18, 5, 5]
0.024832873 0.02720772 -0.04004159 -0.07330593 0.0030285558 -0.018501163 -0.00043354923 0.012774784
2.4921039e-05 -0.039248068 -0.051576093 0.023253094 -0.031645104 -0.020762555 0.015066286 -0.023835117
-0.011056017 -0.030507548 0.024386734 -0.0016647397 0.013051816 0.004969921 -0.032054886 -0.06266433
-0.05413454 -0.04868488 -0.04139461 -0.04961088 0.014040568 -0.04273658 -0.0079936925 -0.018243225
-0.01822733 -0.042211596 0.006746338 -0.0141122 0.029440755 -0.047560174 -0.018215826 -0.010078355
0.04698658 0.025000375 -0.028197745 -0.05349419 0.016913682 -0.042994164 -0.04297234 0.021797108
0.004866425 -0.024951218 -0.016707927 -0.062161632 -0.018721083 -0.008917303 -0.02469972 -0.051247057
0.029258605 0.029106947 0.017750356 -0.0031367582 0.028822877 -0.0636414 -0.010040455 -0.018501436
0.037240785 0.00494396 -0.040488098 0.019581132 0.015022689 -0.0011870192 -0.03711354 0.023668688
0.059795056 0.021975294 0.020277778 0.051473744 -0.016156005 -0.011230842 0.002258474 0.014245106
0.030609204 0.008495132 -0.022878362 -0.034248658 0.04135436 -0.042455703 0.019533738 -0.02182106
0.055548754 -0.0023788179 0.019431015 0.046510786 0.0022337958 0.016808355 -0.048414167 0.0108168125
-0.024408672 -0.037530906 0.023501232 -0.074099794 0.025259292 -0.020455033 -0.047994863 -0.010473216
-0.007960219 -0.0031774917 -0.018805593 -0.015501968 -0.017716954 -0.01684162 -0.045385264 0.0530364
-0.022028089 -0.008536634 0.008540744 -0.03250687 -0.038861666 0.0075228633 0.0100116115 0.04543288
-0.005304594 -0.02119384 0.030843293 -0.042016543 -0.0002895935 0.07402948 0.04503479 0.009124544
-0.036175035 -0.03368806 -0.023117984 -0.00037343559 -0.044798438 0.0008725654 0.022491831 0.040206634
-0.033528164 0.0024943568 -0.04044219 -0.013494116 0.046673145 0.030659437 0.036597036 0.035805747
0.0376711 0.0113952495 0.03465775 -0.05028571 -0.014777982 -0.061152194 -0.014769725 0.01518171
0.00092104 -0.019200625 -0.01987632 -0.007445665 -0.027685147 -0.043651555 0.0244861 -0.033188414
0.03143481 -0.0298196 -0.015338856 0.028504714 -0.0011092937 -0.05470886 -0.021905044 -0.04799426
-0.054066345 0.017029546 -0.004111008 -0.005672903 0.012932211 0.033119485 0.0033918743 -0.016378699
-0.072611615 -0.031615447 0.008338408 -0.047843922 0.03818561 -0.023036841 0.029519867 -0.012737554
0.05522267 -0.029282713 0.01614867 -0.0040245303 0.010353279 0.033092164 0.03373216 -0.023563053
-0.021474453 0.008579841 -0.04331907 0.033099554 0.045781482 0.05762199 0.05308291 0.008603533
-0.036321342 0.0049255188 -0.010492908 0.023003189 0.043448016 -0.019443907 -0.041696593 -0.02108175
0.045668982 0.019712267 -0.032555427 0.039365146 0.05483167 0.041534 0.030648744 0.034523875
-0.00423811 -0.027539648 0.0063248016 0.019082595 0.009068239 0.0068753078 -0.047822297 0.030086514
-0.041325625 0.04777752 0.040503934 -0.0014789951 0.05900859 0.011512096 0.006991246 -0.008221832
0.045070905 0.0010391283 -0.030691063 -0.044759706 0.04840213 0.05869466 0.0695778 0.03774969
0.028335143 -0.02743689 0.018132888 0.033807382 -0.036555216 -0.06275278 -0.00027158603 0.0128262825
-0.02701005 -0.06556119 -0.029976187 -0.026770944 -0.06588036 -0.061710835 -0.011421684 -0.010098297
00000000: 4f6e cb3c b9e2 de3c a602 24bd 6b21 96bd
00000010: bc7a 463b c08f 97bc fe4d e3b9 544d 513c
00000020: 860d d137 95c2 20bd 7441 53bd 467d be3c
00000030: 4c9e 01bd 3c16 aabc 95d8 763c dd41 c3bc
00000040: 4c24 35bc f7ea f9bc b0c6 c73c 6533 daba
00000050: 49d7 553c b8da a23b fc4b 03bd 2856 80bd
00000060: 2ebc 5dbd cc69 47bd 658d 29bd c734 4bbd
00000070: 690a 663c 8d0c 2fbd faf7 02bc d172 95bc
00000080: 7b51 95bc 11e6 2cbd 6310 dd3b db36 67bc
00000090: bd2d f13c 75ce 42bd 5b39 95bc af1f 25bc
000000a0: 0075 403d 96cd cc3c f5fe e6bc b91c 5bbd
000000b0: 908e 8a3c a61a 30bd c403 30bd d98f b23c
000000c0: 8876 9f3b 7f66 ccbc 10df 88bc 329d 7ebd
000000d0: f55c 99bc e119 12bc 1157 cabc 6fe8 51bd
000000e0: beaf ef3c b171 ee3c 3269 913c 1292 4dbb
000000f0: f41d ec3c 6c56 82bd b880 24bc 5390 97bc
00000100: cb89 183d f100 a23b d9d6 25bd 9c68 a03c
00000110: b921 763c c195 9bba 5e04 18bd d6e4 c13c
00000120: a9eb 743d 8805 b43c 951d a63c 22d6 523d
00000130: 9959 84bc 9101 38bc e802 143b 4e64 693c
00000140: 27c0 fa3c 2b2f 0b3c 676b bbbc 5248 0cbd
00000150: 3063 293d 08e6 2dbd 3805 a03c 14c2 b2bc
00000160: 1787 633d f1e5 1bbb cb2d 9f3c 1882 3e3d
00000170: e064 123b adb1 893c ef4d 46bd 0039 313c
00000180: b2f4 c7bc 02ba 19bd a885 c03c a2c1 97bd
00000190: 93ec ce3c 5091 a7bc 4396 44bd da97 2bbc
000001a0: 946b 02bc 773d 50bb 300e 9abc f7fb 7dbc
000001b0: 2523 91bc 70f7 89bc e6e5 39bd b23c 593d
000001c0: 4074 b4bc 3ddd 0bbc 7aee 0b3c ec25 05bd
000001d0: 692d 1fbd 5a82 f63b be07 243c d417 3a3d
000001e0: 29d2 adbb b49e adbc 13ab fc3c 8a19 2cbd
000001f0: 95d4 97b9 c59c 973d 6676 383d 1d7f 153c
00000200: 462c 14bd 7efc 09bd ed61 bdbc adc9 c3b9
00000210: 917e 37bd dfbc 643a ca40 b83c b6af 243d
00000220: d454 09bd 5d78 233b b6a6 25bd 6d16 5dbc
00000230: 572c 3f3d 8029 fb3c c6e6 153d 0ca9 123d
00000240: 034d 1a3d 24b3 3a3c 49f5 0d3d 63f8 4dbd
00000250: 591f 72bc b97a 7abd b7fc 71bc b5bc 783c
00000260: f371 713a a14a 9dbc aad3 a2bc c4fa f3bb
00000270: f6cb e2bc f9cb 32bd 1397 c83c 93f0 07bd
00000280: cac1 003d 3c48 f4bc d34f 7bbc b882 e93c
00000290: b865 91ba 6616 60bd 3572 b3bc a195 44bd
000002a0: ac74 5dbd 8c81 8b3c a2b5 86bb c2e3 b9bb
000002b0: a0e1 533c 4ca8 073d 354a 5e3b 9f2c 86bc
000002c0: 66b5 94bd 337f 01bd d19d 083c fdf7 43bd
000002d0: 8468 1c3d c2b7 bcbc a6d3 f13c 2cb1 50bc
000002e0: 2b31 623d 4de2 efbc 374a 843c 35e0 83bb
000002f0: cda0 293c a68b 073d bc2a 0a3d 4e07 c1bc
00000300: 31eb afbc 7692 0c3c 566f 31bd 6693 073d
00000310: 5d85 3b3d 0905 6c3d 776d 593d d5f5 0c3c
00000320: b0c5 14bd 3f66 a13b 72ea 2bbc 2f71 bc3c
00000330: 8cf6 313d d448 9fbc 0cca 2abd a2b3 acbc
00000340: 660f 3b3d 9f7b a13c d758 05bd 593d 213d
00000350: 2c97 603d 8e1f 2a3d 1313 fb3c e868 0d3d
00000360: d8df 8abb d49a e1bc 4840 cf3b 1a53 9c3c
00000370: f392 143c 434a e13b 50e1 43bd fe77 f63c
00000380: 0f45 29bd 5cb2 433d 74e7 253d d7da c1ba
00000390: feb2 713d 3b9d 3c3c d216 e53b ddb4 06bc
000003a0: 459c 383d 5c33 883a d36b fbbc f455 37bd
000003b0: 5041 463d d069 703d ce7e 8e3d 6b9f 1a3d
000003c0: 1a1f e83c 54c3 e0bc 6c8b 943c 9c79 0a3d
000003d0: ecba 15bd 8884 80bd a963 8eb9 5425 523c
000003e0: 2e44 ddbc f244 86bd 9f90 f5bc bd4e dbbc
000003f0: 48ec 86bd 80c4 7cbd 0422 3bbc 5473 25bc

weight f4 [6]
1.0023448 1.0162361 1.0136853 0.981636 1.0104795 0.9763089
00000000: d64c 803f 0614 823f 71c0 813f 7f4c 7b3f
00000010: 6457 813f 61ef 793f

bias f4 [6]
-0.013219696 0.041294653 0.012863924 -0.040358666 0.009819059 0.0079243295
00000000: 6c97 58bc 9524 293d 35c3 523c 214f 25bd
00000010: 1ee0 203c 0cd5 013c

running_mean f4 [6]
-0.5613324 -0.11205624 -1.383367 -0.63493913 0.73119986 0.42702302
00000000: 7bb3 0fbf be7d e5bd 2b12 b1bf 5f8b 22bf
00000010: ea2f 3b3f c3a2 da3e

running_var f4 [6]
0.38173053 0.22647186 0.7787948 0.41032866 0.7930221 0.45568675
00000000: 2f72 c33e 3de8 673e 195f 473f 9916 d23e
00000010: 7f03 4b3f c64f e93e

weight f4 [1, 6, 5, 3]
-0.047101557 -0.01651833 0.09852958 -0.075220644 -0.04290546 -0.06643564 -0.0075284042 0.06374599
0.026214782 0.0027486156 0.030030428 -0.050195497 -0.052185673 -0.032873046 -0.09162775 -0.10321456
-0.0046369866 0.12878904 0.0030724932 -0.047581457 -0.0062187873 -0.07719572 0.045647826 0.053896673
-0.008437043 0.051944543 0.027849868 0.00047120688 0.010463306 -0.032682426 0.053744543 -0.10352343
0.05662793 -0.017063001 0.099939294 0.12420977 0.11084254 0.0637254 0.0667713 0.102809325
0.023317946 -0.03811403 -0.016354922 0.027369132 -0.016278453 0.002056065 0.11223368 -0.018920472
-0.040563736 -0.01551551 -0.05449931 -0.11122819 -0.0045034685 0.021008173 -0.056368478 -0.0134221595
0.06330581 -0.013398756 0.031695154 -0.037137214 -0.015155125 0.106359035 -0.004194512 0.01956015
0.026430327 0.08344444 0.08571508 -0.08770974 0.046241898 -0.06982188 -0.037331063 0.0013313876
0.03882008 0.0658161 0.05523895 0.039213613 -0.033269223 -0.06175892 -0.034987625 0.05966319
-0.0006899427 0.0018180341 0.020082671 -0.035491165 0.04337216 -0.07589022 0.10248372 0.025156435
0.032835636 -0.015234327
00000000: 90ed 40bd 7351 87bc e0c9 c93d 480d 9abd
00000010: a3bd 2fbd 690f 88bd d5b0 f6bb 428d 823d
00000020: 62c0 d63c 1e22 343b 5f02 f63c cb99 4dbd
00000030: a5c0 55bd e3a5 06bd 54a7 bbbd 2862 d3bd
00000040: ddf1 97bb 46e1 033e e25b 493b c6e4 42bd
00000050: f8c6 cbbb ca18 9ebd 37f9 3a3d c2c2 5c3d
00000060: 863b 0abc cdc3 543d 6825 e43c 510c f739
00000070: 496e 2b3c 02de 05bd 3d23 5c3d 1804 d4bd
00000080: b0f2 673d b5c7 8bbc f9ac cc3d b161 fe3d
00000090: 6a01 e33d 7682 823d 64bf 883d b28d d23d
000000a0: 4705 bf3c 751d 1cbd c2fa 85bc 3b35 e03c
000000b0: 645a 85bc 0cbf 063b c6da e53d 1bff 9abc
000000c0: 2926 26bd c434 7ebc ab3a 5fbd 9bcb e3bd
000000d0: d591 93bb 5519 ac3c a2e2 66bd 9ee8 5bbc
000000e0: 7aa6 813d 7586 5bbc c7d2 013d 311d 18bd
000000f0: 344d 78bc c4d2 d93d 1e72 89bb 9c3c a03c
00000100: 6a84 d83c ebe4 aa3d 638b af3d 2aa1 b3bd
00000110: 2568 3d3d c6fe 8ebd 75e8 18bd f481 ae3a
00000120: ce01 1f3d 97ca 863d 3d42 623d 749e 203d
00000130: 4f45 08bd ecf6 7cbd 2f4f 0fbd 6461 743d
00000140: 45dd 34ba 1a4b ee3a 6a84 a43c 2f5f 11bd
00000150: 02a7 313d 556c 9bbd fce2 d13d de14 ce3c
00000160: a97e 063d 6699 79bc
