source/models/SingleNoteTimbreCNN/model_segment-velocities_diff-melodies_MIDIsampledseen.pth (torch, 204095 bytes, 31 tensors)

weight f4 [6, 1, 5, 5]
00000000: dd5d b0bd f33a cabd d34c b63d 0b88 083e
00000010: fd23 12be f660 37be a321 13be f20f 413e
00000020: 0d1f 6cbc b20e 183d e6e8 0c3d 9850 163e
00000030: a123 053d 9e4a 633d 07ad ce3d d68e 2ebe
00000040: 1459 573d eb14 093e ae34 dd3d e613 35be
00000050: 4b7a fbbd 5723 32be 899e ec3c 95c3 a93d
00000060: 0151 32be 6348 293d 8d38 8c3d 1df7 1c3e
00000070: 5569 243e e2f3 87bc c3f7 a03d 847c 12be
00000080: d11d cbbd 814a 6cbd 5783 ab3d a012 dabd
00000090: 5e73 a5bd 89b5 d53d ce83 85bd 2068 753c
000000a0: 6e4f 25be a99b 31bd 7f93 2a3d 33b2 333e
000000b0: 36db 093d 8a69 023e b4e6 263e d712 fd3d
000000c0: ae1e 2dbe b264 17be 89e3 7cbd 92d2 a03d
000000d0: 35d6 1b3e 2cb4 333e c88c 39be ad97 113d
000000e0: e4fe 81bc 1188 e43d d621 db3c 143f 41be
000000f0: b0ae 433d 9476 023d e1ce 36be 8649 fd3d
00000100: a050 9a3d 77fc 783d 31a9 3dbe 897e 90bd
00000110: 1177 3bbe f28e 26be 938d 1dbb 26c6 a13d
00000120: 0015 ccbd 6f93 b93d 0fa5 b1bc b261 39bd
00000130: 1fed 313e 55ad cc3d a1e9 0abe c194 d5bd
00000140: d0bb 993d 2d1a 35bb db7a 9d3d 0576 203e
00000150: caa0 c7bd 5d59 70bd 575a 30be ec57 443e
00000160: ad0a 983d 9475 853c 9dd7 fbbd c669 48be
00000170: 65ec 273e c521 dbbd db7c 1f3e bebd 323e
00000180: 2271 a63d 8aeb 243d 870e c8bd 485e 153e
00000190: 4761 303d e9e1 1e3e f879 e03d a935 ca3d
000001a0: 77dc b43d c498 45bd 4999 563d c0de 003e
000001b0: 226e 0f3d 8617 06be d348 29be 01d2 3b3e
000001c0: 9dad 6b3c 0633 35be 9f46 40bc 48f4 84bd
000001d0: 03fd 083e 03d7 1cbd 987e 303d e928 593d
000001e0: dfe7 12bd de4d edbd 594f 473e f6f8 fcbd
000001f0: b4fb 133e 269d c23d e4e8 163e 509a f53d
00000200: 2f1e 28be 3bac 2ebe 2070 bcbd 5266 113d
00000210: 5756 26be da35 e6bd e529 23be c2e8 2dbe
00000220: 7748 f33d 0df5 f93d dc63 9abc 00ec 693d
00000230: 3e53 923d 0402 b0bc f272 3fbe d5cf 333e
00000240: 89a4 04be 7a1c 3c3e 12a8 f53d c5ba 273e
00000250: 7b54 61bd 0aa3 6bbd
-0.08611653 -0.09874525 0.08901372 0.13333146 -0.14271541 -0.17908081 -0.143683 0.18853739
-0.0144117 0.03712339 0.034401797 0.14679182 0.03250468 0.055491082 0.10091596 -0.17046675
0.052575186 0.13386886 0.108010635 -0.17683372 -0.12279185 -0.17396294 0.02888419 0.082892574
-0.17413713 0.0413288 0.06846724 0.15328641 0.16055806 -0.016595785 0.07859757 -0.14305311
-0.099177964 -0.05768824 0.083746605 -0.10648084 -0.08078645 0.10435016 -0.065192804 0.014978439
-0.16143581 -0.04336134 0.04164457 0.17548446 0.03365632 0.12735572 0.16298944 0.12357109
-0.16906235 -0.14784506 -0.061740432 0.07852663 0.15218432 0.17549199 -0.1812011 0.03554504
-0.015868612 0.11158765 0.026749533 -0.18871719 0.047774017 0.031851366 -0.17852356 0.12367539
0.07534909 0.060787644 -0.18521573 -0.07055385 -0.18307139 -0.16265467 -0.0024040684 0.07899122
-0.09964943 0.09061324 -0.021685151 -0.045259185 0.17375611 0.09993998 -0.13565685 -0.10428763
0.075065255 -0.002763401 0.076894484 0.15670021 -0.09747465 -0.058678973 -0.17221962 0.19174165
0.07423911 0.016291417 -0.12296984 -0.195716 0.16398771 -0.106998004 0.15574972 0.17455193
0.08127047 0.04026369 -0.09768396 0.14586747 0.04306152 0.15515865 0.10960764 0.09873516
0.08831113 -0.04824139 0.052392278 0.12584972 0.03501714 -0.13094911 -0.16531686 0.18341829
0.014384654 -0.17695245 -0.011735587 -0.064919055 0.13377766 -0.03829099 0.04308948 0.05301753
-0.03586566 -0.115871176 0.19463862 -0.12352173 0.14451486 0.0950263 0.14737278 0.119923234
-0.16417764 -0.17057888 -0.09201074 0.03549797 -0.16243874 -0.1124074 -0.1593395 -0.16983321
0.11879056 0.12204943 -0.018846445 0.057109833 0.071447834 -0.021485336 -0.18696192 0.1755975
-0.1295339 0.18370238 0.119949475 0.1637984 -0.055012207 -0.057528533

bias f4 [6]
00000000: b1a4 94bd db22 51bd f4ae 19be 9151 4e3d
00000010: 69fd e13d 12ac 9dbd
-0.07257975 -0.05105863 -0.15008146 0.050370757 0.11034662 -0.076988354

weight f4 [6]
00000000: 125f 813f 1deb 7e3f 8735 7e3f 89f7 7f3f
00000010: 2b38 7e3f 311c 813f
1.0107138 0.99577504 0.99300426 0.99987084 0.99304456 1.0086728

bias f4 [6]
00000000: f249 c3bb 61c1 1eba 541b 92bc ad29 193b
00000010: 7589 f2ba 9cd4 8e3c
-0.0059597427 -0.00060560374 -0.017835297 0.0023370788 -0.00185041 0.017435364

running_mean f4 [6]
00000000: fc3b 93bd 9681 3cbd c221 1cbe cb92 5e3d
00000010: 36a8 f43d 969c b0bd
-0.071891755 -0.04602202 -0.15247253 0.05433921 0.11946146 -0.086236164

running_var f4 [6]
00000000: b412 b23d 8943 9f3d bce9 d53d 4269 633e
00000010: 0730 993e 4907 a03d
0.086949736 0.07776553 0.10444972 0.22208121 0.29919454 0.078138895

weight f4 [18, 6, 5, 5]
00000000: 684b 85bc e629 9c3d 19ed 40bc 8498 54bd
00000010: 739b abbd 1ab4 443d b4a7 10bd 0de7 013d
00000020: ce82 cfbb 5acb 413d e4d3 293c 377e 3d3a
00000030: 3bac 81bb 8472 a43c a793 763d f1ec 873b
00000040: 0046 7ebc 27a1 a7bd 7170 9f3d 6ac5 4fbb
00000050: 3164 063d 50bb 693d 4dab 0fbc f795 8dbd
00000060: 9431 f3bc ed89 59bd 0a7d 473c 2021 ae3d
00000070: 0831 f5bc 45cc 6cbd d72b fbbc 41db f9bc
00000080: 3afb 163c 8a6e 7e3c f691 af3c f640 ab3c
00000090: c856 863d c3f9 713b 4827 763c 9414 1a3d
000000a0: 70b8 ebbb be15 84bc a5fc a8bc 526a 12bd
000000b0: f265 643c 5d71 3e3d d1e7 4b3c 2cd9 8f3d
000000c0: 696e 0dbd 2db8 2d3b 6016 253d c974 d83a
000000d0: 094a b43d 7382 1f3d 7b87 71bd 1717 b33c
000000e0: 11e2 3f3d 6ce1 1e3c ec3e 643d 5624 8d3c
000000f0: 6c0e 7abc 5e48 2b3d 56e2 f4bc 2069 febc
00000100: d78d 3739 4ad3 8d3d 905d 76bd a638 873d
00000110: e288 64bd 1d4c 753d a4c6 103d 232a 0c3d
00000120: 34c6 9f3d 09bc 17bd 0792 91bd 930d 2e3d
00000130: 901c d1bc 9b80 b4bc 84e3 2abc d73c 9d3c
00000140: edce 783d 0389 8e3d bdfb 6bbb 90d7 383d
00000150: a67d 8bbc 276d 50bd 31b3 1c3d 631f 443d
00000160: 820c a93c d44e 45bd a77e e23c 3eb6 6f3c
00000170: d650 233c fcb5 743d ea3a 65bd 974e 613c
00000180: 4b5f 94bd ad69 29bd 1a0a 3c3c 03b4 9ebd
00000190: 41fd 493d 4d98 663d eca8 9bbd a984 cfbc
000001a0: c90c 9f3d 9e17 d6bc 9e85 9dbc 27e1 afbb
000001b0: 05dc 903b cccc eb3c 1d54 0e3d 0eaa 2fbd
000001c0: a0e1 243d 6632 87bd a15b adba 765a 92bb
000001d0: e6ff 0ebd 20bc 9c3c 138d 7dbd ed90 413d
000001e0: 0673 46bc 7131 233d 5943 37ba 788d 4d3d
000001f0: 2a39 863d 08ce 6f3c 806b 233a 7f5e 963c
00000200: dc9b e63c 03d0 98bc 734a 9d3d 4cf5 353d
00000210: 1555 473d 13cd 23bd dbe0 f13c 7270 4e3a
00000220: 5281 c13b c95b bd3c 0035 eabc ebb5 78bd
00000230: ed08 1abd 9c4f 463d 93ff 8c3d b044 c23c
00000240: b2c4 dd3a 6059 793d 80ee 703d e5c9 9d3d
00000250: c201 363d 83bf a8bd cfd4 9a3d 1621 573c
00000260: 7890 8bbd ba8e 4b3d cbbe 9d3d db68 b5bc
00000270: ccb1 8fbc 60ab 553c d8bb bc3c 2364 a3bd
00000280: 6f31 213d 9634 0dbd dc12 3fbd 4d9e f53b
00000290: 5eb4 963d b0d9 b9bd cd7f 38bd 7807 ef3c
000002a0: ef51 86bc 3286 99bd 8a1f 35bd 6323 72bd
000002b0: 8abc 2dbd a76f 4abd 6014 15bb 0172 bf3a
000002c0: f714 bd3c ecd8 273c bb51 b7bc 0449 8e3d
000002d0: 04d4 75bd 5990 13bd 13e5 37bd 1471 fc3c
000002e0: 4f28 91bd f074 17bd 5587 82bd 739d 8e3d
000002f0: fec4 91bc edac 633c fd18 2bbd e539 8dbc
00000300: 250f dbbc 1fe9 b13c 1028 1abd e975 d63c
00000310: 1a50 ff3b 52aa f1bc ec3a b0bd 23ed 5c3d
00000320: ff55 f3bc b4fe 86bd 8871 cd3b e2aa 8fbc
00000330: fa5c b13d aa42 5e3d 845b 68bd 3103 46bd
00000340: e610 99bd c79a 603c 9a2e 85bc 7b05 2ebd
00000350: 44fc ad3c 6d6a 823d 312c 47bd 229f f63c
00000360: b1d6 943d d829 29bd 9057 7bbd 98dc 3c3d
00000370: 6489 ab3c bd38 8cbd 06d0 01bd 2a2c 383d
00000380: a2c3 6f3b ef1c 553d a29b 4abb 082a abbb
00000390: 3cf2 48bd fd69 99bd c6ac 013b f417 3c3d
000003a0: 1947 b7bd 9c1f b6bc dad0 fabb b9f2 30bd
000003b0: 8c32 693d 9f5a 90bc a390 7c3d c438 44bd
000003c0: 6e77 70bd 0998 7fbd 6489 12bd 7159 583d
000003d0: 8cc2 a7bc dc96 7abc d126 31bd cb1a 3dbc
000003e0: 90db bb39 09af b63b 8b00 473d 5085 60bb
000003f0: bcd1 703d d5f4 a9bc bdb1 783d e940 4d3d
-0.016271308 0.07625179 -0.0117752785 -0.051903263 -0.08379259 0.04802332 -0.035316184 0.031714488
-0.006332732 0.04731307 0.01036546 0.00072285853 -0.003957299 0.020074137 0.060199406 0.0041481187
-0.015519619 -0.08185034 0.07785118 -0.0031703361 0.032810394 0.0570634 -0.008768869 -0.06913369
-0.029686727 -0.053110052 0.012175808 0.08502412 -0.029930606 -0.057811994 -0.030660553 -0.030500056
0.0092151705 0.015529284 0.021431904 0.020905 0.06559521 0.0036922551 0.015024014 0.03761728
-0.0071936175 -0.016123649 -0.020628283 -0.035745926 0.013940321 0.04649483 0.012445406 0.07023844
-0.034529123 0.0026507482 0.04030454 0.0016514297 0.088031836 0.038942765 -0.058967095 0.021861596
0.046846453 0.009697299 0.05572407 0.01722924 -0.0152622275 0.04181706 -0.029893082 -0.031055987
0.0001750508 0.06925066 -0.060147822 0.06602602 -0.055794604 0.05988704 0.03534569 0.034219872
0.07801476 -0.03704456 -0.07107931 0.042493414 -0.025526315 -0.02203398 -0.0104302205 0.01919405
0.060744215 0.06959727 -0.0036008202 0.04512745 -0.017027687 -0.050885346 0.038256828 0.047881495
0.020635847 -0.04817088 0.027648283 0.014630852 0.009968003 0.059743866 -0.055964388 0.013751647
-0.07244738 -0.041360546 0.011477018 -0.07749178 0.049313787 0.05629759 -0.07600579 -0.025331812
0.077661105 -0.026134308 -0.019228753 -0.0053674164 0.0044207596 0.028784178 0.034748185 -0.042886786
0.040254235 -0.066014096 -0.001322616 -0.00446635 -0.034912013 0.019132674 -0.061902117 0.047257353
-0.012112385 0.039842073 -0.00069909316 0.050183743 0.06553872 0.014636524 0.00062339753 0.018355606
0.028150491 -0.018653875 0.07680216 0.044423386 0.048665125 -0.039990496 0.029526165 0.0007875032
0.0059053088 0.023115056 -0.028589725 -0.060720365 -0.03760617 0.048415765 0.068846844 0.023714393
0.0016919582 0.06087625 0.0588212 0.07704524 0.04443527 -0.08239653 0.07560121 0.013130447
-0.068146646 0.04969666 0.077024065 -0.022144726 -0.017540835 0.013041347 0.02303879 -0.07978084
0.039353784 -0.034473978 -0.046648845 0.0074956776 0.07358621 -0.09074724 -0.045043755 0.029178366
-0.01639649 -0.07496299 -0.04421953 -0.05911578 -0.042416133 -0.049422886 -0.002274774 0.0014606119
0.023081286 0.010244589 -0.02237784 0.069475204 -0.060016647 -0.036026333 -0.044896197 0.030815639
-0.070877664 -0.036976755 -0.06373469 0.06963625 -0.017794129 0.013896209 -0.041771878 -0.01723952
-0.02674062 0.021717606 -0.037635863 0.02617927 0.0077915313 -0.02950016 -0.086049885 0.05393709
-0.029704092 -0.065915495 0.0062696375 -0.017537538 0.08660312 0.054262795 -0.0567279 -0.048342887
-0.07473926 0.013708777 -0.016257573 -0.042485695 0.021238454 0.06367955 -0.04862613 0.030105177
0.07267512 -0.04129967 -0.061362803 0.046108812 0.020939536 -0.068467595 -0.031692527 0.044963993
0.0036585112 0.052029546 -0.0030915518 -0.0052235164 -0.049059138 -0.07490919 0.001978682 0.04592128
-0.08949108 -0.02223187 -0.0076542916 -0.04320023 0.05693297 -0.017621337 0.061661374 -0.0479057
-0.058707647 -0.06240085 -0.035775557 0.052819673 -0.02047851 -0.015294757 -0.04324991 -0.0115420325
0.00035831006 0.005575065 0.048584502 -0.0034259148 0.05879377 -0.020746628 0.06071638 0.05011073

bias f4 [18]
00000000: 288f 263d 5a8c b8bc 2cfa 81bd c309 9d3d
00000010: edd2 90bd b25f 9b3d 0111 6f3d 1a23 d3bb
00000020: 1e93 8cbd c950 e2bc 1800 983c 5cc7 1dbc
00000030: 7bfe 9a3d 4a21 763d 6195 04bd 8c85 8d3d
00000040: d4be 7c3d 350f dd3c
0.04066387 -0.022527862 -0.063465446 0.076678775 -0.07071481 0.07586612 0.058365826 -0.0064433934
-0.06863998 -0.027626412 0.018554732 -0.0096300505 0.075680695 0.06009034 -0.03236902 0.06910238
0.061705425 0.02698479

weight f4 [18]
00000000: 7e7c 7e3f 028e 803f 7320 7e3f 1fd9 7f3f
00000010: 36c9 7f3f 800f 813f 29cc 803f bae5 7f3f
00000020: 76ea 7f3f a0e8 7c3f 0a7d 823f 8b03 803f
00000030: df6c 7f3f 1380 7f3f afe1 7f3f 0c83 7e3f
00000040: 1620 803f cebc 7d3f
0.9940871 1.0043337 0.99268264 0.99940675 0.999164 1.0082855 1.0062305 0.9995991
0.99967134 0.9879246 1.0194409 1.0001081 0.997755 0.998048 0.9995374 0.9941871
1.0009792 0.9911622

bias f4 [18]
00000000: f18c 0bbc b7bb 14bb 690c b2bb fc81 4ebb
00000010: 4383 21bb d682 473b 3054 af3b 3995 81bc
00000020: eb97 b1bb e124 753b fb68 3f3b 91e6 32bb
00000030: 99ae 6a3b 1f06 10bc b921 3ebc 99a1 8bbb
00000040: 6780 dc3b db85 aa3b
-0.00851749 -0.0022694895 -0.0054336083 -0.0031510582 -0.0024644888 0.0030442975 0.005350612 -0.015818225
-0.0054197214 0.0037406015 0.002920686 -0.0027298073 0.0035809635 -0.008790522 -0.01160472 -0.0042612073
0.006729174 0.005203945

running_mean f4 [18]
00000000: b162 223f cf2c 9abe 47d7 b03e cb60 a43e
00000010: 718a 97bd 15e1 c3be 02eb 373d 991d f33e
00000020: 07d6 95be 279e 89be 213a b73e ee0e 283e
00000030: 32ba 293f a773 84bc 420a c0bd e8d0 c1be
00000040: b756 1bbe 4904 5e3d
0.6343184 -0.3011231 0.34539244 0.32105097 -0.073994525 -0.3825766 0.044901855 0.4748352
-0.29264852 -0.26878473 0.35786536 0.16411945 0.66299736 -0.016168429 -0.093769565 -0.37854695
-0.15169798 0.054203305

running_var f4 [18]
00000000: c74b 7f3d bec9 023e 3753 ef3e fb68 293e
00000010: 55a2 ee3d b56a 033e a36b 213d 6871 523d
00000020: cb6b 493e cace b43d ae55 523d dfb5 d43d
00000030: 1cd7 463e 02dc a23d 084a c23e dc88 db3e
00000040: b40c 4d3e f439 913e
0.062328126 0.12772271 0.46743175 0.16543953 0.11652056 0.12833674 0.03940929 0.051377684
0.19670026 0.088285044 0.05135124 0.10386252 0.19417995 0.079521194 0.37947106 0.42877853
0.20024377 0.28364527

weight f4 [45, 18, 5, 5]
00000000: d0f6 6fbc bbb3 543b 2bcf 43bb d8f2 2f3d
00000010: 1193 18bc 8a39 543b 3234 de3c c88c 523d
00000020: 6d19 b2bb 74e3 8bbb f1df 353b ff1f a9bb
00000030: 3222 fcbc 84f7 02bd 4b92 29bd f448 2b3c
00000040: 5f24 f1ba a931 cd3c 3f42 1fbd 8546 dcbc
00000050: 0c54 913b bb61 863c 69b1 f1bc c9a4 f6bc
00000060: f6d3 253b 1a0b ec3c c4b0 213d f0d1 423d
00000070: ce3f 373d 679d 213d a008 48bc ce65 ab3c
00000080: 85eb 443d df15 aa3c 5ea7 6c3d e062 1bbc
00000090: 689c b3bc 6778 a7bc 205c 0dbc be7d eabc
000000a0: f137 2ebc a195 3e3d db96 3f3d 28a3 f3bc
000000b0: e4a5 493c 1f04 e0bc 206e 5f3a c146 0f3d
000000c0: 715f cabc 4d08 1d3d 2525 f03c 2c77 5bbc
000000d0: 5ae6 5e3b b136 e5bc 346a 14bd f659 99bc
000000e0: b166 ecbc c139 a13c f288 263d e9cd b9bc
000000f0: b71d f73c 9222 fdbc 6f99 f3bc 3dab 37bd
00000100: 61f8 26bd fc73 813c d8d0 14bd ae1c a13c
00000110: 92af 563c 701f b0bb 0226 1a3d 207f c3bc
00000120: e5d0 cc3b 1c66 f73b bbe3 05bc bc8e dfba
00000130: 62a1 f2ba 4b66 30bd 4517 e33c eb67 213d
00000140: 9949 5a3c e723 103d 46ee a53c 4e71 0c3c
00000150: f2c8 12bd 1097 d1bb f131 efbc 83fa f9bb
00000160: df23 09bd 5c31 1bbc 7ac6 333c a38e a5bc
00000170: 2828 183d 4e22 0f3d a009 f7bb cff3 ecbc
00000180: 34cb ff3a bddf 163d 7807 183d c930 0d3d
00000190: 1b27 33bd 6b1e c6bb fd04 f1bc 2bd5 9cbb
000001a0: f83e 0cbd e9f0 a2bc 48b1 dbbc 49e3 1c3d
000001b0: 7c54 dcbb 9a21 2f3d 5c40 373c 90f8 023d
000001c0: ad20 283d f43e 03bd d2fe e53c fa49 d33c
000001d0: ee39 ef3c 8ef5 17bd f9bb 253d c3a5 bbbc
000001e0: 7c6d c8ba efc2 06bd 0bdd 07bd c9b4 27bb
000001f0: 4b02 33bc 7f71 433d 7fa9 2fbd b6ca 293c
00000200: 361a 6bbc 09cc 7c3c e60b ddbb 8045 b23c
00000210: e9ad 4cbc 4e02 bcbc 0d47 feba d787 b1bc
00000220: 1ebc 86bc 9144 f0bc c2f1 ddbc 402f 0cbc
00000230: 2262 243d f737 9abc 9e43 0bbd 6280 9e3c
00000240: 77c5 c63c 00b6 8c3c ccb2 9d3b 7f95 8dbc
00000250: 8b15 80bc bb0f 9abb b583 28bd 874d 1abd
00000260: a79b b4ba 78b4 3fbd 6d2e f9bb 9d04 eabc
00000270: 7ae8 0dbd 67b0 43bd 643a af3a 8bd8 bcbb
00000280: 4320 453c b1fe fc3c 7349 fb3c 91fc c8bc
00000290: 0902 9fbc 51c3 bdbc ad05 00bd 209e 22bd
000002a0: d15e 15bd 69e1 f1bc 6028 b8b8 fc74 9dbc
000002b0: bed4 6cbc a3b4 f3bc 84d6 153d 38e2 fe3b
000002c0: 35cd 1fbc 79e0 ac3c e49a 65bd 2536 39bd
000002d0: c038 24bd 79a5 073d 0941 1d3d 7a1f f8bc
000002e0: 4fa7 5a3c d39e 543c 761c 923c 0964 f73c
000002f0: 9420 23bd 2d4f f03c ea9d 4dbc 972d 033d
00000300: 00d3 4e3c dcfc b03b 066f a33c 38e1 a73c
00000310: f495 aabc a584 1e3d a8da f33c c535 88bc
00000320: 8487 803b 2dc1 02bd eb85 15bd f331 0ebd
00000330: 0817 08bd ee69 c8bc b86f 463c a0a3 3f3c
00000340: d662 61bd 7bcb dfbc 1ff4 8a3c 7210 573d
00000350: 6077 24bd 075f be3c dc78 d83c 8c71 dfba
00000360: 444d 253d d735 90bb c97e 97bc c771 303c
00000370: 8479 03bd 83da a0bc e03c 77bd ae7a b3bc
00000380: 09ba 36bc 4d0e 693b 7962 e1bc 2d2d 1ebd
00000390: af9d 7f3b f2d8 ac3c 34fa 19bd c289 11bd
000003a0: 6d97 133c f45b 23bd 02a0 4abd 3a0a ddbb
000003b0: 18a4 393c c373 443d 25f5 8b3c 3e43 15bb
000003c0: fe2e 953c 5ff6 7ebc acff a23c 77d0 15bd
000003d0: b925 2bbd a4cc 47bc bf62 983c f50d 2f3d
000003e0: 5f4d e9ba 527c e6bc cd7c 1c3c d471 acbc
000003f0: 4191 013d d072 d33b 0bd6 1d3d 9b06 dbbc
-0.014646247 0.003245576 -0.002987812 0.042956203 -0.009312407 0.0032382929 0.027124498 0.05140379
-0.00543516 -0.004269058 0.0027751888 -0.005161285 -0.030778024 -0.03197433 -0.04139928 0.010454405
-0.001839768 0.025048094 -0.038881537 -0.026889095 0.004435068 0.016404023 -0.029503541 -0.030107873
0.002530334 0.028813887 0.039475217 0.047563493 0.044738583 0.03945675 -0.012209088 0.020922568
0.04807617 0.020762382 0.0577768 -0.009484023 -0.021925166 -0.020443154 -0.008627921 -0.028624412
-0.010633455 0.046529416 0.046774726 -0.029740885 0.012307618 -0.027345715 0.0008523185 0.034979586
-0.024703713 0.038337994 0.029314587 -0.013395112 0.0034011812 -0.02798018 -0.036234096 -0.018719655
-0.02885756 0.01968086 0.040657945 -0.022681193 0.030165536 -0.030900273 -0.029736249 -0.04484104
-0.040764216 0.015802376 -0.03633198 0.019666996 0.013103383 -0.0053748414 0.037633903 -0.023864329
0.006250488 0.007550014 -0.008171971 -0.0017056088 -0.0018511231 -0.043066304 0.027721057 0.039405745
0.013323211 0.03519049 0.02025522 0.008571936 -0.035836168 -0.006396182 -0.029198619 -0.0076287403
-0.033481475 -0.009472217 0.0109726135 -0.020209616 0.03714767 0.034944825 -0.007538989 -0.02892485
0.0019515515 0.036834467 0.037116498 0.034470353 -0.043738466 -0.0060461066 -0.029421324 -0.004786154
-0.03423974 -0.019890266 -0.026817933 0.038302694 -0.0067239385 0.042756654 0.011184778 0.03197533
0.041046787 -0.03204246 0.02807561 0.02579211 0.029202428 -0.037099414 0.040462468 -0.02290619
-0.0015291418 -0.032900747 -0.033169787 -0.0025589934 -0.01092584 0.04771566 -0.042886253 0.010363271
-0.014349511 0.015429505 -0.006745803 0.021761656 -0.012492635 -0.022950318 -0.0019399837 -0.021671219
-0.016447123 -0.02932957 -0.027092818 -0.008556187 0.04013265 -0.018825514 -0.03400003 0.019348327
0.02426408 0.017176628 0.004812574 -0.0172832 -0.015635272 -0.0047015822 -0.04114123 -0.037671592
-0.0013779298 -0.046802968 -0.0076044113 -0.028566653 -0.034645535 -0.047775652 0.0013368842 -0.0057631186
0.012031618 0.030883165 0.030674672 -0.024534496 -0.01941015 -0.023164423 -0.031255413 -0.03970158
-0.036467377 -0.02952643 -8.781324e-05 -0.019220822 -0.014455019 -0.02974922 0.03658153 0.007778432
-0.009753515 0.02110313 -0.05605592 -0.045217652 -0.040093184 0.03311679 0.0383921 -0.030288447
0.013345554 0.01297732 0.017835837 0.030199068 -0.03982599 0.029334629 -0.012549857 0.0320259
0.0126235485 0.005401237 0.019950401 0.020493135 -0.020823456 0.03870072 0.02976735 -0.016627202
0.0039224047 -0.031922508 -0.036504667 -0.034715604 -0.03322509 -0.024464574 0.012111597 0.011696726
-0.055025898 -0.027318707 0.01696211 0.052505918 -0.040152907 0.023238672 0.026424818 -0.0017047389
0.04035689 -0.0044009495 -0.018493073 0.010769314 -0.03209831 -0.019635445 -0.06036079 -0.021909084
-0.011152753 0.0035561502 -0.027512776 -0.0386173 0.00390039 0.021099541 -0.037592128 -0.035531767
0.009008271 -0.039882615 -0.049469 -0.006745604 0.011330627 0.04796196 0.017084667 -0.0022775675
0.018210884 -0.015561669 0.019897304 -0.03657576 -0.041784022 -0.012194786 0.018601773 0.04273792
-0.0017799548 -0.028135452 0.009551239 -0.021050371 0.031632666 0.0064528957 0.038534205 -0.026736548

bias f4 [45]
00000000: 9c02 563c f81b e9bc 0335 313d 0b1e 873b
00000010: d5b3 cabc 8f92 123c 999f e03b 2f01 ee3c
00000020: a1b6 74bc bfe2 463d 2c0c 91bc 0d7a efbc
00000030: 4efc 3d3d 6e97 af3b 22bf 17bd 2e07 b2bc
00000040: 664c b8bc 8db2 e83c e82a cf3c 7cf4 b1bb
00000050: a18e b8bb 725a 493c 4094 f4bc 0dc1 07bd
00000060: 17b5 283d 2cb9 013d 5322 a13b a787 d1bc
00000070: 4543 acbb 3b89 1c3c 4fa3 c63c 141f 06bb
00000080: 6e08 1abd 29e5 1ebd 7572 1e38 07d1 033c
00000090: 731a 12bd eca2 8c3c b009 6bbb c185 25bc
000000a0: d1c6 d7bc 7e29 f1bc 017a f93b acb2 363d
000000b0: eedf 08bd
0.013062146 -0.02845572 0.043263447 0.0041234544 -0.024743954 0.008946075 0.006854963 0.029053299
-0.01493612 0.048556086 -0.017706 -0.029233003 0.046383195 0.005358628 -0.037047513 -0.02173194
-0.022497367 0.028405452 0.025289014 -0.005430756 -0.005632237 0.01228963 -0.029855847 -0.033143092
0.041188326 0.031670734 0.004917422 -0.02557738 -0.0052570426 0.009554203 0.024247793 -0.0020465301
-0.037605695 -0.038792763 3.7776732e-05 0.0080454415 -0.035669755 0.017167531 -0.0035863928 -0.01010269
-0.02633992 -0.02943873 0.007613421 0.04460399 -0.03341668

weight f4 [45]
00000000: 14a6 813f fdf5 803f 04f5 7e3f 8ee1 7d3f
00000010: 4b12 7e3f fafb 803f eafa 7e3f 118a 813f
00000020: a702 803f 936c 7f3f df5c 7c3f c3a5 813f
00000030: 58f4 7f3f df04 7f3f 0cc6 803f 7be0 7f3f
00000040: 9abb 7f3f 45b2 7e3f 3656 803f b11f 803f
00000050: ede2 7c3f dd49 803f 459a 803f 9261 803f
00000060: cbb8 813f 068b 803f 3115 803f 4e0a 813f
00000070: d8e5 813f 1999 7d3f a02c 803f 62a1 803f
00000080: 807e 7d3f 6b53 7e3f 4a17 7d3f c896 803f
00000090: 3ee5 7e3f 0249 803f 4c41 803f 3ffd 813f
000000a0: aca9 803f 8301 803f 2a69 803f 88d8 7f3f
000000b0: 169a 7e3f
1.0128808 1.007507 0.99592614 0.99172294 0.9924666 1.0076897 0.99601614 1.012026
1.000081 0.99775046 0.9857921 1.0128711 0.99982214 0.9961681 1.0060439 0.99951905
0.9989563 0.9949077 1.002631 1.0009671 0.9878376 1.0022541 1.0047079 1.0029776
1.0134519 1.0042427 1.0006467 1.008127 1.0148268 0.99061733 1.0013618 1.004925
0.9902115 0.99346036 0.9886366 1.0046015 0.99568546 1.002228 1.0019927 1.015541
1.005178 1.0000461 1.0032094 0.99939775 0.99453866

bias f4 [45]
00000000: 2d53 b9ba e51d 823b 32c1 14bb 395f 2abc
00000010: f6ef c63a 9ab4 d0ba c93c a63b 5f48 d0ba
00000020: 4e70 9abb 1f17 f13b 462f 5cbc 9bf4 603c
00000030: 71cd 7abb 8b9f be3a 227e b93b 9603 3ebb
00000040: 5f06 53bc 9afc dcbc f2b9 843b 3787 95bb
00000050: 0b8a 2fba 5b63 21bb 0551 d3bb eb41 9dbb
00000060: 16d3 8a3b a9b6 b6bb 3a6d 21bc 94b8 37ba
00000070: d543 683c 2d2a 92bc 2f01 c3bb 2d94 0bbb
00000080: beb1 f3ba 199f 0e3c f347 053b 6023 883b
00000090: 20f8 ba39 b592 02bb a089 5fbb 447a 183c
000000a0: 4c7f 97bb bd41 eb3b 41cd e93b 2e19 eabb
000000b0: 05cf 76bc
-0.0014139168 0.003970849 -0.0022698161 -0.010398679 0.0015177715 -0.0015922964 0.005073164 -0.0015890709
-0.004713095 0.0073574926 -0.013439005 0.0137301935 -0.0038269425 0.0014543397 0.005660788 -0.0028993837
-0.012879937 -0.026975919 0.0040504867 -0.004563238 -0.000669629 -0.002462587 -0.0064488673 -0.004799118
0.004236589 -0.005575974 -0.009852702 -0.00070084 0.014176329 -0.017842377 -0.005951069 -0.0021298036
-0.00185924 0.008704924 0.0020337075 0.0041546077 0.00035661552 -0.001992387 -0.003410913 0.009306494
-0.0046233293 0.0071794675 0.007135064 -0.007144115 -0.015064006

running_mean f4 [45]
00000000: 1619 84be 7425 91be 1cbb 03bf 638a 52bf
00000010: c913 d9be 6d96 063f df04 733d 8daa fb3e
00000020: edcb 383f 7ff8 b9bc 067b 003e adf7 223e
00000030: 96fb b23d 6d0f d6be 0d3c 3abf 2eea 9dbf
00000040: d279 e73e 2fff 96be 6d5d a2bf 0efd c73e
00000050: 7eb4 963f fbca 9bbf cd64 e63e 993c 1b3f
00000060: 7af6 843e fb7d 19bf 8b09 adbe 6e3c 503e
00000070: e01b 323e b784 34be 8d60 b83c 885b a93e
00000080: f25f 74bf 86d9 773e ec55 653f ab6f 7c3e
00000090: 70a9 f9be 97d3 d0be ca9a c13d 496d 83be
000000a0: 47d9 ebbd 6619 5dbf a986 663e 2163 983e
000000b0: ea8e 113f
-0.2580039 -0.28348887 -0.5145738 -0.8224241 -0.42397907 0.5257328 0.059330817 0.49153557
0.72186166 -0.0227015 0.1254693 0.15914793 0.087393925 -0.41808644 -0.7274788 -1.2337091
0.4521013 -0.29491565 -1.2684761 0.39060253 1.1773832 -1.217132 0.4499878 0.6063934
0.25969297 -0.59957856 -0.33796343 0.20335552 0.17393446 -0.17628752 0.022506977 0.33077645
-0.954589 0.24204072 0.8958423 0.24651973 -0.48762083 -0.4078643 0.09453352 -0.25669315
-0.11516052 -0.8636688 0.22512306 0.2976313 0.56858695

running_var f4 [45]
00000000: 8af0 343e e230 fd3d 6323 2f3f a093 c33f
00000010: 0595 753f a648 ae3e bbe3 c53d ec4a 573e
00000020: 23cc 833f a46b 823e de3e 623e b4c4 023e
00000030: 60ad 853e 5920 ab3f 6956 fe3e 3f2f 593f
00000040: 5706 003f 9cbf 853f 1cb5 143f f87c 3c3e
00000050: 447d 4f3f ed45 163f 16d8 9a3e d6b2 3b3f
00000060: 379e ea3d 34e4 813e b411 f73e 571c b23e
00000070: 9762 293e c8a0 4c3f 2765 ad3e 5d6f 3f3f
00000080: 5131 933f 72b5 823e d322 d33e 404b 933e
00000090: fe72 6a3e f913 4e3f b2fc 2b3f f56e 913e
000000a0: 4288 2d3e 88eb 233f 8c41 ca3e a00a e53e
000000b0: cdde 0a40
0.17669883 0.12362839 0.6841337 1.5279427 0.9593051 0.340398 0.09662577 0.21024674
1.0296673 0.25472748 0.22094294 0.12770349 0.26108837 1.3369247 0.496753 0.84837717
0.50009674 1.04491 0.5808885 0.18407047 0.81050515 0.5870045 0.30242985 0.73319757
0.11455958 0.25369418 0.48255694 0.34787247 0.16541515 0.7993283 0.33866236 0.747793
1.1499425 0.25529057 0.41237506 0.2876835 0.22895429 0.80499226 0.6718246 0.28404966
0.1694651 0.6403127 0.39503133 0.4473467 2.1698487

weight f4 [18, 45, 5, 5]
00000000: faa4 7cbb 3b83 83bc 822f a8bc 00fa 05bd
00000010: 50df b9bc d189 b1bc 6817 833c cd98 e7bc
00000020: 5bdb dabc 8192 e43c d82b 533c 67ba 683c
00000030: eef8 d73c e356 99bc 2ef0 f73b cc80 b03c
00000040: f667 373b 1ef1 84bc a4e3 703c 1830 093d
00000050: f46b deb9 b679 6e3c ac9c 853b abf1 e9bc
00000060: e7e9 0abd 9fc2 933c e906 e83b dd40 27bd
00000070: f4ac 5a3c c342 efbc 5f79 f4bb 0a9c b4bc
00000080: a3be 88bc 8be1 9a3c 0312 073c 358c 753a
00000090: eb8e 953b ac26 23bd 98a1 0ebd 5694 80bc
000000a0: aa3f c9bb 2347 053c 7f53 f6bb 11a8 c03c
000000b0: a1cf 3b3d 0d7b 20bd 5238 bd3a e2c7 193c
000000c0: 3764 903b 3bce 1abc 1de0 ed3b 2fc2 2c3c
000000d0: cb6c 70bc 4f3e 64bc 7374 c5bc 6c9c 98bb
000000e0: 3b3e 4cbc 1ef1 863c 466f 033c 8fee 52bb
000000f0: bc39 bcbc 6d14 e53c f547 1cbc bd07 23bc
00000100: 766c 543b 485a d5bc 3063 47bb a590 243b
00000110: 3cd6 e6ba 9235 b63c ec20 633c 9b30 aebc
00000120: eeb5 2e3c e081 dabc 750e 6f3c a4c1 8b3b
00000130: 1a8d f8bb 4d1e 5f3c ce86 e5bb 7224 99bc
00000140: 9d58 fdbc 2825 ef3b e51b dfbb d5b7 3bbc
00000150: 1964 c6bc b0a4 9ebb 6a92 8dbc 26eb 26bc
00000160: 0987 8b3c db57 06bd 2f55 bdbc 1599 9f3c
00000170: 3b86 d13c 90b6 74bc bbf8 123d b425 c3bb
00000180: d133 333b 3bbb 8e3c 919f 81bc 4af1 babc
00000190: 6ce7 a5bc 4ca0 cdbb 57c5 eeba a4f5 3cbc
000001a0: ce3d 51bc 0c2b 993a 1c7f 07bc d1b2 213c
000001b0: f701 203c b6d5 133b 2fa2 d43c 1ba8 da3b
000001c0: 6af1 4ebc e909 17bc 0100 aebc edc4 a43c
000001d0: 536a 9abc 4df5 783b b0a3 1e3c 1f1a 053c
000001e0: 6988 333c 177b d63a 355d 8f3c 4daa 463c
000001f0: 4271 2b3c 5459 abbc d926 a3ba cf3d 8b3c
00000200: 90bd 983c 92b0 aebc 080a 2c3b 6cbf 82bc
00000210: aa6a 543c 5591 9b3c 4d1b ccbc 28fa 48bb
00000220: 7ed9 8f3b 7b42 b6bb 1593 e43c 4b4d b03c
00000230: f964 6abc d848 c83c 628a a9bc 846c 8d3c
00000240: a294 0d3c 6e68 303d a09a ef3c ffbc 6e3b
00000250: 4304 8dbc bf9c 1d3c 2317 423c 6cd9 d9bc
00000260: 48ca c5bc 1347 89bc a2d4 94bc 4ccf c73c
00000270: 04b3 67bc c851 f83c 1e71 0bbc 3164 313b
00000280: 2ddb 583c 748d 94bb 7e0e d43c 11f6 1c3b
00000290: d5d8 33bc d3a2 9bbc 3469 13bb 3d2c adbc
000002a0: fc8a 003d df5b 053c 7ecc 213c fb40 9a3c
000002b0: 52e6 bebc fd90 0fbc a677 f43c ff10 a23c
000002c0: 67ae 4f3c 915c 373b 7b69 f4bc d0a0 683b
000002d0: fc77 8bbc 7c77 b3bc 84eb 0b3d eef9 20bc
000002e0: c60a fd3b 8b1a 5b3c faa8 023c f3dc 7cbb
000002f0: 4f92 1fbd c16d 08bc 631e e6bc 09bc 1ebb
00000300: e131 cbbc 48e1 393c 6ba7 9dbc a2a8 e4bb
00000310: d42a f83a 63a1 e9bc a7e8 8bbc fe9e 92bc
00000320: 87bc 8a3c 27ac 173a 5780 823a dac9 d33c
00000330: c25a dfbc 5b1e cc3c 2f83 093d 5d40 183c
00000340: 9905 bf3c fe16 a4bc 4a58 143d 27d1 923b
00000350: 05db eb3c daf9 c4bc 83d1 9eba fedf 013d
00000360: 1a3c 233d 5cd1 78bc 23fb 59bc d839 9b3b
00000370: dacf f53c 1108 06bd 2426 a3bc debb 21bd
00000380: 8f8c 8d3c 0535 e3bc ff6c 963c 957a cf3a
00000390: ce30 023d f742 e13c 4271 77bb 3788 b5bc
000003a0: 4617 99bc 59bc 2ebc e187 95bc f87c 0ebc
000003b0: 3eeb 543b 28f7 2dbb 887d 86bc a6ac 653b
000003c0: 4e8b 98bb 0437 47bb 7f20 c4bc 7582 03bd
000003d0: f817 b6bc d50e 27bc 64d4 453b bda1 343c
000003e0: 75c4 2dbb 27a1 c3bc 6e28 e5ba 76b5 c9bc
000003f0: ff77 aebb efa6 d93c 409c 16bd 4509 ac3b
-0.0038550482 -0.016053787 -0.020530466 -0.03270912 -0.022689492 -0.021672161 0.016002372 -0.028271103
-0.026715925 0.02790189 0.012888871 0.014204598 0.026363816 -0.018718189 0.0075664734 0.02154579
0.002798555 -0.016228255 0.014702711 0.03349313 -0.0004242357 0.014555385 0.0040775146 -0.02855762
-0.033914473 0.018037139 0.007080902 -0.040833343 0.013346899 -0.02920664 -0.0074607576 -0.022047061
-0.016692465 0.018906375 0.00824404 0.0009366901 0.0045641563 -0.039831802 -0.034822077 -0.015695732
-0.0061416226 0.008134636 -0.0075172777 0.02351764 0.045852307 -0.03917985 0.001443634 0.009386035
0.004406478 -0.009448583 0.0072593824 0.010544344 -0.014674376 -0.013930871 -0.024103379 -0.004657319
-0.012466009 0.016472396 0.008022135 -0.003218565 -0.022976749 0.027963841 -0.00953864 -0.009950575
0.003241328 -0.026044026 -0.003042411 0.002511063 -0.0017611454 0.022242341 0.01386283 -0.021263411
0.010663493 -0.026673257 0.014590849 0.004265027 -0.00758518 0.013618064 -0.0070045954 -0.018694136
-0.030926043 0.0072981305 -0.006808745 -0.011457403 -0.024217652 -0.0048414096 -0.01728173 -0.0101879
0.017032163 -0.03279863 -0.023111908 0.019482175 0.025576701 -0.014936104 0.03588174 -0.0059554223
0.0027344117 0.017423263 -0.015823158 -0.022820134 -0.020251952 -0.0062752124 -0.0018216771 -0.011533175
-0.012771083 0.0011685803 -0.008270051 0.009869293 0.009766093 0.0022557802 0.025956241 0.0066728718
-0.0126308 -0.009218671 -0.021240236 0.020113433 -0.018849527 0.0037988008 0.009682581 0.008123904
0.010957816 0.0016363588 0.0175005 0.012125564 0.0104640145 -0.020916618 -0.0012447491 0.016997246
0.018645078 -0.02132443 0.0026251096 -0.015960418 0.012964884 0.018990198 -0.024915362 -0.0030666683
0.0043899408 -0.0055621243 0.027902165 0.021521231 -0.0143063 0.024448797 -0.020695869 0.017263658
0.008641394 0.043068342 0.029248536 0.0036428568 -0.017213946 0.009619891 0.011846337 -0.026592933
-0.024144307 -0.016757524 -0.018167797 0.024390839 -0.014141802 0.030312434 -0.008510856 0.0027067775
0.013235849 -0.004533464 0.025885817 0.0023950378 -0.01097699 -0.01899854 -0.0022493126 -0.021139259
0.031382546 0.00813958 0.009875415 0.018829813 -0.023303185 -0.008762595 0.02984221 0.019783495
0.012675858 0.0027978758 -0.029835453 0.0035496242 -0.017024986 -0.02190756 0.034160152 -0.009825213
0.0077222316 0.013373028 0.007974857 -0.0038583844 -0.03895789 -0.008326949 -0.028090661 -0.0024220964
-0.024804058 0.011345215 -0.01924487 -0.0069781104 0.0018933662 -0.028519338 -0.01707871 -0.017898079
0.0169356 0.00057858456 0.0009956461 0.025853086 -0.027264956 0.024916818 0.033572372 0.009292689
0.023318099 -0.020030495 0.03621701 0.0044804993 0.02879096 -0.02404492 -0.0012116883 0.031707756
0.03985224 -0.015186634 -0.013304505 0.00473712 0.030006338 -0.032722536 -0.019915648 -0.039485805
0.017278938 -0.027735243 0.01836252 0.0015829379 0.031784825 0.027497752 -0.0037756716 -0.022159679
-0.018687855 -0.010665023 -0.018253269 -0.008696787 0.0032488848 -0.0026545022 -0.01641728 0.0035045533
-0.0046552783 -0.0030397782 -0.023941277 -0.032106835 -0.022228226 -0.010196407 0.003018641 0.01102489
-0.0026514803 -0.023880554 -0.0017483362 -0.02462266 -0.0053243632 0.026568858 -0.036770105 0.0052501285

bias f4 [18]
00000000: 9417 53bc 40fc c83b fa5b 1fbc c211 afb9
00000010: e505 ae3a 4c2f 92bc 9c0a 78bc 2c88 c4bc
00000020: 7c6a 7dbc 8331 873c 11a1 843c 9587 d2bb
00000030: d361 3b3c 9e9a eabc 018a b3bc 1bf0 443c
00000040: 010e 333b 3785 233c
-0.012884039 0.006133586 -0.009726519 -0.00033391832 0.0013276903 -0.017844819 -0.015139248 -0.023990713
-0.015467282 0.016503101 0.016190084 -0.006424854 0.011436897 -0.02863818 -0.021916391 0.012020136
0.002732158 0.009980491

weight f4 [18]
00000000: 6171 803f 5b08 7f3f 1b4f 7c3f ca52 7e3f
00000010: 891e 803f 96df 7d3f 2c5a 803f becf 7d3f
00000020: 5894 813f 17b5 803f ce62 803f f1a2 7f3f
00000030: 1a35 7f3f a2ee 803f c958 803f ff56 803f
00000040: 34dd 7f3f 91f4 803f
1.00346 0.99622124 0.98558205 0.99345076 1.0009319 0.9916929 1.0027518 0.99145114
1.0123396 1.0055264 1.0030153 0.99858004 0.996904 1.0072825 1.0027095 1.0026549
0.99946904 1.0074636

bias f4 [18]
00000000: 023a b2b9 1fcc e8bb ae9f 80bc 42b4 d63b
00000010: 520a 27bc fc8b af3b cb04 2fbb 5f7c 39bc
00000020: 8f3e 5a3c 0162 b4bb 8381 3b3c 6ce2 683c
00000030: 4985 c2bb f8df 1fba 40d7 8fbb 6361 843b
00000040: d02e a9b9 94af b3bb
-0.00033994025 -0.0071044113 -0.015701141 0.00655225 -0.010195332 0.0053572636 -0.0026705738 -0.011321156
0.013320579 -0.005504847 0.011444452 0.014214139 -0.005936299 -0.00060987426 -0.0043896735 0.0040399297
-0.0003226907 -0.005483577

running_mean f4 [18]
00000000: 27b8 213f 4072 a7bf 970d 643e df46 2ebf
00000010: 08e3 a6bf e769 09bf 156e 5ebf fc92 1ac0
00000020: 8756 de3c 0a13 c53d 2f13 90be 0aec 513f
00000030: 2b97 da3e 00a5 d23d 8e8d be3e e189 8e3f
00000040: f318 c1bf 639f 7ebf
0.6317162 -1.3081741 0.22270809 -0.6807689 -1.3038034 -0.5367722 -0.8688672 -2.4152212
0.027140869 0.09622772 -0.28139636 0.8200079 0.42693457 0.102853775 0.37217373 1.1135827
-1.5085739 -0.99461955

running_var f4 [18]
00000000: dbe2 a13f 0ae8 8440 c1c1 a93f 210e 283f
00000010: 8a77 933f 0010 933f 7fe8 5c3f a8bc 8040
00000020: 123a 073f 6aab 363f c7bc d13e 2889 c53f
00000030: 2da9 7f40 50da fa3e fb80 083f 638a dd3e
00000040: 09ba 333f 1deb 4c3f
1.2647356 4.153325 1.3262254 0.6564656 1.1520855 1.1489258 0.8629226 4.0230293
0.52822983 0.7135531 0.40964338 1.5432482 3.9947007 0.48994684 0.5332181 0.43269643
0.7020574 0.80046254

weight f4 [6, 18, 5, 5]
00000000: ddc7 85bc b9b3 123c 1eb7 14bd c606 f2bc
00000010: 7884 1cbc 0a11 34bd 57ed 8d3c 7567 47bd
00000020: 0c44 8abc 03cc 103d 38be 253d b58a 273d
00000030: 8de5 1fbb af17 56bc b69b 2a3d ab0a c53c
00000040: 66f9 1e3d d67f 193c a48c 103c 7ba8 a2bc
00000050: 1181 abbc 9af0 543d 6c71 303b 575b 80bc
00000060: e188 1ebd 7718 453c 32d4 38bc e53d 38bd
00000070: 5d4a eb3c dde9 14bd 1ecb 84bb 4de0 1f3d
00000080: 0457 303d 5b20 3a3d a4ca 273d 769c 02bd
00000090: dcc0 863c 8c1a 01bd cb90 103d 7f29 353d
000000a0: a809 eabc b22d 32bd 8749 733c 106d be3c
000000b0: fcbe 193b 2c6d 283d 731e 493d a1e9 eabc
000000c0: ae88 6b3d 8d60 983c 9d08 ea3c aaeb 11bd
000000d0: 1878 09bc 4368 123c 7873 aebc 8ad3 17bd
000000e0: 4d25 723c 39fc a2ba afef b73c 8f58 10bd
000000f0: e8c1 a03b 2a59 ef3c 04e6 f7bb 6811 21bd
00000100: ab6d d83b 39c4 f1bc 06c3 0dbd 9cbd 58bb
00000110: 35b1 ff3c 5d31 a6bc 4e4f 1f3c f509 643d
00000120: 96c4 a8bc af95 423b 1632 833c d497 0e3d
00000130: ef0b d2bc 7120 06bd 2a0e 67bc 1f3c e63b
00000140: a4af 273d 76b0 1cbd 5f53 243d 2a7a f9bc
00000150: b328 f9bc 6848 363d fdd7 ce3b dbb2 ed3c
00000160: 32d0 003d 7681 cc3c 8165 0abc 94ac ee3c
00000170: c546 2b3d 8da1 e03a 2df6 3bbd 5c48 5b3c
00000180: 03b7 25bd 8b53 52bc 8e61 edbc 2bfa e9bb
00000190: 59ef 01bd 0443 013d 19e6 e3bc 0197 12bd
000001a0: 575c f7bb fcb1 5a3c 3b65 3abb 2f87 56bc
000001b0: 5a4c 9bbc f5af e0bc 1e4d 15bd 6828 4d3c
000001c0: 3314 a23b a0d6 bd3c 1960 063d 0df5 1c3c
000001d0: d69c 333c a19c 0fbd cea5 803a ec6e 4a3c
000001e0: 3bd4 18bd 914f 833c bc87 5a3c 2fa3 e2bc
000001f0: 4a25 e83c 9c95 06bc 8fbf d5bc c808 e33c
00000200: 3f97 ccbc 7d55 223d 6638 42bd 114a 353b
00000210: 22ba 24bd 0bd1 e43c 1fa6 f53c 5d26 eb3c
00000220: dfae 25bd 41ba e0bb a490 323c a865 cf3a
00000230: a6f1 313c 0280 0cbd 4e98 52bc 707a 12bd
00000240: 491c 02bd 80fb fbb9 db14 1b3d 0569 12bd
00000250: c499 c4bc 78a8 29bd 7ea0 223b 3c91 153d
00000260: 7d08 4d3c 4f5a 813c 9d86 423d e089 ccbc
00000270: 0121 4abd 0868 c6bc 2915 a23c 24b5 03bd
00000280: 5c10 febc 0bb4 083c 43bd 5cbc dede 413a
00000290: 486c 87bb 35c8 e63b 2967 28bd cbf3 053d
000002a0: 6bfc 073c d451 b4bb 5430 fdbc f4fc 01bc
000002b0: 1d25 cbba 5a22 ee3c 5d3f 0dbc 7523 48bd
000002c0: f67c 343d 696e 363d 9de6 3abd 0aeb 413c
000002d0: fac0 a6bc 2292 0c3d d0d9 d73c b8b2 51bd
000002e0: 5bf7 21bd 390a 96bb ab76 213d cf65 863c
000002f0: 8254 d93c 2069 7e3c 2cad 52bc 53da 4a3c
00000300: 4910 ce3c 2d97 8c3c 81ac 253d aa2c adbc
00000310: c013 55bd d594 d03c 433b a4bc 4a70 4a3d
00000320: c4b2 2cbd cf66 1d3b 4edc 27bd c832 153d
00000330: e180 013d f6c4 1bbd b931 24bd 79d4 e4bc
00000340: c4cc 3dbc d569 153c f55e 13bd d218 fabb
00000350: 22a0 00bd b595 253c 4d45 8fbb da77 333d
00000360: c1aa b63c 76a8 e93c 1585 053d 7435 063d
00000370: 6a48 d43b eb55 06bd 65c9 f33c 14b5 a0bb
00000380: 713a 74bd 59aa 46bd 4d8b 65bc fd0d 9abb
00000390: 3edd eb3c e2e0 a6bc fd8a 9abc 2d9b 163d
000003a0: a645 c73c 8fbb 073d 36b0 22bc f8f6 28bd
000003b0: 6c61 6b3c 53aa cf3c 87ac 743c 892d 21bd
000003c0: a7f8 f4bc d913 49bd b527 853c 908c 72bc
000003d0: ccf5 d3bc a308 c8bb 64dc c0bb bc05 7cbc
000003e0: 06ab ac3c b17c 6c3c 9ba4 afbc 3c4c 26bc
000003f0: 5b43 47bc 12c5 263d 8829 12bd ef74 33bd
-0.016330654 0.008953982 -0.036307447 -0.029544245 -0.009553067 -0.043961562 0.017325087 -0.04868265
-0.01687815 0.03535081 0.04046461 0.040903766 -0.0024398298 -0.01306717 0.041652404 0.024052938
0.038812064 0.009368857 0.008822594 -0.019855728 -0.020935567 0.051987268 0.0026923073 -0.015668554
-0.038704757 0.012029759 -0.01128106 -0.044980902 0.028721983 -0.036355842 -0.004052534 0.03903227
0.043051735 0.045441013 0.040964738 -0.031887494 0.016449384 -0.031519458 0.035294335 0.044229027
-0.028569058 -0.04350061 0.014849073 0.023245364 0.0023459783 0.04111974 0.049101304 -0.028675856
0.057503395 0.018600727 0.02856856 -0.035625137 -0.008390449 0.008935991 -0.021295294 -0.037066974
0.014779401 -0.0012434787 0.022453157 -0.035240706 0.004905928 0.029217321 -0.007565262 -0.03932324
0.0066048703 -0.029512512 -0.034609817 -0.0033072 0.031212429 -0.02028721 0.009723498 0.05567356
-0.020601552 0.002969127 0.016015094 0.034812763 -0.025640456 -0.032745782 -0.014102498 0.00702621
0.04093899 -0.038254224 0.04011857 -0.03045376 -0.030414915 0.044502646 0.006312369 0.029015949
0.03144855 0.024964076 -0.008447052 0.029135026 0.041815538 0.001713799 -0.04588907 0.013383951
-0.040457737 -0.012837301 -0.028977182 -0.007140418 -0.0317224 0.03155805 -0.02781968 -0.03578854
-0.0075488496 0.013348099 -0.0028441686 -0.013093754 -0.018957306 -0.027427653 -0.036450498 0.012521841
0.0049462556 0.02317363 0.03280649 0.009579909 0.010962686 -0.035061482 0.0009815039 0.012355547
-0.037311774 0.016029151 0.013338026 -0.027665703 0.028338093 -0.008214381 -0.026092319 0.027714148
-0.024974464 0.03963231 -0.047417067 0.0027662555 -0.040216573 0.02793171 0.02998644 0.028704816
-0.040449973 -0.0068581407 0.010898743 0.0015823143 0.010860836 -0.034301765 -0.012853695 -0.035761297
-0.031765256 -0.00048061833 0.037861686 -0.035744686 -0.023999102 -0.04142043 0.00248149 0.03651546
0.012514231 0.015790133 0.04749166 -0.024968088 -0.04934788 -0.024219528 0.01978548 -0.03215517
-0.03101366 0.008343707 -0.013472858 0.00073955755 -0.004132781 0.0070429095 -0.041114006 0.032703202
0.008299927 -0.0055029187 -0.030906834 -0.007933844 -0.0015498732 0.029069114 -0.008621064 -0.04886194
0.044064485 0.04453889 -0.045630086 0.011835823 -0.02035569 0.03431905 0.026348978 -0.05119583
-0.039542537 -0.0045788554 0.03941981 0.016405968 0.026529554 0.015527993 -0.01285867 0.012381154
0.02515425 0.01716193 0.040447716 -0.021139462 -0.05202079 0.025461594 -0.02004779 0.049423493
-0.04216267 0.0024017578 -0.040981583 0.036425382 0.03161705 -0.038029633 -0.04008648 -0.027933346
-0.011584464 0.009119471 -0.03597923 -0.0076323533 -0.031402715 0.010106494 -0.004372275 0.04381547
0.022298219 0.028522711 0.03259762 0.03276582 0.006478359 -0.03279678 0.029759118 -0.0049043987
-0.059626047 -0.0485023 -0.014010263 -0.0047013746 0.02879202 -0.020370904 -0.018865103 0.03676908
0.024325203 0.033137854 -0.009929707 -0.041251153 0.014366489 0.025349772 0.014933712 -0.039350066
-0.029903723 -0.049091194 0.016254285 -0.0148040205 -0.025874041 -0.006104545 -0.0058856476 -0.015382227
0.021077644 0.014434026 -0.021440795 -0.010150012 -0.012162055 0.040715285 -0.03568414 -0.04381269

bias f4 [6]
00000000: 4af1 8ebc cd90 d0bb 0b76 27bd f754 25bd
00000010: a458 f93c 7782 473d
-0.01744904 -0.006364918 -0.04088406 -0.040364232 0.030437775 0.048708405

weight f4 [6]
00000000: 25d0 7e3f 78ce 7e3f 6081 803f 39e1 843f
00000010: 1b85 7e3f 1e76 7d3f
0.99536353 0.99533796 1.0039482 1.0381233 0.9942185 0.9900836

bias f4 [6]
00000000: 9660 9d3b 47e1 f7b9 54b0 2b3c 63ae 893c
00000010: ca5e 383a 9c7c 00bc
0.0048027737 -0.00047279356 0.010479052 0.016806787 0.00070331676 -0.007842209

running_mean f4 [6]
00000000: 5ddc 18bf 54af 9fbe 8bb0 c4b9 3af5 08be
00000010: c4f1 acbe 09f8 14bf
-0.5971125 -0.31188452 -0.00037515568 -0.13374797 -0.33778203 -0.5819097

running_var f4 [6]
00000000: 2095 4e3e b09e f53d a318 8f3e 0c3c 1b3d
00000010: 539f 2b3e ed24 183e
0.20174074 0.11993158 0.27948484 0.037899062 0.16759996 0.14857836

weight f4 [1, 6, 5, 3]
00000000: db66 9fbd 938d 89bd a252 f8bc f0c0 8d3d
00000010: bec9 bdbd e27e 86bd 4d0e b4bd b577 5fbd
00000020: 38b7 87bd 5f09 273d 44ae a13d 68c2 ae3c
00000030: 1b35 6dbc 32b8 24bd 5bc5 a93d b789 8d3c
00000040: add4 2ebc c3fb 9cbd cb81 353d 5015 10bd
00000050: 2de1 923d 2723 133d 8a54 07bd 154a 5e3d
00000060: 9509 73bd f4b0 b8bd feb7 6a3d adff 07bd
00000070: bf83 e7bd 020a 61bc 5ba7 a5bd 7685 01bd
00000080: fb8c b5bd 4ea6 213d 65da 91bd 6948 723d
00000090: b0f9 583c 2aec 62bd 1456 d53d 825a afbd
000000a0: 3c4d bb3d 85b8 e23c 52a7 c83d eb49 283c
000000b0: 5300 b7bb 4c3c 8cbd 45e6 c33d 0291 e5bc
000000c0: 4fe4 85bd 719e 743d 1254 313d 8c8c 4e3c
000000d0: 276f 8e3d 3e02 e5bd aaa0 66bc 2c71 f9bc
000000e0: 323d a63d e743 45bc a480 4fbd f0f3 41bd
000000f0: c097 983c 99b4 4bbc 0963 3ebd 4523 12bc
00000100: d72a 4dbd 25f6 c33a 2326 783d edac e5bc
00000110: 89ac 793c d679 58bd 75a5 353d c993 8e3d
00000120: 9bf0 603d 99b1 8bba eb7e 023d d9dc 953d
00000130: a5e3 f4bc 5ce1 92bd 6b21 ddbc f0ec 873d
00000140: 3ff7 2ebc fac1 56bd 9c4f c4bd 5cad ab39
00000150: 6fa2 6ebd a441 a5bc 6e30 b13d df4d bfbd
00000160: e5ed d43b c6cf ffbc
-0.0778329 -0.06716456 -0.03031284 0.069215655 -0.09266995 -0.0656717 -0.0879179 -0.05455752
-0.06626743 0.04078042 0.07894567 0.021332934 -0.014477993 -0.040214725 0.08289596 0.017277582
-0.010670823 -0.07665207 0.044313233 -0.035176575 0.07171855 0.035922196 -0.033039607 0.05426987
-0.05933531 -0.09018126 0.057304375 -0.033202816 -0.113044254 -0.013735296 -0.08088561 -0.03162142
-0.088647805 0.03946524 -0.071217336 0.059151087 0.013243124 -0.055401005 0.10416809 -0.08562185
0.09145591 0.027675876 0.09797539 0.01027153 -0.0055847554 -0.06847438 0.09565405 -0.028023247
-0.06537687 0.059721414 0.043293066 0.012606751 0.069547944 -0.11182068 -0.014076391 -0.030449472
0.08117141 -0.012040115 -0.05065979 -0.047351778 0.018627048 -0.012433195 -0.046481166 -0.008919542
-0.050089683 0.0014950676 0.060583245 -0.028036559 0.0152388895 -0.052850567 0.044347245 0.069617815
0.05491696 -0.0010657787 0.03185932 0.07317514 -0.029893706 -0.0717189 -0.026993474 0.06636989
-0.010679065 -0.052431084 -0.09585497 0.00032744824 -0.058260377 -0.020172901 0.08651815 -0.093410246
0.006498086 -0.031227004
