source/models/SingleNoteTimbreCNN/model_128_25_0.002_besthyp.pth (torch, 202227 bytes, 26 tensors)

weight f4 [6, 1, 5, 5]
0.027203223 -0.0718298 0.0038800295 -0.0758186 -0.051737797 0.026116734 -0.21575893 -0.069665164
-0.24804804 0.05337159 0.19638449 0.04978468 -0.17587574 0.12612666 -0.13285132 0.119356744
0.010880672 0.1204463 -0.1613261 0.12700254 0.115240745 0.058283526 -0.18714388 -0.20800771
-0.06673529 0.16066311 -0.18524064 -0.013707626 -0.17317604 0.15239385 0.041999325 0.1568322
-0.10678742 -0.06301407 -0.1443064 -0.17559686 -0.047864564 -0.025662536 -0.0839989 0.19476046
0.14292571 -0.13593191 -0.11506374 0.047926396 0.1605781 0.005091074 0.049812086 -0.17119303
0.18382184 0.019648315 0.1632868 -0.11434058 0.024948364 0.06891692 -0.06937532 0.025380999
0.19740038 0.04750874 -0.07033732 0.024594579 0.12168937 -0.18851769 0.16205211 -0.1231914
-0.12740564 0.10906595 -0.14748526 0.10919315 -0.041822948 0.16596852 0.022391539 -0.18674989
-0.005841685 -0.057975654 0.076640144 0.15555145 0.09564865 0.12824598 -0.1910729 -0.15921792
-0.14757866 0.20537336 -0.07671683 -0.18927312 -0.10683924 0.024069024 -0.09088381 -0.12850572
-0.07548921 -0.07832207 0.14678909 -0.049022563 0.17426923 0.03098218 0.11740402 -0.049654916
0.08351898 0.061597425 -0.18439536 0.0930279 0.038195454 0.04704815 -0.08631986 0.10306299
-0.03719731 -0.1186343 -0.20240627 -0.09702175 -0.19857028 -0.124945804 -0.15208325 -0.11156382
0.13816291 -0.05663723 -0.04260425 0.1795622 0.04895309 0.17395529 -0.0065586865 -0.04861103
-0.079940476 -0.107701376 -0.1577212 -0.1672908 0.020054057 0.021674657 0.16826291 0.102179214
0.13395901 0.20382793 -0.09575033 -0.05679193 -0.14744547 -0.16119285 -0.061988696 -0.036654625
-0.007503238 -0.17250852 0.15617633 -0.11328642 0.1595874 0.16744497 0.0101301195 0.19829522
-0.057072043 0.069624886 0.0076755746 0.008193696 0.026190462 0.040160898
00000000: 4bd9 de3c 811b 93bd 1848 7e3b c846 9bbd
00000010: 03eb 53bd c3f2 d53c e9ef 5cbe 9cac 8ebd
00000020: 4e00 7ebe 2b9c 5a3d 0419 493e 05eb 4b3d
00000030: c518 34be 5927 013e 2d0a 08be 4f71 f43d
00000040: d944 323c 8dac f63d ab32 25be f40c 023e
00000050: 5703 ec3d b5ba 6e3d a5a2 3fbe f9ff 54be
00000060: 83ac 88bd df84 243e b9af 3dbe f395 60bc
00000070: 0f55 31be 220d 1c3e 7c07 2c3d 9f98 203e
00000080: 5db3 dabd 850d 81bd 0fc5 13be aacf 33be
00000090: a20d 44bd 3d3a d2bc 9e07 acbd 496f 473e
000000a0: 1e5b 123e bc31 0bbe 8aa6 ebbd 784e 443d
000000b0: 966e 243e 06d3 a63b c207 4c3d 3a4d 2fbe
000000c0: cb3b 3c3e 81f5 a03c a834 273e 652b eabd
000000d0: 8360 cc3c 5024 8d3d a614 8ebd d0eb cf3c
000000e0: 5323 4a3e 8698 423d 030d 90bd 927a c93c
000000f0: 4738 f93d c80a 41be fdf0 253e c64b fcbd
00000100: a076 02be f85d df3d 6006 17be a9a0 df3d
00000110: 8a4e 2bbd a7f3 293e 766e b73c 5d3b 3fbe
00000120: 9b6b bfbb e177 6dbd 82f5 9c3d e148 1f3e
00000130: 70e3 c33d ea52 033e 9da8 43be 060a 23be
00000140: dc1e 17be 654d 523e b71d 9dbd d0d0 41be
00000150: 88ce dabd 672c c53c 4a21 babd 0197 03be
00000160: 169a 9abd 5267 a0bd e14f 163e e2cb 48bd
00000170: a273 323e 57ce fd3c 8571 f03d f462 4bbd
00000180: 000c ab3d 954d 7c3d 23d2 3cbe 6985 be3d
00000190: d672 1c3d 90b5 403d 77c8 b0bd b012 d33d
000001a0: 355c 18bd 8af6 f2bd 9743 4fbe 57b3 c6bd
000001b0: 0256 4bbe 96e3 ffbd b6bb 1bbe 927b e4bd
000001c0: 947a 0d3e 71fc 67bd cb81 2ebd 27df 373e
000001d0: 0983 483d 5621 323e 40ea d6bb 5c1c 47bd
000001e0: d5b7 a3bd 8a92 dcbd ab81 21be 484e 2bbe
000001f0: 6848 a43c 0d8f b13c 1d4d 2c3e 5643 d13d
00000200: 8d2c 093e 45b8 503e c018 c4bd a89e 68bd
00000210: f2fb 16be bd0f 25be dce7 7dbd 2923 16bd
00000220: b9dd f5bb 13a6 30be b0ec 1f3e b602 e8bd
00000230: e16a 233e b276 2b3e cdf8 253c e70d 4b3e
00000240: 60c4 69bd 7e97 8e3d 6383 fb3b da3e 063c
00000250: 618d d63c c17f 243d

weight f4 [6]
0.9990961 1.0065836 0.9893406 1.0502486 0.98321646 0.98769516
00000000: c3c4 7f3f bbd7 803f 6d45 7d3f 8c6e 863f
00000010: 13b4 7b3f 97d9 7c3f

bias f4 [6]
-0.011377215 0.03768452 -0.002042042 -0.037904263 -0.025835425 -0.007120813
00000000: 8067 3abc 155b 1a3d c8d3 05bb 8041 1bbd
00000010: d0a4 d3bc b555 e9bb

running_mean f4 [6]
-0.012166709 -0.0018233197 0.002854198 -0.008175338 -0.012702934 0.005487776
00000000: e056 47bc 75fc eeba 7f0d 3b3b daf1 05bc
00000010: f81f 50bc cdd2 b33b

running_var f4 [6]
0.39206448 0.042596426 0.051993053 0.08740708 1.0199889 0.2826705
00000000: adbc c83e 9779 2e3d abf6 543d 7c02 b33d
00000010: ff8e 823f 30ba 903e

weight f4 [18, 6, 5, 5]
0.011104629 -0.006967752 -0.019531246 0.08638018 -0.016227411 -0.01121935 0.02698931 0.0006579365
0.005735161 0.019304043 -0.017708499 -0.04624562 -0.010095512 0.06688935 -0.056448776 -0.0009901593
0.03343656 0.07984679 0.03633087 -0.023924302 -0.019759212 0.060107503 -0.0022548116 0.036166534
-0.051212855 -0.011911413 -0.029285895 -0.081048734 0.06181204 0.02486699 0.05918956 -0.019068109
-0.05854821 -0.029275779 0.06374804 0.06321696 -0.036390357 -0.08916034 -0.07796823 0.020193601
0.086209066 -0.05669816 0.065115005 0.076832384 -0.08754918 0.018467184 0.051568516 0.012386773
-0.053618282 0.03997823 0.02883145 0.040919766 -0.0676533 0.0099546835 -0.060421623 -0.029397625
0.06294148 0.0031145548 -0.051668912 -0.030585468 -0.09743321 0.036561895 -0.0890795 -0.062849134
0.01782563 -0.07152438 0.03082866 -0.06855373 -0.04322784 -0.03792015 -0.03328498 0.017575016
-0.04586585 -0.00575149 -0.03383573 -0.06654292 -0.03607515 0.07226957 -0.007391405 -0.028953534
-0.08412459 -0.090478905 0.063117705 0.061482042 0.024755059 -0.07145486 -0.015417862 0.026801055
0.04770547 0.037828695 0.07680062 0.077419706 0.084502645 0.018636849 0.025335139 -0.025785536
0.005396998 0.05227782 -0.05869352 0.039359193 0.032448776 -0.0062517766 0.038150657 -0.009396685
0.059304286 0.0012979014 0.024842491 -0.07947828 0.0003239451 -0.052981846 0.063525975 0.07267602
0.07415214 0.047635764 0.0010942486 -0.036026947 0.04808725 -0.04427561 0.035878535 0.025073295
-0.046693694 0.004710168 -0.0036394831 -0.006494756 0.025101712 -0.058148574 -0.029066598 0.05771143
0.05807926 0.014800948 0.046699695 0.03421553 -0.09443266 0.009916749 0.010505928 0.00725518
-0.01767635 0.04664085 -0.07992674 -0.06744271 -0.051128734 -0.04310228 0.012461061 -0.07655889
-0.08350707 0.025271745 -0.09100533 -0.057112377 -0.04705789 0.053411152 -0.036285795 0.05089623
-0.03970012 -0.055772774 0.05790995 0.06902227 -0.008931674 -0.028825505 -0.018967029 -0.05955931
0.0898394 -0.024023633 -0.040121526 -0.0001618015 -0.0023798493 0.041004755 0.0133290365 -0.052622028
0.020880174 -0.020266127 -0.011837053 0.018686205 -0.07169373 0.05671751 0.06841283 -0.028439423
0.020121178 0.06322369 -0.076659404 -0.07673889 0.059950154 -0.07001954 -0.08572025 -0.09391379
-0.04821636 -0.069852576 0.057592697 0.05184877 -0.07242775 -0.004893766 -0.05476767 -0.057903092
0.03473613 0.032273322 -0.0076197707 0.006644957 0.06369391 0.054292075 -0.087563835 -0.07686207
-0.068938404 0.013401411 -0.008195934 -0.04489585 0.027321221 -0.018223891 0.0025905408 -0.05329461
0.0642897 0.05096991 -0.034370057 -0.06857292 0.013058925 -0.042922817 -0.03720471 0.0120087955
-0.086081125 -0.007910703 -0.056251023 -0.038925644 0.015275183 -0.0103980545 -0.07433881 0.02655182
0.0056983815 0.054619778 0.054426957 -0.057193074 0.041637026 -0.040621623 -0.030538248 0.019971002
-0.06806234 0.048307758 -0.02541851 0.045288887 -0.046860065 0.077622496 -0.042810813 0.074191
-0.07240219 -0.0132522015 -0.02723074 -0.07699511 0.0035195088 0.056938816 0.0450193 -0.046984117
0.07350811 0.040231466 -0.024929674 -0.0076422086 0.05871919 0.010406275 0.020555282 -0.021589598
00000000: 31f0 353c bd51 e4bb feff 9fbc 18e8 b03d
00000010: 59ef 84bc 5dd1 37bc af18 dd3c 5f79 2c3a
00000020: 04ee bb3b 8323 9e3c 6a11 91bc 0c6c 3dbd
00000030: a567 25bc 49fd 883d d536 67bd 3cc8 81ba
00000040: c6f4 083d b786 a33d aecf 143d e6fc c3bc
00000050: 12de a1bc 4933 763d 76c5 13bb 5c23 143d
00000060: 92c4 51bd 1628 43bc f9e8 efbc e1fc a5bd
00000070: 9f2e 7d3d dcb5 cb3c c170 723d b934 9cbc
00000080: 3fd0 6fbd c2d3 efbc 558e 823d e577 813d
00000090: 0e0e 15bd b299 b6bd cfad 9fbd 0d6d a53c
000000a0: 618e b03d 543c 68bd 045b 853d 4c5a 9d3d
000000b0: fc4c b3bd 7e48 973c 8239 533d e4f1 4a3c
000000c0: d89e 5bbd 36c0 233d ef2f ec3c 7c9b 273d
000000d0: d08d 8abd f818 233c aa7c 77bd 4ad3 f0bc
000000e0: 76e7 803d 8f1d 4c3b c8a2 53bd 608e fabc
000000f0: 108b c7bd edc1 153d 506f b6bd 0cb7 80bd
00000100: 0e07 923c 607b 92bd 638c fc3c e665 8cbd
00000110: ad0f 31bd 2952 1bbd d555 08bd 7bf9 8f3c
00000120: d4dd 3bbd ff76 bcbb 5697 0abd a847 88bd
00000130: 89c3 13bd 1102 943d 9933 f2bb f62f edbc
00000140: 8349 acbd 014d b9bd db43 813d 98d4 7b3d
00000150: 1fcb ca3c ed56 92bd 339b 7cbc e38d db3c
00000160: d066 433d 43f2 1a3d a549 9d3d 398e 9e3d
00000170: b90f ad3d 4eac 983c a38b cf3c 303c d3bc
00000180: 4dd9 b03b 4421 563d 9e68 70bd 1b37 213d
00000190: 02e9 043d b4db ccbb dd43 1c3d 8ef4 19bc
000001a0: 0de9 723d 581e aa3a 7b82 cb3c 82c5 a2bd
000001b0: 2dd7 a939 7e03 59bd e819 823d 2ad7 943d
000001c0: 14dd 973d b81d 433d e46c 8f3a fe90 13bd
000001d0: 23f7 443d 585a 35bd 5ff5 123d 8366 cd3c
000001e0: e341 3fbd c157 9a3b 6584 6ebb f6d1 d4bb
000001f0: 1ba2 cd3c 332d 6ebd 131d eebc d262 6c3d
00000200: 85e4 6d3d ad7f 723c 2e48 3f3d 9525 0c3d
00000210: e965 c1bd dc79 223c 0e21 2c3c dcbc ed3b
00000220: fecd 90bc 7a0a 3f3d a1b0 a3bd 671f 8abd
00000230: 5d6c 51bd 048c 30bd 7a29 4c3c e8ca 9cbd
00000240: c105 abbd b106 cf3c 0161 babd abee 69bd
00000250: c6bf 40bd a7c5 5a3d 6aa0 14bd 9178 503d
00000260: 989c 22bd fe71 64bd fc32 6d3d 8c5b 8d3d
00000270: 2856 12bc 7723 ecbc be60 9bbc 77f4 73bd
00000280: b8fd b73d 36cd c4bc 7856 24bd 42a9 29b9
00000290: 3ff7 1bbb 9af4 273d 0862 5a3c 328a 57bd
000002a0: e60c ab3c 2605 a6bc 33f0 41bc d013 993c
000002b0: 2ad4 92bd 9f50 683d 071c 8c3d cbf9 e8bc
000002c0: 2bd5 a43c 6c7b 813d 9bff 9cbd 4729 9dbd
000002d0: 4b8e 753d 6866 8fbd 198e afbd e055 c0bd
000002e0: 857e 45bd de0e 8fbd 52e6 6b3d 605f 543d
000002f0: 0055 94bd e25b a0bb 1054 60bd cb2b 6dbd
00000300: 7947 0e3d 0831 043d 45af f9bb f0bd d93b
00000310: f471 823d 5e61 5e3d ab54 b3bd dc69 9dbd
00000320: 942f 8dbd 9791 5b3c 3d48 06bc b6e4 37bd
00000330: c1d0 df3c 454a 95bc 10c6 293b 734b 5abd
00000340: 51aa 833d d3c5 503d 9ec7 0cbd f66f 8cbd
00000350: 1af5 553c d6cf 2fbd f763 18bd 8ac0 443c
00000360: 4d4b b0bd e59b 01bc 7967 66bd 7f70 1fbd
00000370: c344 7a3c 9a5c 2abc f23e 98bd 3483 d93c
00000380: 7db9 ba3b fdb8 5f3d cdee 5e3d 4943 6abd
00000390: 968b 2a3d dc62 26bd 592b fabc 3a9a a33c
000003a0: 4564 8bbd 5bde 453d 7b3a d0bc d780 393d
000003b0: 57f0 3fbd 8bf8 9e3d 645a 2fbd 73f1 973d
000003c0: 9947 94bd c31f 59bc 0013 dfbc 9daf 9dbd
000003d0: 8fa7 663b ad38 693d 2866 383d 6b72 40bd
000003e0: 6c8b 963d c0c9 243d 5139 ccbc 7e6b fabb
000003f0: 8983 703d 157f 2a3c 8d63 a83c abdc b0bc

weight f4 [18]
0.9769165 1.0003755 1.0109593 1.0138797 0.96518743 1.0097977 1.0010955 1.0457041
1.0023502 0.99356955 1.007509 1.0252553 0.9698725 1.0275787 0.966038 0.9895024
0.9875695 1.0022568
00000000: 3317 7a3f 4e0c 803f 1d67 813f cfc6 813f
00000010: 8616 773f 0d41 813f e623 803f a2d9 853f
00000020: 034d 803f 935a 7e3f 0ef6 803f 913b 833f
00000030: 9049 783f b387 833f 444e 773f 0750 7d3f
00000040: 5bd1 7c3f f349 803f

bias f4 [18]
-0.0565335 -0.016098797 0.0072233393 0.0061579035 -0.033274874 -0.03489332 -0.04497037 -0.030553324
-0.012707271 -0.012880036 0.009083039 -0.010803104 -0.03686465 -0.024171041 -0.049859382 -0.019279782
-0.034767438 -0.032119848
00000000: ac8f 67bd a0e1 83bc c3b1 ec3b 3dc8 c93b
00000010: 3c4b 08bd 4cec 0ebd da32 38bd f74a fabc
00000020: 2832 50bc c906 53bc 07d1 143c 81ff 30bc
00000030: 63ff 16bd 5902 c6bc 5a39 4cbd a2f0 9dbc
00000040: 4d68 0ebd 1a90 03bd

running_mean f4 [18]
-0.2267614 -0.5572902 0.22606137 -0.16984007 0.1788413 0.5159661 -0.3058215 0.074258305
-0.048087705 0.2607283 -0.0966566 -0.19098173 -0.3463493 -0.22074269 -0.10760278 0.5112581
0.012838165 -0.52629596
00000000: 2434 68be 92aa 0ebf a27c 673e 8eea 2dbe
00000010: 2c22 373e 5b16 043f a394 9cbe bd14 983d
00000020: 9df7 44bd 2e7e 853e e5f3 c5bd b790 43be
00000030: b254 b1be 5f0a 62be d95e dcbd d0e1 023f
00000040: 2b57 523c 55bb 06bf

running_var f4 [18]
0.8612909 0.16099347 0.12366748 0.08043133 0.212014 0.2920323 0.06559457 0.3103562
0.18957265 0.14096792 0.18319887 0.11330013 0.40730685 0.070046745 0.8795579 0.87260693
0.18109573 0.64180565
00000000: 8f7d 5c3f 79db 243e 6045 fd3d 2eb9 a43d
00000010: 331a 593e 4285 953e 7256 863d 02e7 9e3e
00000020: 551f 423e e559 103e 7c98 3b3e e609 e83d
00000030: 868a d03e ab74 8f3d b52a 613f 2b63 5f3f
00000040: 2971 393e 604d 243f

weight f4 [45, 18, 5, 5]
-0.017058743 -0.01836619 0.0075875493 0.0052701198 0.015736956 0.047717202 0.024785176 0.04248694
0.043835953 -0.020466859 -0.005724796 -0.0023006594 -0.042349495 -0.026093882 0.0033957937 0.006993745
-0.061022528 -0.069986716 -0.014436368 0.010536114 0.027551677 -0.03376782 -0.045965172 -0.034475826
-0.018417709 -0.028863324 -0.02021633 -0.0127417585 0.0015303108 0.0040318803 -0.0476486 -0.032909524
-0.0053517134 0.00085261796 0.030751625 -0.059500646 -0.00047040312 -0.058240682 -0.049641393 -0.050696857
-0.04308007 -0.073073044 0.036100347 0.016412793 0.035847932 0.017152833 0.020144258 0.040546633
0.04590976 -0.0023427932 -0.016019825 -0.0545307 -0.049616266 -0.061858013 -0.010868888 -0.0145748425
0.003797625 -0.076976806 -0.06600017 -0.061229512 -0.024758764 -0.050117083 -0.011518049 -0.06916292
-0.037166856 -0.03687188 -0.006091806 -0.0021066668 -0.030717224 0.04243776 -0.028791368 -0.021462591
-0.05786081 0.0064947307 -0.04166325 0.04006351 0.00061084883 -0.025117297 0.03213916 0.06055809
-0.06753741 -0.0016858056 -0.04406758 -0.00012885257 -0.03284359 -0.01173301 0.05235871 -0.007931378
-0.035952188 -0.04510232 -0.018678278 0.0005892906 0.031791497 -0.06544919 0.0037096932 -0.028965391
0.010488489 -0.009639982 0.007921673 -0.06257721 -0.0039512487 0.009565701 -0.008811001 -0.0476964
-0.0059386184 0.010018188 0.05509176 0.012654606 -0.033926412 -0.0012177313 -0.041486584 -0.048858494
-0.0069731483 -0.04020366 -0.022126941 0.017259806 0.0668058 0.0720478 0.01273038 0.07531716
0.015019038 -0.008955289 -0.044545457 -0.023346612 0.020621708 -0.002230998 0.029942943 0.036170114
-0.018337548 -0.053731147 0.029768394 -0.011713127 -0.029263157 0.02579552 -0.022717914 0.03787875
-0.021739593 -0.011522567 -0.021124288 0.034012157 0.021982582 0.030100422 -0.028046591 -0.05813686
-0.02041239 0.0430899 -0.029845221 -0.037646793 0.0016132565 -0.03410479 0.008923052 -0.05411783
-0.041315265 0.014042679 -0.04227042 -0.014180951 -0.029081358 0.057587147 0.013277089 0.008003361
0.009100884 -0.050923705 0.0040226905 0.002348349 -0.071596794 0.011581324 0.0105937775 0.020678785
0.010793923 -0.016002184 0.035518344 -0.0017994249 -0.011281552 0.06056716 0.024701897 -0.0038953596
-0.020358818 -0.064746246 -0.037784185 -0.01788998 -0.007956621 -0.04266189 0.0056101545 -0.04582614
-0.03319619 -0.020501807 -0.06764679 -0.059490353 0.0059404485 -0.067924835 -0.036131162 -0.024254864
0.023724632 0.029482136 -0.014014737 -0.040517673 -0.03842205 -0.04841765 -0.01289053 -0.041008823
-0.034207404 0.033380363 0.021204086 0.026627159 0.032095477 -0.005825909 -0.025660835 -0.031783562
0.00500867 0.034658913 -0.015178291 -0.06720932 -0.058565214 -0.057472385 -0.021750256 0.019511295
0.021555161 0.002660081 0.050707307 0.026528671 0.075937256 0.005126309 -0.0040029716 0.0066214036
0.052083895 -0.005396092 0.02836398 -0.008228252 0.029324815 -0.016593914 0.02007347 -0.0008577469
0.0006982521 -0.006651193 0.015016814 -0.0131461965 -0.025796039 -0.006025444 0.03325516 0.021821724
-0.01745922 0.041256476 0.03709741 0.0015995263 -0.015196575 0.021391131 -0.04344833 -0.040056936
-0.018984964 -0.009219255 -0.014160024 -0.008154328 -0.011993699 0.007615296 0.037493642 0.03838255
00000000: c7be 8bbc b174 96bc faa0 f83b f8b0 ac3b
00000010: caea 803c 1d73 433d 480a cb3c c906 2e3d
00000020: 548d 333d 1daa a7bc 1297 bbbb a9c6 16bb
00000030: aa76 2dbd d6c2 d5bc f78b 5e3b c92b e53b
00000040: c2f2 79bd 3255 8fbd 8486 6cbc aa9f 2c3c
00000050: 0eb4 e13c 2050 0abd fa45 3cbd 8636 0dbd
00000060: bce0 96bc c772 ecbc b89c a5bc cfc2 50bc
00000070: b694 c83a dd1d 843b 2e2b 43bd 23cc 06bd
00000080: 6d5d afbb 3982 5f3a d5ea fb3c f3b6 73bd
00000090: 70a0 f6b9 c88d 6ebd c654 4bbd 82a7 4fbd
000000a0: ba74 30bd 52a7 95bd f5dd 133d 1f74 863c
000000b0: 48d5 123d 1984 8c3c 9205 a53c 3a14 263d
000000c0: df0b 3c3d 8c89 19bb 023c 83bc 955b 5fbd
000000d0: 6d3a 4bbd d45e 7dbd 6c13 32bc 52cb 6ebc
000000e0: 93e1 783b 04a6 9dbd 192b 87bd cccb 7abd
000000f0: e4d2 cabc 9247 4dbd 33b6 3cbc 4aa5 8dbd
00000100: 463c 18bd f806 17bd c69d c7bb 0110 0abb
00000110: b0a2 fbbc 37d3 2d3d e0db ebbc 51d2 afbc
00000120: 75ff 6cbd c0d1 d43b 16a7 2abd a319 243d
00000130: 5f21 203a cac2 cdbc 5aa4 033d c30b 783d
00000140: 0e51 8abd 40f6 dcba 3580 34bd 991c 07b9
00000150: 0087 06bd d03b 40bc 1676 563d 9cf2 01bc
00000160: 9a42 13bd 36bd 38bd 3003 99bc 9f7a 1a3a
00000170: cd37 023d 3a0a 86bd 531e 733b d448 edbc
00000180: e9d7 2b3c 04f1 1dbc e8c9 013c 7b28 80bd
00000190: 7a79 81bb 75b9 1c3c 045c 10bc 4d5d 43bd
000001a0: be98 c2bb 5323 243c e6a7 613d 4455 4f3c
000001b0: 6cf6 0abd 489c 9fba d6ed 29bd d81f 48bd
000001c0: 027f e4bb 98ac 24bd 8f43 b5bc 7064 8d3c
000001d0: 7bd1 883d cc8d 933d 1593 503c e23f 9a3d
000001e0: 6912 763c 34b9 12bc 4c75 36bd 6541 bfbc
000001f0: dbee a83c ef35 12bb e74a f53c 1d27 143d
00000200: a038 96bc 3115 5cbd d9dc f33c 6ae8 3fbc
00000210: 4ab9 efbc 2051 d33c eb1a babc c026 1b3d
00000220: 3b17 b2bc 26c9 3cbc d80c adbc 5550 0b3d
00000230: d114 b43c 2995 f63c f7c1 e5bc eb20 6ebd
00000240: e237 a7bc 097f 303d f77d f4bc 8633 1abd
00000250: e873 d33a 77b1 0bbd fe31 123c a8aa 5dbd
00000260: 323a 29bd 4413 663c bf23 2dbd 3857 68bc
00000270: 073c eebc 80e0 6b3d 2688 593c 8720 033c
00000280: e01b 153c 6095 50bd c6d0 833b c2e6 193b
00000290: 57a1 92bd 98bf 3d3c 8691 2d3c 8e66 a93c
000002a0: ffd8 303c 0317 83bc af7b 113d aeda ebba
000002b0: 42d6 38bc 4515 783d a25b ca3c 4a49 7fbb
000002c0: 89c7 a6bc ae99 84bd 97c3 1abd 028e 92bc
000002d0: 7d5c 02bc 3cbe 2ebd 63d5 b73b 31b4 3bbd
000002e0: baf8 07bd 68f3 a7bc 668a 8abd 28ac 73bd
000002f0: 18a8 c23b 2d1c 8bbd 45fe 13bd 23b2 c6bc
00000300: 295a c23c 8584 f13c 119e 65bc dcf5 25bd
00000310: 7160 1dbd 9651 46bd cd32 53bc def8 27bd
00000320: 101d 0cbd d9b9 083d 31b4 ad3c 3321 da3c
00000330: 8c76 033d 44e7 bebb ac36 d2bc 7b2f 02bd
00000340: c51f a43b 81f6 0d3d 5eae 78bc 0aa5 89bd
00000350: 14e2 6fbd 2a68 6bbd 982d b2bc 27d6 9f3c
00000360: 7394 b03c c154 2e3b 77b2 4f3d a852 d93c
00000370: fe84 9b3d 99fa a73b 5c2b 83bb 5cf8 d83b
00000380: ec55 553d b3d1 b0bb 945b e83c cacf 06bc
00000390: 983a f03c f6ef 87bc 1e71 a43c 6cda 60ba
000003a0: e80a 373a 40f2 d9bb 1509 763c 2563 57bc
000003b0: 3752 d3bc 1671 c5bb 9036 083d 79c3 b23c
000003c0: a306 8fbc 8dfc 283d 74f3 173d 32a7 d13a
000003d0: 0efb 78bc 743c af3c e0f6 31bd be12 24bd
000003e0: 5b86 9bbc 5c0c 17bc 72ff 67bc bb99 05bc
000003f0: 3881 44bc bc89 f93b ef92 193d 0537 1d3d

weight f4 [45]
1.0134809 0.9946362 1.0048832 1.0420612 1.0101676 0.9829515 1.0091575 0.9992278
0.9956591 1.0017549 1.0052961 1.0039675 0.98183566 0.95688 0.9973007 0.96440804
1.0043919 0.9996848 1.0090684 1.0000458 0.9929534 1.0060215 0.9726522 1.040792
0.9939835 0.99039686 0.9847712 1.0357891 0.98583287 1.0104529 1.0071161 1.0165731
0.9898428 0.9930079 1.015055 1.0351839 0.99298245 0.97968394 0.99716413 0.9882794
0.9684153 0.996668 0.99790174 0.98886293 1.0087156
00000000: beb9 813f 7aa0 7e3f 03a0 803f 4362 853f
00000010: 2c4d 813f b6a2 7b3f 132c 813f 65cd 7f3f
00000020: 84e3 7e3f 8139 803f 8bad 803f 0282 803f
00000030: 9559 7b3f 16f6 743f 194f 7f3f 72e3 763f
00000040: ea8f 803f 58eb 7f3f 2729 813f 8001 803f
00000050: 3232 7e3f 50c5 803f bcff 783f ac38 853f
00000060: b475 7e3f a68a 7d3f f719 7c3f bd94 843f
00000070: 8b5f 7c3f 8556 813f 2ee9 803f 111f 823f
00000080: 5666 7d3f c435 7e3f 52ed 813f e880 843f
00000090: 1934 7e3f 91cc 7a3f 2646 7f3f e1ff 7c3f
000000a0: 11ea 773f a225 7f3f 7d76 7f3f 1f26 7d3f
000000b0: 981d 813f

bias f4 [45]
0.03711708 -0.043218546 0.020524478 -0.022865837 -0.018234497 -0.045049727 -0.015999638 -0.021328738
-0.052292045 -0.01677106 -0.024670172 -0.006875318 -0.034100913 -0.04113639 -0.012988934 -0.053262316
-0.025111344 -0.021238485 -0.04330706 -0.008971332 -0.047534242 0.009609199 -0.039409984 -0.0097463755
0.008232029 -0.03900219 -0.03907921 0.005055074 0.009642661 -0.0033392159 -0.035032593 -0.008265778
-0.01667106 -0.0056967433 0.004529618 -0.021032736 -0.039390683 -0.052220136 -0.036275804 -0.017815754
-0.0077532986 -0.026836256 -0.010370241 -0.021100564 -0.00054869713
00000000: 1408 183d ee05 31bd f322 a83c 2351 bbbc
00000010: 8360 95bc 1086 38bd ac11 83bc 9bb9 aebc
00000020: 2f30 56bd 7663 89bc 1a19 cabc 594a e1bb
00000030: 66ad 0bbd a27e 28bd 8acf 54bc 9629 5abd
00000040: 4eb6 cdbc 55fc adbc be62 31bd 7efc 12bc
00000050: 44b3 42bd e76f 1d3c 5d6c 21bd 43af 1fbc
00000060: a2df 063c c3c0 1fbd 8611 20bd 09a5 a53b
00000070: 40fc 1d3c bfd6 5abb 567e 0fbd 306d 07bc
00000080: bf91 88bc bfab babb 316d 943b d84c acbc
00000090: 2058 21bd c8e4 55bd f095 14bd 58f2 91bc
000000a0: 620f febb b5d7 dbbc f1e7 29bc 17db acbc
000000b0: 71d6 0fba

running_mean f4 [45]
-1.4833622 -1.4430237 0.8652803 -0.6784722 1.0880289 -0.55941814 0.70032734 0.28420076
-0.8049803 -0.44346368 -0.79667133 -0.81881434 0.590739 -1.2721896 -1.1270955 -1.151342
-0.7149968 0.50824803 -1.0331094 -1.6556833 -1.1884531 -0.14242934 -1.3748201 -0.39936778
2.6189454 -1.3145531 0.16317652 -0.32033512 0.39475387 -0.120692134 0.62607694 -1.0815165
-1.6974843 1.5465411 -0.5034821 -0.6952112 0.15366171 -1.6772606 1.0922705 0.32212433
-0.7924738 0.099317834 -0.94004935 -1.3043143 -0.2811749
00000000: d0de bdbf 00b5 b8bf 0283 5d3f 5bb0 2dbf
00000010: 8844 8b3f 0736 0fbf a748 333f c382 913e
00000020: 3013 4ebf ac0d e3be a7f2 4bbf d19d 51bf
00000030: ac3a 173f 1cd7 a2bf aa44 90bf 2d5f 93bf
00000040: 080a 37bf 8b1c 023f ee3c 84bf 6eed d3bf
00000050: 3b1f 98bf ffd8 11be 1bfa afbf ef79 ccbe
00000060: cd9c 2740 4743 a8bf bf17 273e f702 a4be
00000070: 2e1d ca3e 702d f7bd 9446 203f 226f 8abf
00000080: 2a47 d9bf 0ff5 c53f 34e4 00bf 5cf9 31bf
00000090: 7f59 1d3e 7ab0 d6bf 85cf 8b3f 7bed a43e
000000a0: 90df 4abf 2667 cb3d 13a7 70bf c5f3 a6bf
000000b0: 28f6 8fbe

running_var f4 [45]
0.76551276 2.7182784 0.4805876 1.0488818 0.37523422 1.598763 3.5503454 2.1481566
0.44338837 1.8743206 1.545534 1.0837227 1.5923773 3.9696307 5.1377425 4.550277
3.3140543 1.2589858 2.0421062 1.4588076 1.0121446 1.847196 4.239054 0.7331325
4.1226707 1.8869889 1.2012658 0.8907468 2.860684 1.791705 0.9671971 0.73271054
1.8210773 2.0330596 1.341339 1.1468416 0.8029249 2.3337448 1.7908204 0.84776574
0.5468605 0.9729549 2.028793 1.0822884 1.119779
00000000: a5f8 433f 46f8 2d40 940f f63e c241 863f
00000010: b31e c03e 44a4 cc3f dc38 6340 667b 0940
00000020: cd03 e33e bde9 ef3f 0fd4 c53f 6db7 8a3f
00000030: 05d3 cb3f 6e0e 7e40 6368 a440 df9b 9140
00000040: 7719 5440 7226 a13f deb1 0240 35ba ba3f
00000050: f48d 813f eb70 ec3f 55a6 8740 92ae 3b3f
00000060: ebec 8340 da88 f13f 14c3 993f fb07 643f
00000070: 7215 3740 9756 e53f 3b9a 773f eb92 3b3f
00000080: 1019 e93f a61d 0240 ffb0 ab3f b5cb 923f
00000090: 7c8c 4d3f 135c 1540 9a39 e53f 2d07 593f
000000a0: 0dff 0b3f 9313 793f bfd7 0140 6d88 8a3f
000000b0: eb54 8f3f

weight f4 [18, 45, 5, 5]
0.022080252 0.0074116066 0.009403459 -0.011591611 -0.01839821 -0.05048484 0.015551476 0.028584864
-0.0005318453 -0.00077727024 -0.07595872 -0.052855797 0.00983249 -0.017225502 0.0012045983 6.610205e-05
-0.01946883 -0.02984043 0.018773992 -0.033667944 0.0024679725 0.020536676 -0.021779878 0.011877348
0.0116307475 -0.009047938 -0.004022035 0.009246323 -0.020854982 -0.020513771 0.022519307 0.035868075
0.0070189307 0.020255525 0.008712139 -0.028578598 -0.015863577 0.0055476483 0.0025729553 -0.00045604637
0.046478417 -0.0056964955 0.039066833 0.014594931 0.019251741 0.0024194575 -0.029892318 -0.0049841437
-0.017840488 -0.032713696 -0.0057491157 0.023613319 0.014635679 0.021487875 0.015368694 -0.027813485
-0.015253381 -0.03719728 -0.0034477138 0.00023758525 -0.020210566 -0.035947204 -0.001085337 -0.032685548
-0.018210765 -0.023080675 -0.08371672 -0.07287662 -0.010635355 -0.015290843 0.00834434 -0.004102517
-0.028922345 0.01673064 -0.013045236 0.029226234 -0.004809133 0.027475687 -0.016698651 -0.005547208
-0.023045138 -0.025494821 -0.044639632 -0.051404096 -0.0441564 0.016093675 0.012621583 -0.014745901
0.015070296 0.03759983 0.010213019 -0.071995124 -0.04106079 0.00062246615 -0.04480482 0.030664517
0.024767758 -0.02566275 0.03615382 -0.013170495 -0.047995463 -0.041072134 0.015820188 -0.0029973348
0.014430076 -0.028267663 -0.019882176 0.01437004 0.021356136 0.009992523 0.017623797 0.022983348
0.014725879 0.003537374 0.012172607 -0.0729828 -0.016126594 -0.037636302 -0.041348137 -0.036143284
0.002357774 -0.039542884 -0.01806338 -0.0021229018 -0.024862016 0.0044286908 0.015252749 -0.036282003
-0.0005314517 -0.029389262 -0.005099878 -0.017254436 0.030130694 -0.011364156 0.034888685 0.0149512915
-0.023911921 0.020164795 0.010701596 -0.017311482 -0.0049369317 0.010305038 0.00026434954 0.020818902
0.032818776 -0.023784552 0.012843411 0.017309917 0.030046733 0.0019298475 -0.015139685 -0.0051037543
-0.0087376945 -0.016797265 0.041151866 0.032758404 0.02996328 0.017866917 -0.025285667 0.01519801
-0.011315956 -0.007961022 -0.008428025 0.020781979 -0.00883541 -0.048107393 -0.03363906 0.025699899
-0.014370686 -0.0050921 -0.03716505 0.016246194 0.018140867 0.011155193 -0.028335849 -0.024553778
-0.035975937 -0.0041639456 -0.027075948 -0.014740677 0.031649232 0.007353293 -0.0071587265 -0.012350555
0.03122429 -0.030412436 0.019351017 0.0016163603 -0.0007519038 -0.026240602 -0.011741781 -0.006572512
0.036043294 0.026934166 -0.0023256412 -0.026349528 -0.024550451 -0.021160815 -0.015476057 -0.012580776
-0.004199422 -0.025653353 -0.032588713 0.021880131 0.008685874 -0.021903686 -0.022591174 -0.010898188
-0.027951755 -0.030020492 0.008259118 -0.008786004 -0.014290832 -0.017266283 -0.013149234 0.023129148
0.036950186 0.046323758 0.07083058 0.027501965 0.04260721 0.033548493 0.038695503 0.015156338
0.03952643 -0.030267332 -0.012360614 -0.04341496 -0.0054763798 -0.0019755545 -0.01737988 0.040688474
0.007437344 0.03621052 0.04497541 -0.0147495 0.026367407 0.016147183 -0.004897351 0.021147784
0.0144158695 0.04950904 0.028460637 0.032606166 0.009354984 -0.009599859 0.014742403 0.0055460907
-0.002343636 0.01417126 -0.049191188 -0.039550725 -0.030215368 -0.030929897 -0.017117498 -0.029006423
00000000: a5e1 b43c 10dd f23b f710 1a3c beea 3dbc
00000010: d8b7 96bc 31c9 4ebd 9ecb 7e3c ce2a ea3c
00000020: 896b 0bba b9c1 4bba 3f90 9bbd 527f 58bd
00000030: 7418 213c 7f1c 8dbc 9de3 9d3a 45a0 8a38
00000040: 197d 9fbc eb73 f4bc eacb 993c 66e7 09bd
00000050: b5bd 213b 883c a83c b76b b2bc 3599 423c
00000060: e48e 3e3c cd3d 14bc 46cb 83bb e47d 173c
00000070: 11d8 aabc 7f0c a8bc 697a b83c 67ea 123d
00000080: 0fff e53b eaee a53c 5cbd 0e3c aa1d eabc
00000090: 55f4 81bc 0cc9 b53b 079f 283b 8219 efb9
000000a0: 2760 3e3d aba9 babb 8b04 203d 941f 6f3c
000000b0: d4b5 9d3c c38f 1e3b bce0 f4bc 0752 a3bb
000000c0: 3726 92bc ccfe 05bd 1463 bcbb b870 c13c
000000d0: 7dca 6f3c 5707 b03c facc 7b3c 1bd9 e3bc
000000e0: 51e9 79bc 2d5c 18bd 0af3 61bb 4e20 7939
000000f0: a190 a5bc 603d 13bd de41 8eba 48e1 05bd
00000100: be2e 95bc af13 bdbc ac73 abbd 5640 95bd
00000110: e93f 2ebc 7286 7abc b3b6 083c 686e 86bb
00000120: 8eee ecbc b20e 893c afbb 55bc db6b ef3c
00000130: ee95 9dbb b114 e13c 9ccb 88bc 5ac5 b5bb
00000140: 28c9 bcbc 84da d0bc 0cd8 36bd 1a8d 52bd
00000150: 57dd 34bd e2d6 833c c2ca 4e3c cb98 71bc
00000160: 67e9 763c 4802 1a3d 8254 273c 2e72 93bd
00000170: 5c2f 28bd ff2c 233a 4285 37bd 2734 fb3c
00000180: c1e5 ca3c b03a d2bc 0716 143d 0fc9 57bc
00000190: e496 44bd 413b 28bd 5799 813c ef6e 44bb
000001a0: 206c 6c3c 9691 e7bc f2df a2bc 5170 6b3c
000001b0: 10f3 ae3c aeb7 233c c85f 903c 9347 bc3c
000001c0: d044 713c 4ad3 673b 9d6f 473c 0278 95bd
000001d0: eb1b 84bc 8628 1abd aa5c 29bd fb0a 14bd
000001e0: e284 1a3b b8f7 21bd a7f9 93bc 6220 0bbb
000001f0: 6dab cbbc 8d1e 913b abe6 793c 709c 14bd
00000200: 1f51 0bba c0c1 f0bc e11c a7bb 2d59 8dbc
00000210: a5d4 f63c ba30 3abc 70e7 0e3d 43f6 743c
00000220: efe2 c3bc a430 a53c bf55 2f3c cfd0 8dbc
00000230: fcc5 a1bb 76d6 283c 6598 8a39 678c aa3c
00000240: fb6c 063d d2d7 c2bc 2c6d 523c 87cd 8d3c
00000250: 9124 f63c f0f2 fc3a 710c 78bc 653d a7bb
00000260: 8c28 0fbc 6b9a 89bc dc8e 283d ad2d 063d
00000270: 8d75 f53c a45d 923c e323 cfbc 1301 793c
00000280: 8f66 39bc f26e 02bc b315 0abc f83e aa3c
00000290: 65c2 10bc 420c 45bd 1cc9 09bd 9888 d23c
000002a0: 0773 6bbc a1db a6bb 613a 18bd bd16 853c
000002b0: 289c 943c 45c4 363c 9520 e8bc 0125 c9bc
000002c0: 815b 13bd b571 88bb 61ce ddbc e182 71bc
000002d0: a0a2 013d e4f3 f03b c093 eabb fb59 4abc
000002e0: 15ca ff3c 8023 f9bc 0686 9e3c 0ddc d33a
000002f0: 691b 45ba 88f6 d6bc 9960 40bc 3a5e d7bb
00000300: 22a2 133d 0aa5 dc3c c969 18bb f7da d7bc
00000310: 071e c9bc 7259 adbc 4a8f 7dbc 991f 4ebc
00000320: 4e9b 89bb fb26 d2bc be7b 05bd f63d b33c
00000330: 324f 0e3c 5c6f b3bc 2011 b9bc 508e 32bc
00000340: 14fb e4bc 89ed f5bc 4051 073c 2cf3 0fbc
00000350: 1824 6abc 0572 8dbc e26f 57bc 5779 bd3c
00000360: 1459 173d fbbd 3d3d a00f 913d cd4b e13c
00000370: e684 2e3d 256a 093d 2d7f 1e3d 4a52 783c
00000380: 77e6 213d 32f3 f7bc 2c84 4abc e3d3 31bd
00000390: 3473 b3bb 4e78 01bb 4060 8ebc f5a8 263d
000003a0: f7b4 f33b 7b51 143d 2338 383d e3a7 71bc
000003b0: 7600 d83c 1947 843c f579 a0bb 1e3e ad3c
000003c0: 8a30 6c3c fec9 4a3d 4826 e93c 0b8e 053d
000003d0: a645 193c ba48 1dbc 1f8a 713c fbbb b53b
000003e0: b097 19bb 932e 683c b37c 49bd f1ff 21bd
000003f0: 3886 f7bc b260 fdbc ff39 8cbc e19e edbc

weight f4 [18]
1.0098895 0.998166 1.001699 0.99496293 0.9864712 1.0233166 1.0050013 1.0006361
1.0188336 0.9902952 1.0130336 1.0197791 0.9709628 0.99701345 0.99102515 0.98452514
1.0325859 1.0194781
00000000: 0f44 813f cf87 7f3f ac37 803f e4b5 7e3f
00000010: 6089 7c3f 0afc 823f e2a3 803f d814 803f
00000020: 2469 823f fc83 7d3f 16ab 813f 1f88 823f
00000030: 0591 783f 463c 7f3f d3b3 7d3f d709 7c3f
00000040: c62b 843f 427e 823f

bias f4 [18]
-0.0045954785 -0.023527049 -0.026881067 -0.018461417 -0.0070921048 0.006228494 0.0067350017 -0.011846203
0.017429402 0.035480693 -0.01036596 -0.016840937 -0.07492085 -0.015473463 -0.007850951 -0.01326112
-0.033592086 -0.0119880065
00000000: ab95 96bb ccbb c0bc af35 dcbc 663c 97bc
00000010: e364 e8bb 6518 cc3b 4ab1 dc3b 9416 42bc
00000020: 1bc8 8e3c 3454 113d fdd5 29bc 01f6 89bc
00000030: 1a70 99bd 6884 7dbc 46a1 00bc 2b45 59bc
00000040: db97 09bd 5869 44bc

running_mean f4 [18]
-1.3405334 0.7931212 0.3561114 -1.3743141 0.33990708 -3.5107236 -1.2646517 1.6794808
-1.3888985 -1.7739015 1.9328351 0.8793171 3.0978248 1.2409891 -1.207254 -0.059936
0.89400387 -0.6826037
00000000: 9996 abbf fe09 4b3f 3c54 b63e 86e9 afbf
00000010: 4d08 ae3e b2af 60c0 1be0 a1bf 3af9 d63f
00000020: 6dc7 b1bf 340f e3bf 2467 f73f ed1a 613f
00000030: c342 4640 bbd8 9e3f 4d87 9abf 737f 75bd
00000040: 70dd 643f 1ebf 2ebf

running_var f4 [18]
3.0614932 3.3079813 3.0104194 3.3127317 10.687154 6.933971 0.7469305 1.7829124
2.8751411 5.2245135 6.475931 2.7469218 2.6004393 4.465545 3.238948 6.03709
2.5680358 2.6145725
00000000: 81ef 4340 f7b5 5340 b6aa 4040 cc03 5440
00000010: 95fe 2a41 17e3 dd40 d636 3f3f 7936 e43f
00000020: 5002 3840 372f a740 d43a cf40 91cd 2f40
00000030: 996d 2640 bfe5 8e40 ed4a 4f40 d72f c140
00000040: b35a 2440 2855 2740

weight f4 [6, 18, 5, 5]
0.03192181 -0.0569638 -0.05146747 0.009590811 0.0064609167 0.032417245 0.028037166 -0.027158214
0.02703616 -0.014933835 0.03838387 0.024648579 0.020269828 0.028802028 -0.008683506 0.023289204
-0.009867192 0.009207491 -0.0430364 0.028955929 -0.006353945 0.06121651 -0.009279171 0.036661
0.0048564933 0.002789698 -0.01747271 0.047124006 0.028291887 -0.023471167 0.009132524 0.041490395
-0.013406472 0.0017653807 -0.05395974 0.03255695 -0.014612102 -0.036006987 0.024539307 0.011842362
-0.02756315 -0.0055968505 0.0025529587 -0.03265362 -0.023212293 -0.047667794 0.032605886 -0.029756682
-0.06709363 -0.013844227 0.0028919957 -0.0007638324 -0.031626552 3.2190914e-05 -0.00042062372 0.02125857
0.020949475 0.014307664 0.0018439615 0.005752903 0.011230487 0.026765104 0.025629811 -0.020017963
0.03837285 -0.020192284 -0.0033987816 0.012179293 0.0244502 -0.048665356 -0.020842053 0.027620867
0.01143419 -0.014974499 -0.031562835 -0.00972075 0.021662423 -0.05555367 -0.06709911 -0.07851083
-0.009372499 -0.010064012 0.014774582 0.0057215956 -0.030462494 0.027161984 0.022233615 -0.043759424
-0.055316158 0.016908128 -0.030400034 -0.05409843 -0.054230973 0.028345177 -0.05815339 -0.039614394
0.008960016 -0.060874723 -0.050064463 -0.030791422 0.048434895 0.014014957 0.03276863 0.040588703
0.03446096 0.03512934 0.023324419 0.0030759233 -0.009764537 -0.04381054 0.037985478 0.047097992
0.011453198 -0.004022742 0.035873216 0.003417039 0.029308967 0.055085827 0.036748298 0.057935745
0.041584503 0.017080585 -0.024166435 0.020019438 -0.0030371014 0.039538495 0.020823209 0.0130153755
0.06105193 0.05269769 0.019737538 0.021632189 -0.012012327 0.014721245 0.022219192 0.022840466
0.05609521 -0.00029457698 0.07739327 0.036530964 0.014628948 -0.03382909 0.022010183 0.005838445
0.007740085 0.024096828 0.04463805 0.020854807 0.030143525 0.062118854 0.004862791 -0.020545058
0.037939258 0.04322144 0.059574865 -0.030183947 -0.021182494 -0.0040923236 -0.005509752 -0.02289147
-0.05891818 -0.036878724 0.0151229855 0.02999059 -0.012019813 0.02291556 0.031409383 0.0010490674
0.057526328 -0.016317789 -0.020694094 0.0077440576 -0.022374164 -0.017164871 0.03372973 -0.005889734
-0.040474687 -0.034490123 0.024789674 -0.056307487 0.024284218 -0.033017803 -0.047663547 0.014281203
-0.012018772 -0.014179076 -0.03622039 -0.00517535 -0.05610797 -0.046510026 -0.031631537 -0.046493832
0.03566611 -0.03537544 0.025702223 -0.061372872 -0.020259835 -0.02988636 0.044646587 -0.0060195024
0.02553031 0.006124828 0.053062305 0.01686619 -0.020466968 0.040464588 0.00783317 0.023002261
0.09534761 0.10181207 -0.0013533096 -0.030189026 0.058854874 -0.016494626 0.044880547 0.049471665
0.020725895 -0.02522328 -0.010856583 0.05496447 0.02567026 0.046718232 0.0451761 0.042013295
0.009663238 0.024889335 -0.044431213 -0.026005171 -0.037974745 -0.041599505 0.028688347 -0.045599632
0.01572313 -0.014033587 -0.0061964714 0.012316418 0.018688273 0.024051638 -0.06904985 0.027606774
0.010330453 -0.002291534 -0.03951893 0.026154587 0.010873468 0.011158966 -0.021993328 0.010873429
-0.030455312 -0.05334929 0.005346182 -0.027557753 -0.0049800216 0.033798784 0.038596082 0.038348906
00000000: 72c0 023d e052 69bd 8ecf 52bd c722 1d3c
00000010: 19b6 d33b f2c7 043d 33ae e53c e77a debc
00000020: f07a dd3c 0bad 74bc 6838 1d3d d1eb c93c
00000030: e90c a63c 3bf2 eb3c 4445 0ebc 00c9 be3c
00000040: 01aa 21bc 04db 163c f046 30bd fc34 ed3c
00000050: c134 d0bb 2abe 7a3d aa07 18bc d829 163d
00000060: 3823 9f3b 5ed3 363b ee22 8fbc 1a05 413d
00000070: 63c4 e73c 9b46 c0bc 95a0 153c d5f1 293d
00000080: d2a6 5bbc 5964 e73a e304 5dbd 705a 053d
00000090: 9967 6fbc 107c 13bd a806 c93c 7706 423c
000000a0: 1dcc e1bc c965 b7bb 8a4f 273b cdbf 05bd
000000b0: b527 bebc 4e3f 43bd c08d 053d 49c4 f3bc
000000c0: 6368 89bd e6d2 62bc a387 3d3b ed3b 48ba
000000d0: d88a 01bd bb04 0738 2987 dcb9 7426 ae3c
000000e0: 3c9e ab3c b16a 6a3c 15b1 f13a d982 bc3b
000000f0: 1400 383c 7e42 db3c 9cf5 d13c b6fc a3bc
00000100: d92c 1d3d 4a6a a5bc 18be 5ebb a88b 473c
00000110: c94b c83c 5355 47bd f4bc aabc 2845 e23c
00000120: 7856 3b3c 9a57 75bc 0848 01bd c843 1fbc
00000130: 6575 b13c 3f8c 63bd 426b 89bd 49ca a0bd
00000140: 1c8f 19bc 87e3 24bc 1711 723c 397c bb3b
00000150: 7b8c f9bc cf82 de3c 4523 b63c 153d 33bd
00000160: 3293 62bd ea82 8a3c 7e09 f9bc 5196 5dbd
00000170: 4c21 5ebd 2534 e83c 4032 6ebd b442 22bd
00000180: 08cd 123c c657 79bd 6510 4dbd 4b3e fcbc
00000190: ab63 463d fd9e 653c 6638 063d 5740 263d
000001a0: f026 0d3d c8e3 0f3d da12 bf3c 6e95 493b
000001b0: 70fb 1fbc ae72 33bd a996 1b3d d3e9 403d
000001c0: 32a6 3b3c 35d1 83bb cbef 123d 67f0 5f3b
000001d0: 5c19 f03c ada1 613d 6285 163d 084e 6d3d
000001e0: 8354 2a3d 95ec 8b3c b0f8 c5bc ceff a33c
000001f0: 1b0a 47bb 1ef3 213d 6f95 aa3c 713e 553c
00000200: 9711 7a3d 88d9 573d 9eb0 a13c fd35 b13c
00000210: 5acf 44bc 6031 713c 0605 b63c ee1b bb3c
00000220: 17c4 653d 7471 9ab9 5d80 9e3d 7ea1 153d
00000230: 41ae 6f3c 5f90 0abd b34e b43c 6d50 bf3b
00000240: 8aa0 fd3b b666 c53c 63d6 363d b3d7 aa3c
00000250: 8eef f63c 5770 7e3d 0c58 9f3b 1c4e a8bc
00000260: 3266 1b3d f708 313d c604 743d 5344 f7bc
00000270: e986 adbc e618 86bb 268b b4bb e486 bbbc
00000280: 3154 71bd 250e 17bd 66c6 773c d3ae f53c
00000290: c0ee 44bc 6ab9 bb3c 20a7 003d dc80 893a
000002a0: baa0 6b3d e2ac 85bc a986 a9bc ddc1 fd3b
000002b0: 064a b7bc 589d 8cbc 2f28 0a3d abfe c0bb
000002c0: c9c8 25bd 8445 0dbd b713 cb3c aea2 66bd
000002d0: b2ef c63c ad3d 07bd da3a 43bd b5fb 693c
000002e0: 62ea 44bc 5b4f 68bc d55b 14bd fb95 a9bb
000002f0: 79d1 65bd 4c81 3ebd 1290 01bd 5170 3ebd
00000300: a116 123d d6e5 10bd 788d d23c 1f62 7bbd
00000310: f4f7 a5bc 3dd4 f4bc 57df 363d 3f3f c5bb
00000320: f124 d13c c8b2 c83b dc57 593d f72a 8a3c
00000330: 58aa a7bc 32be 253d b256 003c 3d6f bc3c
00000340: 9c45 c33d d982 d03d 8961 b1ba fa4e f7bc
00000350: cf11 713d bd1f 87bc aad4 373d cda2 4a3d
00000360: 5ac9 a93c 0da1 cebc cfdf 31bc 6d22 613d
00000370: 704a d23c 9e5b 3f3d 930a 393d 2216 2c3d
00000380: 8f52 1e3c b8e4 cb3c 81fd 35bd cc08 d5bc
00000390: 688b 1bbd 3e64 2abd d303 eb3c aec6 3abd
000003a0: cbcd 803c 21ed 65bc c50b cbbb cdca 493c
000003b0: 2618 993c f107 c53c 026a 8dbd 9a27 e23c
000003c0: 0f41 293c 902d 16bb 9ade 21bd 2542 d63c
000003d0: a126 323c 19d4 363c 5a2b b4bc 7726 323c
000003e0: 6b7d f9bc c984 5abd 062f af3b ccc0 e1bc
000003f0: 732f a3bb 9870 0a3d ed16 1e3d be13 1d3d

weight f4 [6]
1.0031154 1.018792 0.995956 0.99899 0.99204683 1.0001655
00000000: 1666 803f c767 823f f9f6 7e3f cfbd 7f3f
00000010: c8f6 7d3f 6c05 803f

bias f4 [6]
0.0064921346 -0.00034997807 -0.027010709 0.0054057664 -0.031779237 -0.0039864606
00000000: f9bb d43b 437d b7b9 9045 ddbc db22 b13b
00000010: f22a 02bd dba0 82bb

running_mean f4 [6]
-0.33902207 -0.72685045 0.56537545 -0.028048664 -0.20313369 0.84285384
00000000: 4d94 adbe df12 3abf 72bc 103f 50c6 e5bc
00000010: 4702 50be 45c5 573f

running_var f4 [6]
2.0681534 0.7618167 0.92600745 0.1473023 0.701319 0.7139334
00000000: a05c 0440 6b06 433f d30e 6d3f 6ad6 163e
00000010: a489 333f 57c4 363f

weight f4 [1, 6, 5, 3]
-0.041519985 -0.08102858 -0.0049443217 0.079052225 0.14267851 0.14904147 -0.037788976 -0.039582834
0.01666254 -0.038398203 -0.02025368 0.036864042 0.07850358 0.03942345 -0.010470702 -0.04759948
0.10315623 -0.13407828 -0.08839945 0.07958042 0.05767815 0.029101238 0.09979586 -0.024676116
0.011328224 0.06815268 -0.010275082 0.018644571 -0.006753035 0.09625613 -0.08238979 0.08990426
0.019956416 0.022640811 -0.027044157 0.06883395 -0.03770757 0.08103277 0.060463984 -0.088828534
0.0411402 0.03832855 0.017282257 0.057526927 0.07469377 0.055125553 0.08827962 -0.1449958
-0.0026827832 0.0061157197 0.017943695 -0.043843985 0.012774632 -0.0656311 -0.062883735 0.04990372
-0.06505541 -0.0420728 0.07125558 -0.0071957856 0.0015914558 -0.05828866 -0.087614685 -0.055556204
-0.08944814 0.037777197 -0.02594117 -0.08398082 0.05331427 0.07785684 0.108755015 -0.052559014
-0.08194528 -0.0033342487 -0.06880584 0.011143832 -0.054555275 0.08955409 -0.10258701 0.008782923
0.093229 -0.063305184 0.025801316 0.015399522 -0.040738706 -0.00813734 -0.034288142 0.013199422
-0.03006997 0.0103735775
00000000: dc10 2abd 50f2 a5bd fa03 a2bb 22e6 a13d
00000010: 511a 123e 549e 183e 9dc8 1abd 9c21 22bd
00000020: e17f 883c 6f47 1dbd 0ceb a5bc c0fe 163d
00000030: 7cc6 a03d 7c7a 213d 4f8d 2bbc acf7 42bd
00000040: 9343 d33d d14b 09be c50a b5bd 0ffb a23d
00000050: ec3f 6c3d b865 ee3c c661 cc3d 9125 cabc
00000060: 049a 393c a293 8b3d d158 28bc 80bc 983c
00000070: 9048 ddbb ef21 c53d fabb a8bd ba1f b83d
00000080: a37b a33c 3979 b93c b58b ddbc d0f8 8c3d
00000090: 4173 1abd 82f4 a53d 15a9 773d bceb b5bd
000000a0: a082 283d 66fe 1c3d 8593 8d3c 5ba1 6b3d
000000b0: 0cf9 983d 55cb 613d f2cb b43d c779 14be
000000c0: a2d1 2fbb 6066 c83b a8fe 923c c095 33bd
000000d0: b14c 513c 9969 86bd 30c9 80bd d867 4c3d
000000e0: c53b 85bd 8754 2cbd 72ee 913d a0ca ebbb
000000f0: 6598 d03a 17c0 6ebd 546f b3bd e78e 63bd
00000100: 9630 b7bd 43bc 1a3d 9482 d4bc 23fe abbd
00000110: 1060 5a3d 6873 9f3d f3ba de3d 1f48 57bd
00000120: edd2 a7bd 6983 5abb 14ea 8cbd 9e94 363c
00000130: 5a75 5fbd 2268 b73d 2319 d2bd 40e6 0f3c
00000140: d9ee be3d 26a6 81bd 485d d33c 474e 7c3c
00000150: a1dd 26bd 7a52 05bc b971 0cbd 6342 583c
00000160: 4c55 f6bc f0f5 293c
