source/models/SingleNoteTimbreCNN/model_128_20_0.001.pth (torch, 201935 bytes, 26 tensors)

weight f4 [6, 1, 5, 5]
00000000: d514 8e3c 1b46 eebd 80ae 713d f588 64bd
00000010: 21ff c1bc b514 b7bd bc84 f5bd 505a 91bd
00000020: f949 3abe 5b8c 143e a5b7 1fbe cb9b 46be
00000030: 2811 213e eb4e 71bd 5295 cebc 9799 be3d
00000040: e378 f7bd 6bf8 32bc 8db3 093e e6b7 3d3e
00000050: d638 113e 4f54 11bc fce2 19be be2c c1bd
00000060: 68d7 b0bd c6d5 29be 1f86 2f3d 1800 d63d
00000070: 4013 493e 015e 413e 1565 133e 5268 503e
00000080: 2dde 383b e7e3 5c3d b612 963c 8620 e33d
00000090: 0afd f2bd ecfc 0d3e 94e7 14be 1c98 da3d
000000a0: d648 85bd 117b 33be 68e3 c4bb 6079 42be
000000b0: b3a4 023c 3a60 3c3d 4c2a 1dbe a1d2 023d
000000c0: 149c 85bd 854b 003e dd7c 2e3e 795b 233e
000000d0: 153a 29be 0509 4abe e52a 56be b9a7 07be
000000e0: 4fee 83bb 6f18 24be f4cb d23d 04d3 473d
000000f0: 3436 293d 629c 49bc 97d0 043e 5790 ef3d
00000100: ff1b 0ebe 9ed2 83bd d7df 8cbc 80b3 023e
00000110: 3c65 14be 1db1 c2bd 22de 413e eeb0 15be
00000120: 6919 25bd c04e 45be 8614 1c3e 8f8d 22be
00000130: 896a 233d bc22 29be 55ff 94bc f929 0a3d
00000140: 2de0 5f3d 484f d1bd f9e9 28be 23b3 85bd
00000150: 0abc 093d 45a6 d0bd 7cf2 32bd 2773 5c3d
00000160: 2ac1 463e 6341 c93d 4eab b73d 200d 403d
00000170: 933a 0cbd f628 b1bd 273c dc3d 8df5 f7bd
00000180: 16ed 643d 91d4 b03c 83ad 8dbd 8caf 4cbd
00000190: 6da6 3a3e 94ca 623d 2272 d03c 683f 5ebd
000001a0: 5fab fcbd 233f 553d b81a 2fbd 92f5 21be
000001b0: fec5 bfbd 7588 42be b932 dd3d 358f 25be
000001c0: 2813 863d 4900 fd3a efd4 35be c40b a13d
000001d0: eec3 7cbd fd20 2e3e 60d5 3f3e ebcd 213e
000001e0: 81ef 483d ef85 c53d a0af 16bd 08fa a43d
000001f0: d44a 1bbd efb4 8c3d c1da 16be e723 fb3d
00000200: fe48 d93d e576 033e 6b30 2c3e 6732 7bbd
00000210: 6fd6 2d3e e3e3 333e 6ae2 813d 31e7 f83b
00000220: 7da6 223e b2a2 353e d6a5 c03d 9024 3b3e
00000230: ea13 393d 6fe6 b0bd 988a 2b3e 05aa ccbd
00000240: f8cd 4d3e 4433 34be 2545 c7bd af2b 223d
00000250: 6486 c83d 7a35 5abd
0.017343918 -0.11634465 0.059004307 -0.055794675 -0.023681225 -0.089394964 -0.11988208 -0.07097304
-0.18192281 0.14506666 -0.15597399 -0.19395368 0.15729201 -0.058913153 -0.025217686 0.09306639
-0.12083604 -0.010923485 0.134474 0.18527183 0.14181837 -0.008870198 -0.15027994 -0.09432362
-0.086348355 -0.16585454 0.042852517 0.10449237 0.1963625 0.18883516 0.14394028 0.20352295
0.00282086 0.053928282 0.018319469 0.11090188 -0.118646696 0.13866013 -0.14541465 0.10673544
-0.06508033 -0.17527415 -0.0060085543 -0.18991613 0.007973838 0.045990206 -0.15348166 0.031939153
-0.0652391 0.12528808 0.17039819 0.15952863 -0.16526063 -0.19730003 -0.209148 -0.13247575
-0.0040262113 -0.16024946 0.10292807 0.048785225 0.041311458 -0.012305351 0.12970196 0.116974525
-0.13877867 -0.064366564 -0.017196579 0.12763786 -0.14491743 -0.09506438 0.18932393 -0.14618275
-0.040307436 -0.19268322 0.15242204 -0.15874313 0.03989652 -0.16517156 -0.018188158 0.033731434
0.05465715 -0.102202 -0.16495503 -0.06528308 0.033626594 -0.101879634 -0.043688282 0.053820755
0.19409624 0.09826925 0.08968221 0.046887517 -0.03423555 -0.08650391 0.10753661 -0.12107382
0.055890165 0.021585735 -0.0691786 -0.049972102 0.18227549 0.055368975 0.025445048 -0.054259688
-0.12337374 0.052062165 -0.04275009 -0.15816334 -0.09363936 -0.18997367 0.1080069 -0.1616791
0.065466225 0.0019302453 -0.17757009 0.07863572 -0.06171029 0.17004772 0.1873374 0.15801208
0.049056534 0.096446864 -0.036788583 0.08055502 -0.03791316 0.06870448 -0.14731885 0.12262707
0.10609625 0.12838323 0.16815345 -0.061327364 0.16976331 0.175674 0.06342013 0.0075959195
0.15883823 0.17737845 0.09406631 0.18275666 0.045185007 -0.08637702 0.16752088 -0.09993366
0.20098102 -0.17597681 -0.09729985 0.03959244 0.09791258 -0.053273655

weight f4 [6]
00000000: 2299 803f bc2c 7f3f 6c09 7f3f 697b 803f
00000010: 48b8 803f ce10 7d3f
1.0046732 0.99677634 0.9962375 1.0037662 1.0056238 0.98853767

bias f4 [6]
00000000: 81a8 9eba 5488 cbba 4c20 733b 26cf b6ba
00000010: 0f66 583c 1675 39bc
-0.0012104661 -0.00155283 0.0037098108 -0.0013947233 0.013207926 -0.011319419

running_mean f4 [6]
00000000: e448 e8bb 3f9d 5b3c 4889 1dbc 62b0 79bb
00000010: c836 c6bb 352f cb3c
-0.0070887674 0.01340419 -0.00961525 -0.0038099517 -0.006049011 0.024802784

running_var f4 [6]
00000000: a858 c73e ebff 8f3e 06d1 5f3e 5c50 023e
00000010: f501 cd3d bff9 0340
0.38934827 0.28124937 0.2185708 0.12725967 0.10010139 2.0621183

weight f4 [18, 6, 5, 5]
00000000: e3df 12bd 8df3 22bd 6f0d 96bd 7d1b 97bd
00000010: 8b65 033d 6bc0 563a d5d2 7bbd c028 98bd
00000020: efca acbc 05ce 3cbd a78e 1ebd 1f9b 983b
00000030: 7713 433c 94d4 9d3c f7bb 93bd 6f29 c03b
00000040: b49d 653d 67dc 593c bc8b 59bc 1bfe 50bd
00000050: 5829 b93c 0885 2bbd 0d0f 793d 1d2d 483d
00000060: 289a 8a3d 4d83 0b3d ced3 9b3d 1705 383d
00000070: 23fe 543d d73d 0dbd c560 77bc b177 47bd
00000080: a429 e03c 60e9 98bd 64ae d8bc c4a6 acbc
00000090: e515 843d df31 59bd 00e8 97bd c9c6 b0bc
000000a0: ad19 babc 8f22 53bd 6a00 67bd 5118 603b
000000b0: 3b65 4cbd 20b6 003d dfd2 c63b 919d 73bd
000000c0: c72b 8c3d 71bb 8a3d bf62 f0bc 70d5 a2bd
000000d0: 6ad8 98bc f119 623c ca6b 053c 686d 8bbd
000000e0: 4144 413d 46b1 e8bc 868a b9bc bad2 74bc
000000f0: 05c4 fb3c fe07 923d e472 9a3d 13a6 7cbd
00000100: 0511 b3bb 7413 943d fbd9 22bb b812 833d
00000110: 24e7 44bd c0a9 843d 1a74 0abd 9843 c7bc
00000120: 5ba1 62bd 7118 9dbd f7ab 0dbc dac0 1c3d
00000130: 8de7 4a3d d2c0 2bbd b052 913d 4d86 1c3c
00000140: 2132 873d 0f8a 29bd c7de 493d d50c 9d3c
00000150: 639a 63bd ebf4 993c 7cf7 97bd 113d a93c
00000160: ebd3 0cbd a1a5 aa3c 8a65 83bc 130d 21bc
00000170: 8517 873d 5710 7bbd 80e1 053c 299d b0bc
00000180: 9636 1bbd 5f33 34bd abe7 d5b8 0970 0dbd
00000190: 0af4 a5bb 491a 1ebc 2122 58bd 3cec 9d3c
000001a0: 57ca 73bd 28b2 0a3c 42d8 953d f784 943d
000001b0: b272 92bd 2eb2 963c e5e9 e8bc 4db8 7ebc
000001c0: 1b7e 893c 7d91 59bd e5cb 93bd 02ce a2bd
000001d0: 0b6f 9c3b a3d3 8e3d 3430 013d cca5 39bd
000001e0: e07e a9bd 8bf0 8b3d 2e79 513d b486 923d
000001f0: 6f55 673d e1a0 99bd f88c 393c 0e21 21bd
00000200: 26fe a2bd b464 6ebd 03a7 153d cf48 1a3c
00000210: 63d4 16bd ae59 4f3d bcbb 91bd f2ac 86bd
00000220: 0fdb 143d 45ac e0bc dce0 a53d 6080 863d
00000230: ebac 963c 60f5 863d 05e5 f3bc 1aa6 a5bc
00000240: 8211 3cbc 7594 4bbd fceb 76bd dc17 983d
00000250: 9172 38bd 5f42 1bbd 2a76 92bd b181 123d
00000260: 9671 81bc 24d9 4f3d b54b 19bd 255f e0bc
00000270: 7590 253d c8f0 61bd 8d9d a63d ab51 853d
00000280: eaf3 033d 2fd4 43bd b26c 9dbc 746c a1bc
00000290: 23ed 3e39 f013 333d 31aa 5e3d 6692 353d
000002a0: 4b54 8c3d 0345 7abc 0cb0 49bd 261a 9bbd
000002b0: 0798 c8bc c10a 433d 4554 163c f44b 3d3d
000002c0: 9838 debc a4f2 a9bd 69eb 78bd ec1c 85bd
000002d0: 60dc b93c 011e 48bd 48d9 b9bd 5308 38bd
000002e0: 15f9 833d 0e23 0dbd 621b 0d3d e9a3 87ba
000002f0: aa3c 743d 5575 e3bc 0d7a 73bd 7cdc 67bd
00000300: 69d3 5dbd 5b4a 83bd 8ef8 e73c 61fd 043d
00000310: 8a1d 61bd 66a1 87bd 1fd1 90bd 63ce 0e3c
00000320: 227f 2e3d affe a03d e104 883c fa4b c33c
00000330: 489e 8fbc dde4 843d 23c1 87bd 3c4e 57bc
00000340: 4a8f 3a3d 65a5 91bd 77a9 82bd 7f8e 863d
00000350: 7451 6fbd 23e9 0bbd b898 17bb 7e08 f93b
00000360: 6402 b13d 1788 853c b732 d03c 52e3 efbc
00000370: 1fe3 e23c 5efa 113d def0 213d 9bf5 833d
00000380: e8e3 933b ead2 91bd 8e38 613d bbef c63c
00000390: 5acd b63d 4ee7 b13d 5a0c d2bc 4688 c93c
000003a0: 7117 883d 26c4 4abd 797d 9c3d 0422 12bd
000003b0: f4a3 753d 09c9 1abc 24f4 b3bc ee19 dfbb
000003c0: e373 a03d e034 3b3d b75c eabb 552e 073d
000003d0: 32d8 e3bc 0e99 83bd dbc9 e9ba d417 853c
000003e0: a6ee 81bd 2841 a03d 447a 8a3d 7f72 90bc
000003f0: fa8d 55bd 11cd 96bd c078 6c3d 3079 8fbd
-0.035858046 -0.03978305 -0.07326781 -0.0737829 0.03207926 0.00081921247 -0.061480362 -0.074296474
-0.02109286 -0.046094913 -0.038710263 0.0046571638 0.011906496 0.019266404 -0.07213586 0.0058643143
0.0560586 0.013297177 -0.013277944 -0.051023584 0.022602722 -0.041874915 0.06080537 0.04887115
0.06767684 0.034060765 0.07608758 0.04492673 0.052000176 -0.034482803 -0.015098755 -0.04869813
0.027363606 -0.07466388 -0.026450343 -0.021075614 0.064494886 -0.053026076 -0.07417297 -0.021579163
-0.022717321 -0.05154663 -0.05639688 0.0034194181 -0.04990123 0.031423688 0.0060676183 -0.05947644
0.06844287 0.06774033 -0.02934396 -0.07950866 -0.018657882 0.01380013 0.008143375 -0.06807977
0.047184233 -0.028404843 -0.022649061 -0.014942819 0.030733118 0.07130431 0.07541445 -0.06168182
-0.0054646754 0.07230273 -0.0024849165 0.06400055 -0.048071995 0.0647769 -0.03380213 -0.024324223
-0.05532966 -0.076706775 -0.008646957 0.038269855 0.04953723 -0.041931935 0.070958495 0.009553504
0.06601358 -0.04139143 0.049284723 0.019171158 -0.055567157 0.018793544 -0.07420251 0.020659002
-0.03438179 0.020830931 -0.016039629 -0.009829777 0.06596283 -0.06129488 0.008171439 -0.021559315
-0.037893854 -0.043994304 -0.00010199783 -0.034530673 -0.005064492 -0.009649822 -0.052766923 0.019277684
-0.05951914 0.008465327 0.073166385 0.072519235 -0.07150783 0.01839551 -0.028431842 -0.01554687
0.016783765 -0.053117264 -0.07216624 -0.07949449 0.0047739795 0.0697396 0.03154011 -0.04532413
-0.082761526 0.06832989 0.051140957 0.07154599 0.05647796 -0.07501388 0.0113251135 -0.039338164
-0.07958631 -0.058201507 0.036536228 0.009416773 -0.03682364 0.050622635 -0.071158856 -0.065759555
0.036341723 -0.027425895 0.08099529 0.06567454 0.018393 0.0658977 -0.029772291 -0.020220805
-0.011478784 -0.049702127 -0.060283646 0.07426426 -0.045031134 -0.037905093 -0.07151444 0.035768215
-0.015801232 0.05074419 -0.037425715 -0.027389118 0.040420968 -0.055161268 0.08135519 0.065097176
0.032215036 -0.047809776 -0.019216869 -0.019705035 0.00018208152 0.043720186 0.054361526 0.04432907
0.06852015 -0.015275243 -0.049240157 -0.07573347 -0.024486555 0.047617678 0.009175365 0.046215013
-0.027126595 -0.08298233 -0.06077138 -0.06499657 0.02268809 -0.04885674 -0.09074646 -0.044929814
0.06443993 -0.03445726 0.034449942 -0.0010348532 0.059628166 -0.02776591 -0.05944257 -0.056606755
-0.054156695 -0.064106666 0.028316762 0.032468203 -0.05495981 -0.06622581 -0.07071137 0.008716199
0.042601712 0.07861077 0.016603889 0.02383994 -0.01753153 0.06488965 -0.06628635 -0.013141211
0.045546807 -0.07111625 -0.06379979 0.06570148 -0.05842729 -0.034157883 -0.00231318 0.0075998893
0.08643034 0.016300244 0.025414808 -0.0292832 0.02769619 0.03563916 0.03953635 0.0644333
0.0045132525 -0.07120307 0.054985575 0.024284234 0.089258865 0.08686696 -0.025640655 0.024601113
0.06645096 -0.049503468 0.076411195 -0.03567697 0.05997081 -0.009447345 -0.021967001 -0.006808511
0.07834604 0.045704722 -0.0071521658 0.03300317 -0.02781305 -0.06425677 -0.0017836647 0.016246714
-0.06344347 0.078249276 0.067616016 -0.017632721 -0.052137353 -0.07363332 0.057732344 -0.070055366

weight f4 [18]
00000000: f0a0 7c3f a942 803f 3957 803f acd0 803f
00000010: e211 7f3f ff99 7e3f 5e8b 803f 806d 7e3f
00000020: 0a00 7e3f 9184 803f d440 813f d0d9 803f
00000030: 0b7a 7f3f 9e22 803f 1909 803f 5c56 7e3f
00000040: 919d 803f 8767 7d3f
0.9868307 1.0020343 1.0026618 1.0063682 0.9963666 0.9945373 1.0042531 0.99385834
0.9921881 1.0040456 1.0097909 1.0066471 0.997956 1.0010564 1.0002776 0.99350524
1.0048085 0.98986095

bias f4 [18]
00000000: 2040 a6bc 9ad9 49bc 742d 1f3b 7d9e 10ba
00000010: df1c f9bb a344 e03a 285b 31bb 3fd0 a4bc
00000020: 5f5b 213c a870 e4bb 9f0e 223c a0dc 693a
00000030: 4a20 ecba 0857 cdbb be2f d23a 1373 74bc
00000040: 2c80 62bb 7416 80bc
-0.020294249 -0.012319947 0.0024288567 -0.00055167807 -0.0076023187 0.0017110299 -0.002706239 -0.02011883
0.009848445 -0.0069714375 0.009891181 0.00089211203 -0.0018014994 -0.0062664784 0.0016035957 -0.014920014
-0.003456126 -0.015635706

running_mean f4 [18]
00000000: ffe1 d4be 9b08 b63d 4eda 1bbe 4b69 603f
00000010: 9c80 36be 5b47 6bbf 5311 053f db66 f13e
00000020: 62ce d83e 8411 9cbe 1640 9a3e 7f83 b9be
00000030: 82a1 a0be 33b5 35be a01c 46bc 00cd b9be
00000040: 7312 fb3d d40e fd3e
-0.4157867 0.0888836 -0.15219995 0.87660664 -0.17822498 -0.91905755 0.5197956 0.47148785
0.42344958 -0.30482113 0.3012702 -0.36233136 -0.3137322 -0.17744903 -0.012091786 -0.36289215
0.12259378 0.49425375

running_var f4 [18]
00000000: 243f ae3d 2c6f 973e d96f 2d3e 6da1 1d3e
00000010: 18bf d43e 43e6 c83e ac6a 663e b4c6 603e
00000020: fe1d aa3d 7aaa 543e ca61 6c3d 4bdd a43d
00000030: d0b0 a83d a567 bc3d ff70 843d 8a4c e03d
00000040: b320 f13d 4e42 c93d
0.08508137 0.29577005 0.16937198 0.1539361 0.41552043 0.39238176 0.2250163 0.21950799
0.08306502 0.20768157 0.057710446 0.08050021 0.08236849 0.09199456 0.06466865 0.10952099
0.11773815 0.098271

weight f4 [45, 18, 5, 5]
00000000: 8d2e 8cbc f4d6 d0bc d923 563c 4f3b 15bd
00000010: abad 5abd 0ed7 3e3d b206 ee3b b839 ebbb
00000020: c476 fabc 3de4 133d 04cc 80bc 21b2 6ebc
00000030: fbfa 0a3d 3d89 3c3d cd84 1bbd 56b4 af3b
00000040: ff02 3dbd 2025 003d 2cb9 79ba c9aa 90bc
00000050: 523b 593b 5282 3e3c 9941 0dbd 5753 febc
00000060: a70a 833c 7ef2 da3c b609 0dbd c213 883c
00000070: e034 48bc 5c13 69bb 0ee2 b53c ddfc 803c
00000080: 70d6 2e3d ea5d 05bd 322b 4bbc e250 113b
00000090: 4eb4 8cbc e28f e1bc 5922 0e3c ef5e f9bb
000000a0: 3d1f 423d e94f 0c3d ccbb 153d 891d 123d
000000b0: 4557 8c3c 7846 6ebc acab 563d d779 83bc
000000c0: b249 0b3d af1c 843c d06c 993c c237 153d
000000d0: ecf4 8cbc d3e0 b4bc 3c97 a5bc 1cd0 b5bc
000000e0: 1388 f5bc e51c 5fbd 4622 5abd 3fa8 47bd
000000f0: 3f0d 01bd ca85 cdbc 0716 db3c 416f 0d3d
00000100: 59ab c1bc 75e4 ba3b d941 98bb 0ff1 70bc
00000110: f471 583c 7d07 4bbd 9ff2 bdbc d87a 34bc
00000120: f58b 0cbd 8aa0 34bd 3fe8 1abd 0f64 2f3c
00000130: a458 92bc daa0 853c 9e8a 20bd c9de 49bd
00000140: ccbb cd3c deb4 39bd b61f 91bb f31b 08bd
00000150: 21a2 0db9 f8f9 dc3c a9a7 193d 0224 e03b
00000160: c8a3 f83c 1aca 3bbd 2bec 08bc 6807 e6b9
00000170: 167f 38bd 7d75 073d 5a49 073c 550f 203d
00000180: c7f7 ae3b 0c31 2cbc 13ab 46bc 7927 213d
00000190: 1eea 2bbd 92d7 9d3c 631a 083d df30 3abd
000001a0: ba7c 90bc c2e0 cb3c 87d1 a43c 0e4e 093d
000001b0: 69ac 553c 16d1 443d 34de b7bc 5ecd 193a
000001c0: 9083 1d3d 107f f53c a38c 203d e6f5 3a3c
000001d0: 7f55 a33c cd51 f2bc a955 bb3c 71e2 cdba
000001e0: 2286 f23c c9e9 e1bc 3fae 22bd 88d7 193d
000001f0: c1a5 423d 7b22 f1bc e95f 56bd 4aeb 603c
00000200: 0ced e93c e3f8 233d 1911 a7bb ebbf 193c
00000210: ecf0 80bc b00d 33bd 1083 d3bc 5508 53bc
00000220: 2ff1 b63c 4140 e1bc 0d90 20bd b7f6 aebc
00000230: 67d3 61bd 52ad 55bc 1414 75ba 8e14 b53b
00000240: 5657 dbbc 1da8 76bc 7a9e ecbc d63f d6bc
00000250: 8556 07bd 628b 23bc 94d1 54bc 4429 213d
00000260: 5dfd 40bd 21b3 633a eddc ebbc 008c c43c
00000270: 7faa 1f3d 2395 8ebc 0069 273d fd1e 45bc
00000280: 5d27 a4bc 047f cdbc fbb1 05bd 7afd 023d
00000290: 5c7b cc3a 4757 a93c be4a 03bd 94c7 f036
000002a0: 292f 71bc d248 45bd ca79 c33c e05a 8cbc
000002b0: 1fb4 06bd 8c9b abba 7582 60bc 3d3c 8b3c
000002c0: 9c13 58ba 394b 94ba 3b63 353b 9304 b9bc
000002d0: f154 44bb d57b 9e3c 0382 24bd d411 26bc
000002e0: 1485 683c f40e 1ebc 143f 05bd 9607 babb
000002f0: 8e8c 5cbc a71e f9bc a4df f43c 8bad 5e3c
00000300: 4fbb cabc 8955 273d bfcb 30bc 7cc7 f73c
00000310: a125 f2bc 6c9c b7bc 2479 593b 0d01 b03c
00000320: a8ff ca3c 729d 823c 48c7 07bc 3ed9 ac3b
00000330: 201c 1ebd 08ae 98bc 4722 c4bc df7f f8bc
00000340: 117e 0a3d cf0a e9bb f952 d53a 6318 bf3b
00000350: ff03 043c b8cd 46bd e81d e5bb df4e 54bd
00000360: c01a 45bd d626 a03b 0a09 aabc ae79 06bd
00000370: 6d64 b4bc ce61 be3c 72fd 0abd 71dc 2ebd
00000380: 7a86 3abd ce48 67bc 19a8 243d 563b a73b
00000390: 50bb 213c 4dba 103b 6477 07bd 04a1 453d
000003a0: d7bc b73c f611 353b 30ae ae3c f2a9 333d
000003b0: b4a3 0cbd b12a f43c b658 8ebc 056a 78bc
000003c0: 9b9a bb3c be48 023d a05a 433d 4716 373c
000003d0: 282f c53c c7a4 eabc f81a 84bc 6809 d2bc
000003e0: 2792 543c be34 14bd b4a4 84ba 9e04 69bd
000003f0: 0515 1fbd b534 5cbc 8737 09bd a77c 81bb
-0.01711204 -0.025493123 0.01307007 -0.036433514 -0.05338828 0.04659181 0.0072639817 -0.0071785115
-0.03057421 0.036106337 -0.015722282 -0.014568836 0.03393076 0.046029318 -0.037968446 0.005362074
-0.046145435 0.031285405 -0.0009526189 -0.017659562 0.003314693 0.0116277505 -0.034486387 -0.031045599
0.01599629 0.026726957 -0.03443309 0.016610984 -0.012219638 -0.0035564518 0.022202518 0.015745575
0.042684972 -0.032560267 -0.012400435 0.0022173454 -0.01717582 -0.027534429 0.008675181 -0.007610194
0.047393072 0.034255896 0.03655605 0.0356727 0.017131457 -0.014543168 0.052409813 -0.016049309
0.03400583 0.016126959 0.018728644 0.036430128 -0.017206632 -0.02207986 -0.020213716 -0.02219396
-0.029972112 -0.054470915 -0.053255342 -0.048744436 -0.031506773 -0.02508821 0.026743902 0.034529928
-0.023641275 0.0057035037 -0.0046465215 -0.01470591 0.013210762 -0.04956769 -0.02318698 -0.011015616
-0.03431316 -0.044098414 -0.037819143 0.010705008 -0.017864533 0.016312052 -0.039194696 -0.04928473
0.025113963 -0.045338504 -0.004428829 -0.03322978 -0.00013507206 0.026974663 0.03751341 0.00684023
0.030351534 -0.045847036 -0.008357088 -0.00043874537 -0.045043074 0.03307103 0.0082572345 0.03907712
0.005339596 -0.010509741 -0.012125748 0.039344285 -0.04197132 0.019267831 0.03322829 -0.045456763
-0.0176376 0.024887446 0.020119442 0.033521704 0.013041594 0.048050962 -0.022444822 0.0005867089
0.038455546 0.029967815 0.03919662 0.011411166 0.019938229 -0.029580021 0.022867994 -0.0015707744
0.029604975 -0.027577298 -0.039716955 0.037559062 0.047521356 -0.029435387 -0.05233756 0.013727972
0.028555416 0.04003228 -0.0050984737 0.009384136 -0.01573988 -0.043714225 -0.025819331 -0.0128804045
0.022331802 -0.027496459 -0.039199878 -0.021357877 -0.05513325 -0.013041811 -0.0009349 0.005526132
-0.026775043 -0.01505473 -0.028884161 -0.026153486 -0.033041496 -0.009981962 -0.01298942 0.039345995
-0.047116626 0.0008686055 -0.028791869 0.023992538 0.038980957 -0.017405098 0.04087162 -0.012031314
-0.020038301 -0.02508498 -0.03264044 0.031980015 0.0015600729 0.0206715 -0.0320537 7.1757913e-06
-0.0147207165 -0.04816515 0.023861784 -0.017133176 -0.03288662 -0.0013092621 -0.013702978 0.016996497
-0.0008242668 -0.0011313922 0.0027677554 -0.022585189 -0.0029957856 0.019346157 -0.04016305 -0.0101360865
0.014191885 -0.00964712 -0.03253086 -0.005677174 -0.013461245 -0.030410124 0.029891796 0.013591181
-0.024747519 0.040853057 -0.010790764 0.030246489 -0.029558958 -0.022413455 0.0033183778 0.021484876
0.02478011 0.015944216 -0.008287258 0.0052749207 -0.03860104 -0.018637672 -0.023942126 -0.030334411
0.033811633 -0.007111884 0.0016275338 0.0058317645 0.008057593 -0.048536032 -0.0069920905 -0.05183303
-0.048121214 0.004887442 -0.020756263 -0.032830887 -0.022020543 0.023239996 -0.03393311 -0.042690698
-0.045538403 -0.014116479 0.040199373 0.005103509 0.009871319 0.00220837 -0.033072844 0.04824926
0.022428913 0.0027629114 0.021323293 0.043863244 -0.034335807 0.029805513 -0.017376285 -0.015161996
0.02290087 0.031807654 0.04769385 0.011174745 0.024070337 -0.028643025 -0.016126141 -0.02563925
0.012974299 -0.03618311 -0.0010119886 -0.05688917 -0.038838405 -0.013440301 -0.03350022 -0.0039516273

weight f4 [45]
00000000: 9622 7e3f bdac 7e3f 26af 813f ce54 813f
00000010: 480c 7c3f 200e 803f 32cb 803f 3ea9 813f
00000020: 1ecb 803f ba56 7f3f 3360 7f3f 2568 7d3f
00000030: 7380 7d3f 46e1 7e3f e313 823f b91f 7b3f
00000040: 21f9 7f3f 6bb0 7e3f 76a0 7f3f 26c8 803f
00000050: 3cef 7f3f 1c77 7d3f 355e 803f f640 803f
00000060: d483 7f3f badb 7e3f dc89 7d3f 5f4e 7e3f
00000070: 0b8f 7f3f 1cdb 803f 76a4 823f aaca 803f
00000080: f482 7b3f 2e99 813f 82a2 803f cc96 803f
00000090: dc8c 803f 4290 7d3f 67e0 7d3f 4f7c 803f
000000a0: 72df 7e3f d849 813f 1f85 803f f6e9 7f3f
000000b0: 8b64 813f
0.99271524 0.9948233 1.0131576 1.0104005 0.9845624 1.0004311 1.006201 1.0129774
1.0061986 0.9974171 0.99756163 0.98987037 0.9902412 0.9956249 1.0162319 0.9809528
0.99989516 0.9948794 0.9985422 1.006108 0.9997442 0.9900987 1.002875 1.0019825
0.9981053 0.99554026 0.9903848 0.99338335 0.9982764 1.0066867 1.020644 1.0061848
0.98246694 1.0124872 1.0049593 1.004602 1.0042987 0.99048245 0.99170536 1.0037936
0.995597 1.010066 1.0040625 0.9996637 1.0108808

bias f4 [45]
00000000: 0188 06bd 3c50 48bc 1b91 253a a6f8 50bc
00000010: 1505 94bc 2ece 67bb 241a 0abc 2082 b4bc
00000020: c689 753c 38de 5dbc 81ca 09bc d42a 5ebb
00000030: dc35 87bc 7761 27bc 926f c3bb a8dd 56bb
00000040: 6017 6dbb 7477 1bbc ba76 193c 9bed 473b
00000050: 6345 2c3b 16ef e0bb f4de fabb b621 f43b
00000060: f09e b23b 4f85 87ba dcf7 c1bb e643 9fbc
00000070: 5746 2dbc c8f6 9a3b 0cd8 4d3c f6a9 18bc
00000080: 6e43 babc bf5a 503a 2244 6f3c b95a 43bc
00000090: 70e0 24b9 f438 acbc 94a7 d93a a219 45bc
000000a0: eb95 a5bc 0665 e5bc ecf3 1c3a 13a4 c4bb
000000b0: 787c 7dbc
-0.032844547 -0.012226161 0.0006315873 -0.012754595 -0.01806883 -0.0035370695 -0.008429084 -0.022034705
0.014986461 -0.013541751 -0.008410097 -0.003390004 -0.016505174 -0.0102161085 -0.005964228 -0.0032785926
-0.0036177263 -0.009488929 0.0093666855 0.0030506614 0.0026286475 -0.0068644388 -0.0076559726 0.0074503077
0.0054510757 -0.0010339412 -0.0059194397 -0.019441556 -0.010575852 0.0047291256 0.012563717 -0.009317866
-0.022737231 0.00079480925 0.0146036465 -0.011923485 -0.00015723868 -0.021023251 0.0016605728 -0.012030037
-0.020213088 -0.028002273 0.0005987275 -0.0060010045 -0.01547157

running_mean f4 [45]
00000000: 47a8 20bf 991b c0bc 27e5 3e3f a366 23bd
00000010: 2592 c8bc c529 a9be b0e3 65bd 0aa0 e1be
00000020: c336 d8be 5001 68bf a5b6 38bf f73c 57be
00000030: 1307 553f a817 25bf c0ef 7fbe f080 be3e
00000040: 3f46 e33d a72c 1a3f 5709 26bf 6929 8dbe
00000050: 23fd c5be d154 053f 6afe aabd 24e8 243f
00000060: 4498 e23e 3d18 163f b508 8d3e aeee 893f
00000070: 3d7b c43d 9123 f93e 2436 e4be c53f 14bf
00000080: d192 93be 2e21 233f d9fd b5be 6a95 8e3f
00000090: b72c 853e f429 1abe c34b 3e3f 810b ff3e
000000a0: 9e33 6c3d 1ccd 283f b1e1 1abf 4a83 e43e
000000b0: 81ef 1fbe
-0.6275677 -0.02345066 0.7456841 -0.039892804 -0.02448375 -0.3303968 -0.056125343 -0.44067413
-0.4222928 -0.90627 -0.72153693 -0.2101935 0.8321392 -0.6448922 -0.24993801 0.37207747
0.11097383 0.60224384 -0.64858 -0.27570656 -0.3866969 0.52082545 -0.08349307 0.6441672
0.44256794 0.58630735 0.27545705 1.0775964 0.09593818 0.48659948 -0.44572556 -0.57909805
-0.2882295 0.63722503 -0.35545233 1.1139348 0.26010677 -0.15055066 0.74334353 0.49813464
0.057666413 0.6593797 -0.6050063 0.44631416 -0.15618707

running_var f4 [45]
00000000: 0dba 703f 106a ba3e 23fc 8f3e aeee 783e
00000010: 952a 613e 270e 393e 9866 693e cc49 923e
00000020: efca 303e 3f55 a03e 1078 223e 7657 9b3e
00000030: e6d3 a93e e7d3 0b3f a5db 733e b6b5 c33e
00000040: 1649 3a3f 7eba 563f b98a ac3e 602e 8f3e
00000050: 5103 5d3e 6f6b 523f 97e8 bd3e 8a6a f63e
00000060: dc88 0e3e a80f 1b3f c0d2 593e 0552 b33f
00000070: 5e21 883f 60f4 753e 29fb 583e f0eb d63e
00000080: 9d09 973e 091d 683e ecf2 8f3e c818 633e
00000090: 9138 093f f591 3a3f 4eec c43e a04a 7d3e
000000a0: e0b3 993e 7e9d 093f 8d84 8a3e d5bf 4a3e
000000b0: a138 e83e
0.9403389 0.36409044 0.28122053 0.24309799 0.219889 0.18071805 0.22793043 0.28571928
0.17264913 0.31315038 0.15866113 0.30340165 0.33169478 0.5462021 0.23814256 0.38224572
0.7276777 0.83878314 0.33699587 0.2796507 0.21583296 0.8219518 0.37091514 0.48128158
0.13919395 0.60570765 0.21271801 1.4009405 1.0635183 0.24019003 0.2118956 0.4197688
0.29499522 0.22667326 0.28115022 0.22177422 0.5360194 0.7287896 0.38461536 0.24735498
0.30020046 0.5375594 0.27054253 0.1979974 0.45355704

weight f4 [18, 45, 5, 5]
00000000: c4fc 5c3c e984 143c 3581 da3b 5e0e 7c3c
00000010: c3eb 74bc 5a3b dfbc 021c 013c e24d 9f3c
00000020: 54b6 afbc 0bb9 033d c6b1 84bc 325a 1739
00000030: 2c0f fdbb ca12 13bd b127 cebc 0990 a3bc
00000040: 74b4 03bc 6aea b43c 531d 0d3c 5995 ad3c
00000050: 26b2 0a3d 32ef 4bbc 4502 693c 8156 80bb
00000060: 2efa b3ba 0981 343c 931f 87bc fc8b 6a3c
00000070: db40 e5bb c148 93bc 1274 79bc 456f e5bc
00000080: deaa 06bd 6ede a8bc e633 e7bb ccfa a9bc
00000090: 71d3 66bc e975 c8bb 4ebd 39bc 7f0d 293c
000000a0: cbe2 1f3c 7a89 9f3c e0f2 fc3b 9a72 dabc
000000b0: 4ab1 6d3c c0b2 23bd 2fa8 523b d4da a0ba
000000c0: cf20 bf39 2fd5 973c 101e 773a f000 733c
000000d0: 7151 a33c 79a3 a23c 662b 27bb 84bc 82bb
000000e0: aa56 77bc 932f c839 3f34 4cbc e6fa 92bc
000000f0: b844 0a3b f20f 14bd 1d0f cd3b 2561 9b3c
00000100: 7cac fdbc fa20 d0b9 bf88 c4bc fbef 87bc
00000110: fa57 bdbc e133 b83c d17d 76ba 0467 54bb
00000120: 22f5 cf3b d72a c6bb cc5e 82bc defd 63bb
00000130: eea8 8bbc c02a 68bc 6e79 51bc 71f0 9ebb
00000140: f31f b0bc 4b58 d33c 7480 153c 4ee5 42ba
00000150: c2af a73c c7cc 743c a311 21bb 0017 5abc
00000160: 36a7 02bd 00ac 81bc 8d5b 8fba 5d20 093b
00000170: 4f09 e3bc 7a87 8d3b 1574 9bbc 6cb6 713b
00000180: f83d 423c 357d 22bd 5f9b a6bc c7d5 15bd
00000190: 4369 ffbc a022 f038 a716 c73c 9df5 cc3c
000001a0: a266 a5bc 6a8b 44bc 63de aeb5 6074 573c
000001b0: 8219 a1bc bc1c cdbc ca9b 303c 30e2 bbb9
000001c0: 2d09 fc3b 0e98 143b 825f a43c 1ef4 693c
000001d0: c23b b1bc f1b3 88bb 0881 a1bc 7b19 da3c
000001e0: d165 07bd 1189 503c 43e0 5e3c 995c 53bc
000001f0: ae76 463c 8cde 1bbc d480 923c 6e0c 3dbc
00000200: c944 09bd 6cc2 733b 493a 763c e9af 69bc
00000210: 736c efbb 3914 39bc 62e6 1abc e546 d8bc
00000220: b913 d63b ce10 e33b 270c 0abc 8d30 d3bc
00000230: b73e c3bc e74a 003c 480c cbbc 87d2 44bb
00000240: a2a7 f9bc b23e 68bc 4e19 8ebc 2214 e4bc
00000250: ee0e 19bd 9715 693c 9426 98bc 882c d0bb
00000260: 47a9 c2bc 455d 42bc 3173 523a 1f6f e5bc
00000270: 86cf 853c a3a9 78bc f33c a33b 6c30 88bc
00000280: e282 fbbb 483f 1c3c 664d c0bc 3099 35bc
00000290: 37dd b8bc b787 163c 9bc6 0dbb 53ca fabc
000002a0: a007 c3bc a7a0 39bc b820 e63c 3796 13bc
000002b0: 7ff6 a53b 084c cc3b 14e4 e3bc 2649 9d3b
000002c0: f87d bfbc 23cb 71bc 8eae 683c 13d0 973c
000002d0: a3dd b83c e12b 85bb 71d6 28bc 65db d63b
000002e0: 789c a5bb f6ae 083d fedc 9a3c c2a0 25bc
000002f0: 2a5b 853b 4bcb d43c 14bb 9fbc 22bd ee3b
00000300: 079f 9bbb ba81 2b3c fd2a 593c 366c 97bc
00000310: 5f7c ac3c e9bd 563c 00ee f7bc 31c2 583c
00000320: 9ad5 eb3b 1524 233c 150e 81bc 6555 7c3c
00000330: e44c 2f3d aae2 98bc 22f7 b9bc 75c0 47bb
00000340: 7a82 ab3c 0a86 96bc fbe3 873c 85c3 8dbc
00000350: 4548 27bc 4b06 9f3c 597c 833c 77bf 863c
00000360: 1169 943c f6fd 853c 9dd0 e83b 093e 823c
00000370: 56a6 cabc d005 2ebb dd9e d0bb 3030 28bc
00000380: f6f8 863b afa4 233c 26a3 153b 8b55 cbbc
00000390: 3fa7 cebc 1b53 46bb a78a ad3b 5aa9 d9bc
000003a0: 2673 10bc d1a8 84bb 27bc b43c e1de b5bc
000003b0: 804f c5bb cda9 413c 79cb a03c 2935 eb3b
000003c0: 6ab0 a6bb 03a7 c9bc eecd 033c d23e 2e3b
000003d0: 318a 96bc cb51 febc c767 bf3b b483 923c
000003e0: 7990 eebc 3df0 c5bc cbfd 833c ffb8 cdbc
000003f0: 443c a2bc 242f dfbc 74f6 ebbc 1996 e6bc
0.013487998 0.009064891 0.0066682347 0.015384285 -0.014948788 -0.02724998 0.007880213 0.019446317
-0.021449246 0.032158893 -0.01619805 0.00014434083 -0.007722756 -0.03590659 -0.02516541 -0.019966142
-0.008038629 0.022084434 0.0086129485 0.021189379 0.0338613 -0.012447165 0.0142217325 -0.003916562
-0.0013731176 0.0110170925 -0.016494548 0.014315601 -0.0069962568 -0.017979028 -0.015225427 -0.028007159
-0.032877795 -0.020613875 -0.0070557473 -0.020749472 -0.0140884975 -0.0061175716 -0.011336638 0.010318159
0.0097586615 0.019474734 0.0077193826 -0.026665974 0.014507601 -0.03996539 0.0032143702 -0.0012272247
0.00036454803 0.018534271 0.0009426782 0.0148317665 0.019936295 0.01985334 -0.0025508045 -0.003989758
-0.015096346 0.00038182418 -0.012463628 -0.017941903 0.0021098088 -0.03614802 0.006257905 0.01896722
-0.030966036 -0.0003969742 -0.023990987 -0.016593924 -0.02311324 0.022485675 -0.00094029034 -0.0032410035
0.006346361 -0.0060475874 -0.015914343 -0.0034788768 -0.017048325 -0.014170349 -0.012785299 -0.00485044
-0.02149961 0.025798937 0.009124864 -0.0007434682 0.02046955 0.014941401 -0.0024577163 -0.013311148
-0.031897746 -0.015829086 -0.0010937318 0.002092383 -0.0277144 0.0043191286 -0.01897625 0.0036882414
0.011855595 -0.039670188 -0.020337759 -0.036580827 -0.031178122 0.00011450541 0.024302794 0.025019461
-0.02019054 -0.0119961295 -1.3028733e-06 0.013150305 -0.019665483 -0.025038116 0.0107793305 -0.00035835942
0.0076915235 0.002267364 0.020065073 0.0142793935 -0.02163494 -0.0041718413 -0.019714847 0.026623478
-0.033056084 0.012727992 0.013603273 -0.012900495 0.012113256 -0.0095135085 0.017883696 -0.011538608
-0.033512864 0.0037194742 0.015028545 -0.014263132 -0.0073066293 -0.011296325 -0.009454342 -0.026400993
0.006533113 0.0069294935 -0.008425749 -0.025779987 -0.023833616 0.007830358 -0.02478613 -0.003003271
-0.030475441 -0.014175104 -0.01734605 -0.027841631 -0.037367754 0.014226339 -0.018573083 -0.006352965
-0.023762358 -0.0118630575 0.0008028029 -0.028007088 0.016334306 -0.015177163 0.004981631 -0.016624652
-0.0076755146 0.009536572 -0.023474406 -0.011083886 -0.022566421 0.00918763 -0.002163327 -0.030614054
-0.023807347 -0.011329806 0.028091773 -0.009007982 0.005064785 0.0062346496 -0.027818717 0.0047999797
-0.023375496 -0.014757904 0.014201773 0.018531835 0.022566622 -0.0040640687 -0.010305033 0.0065569156
-0.005054053 0.03336998 0.018904205 -0.010109128 0.0040697055 0.025975844 -0.019498385 0.00728573
-0.004749182 0.010467941 0.013254878 -0.018484216 0.021055399 0.013106802 -0.030264854 0.013229893
0.007197094 0.009957333 -0.015753785 0.015401219 0.042797938 -0.01866277 -0.02270085 -0.0030479704
0.02093624 -0.018374462 0.016588202 -0.017305145 -0.0102101015 0.01941218 0.016050505 0.01644872
0.018116506 0.01635645 0.0071049468 0.015898721 -0.024737518 -0.0026553757 -0.006366594 -0.010265395
0.004119034 0.009987994 0.002283284 -0.024821064 -0.025226234 -0.0030261937 0.0052960697 -0.02657001
-0.008816516 -0.004048445 0.022062374 -0.022201004 -0.00602144 0.011820269 0.019628273 0.007177968
-0.005086948 -0.02461577 0.008044703 0.0026587737 -0.018376442 -0.031044861 0.0058412286 0.017885067
-0.029121624 -0.024162406 0.016112229 -0.025112627 -0.019804128 -0.027244158 -0.028804041 -0.028147744

weight f4 [18]
00000000: 9f58 803f be7a 813f be9b 7b3f f62a 7d3f
00000010: 83ca 7f3f fcb0 803f d035 813f 1e76 7d3f
00000020: 02ec 7d3f 3394 803f 622b 803f c53d 7f3f
00000030: 3ae6 803f 61c9 7d3f 3e89 7f3f 4b8a 803f
00000040: 318e 7e3f 6d92 803f
1.0027045 1.0115583 0.9828452 0.9889368 0.99918383 1.0054011 1.0094547 0.9900836
0.99188244 1.0045227 1.0013239 0.9970363 1.007026 0.99135405 0.9981879 1.0042204
0.99435717 1.0044686

bias f4 [18]
00000000: 9707 3b3b 42fd e33b 8aa6 34bc 0fa3 f8bc
00000010: 850e a9bc 282e 5cbb 838f 0f3c 782e 4fbc
00000020: bacc 37ba f3dd de3b c991 9dbc a3c9 2cbc
00000030: 8850 5ebb e130 0ebc 2afe 963a 7203 2fbb
00000040: 245b acbb ecc1 89bc
0.002853846 0.006957681 -0.011026034 -0.03035119 -0.020636806 -0.0033596847 0.008762243 -0.012645356
-0.00070114026 0.0068013608 -0.019234555 -0.010546121 -0.0033922512 -0.008678646 0.0011519839 -0.0026704934
-0.0052598882 -0.016816102

running_mean f4 [18]
00000000: 4395 fcbf db61 f0be b37c 07c0 c48d 9a3e
00000010: 4225 bb3e c484 22bf 0f83 2bbf b010 d93f
00000020: f4fe 89bd b5e4 a8be bdb8 bf3f 8a52 0ebf
00000030: afac 63bf 14f1 823e 1bae 65be b79d df3d
00000040: a0b4 853f 56e8 a2bf
-1.9733051 -0.46949658 -2.116986 0.30186284 0.36551863 -0.63483834 -0.66996855 1.6958218
-0.067380816 -0.3298699 1.4978253 -0.55594695 -0.8893537 0.25574553 -0.22429697 0.109187536
1.0445747 -1.2727153

running_var f4 [18]
00000000: 293b 3a40 f1c0 f33e d9a2 3740 55d3 d03f
00000010: 0b9d 0c3f 9aee 0c3f 29d2 413f 726a 3940
00000020: 7654 d83e 4401 f13e dfb1 ea3f f692 423f
00000030: b7d2 d33f 040a 913f 09a4 133f 1ff9 933e
00000040: e07e a63f 91ed d63f
2.9098608 0.4760814 2.8693144 1.6314493 0.5492713 0.5505158 0.75711304 2.897122
0.4225194 0.47071278 1.8335532 0.76005495 1.654868 1.1331182 0.5767217 0.28901002
1.3007469 1.679125

weight f4 [6, 18, 5, 5]
00000000: b203 13bc 8ff6 2abd dda8 8cbc 6d3d 253d
00000010: 3f8c 19bb 7fe4 2dbd 2f8a 9c3c 7ca0 c4bc
00000020: d083 66bc 76ec 11bd 19ff 7e3b 4d7c 8cbc
00000030: 2da8 e53b 7358 c7bc e362 9cba d796 04bd
00000040: 2833 37bd 97fb 41bd 439a d03c 032d 143d
00000050: 07ad 31bb ae0d a7bc 850c d93c 7b84 ecbc
00000060: 6804 9a3c a560 f9bc ca71 19bd 4692 103d
00000070: 42bb f73c ab8d c0bc b9de 1f3d 43f3 8ebc
00000080: 2ee0 dd3c 2ff8 883c 55b4 11bd c7c5 5e3d
00000090: d7d9 ee3b 9872 13bc 82f4 823d 10f2 bc3c
000000a0: 3616 83bd 7e03 f83b 00b4 be3b cdd7 8dbd
000000b0: 12c0 e0bc 916f 2fbd 6a16 2abd a6af debc
000000c0: 8d8c 303c 57c9 84bc 28ff 063d 445b 323d
000000d0: 0405 85bb b219 273c 41ff a6bc 1ad6 893c
000000e0: c659 153d 4188 493b bbaf 0bbc 12cb 92bb
000000f0: 7836 34bd fea6 b33c 4643 75bc 957f cc3c
00000100: 57a1 c33c e5de 3fbd 3664 b73c df06 f1bc
00000110: d50f 5fbd 1c2c 91bb 5eab ddbc dcca 543a
00000120: b020 3a3c 501d b0bc 8b51 bcbb 58c4 3dbc
00000130: 4a6f 063d 5b39 453d 8e7f 53bc 4e8c 19bd
00000140: a51b 3ebd 0eca 09bd d682 273c 8ada 383d
00000150: 09c9 bdbc 147d 09bc fde2 f43c 01a4 5b3c
00000160: 2dfc 0f3d 6b0a 56bd 9162 97bc bac8 0d3d
00000170: 88c5 a5bb 2ae1 57bc 0d50 393d e2a9 0bbd
00000180: 3151 053c 6894 d4bc 4818 0cbb f0b8 593d
00000190: 0677 fcbc 25b7 443c cd23 763b ca6f 38bc
000001a0: 4849 aeba 2343 b23c 5c7a cabc 930c aabc
000001b0: 714d d93a 1456 fcbc 3c43 87bc 4085 123d
000001c0: f823 d3ba e30a 2dbc 5341 dfbc 2805 033d
000001d0: c307 0e3b 9efd ccbc 6c63 ccbc 3795 03bd
000001e0: a56d 0c3c a09d e3bb 3d4f f3bb 4b86 203d
000001f0: 68c4 263d 1659 35bc d8e2 e4bc 3e80 be3c
00000200: 17db e1bc b8ab 0e3d abec 2bbc a9c9 ab3b
00000210: d29f 3c3d 148d 4b3d e417 973c 2dec 1cbd
00000220: 6288 f4bc 210f 8a3b dce7 3b3d 2d6d 133d
00000230: 2b32 19bd 25f1 cdbb 4fa7 383d 81fe 0e3c
00000240: fce5 1c3d 6e7c 833c 50ec ecbc 4531 0e3d
00000250: 1593 1a3d 1bbe 1a3c 5186 5ebd 9274 c7bc
00000260: 2bab 193d 482b e83b 25c5 ccba f154 1bbd
00000270: 0cbb 1dbd 2677 cd3c 4990 b8bc 9919 0cbd
00000280: b598 32bc 3a24 d43b ea35 c5bc 9a90 e93b
00000290: e634 8d3c b237 593d f728 0e3d cbd6 423d
000002a0: 4887 2fba 0f97 313d 99fe 91bc b390 26bd
000002b0: 7642 483c 1196 42ba a00d 78bc 8cf3 ad3c
000002c0: 70a5 1abc ab9e c6bc 4a5f 8fbc 8c23 873c
000002d0: 6b4f 17bd d27a 25bb 10f1 38bd 6c57 bdbc
000002e0: 642c c9bc 6689 a5bb 7d0c 90bc 574f 83bc
000002f0: 2d7e 1fbc 0679 92b8 7935 43bc 779d e63a
00000300: ed48 a53c e47f ce3c b86b 12bd f13c a53c
00000310: f5a6 82bc 312f 273d 45d3 fcbc 4011 203d
00000320: 97e8 eb3a f192 85bc ad07 1cbd 3b69 3e3d
00000330: 5717 283d 54e8 2b3d 8535 fe3c 131f 35bd
00000340: a165 f7bc dbd8 3cbd eb50 babc 3e0e 19bb
00000350: 0e02 373d 35fb 2d3d e409 7f3c 44e8 d6bc
00000360: 8549 b43b 02ee 93b9 3cfc 9f3b 3193 ffbc
00000370: 7cca c6bc 9986 8dbc 8337 be3c c656 1bbd
00000380: 0b3d 343b 569e d63c 4cd0 c9bc cc7e 56bc
00000390: 8538 02bd ec2d df39 e83d 123d 1e09 afbc
000003a0: 73a4 353d ca5e 35bd 236b e93b a0db 24bc
000003b0: 4d6b 603d c6fa c0bc 7bea 3dbc c5fc 083b
000003c0: d971 fb3c a623 453d f423 d03b d47b 0fbd
000003d0: 4966 3dbd 7e3a 0b3d 348b 0e3d e064 c9bc
000003e0: 2233 e03a 1ca0 473c 7189 d5bb 8fbd 003c
000003f0: afd7 c4bb 80ab 3a3c e5ea aabc 7150 973c
-0.008973049 -0.041739043 -0.017170364 0.040341783 -0.002342954 -0.04245424 0.01910886 -0.024002306
-0.0140695125 -0.035625897 0.0038909374 -0.017149115 0.0070085735 -0.024334168 -0.0011931326 -0.032370415
-0.04472652 -0.047359075 0.025464183 0.03617574 -0.002711119 -0.020392265 0.026495228 -0.028871765
0.01880093 -0.030441592 -0.037462033 0.035295747 0.030240659 -0.023505053 0.039030764 -0.01744998
0.027084436 0.016719906 -0.03557237 0.054387834 0.007289152 -0.008999489 0.063942924 0.023064643
-0.06400721 0.0075687757 0.0058197975 -0.06925926 -0.027435336 -0.042831007 -0.041525282 -0.027183365
0.010775697 -0.016209288 0.03295818 0.04354407 -0.004059436 0.010198997 -0.020385386 0.016825724
0.036462568 0.003075138 -0.008525784 -0.0044797743 -0.043997258 0.021930214 -0.0149696525 0.02496318
0.023880644 -0.04684343 0.022386651 -0.029422222 -0.054458458 -0.004430307 -0.027059253 0.00081173866
0.011360332 -0.021498352 -0.0057470254 -0.0115824565 0.032820977 0.0481504 -0.012908829 -0.03748732
-0.046413083 -0.03363996 0.010224065 0.04513029 -0.02316715 -0.008391637 0.029893393 0.013405801
0.035152603 -0.05225603 -0.018479617 0.034615256 -0.005058948 -0.013176242 0.045242358 -0.03409756
0.008137033 -0.025949672 -0.0021376777 0.053154886 -0.030818474 0.012006556 0.003755796 -0.011257121
-0.0013296986 0.021760529 -0.024716549 -0.020757949 0.0016578865 -0.030802764 -0.016511552 0.03577161
-0.0016108742 -0.010561678 -0.027252829 0.03198734 0.0021672107 -0.025023278 -0.024949752 -0.032124724
0.008571063 -0.0069462806 -0.0074252174 0.03919057 0.04071465 -0.011068603 -0.027940199 0.02325451
-0.02757029 0.034831733 -0.010493438 0.0052425456 0.046050854 0.04969509 0.01844401 -0.038311172
-0.029850189 0.0042132293 0.045875415 0.03599279 -0.03740136 -0.00628485 0.045081433 0.008727671
0.038305268 0.016050544 -0.028921276 0.034714956 0.037737925 0.009444739 -0.054327313 -0.024347577
0.037516754 0.0070852377 -0.0015622718 -0.037922803 -0.03850846 0.025081228 -0.022529738 -0.0342041
-0.010900666 0.006474045 -0.02407356 0.0071278336 0.017237138 0.05303163 0.034707036 0.047568124
-0.00066958787 0.04335695 -0.017821597 -0.04066534 0.012222877 -0.00074228743 -0.015139967 0.021234296
-0.009438857 -0.02424558 -0.017501492 0.016496442 -0.036940973 -0.0025250209 -0.04515177 -0.023112975
-0.0245573 -0.0050517796 -0.01758408 -0.016029043 -0.0097346725 -6.984365e-05 -0.011914604 0.0017594536
0.020176375 0.025207467 -0.03574726 0.02017066 -0.015948752 0.04081649 -0.03086246 0.03907895
0.0017998394 -0.016305419 -0.038093258 0.046487074 0.041037884 0.041969612 0.03103138 -0.044219088
-0.030199828 -0.046105247 -0.022743663 -0.0023354436 0.044679694 0.042475898 0.015566323 -0.0262338
0.0055019283 -0.00028215355 0.0048823636 -0.031198116 -0.024266474 -0.017276095 0.02321983 -0.03792455
0.0027502205 0.026198547 -0.024635457 -0.013091754 -0.031792182 0.0004256809 0.03570357 -0.021366652
0.044346284 -0.04427985 0.0071233674 -0.010062128 0.05478983 -0.023557078 -0.011591549 0.0020902616
0.030693935 0.0481297 0.006351942 -0.0350302 -0.046240125 0.03399133 0.034800723 -0.024584234
0.0017105083 0.012184169 -0.0065166284 0.007857694 -0.006007157 0.011393428 -0.02086396 0.018470975

weight f4 [6]
00000000: 3e0c 823f 828e 7d3f 6331 7c3f bc73 823f
00000010: 1b4c 803f 6a84 7d3f
1.0159986 0.99045575 0.9851286 1.0191569 1.0023226 0.9903017

bias f4 [6]
00000000: 29c1 713c 3de0 ccbb 053f 863c 2c8e 7b3b
00000010: defb b63b 96fd 92bb
0.014755526 -0.006252317 0.016387472 0.0038384302 0.005584224 -0.004485796

running_mean f4 [6]
00000000: 15ad afbd 6968 b53e 163f 3a3e a50f 753e
00000010: e329 c03e 4274 923e
-0.08577935 0.3543122 0.18188128 0.23931749 0.37531957 0.28604323

running_var f4 [6]
00000000: 6440 973d e723 303e 6e13 423e 4c3f 123e
00000010: 2377 023e e66a 103e
0.073853284 0.17201196 0.18952724 0.14281958 0.1274076 0.14103279

weight f4 [1, 6, 5, 3]
00000000: a333 b13d 563d 5cbd cdfe e5bd 72e3 ba3d
00000010: c75d 753d d86f 7838 afed ebbd 1f37 da3c
00000020: 7f5f d1bc fafd a3bd bfbc cf3d cf12 2d3d
00000030: 755b d43d 79fe a5bd 27bf cabd 5a46 5c3d
00000040: 1a19 b0bc 00c8 1c3d 0ad6 20bd ecd0 0f3d
00000050: 1089 4f3d efdf b43d 9564 0fbd 610a 23bd
00000060: 8b05 053d 1e53 f93b 4af0 adbd b3b9 81bc
00000070: bb32 88bc 7020 113d 9ae0 9d3d 4f09 dcbd
00000080: 83e5 813d 48d3 66bd 8f68 78bd 96f1 94bd
00000090: 88de 1c3c 60b0 a43d 43b7 a6bd de21 a7bd
000000a0: c91b a63d be7e bdbd 68c3 4abd 2513 a9bd
000000b0: 7019 2f3d 3fb3 e43d fbbd 26bd 4c5a 31bc
000000c0: fbbb 263d b95a b6bd cabb 9d3d 5411 9fbd
000000d0: d5e9 ea3d 92f4 f53d 34dd a83b 03ce a9bd
000000e0: f858 483a aa41 58bd 4241 35bd cfec 1f3d
000000f0: 23f0 a6b9 736f c1bd e23f d73d 1f21 c23c
00000100: ebd4 1abd b919 153c 9158 e63a bf72 8dbd
00000110: a5f9 0abd 19f5 9bbd 821b a33d 6edd 803d
00000120: 53bd 3c3b eeaa 21bc 2f7c fdbb e705 3b3d
00000130: 2827 fbbc 6005 d03d 9fd4 a1bd 5df5 653d
00000140: 213e 553d 4b19 7a3d 5e2a 69bc 9d51 a63d
00000150: 104e 923d 318a 993d fbef 88bd f2ac f7bc
00000160: 1313 47bd 07e5 8f3d
0.08652427 -0.053769432 -0.1123024 0.09125413 0.059903886 5.923197e-05 -0.11519944 0.026637612
-0.025558231 -0.080074266 0.10143422 0.042254265 0.103690065 -0.081051774 -0.09899741 0.05377803
-0.021496344 0.038276672 -0.039266624 0.035111353 0.050667822 0.088317744 -0.035008032 -0.03980482
0.03247599 0.0076087853 -0.08493097 -0.015835619 -0.016625753 0.035431325 0.07708855 -0.10743963
0.06342604 -0.056353837 -0.06064659 -0.07272641 0.00957454 0.08041453 -0.08140423 -0.081607565
0.08110768 -0.0925269 -0.04950276 -0.08255605 0.04274887 0.11167001 -0.040708523 -0.010824751
0.040706616 -0.08904023 0.077018335 -0.07766977 0.11470381 0.12009539 0.0051533226 -0.08291247
0.0007642652 -0.052796997 -0.044251688 0.039044198 -0.00031840903 -0.094450854 0.105102316 0.023697434
-0.03780071 0.009100371 0.0017574002 -0.06906652 -0.033929486 -0.07615108 0.07964231 0.06292234
0.002879937 -0.009867413 -0.007735751 0.045659926 -0.03065832 0.10157275 -0.079018824 0.0561422
0.052061204 0.061059278 -0.0142312925 0.08121035 0.071437955 0.07497061 -0.06686398 -0.030233834
-0.048602175 0.070261054
