source/models/SingleNoteTimbreCNN/model_normalisedwavs.pth (torch, 204095 bytes, 31 tensors)

weight f4 [6, 1, 5, 5]
-0.13124633 -0.062471025 0.045825902 0.120358154 -0.18879569 -0.028747275 -0.016606415 -0.077486984
-0.11741033 0.0031499409 -0.07271899 0.08051784 0.13533182 0.0032744936 0.151875 -0.10974939
0.15431732 -0.03054178 -0.12788203 0.18995917 -0.04016869 0.081790335 -0.03718387 0.18379045
0.14230198 0.023402909 -0.11930225 -0.09163461 -0.14297031 -0.057507336 -0.11316546 -0.04013114
0.12429943 0.08053594 -0.022664698 -0.10127607 0.050693467 -0.18641602 0.1267854 -0.03594551
0.11701128 -0.08616171 0.04419299 -0.14825179 0.10682249 -0.09629761 0.018606804 -0.025050258
0.043554086 -0.19365467 -0.03240977 -0.19506687 0.1063851 0.0040068384 -0.1347313 0.043523867
-0.0655989 -0.1937519 0.17515405 -0.109507404 0.16394214 0.10287081 0.15683562 0.0064232596
0.07126869 0.17510244 -0.16146505 -0.16049732 -0.09096974 0.1938674 -0.05176445 -0.07168984
-0.05921082 0.15328212 0.17598408 0.17191648 -0.17096446 -0.056638274 0.13703927 0.116860375
-0.08084966 -0.18354152 -0.09171787 0.1146921 0.08296064 0.12367968 0.07446554 0.055305142
0.11191271 -0.06434221 0.01719435 -0.09167438 -0.18819216 -0.08870435 0.015702326 0.1295053
-0.1135724 -0.15838125 0.11570959 -0.1407495 0.13843544 0.07073022 -0.19160657 0.07144918
-0.023878304 -0.09486756 -0.117501475 -0.16078696 -0.07727332 0.11102343 -0.15528269 0.010364956
0.022914667 0.06366414 0.09977008 -0.030432364 -0.12078061 -0.044570785 0.06684347 -0.13833848
0.084964894 0.09325799 -0.038780387 -0.056269713 -0.0349683 -0.11086035 -0.10565961 -0.1348872
0.12209375 -0.1876895 0.022438195 -0.14061315 0.0697249 -0.043960832 0.081336774 0.015224914
0.14881302 0.018166402 0.17002462 -0.18276635 0.115342245 0.03931079 -0.0042972034 -0.08811842
0.045923475 0.18450513 -0.085245214 0.032276116 -0.11556438 0.073682986
00000000: 7065 06be 9ee1 7fbd f1b3 3b3d 567e f63d
00000010: a853 41be 687f ebbc 2d0a 88bc 7fb1 9ebd
00000020: d474 f0bd 3d6f 4e3b b2ed 94bd 8ae6 a43d
00000030: 6d94 0a3e e398 563b 1f85 1b3e 4ac4 e0bd
00000040: 5c05 1e3e c132 fabc 82f3 02be a884 423e
00000050: ed87 24bd b181 a73d 1d4e 18bd 9033 3c3e
00000060: 9cb7 113e 75b7 bf3c bd54 f4bd edaa bbbd
00000070: cf66 12be d08c 6bbd 4bc3 e7bd 8d60 24bd
00000080: b390 fe3d 07f0 a43d 51ab b9bc d469 cfbd
00000090: f4a3 4f3d d7e3 3ebe 08d4 013e 993b 13bd
000000a0: 9ca3 ef3d 8d75 b0bd b503 353d 51cf 17be
000000b0: c0c5 da3d ae37 c5bd 4c6d 983c 3336 cdbc
000000c0: c565 323d 694d 46be 1bc0 04bd 9cbf 47be
000000d0: 6ee0 d93d cc4b 833b 00f7 09be 1546 323d
000000e0: b758 86bd e666 46be 955b 333e 6b45 e0bd
000000f0: 73e0 273e eead d23d 8499 203e 357a d23b
00000100: 52f5 913d 0e4e 333e 1857 25be 6959 24be
00000110: 584e babd 2d85 463e f606 54bd 1fd2 92bd
00000120: 0b87 72bd fdf5 1c3e 2c35 343e e00a 303e
00000130: 4f11 2fbe 89fd 67bd 0654 0c3e 7e54 ef3d
00000140: 8294 a5bd 4ff2 3bbe 94d6 bbbd b1e3 ea3d
00000150: 45e7 a93d c64b fd3d 6481 983d a587 623d
00000160: 7e32 e53d d9c5 83bd 2adb 8c3c c7bf bbbd
00000170: 72b5 40be a0aa b5bd 2aa2 803c 0a9d 043e
00000180: a598 e8bd b22e 22be 26f9 ec3d a320 10be
00000190: 05c2 0d3e 01db 903d 8334 44be f353 923d
000001a0: 6f9c c3bc ec49 c2bd 9da4 f0bd 56a5 24be
000001b0: 7941 9ebd 4160 e33d 6d02 1fbe c7d1 293c
000001c0: 8ab7 bb3c 5862 823d 4154 cc3d 4b4d f9bc
000001d0: d35b f7bd db8f 36bd 3be5 883d 9aa8 0dbe
000001e0: 1302 ae3d 0cfe be3d 2fd8 1ebd 127b 66bd
000001f0: ec3a 0fbd c00a e3bd 1164 d8bd df1f 0abe
00000200: 4a0c fa3d ad31 40be 4ed0 b73c e5fc 0fbe
00000210: eecb 8e3d 4610 34bd e593 a63d eb71 793c
00000220: 7162 183e b5d1 943c ef1a 2e3e 1a27 3bbe
00000230: 8e38 ec3d 5a04 213d 8ecf 8cbb 6e77 b4bd
00000240: 411a 3c3d eaee 3c3e 0b95 aebd f633 043d
00000250: 05ad ecbd 1be7 963d

bias f4 [6]
0.086586125 -0.17223787 -0.16360718 0.15979055 -0.06812414 -0.16581945
00000000: 1154 b13d 205f 30be a488 27be 22a0 233e
00000010: ab84 8bbd 93cc 29be

weight f4 [6]
0.9914848 0.9991236 0.9988458 1.0080599 0.9946976 1.0101062
00000000: f3d1 7d3f 90c6 7f3f 5cb4 7f3f 1b08 813f
00000010: 80a4 7e3f 294b 813f

bias f4 [6]
-0.0117620975 -0.0024694735 -0.007997171 0.0035175902 -0.0053688195 0.0104535585
00000000: d0b5 40bc e4d6 21bb 9106 03bc 5f87 663b
00000010: ecec afbb 6745 2b3c

running_mean f4 [6]
0.07493886 -0.1739739 -0.17020744 0.16411573 -0.069215365 -0.1707191
00000000: 8c79 993d 3726 32be dc4a 2ebe f40d 283e
00000010: c9c0 8dbd fdd0 2ebe

running_var f4 [6]
0.13527529 0.45177227 0.0857155 0.065207615 0.2071599 0.053656243
00000000: 9b85 0a3e b24e e73e 9c8b af3d 928b 853d
00000010: ba21 543e a6c6 5b3d

weight f4 [18, 6, 5, 5]
0.06507499 0.011879472 0.065314606 -0.08679354 -0.006979614 0.008580022 -0.022068098 -0.036896832
-0.040686697 -0.013807714 -0.06286174 -0.03578838 -0.017202474 -0.011756714 0.04955239 0.065077364
0.002006806 0.017491173 0.002911907 0.08515128 -0.018585889 0.06533693 0.0506594 0.020771129
-0.009044371 0.08338789 0.03670308 0.019600367 0.04033115 -0.04920647 -0.05715682 0.025654523
-0.06148753 0.07738866 0.067471 0.03736308 0.08590598 0.07498609 0.07091062 0.05070343
-0.047761664 0.04892256 -0.07167047 0.030846203 0.06967528 0.004686455 -0.030818416 -0.0046409843
-0.028148184 -0.02620027 0.047009595 0.079012714 -0.013693625 0.01684175 0.01670609 0.01313791
0.044571746 0.02004593 0.06956665 0.059960064 0.0598864 -0.037618294 -0.07538779 -0.025964603
-0.073389344 0.0021884928 -0.032386728 -0.023329616 0.038887743 0.06749438 -0.06746103 0.023870472
0.016891146 -0.0112258075 -0.06562706 0.019870155 -0.0023940143 -0.01698498 -0.06921852 0.05072321
-0.047412183 0.041361094 0.062454343 0.027046192 0.010373458 0.0027737236 0.07448824 0.057989843
-0.06906669 0.039457917 0.050744172 0.06563043 -0.05649331 -0.077263996 -0.04600062 0.042553153
0.02394358 0.0067652473 0.049290467 0.037776917 -0.07038527 0.05523937 -0.066257134 0.00058034476
-0.05845366 -0.06680109 -0.038572453 0.0621778 0.016065562 -0.00953205 0.050435092 -0.055643003
0.047753163 -0.05664636 -0.009783134 -0.036695946 -0.009734244 0.007545583 0.050568067 -0.018727755
-0.074264035 0.04953193 0.037064876 0.049251605 0.024067424 0.03030696 0.046463113 0.039748393
0.040346544 -0.021865156 -0.013333662 0.05421998 0.026124885 -0.011199315 0.049602788 0.058201563
-0.06839333 0.041350212 -0.06927802 0.043103993 0.07887778 -0.047620177 0.053060923 0.020064201
-0.025567036 -0.04523267 0.022944687 0.060353883 -0.045447353 0.04630246 0.048608053 -0.040117737
-0.04416664 -0.019577922 0.05990426 0.032033563 -0.04251496 -0.003949079 -0.018543089 -0.056601506
0.031303935 0.059897028 -0.03503647 0.033906404 0.02134231 -0.056240615 -0.073679216 0.015730908
-0.06539608 -0.0020712917 0.028778465 -0.037748996 0.02334528 0.065309204 -0.03426834 -0.0016647384
-0.07128523 0.08134544 0.0062624943 0.0839088 0.033773012 0.019441448 -0.041318838 -0.056719456
0.008672649 0.009136356 0.035954855 0.014341143 -0.006031687 -0.012273557 -0.06276881 -0.035646357
-0.0471777 -0.03787779 0.008662275 0.039274137 -0.05473999 0.030435275 -0.003937906 0.0396555
-0.030571865 0.05258476 0.061191652 -0.006857869 -0.009213703 0.013668296 -0.058950752 0.039982572
0.009325939 0.016559474 -0.022442695 -0.022957701 0.020353029 -0.007524643 0.066592894 0.03369817
0.028517252 0.05778816 -0.052323777 0.019467324 -0.017429618 -0.04335372 0.023417683 0.07770301
-0.007543678 -0.033742342 0.0867091 0.08066034 0.0646586 -0.071774445 0.031644173 0.08955082
0.07925532 0.008122053 0.026853967 -0.057296686 0.017734213 -0.0016876132 0.06766854 0.06494409
0.050011136 0.03929257 0.006188527 -0.03319454 -0.040953636 -0.07739698 0.041734703 -0.01793855
0.057758056 0.047474924 0.07237695 0.07843019 -0.014477862 0.04849069 -0.044385575 0.061273407
00000000: 0946 853d 1ea2 423c aac3 853d d0c0 b1bd
00000010: 3fb5 e4bb 3893 0c3c 28c8 b4bc 2221 17bd
00000020: 18a7 26bd c039 62bc a8bd 80bd d696 12bd
00000030: 34ec 8cbc 3c9f 40bc 72f7 4a3d 4847 853d
00000040: 9e84 033b a649 8f3c b1d5 3e3b cb63 ae3d
00000050: 6f41 98bc 5ecf 853d 3b80 4f3d 3728 aa3c
00000060: d72e 14bc 45c7 aa3d f855 163d f390 a03c
00000070: 4732 253d b98c 49bd 451d 6abd 6f29 d23c
00000080: 59da 7bbd f27d 9e3d 3c2e 8a3d 070a 193d
00000090: 79ef af3d 4f92 993d 9639 913d 66ae 4f3d
000000a0: bca1 43bd 0663 483d f8c7 92bd 2db1 fc3c
000000b0: eab1 8e3d d590 993b e776 fcbc 6613 98bb
000000c0: 0597 e6bc f3a1 d6bc 228d 403d 6bd1 a13d
000000d0: 3a5b 60bc b6f7 893c 36db 883c 6340 573c
000000e0: dd90 363d 5d37 a43c f678 8e3d af98 753d
000000f0: 714b 753d a415 1abd ea64 9abd b8b3 d4bc
00000100: 274d 96bd d16c 0f3b f2a7 04bd c01d bfbc
00000110: c148 1f3d 7e3a 8a3d 0229 8abd 028c c33c
00000120: 4d5f 8a3c 73ec 37bc 7b67 86bd bcc6 a23c
00000130: e5e4 1cbb 1624 8bbc 70c2 8dbd 24c3 4f3d
00000140: 4733 42bd 406a 293d 20d0 7f3d fa8f dd3c
00000150: 70f5 293c 5cc7 353b 4a8d 983d c286 6d3d
00000160: d672 8dbd a09e 213d 1fd9 4f3d 3f69 863d
00000170: 8765 67bd 963c 9ebd 256b 3cbd 374c 2e3d
00000180: 5425 c43c 02af dd3b cde4 493d f8bb 1a3d
00000190: 2726 90bd ad42 623d d2b1 87bd 4722 183a
000001a0: 1b6d 6fbd 03cf 88bd 26fe 1dbd 26ae 7e3d
000001b0: ed9b 833c 512c 1cbc 0795 4e3d ebe9 63bd
000001c0: d298 433d 0306 68bd 7049 20bc 7d4e 16bd
000001d0: 617c 1fbc f040 f73b 7620 4f3d f36a 99bc
000001e0: be17 98bd fee1 4a3d 57d1 173d 0dbc 493d
000001f0: 0c29 c53c 4d46 f83c 1b50 3e3d 36cf 223d
00000200: 6b42 253d 8e1e b3bc 6f75 5abc c515 5e3d
00000210: db03 d63c 557d 37bc 4b2c 4b3d c364 6e3d
00000220: cd11 8cbd d75e 293d a2e1 8dbd d08d 303d
00000230: ac8a a13d 600d 43bd 6956 593d ae5d a43c
00000240: f671 d1bc e445 39bd 7ff6 bb3c a235 773d
00000250: 0127 3abd a6a7 3d3d 3d19 473d 7f52 24bd
00000260: 14e8 34bd e161 a0bc 2b5e 753d a035 033d
00000270: 2b24 2ebd 4767 81bb ade7 97bc fbd6 67bd
00000280: 8e38 003d 9656 753d 6782 0fbd 71e1 0a3d
00000290: 11d6 ae3c 8f5c 66bd 21e5 96bd 1bde 803c
000002a0: 61ee 85bd 82be 07bb d1c0 eb3c b19e 1abd
000002b0: 9a3e bf3c d5c0 853d f55c 0cbd 5a33 daba
000002c0: fefd 91bd 7098 a63d 9c35 cd3b 60d8 ab3d
000002d0: 9255 0a3d ac43 9f3c f13d 29bd a952 68bd
000002e0: ba17 0e3c a8b0 153c 6645 133d 1df7 6a3c
000002f0: 75a5 c5bb 0717 49bc ef8c 80bd ea01 12bd
00000300: 673d 41bd be25 1bbd 37ec 0d3c ebdd 203d
00000310: 0a37 60bd 6653 f93c 8d09 81bb ce6d 223d
00000320: d971 fabc 1e63 573d 19a4 7a3d fab7 e0bb
00000330: 12f5 16bc fdf0 5f3c 5876 71bd c4c4 233d
00000340: d3cb 183c bca7 873c bed9 b7bc ca11 bcbc
00000350: 65bb a63c 4891 f6bb db61 883d 1807 0a3d
00000360: 039d e93c 47b3 6c3d 7551 56bd f079 9f3c
00000370: 8fc8 8ebc ac93 31bd 71d6 bf3c c122 9f3d
00000380: f530 f7bb 6935 0abd 8a94 b13d 4031 a53d
00000390: ba6b 843d 7bfe 92bd 529d 013d 6c66 b73d
000003a0: 9d50 a23d 5c12 053c dafc db3c eeaf 6abd
000003b0: 5747 913c e732 ddba ce95 8a3d 6801 853d
000003c0: 7ad8 4c3d 3ff1 203d 21c9 ca3b fff6 07bd
000003d0: 00bf 27bd 4f82 9ebd 02f2 2a3d def3 92bc
000003e0: b693 6c3d 1175 423d 5e3a 943d 02a0 a03d
000003f0: 8e34 6dbc 2c9e 463d a6cd 35bd d3f9 7a3d

bias f4 [18]
0.044357643 0.011984607 -0.032227598 0.07247621 -0.051687546 0.049574796 -0.033113487 0.04065267
-0.07505783 -0.054811295 0.017931886 -0.06291452 -0.006007582 -0.017407907 -0.00029277708 -0.034079988
-0.080423445 -0.025941793
00000000: 5cb0 353d 165b 443c 1601 04bd 686e 943d
00000010: 52b6 53bd f10e 4b3d 02a2 07bd 6a83 263d
00000020: ebb7 99bd cf81 60bd e4e5 923c 54d9 80bd
00000030: 40db c4bb 079b 8ebc e07f 99b9 7597 0bbd
00000040: 0cb5 a4bd e283 d4bc

weight f4 [18]
1.0025781 0.9986007 1.0055126 1.0060295 0.99432564 0.9980121 0.9993819 1.0027313
0.99469763 1.0034748 1.0027846 1.0032336 0.99078953 0.9888302 1.0082078 1.0012184
1.0033867 1.0059835
00000000: 7b54 803f 4ca4 7f3f a3b4 803f 93c5 803f
00000010: 208c 7e3f b97d 7f3f 7ed7 7f3f 8059 803f
00000020: 81a4 7e3f dd71 803f 3f5b 803f f569 803f
00000030: 62a4 7d3f fa23 7d3f f40c 813f ed27 803f
00000040: fa6e 803f 11c4 803f

bias f4 [18]
0.008930689 -0.01133323 0.0037024224 0.008186576 -0.012796634 0.00542433 0.00383078 -0.00056701334
-0.006021062 -0.0012080187 -0.0046172626 0.0005720646 -0.0017441268 -0.011403672 0.0046323496 0.0001768366
0.007850571 0.0057623102
00000000: 0652 123c 03af 39bc 57a4 723b fd20 063c
00000010: f9a8 51bc 94be b13b d30d 7b3b 9fa3 14ba
00000020: 544c c5bb 6256 9eba 684c 97bb 9bf6 153a
00000030: 2f9b e4ba 78d6 3abc f7ca 973b 376d 3939
00000040: ae9f 003c c3d1 bc3b

running_mean f4 [18]
0.6973357 0.2746389 -0.3387305 0.12061725 0.13866802 -0.56235665 0.105598934 0.5311657
-0.3974166 -0.7430688 -0.45393258 -0.016358528 -0.0426999 -0.16528398 -0.3869837 0.18976395
-0.69081986 0.16587187
00000000: 9884 323f 789d 8c3e 166e adbe 2d06 f73d
00000010: fdfe 0d3e 9bf6 0fbf 4144 d83d 7afa 073f
00000020: 307a cbbe c239 3ebf da69 e8be 5202 86bc
00000030: 17e6 2ebd 3440 29be ba22 c6be 7b51 423e
00000040: 92d9 30bf 51da 293e

running_var f4 [18]
0.10163118 0.13567203 0.079362385 0.18515463 0.10528983 0.10339382 0.21010354 0.3464617
0.2138019 0.25637537 0.2912114 0.20337518 0.105192296 0.2780219 0.116187915 0.7246989
0.42985672 0.061341226
00000000: 0224 d03d 9ced 0a3e bf88 a23d 2d99 3d3e
00000010: 32a2 d73d 24c0 d33d 6225 573e 6e63 b13e
00000020: e3ee 5a3e a243 833e a919 953e 9541 503e
00000030: 0f6f d73d e358 8e3e eef3 ed3d de85 393f
00000040: 2e16 dc3e f040 7b3d

weight f4 [45, 18, 5, 5]
-0.034201317 0.027961427 0.011028641 0.018796744 0.0066000246 0.021199422 0.0044843643 0.04740596
0.040945977 0.048927072 0.0062819393 0.0025501125 0.01067899 0.01987361 0.021195827 0.048429094
-0.006080085 -0.025934327 0.03557785 0.041762523 0.039420206 0.01706116 0.03302951 -0.033018667
-0.03536118 0.030702682 0.0018531738 0.01178417 -0.01986531 -0.005447602 -0.017668203 -0.010701587
0.040015012 0.029422948 -0.034245018 0.022571448 0.04723101 -0.039744735 0.012001644 -0.0014418595
0.027792487 0.02294077 -0.051150467 0.032004535 -0.01192102 -0.029951403 0.030019028 0.003017477
-0.014000016 0.04350022 -0.021079345 0.025000293 0.008434106 0.0063459203 -0.050260864 -0.023017675
0.026698355 -0.012283812 0.03616722 0.02321003 -0.044120103 -0.020714445 -0.038811877 -0.05544391
-0.03521864 -0.05220199 0.021932224 -0.036204286 0.029420836 -0.03583296 -0.015080461 0.015024063
-0.009686046 0.024658555 -0.029739087 -0.03582415 0.035319205 -0.030270705 0.007190861 0.01978729
0.0044468837 0.044525508 0.010517467 0.05443764 -0.022956816 -0.02024712 -0.05488943 -0.001997697
-0.000825994 -0.046582457 -0.004489792 -0.010851893 0.011104383 0.006073846 0.043044016 0.029952804
0.014941998 0.0010872755 0.0111259855 0.03583232 -0.0025694144 0.029074056 0.048878763 -0.04166339
-0.009582996 0.029696839 0.027836557 -0.0011895037 0.007246286 -0.032460783 0.024888517 -0.0021376505
-0.0029745505 0.028617343 0.0197846 0.049354978 0.022278376 -0.030252403 0.04652487 0.037979122
0.027035378 -0.024321534 -0.032570135 0.0053424044 0.013558389 -0.021370783 -0.009166298 -0.017172914
-0.015799107 -0.00040905937 -0.0022270135 0.007746752 -0.010051997 0.020144474 0.009420713 0.023421109
0.005212816 -0.026186947 -0.044430416 0.011355531 -0.010741532 0.023192268 -0.0417508 -0.0427029
-0.028571414 -0.05345206 0.0040138867 -0.011436461 0.02805006 -0.05024407 0.0023911798 -0.037831355
0.027477106 -0.007681549 -0.034479853 0.043336757 0.022461988 0.024392555 -0.036170896 0.00360962
0.014798653 -0.016889716 0.033888586 0.045820504 -0.03813059 -0.036324754 0.031384744 -0.016204596
-0.04788324 0.021573152 0.009452254 -0.03702937 -0.04211823 -0.038091462 -0.032186136 -0.028318591
-0.039848067 0.046430554 0.043133125 0.022275403 0.022094598 0.027238587 0.040538 0.035617102
-0.023642946 0.044102345 0.051479045 0.04185376 -0.012436502 -0.019750332 0.027729265 0.042646218
0.046405166 0.025713088 -0.041145843 -0.042557754 -0.04196703 -0.0231993 0.037855815 0.03737578
0.009805197 0.032783043 -0.02193774 -0.02144916 0.03185139 0.011983656 -0.0027263563 0.024359101
-0.0055041383 -0.0082096765 -0.022357088 -0.023516476 -0.01941082 0.01567816 -0.038136315 -0.015193853
0.017286813 0.04573691 -0.003194133 0.043834463 -0.01672538 0.013754154 -0.030517817 -0.0029071434
-0.010026042 -0.0073103295 -0.051987372 -0.003895094 0.0071420823 -0.045315158 -0.018537031 0.035802145
-0.037871093 -0.038104557 -0.010437911 -0.031184712 -0.018738009 -0.027231894 -0.023177976 0.008547694
0.031681832 0.008879875 0.040922325 -0.021097684 -0.0003019554 0.038864084 -0.017639497 -0.015037895
0.03159154 0.036179252 -0.042621635 -0.0059861373 -0.0072828266 0.0520529 0.008412633 -0.011809515
00000000: ae16 0cbd 5d0f e53c 79b1 343c a1fb 993c
00000010: 0545 d83b 69aa ad3c 93f1 923b c02c 423d
00000020: f8b6 273d c167 483d bad8 cd3b ca1f 273b
00000030: eef6 2e3c fbcd a23c dfa2 ad3c 965d 463d
00000040: 733b c7bb 3a74 d4bc 14ba 113d 2e0f 2b3d
00000050: 1577 213d d9c3 8b3c f449 073d 953e 07bd
00000060: e2d6 10bd 3184 fb3c 32e6 f23a 6412 413c
00000070: 93bc a2bc cc81 b2bb e8bc 90bc b655 2fbc
00000080: c8e6 233d 6508 f13c 8144 0cbd c2e7 b83c
00000090: 4e75 413d 60cb 22bd 8ba2 443c c7fc bcba
000000a0: 12ad e33c 48ee bb3c 2783 51bd 3017 033d
000000b0: 6250 43bc a55c f5bc 77ea f53c ddc0 453b
000000c0: 5360 65bc 492d 323d 97ae acbc 6acd cc3c
000000d0: 342f 0a3c 70f1 cf3b 56de 4dbd 908f bcbc
000000e0: 82b6 da3c 0b42 49bc 1424 143d f622 be3c
000000f0: 48b7 34bd 57b1 a9bc 34f9 1ebd 2719 63bd
00000100: 6c41 10bd c1d1 55bd 35ab b33c f24a 14bd
00000110: f703 f13c 95c5 12bd 0a14 77bc 7d27 763c
00000120: 39b2 1ebc bd00 ca3c 639f f3bc 58bc 12bd
00000130: dfaa 103d 45fa f7bc 50a1 eb3b f418 a23c
00000140: 2ab7 913b 6160 363d 7451 2c3c 01fa 5e3d
00000150: ef0f bcbc 4add a5bc bdd3 60bd cbeb 02bb
00000160: 8587 58ba 3fcd 3ebd 1b1f 93bb 23cc 31bc
00000170: 28ef 353c 1d07 c73b ec4e 303d 955f f53c
00000180: 48cf 743c e982 8e3a c449 363c e9c4 123d
00000190: 9f63 28bb b72c ee3c 1935 483d 3ba7 2abd
000001a0: 0002 1dbc c946 f33c 7e09 e43c 1fe9 9bba
000001b0: 4172 ed3b 99f5 04bd 01e3 cb3c d317 0cbb
000001c0: adf0 42bb eb6e ea3c 5013 a23c 7228 4a3d
000001d0: 2481 b63c e3d3 f7bc dd90 3e3d ff8f 1b3d
000001e0: 4c79 dd3c f43d c7bc 4368 05bd 560f af3b
000001f0: 0124 5e3c c811 afbc 3e2e 16bc 36ae 8cbc
00000200: 216d 81bc 0577 d6b9 16f3 11bb 77d8 fd3b
00000210: 22b1 24bc 0606 a53c 5659 1a3c a0dd bf3c
00000220: 45d0 aa3b 0286 d6bc abfc 35bd 8d0c 3a3c
00000230: 40fd 2fbc b6fd bd3c e302 2bbd 3ce9 2ebd
00000240: 990e eabc 8cf0 5abd ec86 833b fe5f 3bbc
00000250: 3dc9 e53c bacc 4dbd 57b5 1c3b 0df5 1abd
00000260: ab17 e13c 81b5 fbbb bf3a 0dbd e281 313d
00000270: 3402 b83c e5d2 c73c ef27 14bd 608f 6c3b
00000280: 0d76 723c 4d5c 8abc c2ce 0a3d 48ae 3b3d
00000290: d22e 1cbd 44c9 14bd 4a8d 003d 80bf 84bc
000002a0: 3721 44bd 2eba b03c a0dd 1a3c 1cac 17bd
000002b0: 2a84 2cbd cb05 1cbd 9cd5 03bd 64fc e7bc
000002c0: ba37 23bd f72d 3e3d 5cac 303d e87a b63c
000002d0: bbff b43c 7523 df3c 2d0b 263d 3de3 113d
000002e0: daae c1bc a9a4 343d b1db 523d d96e 2b3d
000002f0: 78c2 4bbc 73cb a1bc 7c28 e33c cdad 2e3d
00000300: 5813 3e3d 41a4 d23c 8b88 28bd 0a51 2ebd
00000310: 9fe5 2bbd 750c bebc b30e 1b3d 5917 193d
00000320: faa5 203c 8347 063d c6b6 b3bc 26b6 afbc
00000330: 9a76 023d 1957 443c abac 32bb bd8c c73c
00000340: 0f5c b4bb e181 06bc 3626 b7bc a0a5 c0bc
00000350: 7103 9fbc 7c6f 803c d334 1cbd a3ef 78bc
00000360: 139d 8d3c a056 3b3d a954 51bb c48b 333d
00000370: aa03 89bc 1a59 613c 8000 fabc c685 3ebb
00000380: 4544 24bc 7d8b efbb b6f0 54bd d544 7fbb
00000390: 2108 ea3b 639c 39bd f9da 97bc 45a5 123d
000003a0: b81e 1bbd 8613 1cbd c603 2bbc 1577 ffbc
000003b0: 7480 99bc 6c15 dfbc bddf bdbc a10b 0c3c
000003c0: cfc4 013d e57c 113c 2b9e 273d 0dd5 acbc
000003d0: c54f 9eb9 f22f 1f3d b580 90bc 8161 76bc
000003e0: 2166 013d b230 143d 0694 2ebd 5c27 c4bb
000003f0: c7a4 eebb 6c35 553d 24d5 093c b27c 41bc

bias f4 [45]
-0.029577658 0.0040768883 0.012805769 0.021918751 -0.015952125 -0.021250907 -0.04816691 0.037012856
0.016382627 -0.009391509 0.044055175 0.007968848 0.002611508 -0.02696432 -0.023831896 -0.027806383
-0.0068123993 0.025143672 -0.0531065 0.04427497 0.007132382 -0.022678938 -0.028732287 -0.00036195654
1.2723324e-05 -0.011334119 -0.029385287 0.035226274 0.016293533 0.013947688 0.014084531 -0.033985235
0.017332697 -0.010856076 -0.012929099 0.01998483 -0.051193327 0.020823957 -0.025944898 -0.037823893
0.03858369 -0.027929746 -0.01578606 0.015226641 -0.038287204
00000000: d84c f2bc 6b97 853b 4acf 513c f48e b33c
00000010: 08ae 82bc 6216 aebc aa4a 45bd cb9a 173d
00000020: dc34 863c d8de 19bc 3373 343d c58f 023c
00000030: d525 2b3b 47e4 dcbc 1c3b c3bc 36ca e3bc
00000040: 8c3a dfbb 1afa cd3c 3486 59bd ac59 353d
00000050: c2b6 e93b 2ec9 b9bc f95f ebbc fcc4 bdb9
00000060: 4376 5537 beb2 39bc 6ab9 f0bc 6d49 103d
00000070: 047a 853c d884 643c cec2 663c 1a34 0bbd
00000080: 4dfd 8d3c afdd 31bc 92d4 53bc 3ab7 a33c
00000090: 18b0 51bd 0197 aa3c 658a d4bc 3aed 1abd
000000a0: ee09 1e3d eccc e4bc c451 81bc 2979 793c
000000b0: 0bd3 1cbd

weight f4 [45]
1.0023645 0.999318 0.99858916 0.9999375 0.99565846 0.99453944 0.9986668 1.0020238
1.0006212 1.0023382 1.0078297 0.99965477 0.9972306 0.9986249 0.9991331 1.0063047
0.9829976 0.9974533 1.008478 0.9954931 1.0121983 0.9899868 0.9955578 0.99809694
1.0081156 1.0026501 0.9946726 0.99346113 0.9966029 1.0063409 1.0029334 0.98999435
1.0095986 1.0084994 1.0035684 1.0093535 1.0018386 0.99584955 0.9805088 1.005389
0.998047 0.9963829 1.006207 0.9955763 0.9976916
00000000: 7b4d 803f 4ed3 7f3f 8aa3 7f3f e7fb 7f3f
00000010: 79e3 7e3f 239a 7e3f a1a8 7f3f 5142 803f
00000020: 5b14 803f 9e4c 803f 9000 813f 60e9 7f3f
00000030: 814a 7f3f e2a5 7f3f 30c7 7f3f 98ce 803f
00000040: bba5 7b3f 1959 7f3f cf15 813f a3d8 7e3f
00000050: b78f 813f c66f 7d3f e0dc 7e3f 4883 7f3f
00000060: ef09 813f d756 803f dda2 7e3f 7853 7e3f
00000070: 5e21 7f3f c7cf 803f 1f60 803f 4570 7d3f
00000080: 873a 813f 8216 813f ee74 803f 7f32 813f
00000090: 3f3c 803f ffef 7e3f a002 7b3f 96b0 803f
000000a0: 0280 7f3f f312 7f3f 64cb 803f 17de 7e3f
000000b0: b768 7f3f

bias f4 [45]
-0.003483495 0.0037602575 0.003176598 0.00442055 0.0033982093 -0.00087821844 -0.001416474 0.001027536
0.0044983886 0.005863194 0.003140159 0.010242411 0.00023960877 0.0094255125 -0.009358755 0.0021985676
-0.013168105 0.00088133785 0.0041567986 0.0029465903 0.005782484 -0.0018450441 0.0065703876 -0.0022982766
0.0052078064 -0.00043801297 -0.0002573238 -0.008970775 -0.010392714 0.010998514 0.010630391 -0.013265019
0.00074435817 0.0050299405 -0.015437084 0.0033038987 -0.0009249056 -0.0043663224 -0.011255977 0.010019071
0.0024171742 -0.0023290375 0.007410256 -0.014193996 0.0033609609
00000000: 594b 64bb a76e 763b 792e 503b 43da 903b
00000010: 7eb4 5e3b 3e38 66ba fba8 b9ba 63ae 863a
00000020: 3867 933b 0920 c03b 20cb 4d3b c9cf 273c
00000030: 7d3f 7b39 776d 1a3c 7755 19bc d815 103b
00000040: 09bf 57bc 9509 673a c135 883b 951b 413b
00000050: fe7a bd3b 68d5 f1ba 684c d73b af9e 16bb
00000060: 3fa6 aa3b 1ba5 e5b9 6ae9 86b9 28fa 12bc
00000070: 3446 2abc 1c33 343c 172b 2e3c 8655 59bc
00000080: 0821 433a 33d2 a43b d3eb 7cbc 3986 583b
00000090: 5d75 72ba 5e13 8fbb fd6a 38bc 0827 243c
000000a0: 7469 1e3b c4a2 18bb bcd1 f23b ef8d 68bc
000000b0: 9143 5c3b

running_mean f4 [45]
0.6500275 0.6183824 -0.06219777 0.0808056 0.04313841 0.16090061 -0.037826817 -0.63456047
-0.6223682 -0.33866256 0.47541675 -0.22333641 -0.17709132 0.444302 0.40351224 -0.059746075
0.608333 -0.3615866 -0.3900213 0.13092771 0.20729245 -0.21480966 0.4824496 0.76474977
-0.7307825 -0.39575467 -0.31351075 -0.28296012 0.009627884 -0.6222824 -0.3579657 -1.0382032
-0.20785065 0.3444489 0.5210474 -0.2151 0.24281077 -0.09158211 0.6493569 -0.52179116
0.363849 0.1471458 0.27810416 0.29022372 -0.8409362
00000000: 3468 263f 4f4e 1e3f 17c3 7ebd 687d a53d
00000010: e7b1 303d 21c3 243e 4bf0 1abd 8e72 22bf
00000020: 8653 1fbf 2e65 adbe d369 f33e 4db2 64be
00000030: 6d57 35be 8d7b e33e 2899 ce3e 4db8 74bd
00000040: b6bb 1b3f e121 b9be dfb0 c7be ea11 063e
00000050: 7944 543e 10f7 5bbe a203 f73e a4c6 433f
00000060: 9014 3bbf 5ba0 cabe 7b84 a0be 26e0 90be
00000070: 46be 1d3c e64d 1fbf 4847 b7be d8e3 84bf
00000080: cdd6 54be 9b5b b03e 5d63 053f 2d43 5cbe
00000090: 63a3 783e 678f bbbd 413c 263f 1b94 05bf
000000a0: 6b4a ba3e 63ad 163e ab63 8e3e 3498 943e
000000b0: 9847 57bf

running_var f4 [45]
0.30622286 0.31423995 0.33044115 0.293951 0.8184722 0.18818843 0.54970646 0.29265228
0.29541847 0.24168544 0.18330745 0.21065798 0.28338677 0.27820912 0.8819223 0.15418349
0.60368806 0.21467015 0.2893967 0.27586892 0.5498447 0.67475814 0.34827507 0.25800085
0.18834369 0.5827112 0.75275046 0.17126831 0.16675852 0.2431173 0.1946513 0.91507226
0.50527227 0.10717475 0.8925558 0.46109095 0.17051888 0.56281185 0.19301218 0.21701337
0.6330842 0.16186786 0.3360159 0.20139948 0.8969521
00000000: 3ec9 9c3e 0fe4 a03e 952f a93e bf80 963e
00000010: 6587 513f 78b4 403e 90b9 0c3f 85d6 953e
00000020: 1741 973e 637c 773e f3b4 3b3e bab6 573e
00000030: 1218 913e 6d71 8e3e a9c5 613f 47e2 1d3e
00000040: 4d8b 1a3f 7ed2 5b3e ce2b 943e b13e 8d3e
00000050: 9fc2 0c3f f3bc 2c3f 1c51 b23e b018 843e
00000060: 2bdd 403e 902c 153f 41b4 403f f660 2f3e
00000070: bfc2 2a3e bef3 783e ac52 473e 2d42 6a3f
00000080: 8659 013f 6f7e db3d 897e 643f 1d14 ec3e
00000090: 809c 2e3e 7014 103f fca4 453e c138 5e3e
000000a0: ce11 223f b0c0 253e 470a ac3e aa3b 4e3e
000000b0: a79e 653f

weight f4 [18, 45, 5, 5]
-0.02848009 -0.007146192 -0.024447164 -0.017031994 0.009071108 -0.012647347 -0.006510692 0.016473386
0.026579646 -0.0145328585 0.019361993 -0.002972954 0.01065123 0.03508625 0.025002228 0.013961194
0.009592952 -0.018902669 0.03189564 0.03342118 -0.019788904 0.016832985 -0.02396176 0.031304758
-0.019414686 -0.025285432 0.025984509 -0.0076282066 -0.024702132 -0.0025067816 -0.010261336 0.021956326
0.0065112747 0.01076336 0.004226684 -0.003114669 0.03165846 -0.013832909 0.0015986364 -0.022661755
-0.01452336 0.027228856 0.016057173 -0.0145788975 0.0019235687 0.012800041 0.02457192 -0.005471837
0.033521574 -0.011452505 0.01874839 0.024491731 0.0012232255 -0.020301398 0.02303614 0.00836217
-0.015559729 0.009095084 0.027662108 0.0025638351 -0.022725545 0.01709763 -0.01268096 0.0061337324
0.0068558813 0.011750787 -0.034768663 0.017434163 -0.0019690257 0.0035438736 -0.028641231 -0.030208064
0.0070660426 0.015801778 -0.01217156 -0.013096832 -0.0045158784 0.0091997115 0.014367593 0.02063691
0.038452152 -0.019521981 0.015846383 0.012838214 0.003930749 0.01536881 -0.03723233 -0.0049986364
-0.033602335 0.014114598 -0.007684498 0.030453118 0.009820978 -0.032906394 -0.0198859 0.0055745193
-0.026236719 0.008942782 -0.012543193 -0.02397994 -0.010935428 0.022441363 -0.0013532079 0.024771094
0.010143595 -0.014432118 -0.025807092 0.0054532783 0.01161945 -0.007597212 0.012650447 -0.0071004387
-0.032504726 -0.019247346 -0.009135002 0.01907568 -0.025642954 -0.024463592 0.028262094 -0.0137928575
-0.014986714 0.0060871616 0.027410578 -0.013961973 -0.0048095156 -0.008615894 -0.016146801 0.03019411
0.005771067 -0.013149635 -0.029366631 -0.00869297 -0.01862109 -0.019607656 -0.010346939 0.0021514134
-0.010283465 0.013758279 -0.008526404 -0.00028223748 -0.0194516 -0.010646327 -0.0011390949 0.005307213
-0.020279247 -0.0112575255 0.0044132 0.0148562705 0.000407383 -0.030331278 -0.027172668 -0.0073072216
-0.015490745 0.020416865 0.024595777 -0.009906224 -0.0049957666 -0.0034579025 -0.021489615 0.0044204094
-0.027553689 -0.009899106 0.014479388 -0.032055873 -0.021174004 -0.036692936 0.022921644 0.007661698
0.004169014 0.0120989075 -0.027720919 0.005052611 -0.014541725 0.017574465 -0.025286876 -0.031831823
-0.027753962 -0.02416409 -0.019358303 -0.0052034114 -0.00494761 0.025811795 0.025043514 -0.016778596
0.020600457 -0.014365537 0.03963734 -0.004390834 -0.0137942275 0.01318104 -0.013291799 -0.030623013
-0.03125982 -0.013953355 -0.018077167 -0.008777474 0.026310187 -0.0064048916 0.0007328099 -0.02655179
0.006118054 0.0006741487 0.013829749 0.013823679 -0.034745254 -0.0057302355 -0.00734448 0.03531754
0.03361563 -0.003649241 -0.02010752 0.026806131 -0.029787991 0.017984966 -0.015032706 -0.021148106
0.023282476 0.0064705815 0.022357486 -0.028025704 -0.0057527944 0.018896228 -0.010987962 -0.029068006
-0.00024697467 -0.026213152 0.0024837276 -0.0039535933 0.022952374 0.012575799 0.02275932 -0.008304294
0.02511264 -0.021822928 -0.0014161456 -0.019168677 -0.0051633557 -0.014795542 -0.011771783 0.003937548
0.019814666 0.013170647 -0.0048469105 0.021003924 0.0010221952 0.007329365 -0.0030154581 -0.0061432477
0.0073331054 -0.0064749476 -0.011808002 0.015743934 0.01093709 0.020825356 0.0023169604 -0.0029786357
00000000: 144f e9bc 9a2a eabb 6b45 c8bc ae86 8bbc
00000010: fc9e 143c d136 4fbc a557 d5bb 32f3 863c
00000020: 8fbd d93c 3a1b 6ebc 0b9d 9e3c e4d5 42bb
00000030: 7f82 2e3c 9ab6 0f3d 79d1 cc3c 7ebd 643c
00000040: c22b 1d3c c5d9 9abc 01a5 023d a6e4 083d
00000050: 571c a2bc 54e5 893c 744b c4bc 6b39 003d
00000060: 8c0b 9fbc 6523 cfbc 77dd d43c 09f6 f9bb
00000070: 205c cabc d148 24bb 2a1f 28bc c1dd b33c
00000080: 885c d53b ce58 303c ff7f 8a3b 791f 4cbb
00000090: 4dac 013d 6da3 62bc 5689 d13a 25a5 b9bc
000000a0: 63f3 6dbc 0d0f df3c 558a 833c 54dc 6ebc
000000b0: 4120 fc3a 43b7 513c 0d4b c93c 184d b3bb
000000c0: eb4d 093d 4aa3 3bbc 3996 993c e2a2 c83c
000000d0: a354 a03a 1e4f a6bc 49b6 bc3c 7c01 093c
000000e0: 3cee 7ebc 8c03 153c a59b e23c 0406 283b
000000f0: ec2a babc 5410 8c3c cdc3 4fbc 7afd c83b
00000100: 4da7 e03b 5f86 403c 9669 0ebd 17d2 8e3c
00000110: c50a 01bb 5540 683b 04a1 eabc e776 f7bc
00000120: 438a e73b bb72 813c 396b 47bc 1894 56bc
00000130: eff9 93bb 63ba 163c 0e66 6b3c bd0e a93c
00000140: 0180 1d3d 90ec 9fbc 46d0 813c 5f57 523c
00000150: 83cd 803b 76cd 7b3c ed80 18bd 9acb a3bb
00000160: 9aa2 09bd ea40 673c 3ece fbbb d178 f93c
00000170: 2be8 203c dbc8 06bd c1e7 a2bc 75aa b63b
00000180: 63ee d6bc bf84 123c f781 4dbc 9471 c4bc
00000190: 822a 33bc f3d6 b73c 1f5e b1ba c0ec ca3c
000001a0: 5231 263c b174 6cbc 6569 d3bc 6ab1 b23b
000001b0: 815f 3e3c 09f2 f8bb d243 4f3c ccaa e8bb
000001c0: ad23 05bd 9cac 9dbc faaa 15bc 9a44 9c3c
000001d0: 2c11 d2bc df67 c8bc e885 e73c 70fb 61bc
000001e0: d68a 75bc d076 c73b 268c e03c c2c0 64bc
000001f0: 2499 9dbb ae29 0dbc 4c46 84bc a359 f73c
00000200: 381b bd3b 9171 57bc 4a92 f0bc f56c 0ebc
00000210: 428b 98bc 3ca0 a0bc 3586 29bc bafe 0c3b
00000220: fa7b 28bc 686a 613c 55b2 0bbc 46f9 93b9
00000230: f658 9fbc ef6d 2ebc af4d 95ba 21e8 ad3b
00000240: aa20 a6bc 7c71 38bc 9b9c 903b b767 733c
00000250: 0596 d539 4d79 f8bc 3799 debc 6b71 efbb
00000260: e5cc 7dbc 4541 a73c 157d c93c b74d 22bc
00000270: 87b3 a3bb fa9d 62bb fd0a b0bc 15d9 903b
00000280: 46b8 e1bc dc2f 22bc f43a 6d3c 054d 03bd
00000290: 1b75 adbc 554b 16bd 2cc6 bb3c fb0e fb3b
000002a0: 399c 883b 7f3a 463c fb16 e3bc 6090 a53b
000002b0: 6a40 6ebc 53f8 8f3c 6c26 cfbc 1662 02bd
000002c0: 475c e3bc c5f3 c5bc 4e95 9ebc 6181 aabb
000002d0: 901f a2bb 4273 d33c 0e28 cd3c 4473 89bc
000002e0: 4ac2 a83c 6e5d 6bbc c35a 223d fce0 8fbb
000002f0: 2f01 62bc 4af5 573c d9c5 59bc 1ddd fabc
00000300: 4c0a 00bd 9d9c 64bc 9116 94bc 65cf 0fbc
00000310: 7688 d73c 20e0 d1bb 0a1a 403a 2483 d9bc
00000320: f579 c83b 5ab9 303a 2c96 623c b67c 623c
00000330: 0a51 0ebd b3c4 bbbb f7a9 f0bb 20a9 103d
00000340: 8bb0 093d 1b28 6fbb 87b8 a4bc 8898 db3c
00000350: f205 f4bc 3555 933c bd4b 76bc cb3e adbc
00000360: e4ba be3c 2c07 d43b 0c27 b73c 2996 e5bc
00000370: f081 bcbb 43cc 9a3c da06 34bc 0720 eebc
00000380: 617c 81b9 f7bc d6bc 09c6 223b 258d 81bb
00000390: 9e06 bc3c b90a 4e3c c171 ba3c bc0e 08bc
000003a0: 06b9 cd3c ffc5 b2bc f69d b9ba a107 9dbc
000003b0: 5e31 a9bb 0069 72bc 70de 40bc 8c06 813b
000003c0: 5e52 a23c b3c9 573c d5d2 9ebb 6c10 ac3c
000003d0: 2efb 853a 2b2b f03b fe9e 45bb 4c4d c9bb
000003e0: 8c4a f03b cc2b d4bb 5a76 41bc 6cf9 803c
000003f0: 7b31 333c f099 aa3c 25d8 173b 3735 43bb

bias f4 [18]
0.0012940377 0.010031868 -0.012337923 0.027309397 0.019469474 -0.0055002547 0.007219263 0.012009564
-0.025178554 0.010986936 -0.0053175264 0.00391354 -0.015648648 0.025404498 0.031094614 -0.0011696538
0.029250259 0.015104394
00000000: b39c a93a b45c 243c 0025 4abc f5b7 df3c
00000010: 727e 9f3c 7b3b b4bb 918f ec3b c3c3 443c
00000020: 4143 cebc 8d02 343c a53e aebb 273d 803b
00000030: 9831 80bc 181d d03c 22ba fe3c 124f 99ba
00000040: 3d9e ef3c 6c78 773c

weight f4 [18]
1.0039976 0.9982543 1.0041448 0.99992085 0.99508524 0.9906901 1.0038283 1.0036192
1.000079 1.006288 0.999444 1.0022178 0.98895085 0.9962859 0.9995181 0.9982156
1.0060349 1.0075531
00000000: fe82 803f 988d 7f3f d187 803f d0fa 7f3f
00000010: e8bd 7e3f de9d 7d3f 727d 803f 9876 803f
00000020: 9702 803f 0cce 803f 90db 7f3f ac48 803f
00000030: e22b 7d3f 980c 7f3f 6be0 7f3f 0f8b 7f3f
00000040: c0c5 803f 80f7 803f

bias f4 [18]
0.0057158405 -0.0063780914 0.0069245403 -0.003926729 0.004553344 -0.014125554 0.00442572 0.0029438087
0.0043940386 0.009112091 0.0010891464 -0.0059875567 0.012051115 0.011057207 -0.0017549313 -0.008401035
0.004697177 -0.0016545124
00000000: f24b bb3b 4fff d0bb 41e7 e23b caab 80bb
00000010: 3834 953b de6e 67bc a105 913b eaec 403b
00000020: defb 8f3b e14a 153c b0c1 8e3a 4433 c4bb
00000030: 0a72 453c 4a29 353c b905 e6ba 7fa4 09bc
00000040: c7ea 993b 39dc d8ba

running_mean f4 [18]
0.55856067 0.7354286 -1.5816814 0.55562776 -1.4883686 -0.12238821 -1.282531 -1.144141
-1.1924982 -1.2910672 0.2650491 0.022245968 -1.4424186 -0.92925316 0.6426503 1.1426566
0.39856356 -1.7886496
00000000: d5fd 0e3f 0c45 3c3f 8974 cabf 9f3d 0e3f
00000010: dd82 bebf aba6 fabd fa29 a4bf 3673 92bf
00000020: c8a3 98bf b141 a5bf 84b4 873e 2d3d b63c
00000030: 2ca1 b8bf 89e3 6dbf bb84 243f 9242 923f
00000040: 8610 cc3e 78f2 e4bf

running_var f4 [18]
0.3263707 1.783601 3.3679144 0.9853895 4.626505 1.5442228 1.3053508 1.7312266
0.9147289 1.7916286 0.49258345 0.641493 0.88644594 0.68264085 0.63762766 2.3718436
0.46942943 1.4112244
00000000: 0f1a a73e 0a4d e43f e98b 5740 7c42 7c3f
00000010: 540c 9440 18a9 c53f bc15 a73f d598 dd3f
00000020: ac2b 6a3f 1654 e53f e633 fc3e e338 243f
00000030: 1fee 623f 8dc1 2e3f 913b 233f 49cc 1740
00000040: 0e59 f03e 00a3 b43f

weight f4 [6, 18, 5, 5]
0.009850864 0.023478815 0.039166857 0.047375385 -0.029546188 0.011494116 -0.019989751 0.015834296
-0.0086326 0.013939064 0.046566803 0.013489069 -0.01111949 0.04166597 0.01178566 -0.013994791
-0.005992492 0.03811008 0.035023496 -0.00439994 0.0015436892 -0.012427353 0.031633254 -0.041777655
-0.021651158 -0.0502805 0.04016307 0.009436713 0.042105008 -0.04540733 -0.032544922 -0.02651354
0.031084515 -0.03446798 0.0028850066 -0.04023995 -0.036074474 -0.026743209 -0.02369097 -0.029563097
-0.027851963 0.012717587 -0.035213422 -0.032956712 -0.0015924025 0.037935067 0.020673826 0.029110821
-0.012901382 -0.01293174 0.01872522 -0.046549812 0.0063442164 -0.026050037 -0.058315895 0.00751534
0.030370183 0.02863185 0.05709019 0.036831368 -0.036051627 0.0056309886 -0.034355663 0.054931037
0.022973992 0.003804322 -0.017126568 0.04047359 -0.033288456 0.05206229 -0.03923761 0.03321177
-0.0016716676 0.04422648 0.0016539994 -0.017186314 0.040898662 -0.033060733 0.028791131 0.008949758
-0.0029084156 0.046598017 -0.044183742 -0.0023334054 0.03456855 0.009705341 0.029570708 0.0064201877
-0.01981859 0.014950793 0.015572631 -0.023191279 0.04169333 0.028700527 0.013838555 0.04436995
0.020332022 0.037090596 0.027169362 0.022031669 -0.0035956767 -0.008993358 0.014771097 -0.018800158
-0.025553264 0.020438004 -0.008761907 0.0109825125 0.029258082 0.022122007 0.015774997 -0.024579432
0.037949357 -0.017811254 -0.033647206 0.02554971 0.047536492 -0.039983846 -0.003108075 0.026757237
-0.02227806 0.03899431 0.004890612 -0.006559511 0.0044006654 -0.021164706 0.010033746 0.016788863
0.0049693114 -0.048685372 -0.006627033 0.03893329 -0.013288355 -0.04091001 0.0030509832 0.031654052
-0.030270709 0.03204614 0.0054674004 0.0055357986 0.0037090702 0.019994406 0.030638635 -0.00027518315
-0.033548426 -0.05397008 -0.025243593 -0.0022851354 -0.034813017 0.015165915 0.029327238 0.03809099
-0.03312959 -0.038675815 -0.00514656 0.014780495 -0.03069887 0.00014583608 0.02250674 -0.029471302
-0.012095977 0.011450515 -0.023278777 -0.032890107 0.051541816 0.009289192 0.024723938 -0.019882975
-0.004474207 -0.019795764 -0.049961936 -0.044440694 0.026026104 0.035511196 -0.009163584 -0.043138504
-0.020811807 -0.015859254 -0.034912877 -0.051326126 -0.013692104 0.016261088 0.018352093 0.012891842
0.021239161 0.03842356 0.01275499 0.034110345 0.035125237 -0.030416703 -0.015068756 0.042660404
-0.04828724 0.028484702 0.017199688 -0.013037869 0.017834548 -0.03533461 0.047060158 0.021557754
-0.029421585 0.026247017 -0.029520608 -0.043305904 0.00429799 -0.05307081 -0.027244322 -0.011929279
-0.059787888 0.018313583 0.02831377 -0.0018809702 0.023369182 0.017905712 0.032916363 0.022645416
-0.018191194 0.026967613 0.0017102837 -0.028886626 0.020380266 0.049917214 -0.009513903 -0.002564911
0.042896476 -0.014254137 0.046962034 -0.01996325 0.0051026056 0.010998125 -0.027042016 0.03938939
0.020205239 0.022980783 -0.031206526 0.0162537 0.011232879 0.02469088 0.013797742 0.04426371
0.044515856 0.0062325983 -0.008148086 0.022007046 0.039342996 -0.026313592 -0.03743632 -0.027653875
-0.031067608 -0.005560329 0.006714575 0.026462633 -0.028197484 -0.006842992 0.033532698 0.017860556
00000000: 8565 213c a556 c03c 6d6d 203d b10c 423d
00000010: d90a f2bc d151 3c3c 8cc1 a3bc edb6 813c
00000020: c06f 0dbc ac60 643c d5bc 3e3d 4201 5d3c
00000030: 852e 36bc f0a9 2a3d a418 413c 684a 65bc
00000040: ab5c c4bb 5119 1c3d cc74 0f3d 5f2d 90bb
00000050: 9d55 ca3a 199c 4bbc df91 013d 0c1f 2bbd
00000060: c55d b1bc edf2 4dbd 0882 243d 719c 1a3c
00000070: 4d76 2c3d 09fd 39bd d34d 05bd ec32 d9bc
00000080: f4a4 fe3c 4c2e 0dbd 6112 3d3b a5d2 24bd
00000090: d4c2 13bd 9314 dbbc 9113 c2bc 4f2e f2bc
000000a0: cd29 e4bc 6d5d 503c f33b 10bd 9efd 06bd
000000b0: 29b8 d0ba cd61 1b3d 285c a93c d179 ee3c
000000c0: 5160 53bc a6df 53bc a265 993c 04ab 3ebd
000000d0: 25e3 cf3b e366 d5bc a6dc 6ebd 3e43 f63b
000000e0: e4ca f83c 578d ea3c 67d7 693d 7ddc 163d
000000f0: dfaa 13bd 2884 b83b 86b8 0cbd 5eff 603d
00000100: f433 bc3c ef51 793b 044d 8cbc a3c7 253d
00000110: 7a59 08bd 453f 553d 9eb7 20bd 1109 083d
00000120: db1b dbba d326 353d 03cb d83a 50ca 8cbc
00000130: 5b85 273d b16a 07bd 61db eb3c 01a2 123c
00000140: 1e9b 3ebb 90dd 3e3d 03fa 34bd 0cec 18bb
00000150: c097 0d3d 2703 1f3c 453e f23c 7060 d23b
00000160: 985a a2bc 2cf4 743c 5924 7f3c a3fb bdbc
00000170: a0c6 2a3d 5e1d eb3c 1bbb 623c 44bd 353d
00000180: 578f a63c 4fec 173d 4892 de3c c27b b43c
00000190: 72a5 6bbb e158 13bc 7902 723c ca02 9abc
000001a0: 1455 d1bc 9a6d a73c 1a8e 0fbc ffef 333c
000001b0: a5ae ef3c 3639 b53c 913a 813c ce5a c9bc
000001c0: c970 1b3d e8e8 91bc a7d1 09bd a04d d13c
000001d0: a0b5 423d 1ac6 23bd d8b0 4bbb fe31 db3c
000001e0: 7a80 b6bc 7fb8 1f3d 6d41 a03b 2bf1 d6bb
000001f0: 7533 903b 9b61 adbc 9564 243c cc88 893c
00000200: 9bd5 a23b 506a 47bd 9527 d9bb 8378 1f3d
00000210: 67b7 59bc 4191 27bd 01f3 473b aea7 013d
00000220: 47fa f7bc d042 033d e127 b33b a565 b53b
00000230: df13 733b 4fcb a33c e0fd fa3c 7546 90b9
00000240: 136a 09bd bb0f 5dbd a7cb cebc 36c2 15bb
00000250: 1898 0ebd 757a 783c ad3f f03c 4c05 1c3d
00000260: e5b2 07bd 886a 1ebd 79a4 a8bb e429 723c
00000270: 327c fbbc 93eb 1839 0e60 b83c cd6d f1bc
00000280: 342e 46bc f19a 3b3c 22b3 bebc c7b7 06bd
00000290: 831d 533d b231 183c db89 ca3c 9fe1 a2bc
000002a0: 5e9c 92bb ba2a a2bc e3a4 4cbd 7207 36bd
000002b0: b234 d53c 3074 113d db22 16bc 00b2 30bd
000002c0: 867d aabc 44eb 81bc ce00 0fbd 583b 52bd
000002d0: d954 60bc f935 853c 2157 963c 4e38 533c
000002e0: c0fd ad3c 0662 1d3d 4efa 503c 4ab7 0b3d
000002f0: 7bdf 0f3d 732c f9bc f2e2 76bc adbc 2e3d
00000300: d7c8 45bd c058 e93c 5ce6 8c3c c99c 55bc
00000310: c219 923c 06bb 10bd 27c2 403d e399 b03c
00000320: 8905 f1bc fc03 d73c 34d5 f1bc 8861 31bd
00000330: 27d6 8c3b c760 59bd 7c2f dfbc 0673 43bc
00000340: 25e4 74bd 5e06 963c 48f2 e73c e38a f6ba
00000350: ba70 bf3c 00af 923c 4fd3 063d e182 b93c
00000360: b305 95bc 2feb dc3c 992b e03a a5a3 ecbc
00000370: 84f4 a63c fe75 4c3d 34e0 1bbc 1118 28bb
00000380: 37b4 2f3d 2f8a 69bc 435b 403d f889 a3bc
00000390: c233 a73b 7b31 343c 3887 ddbc c556 213d
000003a0: 7585 a53c 3242 bc3c d4a4 ffbc 7b26 853c
000003b0: 1c0a 383c 8744 ca3c ed0f 623c dd4d 353d
000003c0: 4256 363d d33a cc3b 8d7f 05bc 1f48 b43c
000003d0: 1f26 213d 9a8f d7bc d456 19bd 618a e2bc
000003e0: 7f81 febc 6c33 b6bb f005 dc3b 2ac8 d83c
000003f0: 69fe e6bc 2d3b e0bb 9559 093d 4d50 923c

bias f4 [6]
0.007587577 0.027508464 0.021980857 0.021285154 -0.023265025 -0.029631382
00000000: 36a1 f83b 6e59 e13c 3311 b43c 345e ae3c
00000010: 4b96 bebc 83bd f2bc

weight f4 [6]
0.99644715 0.9985401 1.0087054 0.99248976 1.0074931 0.99469113
00000000: 2917 7f3f 53a0 7f3f 421d 813f cf13 7e3f
00000010: 89f5 803f 14a4 7e3f

bias f4 [6]
0.00584816 0.003049117 -0.0070404047 -0.009547647 0.0054530185 -0.0054267063
00000000: eca1 bf3b b2d3 473b 32b3 e6bb bc6d 1cbc
00000010: 3caf b23b 83d2 b1bb

running_mean f4 [6]
0.45770055 0.10026108 -0.19728322 0.46888393 -0.43436295 -0.83324534
00000000: ba57 ea3e ae55 cd3d 9d04 4abe 8e11 f03e
00000010: d264 debe 914f 55bf

running_var f4 [6]
0.26120025 0.17549486 0.20452741 0.08410571 0.21148309 0.2145746
00000000: 0abc 853e edb4 333e a26f 513e 9d3f ac3d
00000010: 068f 583e 72b9 5b3e

weight f4 [1, 6, 5, 3]
-0.054281574 -0.0704559 -0.052033704 0.03415149 0.09003165 -0.06322143 0.04289506 -0.098036304
0.0017054317 0.033672668 0.08967098 -0.0813643 0.09709807 0.08215934 -0.008469771 -0.042829487
0.024085168 -0.058454257 -0.046844717 0.0027240335 0.0475135 -0.012913061 -0.021078791 0.009239197
-0.029587446 -0.04783644 -0.06532285 0.08363837 -0.094788216 -0.055292808 -0.069905624 0.057483822
0.06791305 -0.009488511 0.025936872 -0.0214279 0.0013357621 0.020248568 -0.087062515 0.056108374
0.031414658 0.04970855 -0.088693835 -0.042513017 0.032109145 -0.06704124 -0.02456969 0.051897958
-0.08669943 0.039232034 0.04844245 0.012891422 -0.104734346 0.008975915 -0.073628366 -0.026344879
-0.04390734 0.02779958 0.017085558 -0.04722454 -0.10200947 0.098552115 0.028962303 0.011077746
-0.082617484 -0.014470475 0.100450024 0.09193276 0.055236317 -0.06426469 0.083740935 0.075766504
0.09659966 0.021983787 0.09064738 -0.04996037 -0.07946792 -0.0016352964 -0.02343538 0.047942575
0.06204226 -0.09700986 0.06339315 0.032977853 -0.01733934 0.008419006 0.09732387 0.0780734
-0.06476968 0.06128805
00000000: 5b56 5ebd 2f4b 90bd 4b21 55bd 6fe2 0b3d
00000010: 8462 b83d 3d7a 81bd bbb2 2f3d 42c7 c8bd
00000020: cb88 df3a 5aec 093d 6ba5 b73d 53a2 a6bd
00000030: 5adb c63d 2843 a83d cbc4 0abc f96d 2fbd
00000040: 424e c53c bb6d 6fbd 3fe0 3fbd b385 323b
00000050: 849d 423d 4e91 53bc 6ead acbc 0060 173c
00000060: 5f61 f2bc 25f0 43bd fdc7 85bd 984a ab3d
00000070: 5320 c2bd b67a 62bd ae2a 8fbd 2874 6b3d
00000080: ff15 8b3d b375 1bbc 9079 d43c 9089 afbc
00000090: bd14 af3a 53e0 a53c d54d b2bd e5d1 653d
000000a0: a8ac 003d 319b 4b3d 1da5 b5bd 2122 2ebd
000000b0: e184 033d eb4c 89bd 6046 c9bc f492 543d
000000c0: 798f b1bd c5b1 203d 976b 463d 8b36 533c
000000d0: f67e d6bd b70f 133c 78ca 96bd 37d1 d7bc
000000e0: 2fd8 33bd f2bb e33c 03f7 8b3c 856e 41bd
000000f0: 57ea d0bd b1d5 c93d 5a42 ed3c 6f7f 353c
00000100: 5b33 a9bd 9215 6dbc beb8 cd3d 3e47 bc3d
00000110: 7a3f 623d 359d 83bd 5e80 ab3d 782b 9b3d
00000120: 0bd6 c53d 5817 b43c 55a5 b93d 3fa3 4cbd
00000130: 14c0 a2bd 7157 d6ba 8efb bfbc 6f5f 443d
00000140: 0620 7e3d 1bad c6bd 45d4 813d c913 073d
00000150: 3b0b 8ebc dfef 093c bd51 c73d f2e4 9f3d
00000160: f7a5 84bd 2e09 7b3d
