source/models/SingleNoteTimbreCNN/model_128_25_0.002_plot.pth (torch, 201935 bytes, 26 tensors)

weight f4 [6, 1, 5, 5]
00000000: 3171 463d 7939 01be ee76 b53c 5b56 1c3d
00000010: ecf2 24be 864c 853d 0c6f d73d 7bcc 183e
00000020: 39c1 d5bd 168a c33d 453d 863d fa6f 57be
00000030: db60 b9bd 23ef 04be 91e7 de3d d0ad 983d
00000040: 55d6 22be 1990 e23c 4452 4a3d 7834 c83d
00000050: ecd3 24be 655b ba3d 3253 20be 1e18 8a3d
00000060: 4d8a 06be 66d5 363d df6a ae3d a23a e83c
00000070: ea28 e1bd ad81 abbd e44b 143c fa38 13be
00000080: 1be0 57bd 3495 e13d 0dbc 403e 635c 3a3e
00000090: 488c 873d e6de 48be 8a8a ec3c 1282 fdbd
000000a0: ace7 2dbe 935d 9fbd a4a9 613c 394e 373d
000000b0: f052 a13d 6ce1 fabd cd03 9a3d c441 54bd
000000c0: d497 333d 5297 a53d 7a50 a2bc b354 d7bd
000000d0: f5ac 053e 3368 e7bd 507b 5f3d ee8b ef3d
000000e0: 9bed 643d 1e35 b33d c5cd 083e f724 8bbd
000000f0: 3fd1 0abe e342 e4bd df33 bf3d b29b 8cbd
00000100: b159 d03d 84a3 5739 df3f 23bc fd81 5e3d
00000110: dcf8 bbbc 3602 a4bd 3631 f2bc 7453 2bbe
00000120: 9a1d 24bc 2754 12bd 0ae9 2c3e bab6 363e
00000130: ca05 c9bd 2c81 b73d b764 2b3e 6cad debd
00000140: 3200 3a3e 82fd 393e a311 12bd 6c6e 51bd
00000150: 127b 5e3e 859d 1dbd 1580 b8bc dec5 a8bd
00000160: 761a 4cbe fd90 e3bd e10e 16bd 8499 46be
00000170: 5860 ac3d 1ef3 ae3c d8e9 e23d 22e7 29bd
00000180: c5d0 313e 0088 11bd 4423 303e 5436 8f3d
00000190: f374 30be 87ee 0c3e 352d e939 7292 643c
000001a0: 7d39 de3d dbb5 72bd f6ca 39bd 663c d13d
000001b0: 97fc 0ebe 16a5 693d 57b8 3f3e 82de 82bd
000001c0: dbc8 8c3d 1e1f 583d 5269 29be 9b0f 45bd
000001d0: 35b0 a6bd d6bc 4b3c 85fb 48bd 6478 41be
000001e0: a958 d73d 40d1 47be eeab 58bd b5c1 073e
000001f0: 35ec 33bd 2088 e73d d959 9f3d d116 4dbe
00000200: 1586 10be 3bf3 cabd db50 29bd d3ef 663d
00000210: ac2c 863d 5680 7fbd b2a2 c3bc c110 cfbc
00000220: 5071 5cbc 037e f4bd 9014 723d a297 fe3d
00000230: b8cc 10be 9e37 39be 45d7 0e3e a702 fd3d
00000240: 9de9 263e fd2d 2dbe 5ba3 163e 0f11 d3bd
00000250: 2b55 8c3d 3f30 403e
0.04844779 -0.1261958 0.022151437 0.038168292 -0.16108292 0.06508736 0.105192274 0.14921753
-0.10437245 0.09547822 0.06554655 -0.2103881 -0.09051677 -0.12981848 0.108840115 0.07455027
-0.15902074 0.027656602 0.04939486 0.097756326 -0.16096467 0.090994634 -0.15656736 0.06742881
-0.13138695 0.044637106 0.08516478 0.02834827 -0.10994132 -0.08374343 0.009051297 -0.14377204
-0.052703958 0.11014786 0.18821736 0.18199305 0.066185534 -0.19616279 0.028874654 -0.123783246
-0.16982907 -0.0778152 0.013773356 0.044752333 0.07877147 -0.12250027 0.07520256 -0.05182053
0.043845966 0.08085503 -0.019813765 -0.10514202 0.13054259 -0.11299171 0.05456096 0.11696611
0.05589066 0.08750366 0.13359745 -0.0679416 -0.13556384 -0.1114557 0.093360655 -0.06865634
0.10173357 0.00020564912 -0.0099639585 0.054323185 -0.022945814 -0.08008234 -0.029564481 -0.16731054
-0.010016823 -0.035724785 0.16885772 0.17843142 -0.09815557 0.089601845 0.16737638 -0.10872921
0.18164137 0.18163112 -0.03566135 -0.051130697 0.21726635 -0.0384803 -0.022522012 -0.08240865
-0.19931969 -0.11111639 -0.036635283 -0.19394499 0.084168136 0.021356162 0.110797584 -0.04148019
0.17364796 -0.03553009 0.17200953 0.06992784 -0.17232113 0.13762866 0.00044474905 0.013950931
0.10850809 -0.059255462 -0.045359574 0.10216598 -0.13963543 0.057042204 0.18722664 -0.06390096
0.06874248 0.05276405 -0.16544083 -0.048110586 -0.081390776 0.012435159 -0.049067993 -0.18893582
0.105149575 -0.19513416 -0.05289834 0.13257487 -0.043926436 0.11305261 0.07780809 -0.20028235
-0.14113648 -0.09909674 -0.041336875 0.056381058 0.06551489 -0.06237825 -0.02388129 -0.025276544
-0.01345475 -0.11938097 0.05910164 0.124312654 -0.14140594 -0.18087623 0.13949306 0.123540215
0.16300054 -0.16912074 0.14710753 -0.10305988 0.06852182 0.18768404

weight f4 [6]
00000000: 89b8 7b3f c1cc 823f 12cf 7f3f 6810 7d3f
00000010: ef3d 773f 56d2 833f
0.98328453 1.0218736 0.9992534 0.9885316 0.9657888 1.0298564

bias f4 [6]
00000000: 6770 14bd 8f16 4e3b d482 b5bc a0c3 aa3b
00000010: d85e 3dbc 1e06 b6bc
-0.036240008 0.0031446551 -0.02215711 0.0052113086 -0.011558257 -0.022219714

running_mean f4 [6]
00000000: afa8 caba 7ebe 8a3a 93ab 773b e921 fe3b
00000010: 0d50 23bb 3a24 70b9
-0.0015461649 0.0010585336 0.0037791475 0.0077555072 -0.002491954 -0.00022901679

running_var f4 [6]
00000000: abe3 c83d e031 1e3c 09fa 923c da67 9d3e
00000010: 2368 fa3d ead6 253d
0.09809049 0.009655446 0.017941492 0.30743295 0.12226894 0.04048816

weight f4 [18, 6, 5, 5]
00000000: ca3d 7ebd 3796 3d3d 582c 953d a2e0 40bc
00000010: 90dd 043d e7ba 883d b303 45bd c6d5 f53b
00000020: 4815 23bd 3913 51bd 2b69 6abd a285 563d
00000030: 8b39 c63c 6d56 ab3d 9783 a43d bdf7 8cbd
00000040: 25d6 babc b26c 4bbd a1a1 873c 49bf 93bc
00000050: 8160 6d3d 1eff 5a3d ed47 ae3b 0197 96bd
00000060: 7c16 453d 2974 79bd 2f67 e43d fb02 6fbd
00000070: 282e 8f3c 9956 803d 9483 2cbd 2671 5e3d
00000080: 11df 8dbd b3de 4fbd 328c 263c b738 b4bd
00000090: d883 843d ea45 0c3d e570 e5bc e863 97bd
000000a0: f9c2 713d d2b4 243d b9f6 84bd 7a5c 9b3d
000000b0: e3c1 9c3b 1c5d 0e3d beb0 c83d aa54 f7bb
000000c0: accd 50bc f53f 273c 0403 be3d 6e03 053d
000000d0: 6135 c33d 037c 9a3d 982b 873c 659d 5fbc
000000e0: 5936 04bd 8583 9cbd a5b1 873d 028a c8bd
000000f0: 9d25 26bd 20b1 a23d 1483 133d ac6c 813d
00000100: e18e c6bb b454 543d 36a6 bd3d 14e3 aa3d
00000110: fb78 88bd 2252 223c 8b3f 99bd 4be6 7d3d
00000120: 9b92 d8bc 81b0 9a3d 8213 6cbd b910 4ebd
00000130: 8b45 333d 8fa6 78bd c781 263c 6156 51bd
00000140: 4085 da3c 6ccb 093d 09fd a4bd 4384 9e3b
00000150: d599 97bd 8ca8 eebb 9a36 2e3d b761 95bd
00000160: 080b 833c 13a5 46bd d182 b03c 30ce 303d
00000170: 61fb 263d 4d4b b23c 3cd1 08bc bdeb ac3c
00000180: f712 87bc 3292 3abc f6bf a33d eb2f 86bd
00000190: 315b aa3c 9778 16bd d314 3d3d 0c92 2cbd
000001a0: 1da4 9c3b 7ae5 6c3d 1d8e a33d e67c 83bd
000001b0: bbfc 243d cbea 57bc 998c 01bd 2a9f 1f3d
000001c0: 5156 3b3c 1722 65bb 91fd 493d a012 ce3b
000001d0: 081c b63d 24a9 82bd 7876 633d 0d67 173d
000001e0: 26ac 6d3d 41d9 d73c eecb 673c b3cb 85bd
000001f0: 2a9b 6b3d 314c 18bd 60b4 b43c ffd4 cd3c
00000200: 08e3 afbd c972 9d3c 2920 973c 2a1d 713d
00000210: a5ef c23c 9d3e 80bb 6d96 653d b83f cbbb
00000220: 50e2 9dbb 23b9 963d ee50 603d bf7f 87bd
00000230: 6b3b 333d 8121 6f3d c07d ca3c be6d 81bd
00000240: 9ef2 333d d310 6dbd 9064 233d 3e9b e53b
00000250: eb07 93bd d7b8 ab3d 03c0 993c 0a02 11bd
00000260: 8eaf 3abd 0d91 823d c838 d7bc 6ab3 85bc
00000270: 4258 1c3d 550e 65bc 7226 4f3d 37bc a03d
00000280: 5bff 393d c202 833d e7ed aabd 650b 81bd
00000290: 4af0 113c ba6b b5bd c5bf d83a e5c7 e6bb
000002a0: 7105 3dbd aee8 34bd f4ca 21bd aec8 e8bc
000002b0: 3541 87bd 43f5 4cbd 4f24 d1bc 8e33 6f3d
000002c0: 7e72 163d 4268 963d a241 59bc ea24 4d3d
000002d0: 98ab e4bc f9c3 99bd 3534 d9bb a723 88bd
000002e0: 6ff5 4e3d e82f 7abd f2aa c4bb 148f a8bc
000002f0: 740a aebd a11c 9a3d f64a a53d 975d 983d
00000300: 60f9 7fbc 2bc4 77bd ab9a be3d 8ca7 2ebd
00000310: b31c 273d 1c11 b5bd bf21 79ba a99a aa3c
00000320: 3304 c83c 15f9 da3d b98f b73d d12c e63c
00000330: 9ba3 873d 68c1 d13d 60f2 b93b a53f 113d
00000340: 9ed8 e53d 4ab5 fcbc a4c4 47bd 4b0e 673d
00000350: f51d bc3c df0f 54bc 5cf3 713d 69be b13c
00000360: 41f1 18bd fa03 0c3d 46dd c6bd 4923 4dbd
00000370: 72f7 0fbd 4e18 b93a 8ee6 adbd 354e 90bd
00000380: c823 4fbd 8450 a2bb 2d85 bc3d c571 1d3c
00000390: 9e24 463d c8ed 723c 5acc ca3d 5a50 6abc
000003a0: 1e50 983d 10cc dabc 0916 483c 5a26 b93c
000003b0: 3c72 893d 91ff 863d 89aa 49bd 4754 25bd
000003c0: 5230 dd3c bbb7 b93d a6ba bcbc 28e0 953d
000003d0: 6fff 5ebd d315 903d ff08 823d 8098 7bbd
000003e0: 33bf 943d ec67 b43d 74a5 ae3d 5ef2 bfbb
000003f0: 26d6 b23c 4a39 053d 4391 f23c b16f 1cbd
-0.062070645 0.046285834 0.072838485 -0.011772307 0.03243786 0.06676274 -0.04809923 0.0075022904
-0.039815217 -0.051043723 -0.057229202 0.052373536 0.02419736 0.08366094 0.08032911 -0.0688319
-0.02280719 -0.049664207 0.016556563 -0.018035548 0.05795336 0.053465955 0.005318633 -0.073530205
0.048117146 -0.060901795 0.11152493 -0.05835245 0.017478064 0.06266517 -0.04211767 0.054307126
-0.06927312 -0.050749492 0.010165261 -0.0879988 0.0647046 0.034246363 -0.028007934 -0.073921025
0.05902383 0.040211506 -0.06492371 0.07585998 0.0047838553 0.034756765 0.09799336 -0.0075479345
-0.0127443485 0.01020812 0.09277919 0.032473974 0.095316656 0.075431846 0.01650028 -0.013648366
-0.032278392 -0.07642273 0.0662568 -0.09791948 -0.040563215 0.0794394 0.036013678 0.06319556
-0.006059513 0.05183859 0.09260218 0.08344093 -0.066637 0.009907277 -0.07482823 0.061987203
-0.026437094 0.07553197 -0.05763579 -0.050308917 0.043767493 -0.060705718 0.010162777 -0.051107768
0.026674867 0.033641264 -0.08056075 0.004837544 -0.07402388 -0.007283276 0.04253254 -0.07294028
0.015996471 -0.04849727 0.021546753 0.043165386 0.040767077 0.021764422 -0.008350667 0.021108503
-0.016488535 -0.011387395 0.07995598 -0.065521084 0.020795437 -0.036736097 0.046162438 -0.04213147
0.004780306 0.057836033 0.0798609 -0.06420307 0.040280085 -0.013178538 -0.031628225 0.03897015
0.011434154 -0.0034962946 0.049314085 0.0062888414 0.08892065 -0.06379917 0.055532902 0.03696351
0.0580255 0.026348712 0.014147742 -0.06532993 0.057521023 -0.037182037 0.022058666 0.025125979
-0.08588225 0.019219773 0.018447952 0.058865704 0.023795912 -0.003913714 0.05605166 -0.006202664
-0.0048182383 0.07359531 0.05476468 -0.066161625 0.043757837 0.05838156 0.024718165 -0.0631976
0.04393255 -0.057877373 0.039890826 0.0070070317 -0.071792446 0.08384865 0.018768316 -0.035402335
-0.04557758 0.063753225 -0.026272193 -0.016320903 0.038170107 -0.013980468 0.050573774 0.07848399
0.04540954 0.063970104 -0.083461575 -0.063010015 0.008907387 -0.08858438 0.0016536644 -0.0070428723
-0.046147767 -0.044167213 -0.03950019 -0.028416004 -0.06604234 -0.050038587 -0.025530009 0.058398776
0.036730282 0.07344104 -0.013260277 0.050084032 -0.027913854 -0.07508082 -0.006628538 -0.06647425
0.050527032 -0.061080843 -0.0060018236 -0.020576037 -0.084980875 0.07524992 0.08070938 0.07439726
-0.0156234205 -0.060489815 0.09306844 -0.042640254 0.040798854 -0.08841154 -0.0009503625 0.0208257
0.024416065 0.1069204 0.0896296 0.028097542 0.06623002 0.102419674 0.0056746453 0.035461087
0.11222957 -0.030848164 -0.048771515 0.056410115 0.022963503 -0.012943237 0.059069976 0.02169724
-0.037339453 0.03418348 -0.09710173 -0.05008248 -0.03514809 0.0014121623 -0.084912404 -0.07046167
-0.050571233 -0.004953446 0.09205089 0.009609644 0.048374765 0.014827199 0.09902258 -0.014301384
0.07437156 -0.026708633 0.012212285 0.022601295 0.067112416 0.06591714 -0.0492349 -0.040363576
0.02700058 0.09068247 -0.02303822 0.07318145 -0.05444282 0.07035413 0.06349372 -0.061424732
0.07263031 0.08808884 0.085276514 -0.00585775 0.02183063 0.03252534 0.029610282 -0.038192455

weight f4 [18]
00000000: 6793 853f eccd 7a3f 7454 7f3f f435 803f
00000010: ac90 803f bf2b 803f 125f 7e3f c0f9 7f3f
00000020: d78d 7d3f 2bf0 7e3f 6081 783f 612b 7c3f
00000030: cf0a 7e3f a701 853f 5f97 773f b956 833f
00000040: e5bf 803f 9e24 793f
1.0435609 0.9797046 0.9973824 1.0016465 1.004415 1.001335 0.99363816 0.99990463
0.99044555 0.9958522 0.9707241 0.9850369 0.9923524 1.0391129 0.9671535 1.0260841
1.0058562 0.973215

bias f4 [18]
00000000: 4dcd 33bd c961 85bc cab8 76bc cc03 b0bb
00000010: d9ea 0e3c 281a 26bd b6e6 20bc 7720 f9bb
00000020: 7e4b 49bc c46b 79bc de89 ebbc 58e1 9cbc
00000030: 0b69 84bc f2cb 893d 53ba 0abd 7a51 a23c
00000040: 62b9 96bc 4cba c8bc
-0.043896962 -0.01628198 -0.015058706 -0.0053715464 0.008722984 -0.04055229 -0.009820631 -0.007602747
-0.012286065 -0.015223447 -0.028752264 -0.019150421 -0.01616337 0.067283526 -0.0338691 0.019814242
-0.018398944 -0.024502896

running_mean f4 [18]
00000000: 3c83 1d3f e1fd 173f 45b8 92be 10bd 80be
00000010: 9b55 29be c79e 02bf b828 fabb 7be6 2cbe
00000020: 1b02 b33e aa5d 8fbe aac6 063e 6ea0 aabe
00000030: 8626 e1bc 9b79 88be c694 fdbd 0a3d 00bd
00000040: 1996 383f 40d7 65be
0.6152837 0.59371763 -0.28656211 -0.25144243 -0.16536562 -0.51023525 -0.0076342486 -0.16884796
0.34962544 -0.28001148 0.13161722 -0.33325523 -0.02748419 -0.26655278 -0.12381892 -0.03130821
0.7210403 -0.22445393

running_var f4 [18]
00000000: 994d 203e 69ae 233f 4b13 703e 3d8d fc3d
00000010: 6874 103e 8e3e 173e 2bc3 e93e cd77 623e
00000020: 4f6d 1e3f 4638 fd3e f283 7d3f 957a 373f
00000030: 25c3 163e f264 c53d 4aa2 f63e 3ae2 673d
00000040: fbd4 8a3e 6a3e 893e
0.15654601 0.63938004 0.2344486 0.123316266 0.14106905 0.14769956 0.45656714 0.22116013
0.6188554 0.49456996 0.9902946 0.7167142 0.14722879 0.096383944 0.48170692 0.05661223
0.27115616 0.2680543

weight f4 [45, 18, 5, 5]
00000000: 3504 bd3c ed52 96bd 90f6 2bbd 3284 523c
00000010: 6388 1cbd 75be a63d 18dd 1f3d 726d 7cbc
00000020: b163 a13a 6948 20bc eafb 963d ae66 37bc
00000030: a3f7 ca3a 277e 503d e2e5 e63c e8fd 543d
00000040: 3e02 b2bc d1a3 f5bc 2d37 8cbb 4154 e5bc
00000050: dacf e93c 813e 76bd afcd 6fbd cdf5 76bc
00000060: ba1b 6bbd 8891 433c bbbb bcbc 35e1 b33b
00000070: 8f60 2f3d e009 dabb 3122 5dbd 8461 423b
00000080: 0ef3 633c fae2 28bd ee66 543c 2cf7 62bc
00000090: fb8e dc3a 46e7 b5bc 29ce e83c 2ffc 3f3c
000000a0: 13a3 0f3d 66e4 acbc 800f 3f3d 3065 873c
000000b0: 798f a8bc 9a44 f03a 9d65 cbbb 6051 313c
000000c0: 7ea7 42bb 6d97 ebbb a351 2abc 77f6 1f3d
000000d0: 49d3 af3c 382b 37bc c7f7 c93c eda4 a73c
000000e0: 3b3e fd3c 27c9 8a3d bf77 173b 3940 4d3d
000000f0: 9065 69bc 1662 eabc efa5 b13b e203 37ba
00000100: ba35 3cba c2b1 4bbd 0f03 26bc 5e33 103d
00000110: d3d5 cf3c 3ffa 9e3c 6af0 0ebd c3e6 d4bc
00000120: f8b0 0ebd c37f e93c 385f 1d3d c83b ed3b
00000130: c2ba 4cbd 7f09 efbc bbcf ed3c 5525 afba
00000140: 80da d1bc d3d1 1f3d d432 263d 2776 5c3d
00000150: fa42 1ebd d7cb b0bc be28 4bbd 2411 963c
00000160: 5327 eebd 0cae bebb d874 0dbc 450b ec3c
00000170: 92b4 30bc 278e 5d3d e2ec 01bc 2fe5 14bd
00000180: 97cf 10bd 33d3 573c 4687 ac3c e9c9 183d
00000190: 09d4 0fbc f83a 62bd fbfa 9ebd 5080 74bc
000001a0: 2b41 63bd 7c5d 6c3d 6bf0 5d3d ffe3 893c
000001b0: 7062 623d 0318 863c 8fc7 5abd 0f1b 9bbd
000001c0: e528 1d3c 1477 b93b d002 9b3c bae4 22bc
000001d0: 83b9 553c c3a2 23bd d2c0 a53c 5919 e3bc
000001e0: 44a5 80bc 133b e73c 957b 2abd 582a 103d
000001f0: 6c04 b3bb a14d 63bd 4a1b ffbc e75a 083c
00000200: 6e44 913c 8e7a 08bd c8e1 8cbd 8b47 a03c
00000210: 2ee4 353d 188b b1bc 628c a23c b5e8 123d
00000220: 8772 b1bb f8b1 573c 1314 933c 0fe4 b63c
00000230: 9874 d6bc 86ef 0dbd 6a64 99bc 2c0e 743d
00000240: de55 14bd 4f82 adbb 8183 4a3c b6ba 133c
00000250: 6ce7 dc3c 524e 6cbb 5901 d2bb 1909 a2bb
00000260: cd4d 13bd ac9b 2ebd 735a 2a3c b483 283c
00000270: b5dc 64ba e71a df3c 379b 693d a926 293d
00000280: a780 29bd 21cf 8abd 7612 cdb9 6f7e 50bd
00000290: c25b 3bbc 7f89 c63a ad49 03bc cca2 01bc
000002a0: 6a24 dcbc 8e93 b6bc 57c1 443c dcc9 31bc
000002b0: f426 043d ac40 f73c 77c0 f83c 49e4 883d
000002c0: 6646 77bc 087b 9b3d d35a 093d d2a6 2b3d
000002d0: 3334 1f3d 02d2 debc 2e73 afbc 45f1 673c
000002e0: 52e3 143d 2171 123d c1c7 dc3c 0d03 0ebc
000002f0: 6148 0a3c ef77 d93a b626 a4ba 6b8c 633c
00000300: cdaa 813d 7f4f 10bd f0ed 3b3d 7ade 7a3c
00000310: 220d b6bc ac78 74bd f0b9 49bc b89a 63bc
00000320: 7dcc 00bd 2474 12bc 3f11 45bd 36c4 56bd
00000330: 1f80 eabb 9168 8a3c 1b4b 00bd 792b 46bd
00000340: 44b0 c7bc 645c 28bd 620d 5c39 c38e 74bd
00000350: 91c4 db39 b581 58bd 29b1 90bc de29 e6bc
00000360: 7442 1b3c 87fd 2dbd c751 a8bc 1493 eabc
00000370: 1d87 f4bc 3782 12bd 893b 5fbc f548 1a3d
00000380: 4e24 32bd 9db7 77bb a29b 6ebc 1bdb b9bc
00000390: dfb9 aebc f403 c4bc 0440 04bc c134 093d
000003a0: bc9c a53c 910b 1f3c 2081 423d 28ab 813c
000003b0: b417 ed3c dade f13c 4ba0 163d 066e 0cbd
000003c0: 3ed5 89bd 9279 80bd 4327 27bc 311a 71bd
000003d0: 7f31 73bb 3ef9 0cbd f73b d63c 4f54 ccbc
000003e0: 072e 13bc 8c25 073d dfc8 b1bc 8f10 96bc
000003f0: 8946 ff3c 6ea0 b4bc 492e 37bd 28a6 d4bc
0.023073295 -0.073400356 -0.041983187 0.012848901 -0.038216006 0.081417955 0.03902921 -0.015406953
0.0012313036 -0.009782889 0.073722675 -0.011193914 0.0015485178 0.05090156 0.028185789 0.051999956
-0.021729585 -0.02998534 -0.0042790384 -0.027994277 0.028541494 -0.060118202 -0.058545765 -0.015073252
-0.05739949 0.011936553 -0.023038736 0.0054894933 0.042816695 -0.006654009 -0.053987686 0.0029660175
0.013912929 -0.041232087 0.0129639935 -0.013852876 0.001682728 -0.022205006 0.028418617 0.01171784
0.03506763 -0.021105003 0.04664564 0.016527742 -0.020576226 0.0018330992 -0.0062071816 0.010822624
-0.0029701884 -0.007189682 -0.01039544 0.039053407 0.021463053 -0.011179738 0.024654282 0.020464385
0.030913463 0.06776648 0.0023112146 0.050110076 -0.014245406 -0.028611224 0.005421392 -0.00069814746
-0.0007179637 -0.04973007 -0.010132565 0.035205238 0.025370514 0.019406436 -0.034897245 -0.025988942
-0.03483674 0.028503304 0.038420886 0.0072397925 -0.049982794 -0.029179333 0.029029718 -0.0013362566
-0.025616884 0.039018463 0.040575817 0.053823616 -0.038638093 -0.021581573 -0.0495994 0.01831872
-0.11628594 -0.005819088 -0.008633815 0.028813967 -0.010785239 0.054090645 -0.007930012 -0.03635138
-0.035354223 0.013172912 0.021060597 0.03730193 -0.00877858 -0.05523202 -0.077627145 -0.01492317
-0.05548207 0.05770634 0.05418436 0.01683235 0.05526966 0.016368872 -0.05341297 -0.075735204
0.00959227 0.005659947 0.01892224 -0.009942228 0.013044718 -0.039950144 0.020233545 -0.027722048
-0.015703805 0.028226411 -0.041621763 0.035196632 -0.0054631736 -0.055493955 -0.031140942 0.008322454
0.017732825 -0.033320002 -0.06879002 0.019565364 0.044407062 -0.02167277 0.01984233 0.035866458
-0.005415264 0.01316499 0.017953908 0.022325544 -0.026178643 -0.034652255 -0.018724639 0.059583828
-0.0362147 -0.005295075 0.012360455 0.009016683 0.02696582 -0.0036057425 -0.006408852 -0.004944932
-0.03596287 -0.04262893 0.010397541 0.010285307 -0.00087303977 0.027234508 0.05703279 0.041296635
-0.041382458 -0.06777788 -0.000391144 -0.050901826 -0.011435451 0.0015147178 -0.008013171 -0.007912349
-0.026872832 -0.022287156 0.012008986 -0.01085135 0.03226371 0.030182205 0.030365212 0.06684167
-0.015092468 0.07591826 0.033533882 0.04190714 0.03886814 -0.027199749 -0.021417227 0.014156644
0.036349602 0.03575242 0.026950719 -0.00866772 0.008440108 0.0016591529 -0.0012523744 0.013888459
0.06331406 -0.035232063 0.04588121 0.015311832 -0.02222306 -0.059685394 -0.012312397 -0.013891868
-0.031445015 -0.008938823 -0.04811215 -0.052433215 -0.0071563865 0.016895564 -0.031321626 -0.048381303
-0.024376042 -0.041103736 0.0002098582 -0.05970646 0.00041917388 -0.052858073 -0.017662602 -0.028096136
0.009476293 -0.04247811 -0.020546807 -0.028634585 -0.029849583 -0.035768714 -0.013625034 0.037667233
-0.043491654 -0.003779865 -0.014563473 -0.022687485 -0.021328865 -0.023927666 -0.008071903 0.033497576
0.020216338 0.0097073475 0.047486424 0.015828684 0.028941967 0.02952521 0.03677396 -0.034284614
-0.06730126 -0.06273188 -0.010202232 -0.05886287 -0.003710836 -0.034417383 0.02615164 -0.024942545
-0.008983142 0.032994792 -0.021702228 -0.018318443 0.031161563 -0.022049155 -0.044721875 -0.025958136

weight f4 [45]
00000000: c4ff 833f 5c48 7a3f a5b5 7f3f 381d 7b3f
00000010: 7727 823f 8171 823f 6ce7 7e3f cba2 7d3f
00000020: 34b1 833f feab 823f f131 7d3f 0c0f 7a3f
00000030: d487 813f f049 793f 5104 7d3f 2ef7 823f
00000040: fdd5 7c3f 06d2 803f 78d7 803f 98e1 773f
00000050: 32aa 813f ca4d 803f 8ae0 803f 6d68 833f
00000060: 134a 7d3f 4a28 7c3f a799 7d3f 9d45 803f
00000070: 6d12 7c3f e45a 823f 89c6 7c3f bdcf 813f
00000080: 3626 7b3f ba94 813f 4d09 823f 4233 7d3f
00000090: 2d36 803f a8ae 813f b930 803f e7b5 7e3f
000000a0: 2d0d 863f 8a3c 7d3f 2cc8 7d3f 32bd 803f
000000b0: c737 7c3f
1.0312428 0.9776666 0.9988654 0.9809146 1.0168294 1.0190889 0.9957187 0.9907653
1.0288453 1.0208738 0.9890433 0.9767921 1.0119576 0.97378445 0.9883471 1.0231683
0.9876402 1.0064094 1.0065756 0.96828604 1.0130064 1.0023739 1.0068524 1.0266243
0.98941153 0.98498976 0.9906258 1.0021244 0.98465616 1.0183988 0.9874044 1.0141522
0.9810518 1.0123513 1.0159088 0.9890634 1.0016533 1.0131426 1.0014869 0.9949631
1.0472771 0.989205 0.99133563 1.0057738 0.9852261

bias f4 [45]
00000000: f4b0 3f3d fc9c 4b3c 9c7b 643b 2dae 54bb
00000010: 2528 f1bc 16a6 393c 1a18 95bc ac5f b8bc
00000020: 7915 0c3b 7b0b e2bc 4b6e 4cbd 7209 90bb
00000030: 0b8a 0abd ded0 a8bc 949a 2abc a600 86bc
00000040: 93a4 c5bc 2fc2 84bc 20d6 19bd 720f 82bd
00000050: 7aa6 f0bc e6f4 e5bb 994e c63b 3520 82bc
00000060: e1e6 58bd c961 a2bb 0d70 903b 04c4 823c
00000070: 6b15 773b 33eb 92bc c1d0 0dbd a28b c7bc
00000080: 1e06 0abd 0cd9 80bb f508 96bc 255a cebc
00000090: 64e7 02bd 3271 42bd 65c3 e6bc d2d2 1bbd
000000a0: 9d72 cb3b c73c fe38 af79 0ebd f352 a8bb
000000b0: e7fe 0bbc
0.046799615 0.012427565 0.0034863716 -0.003245245 -0.029438088 0.011331102 -0.01819997 -0.022506557
0.0021375103 -0.027593365 -0.04990987 -0.004395657 -0.033823054 -0.020607408 -0.010412831 -0.016357731
-0.024126327 -0.016205875 -0.03755772 -0.06350602 -0.029376257 -0.0070177196 0.00605185 -0.015884498
-0.05295456 -0.0049555046 0.0044078887 0.015962608 0.0037701975 -0.017934417 -0.03462291 -0.024358574
-0.03369724 -0.003932124 -0.018314818 -0.025189469 -0.031958953 -0.047471233 -0.028169343 -0.03804285
0.0062087313 0.000121229845 -0.034784015 -0.0051368414 -0.00854466

running_mean f4 [45]
00000000: ceb4 7abf 8550 953f db3e 383d 0770 08c0
00000010: 4832 1abf 916d b33c 6685 56be 4bdd cb3f
00000020: 426d b9bf 9ef1 58bf dd05 5c3e cebd 52bd
00000030: a5ed b5bd 534a b3bf 45ab 283f fce8 b33f
00000040: 3a55 5fbf 3fa0 b03e f48f 92bc 434b b43d
00000050: 2fa9 363e 7c07 10bd bdd7 0cbe e250 1e3e
00000060: 7448 96bf 81f3 ee3e 1a06 c5be 4a73 e83d
00000070: 9978 683f 28dc d3be fce3 80bf b6eb 12bf
00000080: 3f67 813f 6da7 7b3e eb7e 8abf ee2b a13e
00000090: 8fa0 703c b02d e6be 43f9 14bd 3734 223f
000000a0: 2f83 c2be 0a27 57bf 673b 15bf ade2 d3bf
000000b0: 5e5e 7e3e
-0.97932136 1.1665198 0.04498182 -2.1318376 -0.60232973 0.021902831 -0.20949325 1.5926908
-1.4486468 -0.8474368 0.21486612 -0.051450543 -0.08883218 -1.4007057 0.65886337 1.4055476
-0.8723942 0.34497258 -0.017890908 0.088034175 0.17837976 -0.035163388 -0.13754173 0.15460542
-1.1740861 0.46670154 -0.38481218 0.11350115 0.9080902 -0.41378903 -1.0069575 -0.57390916
1.0109633 0.24575587 -1.0819982 0.31478828 0.014686718 -0.44956732 -0.036370527 0.63360924
-0.3799071 -0.84043944 -0.58293766 -1.6553551 0.24840686

running_var f4 [45]
00000000: 7471 283f 6aba c73f 949f 3c3f 29ea 5e40
00000010: 5cd1 603f 98a9 f53f 32c7 2f3f c441 3140
00000020: a029 1440 8d1a f33f 5a91 153f bd81 403f
00000030: 368d eb3e e55e 623f 6711 0440 bdfd 453f
00000040: 7d48 973f a96e 4e40 22b3 623f 4322 db3f
00000050: 1a70 2a3f 327b 2c3f 8e1f 3c3f 16f1 753f
00000060: 2684 0840 cfae 3040 c3c3 113f 95bb 103f
00000070: 1cf8 903f 079f 343f 50ca f43f 4e1c ad3f
00000080: 1699 893f 8136 8e3f 9035 6e3f 138a f93f
00000090: e2ae 473f 245b 443f e2ba 363f 4c61 a33f
000000a0: 1dc2 263f 4e79 913f e925 253f 7ebe 2e40
000000b0: 1c82 3240
0.65798116 1.5603764 0.73680997 3.483042 0.8781946 1.9192381 0.6866332 2.769639
2.3150406 1.8992478 0.58424914 0.75197965 0.46006173 0.8842605 2.0635622 0.773403
1.1818997 3.2255042 0.88554585 1.7119831 0.66577303 0.6737548 0.7348565 0.9607099
2.1330657 2.7606695 0.56939334 0.5653623 1.1325717 0.70555156 1.9124241 1.3524263
1.0749843 1.1110383 0.9305048 1.9495262 0.78001225 0.7670157 0.7137891 1.2764068
0.65139943 1.1365144 0.6451097 2.7303767 2.7891912

weight f4 [18, 45, 5, 5]
00000000: 0d72 273d fede 153d 8f20 b63c 6189 de3c
00000010: c46a 87bc f993 c73c cd3b 0d3d 1a52 40bd
00000020: bc99 223c bc47 b4b9 564f eebc 6348 91bc
00000030: b20b 06bd 1d3f ebbc c07d 35bd cc81 963c
00000040: 88d0 e93c bd51 f83b cd14 653c 8535 a3bc
00000050: 2116 abbd 0e04 92b9 ea6f bbbc ecc7 003d
00000060: eb1a 463d ecaf 0dbb 29ee 083d b7e0 0bba
00000070: 5c0e 413b 6d65 c1bb 94ce 783c ac86 87bc
00000080: f98a 8dbc 856d 81bc d002 17bd dac9 c4bc
00000090: 009f 26bc 02dd c1bc 855e 91bc 8a6b 93bc
000000a0: 3f6c f5bc 8810 e7bc 482f 2dbd 44bf a8bc
000000b0: 7912 303c aab1 2dbc e811 cdbc 6c8f 8f3b
000000c0: 7065 21bd 55ba 77bc ceb3 133d ab22 313d
000000d0: c2cd c13c ea49 183d b7ba 2ebc 1cd4 9bbc
000000e0: bc39 55bc dff7 2fbd 760f 7a3b c171 4f3c
000000f0: 327c dd3c fdfb 05bc d8b8 91bc 91c1 663b
00000100: ce99 f5bc 4f4a 3bbc 8edd 90bc 40d6 79bc
00000110: c2a8 ff3c 95a3 d93b 84b5 02bd 2b2e acbc
00000120: 09ae 1ebd fb27 19bd 69cf 18bd 760b ddbc
00000130: 50f2 b13c eba0 cf3b 0976 3bbd ba30 303c
00000140: 6c59 d83a 55f8 90bc 83c9 13bd 2bd1 d73c
00000150: c171 b9bb a5f4 8a3c 6ac9 333d 4c55 223d
00000160: a70d 0d3c d79a 863b 9fca 3c3d 1eae f93c
00000170: 32ee 02bc ab9f 343d 50c3 283b e756 19bc
00000180: 0433 1d3c a7d8 ce3c 4366 3dbb a57b 523c
00000190: 25f7 02b9 1007 e4bc 05c8 06bd 9265 a43a
000001a0: e57c 4c3b c272 22bd f34f a2bc 1081 663a
000001b0: c4d4 efbc 0b6b f0bc a985 8c3c 6c1d f53c
000001c0: 1fb2 edbc c97c aa3c fca7 7a3c aa3a 073b
000001d0: ab51 1e3c 295a b9bb ea07 223b fd03 7bbb
000001e0: 9c18 0fbd 0949 f9bc 95a4 d33c f546 00bd
000001f0: dea5 a13c c481 d5ba fb29 cbbc 630f 953b
00000200: e8c2 c1bc e525 1abc 85aa a43c 15e1 b43c
00000210: 2683 843c 5105 85bc f041 273c c804 7c3b
00000220: 2269 fcbb dc99 d93b 327f 9eba e6db 5fbc
00000230: 543b db3c 47fc b6bc 98a4 e9bc 668a 8bbc
00000240: 02aa b63c 072b 0d3c 3313 0fbc d75d 20bc
00000250: e286 813b 5907 eebb 4142 533c 00d8 7fbb
00000260: 0c37 a5bc 5b24 50bc bb38 203c 7b8b 62bc
00000270: f7f7 a43c 94c6 2b3b 018c 023d 8320 eabb
00000280: 73ea 4539 911d afbc 82e2 83bc e396 0dbd
00000290: 774e 14bd 2949 233a 1014 263d d6df 9d3b
000002a0: 6987 ab3c 3f18 713c 5762 8dbb b544 f9bb
000002b0: 12a8 10bd 1c07 3dbc 740b e7bc 48a5 27bd
000002c0: 5198 d43b 65b5 0cbd 1b91 c5ba 9663 8ebc
000002d0: f0ca 10bc 2bfb 043c 43a9 debc 2cf5 c23c
000002e0: abfe 0ebc 849d b0bb 0fbf e3bc 5eee 1dbd
000002f0: e733 fabc c4f1 6a3c b3be 8f3c 5cb8 abbc
00000300: 6c6b afbb e66e 3ebd 6b2e 2bbc 02e4 5abc
00000310: 67d2 473c da97 1d3c 240c 60bc 9bd1 eabc
00000320: 6188 103d 53bd 55ba bb81 f83b 2b78 e9ba
00000330: f0bc 433a 392f 1d3d cce1 1e3c 8593 dc3c
00000340: a363 223d 0f4f 063c 6049 433c c64a dabc
00000350: 32c1 c3bc 09ed e9bc f3b8 343a 9f81 b5bb
00000360: c493 8b3c 6e43 60bc 8350 a3bb 78c5 91bc
00000370: ad05 873c dc09 5a3c 68b5 d5bc d079 653c
00000380: c766 a5bb eda1 3a3d 0590 f03c 26f5 5e3c
00000390: a82e 0b3c 56f3 ed3c bcc3 43bc ed83 a13c
000003a0: cfba 4d3d d393 d63c c728 253d b611 c8bc
000003b0: 5409 eb3c 7817 bdbc b1aa bc3c e725 8d3c
000003c0: 228e 703a 037f f1bc 3083 b0bc 3c6c d3bb
000003d0: 56c2 8bbb 026a eebc e361 05bd 7544 3a3c
000003e0: 0df2 f43c 8789 273c 59c6 8b3c c426 813c
000003f0: 9580 00bd 6bfb 233b 7b4c f33b 3b27 05bc
0.04088025 0.036589615 0.022232322 0.027165117 -0.016530402 0.024362551 0.03448086 -0.0469533
0.009924348 -0.00034385722 -0.029090565 -0.017734712 -0.032725997 -0.028716618 -0.044309378 0.018372439
0.028541818 0.0075781033 0.01398201 -0.019922981 -0.0835383 -0.0002785031 -0.022880513 0.03144066
0.048365515 -0.002161975 0.033430252 -0.00053359143 0.0029458022 -0.0059019835 0.015185971 -0.016543709
-0.017278181 -0.015799293 -0.036867917 -0.024022032 -0.0101697445 -0.023664955 -0.017745266 -0.017995615
-0.029958842 -0.028206125 -0.04228142 -0.020599015 0.010746592 -0.01060144 -0.025032952 0.004381111
-0.03940338 -0.015120109 0.036060147 0.043245953 0.023657683 0.037179865 -0.0106646335 -0.01902204
-0.013014253 -0.042960998 0.0038156188 0.012661398 0.02703676 -0.0081777545 -0.017788336 0.003521059
-0.029980566 -0.011431291 -0.01768377 -0.015248835 0.0312084 0.006641815 -0.031911388 -0.021018108
-0.03874019 -0.037391644 -0.037307177 -0.026983004 0.021721989 0.0063363216 -0.045766864 0.010753805
0.0016506142 -0.017696539 -0.03608085 0.026344856 -0.0056593125 0.016962359 0.043893255 0.039632127
0.008609212 0.004107814 0.046091672 0.030478533 -0.0079913605 0.044097584 0.002575118 -0.009359098
0.009594683 0.025249792 -0.0028900064 0.012846862 -0.00012489835 -0.027835399 -0.032905597 0.0012542477
0.0031202373 -0.039660223 -0.019813513 0.00087930355 -0.02927626 -0.029347917 0.017153578 0.029921256
-0.029015599 0.020811455 0.01529884 0.0020634332 0.009663026 -0.0056565 0.0024723955 -0.0038301938
-0.03493558 -0.030430334 0.025835315 -0.03131767 0.019732412 -0.0016289284 -0.024800291 0.0045489534
-0.023652509 -0.009408449 0.020100841 0.022079984 0.016175818 -0.016237887 0.010208592 0.0038454998
-0.0077029625 0.006640656 -0.001209235 -0.013663268 0.026761688 -0.022337092 -0.028520867 -0.017033767
0.022297863 0.008616216 -0.008732605 -0.009787998 0.003952847 -0.0072640595 0.012894214 -0.0039038658
-0.02016785 -0.01270398 0.009779151 -0.0138272 0.02013777 0.002621089 0.0318718 -0.007144989
0.00018874723 -0.021376403 -0.016099218 -0.034567725 -0.036207642 0.0006228858 0.040546477 0.004817943
0.020938592 0.014715253 -0.0043147015 -0.0076070675 -0.035316534 -0.01153734 -0.028203703 -0.04092911
0.006487884 -0.03435268 -0.0015073152 -0.01738147 -0.008837447 0.008116524 -0.02718032 0.023798548
-0.00872771 -0.005389871 -0.027801065 -0.038557403 -0.030542327 0.014339868 0.017546987 -0.020961933
-0.005353382 -0.04649248 -0.010448079 -0.013360025 0.01219616 0.009618724 -0.01367477 -0.0286644
0.03528631 -0.00081535167 0.0075838245 -0.0017812302 0.00074668135 0.038375113 0.009697389 0.026925812
0.039645802 0.00819756 0.011919349 -0.026646983 -0.023895834 -0.02855541 0.00068940147 -0.0055391337
0.017038234 -0.0136879515 -0.004983963 -0.017794356 0.016482199 0.013308015 -0.026087478 0.014006093
-0.0050476524 0.04556458 0.029365549 0.013608253 0.00849501 0.029046696 -0.011948522 0.019716227
0.050226983 0.026193535 0.04032209 -0.024422508 0.028690971 -0.02308248 0.02303061 0.017229987
0.0009176453 -0.02947951 -0.02154693 -0.0064521115 -0.00426511 -0.029103283 -0.032564055 0.0113688605
0.029900575 0.01022566 0.017062353 0.015765555 -0.031372625 0.0025021683 0.0074248887 -0.008127029

weight f4 [18]
00000000: 8820 823f 0a84 7d3f 8d0c 803f df75 833f
00000010: b99c 783f 3303 7f3f bc4c 7e3f e23f 823f
00000020: 6fa6 843f b746 803f 2ac8 7b3f e1f9 7e3f
00000030: 4ac3 7c3f ecfa 7b3f e551 7f3f e971 7f3f
00000040: 6ddc 7f3f cfab 813f
1.0166178 0.990296 1.000383 1.0270346 0.9711414 0.99614257 0.9933584 1.0175745
1.0363292 1.002158 0.983523 0.99600035 0.9873549 0.9842975 0.99734336 0.9978319
0.9994572 1.0130557

bias f4 [18]
00000000: 5adc 1f3b 0e85 82bc 9044 e8bc b667 e4bb
00000010: f562 67bb db66 9fbc 4cae 0bbd 8751 143b
00000020: a43f 00bc ceec 43bd 4bf7 513c fb58 673a
00000030: 54ba 33bd 31f4 e0ba de2a 0bbc ef4e 4ebc
00000040: 970b 8a3a 9aa4 683c
0.0024392814 -0.015932586 -0.028353006 -0.006970371 -0.0035306786 -0.019458225 -0.03410177 0.0022631602
-0.007827673 -0.047833256 0.012815307 0.000882521 -0.04387887 -0.0017162618 -0.008494107 -0.012592061
0.0010532018 0.0141994

running_mean f4 [18]
00000000: d427 63bf 73b2 74bf f750 30c0 fe6f 933f
00000010: e94c a23f 1804 37c0 4fbb 8d3f 1067 663f
00000020: b43c 02c0 3a3a 6ac0 0016 b0bf 9e4f a03e
00000030: 41d4 b3bf dce6 80bf f732 2d40 5558 a9bf
00000040: 1c23 7c3f d0fd 573f
-0.8873265 -0.9558479 -2.7549417 1.1518552 1.2679721 -2.8596249 1.1072787 0.9000101
-2.034955 -3.6598039 -1.3756714 0.31310743 -1.404915 -1.0070453 2.7062356 -1.3230082
0.9849107 0.8437166

running_var f4 [18]
00000000: cd79 3040 210e 5e40 3179 a640 c991 1940
00000010: 0010 ba40 d0c6 c640 cffa 8540 054c be40
00000020: bcef 4640 d396 7840 f6a3 4940 1f33 8a40
00000030: 6507 b540 6794 c63f 3b6e 0841 f1db 1a40
00000040: a593 d440 cffd 0541
2.7574341 3.4696124 5.202294 2.399523 5.814453 6.211769 4.1868663 5.9467797
3.1083822 3.8842056 3.1506324 4.3187404 5.6571527 1.5514039 8.526912 2.4196742
6.643023 8.374465

weight f4 [6, 18, 5, 5]
00000000: 3013 283c 3cae 2dbc c585 2b3d 9369 f73c
00000010: 5906 713c d540 5abd b3d0 813c 5701 c93c
00000020: 271c 4abc 9023 9fbc 392c e63c 9409 8e3d
00000030: b7ae 943c ca0a 8e3c dca1 f13b 37f0 2fbb
00000040: 99f3 a43c a63e 6d3c 157d debc 92c1 363b
00000050: ca76 33bc 8beb e23c b094 cdbb 57ad 7c3c
00000060: e31b 6fbc 692e 663d 4ebc 8abc f70c 703d
00000070: 708b 14bd 52fb a6bb 3584 163c 07f5 8f3c
00000080: 316c babb 272b 4fbd bed4 6abc 2d4e dc3c
00000090: 437e 5b3d af04 bb3d c096 723d 82ed c1bc
000000a0: 4e2e 453d a481 f93c 5408 dabc 2e1d 67bd
000000b0: 0fe3 ee3c 5a5b 7ebd adf0 15bd 5759 403d
000000c0: 6dfb 543d 8cf9 c73c c24b 543d 5dca adbb
000000d0: 59fc 87bc 2fa9 fd3c d189 1a3d 398f 07bd
000000e0: e761 65bd 0d16 26bd 7cfd ee3c 0884 de3d
000000f0: 2a33 41bd f6d3 6c3b a018 68bc 4cd7 74bd
00000100: c965 5a3d eb44 0dbc a694 b7bb 0814 26bc
00000110: 2c06 1e3d dc52 d13d 2da4 85bd db50 b5bc
00000120: 0702 32bd 5f87 29bd 0b5d b53a dc0b 163d
00000130: 06fe 573d 2b3f 023c 3a17 b53c a0b2 843c
00000140: 97d1 a4bc 49d8 583d d465 86bd dd85 2c3c
00000150: 354c 1ebd f575 a93d 536a 4ebd ea85 203c
00000160: c83a ae3c a1e9 a03c 150f d83d 2647 aa3b
00000170: d985 1e3d 0ad3 3b3d 8071 89bc 7a06 1f3d
00000180: 1391 923d 4734 e3bc 9e0f 2ebd 8a64 7a3c
00000190: dee1 863d d138 0ebc c24a 67bd b84c 0a3d
000001a0: b820 f33c 9640 bc3d 2eb8 1d3d 5a06 1dba
000001b0: ecb8 393d 2672 16bd 2282 043d 37db 7a3c
000001c0: 708d 623d 0e61 363d 89ab 24bd 5ace 68bd
000001d0: 9a27 b0bb 1bd5 133d 53f7 cb3c 5ad0 ec3c
000001e0: fd71 debc 344a a03c f1e2 353d 7ae0 373c
000001f0: 0759 623c c552 d8bb 85d3 a3b9 ef6d 49bc
00000200: 9b4b 3b3a 738b 27bd 507c 1d3b dc42 c63c
00000210: cc34 d83d b47f f13d d8be a63d e88b d5bc
00000220: 6aa1 18bb 9bea 12bd 735b 81bc baa1 2abc
00000230: 30c9 aa3b 119a c0bc c5cf c53c 361f 563d
00000240: 07a5 efbb 7fdf 8bbd 0900 ccbb 39aa 05bd
00000250: 5ce3 32bd 743f 483d 0d60 663d 8123 313d
00000260: 5cfe 803a 52c3 043d 8d99 963d e925 063d
00000270: 1315 813c b540 c03c 0fa7 b83c dc71 5d3d
00000280: 4add 37bd f3be b4bb 9a53 f93c 5ca8 913d
00000290: 2ae8 8a3d 9b64 9ebc a195 b3bc 05e9 0bbd
000002a0: 5f07 fdbc 83e8 42bd 27b0 0e3d a270 1dbc
000002b0: 37c6 ee3c b8d9 67bc be4f 2d3d 1498 c03a
000002c0: d4d7 003c 4820 9c3b 5edd 1a3c 9480 053c
000002d0: 2d56 da3d 46c3 a0bc 7199 703c 7a5c a03c
000002e0: bcc5 6a3c ea9e 2cbb 5c69 84bb 9999 9abd
000002f0: 2a5f aa3c 53b7 4fbd 7393 a5bc 18fa bebb
00000300: 7b72 813c 3313 053d c19a 0abc fbc2 6a3c
00000310: 3a65 ea3c babd 79bd e93f 593c f264 f2bc
00000320: fdd3 783c e5d7 8e3c 815d 123c 27f6 283c
00000330: 5119 873b 286b 463d 413d 46bc 6ecf 98bc
00000340: a811 413c 123e 30bc 84d2 51bd 38d0 85bc
00000350: cbca 423d f9ad 673d 0c13 843d 04ed 6fbd
00000360: e51e 583d 8b63 da3c dcbc 33bd 0513 a4bd
00000370: ff64 96bd c7cb b2bd a5c7 0d3c b39d cfbc
00000380: 55be df3c 7080 a23c e820 503c 6126 48bc
00000390: 70e0 0ebd 2bf0 8e3c 1fde fdbc 4abf ac3b
000003a0: 2a51 0fbc abe6 10bd 05f9 9ebb 0ee6 93bc
000003b0: d036 54ba ec3b c33b a4cb b13c 25c6 b73c
000003c0: 395a a3bc 7299 443b 15c6 1f3d 33f7 3f3c
000003d0: a306 ac3c 434b f339 b438 c3bc 8e64 37bc
000003e0: 966a ab3c 35e8 443c 7b3e dc3c 3ed1 53bd
000003f0: a101 3c3d b5ae b93c f340 053c 8c91 853b
0.010258481 -0.010600623 0.04187562 0.030201709 0.014710986 -0.053284485 0.015846586 0.024536772
-0.012335814 -0.019426137 0.028097259 0.06935421 0.018149717 0.017339129 0.0073740315 -0.002684606
0.020135688 0.014480269 -0.027159253 0.0027886373 -0.0109536145 0.027700206 -0.0062738284 0.015422187
-0.014594051 0.056196604 -0.016935494 0.058606114 -0.03626579 -0.0050958777 0.009186794 0.017572893
-0.005689167 -0.050578263 -0.014332948 0.026892746 0.05358721 0.09131753 0.059225798 -0.023672823
0.048139863 0.030457325 -0.0266153 -0.056424312 0.029161004 -0.06209884 -0.03660648 0.0469602
0.05199759 0.024410985 0.05183006 -0.0053036646 -0.01659982 0.030964462 0.03772909 -0.033095572
-0.05600157 -0.040548373 0.029173605 0.10865027 -0.047167934 0.003613708 -0.014166027 -0.059775636
0.053319726 -0.008622388 -0.005602437 -0.010136612 0.038580105 0.10220882 -0.06525455 -0.022133281
-0.043458965 -0.041388866 0.0013836933 0.036632404 0.05273249 0.007949631 0.022105802 0.016198456
-0.020119471 0.05294064 -0.06562391 0.010529962 -0.038646895 0.08274452 -0.050394367 0.009797553
0.021268263 0.019642653 0.10549752 0.00519647 0.038701866 0.04585556 -0.016777754 0.038824536
0.07156577 -0.027734889 -0.042495362 0.015282759 0.065860495 -0.008680538 -0.05646778 0.03376457
0.029678687 0.09192006 0.038505726 -0.0005990021 0.04534237 -0.036729954 0.032350667 0.015311054
0.055310667 0.044526152 -0.04020265 -0.056837417 -0.0053758146 0.036091905 0.024898207 0.028907944
-0.027153963 0.019566633 0.04440588 0.011222953 0.013815171 -0.006601664 -0.00031247377 -0.012294277
0.000714475 -0.040904474 0.0024030395 0.024201803 0.10556945 0.117919356 0.08141869 -0.026067689
-0.002328957 -0.03586827 -0.015790677 -0.010414535 0.0052119717 -0.023510965 0.024146924 0.05227586
-0.007313374 -0.06829738 -0.00622559 -0.03263304 -0.043673858 0.04888864 0.056243945 0.04324675
0.000984143 0.032412834 0.07353506 0.032750998 0.01575712 0.023468355 0.022540597 0.054063663
-0.044888772 -0.005515927 0.030435372 0.0711219 0.06782563 -0.019335082 -0.021921935 -0.03415777
-0.030887304 -0.04758502 0.03483596 -0.009609373 0.02914725 -0.014151029 0.042312376 0.001469376
0.007863957 0.0047645904 0.009452192 0.008148331 0.10660968 -0.019624364 0.014685021 0.019575346
0.01432937 -0.0026339837 -0.00404088 -0.07548828 0.02079733 -0.05071194 -0.02021191 -0.0058281533
0.015801659 0.032489013 -0.008459748 0.0143287135 0.028612722 -0.060971953 0.013259866 -0.02958915
0.015187261 0.01743693 0.008933426 0.010312594 0.004122891 0.048442036 -0.012099565 -0.018653598
0.011783995 -0.010756986 -0.051226154 -0.016334638 0.04755668 0.056562398 0.064489454 -0.058575645
0.05276384 0.026658794 -0.043881282 -0.0801144 -0.07343482 -0.08730274 0.008653556 -0.025343752
0.027312437 0.019836634 0.012703158 -0.0122161815 -0.03488201 0.017448505 -0.030989705 0.005271827
-0.008747378 -0.035376232 -0.004851463 -0.018054035 -0.0008095326 0.005958071 0.021703549 0.02243335
-0.019940482 0.0029998687 0.039007265 0.011716652 0.020999258 0.00046404646 -0.02383075 -0.011193408
0.020924848 0.012018253 0.026885262 -0.05171322 0.04589999 0.022666315 0.008133161 0.0040761884

weight f4 [6]
00000000: a342 833f 37d4 7b3f 179e 813f 578e 743f
00000010: 15a7 833f 532f 7b3f
1.0254711 0.9837069 1.012637 0.95529693 1.0285364 0.98119086

bias f4 [6]
00000000: 4f05 033c 7ff8 2fbc e348 7d3c 9020 a2bc
00000010: 4c73 893d 53ee aa3b
0.007996871 -0.010740398 0.015459272 -0.019790918 0.06711444 0.0052163987

running_mean f4 [6]
00000000: a582 3e3f bdb1 ebbe e274 39bf f6c9 3ebe
00000010: 0215 cb3e 1e1a 053f
0.744181 -0.4603404 -0.72443974 -0.1863173 0.39664465 0.51992977

running_var f4 [6]
00000000: 718b 2c3f 6095 8d3f cc29 7c3e e41a c73f
00000010: e9a4 533e a0d5 643e
0.6740027 1.1061211 0.24625319 1.5555081 0.20668377 0.22347116

weight f4 [1, 6, 5, 3]
00000000: 3a7b eabc 1cbd 0bbd a048 cc3d c0e0 c8bd
00000010: 642c adbd 0686 193e ccf9 b13c a43e 8e3c
00000020: 01a6 25bd 795d f9bc 6788 93bd 3ffd 70bd
00000030: ea03 0dbd b3bb 39bd 6fd3 7dbd fd63 82bd
00000040: 4fe6 5e3d aa0f 093e fa51 6dbd e090 cabd
00000050: 2488 1f3c 731a 86bc 5fc4 8fbd 879a 6f3d
00000060: 0b11 b83d b0b2 203c 456d 483d c3c3 963d
00000070: b79e b0bc d980 453d f1a6 5dbd c540 f03c
00000080: 783c 963b 9248 ba3d e73d c63d d6e8 8a3d
00000090: fb45 8c3d 90fe f5bc ed3b c7bd 064c db3d
000000a0: 58ff 1bbd e463 023d 473f 9fbd 0f3d 383d
000000b0: 91d0 9ebc dc20 9a3d 81c3 3fbd 3d02 8c3a
000000c0: ec04 abbc 3eda 0e3d 95f3 7a3d f6c1 933c
000000d0: 0f64 173c ad39 df39 a032 a7bd 647e 81bd
000000e0: 0c4a c1bd cbc3 d6bc cd0d 723d d8a9 9bbd
000000f0: c3f1 733d 3c8d 8d3d 5537 0ebe 0be2 b8bb
00000100: 130b 6e3d 02b2 76bd 849d 81bd 0b1c 1d3d
00000110: 0e69 1e3e 2798 103c 51a9 03bd 5cac e73c
00000120: f9cf 8ebd a836 09bc a592 c73d 19da babc
00000130: 4e4e f7bb e151 173d c38b 113e fa1a 173c
00000140: 827c 1f3d fac4 a63d 637e 91bd 850b d13c
00000150: e1d5 1a3d 0751 58bd 722e a7bd 3060 b63d
00000160: 8706 143d 9714 d1bd
-0.028623212 -0.034115896 0.099747896 -0.09808493 -0.084557325 0.14992532 0.021725558 0.017363854
-0.040441517 -0.030440079 -0.07203751 -0.058835264 -0.03442756 -0.04534502 -0.061969217 -0.063667275
0.05441886 0.13384882 -0.057939507 -0.09890914 0.009737048 -0.016370034 -0.07019877 0.058496978
0.08987626 0.009808227 0.048932333 0.07361557 -0.021560056 0.04821858 -0.054114286 0.02932776
0.004584845 0.09095873 0.09679776 0.06782691 0.06849285 -0.030028611 -0.09728227 0.1070786
-0.03808531 0.031833544 -0.07775741 0.044980105 -0.019386562 0.07525799 -0.046817306 0.0010681819
-0.02087637 0.0348761 0.061267454 0.018036824 0.009240164 0.00042576846 -0.08163953 -0.06322935
-0.094379514 -0.026216408 0.059095193 -0.076007545 0.059556734 0.06911704 -0.13888295 -0.005642181
0.05811603 -0.060228355 -0.06328872 0.038356822 0.15469763 0.008825338 -0.032143895 0.02828043
-0.069732614 -0.0083748475 0.09744767 -0.022809075 -0.0075471764 0.03694332 0.14213471 0.00922274
0.0389371 0.08143039 -0.071041845 0.025518188 0.037801627 -0.05281165 -0.081631556 0.08905065
0.036139037 -0.10209005
