source/models/SingleNoteTimbreCNNSmall/model_128_20_0.001_MIDIsampledseen_evalmode_smalltest.pth (torch, 58207 bytes, 21 tensors)

weight f4 [8, 1, 3, 3]
00000000: 6366 ab3e ccac 3ebd 98f7 1fbe b8df aa3e
00000010: b13b 763d f34f 4c3e 9b8c 2ebe 3d56 1c3e
00000020: 919e 7a3e a03c 99be 5148 85be af6a 4f3e
00000030: bd0d 5f3e 3450 993e e2a8 4cbd 592c 9dbe
00000040: 46dc f53d 6638 6e3e ef25 853e 0212 11be
00000050: aec3 1abe 4f8b 2c3e 996d fe3b 890e a23e
00000060: ab34 913e 32d5 973e 9229 133e 774d e8bd
00000070: 0a60 8abe 513b 57be 585c e13d 7062 123e
00000080: e661 983e 9ee1 18be 3965 f33d 0064 48bb
00000090: f37d ea3d c98a 8e3e b416 8d3e 1881 9fbe
000000a0: 8d9a fc3d 3e05 5bbe be96 84be ba69 28be
000000b0: 1dc6 b1be bd8e 343e f16f 90be d8d7 863e
000000c0: 37cc d13d cef8 a43e e8f4 193e 9090 00bd
000000d0: 6d25 00be 0e9d 5cbe f51f 883d 0fcb 9e3e
000000e0: 3a35 eb3d dba0 043e e42e 323d ad57 9ebe
000000f0: d290 123e dbe2 4a3e 673d 82bd b212 9b3e
00000100: 2fae e9bd 87c5 dcbd b536 66bd fefb 07bd
00000110: 357e c2bc 66af 89b9 2ead 97be 7967 cfbd
0.33476552 -0.04655151 -0.15621793 0.3337381 0.06011552 0.19952373 -0.17045824 0.15267272
0.24474551 -0.29929066 -0.26031736 0.2025554 0.21782584 0.29944003 -0.049965747 -0.30697897
0.120049044 0.23263702 0.26005504 -0.14167026 -0.15113708 0.16850017 0.00776453 0.31651714
0.28360495 0.29654843 0.14371327 -0.113429 -0.27026397 -0.21018721 0.11003941 0.14295363
0.2976219 -0.14929816 0.11884541 -0.0030577183 0.11449804 0.2784026 0.27556384 -0.31153178
0.12334166 -0.21388718 -0.25896257 -0.16446581 -0.3472146 0.17632575 -0.28210405 0.2633655
0.10244029 0.32221073 0.1503483 -0.031387866 -0.12514277 -0.21544287 0.0664672 0.31014296
0.114847615 0.12951986 0.04350175 -0.30926266 0.14313057 0.19813101 -0.06359368 0.302877
-0.11410176 -0.10779863 -0.056204516 -0.033199303 -0.02374182 -0.00026261358 -0.29624313 -0.10127158

weight f4 [8]
00000000: 8055 803f 82d7 7e3f 1e34 803f bf2c 7d3f
00000010: 9111 813f 32a4 803f 6643 7f3f b5ba 803f
1.0026093 0.9954759 1.0015905 0.988964 1.0083486 1.0050108 0.99712217 1.0056978

bias f4 [8]
00000000: 96eb a6bc 178b af3c aea8 733c 5afd 493b
00000010: 8447 56bc 24b3 0cbc 724f 6f3c cc2c e2bb
-0.020376008 0.021428628 0.014871759 0.0030821175 -0.013078574 -0.008587632 0.014606344 -0.006902313

running_mean f4 [8]
00000000: d6ea 903b 87dd e13a cbe7 2f3b 1e0c cbba
00000010: bb8f 293b 23f8 813b 31ac 0c3b e7f2 f7ba
0.004422526 0.0017232158 0.002684104 -0.0015491282 0.0025873024 0.003966348 0.0021464939 -0.0018916995

running_var f4 [8]
00000000: 4eb9 623f d0b0 4e3d 8f7b ae3f d84c 073d
00000010: 26a6 b83e 3152 233e 59b6 c43e ccd9 493e
0.88564 0.05046159 1.3631457 0.03303227 0.3606426 0.15949322 0.3842037 0.19711989

weight f4 [16, 8, 3, 3]
00000000: d47d d53d 2bc7 a1bd b053 ccbd de9e 62bd
00000010: dcf6 b3bb 356c 31bd 5049 b73d c1ee d33d
00000020: 7844 9a3d 621f c63d badf b9bd e40e c1bd
00000030: 2492 bf3d c037 c6bc 5677 9f3c 929e fa3c
00000040: 9bb3 05bd 865c 553d e7a9 da3c 3c56 a53b
00000050: 9241 babb 9a98 823d d2b0 663d 024e 8dbd
00000060: 9d1d bfbc c2ca 7abd 8a19 bd3d be85 c8bc
00000070: 3656 243d 3f2b 31bd 787d 8b3d 0256 03be
00000080: cf69 c2bd ad54 dfbd e7b2 d2bd 5a79 a1bd
00000090: dc32 adbd baf1 dbbd 0b39 cabd b003 ac3c
000000a0: a7bd b5bd 3596 bdbd 5954 95ba e8d5 54bd
000000b0: 2a02 bb3b 539f 813d 32af bd3d 2362 d2bd
000000c0: 9dca 313d f8f5 61bd ed22 b9bd 9931 a6bb
000000d0: 771d dbbd f747 ed3d 58e9 a03d 0e19 cd3d
000000e0: 5366 6dbd b700 8d3d 6772 28bd 23ce acbc
000000f0: 44bd 91bd 986d 573d e5bc 0c3d 2d55 dabc
00000100: 2988 803c 3ade 8dbd 35cf 323d f7cf 943d
00000110: 4b97 513d b98c 903d 6053 67bd 1c8e b5bd
00000120: 4ae0 a93d 8b3f b83d 79de 353d eeb0 053d
00000130: 088a 11bd e4d1 ad3d 6e07 01be 9816 b9bd
00000140: 58b0 b8bd 9bdb 5ebd 6449 c2bd 7c20 013d
00000150: be54 803c f67c 793d 02a2 b03d ec59 98bd
00000160: 6135 c53d 9454 893b bfed 3dbc 70cb 783d
00000170: 52f9 ac3c 2f2d ffbd a071 983d 7f87 dbbc
00000180: 6875 ddbd bcb1 b9bd 17fb a43d 2627 d43d
00000190: bbf4 d33c 69c7 b33d 1591 8cbd 5ce5 f4bc
000001a0: 0921 ae3c 4036 abbd 827c 82bd 1dee 7f3d
000001b0: e107 9e3c 6d02 3e3d 9887 243d 50d8 76bd
000001c0: b4c3 19bd 829e 043c 95a0 b5bd 2fe7 adbd
000001d0: 8b96 e4bd 34c5 863c 2f96 bd3c f75d ffbd
000001e0: 9f93 893d 4fa4 01bc 4fc1 393d 15c4 80bd
000001f0: 5973 c43b 18ee 5a3c 52bf ba3d 5cb6 95bd
00000200: eb82 adbc 6b73 9bbb 0502 fbbd cc16 003d
00000210: 522b 9bbb a34d 183c c3ef 873b a60a 89bd
00000220: 6cef ec3c 807c d0bd 1cf6 ec3d 92a2 323d
00000230: 578c 8c3d cf75 bc3d a408 13bc 8323 8dbc
00000240: 1b82 c03d 37b1 aebd 779b d33d 6baa 423c
00000250: 7fa9 f2bc 234e f23d 8f31 2dbd 2f96 823d
00000260: 527b 81bd a7e5 04bd efa2 043e c426 04bc
00000270: 7d8a c4bd 5592 abbd bb25 4a3d 92b1 c2bc
00000280: 99d6 a93d 4c08 f43b 6623 1a3c a7d3 af3d
00000290: 8a0f aa3d fff0 a93d f2ad 1f3d c08a a13d
000002a0: 3b8f dd3c 4629 dcbc 497b 01bc 62f0 8b3c
000002b0: 3da0 c6bc 68c3 a33d e5d4 bf3d 11a9 cd3d
000002c0: b8e5 12bc 4b04 7fbd f8f6 07ba 1d31 60bd
000002d0: 6bf9 e93d 655d cbbd cae9 da3d 8073 453d
000002e0: d650 81bd 7ecb 433d 9ad9 3a3d e0d6 b83d
000002f0: 902e 86bd 6b38 71bd 0977 40bd f9d7 aebd
00000300: 8e15 653d 5d6d 8e3c f9b5 f33d 8f0c 87bd
00000310: 0801 ac3d 11c3 29bb 456a 023e 36bd d6bd
00000320: 7f46 c53d 72e8 0a3e a3d9 78bd 919e 363d
00000330: 22ed 8e3d 5a51 9abd 98e2 ba3d ae6f b0bc
00000340: a960 963c e6f4 283c 79d0 1a3d d092 8c3d
00000350: 651f db3d e893 8ebb 4cf5 843d 6aef 25bd
00000360: 3215 c03c 7ddb 303d 2fdd 35bc 7a75 223c
00000370: 3945 a4bd 5018 45bd 045f dd3d c009 ce3d
00000380: fb83 a53d 8649 bbbd a19e 4aba eeb8 92bd
00000390: b84a 3e3d 2bed 033d 36ba af3d 992a 84bd
000003a0: 3578 c43c 0daa dabb b74d 863c bb63 f7bc
000003b0: 435b 10bd 86c5 ff3d 424a b8bd 338f d8bd
000003c0: c120 a2bd de49 013e 1c36 063d b3d6 76bd
000003d0: e818 39bc 5c6b 08be 3005 b4bd b040 cfbd
000003e0: f25b 613d 01c6 9cbd a0bf e83c a966 d4bd
000003f0: cd2a 3fbd 2d3c 783d 5a10 bcbd 16c0 14bd
0.104243904 -0.078993164 -0.099768996 -0.05532729 -0.0054920744 -0.043316085 0.0894953 0.10348273
0.07532591 0.096739545 -0.090758756 -0.09426668 0.09354046 -0.024196506 0.019466083 0.03059319
-0.03264199 0.05209019 0.026692344 0.0050456803 -0.005684086 0.06376763 0.056320973 -0.068996444
-0.02332955 -0.06122852 0.09233387 -0.024477836 0.04012128 -0.043254133 0.06811041 -0.12825778
-0.09492838 -0.109048225 -0.10288029 -0.07884474 -0.08456966 -0.10739465 -0.09874161 0.020997852
-0.08874064 -0.09257165 -0.0011392935 -0.05196181 0.005707045 0.06329217 0.092619315 -0.10272624
0.043406118 -0.055166215 -0.09039865 -0.0050718305 -0.10698979 0.11585992 0.07857007 0.100145444
-0.057958912 0.06884902 -0.041124728 -0.021094387 -0.07116178 0.05259475 0.03435983 -0.026651943
0.015689926 -0.06927152 0.04365464 0.07266229 0.051169675 0.07058091 -0.056475997 -0.08864996
0.08294733 0.08996495 0.04440162 0.032639436 -0.035532027 0.08487299 -0.1260049 -0.090375125
-0.0901801 -0.05440865 -0.094866544 0.03152512 0.015665408 0.060910188 0.086246505 -0.07439026
0.09629322 0.0041909907 -0.011592328 0.060740888 0.021114979 -0.1245979 0.07443547 -0.026798008
-0.10813409 -0.09067103 0.08055704 0.103590295 0.025873533 0.08778269 -0.0686361 -0.029894523
0.021255987 -0.08359957 -0.06371404 0.062482942 0.019290866 0.046389032 0.040168375 -0.060264885
-0.037540153 0.008094432 -0.08868519 -0.084913604 -0.11161526 0.016451456 0.023142902 -0.12469094
0.067176096 -0.007912709 0.04535037 -0.062874 0.005995196 0.01336243 0.09118523 -0.07310173
-0.02118059 -0.0047439835 -0.122562446 0.03127174 -0.004735389 0.009295854 0.004148455 -0.06691484
0.028922759 -0.101799965 0.11570379 0.04361207 0.06862705 0.09202158 -0.008974228 -0.017228847
0.09399816 -0.08529895 0.10332387 0.011881451 -0.029621838 0.1183131 -0.04228359 0.063763015
-0.063223496 -0.032445576 0.12952779 -0.008065883 -0.09596727 -0.0837752 0.04935239 -0.023766313
0.082928844 0.007447278 0.009407854 0.08585291 0.08303745 0.082979195 0.038984247 0.078877926
0.027045837 -0.02687515 -0.007902929 0.017082397 -0.02424633 0.07996255 0.09366778 0.100420125
-0.008965902 -0.062259953 -0.00051866425 -0.054734338 0.11424526 -0.09929923 0.10689123 0.048205853
-0.06314246 0.047801487 0.045617677 0.09025359 -0.0655185 -0.058891695 -0.04698852 -0.08537287
0.05592876 0.017386133 0.11899943 -0.06594192 0.08398634 -0.0025903622 0.12735851 -0.10485308
0.09632587 0.13565233 -0.06075443 0.044584814 0.06978823 -0.07535048 0.091252506 -0.021537628
0.018356638 0.010312295 0.03779647 0.0686394 0.106993474 -0.004351128 0.06492099 -0.040511526
0.023447607 0.04317807 -0.011100098 0.009915704 -0.08021016 -0.04811889 0.108091384 0.100604534
0.08081814 -0.09144883 -0.0007729326 -0.07164179 0.046457976 0.032208603 0.08580439 -0.06453437
0.0239831 -0.0066731037 0.01639448 -0.030198922 -0.035243284 0.124888465 -0.089985386 -0.10574188
-0.079164036 0.12625834 0.032766446 -0.060263347 -0.011297442 -0.13322204 -0.08790052 -0.1011976
0.055019327 -0.07654954 0.028411686 -0.10371143 -0.046671677 0.060604263 -0.09182806 -0.036316

weight f4 [16]
00000000: 12e6 803f 59a4 7c3f e75e 803f 4025 7d3f
00000010: a1b1 783f 3636 803f 0adf 823f 67ea 7b3f
00000020: 466a 7b3f 4890 7c3f 936b 7f3f 6e00 833f
00000030: 74e2 833f 99bb 7c3f c70c 803f 8646 833f
1.0070212 0.98688275 1.0028962 0.98884964 0.9714604 1.0016544 1.0224316 0.98404545
0.98209035 0.98657656 0.9977352 1.0234506 1.0303483 0.9872375 1.0003899 1.0255897

bias f4 [16]
00000000: 2b8d 63bc 0cd0 0b3d 5bee 96bc 970d 5ebc
00000010: 823e cfbb 53f0 9bbc 2a53 4e3d 9bf4 363c
00000020: 8a13 8dbc 026e 853c 0cef e43c 8a0d 223d
00000030: f2eb 653d bc1d 203b be08 ea3b ecbd cc3b
-0.013888638 0.034133956 -0.018424204 -0.013553045 -0.00632459 -0.019035494 0.05037228 0.011166717
-0.017221231 0.016287807 0.027946018 0.039563693 0.056133218 0.0024431786 0.0071421554 0.0062482264

running_mean f4 [16]
00000000: ed36 b6be 22fc debd e34f 3d3f f1e2 4bbe
00000010: be42 97be f7a7 c63e 9ab9 a7be ddc6 54be
00000020: 06da fe3e 71e5 01bd de14 dd3d 7b9c fd3c
00000030: 43d9 bf3d 01bb ae3e 1e1b 183e f093 0a3e
-0.3558878 -0.10887934 0.7395002 -0.1991079 -0.29543108 0.38800022 -0.3275879 -0.20778985
0.49775714 -0.031712953 0.10794996 0.030958405 0.09367611 0.34127048 0.14854094 0.13532996

running_var f4 [16]
00000000: ed7c 2c3e 3e99 5a3d f487 e03e 593a 303e
00000010: 4de7 cf3e d03d 7e3e e313 0e3d ae47 0c3e
00000020: e19c 103f 89b8 563d f4e1 153e cb04 903d
00000030: f022 9c3d b6b6 ed3e 0a10 313e 36bb 103e
0.1684453 0.0533688 0.43853724 0.17209758 0.40606156 0.24828267 0.034686934 0.13699219
0.5648938 0.05242208 0.14636976 0.07032164 0.07623851 0.4642846 0.17291275 0.14133915

weight f4 [32, 16, 3, 3]
00000000: d218 063d d59e 86bd f7d4 a83c 928b 8ebb
00000010: b869 613d de3c 543c 40ff 853d b431 7bbd
00000020: 9c5d 4abd d924 bfbd bd40 65bb 3a2b 7bbc
00000030: db03 6d3d 015b 71bd 34da b43d e925 7ebd
00000040: b3c4 013d aa40 1fbd 949e 883d 5224 5a3d
00000050: 11a0 96bd a990 903c 9adc 97bd 9ee2 4ebd
00000060: 17f2 cebc 1102 68bd e787 9fbd 7251 35bd
00000070: 7ef8 bf3d 5b29 0f3a d663 8cbd a4d7 d23c
00000080: 2cf1 883d 8523 543d 6e97 08bd 3875 7fbd
00000090: 5b2f e63c cc66 8fbd 99b5 f9bc 1ca4 babc
000000a0: 5c97 92bd 3ddd 0f3d 712d 1e3d 6ca1 93bd
000000b0: ee97 b7bc ebf6 c5bd 256e 96bd 57a2 563d
000000c0: 0ed8 babb 9571 fabb 9ddf 38bc dccc 4abd
000000d0: b172 863d ed2b 4cbd b4c6 4ebc af5e bbbc
000000e0: 9ce3 93bc 292e 473d c327 4c3c 4c2a a43d
000000f0: c8ca 813d 5ce1 cebb cb08 da3c cee3 8dbb
00000100: 3b8a 9e3d 1514 b9bb 3b84 92bd 4e5c 803d
00000110: 558d 0dbd f5c0 06bd 0de6 8cbd 06fb 943c
00000120: 4275 5a3d f5e5 10bd 8b15 8ebd d3b8 633d
00000130: 1d41 acbb abd8 533d 66bb 73bd f035 5bbd
00000140: d0f4 6cbc ac7e 01bd a45c 7f3d a9ca 94bd
00000150: 66bf 103c 643b 723d 8db5 5fbd 6578 873d
00000160: 4c28 65bd c9a9 3f3d 3cc5 93bd d2e2 f0bc
00000170: a298 da3c 6a27 133c 2f50 4d3d aa81 e9bc
00000180: fbe8 3f3c 53dd 2c3c 39aa 123d ede9 e3bd
00000190: 8bd2 ebbd c0bc c0bd c5cc d03c 1bfb 51bc
000001a0: f1c3 86bd 8f03 a13d c31c 9ebc 1a30 36bc
000001b0: 9ef9 0d3c b95d 37bd f14a 03bd c165 3abd
000001c0: e19b 363d f700 9b3d 0481 89bd 74f4 103c
000001d0: 7653 343c 1cd9 293d 3cf4 3dbd 10f9 3a3d
000001e0: 360a 4f3d 6178 94bb a5d0 6bbc 35ac 4e3d
000001f0: 7417 29bc 95d9 bfbb d2d0 d63c 4e1f 9c3d
00000200: 19c8 c0bc 52f8 85bc 5ff9 a73d 923e 3bbd
00000210: db15 013d 6973 32bd 999c 0b3d a209 aebd
00000220: 6254 c0bd 3dfa 5d3d 151d 5ebd 767f ccbb
00000230: 28e7 20bd 5396 dabc f8da 8ebd fe8e 8bbd
00000240: 86bf 853d 6f33 923d 07c1 033d a71e adbd
00000250: db63 2fbd 39b6 993d c90f 3abd 5721 ffbc
00000260: c1b5 7f3b 5e85 1c3d cde0 1f3d 94bb 8e3d
00000270: 83ee e23c 86b3 7d3d 6069 983d 7cb9 593d
00000280: e916 1e3c ebd6 87bb a3b5 59bb 3ded 7fbd
00000290: b79d 8a3d d49a 983d 4987 1f3b ba98 a23d
000002a0: deb4 1b3d 7c08 00bd d519 fb39 75b1 a73d
000002b0: 75b8 d8bc 090f 7dbc cfad 3ebd 83b1 c1bb
000002c0: e62c 4d3d 9c56 d93b 4b2d 603d 7d13 18bd
000002d0: 3353 403d f7ab 883c b804 563d c930 9fbd
000002e0: 2742 2d3c 8674 1ebc cefb eabc e4e1 92bd
000002f0: 8e95 533c 4a82 a4bd bc31 a3bd 3950 563d
00000300: 8af7 7abc 8941 113d 6588 a23c 96f3 57bc
00000310: 228c 7b3d d954 a13d 7b3d 753d 3ca1 53bd
00000320: 0a7b 4f3d 3ea9 ddbb 3b52 a6bd 7b14 bb3c
00000330: abec 0a3d f8df d1bc ab6e 4cbc 211f a33c
00000340: 14ae acbd c944 24bd b6a9 7f3d 693c adbc
00000350: 91a7 54bd 6406 9a3c dea8 1d3d 8031 7fbc
00000360: 1189 aebd 1029 9f3d 0e7b 3fbd 17f7 3ebd
00000370: 726b e1bb ab39 a53d 77a8 533c e8f0 9abc
00000380: f142 4ebd 8eba bcba 29bc 0bbd 55e0 203d
00000390: 5266 3e3d e95c d23c f376 813d 7a55 0c3d
000003a0: 410a 11bc 47bd 0bbc 5efe 9a3d e5a8 c83c
000003b0: b2ae 1bbd b09b 3ebd bdb2 4f3d ef2b 423d
000003c0: ee32 543d 20bd 9dbd f3bb 8fbd 01ae 8e3d
000003d0: cabd 47bd bad0 1e3d d515 933d 82ed 083d
000003e0: 67cd c5bc 01e9 66bd 0629 2cbc 79ce bebc
000003f0: 3bff 4b3d 6c8d 47bd e878 a13d 4c32 03bd
0.032738514 -0.065732636 0.020609362 -0.004350134 0.055032462 0.012953965 0.06542826 -0.061326697
-0.04940568 -0.093332 -0.0034981214 -0.01533013 0.057865005 -0.05892468 0.088306814 -0.062047873
0.031681728 -0.038880028 0.066708714 0.053257294 -0.07354749 0.017647104 -0.07415123 -0.050509088
-0.025261922 -0.056642596 -0.07789593 -0.044267125 0.09373568 0.00054611795 -0.0685498 0.025737591
0.06686625 0.051791687 -0.03334754 -0.062367648 0.028098753 -0.07002029 -0.0304821 -0.022783332
-0.07157776 0.0351231 0.038617555 -0.07208523 -0.022411313 -0.096662365 -0.07345227 0.052400913
-0.0057020253 -0.0076429346 -0.011283782 -0.049511775 0.065648444 -0.04984658 -0.012620617 -0.022872297
-0.018052869 0.048628006 0.012460652 0.0801588 0.063375056 -0.006313486 0.026615521 -0.004330135
0.07741209 -0.005648146 -0.07154127 0.06267606 -0.034558613 -0.032898862 -0.06879816 0.018186104
0.053334482 -0.035375554 -0.06937703 0.055596184 -0.0052567855 0.051720303 -0.05950489 -0.053518236
-0.014462665 -0.031614944 0.06234421 -0.07265217 0.008834695 0.05913867 -0.0546165 0.0661476
-0.055946633 0.04679278 -0.07215354 -0.029405031 0.02668411 0.008981565 0.050125297 -0.028504211
0.011713262 0.010550815 0.03580687 -0.11128602 -0.11514767 -0.09411001 0.025488267 -0.012816216
-0.065803416 0.07862007 -0.019300824 -0.011119867 0.00866547 -0.044767115 -0.03205389 -0.045507196
0.04458225 0.075685434 -0.06714061 0.008847345 0.011006227 0.041466817 -0.0463755 0.04564768
0.050546847 -0.004530952 -0.014393006 0.0504572 -0.010320533 -0.005854795 0.02622262 0.076231584
-0.023532914 -0.01635376 0.08201861 -0.04571397 0.031514984 -0.043567095 0.03408489 -0.08497931
-0.09391095 0.054193724 -0.054226954 -0.0062407805 -0.039282948 -0.026683008 -0.06975359 -0.06814383
0.06530671 0.071387164 0.032166507 -0.08453112 -0.04281984 0.07505459 -0.04542521 -0.031143827
0.0039018246 0.038213126 0.039032746 0.069693714 0.027701622 0.061938785 0.07441974 0.053155407
0.009649017 -0.0041454933 -0.0033219836 -0.062482107 0.06768363 0.07451406 0.002434211 0.079392865
0.038014285 -0.03125809 0.00047893697 0.08188144 -0.026455143 -0.015445479 -0.046552476 -0.0059110536
0.050091647 0.006632639 0.054730695 -0.03712796 0.046954345 0.016683562 0.052250594 -0.07772977
0.010574854 -0.009671336 -0.028684523 -0.071719915 0.012914075 -0.08032663 -0.079684705 0.0523226
-0.015317807 0.03546289 0.019840429 -0.013180634 0.061412938 0.078775115 0.059873085 -0.051667437
0.05065445 -0.00676456 -0.08121153 0.022836914 0.03391711 -0.025619492 -0.012477557 0.019912304
-0.0843164 -0.04010466 0.06241771 -0.02114697 -0.051917616 0.018801875 0.038491122 -0.015575767
-0.08522237 0.07771504 -0.046748213 -0.046622362 -0.0068792636 0.0806764 0.012918583 -0.018913701
-0.05035681 -0.0014398859 -0.03411499 0.03927644 0.0464843 0.025679069 0.06321516 0.034261204
-0.008852542 -0.008529014 0.07568048 0.024494598 -0.0380084 -0.046535194 0.050707567 0.04740518
0.051806383 -0.07702088 -0.0701827 0.06966782 -0.04876498 0.038773276 0.071818985 0.03342963
-0.024145795 -0.056374554 -0.010507828 -0.023291813 0.049803954 -0.048718855 0.07884389 -0.03203039

weight f4 [32]
00000000: 5616 803f 55cc 813f a4dc 7b3f b6b8 7d3f
00000010: 8a14 813f b374 813f a1ce 823f 1e3a 7b3f
00000020: a33f 813f 8279 793f 8f84 803f b588 813f
00000030: bcd6 7f3f b474 853f 8785 7d3f a78f 833f
00000040: 194f 803f 075a 803f 2012 7c3f 6daa 7e3f
00000050: 9cdc 7c3f 7cd5 803f 1c56 7d3f 2170 813f
00000060: 1eae 813f 9efd 823f ce53 7d3f c4ff 7f3f
00000070: 8d60 7c3f c71c 803f 3794 7f3f 8fa4 7f3f
1.0006816 1.0140482 0.98383546 0.9910997 1.0084393 1.0113739 1.0219308 0.98135555
1.0097545 0.9745103 1.0040454 1.0119845 0.99937034 1.042624 0.9903187 1.0278214
1.0024139 1.0027474 0.98465157 0.994788 0.98774123 1.006515 0.9895952 1.0112344
1.0131261 1.0233648 0.98956 0.9999964 0.98584825 1.0008782 0.9983553 0.9986047

bias f4 [32]
00000000: 65cc 79bc bda9 1aba 3760 7abc d281 1d3b
00000010: 63e3 2ebc d277 67bc 065f c338 505f a5bc
00000020: 8d42 863b cf24 c03c edd7 58bc 5010 33bc
00000030: 88bb 3dbc e7c7 7b3c a53f afbc 04ca db3b
00000040: 23eb 8d3c c3dd 62bd 015b 843c 11b6 233b
00000050: c174 76bc bd93 203c 1169 4abc 5e41 31bc
00000060: 11bc dbbb d1d2 b8bb c0e6 cd39 bfbd f5bb
00000070: 0b32 c13c 87a6 f7bb 591c e3bb 0c08 013d
-0.015246485 -0.0005899927 -0.0152817285 0.0024033678 -0.01067433 -0.0141276885 9.316024e-05 -0.02018705
0.004097289 0.023455052 -0.0132350745 -0.010929182 -0.011580355 0.015367485 -0.021392653 0.0067074317
0.017324036 -0.05538727 0.016156675 0.0024980346 -0.015042485 0.009800849 -0.012354151 -0.010818807
-0.006705769 -0.0056403656 0.0003927257 -0.007499426 0.023583433 -0.0075576934 -0.0069308695 0.031501815

running_mean f4 [32]
00000000: 64b0 2bbf 0c34 1a3f ebdc e0bd 0661 0dbf
00000010: da75 09bf e653 1abf 2fb0 8fbe 0586 05bf
00000020: cbbc 8bbe 0a21 ae3e a5c9 70be dd05 3abf
00000030: e6d7 f8bd 0203 9ebe 587b 9f3f 7634 cd3c
00000040: 15e8 953e 4463 91bc 069c bd3e b1df c3be
00000050: d03b 793f 1f29 75be a91a df3d 4c23 8fbd
00000060: b85d 08bf 67b2 3dbf 58bf 113f c582 2cbe
00000070: dc43 003f 63b7 5dbf 4f59 a83e 5cbf 80bd
-0.67066026 0.6023567 -0.10979637 -0.5522617 -0.5369545 -0.6028427 -0.28064105 -0.5215762
-0.27292475 0.34009582 -0.23514421 -0.72665197 -0.12150554 -0.3086167 1.2459517 0.02504943
0.29278627 -0.017747529 0.370331 -0.382566 0.9735689 -0.23941468 0.10893757 -0.06989154
-0.53268003 -0.74100345 0.5693259 -0.1684676 0.50103545 -0.8660795 0.32880637 -0.06286499

running_var f4 [32]
00000000: 9667 423e d90b 623e 39a1 2c3e cc8b 4a3f
00000010: ed4c a23e b3b1 fc3e 75d5 a63e 967f b03f
00000020: 0919 dc3e ade0 b83d c490 053e 8dc0 b73e
00000030: 3780 983e f81b c33d 8b4e 3e3f a931 c43e
00000040: a2f3 303e 96e4 323e c874 c53e d512 943e
00000050: 3438 933f a238 023e 70f0 103e 7a1a 8a3e
00000060: 9062 b23e c764 2f3f 55ba 393f a7cf b83e
00000070: 7b10 863e 4510 9e3e dcbb 6b3e 4f43 723e
0.18984827 0.22074832 0.16858377 0.79119563 0.31699315 0.49354324 0.3258473 1.3788936
0.4298785 0.090272285 0.13043505 0.35889092 0.2978532 0.09526819 0.743386 0.38319138
0.17280439 0.17470011 0.3856566 0.28920618 1.1501527 0.12716916 0.1415422 0.26973325
0.34840822 0.6851315 0.72549945 0.36095926 0.2618445 0.30871788 0.23020881 0.23658489

weight f4 [16, 32, 3, 3]
00000000: 62fa 6a3b 329b 4e3d 74d2 003d 19d0 923d
00000010: 2c30 bfbc a5af 113d 1e67 1c3c 423d d4bc
00000020: c51b 383d b5dd 2f3c 4ec7 933c 5a7c 9dbc
00000030: a5ec f83c 3824 e63c e47d 4bbd 1118 3c3d
00000040: 1f3e bfbc b6dd 84bd 362c 5cbc d8bc d3bc
00000050: 9d99 99bd 8058 6e3c f7d3 d23c 2911 5b3c
00000060: 9fc0 21bd b81e a1bc daaf 8a3d 7f6b 7ebc
00000070: 2488 c6bc 8d84 dbbc e9da 4fbd 69b7 5c3c
00000080: 3e12 883d d999 30bd 122c a2bc 6c7a a33c
00000090: acb8 b83b 67ca 0fbd d411 7ebd 6757 9abc
000000a0: 750f 24bd 2102 683d ff43 febc 4602 98bc
000000b0: 7e8c 743d 568c e5ba 33b9 c4bc 44ac 0dbc
000000c0: 68eb 8e3d 374a f3bc af52 dabc 0d60 b2bc
000000d0: 691e 1e3d 0f12 5c3d a87a d93c 3d08 6c3b
000000e0: fc1d 383d 9c7d c63c ecbe 0b3d 215d 343d
000000f0: 2d6d 41bd c6eb a63c d38a 243c 60db 993c
00000100: 6bf2 a43a 31f3 103d 8b1a 313d 9951 123d
00000110: e941 aa3c 7677 cf3b 24ab 89bd 2812 9939
00000120: af10 77bc beed 1ebd 04be 6b3b a273 3fbd
00000130: 9589 e13c 5f16 dbbc cd97 7a3d a2a2 3fbc
00000140: 893e b5bc 5dd7 f7bc 8cb0 823c c229 9d3c
00000150: 37e8 d3bc 6203 17bd e236 353d d109 053d
00000160: 3075 e4bc 8658 5cbd 420f edbc 3fa7 893d
00000170: 9714 113c aefd 9bbb ae75 233b d0a6 8e3c
00000180: 82f7 20bd abfd d03c 193f 413c d508 d83b
00000190: 1deb 2f3d cc7b 8a3c 241b c3bc 178c 613d
000001a0: 0e0c 2e3d 9476 e73c 1146 373d 6918 573d
000001b0: 5230 4cbd 3481 1bbd bf2f 3cbc 1f26 80bc
000001c0: 549d 59bc e177 6d3d 7a46 563d 5b4f 6bbc
000001d0: 759a d73c a305 833d 733e a0bc 52ad dabc
000001e0: dcfa 083c 5184 2dbc d9be 0f3c ef36 0d3d
000001f0: ed1a 1dbd e79b 29bd 5137 fabc b4c7 8dbd
00000200: c93e 1a3d fcd2 9bbc 2cc8 51bd beae 483d
00000210: 2d9a 4fbb 5031 85bc 81a7 56bd 1a77 6b3d
00000220: eeff 48bd 890c 6fbd 240a c13c dfb3 0dbd
00000230: a5c2 b5bc 528a c03c ee93 5dbd 4f0a a1bc
00000240: 48c4 d3bc 1f66 05bc 5c0a 80bd a720 39bc
00000250: 81c0 d13c 16c6 e7bc f15d d03c c193 b2bc
00000260: d12c 413d 9e38 2bbc c385 2d3d 2201 b9b9
00000270: 3553 743d c541 6fbc 8c57 ca3c 58e5 033d
00000280: 84ac 463c 5b45 52bd 1fb6 fc3c 4120 2b3d
00000290: d2f6 433d b02f 9a3c bd6c 4438 08c3 463d
000002a0: f7dc 583c 3dae 3e3d 5880 fe3c 9196 41bd
000002b0: 77d5 3c3d 4118 0cbd 600d 863c e3ff 833d
000002c0: f362 8e3d a8b7 1a3d 5efe 973b 8963 453d
000002d0: 582d 5a3c 2905 0c3c c24c 69bc 9bfe 08bd
000002e0: 80a1 4bbd 3acf 213d 6daa ecbc 831f 823c
000002f0: 9297 69bd ee4e 0039 e4ff 83bb 8254 343c
00000300: eda9 42bd f885 143d bcda 693c 0412 ba3c
00000310: db71 0dbc 8d77 42bd 5083 95bc d2ee 2dbd
00000320: 0961 3dbd 2363 7cbd c99b 05bd 2bb2 5d3d
00000330: 14c2 463d 681e 343c a82d 00bd d4c9 3f3d
00000340: e953 c5bd b74f a4bd c89f 473d 83c3 9b3d
00000350: 7364 513d e597 8d3d 6ac7 3e3d 7eba d0bc
00000360: 0922 80bd 42bc c3bc 1ef4 2a3c 83f6 d3ba
00000370: ef62 303d f2e7 a43c e04d 2cbc 113f 603c
00000380: 85cd 46bc 292f 5ebd 5742 7fbc e04c 5dbb
00000390: 9bc9 393d f177 34bc bbd3 d9bc f5b5 ad3c
000003a0: c929 52bd fda0 873c 2827 393d 0d83 6cba
000003b0: a5ac 5a3d 0943 553d 3d5c 2c3d c2cd 21bc
000003c0: 50d8 073c 8acf 9dbc 5bf0 58bc 7b8e d0bc
000003d0: a6b2 d83c a8fb dfbc a230 2ebc e20a 503d
000003e0: 7a08 6cbd 4c6a ffbb 211d 51bd 5eed 13bd
000003f0: c3e7 29bc 448d 3b3c 58bc 45bd db44 4abd
0.0035854806 0.050440975 0.031450704 0.07168598 -0.0233384 0.0355679 0.009546069 -0.025908116
0.044948358 0.010734011 0.018039372 -0.019224335 0.030386278 0.028093442 -0.049680606 0.04592139
-0.023345051 -0.064876005 -0.013438275 -0.025846884 -0.075000025 0.014547467 0.025735838 0.0133707905
-0.03949034 -0.019667968 0.06771822 -0.015528559 -0.024234839 -0.026796604 -0.05074588 0.013471463
0.066441044 -0.04311547 -0.019796405 0.019955836 0.005637249 -0.035105135 -0.06202872 -0.018840505
-0.040053803 0.056642655 -0.031038282 -0.018555772 0.059704296 -0.0017513137 -0.024014091 -0.008647028
0.06978494 -0.029698474 -0.026650755 -0.021774316 0.03860322 0.05372816 0.026547745 0.0036015653
0.04495047 0.024229817 0.034117624 0.044034127 -0.04722326 0.020376097 0.010042864 0.018781364
0.0012584453 0.035388175 0.043238204 0.03572235 0.020783382 0.0063313795 -0.067220956 0.00029195962
-0.015079661 -0.038800947 0.0035971412 -0.046741135 0.027531425 -0.026744066 0.061179925 -0.0116964895
-0.022124546 -0.03025406 0.015953325 0.01918495 -0.025867565 -0.03686846 0.044241793 0.032480065
-0.02788791 -0.05379536 -0.02893794 0.06721353 0.008855007 -0.0047604656 0.0024941969 0.017413527
-0.03929854 0.025511583 0.011794829 0.0065928497 0.04294883 0.016904734 -0.023816653 0.05506524
0.042491965 0.028254785 0.044744555 0.052513514 -0.04985077 -0.037965015 -0.011485993 -0.015643178
-0.013282139 0.057975654 0.052313305 -0.014362182 0.026318768 0.063975595 -0.019561028 -0.026693974
0.008360591 -0.010590629 0.008773529 0.034476217 -0.038355757 -0.041408446 -0.030543955 -0.06922856
0.037657533 -0.019021504 -0.05121629 0.048994772 -0.003167759 -0.016258866 -0.052405838 0.05748663
-0.0490722 -0.058361564 0.023564406 -0.034595367 -0.02218754 0.023503456 -0.054096155 -0.019658236
-0.02585043 -0.008142023 -0.06251976 -0.011299289 0.025604488 -0.028292697 0.02543542 -0.02179897
0.04716188 -0.01045051 0.042363893 -0.00035286794 0.059649665 -0.014603083 0.024699949 0.03220114
0.012126092 -0.051335674 0.03084856 0.041778807 0.047842808 0.018821567 4.6831312e-05 0.04852584
0.013236276 0.046552885 0.031067058 -0.047262732 0.046102013 -0.034202818 0.0163638 0.06445291
0.06952467 0.037772804 0.004638477 0.048190627 0.013316475 0.008546152 -0.014239492 -0.033445936
-0.049714565 0.039504267 -0.02888986 0.015884167 -0.057029314 0.00012236435 -0.0040283073 0.011006476
-0.047525335 0.036260575 0.014273342 0.022713669 -0.008633102 -0.047477294 -0.018251091 -0.042464085
-0.046235118 -0.06161798 -0.03261927 0.054124992 0.04852493 0.010993578 -0.03129354 0.046823338
-0.09635145 -0.08023017 0.048736364 0.0760565 0.051121186 0.06913737 0.046576895 -0.025479551
-0.06256492 -0.02389348 0.010434179 -0.0016171489 0.0430631 0.020130131 -0.010516614 0.013686911
-0.012133961 -0.054244194 -0.0155797815 -0.0033767745 0.04535828 -0.011014924 -0.026590219 0.021204928
-0.05130938 0.016556257 0.045203358 -0.00090222136 0.053387303 0.052065883 0.042080153 -0.009875717
0.008291319 -0.019264001 -0.013240899 -0.025458565 0.026452374 -0.027341679 -0.010631712 0.05079163
-0.05762527 -0.007794654 -0.05105317 -0.036115043 -0.010370198 0.011447255 -0.04827532 -0.049382072

weight f4 [16]
00000000: d7db 803f 7c46 803f c470 803f bb21 813f
00000010: 87a3 7c3f 6f62 7d3f 5068 813f 4970 813f
00000020: c662 803f 7d33 803f 5a7c 7f3f 7510 823f
00000030: 4e55 7f3f 4768 7d3f 93fe 803f 61b9 813f
1.006709 1.002151 1.0034413 1.0088419 0.9868702 0.9897832 1.0109959 1.0112392
1.0030143 1.0015713 0.9979912 1.0161272 0.9973954 0.9898724 1.007769 1.0134698

bias f4 [16]
00000000: 4d7d a2bc 10e1 ad3c 153b 4c3b 7d19 5dbc
00000010: b82e 0b3b 79e6 94bc edf9 01bc 3018 d8bc
00000020: aa0b 203c 4512 183b 0273 c83c 1273 233b
00000030: 53b1 143a 2e5d 5dba 6da6 783c b66a 3d3c
-0.019835139 0.021225482 0.0031163145 -0.013494846 0.0021237563 -0.018176304 -0.007933122 -0.026378721
0.009768406 0.002320425 0.024468902 0.0024940413 0.00056721753 -0.0008444366 0.015176398 0.011561086

running_mean f4 [16]
00000000: 947c e43c bee0 a53e 574f 00be 55e3 143e
00000010: 453d a2bb 12ae 703d f57a 00bf 1f14 0e3f
00000020: 4360 54be a764 87bf 3028 133f e6a4 aebd
00000030: d4d7 083f 1b8c afbf 787f 3dbf 6181 00bf
0.027891435 0.32398027 -0.12530266 0.14539845 -0.0049511516 0.058759756 -0.5018762 0.5549945
-0.20739846 -1.0577592 0.57483196 -0.08527546 0.5345433 -1.3714632 -0.74022627 -0.50197417

running_var f4 [16]
00000000: 71b0 393e 5776 0e3e 004c 7f3e 4e1d 733e
00000010: de07 633e 4f75 8d3d 45c7 843f 9834 8b3e
00000020: 0ef8 773e b9b8 3d3f 8303 823e 2c4c aa3e
00000030: 3840 2d3e 9c41 9b3f 7d47 aa3e 9d0f d63e
0.18133713 0.1391233 0.24931335 0.23741648 0.2217097 0.069071405 1.0373312 0.27188563
0.24215719 0.7410999 0.25393304 0.3326124 0.16919029 1.2129397 0.33257666 0.41808787

weight f4 [1, 16, 4, 5]
00000000: d4e1 81bd 687b 1a3d c71f 3f3d 9f2b 20bc
00000010: 9087 ed3c c045 90ba 1313 933b 4eb0 25bd
00000020: bc94 453c ef73 523d f017 ce3c 6b22 59ba
00000030: 2633 9c3c 5ffa 4d3d 67f9 5e3c e944 54bb
00000040: 8a58 673d 0497 523d d715 cdbc 359f 9bbc
00000050: b443 63bd 02f6 4bbd 4154 36bb a6ca 2dbd
00000060: 2890 2d3d 5523 083d fb16 533d 244e e43c
00000070: 8d87 1abd cb15 8c3b 2d0c 61bc e955 12bd
00000080: 193f b8bc 7b35 1dbd cdf7 443c be0a d33c
00000090: 4eb6 513d 4035 4abc dda0 493d 145b 353c
000000a0: dba2 02bd bf1b 583c 257f d1bc d18e 253d
000000b0: 65ab 82bd 5def 243d cd3e 673d bf06 1f3d
000000c0: 0265 2cbd e15c 1d3d 4de9 28bc de01 16bb
000000d0: 7155 46bd 1785 243d 518c 29bd f0e8 05bd
000000e0: e400 fe3c c220 a3ba 5aff 7d3c 014d 043d
000000f0: 0c01 77bc b118 443d 498b 4d3d c678 693d
00000100: e675 98bc dc81 d43c 5d98 573d 6a16 12bd
00000110: ae32 3e3d 4826 753c 5703 ef3b ff6a 58bd
00000120: 30ac 673c e6d6 9b3c 4768 25bd 3d86 4a3d
00000130: 9355 23bd 57cf 113d c46b 5b3d 5232 363c
00000140: 121d 88bc 4763 2fbd c4cd 59bd 9280 9bbc
00000150: 0648 42bd a107 1a3d c7af e2bc b89e f9ba
00000160: 3bac 21bd ff7b 5b3c 5f28 e23b 4b76 313d
00000170: 6a41 99bc f6f6 56bc 4408 c4bc 6a64 d73c
00000180: 11b1 99bc 6951 0fbd 648d f4bb b587 8cbc
00000190: 3bc1 c5bc 89e0 c53c 11f5 5b3d a128 793d
000001a0: 6deb aabc 9481 72bb 63df 27bb af7a 723c
000001b0: 0d00 6a3d 3120 24bc d671 333d 4a49 36bc
000001c0: 822e 4a3d 3525 763c e357 a03c b88f 263b
000001d0: 9466 263d 310e f03c 40fa 14bd 1da4 70bd
000001e0: 8135 06bd 6493 8d3d c051 7c3c 17d4 f0bc
000001f0: ee44 853d 6754 0cbc 78f4 1cbd 7f93 9fba
00000200: f276 2fbb e154 5ebc 14aa 36bc 076e 64bd
00000210: 24d7 8cbd 24f5 5dbd 5677 8cbc 53db edbb
00000220: 5fee 183d 4227 7fbd 567e 5dbd e6cf 953c
00000230: 45d4 ac3c 46ed 1fbb 7e5f 06bd 5fd0 c5bb
00000240: ad23 f13c 631d 37bd 8c9f 91bb 6099 f53b
00000250: fecc 30bd 37a6 3c3d f49c 1c3d b6d9 12bc
00000260: 347b 993c 937a 023d 4934 1a3d 5a84 113c
00000270: 901f cf3c 9f34 f73c 8eb4 2f3d 6c62 0d3d
00000280: 8001 89bb bc78 483c d109 f73c b841 12bc
00000290: 7cf6 763d 5f09 883d 04d2 c53c ca4e 09bd
000002a0: 652c c0bc 08e8 113c 0a17 5abd 3a4b 22bd
000002b0: 1a22 8fbc b601 02bd be8c 263d a18d a3bc
000002c0: 56cd 29bc c7b4 8bbc 1018 25bb d3ab 89bc
000002d0: 51c4 90bd 38fc 75bd 08e3 5dbd 44e2 263b
000002e0: d391 d03c 00d4 45bd fb39 febc 8d6c 0fbd
000002f0: 9dc3 efbc 8f01 4fbd 2c52 1dbd 9d23 2d3d
00000300: d06a 6ebc acf2 4c3c 28bc b2bc 20a1 493c
00000310: 9c01 f43c 8ac9 583c 250c e83c a1a0 84bd
00000320: 46fc 8b3b 6188 55bd 2cf2 55bd f2b7 c1bc
00000330: 5b4e 063d ee6c 44bc 21bb f5bc e44a 033c
00000340: dfb8 413d 1e50 8d3d abb1 313d 8768 32bd
00000350: 12c6 d83b 730c 133d 789c 173d c3f0 a03b
00000360: 58ff 82bc e7b3 1abc 87bb 7c3b dc09 273d
00000370: 47ee 4f3d 5d4a c5bc d06f 0a3d 5986 503d
00000380: ead3 e03c 97a5 58bd a63d 31bd 0ce0 683c
00000390: 7626 2fbd 94c8 8e3d b26e 52bc a9ff edbc
000003a0: 00de 51bd 15f0 30bd 274a a9bc 1658 c3bc
000003b0: c382 b83c 4492 923d 8e83 3d38 9343 cabc
000003c0: a23d a23b 3b92 463d d1ff 8cbc 42cb 2c3d
000003d0: e6bf 553d 1dc2 fa3c 6608 06bc b3a2 0f3d
000003e0: 202a 593d ba24 1dbd 401f 04bd a3a2 25bd
000003f0: 2c06 4b3c d943 02bd bc36 d6bc 5cb9 69bc
-0.063419014 0.037715346 0.046661165 -0.009776025 0.028995305 -0.0011007115 0.004488358 -0.04045134
0.012059387 0.051380094 0.025157899 -0.0008283022 0.019067358 0.0502876 0.013609267 -0.0032389706
0.05648092 0.05141355 -0.025034828 -0.018996814 -0.05548449 -0.04979516 -0.0027821215 -0.04242959
0.042373806 0.03323682 0.051535588 0.027869292 -0.037726928 0.004275059 -0.013735813 -0.03572646
-0.022491025 -0.03838108 0.012021971 0.025761958 0.05119925 -0.012341797 0.049225677 0.011069078
-0.031893592 0.013190209 -0.025573323 0.040419403 -0.06380347 0.040267337 0.056456376 0.038824793
-0.042088516 0.038418654 -0.0103095295 -0.0022889297 -0.048421327 0.040165987 -0.04139358 -0.03269285
0.031006284 -0.0012445676 0.015502775 0.0323 -0.015075933 0.04787511 0.05018166 0.056999944
-0.018610906 0.025940828 0.05263554 -0.035665907 0.04643505 0.01496274 0.0072940993 -0.052836414
0.014140174 0.01902337 -0.04038265 0.049444426 -0.03987653 0.035598125 0.05356957 0.011120396
-0.016615424 -0.042819288 -0.05317475 -0.018982206 -0.04743197 0.03760493 -0.027671708 -0.0019044494
-0.039470892 0.013396262 0.0069017853 0.043325704 -0.01870795 -0.0131204035 -0.023929723 0.026292998
-0.01876119 -0.03498975 -0.007463144 -0.017154554 -0.024139991 0.024154918 0.05370051 0.060829762
-0.020864213 -0.0037003504 -0.0025615327 0.014799758 0.057128955 -0.010017441 0.043809734 -0.011125872
0.04936076 0.015023519 0.019573158 0.0025415253 0.04062517 0.029303642 -0.03637147 -0.05875026
-0.03276587 0.06912878 0.01540035 -0.029398007 0.06507288 -0.008565045 -0.03831908 -0.0012174695
-0.0026773778 -0.013570041 -0.011148948 -0.055768993 -0.06876972 -0.054188862 -0.017146748 -0.0072588115
0.037336703 -0.0622933 -0.05407556 0.01828761 0.021097312 -0.00244029 -0.032805912 -0.0060368027
0.029435957 -0.04470576 -0.0044440683 0.0074950904 -0.043164246 0.046056952 0.03823562 -0.008963039
0.018735506 0.031855177 0.03764752 0.008881653 0.025283605 0.030176459 0.0428968 0.03451769
-0.004181087 0.012235817 0.030156048 -0.008926801 0.06029366 0.066424124 0.024147995 -0.033522405
-0.023458669 0.008905418 -0.053244628 -0.039622523 -0.017472316 -0.031739913 0.040661566 -0.019964995
-0.010363897 -0.017053975 -0.0025191344 -0.016805565 -0.070686944 -0.060054988 -0.054171592 0.0025464455
0.02546016 -0.048297882 -0.031033507 -0.03501563 -0.02926808 -0.050538596 -0.038408443 0.04227029
-0.014551833 0.012509029 -0.021818236 0.012306482 0.029785924 0.013231644 0.028326103 -0.0647595
0.0042720167 -0.052132014 -0.052232906 -0.023647282 0.03278957 -0.0119888615 -0.029996457 0.008013461
0.047295447 0.06900047 0.043382328 -0.043556716 0.0066154087 0.035900544 0.037014455 0.0049115135
-0.015990898 -0.009442306 0.0038563923 0.040780887 0.05076435 -0.02408331 0.03379804 0.050909374
0.027444798 -0.052892294 -0.043271683 0.014213573 -0.04276129 0.06971851 -0.012843775 -0.029052572
-0.051237106 -0.04319771 -0.020665241 -0.023845714 0.02252329 0.07156804 4.518363e-05 -0.024690425
0.004951195 0.0484793 -0.017211827 0.04218603 0.05218496 0.030610139 -0.008180713 0.03506727
0.05301869 -0.038365103 -0.032256365 -0.040438306 0.012391608 -0.031802986 -0.026149146 -0.0142653845
