source/models/SingleNoteTimbreCNNSmall/model_64_20_0.002_besthyp.pth (torch, 58237 bytes, 21 tensors)

weight f4 [8, 1, 3, 3]
0	0x3e2a7588	0.16646397
1	0x3d0f647c	0.03500794
2	0x3df78c12	0.12087263
3	0xbe58bb1e	-0.2116513
4	0x3d33e355	0.043917973
5	0xbde51c53	-0.11187043
6	0xbd073b1b	-0.03301535
7	0xbeb26ffa	-0.34851056
8	0x3e1a8d1b	0.1509289
9	0x3e8b321d	0.2718667
10	0xbd0abdf4	-0.03387256
11	0xbe2ca7b2	-0.16860846
12	0xbe9d0615	-0.30668703
13	0x3c16764a	0.009183476
14	0x3ea8a611	0.329392
15	0xbe7a87f1	-0.2446592
16	0xbddd4618	-0.10804385
17	0x3e88b65d	0.26701632
18	0xbe341983	-0.17587857
19	0x3d5193e4	0.05116643
20	0xbe77dcc7	-0.24205314
21	0x3da53eb3	0.080685996
22	0x3e8af246	0.27137965
23	0xbe8c80b6	-0.2744195
24	0xbeb3ed61	-0.35142043
25	0xbd5b37cc	-0.05352001
26	0xbe8fd98a	-0.28095657
27	0xbe594d99	-0.21221007
28	0xbe924905	-0.28571334
29	0x3e05d903	0.13071065
30	0xbe4db07b	-0.20086853
31	0xbe8e5d5a	-0.27805597
32	0xbe6839b2	-0.22678259
33	0x3e915586	0.28385562
34	0x3db5e29a	0.088811114
35	0x3e13facb	0.14451139
36	0xbd7b6e3b	-0.06138442
37	0x3e805ac7	0.25069258
38	0xbe81c3bf	-0.25344655
39	0xbd5b4819	-0.053535555
40	0xbd7c56da	-0.061606266
41	0xbe1691e1	-0.14704086
42	0x3e8afcdd	0.27146044
43	0x3c8781f7	0.016541464
44	0x3e6ffd68	0.2343651
45	0x3d203e95	0.039122183
46	0x3e7cc697	0.24685131
47	0xbea5dfd7	-0.3239734
48	0xbe8f32dc	-0.2796849
49	0x3eae170d	0.3400196
50	0xbd916282	-0.07098867
51	0x3e9c6535	0.30545965
52	0xbdd75934	-0.10515061
53	0x3dfb7a7a	0.1227922
54	0x3dc4b48c	0.09604749
55	0xbeb25774	-0.34832346
56	0xbd39483b	-0.0452349
57	0x3dcead1c	0.10091612
58	0x3884e6f9	6.3372725e-05
59	0xbe5cff0b	-0.21581666
60	0xbb6458c8	-0.0034842957
61	0x3d331c39	0.043728087
62	0x3e878fb6	0.2647683
63	0x3a4c4fc1	0.00077938667
64	0x3d4f079c	0.050544366
65	0x3e4cdf3f	0.20007037
66	0xbeb3d8f5	-0.35126463
67	0x3e04f6a1	0.12984706
68	0xbd3ac06e	-0.04559367
69	0x3e4a28d5	0.19742139
70	0x3d1832a8	0.037157685
71	0x3cd4cbc7	0.025976075

weight f4 [8]
0	0x3f81dbec	1.014524
1	0x3f9189da	1.1370194
2	0x3f8219a8	1.016408
3	0x3f81c85a	1.0139267
4	0x3f6ed3b8	0.9329181
5	0x3f6d6c02	0.9274293
6	0x3f80a38b	1.0049909
7	0x3f6b086f	0.91809744

bias f4 [8]
0	0x3cf906ab	0.030398687
1	0x3ddf0620	0.1088984
2	0xbd4b4801	-0.049629215
3	0x3d1e137f	0.03859281
4	0x3d2409f9	0.040048573
5	0xbd1ebc40	-0.038753748
6	0x3d2a466d	0.04157107
7	0x3c30e226	0.0107961055

running_mean f4 [8]
0	0x3adb9357	0.0016752285
1	0x3b360040	0.0027771145
2	0xbbb00dd4	-0.005372742
3	0xbbb8c704	-0.005638959
4	0xbb0d9c9d	-0.0021608241
5	0xba7abfbd	-0.00095653144
6	0xbb4df08d	-0.0031423897
7	0x3b0aa6ac	0.0021156473

running_var f4 [8]
0	0x3d73800c	0.059448287
1	0x3c5c54ad	0.013447923
2	0x3f670c42	0.9025308
3	0x3eb326b0	0.34990454
4	0x3d78a49e	0.060703866
5	0x3dc2bfdf	0.09509253
6	0x3d058a8d	0.032602835
7	0x3d81c966	0.06337242

weight f4 [16, 8, 3, 3]
0	0x3dcd33f1	0.10019673
1	0xbe09e606	-0.13466653
2	0xbd941ccd	-0.07232056
3	0x3d0c170f	0.034201678
4	0xbd9ed9da	-0.07756396
5	0x3de38e89	0.11111171
6	0xbd29bc65	-0.041439433
7	0x3de9563b	0.113934
8	0x3ddfaeac	0.10921988
9	0xbc621665	-0.013799285
10	0xbd589b4c	-0.052882478
11	0x3cc4b4ac	0.024011932
12	0xbddd6b68	-0.10811502
13	0x3d103f69	0.035216723
14	0xbe000b1d	-0.1250424
15	0xbb33b032	-0.0027418253
16	0xbda9662b	-0.0827144
17	0x3da83c9b	0.082146846
18	0xbdf3f580	-0.1191206
19	0xbb5d26cf	-0.0033745056
20	0xbc2f1ef5	-0.010688533
21	0xbd401a14	-0.04689987
22	0xbd906d2b	-0.07052072
23	0xbd8371a7	-0.06418162
24	0x3d29af60	0.041427016
25	0x3d86260e	0.06550227
26	0xbb9f4d21	-0.0048614894
27	0x3dbec953	0.09315743
28	0xbce0f0d2	-0.027458582
29	0x3d550d8c	0.052014872
30	0xbd05a0b2	-0.032623954
31	0x3cdcb475	0.026941517
32	0xbdcddd1e	-0.100519404
33	0x3dcd1742	0.10014202
34	0x3ce133ba	0.027490485
35	0x3cd3cf67	0.025855733
36	0x3e0b1ba4	0.13584763
37	0x3d9471b8	0.07248253
38	0xbc95471f	-0.01822239
39	0xbd9e8f59	-0.07742185
40	0xbc720bef	-0.014773353
41	0xbd4ed82e	-0.050499134
42	0x3d95d4cc	0.073159784
43	0xbd6938ce	-0.05693894
44	0xbd07696f	-0.033059534
45	0x3da2fd00	0.07958412
46	0x3d8fe3f4	0.070259005
47	0x3db195d7	0.08671158
48	0x3d73a984	0.059487835
49	0x3d59221d	0.05301105
50	0xbd4a7761	-0.049430255
51	0x3dacb21a	0.08432408
52	0x3ddae44f	0.10688078
53	0xbdaf9746	-0.08573775
54	0x3cb962a4	0.022630043
55	0xbd9fc26f	-0.07800757
56	0x3d9184ad	0.07105384
57	0x3dbe36e4	0.09287813
58	0x3d83e5ed	0.06440339
59	0xbd1af1b0	-0.037828147
60	0x3d4511a1	0.048112515
61	0x3dc01ffb	0.093811
62	0x3d92fdf6	0.071773455
63	0xbcf379ad	-0.029721105
64	0x3d048ca2	0.03236068
65	0x3d3a919c	0.04554902
66	0xbde084d0	-0.10962832
67	0x3d61aa50	0.055094063
68	0x3dc14275	0.09436504
69	0xbc37532c	-0.011189263
70	0x3d9cda30	0.076588035
71	0xbb07a240	-0.0020696074
72	0xbd7ebc78	-0.062191457
73	0xbe0eeace	-0.13956758
74	0xbdffc645	-0.12488989
75	0xbdae61d3	-0.08514752
76	0x3d5b98f7	0.053612676
77	0x3d159c33	0.036525916
78	0x3dbfe444	0.0936971
79	0x3de6a1b8	0.11261314
80	0x3d99546f	0.074868076
81	0xbd84f12f	-0.064913146
82	0xba1f52e2	-0.0006077719
83	0xbd03bdb0	-0.032163322
84	0x3d1a2a05	0.03763773
85	0x3d5454fe	0.051838867
86	0xbdfbeb18	-0.123007
87	0xbd6f76d3	-0.05846293
88	0xbcb22543	-0.021746283
89	0xbde8227c	-0.113347024
90	0x3dbfba2c	0.09361681
91	0xbc15151e	-0.009099273
92	0x3a48849a	0.00076491537
93	0x3b1ebb70	0.0024220608
94	0xbddfd010	-0.10928357
95	0xbd845cca	-0.064630106
96	0x3e11fc7d	0.14256473
97	0x3da2ebad	0.07955108
98	0x3d172d23	0.03690828
99	0x3c8006bc	0.015628211
100	0xbe005a07	-0.12534343
101	0xbd5bd87c	-0.053673252
102	0xbce55cbb	-0.027998319
103	0xbd62cd73	-0.055371713
104	0x3d467563	0.048451792
105	0x3c4a10f6	0.012333145
106	0xbcc51ab9	-0.024060594
107	0xbd54022e	-0.05175989
108	0x3df5304b	0.11972102
109	0xbd97c296	-0.07410161
110	0x3e0605c1	0.13088132
111	0xbd8805da	-0.06641741
112	0xbde77150	-0.113009095
113	0x3d300bfa	0.04298017
114	0x3db8bfd8	0.09020966
115	0xbd6296d6	-0.05531963
116	0x3c6ed583	0.014577272
117	0x3d8c522b	0.0685161
118	0x3da88198	0.08227843
119	0xbdd7e572	-0.1054181
120	0xbc8e4ca7	-0.017370535
121	0xbcc61741	-0.02418101
122	0x3c970819	0.018436478
123	0x3d150a13	0.03638656
124	0xbc2f2dfb	-0.010692115
125	0x3d45e7ca	0.048316754
126	0x3d2c43b6	0.04205676
127	0xbdb72c18	-0.08943957
128	0x3d2e3083	0.042526733
129	0xbd87a271	-0.0662278
130	0xbcdc397f	-0.026882885
131	0x3d5e1362	0.054217704
132	0xbda8864d	-0.08228741
133	0xbe1ed482	-0.15510753
134	0xbe0f87cb	-0.14016645
135	0x3d71b424	0.059009686
136	0x3c95fc6f	0.018308846
137	0xbd814213	-0.06311431
138	0x3d0fbe4b	0.035093587
139	0x3d953985	0.072863616
140	0xbdd36046	-0.10321097
141	0xbc791637	-0.01520305
142	0xbc869adb	-0.016431263
143	0xbdeb0e67	-0.114773564
144	0x3d9a9e37	0.07549708
145	0x3df9a86a	0.121903256
146	0x3dbee5f8	0.09321207
147	0xbded06a0	-0.11573529
148	0x3ce2c614	0.027682342
149	0x3d088c4d	0.033336926
150	0x3d9e2a0e	0.07722865
151	0xbd7290b6	-0.05922004
152	0xbc8eb591	-0.017420562
153	0xbd52df09	-0.051482234
154	0x3c80939f	0.015695391
155	0xbe0f1acc	-0.13975066
156	0xbddd8158	-0.10815686
157	0xbdb13dd3	-0.0865437
158	0x3ca7af3b	0.020469299
159	0xbc846d96	-0.016165536
160	0x3cdeba89	0.027188556
161	0x3d7341fa	0.059389092
162	0xbd26bd72	-0.040708013
163	0x3d22e3a0	0.03976786
164	0x3d8235ad	0.06357894
165	0x3bd861e7	0.0066034677
166	0x3b972ebe	0.0046137264
167	0xbd9e2267	-0.077214055
168	0x3d92518d	0.07144461
169	0xbd47779c	-0.048698053
170	0x3d2458db	0.0401238
171	0x3e1205e8	0.14260066
172	0x3da05458	0.07828587
173	0xbdd2b7fe	-0.10289
174	0x3e11e459	0.14247264
175	0xbdab66b7	-0.08369201
176	0x3de7e94f	0.11323797
177	0xbdfac631	-0.12244833
178	0xbd6021e1	-0.05471981
179	0x3bc082df	0.005874976
180	0x3d3b9f11	0.045805994
181	0x3af4fec5	0.001869165
182	0xbd403ed2	-0.04693491
183	0xbd2115cb	-0.039327424
184	0x3d719eaa	0.058989204
185	0xbd56a35c	-0.052401885
186	0xbd59cb3f	-0.053172346
187	0x3e0e166f	0.13875745
188	0xbd156aff	-0.036478993
189	0xbae977df	-0.0017812214
190	0xbcd6981d	-0.02619558
191	0xbdc72792	-0.09724344
192	0x3c6a6049	0.014305183
193	0x3dd55d18	0.10418147
194	0xbdc436da	-0.095807746
195	0x3ddb398e	0.10704337
196	0x3dcf550c	0.10123643
197	0x3d26eb6b	0.040751856
198	0x3df16e5d	0.11788628
199	0x3dff572f	0.12467801
200	0x3db513d8	0.088416755
201	0x3cecca0b	0.028904935
202	0xbc932ee3	-0.017966693
203	0x3d310d5a	0.043225624
204	0x3d6bf9e2	0.057611354
205	0x3d37a308	0.044833213
206	0xbdd36780	-0.103224754
207	0xbd75db72	-0.060023732
208	0xbd85bc31	-0.06530035
209	0xbc48743a	-0.012234742
210	0x3cd0357b	0.025416126
211	0x3d76c0ad	0.060242344
212	0x3cae77c1	0.021297337
213	0xbdc199f7	-0.094531946
214	0x3d217d21	0.039425973
215	0xbd43d76b	-0.04781286
216	0x3d7632de	0.060107104
217	0xbd0c04dd	-0.034184325
218	0xbe0b9938	-0.13632667
219	0x3d9aa5e9	0.07551176
220	0x3db4605d	0.08807442
221	0xbdda7d3b	-0.10668417
222	0xbb973bf7	-0.0046153027
223	0x3dd8fc86	0.1059504
224	0xbc0cd299	-0.008595132
225	0xbd44b96b	-0.04802839
226	0xbdc27647	-0.09495216
227	0xbe1d23b4	-0.15345651
228	0xbd9a9fb2	-0.07549991
229	0x3dbc39cc	0.091907114
230	0x3d3e598f	0.04647213
231	0x3c6db314	0.014508028
232	0xbc5e98cf	-0.013586237
233	0x3d2b604b	0.04183988
234	0xbd7ca3c1	-0.061679605
235	0xbe058a15	-0.13040955
236	0xbd88825c	-0.06665489
237	0x3c2c5802	0.01051903
238	0xbe37ff0e	-0.1796839
239	0xbe204bd8	-0.15653932
240	0xbdffb6ee	-0.12486063
241	0x3c84ab13	0.016194856
242	0xbb0f1fd8	-0.0021839049
243	0xbdcda69b	-0.10041543
244	0xbdc4341f	-0.09580254
245	0xba172e51	-0.00057670946
246	0x3e126e00	0.14299774
247	0x3d08370b	0.033255618
248	0x3df977d0	0.121810555
249	0xbe0f5151	-0.13995863
250	0xbbeb7f15	-0.00718678
251	0xbe018df6	-0.1265181
252	0x3c083702	0.008313896
253	0xbad22ce9	-0.0016035113
254	0x3cb75d85	0.02238346
255	0x3deb7854	0.1149756

weight f4 [16]
0	0x3f6ae42d	0.9175442
1	0x3f7ff863	0.99988383
2	0x3f7b7f69	0.9824129
3	0x3f8151b5	1.010306
4	0x3f82b213	1.0210594
5	0x3f844a18	1.0335112
6	0x3f835c92	1.0262625
7	0x3f850edb	1.0395159
8	0x3f7cff01	0.98826605
9	0x3f7ae41e	0.9800433
10	0x3f864664	1.0490232
11	0x3f7fc6bd	0.99912626
12	0x3f7b9026	0.9826683
13	0x3f83667d	1.0265652
14	0x3f6dab65	0.9283965
15	0x3f828982	1.0198214

bias f4 [16]
0	0x3c8ed77e	0.017436739
1	0x3d61973d	0.055075873
2	0x3d298ab0	0.04139203
3	0xbc84ffa3	-0.016235178
4	0xbc307186	-0.010769254
5	0xba158f9c	-0.00057052984
6	0xbbd8518c	-0.006601518
7	0xbd4a2eee	-0.049361162
8	0xbd99da7a	-0.07512374
9	0xbd8f04de	-0.0698335
10	0x3da13a19	0.078724094
11	0xbd7e576a	-0.062095083
12	0xbc8a11ce	-0.016854193
13	0x3c88ff72	0.016723368
14	0xbd562051	-0.052276913
15	0x3dd21879	0.10258574

running_mean f4 [16]
0	0x3ece7d23	0.40329847
1	0xbf10a726	-0.5650505
2	0x3e8fa264	0.28053582
3	0xbeced1f8	-0.40394568
4	0xbdabb8cc	-0.083848566
5	0x3f1cc797	0.6124205
6	0xbda9caee	-0.08290659
7	0xbd92e197	-0.07171934
8	0xbe15c48f	-0.14625762
9	0x3ef40557	0.47660324
10	0xbda90cc8	-0.08254391
11	0xbda8b6cc	-0.08237991
12	0x3f14d309	0.58134514
13	0xbe9ec449	-0.3100913
14	0xbebd88db	-0.37018475
15	0x3e493069	0.19647373

running_var f4 [16]
0	0x3e3ef506	0.18648157
1	0x3e67dedf	0.22643612
2	0x3e4c5396	0.1995376
3	0x3e767761	0.24068977
4	0x3ebcaf74	0.3685261
5	0x3e547e23	0.20751242
6	0x3e892faa	0.26794177
7	0x3ea00df5	0.31260648
8	0x3ed2ae01	0.4114838
9	0x3f34d818	0.7064223
10	0x3dad177b	0.08451744
11	0x3eb0b1dd	0.345107
12	0x3e82f456	0.2557704
13	0x3eb7e3f3	0.359161
14	0x3e6b3fae	0.2297351
15	0x3e225f3a	0.15856639

weight f4 [32, 16, 3, 3]
0	0x3bc1ec73	0.0059180795
1	0x3d5e0439	0.054203246
2	0x3d786bc0	0.060649633
3	0x3c904546	0.017611157
4	0xbde45505	-0.11149029
5	0xbdd4132c	-0.10355219
6	0x3d807009	0.06271369
7	0xbc426637	-0.01186519
8	0xbd03ba6b	-0.032160204
9	0x3d783c6d	0.0606045
10	0xbd2d837f	-0.042361733
11	0x3d9cb051	0.07650817
12	0x3c476695	0.012170454
13	0xbca3c08e	-0.019989278
14	0x3d497a5a	0.04918895
15	0x3c340cef	0.010989412
16	0x3db16ffc	0.086639374
17	0x3da0c38e	0.07849799
18	0xbc2542b1	-0.010086701
19	0xbd519f5f	-0.05117738
20	0x3cc05591	0.023478301
21	0xbb7082f4	-0.0036699148
22	0xbd9e68ff	-0.0773487
23	0x3d92f4fc	0.07175633
24	0x3b85868c	0.004074877
25	0x3aaf34dd	0.0013367195
26	0x3d046e5a	0.032331802
27	0xbdab2a61	-0.083576925
28	0x3d3319b6	0.04372569
29	0x3d51de10	0.051237166
30	0xbcdcef2a	-0.026969511
31	0x3c59b2aa	0.013287226
32	0x3ccd3918	0.025051638
33	0x3dbc15fe	0.09183882
34	0x3d9b8a93	0.0759479
35	0x3c61d8c4	0.013784591
36	0xbd4d4fee	-0.050125055
37	0x3dcf9473	0.10135736
38	0x3cd57ca0	0.026060402
39	0x3da724b9	0.08161301
40	0x3d484769	0.048896227
41	0x3d9717dd	0.073775984
42	0x3d81c94d	0.06337223
43	0xbd26cd9f	-0.04072344
44	0x3db2cd88	0.08730608
45	0xbe0ab6ea	-0.13546339
46	0xbceb6702	-0.028735641
47	0x3c592fa4	0.013255987
48	0xbd201b25	-0.039088387
49	0xbd8f0f91	-0.06985391
50	0xbde1af7e	-0.110198006
51	0x3d029447	0.03187969
52	0xbdb39887	-0.08769327
53	0x3c785bd5	0.015158613
54	0x3bb90876	0.0056467606
55	0xbd0e60ce	-0.03476029
56	0x3d592f67	0.053023722
57	0xbd886ae5	-0.066610135
58	0x3c00f126	0.007869994
59	0x3c4bd2d6	0.012440404
60	0xbd995643	-0.07487156
61	0x3cf1ffd4	0.029540934
62	0x3b9b5d42	0.004741342
63	0xbdbe469f	-0.09290814
64	0xbd75fe65	-0.060057063
65	0xbcfb4aae	-0.030675258
66	0x3d64d83b	0.055870276
67	0x3d05a5d7	0.03262886
68	0x3c0f3ad8	0.008742057
69	0xbda1d060	-0.079010725
70	0x3dae53d4	0.08512083
71	0x3dbcf8ac	0.09227118
72	0x3c6f58c3	0.014608565
73	0x3d01b246	0.031664155
74	0x3d0e3495	0.034718115
75	0xbe145f11	-0.1448939
76	0xbda6f4b4	-0.08152142
77	0xbd90539a	-0.07047196
78	0xbc80607d	-0.01567101
79	0xbd1c680b	-0.03818516
80	0xbda24945	-0.07924131
81	0xbd40108d	-0.046890784
82	0xbd8775b7	-0.06614249
83	0xbb9ec6a7	-0.0048454585
84	0xbdc3d452	-0.09561981
85	0xbd6ea656	-0.0582641
86	0xbdf6f683	-0.12058737
87	0xbc4168ea	-0.011804799
88	0xbc583166	-0.013195371
89	0x3d760fb4	0.06007357
90	0xbd2bfac7	-0.041987207
91	0x3cafd41b	0.021463444
92	0x3c7df707	0.01550079
93	0x3d1732aa	0.03691355
94	0xbc0c41c4	-0.008560602
95	0x38b6fb79	8.725277e-05
96	0xbb2d208e	-0.002641711
97	0xbcacee9c	-0.021109872
98	0x3c2b4943	0.010454479
99	0xbdddb44a	-0.10825403
100	0xbd5287ee	-0.051399164
101	0xba80d9cb	-0.0009830532
102	0xbdb2b58e	-0.08726035
103	0xbd1ec99a	-0.03876648
104	0xbd9c6943	-0.076372646
105	0x3d2e4e0b	0.042554896
106	0x39135b3b	0.00014052998
107	0x3d07fcde	0.033200137
108	0x3c04927e	0.008091567
109	0xbd2294a9	-0.039692555
110	0x3cef06dc	0.029178075
111	0xbb533d3b	-0.003223254
112	0xbd8ae291	-0.06781495
113	0xbaec80cf	-0.0018043759
114	0xbc26eeb7	-0.01018875
115	0xbd4ceaae	-0.050028495
116	0xbd897687	-0.067120604
117	0x3db54719	0.088514514
118	0x3bddcff6	0.0067691756
119	0x3c96d20e	0.018410709
120	0x3e04cc49	0.12968554
121	0x3d070eb4	0.032973006
122	0x3d56f70c	0.052481696
123	0x3c5e4179	0.013565415
124	0x3c3587fc	0.0110797845
125	0xbc85c81c	-0.016330771
126	0x3cb37c2d	0.021909798
127	0xbd210715	-0.039313395
128	0x3b537ac2	0.0032269214
129	0x3d6489ea	0.055795588
130	0x3d31c721	0.043402795
131	0xbd9fd0ae	-0.07803474
132	0x3d950a9a	0.07277413
133	0xbd81964e	-0.063274965
134	0xbd04f9fb	-0.032464962
135	0xbdd54081	-0.10412694
136	0xbdf168d2	-0.11787571
137	0xbdc823cf	-0.09772455
138	0x3cf771e0	0.030205667
139	0x3d97c916	0.07411401
140	0x3d0ea8e4	0.034829035
141	0xbd2dc109	-0.04242042
142	0x3d8a6de7	0.067592435
143	0xbd97176a	-0.07377513
144	0xbba35443	-0.00498441
145	0x3d06ac5c	0.03287922
146	0xbdd9fded	-0.106441356
147	0x3d02b0fc	0.031907067
148	0x3dea94fc	0.11454198
149	0x3db31079	0.08743376
150	0xbdfd3d80	-0.12365246
151	0xbcb37cd3	-0.021910107
152	0xbda68e52	-0.08132614
153	0xbc9d47e6	-0.019199323
154	0x3d5724c7	0.052525308
155	0xbc749fc9	-0.014930674
156	0xba99d02c	-0.0011735014
157	0x3d70a588	0.058751613
158	0x3b78c27c	0.0037957719
159	0xbd273323	-0.040820252
160	0xbc1f082d	-0.009706539
161	0x3d8fc300	0.07019615
162	0x3dcdc5b8	0.100474775
163	0xbdc675c4	-0.09690431
164	0x3c65a65e	0.014016716
165	0x3e097bcd	0.13426133
166	0x3c99ecea	0.018789727
167	0xbd727ef9	-0.05920312
168	0x3cf0fe3e	0.029418107
169	0xbe145013	-0.14483671
170	0xbba9bd98	-0.005180072
171	0x3a1a16f8	0.00058780564
172	0x3d8421cf	0.06451761
173	0xbc03fcbe	-0.008055864
174	0xbce61fb0	-0.028091282
175	0x3ca41ff3	0.020034766
176	0x3d497535	0.049184043
177	0xbdab4ede	-0.08364652
178	0xbd31165f	-0.043234225
179	0x3d732df0	0.05936998
180	0xbca506b9	-0.020144807
181	0xbd7280a0	-0.059204698
182	0x3d1882a5	0.037233967
183	0x3d3540de	0.044251315
184	0xbc442570	-0.011971816
185	0x3dc0ab8c	0.0940772
186	0xbcb9bcb7	-0.022672994
187	0xbd54ab4b	-0.05192117
188	0xbdc48ef1	-0.095975764
189	0x3da2c90f	0.07948505
190	0x3cd7af6a	0.026328761
191	0x3cbcc60d	0.023043657
192	0xbc84f64f	-0.01623073
193	0x3ca697c4	0.02033604
194	0x3ae76e55	0.0017656783
195	0x3d60e1b8	0.054902762
196	0xbda8f334	-0.08249512
197	0xbdcab4e2	-0.09897782
198	0x3dd5201a	0.104065135
199	0x3db94fcf	0.090484254
200	0x3ddb283b	0.10701033
201	0xbd1719c4	-0.036889806
202	0xbc1c0d07	-0.00952459
203	0xbdb96809	-0.09053046
204	0xbdd8a565	-0.105784215
205	0xbc9755ac	-0.018473469
206	0x3d62a3a9	0.05533186
207	0xbcef3e4a	-0.029204506
208	0xbc54e2f0	-0.012993559
209	0xbdc88936	-0.09791796
210	0xbd56b812	-0.052421637
211	0xbd3a4fc1	-0.045486216
212	0xbd642d7d	-0.055707444
213	0x3d3566fc	0.044287667
214	0xbd8cb38e	-0.06870185
215	0xbdc9f5ac	-0.09861311
216	0xbc6f73de	-0.014615027
217	0xbd152d49	-0.03642014
218	0x3d22674f	0.039649304
219	0xbe125c66	-0.1429306
220	0xbe076dd4	-0.1322549
221	0xbd22c70f	-0.03974062
222	0xbd735eab	-0.059416454
223	0xbdd10d96	-0.102076694
224	0xbdc8bb33	-0.098013304
225	0xbce6789e	-0.028133687
226	0xbce0f2d4	-0.02745954
227	0xbcfe50bd	-0.031044358
228	0xbd48fc93	-0.049069
229	0xbc779b2b	-0.0151126785
230	0x3af6b43f	0.0018822028
231	0xbda7b5a7	-0.08188944
232	0xbbea6f5d	-0.007154389
233	0xbd080cda	-0.03321538
234	0x3ba167c0	0.004925698
235	0x3cc400ce	0.023926165
236	0xbd2a9220	-0.041643262
237	0x3d4ad2f3	0.049517583
238	0x3d3f12cb	0.04664878
239	0x3c4b1c98	0.012396954
240	0x3e157b91	0.14597918
241	0xbd28deec	-0.04122822
242	0x3d9b4701	0.07581902
243	0xbd9f862f	-0.07789265
244	0x3d408180	0.0469985
245	0xbd9b9581	-0.07596875
246	0x3dfac989	0.12245471
247	0xbd7583be	-0.059940092
248	0xbd8abed8	-0.06774682
249	0x3d74023a	0.059572436
250	0xbd58d1ea	-0.052934565
251	0xbd1495bd	-0.036275614
252	0xbcce264a	-0.025164742
253	0x3c86cff2	0.016456578
254	0x3dbca8de	0.09211896
255	0x3dff744f	0.12473356

weight f4 [32]
0	0x3f7c8f5c	0.9865625
1	0x3f85308e	1.0405443
2	0x3f837b25	1.0271956
3	0x3f7c32f6	0.9851526
4	0x3f89123a	1.0708687
5	0x3f824aae	1.017904
6	0x3f8465dd	1.0343586
7	0x3f71a096	0.9438566
8	0x3f845d49	1.0340968
9	0x3f7d1e59	0.9887443
10	0x3f849520	1.0358009
11	0x3f83e948	1.0305567
12	0x3f70b5a6	0.94027174
13	0x3f7b5028	0.98169184
14	0x3f82ee50	1.0228977
15	0x3f78e2d5	0.9722112
16	0x3f65db9b	0.89788216
17	0x3f790547	0.9727368
18	0x3f843962	1.0330012
19	0x3f7feee2	0.9997388
20	0x3f85d93e	1.0456922
21	0x3f7901d9	0.97268444
22	0x3f851038	1.0395575
23	0x3f881fde	1.0634725
24	0x3f76e874	0.96448445
25	0x3f824349	1.0176784
26	0x3f7bd6f5	0.98374873
27	0x3f818550	1.0118809
28	0x3f8519af	1.0398463
29	0x3f7dc60c	0.9913032
30	0x3f7bc126	0.98341596
31	0x3f78b0a3	0.97144526

bias f4 [32]
0	0x3dd0722d	0.10178027
1	0x3da63630	0.08115804
2	0xbb6caf19	-0.0036115109
3	0xbd3103ef	-0.043216642
4	0x3dd4ff49	0.10400254
5	0x3cc0ea03	0.023549085
6	0x3cb2677e	0.021777865
7	0xbd8eabe2	-0.06966378
8	0x3c53c3c5	0.012925093
9	0x3a405109	0.0007336294
10	0x3d1670f1	0.036728803
11	0xbc3ae853	-0.0114079295
12	0xbd99faa4	-0.07518509
13	0xbda7bb47	-0.08190017
14	0xbd96a7ab	-0.07356199
15	0xbbbd2339	-0.005772021
16	0xbde98ab3	-0.11403408
17	0xbd1f1069	-0.03883401
18	0x3dc68a7d	0.09694383
19	0x3b54527c	0.0032397797
20	0x3d27c15a	0.04095588
21	0x3c3368cd	0.010950279
22	0x3a639a3b	0.0008682345
23	0xb8af21ef	-8.350971e-05
24	0xbd46c394	-0.04852636
25	0xbde98e98	-0.11404151
26	0xbd39dd62	-0.045377143
27	0x3ba4966b	0.005022814
28	0x3d38a5f9	0.04508016
29	0x3cbb3886	0.0228541
30	0x3de4913f	0.11160516
31	0x3b612fa6	0.0034360676

running_mean f4 [32]
0	0xbedfd98e	-0.4372067
1	0xbf5254f6	-0.8216089
2	0xbda1d411	-0.079017766
3	0xbdb31048	-0.0874334
4	0x3eaa81f4	0.3330227
5	0xbf1c2f93	-0.6101009
6	0xbefc515a	-0.49280816
7	0x3f630cce	0.88691413
8	0x3d765074	0.06013532
9	0xbf5e777d	-0.86901075
10	0xc00ba44d	-2.1819031
11	0xbfda3865	-1.704846
12	0x3f9b6cbf	1.2142562
13	0x3f2e0455	0.6797536
14	0xbf277809	-0.65417534
15	0xbf292b6a	-0.6608187
16	0x3fa139e8	1.2595797
17	0x3f96baee	1.1775796
18	0xbf8bae15	-1.0912501
19	0x3f1b7d3d	0.60737973
20	0xbef8343c	-0.48477352
21	0xbfafab18	-1.3724089
22	0x3e9f5f71	0.31127504
23	0xbed08631	-0.4072738
24	0x3f90c28f	1.1309375
25	0xbc150d71	-0.009097443
26	0x3f336f64	0.70091844
27	0xbf66a54c	-0.90095973
28	0xbfb9b673	-1.4508804
29	0x3effba75	0.49946943
30	0x3e81c3fb	0.25344834
31	0xbfc7c3d4	-1.5606637

running_var f4 [32]
0	0x3f858c33	1.043341
1	0x3f15da54	0.5853627
2	0x3f9276bf	1.1442488
3	0x3f96270e	1.1730669
4	0x3f21da00	0.63223267
5	0x3f110cff	0.56660455
6	0x3f1506e0	0.58213615
7	0x4034fe1e	2.82801
8	0x3f8a4d50	1.0804844
9	0x3edb0421	0.42776588
10	0x401a7bd5	2.413808
11	0x3fb8fd6e	1.4452341
12	0x400aa06e	2.1660419
13	0x3f8d3d22	1.1034281
14	0x3f6657fe	0.89978015
15	0x3f1514b9	0.58234745
16	0x4003385a	2.0503144
17	0x3f01e439	0.50738865
18	0x3f1f335c	0.62187743
19	0x3f5535b1	0.8328505
20	0x3f762c97	0.9616179
21	0x3fadf826	1.3591354
22	0x3f1dffe4	0.61718583
23	0x3fe17e46	1.761666
24	0x3fc36271	1.5264417
25	0x3f5fa8ea	0.8736712
26	0x3fee3f65	1.8613096
27	0x3edf75a7	0.4364445
28	0x3f6674f5	0.9002221
29	0x3f3fc220	0.74905586
30	0x3e90008b	0.28125414
31	0x3f85874e	1.0431917

weight f4 [16, 32, 3, 3]
0	0xbc95de5e	-0.01829451
1	0xbc5d181d	-0.013494519
2	0x3d5cba6f	0.053888734
3	0x3bb22c65	0.005437421
4	0xbc75199a	-0.014959717
5	0xbdb90b7f	-0.09035396
6	0xbc6b31bc	-0.014355119
7	0x3d982c33	0.07430305
8	0xbc3e6cc4	-0.011622611
9	0xbcd2395d	-0.025662119
10	0xbd7b05f1	-0.061284963
11	0x3c80c039	0.015716659
12	0x3d895dff	0.067073815
13	0x3d9941b2	0.074832335
14	0x3db7517a	0.08951087
15	0xbd75bb17	-0.059992876
16	0xbdc5dfca	-0.09661825
17	0xbd59b0b3	-0.05314703
18	0xbc1e75cd	-0.009671641
19	0xbd0abc85	-0.033871192
20	0xbd6ee85a	-0.058327056
21	0xbc4d148b	-0.012517105
22	0xbd0738c1	-0.03301311
23	0xbd59b674	-0.053152516
24	0xbc58ea07	-0.01323939
25	0xbc3df224	-0.011593375
26	0xbd8584eb	-0.06519493
27	0xbc26fe84	-0.010192517
28	0xbceaa858	-0.028644726
29	0x3d084fe1	0.033279303
30	0xbd8f108a	-0.069855765
31	0xbd2ee214	-0.042696074
32	0x3d4f7b39	0.050654624
33	0x3d89fbf7	0.067375116
34	0xbd44b9c5	-0.048028726
35	0x3d227d89	0.0396705
36	0xbd27d3a8	-0.040973336
37	0xbd62f3de	-0.05540835
38	0xbda1e897	-0.07905691
39	0xbd6c78d0	-0.057732403
40	0xbd352df2	-0.04423327
41	0x3cfc0959	0.030766176
42	0xbcc61e2c	-0.024184309
43	0xbc8b55f4	-0.01700876
44	0xbcfa2d87	-0.030539287
45	0x3d1f83b0	0.038943946
46	0xbcde9be8	-0.027173951
47	0xbd48ba84	-0.049006
48	0xbc96a9f6	-0.01839159
49	0xbb5de248	-0.0033856798
50	0xbb3e5c9e	-0.0029046903
51	0x3cf8174b	0.030284544
52	0x3c217876	0.00985538
53	0xba611f25	-0.000858771
54	0xbd264af6	-0.040598832
55	0xbd399a79	-0.045313332
56	0x3d3a15b1	0.045430843
57	0xbd968652	-0.07349838
58	0xbda02495	-0.078194775
59	0xb7360723	-1.0849707e-05
60	0x3c8816fc	0.016612522
61	0x3d48dd99	0.049039457
62	0x3d255319	0.04036245
63	0x3cb0f888	0.021602884
64	0x3d0cdca3	0.034390103
65	0x3d28282c	0.041053936
66	0xbd600a7f	-0.05469751
67	0x3d2cc9f9	0.042184804
68	0x3d4b08df	0.049569007
69	0x3cdb6a35	0.026784042
70	0xbd508ceb	-0.05091564
71	0x3d0cb498	0.034351915
72	0x3d139371	0.036029283
73	0xbcc52b52	-0.024068508
74	0xbd172bbb	-0.03690694
75	0xbd176ed4	-0.03697093
76	0x3c84f9a6	0.016232323
77	0xbb8b266c	-0.0042465236
78	0xbc5a92b4	-0.013340641
79	0x3ced096c	0.028935157
80	0x3cd38c23	0.025823658
81	0xbd23adb8	-0.039960593
82	0x3db9ac9f	0.09066128
83	0x3dad1931	0.084520705
84	0xbcf9a285	-0.030473003
85	0xbd9274ca	-0.07151182
86	0xbb849fc1	-0.0040473645
87	0x3df69111	0.12039388
88	0x3d1c5b66	0.0381731
89	0x3d98e976	0.07466404
90	0x3d7ed80c	0.062217757
91	0xbd09352b	-0.03349797
92	0x3d679a20	0.05654347
93	0x3dad2029	0.084534
94	0xbc10cd7c	-0.008838054
95	0xbc49266a	-0.012277225
96	0x3dc8528d	0.0978137
97	0x3d1a16c9	0.037619386
98	0x3d077c4d	0.033077527
99	0xbc57d787	-0.013173944
100	0xbd280f8d	-0.041030455
101	0x3d9206ff	0.07130241
102	0x3c9e4c72	0.019323561
103	0x3d56ecc9	0.05247191
104	0x3d44b602	0.04802514
105	0x3d552b66	0.05204334
106	0x3d363017	0.044479456
107	0x3d800a1d	0.06251929
108	0x3d855a9e	0.065114245
109	0x3d9234ad	0.07138953
110	0x3cc24d44	0.023718484
111	0xbd19a971	-0.037515108
112	0xbcfbe659	-0.030749487
113	0x3d3b3544	0.045705095
114	0xbd327de5	-0.043577094
115	0xbda4fdb9	-0.08056206
116	0x3cd5ace5	0.02608342
117	0x3db62a9c	0.08894846
118	0x3d475c67	0.048672106
119	0x3d8da2d2	0.06915821
120	0xbd71c970	-0.059029996
121	0x3cc6a956	0.024250668
122	0xbd95c5f4	-0.07313147
123	0xbd949eef	-0.07256877
124	0xbd085d78	-0.033292264
125	0x3d0cdc80	0.034389973
126	0x3da3eb83	0.08003905
127	0x3caf366e	0.021388259
128	0x3da448f6	0.08021729
129	0xbc4454ac	-0.011983078
130	0x3c707a71	0.01467763
131	0x3d171b4c	0.036891267
132	0x3df8a515	0.12140862
133	0x3ce89295	0.028390208
134	0x3da093dc	0.07840702
135	0xbd4fa327	-0.050692704
136	0xbd8152c7	-0.06314617
137	0xbd884a1b	-0.066547595
138	0x3d4dfa18	0.050287336
139	0x3d305670	0.043051183
140	0xbd43a5f0	-0.047765672
141	0xbcfb89ef	-0.03070542
142	0xbd4dbd13	-0.050229143
143	0xbc235f37	-0.009971431
144	0x3cbe6b6b	0.02324458
145	0x3d0673c5	0.03282525
146	0x3cd1c721	0.025607647
147	0x3b8cc357	0.0042957473
148	0xbd39ccb7	-0.045361247
149	0x3a8a7e73	0.0010566249
150	0x3b76fe7f	0.0037688313
151	0x3d4d4708	0.05011657
152	0x3d33a006	0.043853782
153	0x3d9d95de	0.076946005
154	0x3d90aae4	0.07063845
155	0xbd9d0338	-0.076666296
156	0xbdb51041	-0.08840991
157	0xbb58dc99	-0.003309047
158	0xbc283967	-0.010267592
159	0xbdaca1d2	-0.08429302
160	0xbdbe88ff	-0.09303474
161	0xbdbf978d	-0.09355078
162	0x3d4a1786	0.04933884
163	0xbdc68d9a	-0.09694977
164	0xbd912fb0	-0.07089174
165	0x3d2cb401	0.042163853
166	0x3c696773	0.014245856
167	0x3d51b971	0.05120224
168	0x3cc0305d	0.023460561
169	0x3c328830	0.010896727
170	0x3d3d90e0	0.04628074
171	0xbc361658	-0.011113726
172	0x3d947523	0.072489046
173	0xbc4de5ca	-0.012566993
174	0x3c8ca95c	0.0171706
175	0xbdddaabe	-0.10823582
176	0xbba22284	-0.0049479622
177	0x3942d15a	0.00018579271
178	0x3d3a8e19	0.04554567
179	0x3d83ad3c	0.06429526
180	0x3da813e6	0.0820692
181	0x3caf4ecd	0.02139988
182	0xbd7d1ad3	-0.06179316
183	0xbcec9aa3	-0.02888233
184	0xbd4dc9b0	-0.050241172
185	0xbc287369	-0.010281422
186	0xbc85a7b6	-0.016315322
187	0xbde121b0	-0.109927535
188	0xbdf96da5	-0.12179116
189	0xbd65405f	-0.055969592
190	0xbc9297cc	-0.017894648
191	0x3d4abc83	0.049496185
192	0x3da17fdc	0.07885715
193	0xbc60f180	-0.013729453
194	0x3d0a827e	0.033815853
195	0xbd9fd7c2	-0.078048244
196	0xbba10d0b	-0.004914885
197	0x3ccbc7cf	0.02487555
198	0x3c8ef32b	0.017449936
199	0x3c3b03c8	0.011414476
200	0xbd4929a2	-0.04911197
201	0xbd418261	-0.04724348
202	0xbceb52c4	-0.02872599
203	0xbd57bd27	-0.052670624
204	0x3dbd525e	0.09244226
205	0x3d34d3b6	0.044147216
206	0x3c2c9295	0.010532995
207	0xbd15ae91	-0.036543433
208	0xbd154324	-0.036440983
209	0x3d2d07d5	0.042243797
210	0xbd9636d9	-0.0733468
211	0xbd3895f3	-0.045064878
212	0xbd9851ed	-0.07437501
213	0xbd7f5406	-0.06233599
214	0x3cf0ce57	0.029395266
215	0xbca36390	-0.019944936
216	0xbbf42150	-0.00745026
217	0x3d4b33a1	0.049609784
218	0x3c8464b6	0.016161304
219	0xbcea231f	-0.0285812
220	0x39ac948b	0.0003291707
221	0xbd4a5a74	-0.04940267
222	0x3d77a18b	0.060456794
223	0xbaf96d5b	-0.0019029783
224	0x3d4f3c58	0.050594658
225	0x3d976c24	0.07393673
226	0x3d9c533d	0.07633064
227	0x3b8d5075	0.0043125697
228	0xbd3d4741	-0.04621053
229	0x3bbe3e4f	0.0058057676
230	0xbcb269e7	-0.021779014
231	0xbcfb7f7f	-0.030700443
232	0x3ceda8c2	0.029011134
233	0x3d539457	0.05165514
234	0xbb8b9131	-0.0042592515
235	0x3d24d87a	0.04024551
236	0xbbf9d1dc	-0.007623894
237	0xbd120e2f	-0.035658058
238	0xbd7613e3	-0.06007756
239	0x3cef2f0f	0.029197244
240	0x3d7b0e42	0.061292894
241	0xbc0cb6ac	-0.008588474
242	0x3e00ae75	0.1256655
243	0xbd153a40	-0.036432505
244	0x3b3ff6ba	0.0029291348
245	0x3d33e51d	0.04391967
246	0xbb720eb6	-0.0036935038
247	0xbd1a0f9b	-0.03761254
248	0x3ca488bb	0.02008473
249	0x3d3a8b5a	0.045543052
250	0x3d3ba505	0.04581167
251	0xbcef69e5	-0.0292253
252	0xbd86c391	-0.0658027
253	0x3bc3006e	0.005950979
254	0xbc0da826	-0.008646047
255	0x3d17789d	0.03698026

weight f4 [16]
0	0x3f80d19c	1.0063968
1	0x3f86b541	1.0524064
2	0x3f84486c	1.0334601
3	0x3f73ca70	0.9523077
4	0x3f868374	1.0508866
5	0x3f7f29d4	0.996732
6	0x3f833621	1.0250894
7	0x3f7a3ae7	0.9774613
8	0x3f7a07fd	0.9766844
9	0x3f745025	0.9543479
10	0x3f8271e1	1.0191003
11	0x3f79cbfb	0.97576874
12	0x3f7e6985	0.9937976
13	0x3f7dbe65	0.99118644
14	0x3f7d74cf	0.9900636
15	0x3f82653b	1.0187143

bias f4 [16]
0	0xbdc3688e	-0.095414266
1	0xbc8b3e77	-0.016997559
2	0x3c788c6e	0.0151702
3	0x3d857037	0.06515544
4	0xbd1eac22	-0.038738377
5	0x3d4fb4c5	0.050709505
6	0xbd1c9dd3	-0.03823645
7	0x3d7a51b4	0.061113074
8	0xbd8db71e	-0.069196925
9	0x3cdf0925	0.02722604
10	0xbc94639c	-0.018113904
11	0x3ce2e043	0.027694827
12	0xbd083b69	-0.033259783
13	0xbd522b01	-0.051310543
14	0x3d54ceea	0.05195514
15	0xbcefa6af	-0.029254286

running_mean f4 [16]
0	0xbdbb9e23	-0.091610216
1	0xbf294770	-0.6612463
2	0x3f1ffcf3	0.62495345
3	0x3e81336f	0.25234553
4	0xbe6d99e4	-0.23203236
5	0xbfd63982	-1.67363
6	0xbeb2856c	-0.34867418
7	0xc0007990	-2.0074196
8	0x3e3049ea	0.17215696
9	0x3e3d1b08	0.18467343
10	0x3cb3f5f7	0.021967871
11	0xbf16950f	-0.58821195
12	0xbf875dd5	-1.057551
13	0xbf85cfcb	-1.0454038
14	0xbec44c7d	-0.38339606
15	0x3eded29b	0.43520054

running_var f4 [16]
0	0x3f3d498a	0.73940337
1	0x3fbe84a4	1.4884229
2	0x3f3c3247	0.7351422
3	0x3f49dc0b	0.78851384
4	0x3fb64830	1.424078
5	0x40932c75	4.599177
6	0x3feb16d7	1.8366345
7	0x3f9aac16	1.2083766
8	0x3fd40aac	1.6565757
9	0x3ed53b17	0.41646644
10	0x3f5738d5	0.84071094
11	0x3ed820c7	0.42212507
12	0x40620353	3.531453
13	0x3f201bd4	0.6254246
14	0x4016dc7d	2.3572075
15	0x3f2f6b7f	0.685234

weight f4 [1, 16, 4, 5]
0	0x3c95317e	0.018212076
1	0xbd61df02	-0.055144317
2	0x3d2f08a2	0.042732842
3	0x3d531757	0.05153593
4	0x3c4862c6	0.012230581
5	0xbb99d41f	-0.0046944763
6	0xbd56a04c	-0.052398965
7	0x3d84f680	0.06492329
8	0x3d9b1b6e	0.07573591
9	0x3d384804	0.044990554
10	0x3b5c8ae6	0.0033652126
11	0xbd76ba41	-0.06023622
12	0x3ca275f3	0.019831633
13	0xbd14da76	-0.036341153
14	0xbd6a9a0e	-0.057275824
15	0x3d8ba43a	0.06818433
16	0xbc5e6e71	-0.013576136
17	0xbb09bcca	-0.0021017068
18	0xbacea665	-0.0015766142
19	0x3ca03de2	0.019560758
20	0xbca2a4d9	-0.019853996
21	0xbdaadf98	-0.083434284
22	0xbd253e99	-0.0403429
23	0x3c8f00ec	0.017456494
24	0x3cf7e212	0.030259166
25	0x3d96b915	0.0735952
26	0x3dfcaa35	0.12337152
27	0x3e1de1ec	0.15418214
28	0x3dca66e9	0.0988291
29	0x3db85242	0.090000644
30	0xbcd9f807	-0.026607526
31	0xbc34a23c	-0.011025008
32	0xbcba057b	-0.022707691
33	0x3d2a493b	0.041573744
34	0x3d812f90	0.063079
35	0x3ccd4da9	0.025061445
36	0xbd769944	-0.06020476
37	0xbc51cde1	-0.012805433
38	0x3ca8a893	0.020588195
39	0x3dbd051d	0.09229491
40	0xba5eca12	-0.0008498739
41	0x3cecc6e4	0.028903432
42	0x3d12cf4e	0.035842232
43	0xbcc9b88c	-0.024624132
44	0x3d0665e0	0.032812
45	0x3cab6fbb	0.0209273
46	0xbd162716	-0.03665837
47	0xbc68498a	-0.014177689
48	0xbdcc6702	-0.09980585
49	0xbd0cf634	-0.034414485
50	0xbcd1009b	-0.025512984
51	0x3d8e5841	0.06950427
52	0x3d179901	0.03701115
53	0x3d885e07	0.06658559
54	0x3e03c64b	0.12868612
55	0xbd9f4f7f	-0.077788346
56	0xbd26bdee	-0.040708475
57	0xbdad4d53	-0.08462014
58	0xbcc2573c	-0.023723237
59	0xbb13a3d2	-0.0022528064
60	0xbd0769fe	-0.033060066
61	0xbd0ef967	-0.034905817
62	0xbd11e1dc	-0.035615787
63	0x3c2340b7	0.00996416
64	0xbbd027a0	-0.00635238
65	0x3d7bb9cf	0.061456498
66	0xbd0e7c17	-0.03478631
67	0x3c7f8605	0.015595918
68	0xbcca0435	-0.02466021
69	0x3d458ec2	0.048231848
70	0xbd87a14d	-0.066225626
71	0xbd6b389a	-0.057427026
72	0xbd2a25f9	-0.04154012
73	0x3ce88965	0.028385827
74	0xbbfc81d5	-0.007705907
75	0x3c882750	0.016620308
76	0xbbfa7d8e	-0.007644362
77	0xbce90e02	-0.028449062
78	0x3d01e9a2	0.03171695
79	0x3d0ed23e	0.03486847
80	0x3d15e9ab	0.036599796
81	0x3dce32d1	0.10068286
82	0x3da75ae7	0.08171635
83	0x3ded5110	0.11587727
84	0x3d1f9cd5	0.038967926
85	0xbcdcc982	-0.026951555
86	0xbd6a6102	-0.05722142
87	0x3d11c89e	0.035591714
88	0x3d0a2f0f	0.033736285
89	0xba3bfdd3	-0.00071713066
90	0xbd145675	-0.036215264
91	0x3bfcf617	0.007719766
92	0xbcbf818d	-0.023377204
93	0x3d8cef22	0.068815485
94	0x3d019cc2	0.031643637
95	0xbd9a9d01	-0.07549477
96	0xbc15f9b8	-0.009153776
97	0xbd24de2a	-0.040250935
98	0xbd81727f	-0.063206665
99	0xbc53c0f9	-0.012924426
100	0xbbcadbc6	-0.00619075
101	0xbc0b9a9a	-0.008520747
102	0xbb230f77	-0.0024881044
103	0xbd6e5839	-0.058189604
104	0xbd9246c8	-0.07142407
105	0x3cd23710	0.025661021
106	0x3d4e9723	0.050437104
107	0x3d1b95b7	0.037984576
108	0x3da99e35	0.08282129
109	0xbcda6999	-0.026661681
110	0x3d6d5cbf	0.057949778
111	0xbd20f638	-0.039297312
112	0x3d28d975	0.04122301
113	0x3cc9a488	0.024614587
114	0x3d0b3680	0.033987522
115	0x3c6e7c5b	0.014556016
116	0xbd20ea32	-0.039285846
117	0x3d80ae38	0.062832296
118	0x3adceef3	0.001685588
119	0xbd1e6444	-0.03866984
120	0x3cc806d6	0.024417322
121	0x3d82aee5	0.06381015
122	0x3e05fd35	0.13084872
123	0x3ca5ddac	0.020247303
124	0x3bb8425f	0.0056231464
125	0xbdd0f787	-0.10203462
126	0xbced2aef	-0.028951136
127	0xbc9a90e6	-0.018867921
128	0xbc782ba9	-0.015147128
129	0x3bc81a11	0.006106623
130	0xbd18ee9b	-0.037336927
131	0xbcb0bc12	-0.021574054
132	0x3ccbc7bd	0.024875516
133	0xbceec246	-0.029145371
134	0x3c791a7c	0.015204068
135	0xbc92af79	-0.017905938
136	0xbcd93522	-0.026514594
137	0xbd96d5d9	-0.07365007
138	0x3cb3a813	0.02193073
139	0xbd38d03b	-0.04512046
140	0x3c39e580	0.011346221
141	0x3d7022f0	0.05862707
142	0xbd464972	-0.048409887
143	0xbd04636f	-0.03232139
144	0xbd1131e4	-0.03544797
145	0xbd5c3642	-0.05376268
146	0xbc184299	-0.009293222
147	0x3dac1211	0.084018834
148	0xbc847049	-0.016166823
149	0x3d3b085e	0.045662276
150	0xbc64023e	-0.01391655
151	0x3c843844	0.01614011
152	0x3ca148c9	0.019688027
153	0xbd152af2	-0.03641791
154	0xbd8e91a8	-0.069613755
155	0x3d48a451	0.04898483
156	0x3d883d05	0.066522636
157	0x3d589776	0.05287882
158	0x3ce94ed9	0.02847998
159	0xbd5620c7	-0.052277353
160	0xbbe0d771	-0.00686162
161	0x3c5c552f	0.013448044
162	0xbd632818	-0.05545816
163	0xbd50b508	-0.050953895
164	0xbce2e990	-0.027699262
165	0xbce295eb	-0.027659377
166	0xbd6565af	-0.056005176
167	0x3c4ac651	0.012376384
168	0xbce7e316	-0.028306525
169	0x3da31ed8	0.07964867
170	0x3d8382c1	0.06421424
171	0x3d8f5970	0.06999481
172	0x3c144461	0.009049506
173	0x3d1d5f20	0.038420796
174	0x3d654def	0.055982526
175	0xbcc6a8b8	-0.024250373
176	0x3b554354	0.0032541351
177	0x3cd96c07	0.02654077
178	0x3ca00d90	0.019537717
179	0xbdcdb1ac	-0.10043654
180	0xbc916ea1	-0.017752947
181	0xbc779dbc	-0.01511329
182	0xbd2d9924	-0.042382374
183	0xbd27c0a3	-0.040955197
184	0xbc899763	-0.01679582
185	0x3d03f227	0.032213356
186	0x3cbb9ed4	0.022902884
187	0x3d5a22d9	0.05325589
188	0x3d0c32a0	0.034227967
189	0x3a981b12	0.0011604747
190	0xbcc504c3	-0.024050122
191	0x3ab3db74	0.0013722018
192	0x3d2faded	0.042890478
193	0x3d7bd608	0.061483413
194	0xbcdc0df7	-0.026862128
195	0xbd3830ca	-0.044968404
196	0xbbda9b35	-0.006671334
197	0x3bc52dd1	0.0060174246
198	0xbc0e2d6c	-0.008677822
199	0x3d1a67b5	0.03769656
200	0xbdf9ba97	-0.12193792
201	0xbc4d28f5	-0.012521972
202	0xbbbc6bec	-0.00575017
203	0x3c5ebf30	0.013595387
204	0x3d6aa92d	0.057290245
205	0x3c6ae826	0.014337575
206	0x3ba015f1	0.004885428
207	0xbc29b186	-0.010357266
208	0x3ceab1dd	0.028649265
209	0x3d50e863	0.05100287
210	0x3cc87b83	0.024472957
211	0xbca02b79	-0.01955198
212	0x3d72a1a7	0.059236195
213	0xbabe8ce6	-0.0014537841
214	0x3cf948cf	0.030430226
215	0xbbc32b91	-0.0059561213
216	0x3d0353bc	0.032062277
217	0x3d3c2052	0.04592926
218	0xbd34e06e	-0.044159345
219	0xbd31f554	-0.043446854
220	0xbab0b58b	-0.0013481838
221	0xbd2b1f8a	-0.041778125
222	0xbcbd1503	-0.023081308
223	0xbd7e6b68	-0.06211415
224	0x3cafe2fb	0.021470537
225	0x3ba4d33a	0.005030063
226	0xbc5934da	-0.01325723
227	0x3d5f0567	0.05444851
228	0x3d0457de	0.03231036
229	0x3d73596f	0.059411462
230	0x3d4ad8d0	0.049523175
231	0x3d3ec7cf	0.04657727
232	0x3d49ced6	0.04926952
233	0x3b10c060	0.002208732
234	0x3bdb7453	0.0066972165
235	0xbdaa9a47	-0.08330207
236	0xbd5e1d96	-0.054227434
237	0xbcb68b89	-0.022283332
238	0x3bc12ea6	0.0058954535
239	0xbc3efeef	-0.011657461
240	0x3cd162b7	0.025559766
241	0xbd273905	-0.040825862
242	0xbd4f8ece	-0.0506733
243	0x3d4fb8aa	0.05071322
244	0x3d3d4027	0.04620376
245	0x3d17f58a	0.0370994
246	0x3d91b54e	0.07114659
247	0x3c85120b	0.016243955
248	0x3d5b0fbd	0.053481806
249	0xbd3ca0a1	-0.046051625
250	0xbb2d1995	-0.0026412953
251	0xbc834040	-0.016021848
252	0x3d4ef696	0.05052813
253	0xbd84e401	-0.06488801
254	0xbd98ad95	-0.07454983
255	0xbd7368e4	-0.059426203
