source/models/SingleNoteTimbreCNNSmall/model_64_20_0.002_smalltest.pth (torch, 58207 bytes, 21 tensors)

weight f4 [8, 1, 3, 3]
0.19651563 -0.30818862 0.10080374 0.010333723 0.0751464 0.09826378 0.13689524 -0.19575241
-0.25553527 -0.2425454 0.29351372 0.1022258 0.20110717 -0.0010571183 0.06753976 -0.19085126
0.009113999 0.2973956 -0.018268384 -0.20784256 -0.26095968 -0.07394181 -0.30355483 -0.2732267
0.17203858 -0.02920179 -0.08974062 -0.29753852 -0.23955745 -0.26249543 0.33246544 0.15631215
-0.2255814 -0.08378195 0.28919083 0.10257813 -0.25996268 0.18061903 0.05403281 -0.21455885
0.15065694 0.28115025 -0.20629032 0.16865437 -0.030580306 0.34328216 -0.22140041 0.24128997
-0.33874768 -0.2827158 0.09585809 -0.2041643 0.012837915 -0.25374708 -0.16036521 -0.23637745
-0.3175805 0.21413216 -0.22456694 -0.022503309 0.018897064 -0.22325896 0.26992485 0.15396215
-0.07506789 -0.17469032 -0.24430867 -0.36376655 -0.2333129 -0.28984436 0.12957056 -0.08485966
00000000: 653b 493e e6ca 9dbe 3172 ce3d c74e 293c
00000010: 5be6 993d 853e c93d 442e 0c3e 5273 48be
00000020: 85d5 82be d25d 78be 6e47 963e c35b d13d
00000030: 0aef 4d3e 018f 8aba 4952 8a3d 836e 43be
00000040: e252 153c 3c44 983e 94a7 95bc aed4 54be
00000050: 829c 85be ce6e 97bd 8a6b 9bbe 5fe4 8bbe
00000060: e22a 303e 9838 efbc eec9 b7bd f856 98be
00000070: 8c4e 75be cd65 86be e938 aa3e 4b10 203e
00000080: cffe 66be df95 abbd d210 943e 7c14 d23d
00000090: d419 85be 32f4 383e 8251 5d3d 51b5 5bbe
000000a0: d045 1a3e edf2 8f3e c53d 53be bbb3 2c3e
000000b0: 8d83 fabc aec2 af3e cab6 62be b814 773e
000000c0: 5670 adbe 20c0 90be 3f51 c43d 7210 51be
000000d0: 1e56 523c 23eb 81be c736 24be ee0c 72be
000000e0: e999 a2be 7645 5b3e e0f4 65be dc58 b8bc
000000f0: 04ce 9a3c ff9d 64be 9733 8a3e 41a8 1d3e
00000100: 32bd 99bd 05e2 32be 0d2c 7abe 9c3f babe
00000110: 94e9 6ebe 7b66 94be 25ae 043e e7ca adbd

weight f4 [8]
0.98453087 0.9710466 0.9646921 1.0128981 1.0618923 0.9813625 0.98839706 0.9811921
00000000: 370a 7c3f 8396 783f 10f6 763f a5a6 813f
00000010: 16ec 873f 933a 7b3f 9707 7d3f 682f 7b3f

bias f4 [8]
-0.058458272 -0.07121618 0.0683342 -0.01293398 -0.09929933 0.02186998 0.0024931445 -0.051314503
00000000: f171 6fbd cad9 91bd cdf2 8b3d 0be9 53bc
00000010: 725d cbbd ac28 b33c 0664 233b 282f 52bd

running_mean f4 [8]
-0.00070096843 0.0051555512 -0.009820734 -0.0062176688 0.003491753 0.00042941805 -0.0066782874 -0.0063579925
00000000: 32c1 37ba e6ef a83b 25e7 20bc 96bd cbbb
00000010: e5d5 643b 8423 e139 89d5 dabb b556 d0bb

running_var f4 [8]
0.036681026 0.28462848 1.1595576 0.123978674 0.034485903 0.39786735 0.49918446 1.3209677
00000000: d83e 163d d3ba 913e 626c 943f 88e8 fd3d
00000010: 1741 0d3d 45b5 cb3e 1b95 ff3e 7815 a93f

weight f4 [16, 8, 3, 3]
-0.16071635 0.107924186 0.024555791 -0.012988344 -0.011334805 -0.049497984 0.04950643 0.12460374
-0.068324596 -0.110147975 0.019922165 0.05794964 0.06672293 -0.010976118 -0.004887548 0.014492831
-0.07314929 -0.07723976 0.07228292 -0.039816808 0.025212485 -0.11794986 -0.0103331525 -0.10727349
0.12217992 0.10144086 0.056240764 0.12394876 0.05659368 0.06279549 -0.02814517 0.038505144
0.0568487 -0.13541529 -0.06505097 0.018202558 0.05634003 0.04469454 -0.13277885 -0.032223757
-0.08414487 0.15055989 -0.068916 0.04380135 0.12235144 0.057419624 0.1039027 -0.08483031
-0.109119534 0.058429692 -0.13840567 -0.0423011 0.06745148 0.112156525 0.09648603 0.0548105
-0.026986178 -0.038438693 0.0036438128 -0.08294232 -0.114656664 0.113927595 -0.062271237 -0.011941814
0.070999496 -0.030687733 -0.07061776 -0.10560868 0.078465015 0.10861228 -0.03456556 0.048395008
-0.08340288 0.0101155965 -0.010169849 0.052248653 -0.067109525 0.100266896 -0.06654114 -0.00054286746
-0.09173516 0.09132327 0.038589764 0.11050503 -0.0015963619 -0.09602765 0.03753221 0.0095611205
0.00085331267 0.012308585 -0.011214621 0.07564918 -0.078573935 0.031266164 0.08007977 0.10268879
0.014854778 -0.09425202 -0.08434877 0.085823245 -0.074889936 0.12890403 0.13818054 -0.10972988
0.048096444 -0.06652088 0.11920104 0.1271213 0.13540427 -0.077670604 0.077729 -0.054643158
-0.103627905 0.11100196 -0.071319014 -0.078682914 0.0925397 0.018641278 0.043535683 0.032638814
-0.018597046 0.0058802953 -0.06286854 -0.10137609 0.06977802 0.05227738 0.04175719 0.014772
0.07450783 -0.118651144 -0.017280843 -0.023686865 0.09774224 -0.019517852 -0.062247597 -0.001501261
-0.00027438792 -0.0032129474 -0.07109937 -0.06912507 0.032330416 -0.09504212 -0.12607957 -0.14520824
-0.102894336 0.09987516 0.06425797 -0.09233353 0.031381506 0.09542757 0.043887638 0.004335283
0.08467145 0.0028059569 -0.07067604 0.022354748 0.073986344 -0.071044356 -0.10683535 -0.09334014
0.08930554 -0.041587997 0.026132701 -0.08759958 -0.09031445 -0.09117325 0.01234682 -0.11128996
-0.026819106 -0.15004644 0.03669465 0.01880067 0.02339116 -0.013120859 0.07924783 -0.035389498
0.028737098 0.09253209 -0.07657753 0.16268592 -0.023940396 -0.08719477 -0.103672795 0.12215015
-0.00478753 -0.03712876 -0.024323856 -0.011869319 -0.053804915 -0.058696203 -0.07942179 -0.15503314
0.04471125 0.109926865 0.0069952672 0.0142335715 -0.005860004 -0.035282034 -0.13192248 -0.023369312
-0.15812382 -0.09696152 -0.062385686 -0.099949725 0.12841205 -0.041854244 -0.0072558657 0.06537485
-0.055256575 -0.021624332 -0.13067243 0.062045496 0.025482163 -0.02233302 -0.048073057 -0.11986571
0.089557685 -0.032447394 -0.11653707 0.10781973 0.078355394 0.015593057 -0.10145664 -0.0025234083
-0.1006833 -0.044108585 -0.051076807 0.044881888 0.100354396 0.009183549 0.019275263 0.056869406
-0.02844429 -0.060879584 0.08859633 -0.09891895 0.094637744 0.08987294 -0.03836522 0.06598774
0.10973052 0.018656846 0.089373946 -0.15218864 -0.113204 0.04202299 -0.06813623 -0.04795558
-0.10298923 -0.055275578 -0.027372282 -0.01567435 -0.016206428 0.074968114 0.06364155 -0.04536798
00000000: d492 24be 5b07 dd3d 3a29 c93c 10cd 54bc
00000010: 9eb5 39bc 66be 4abd 41c7 4a3d 3f30 ff3d
00000020: c4ed 8bbd 4395 e1bd cf33 a33c 9a5c 6d3d
00000030: 08a6 883d 2dd5 33bc b927 a0bb 5773 6d3c
00000040: 4ccf 95bd e12f 9ebd 1109 943d f316 23bd
00000050: 6a8a ce3c b28f f1bd 624c 29bc 34b2 dbbd
00000060: 7739 fa3d 3ac0 cf3d b75c 663d d9d8 fd3d
00000070: c6ce 673d ec9a 803d b390 e6bc 92b7 1d3d
00000080: 2fda 683d 4eaa 0abe 7139 85bd 881d 953c
00000090: cec4 663d 9f11 373d 2ef7 07be 0ffd 03bd
000000a0: 2554 acbd 5f2c 1a3e d523 8dbd 0b69 333d
000000b0: 6493 fa3d d730 6b3d f0ca d43d 83bb adbd
000000c0: 107a dfbd f953 6f3d 37ba 0dbe eb43 2dbd
000000d0: 0024 8a3d 52b2 e53d 789a c53d fa80 603d
000000e0: 1e12 ddbc e471 1dbd 09cd 6e3b aadd a9bd
000000f0: 1dd1 eabd df52 e93d 2010 7fbd 99a7 43bc
00000100: 2f68 913d d764 fbbc 0ba0 90bd 5d49 d8bd
00000110: 44b2 a03d 1d70 de3d 9e94 0dbd d839 463d
00000120: 21cf aabd e3bb 253c 709f 26bc af02 563d
00000130: b870 89bd bb58 cd3d b946 88bd 384f 0eba
00000140: a5df bbbd b207 bb3d 4d10 1e3d 7650 e23d
00000150: 043d d1ba 25aa c4bd 60bb 193d 3fa6 1c3c
00000160: d8b0 5f3a f3a9 493c 88bd 37bc f5ed 9a3d
00000170: 5feb a0bd f310 003d dd00 a43d 804e d23d
00000180: 7461 733c 3407 c1bd 0cbf acbd 19c4 af3d
00000190: e55f 99bd 6bff 033e 337f 0d3e 0fba e0bd
000001a0: c700 453d 193c 88bd ad1f f43d 162c 023e
000001b0: 6ba7 0a3e c411 9fbd 6230 9f3d 81d1 5fbd
000001c0: de3a d4bd ff54 e33d b40f 92bd 8224 a1bd
000001d0: 7485 bd3d 98b5 983c 7952 323d 47b0 053d
000001e0: d558 98bc 7eaf c03b 39c1 80bd 449e cfbd
000001f0: c7e7 8e3d ce20 563d 9609 2b3d 4206 723c
00000200: 9097 983d 5fff f2bd 8e90 8dbc f50a c2bc
00000210: 152d c83d e7e3 9fbc 56f7 7ebd f6c5 c4ba
00000220: b9db 8fb9 5090 52bb 8c9c 91bd 7291 8dbd
00000230: e66c 043d 71a5 c2bd 011b 01be 78b1 14be
00000240: 44ba d2bd 598b cc3d af99 833d 5d19 bdbd
00000250: e589 003d 886f c33d 86c3 333d fd0e 8e3b
00000260: 3a68 ad3d 25e4 373b 9abe 90bd 4e21 b73c
00000270: 2786 973d b47f 91bd 7ecc dabd 1e29 bfbd
00000280: d3e5 b63d 2d58 2abd 3f14 d63c 6967 b3bd
00000290: c8f6 b8bd 0ab9 babd 514a 4a3c feeb e3bd
000002a0: beb3 dbbc c6a5 19be 214d 163d dd03 9a3c
000002b0: d19e bf3c dff8 56bc b04c a23d 94f4 10bd
000002c0: 106a eb3c 7781 bd3d aed4 9cbd 2397 263e
000002d0: a61e c4bc 2c93 b2bd 6752 d4bd dc29 fa3d
000002e0: b6e0 9cbb 5414 18bd d342 c7bc 8877 42bc
000002f0: 8b62 5cbd 6e6b 70bd e4a7 a2bd 02c1 1ebe
00000300: 2523 373d 5621 e13d 8e38 e53b ed33 693c
00000310: 4705 c0bb e583 10bd b016 07be 0071 bfbc
00000320: 36eb 21be c393 c6bd 2288 7fbd 71b2 ccbd
00000330: 737e 033e 5b6f 2bbd 9dc2 edbb 40e3 853d
00000340: b854 62bd 8325 b1bc fece 05be 6b23 7e3d
00000350: f8bf d03c bdf3 b6bc 41e8 44bd 277c f5bd
00000360: 056a b73d 8fe7 04bd fdaa eebd 97d0 dc3d
00000370: cb78 a03d 057a 7f3c 80c8 cfbd c45f 25bb
00000380: 0c33 cebd 34ab 34bd ea35 51bd 12d6 373d
00000390: 9b86 cd3d 9976 163c 28e7 9d3c e5ef 683d
000003a0: 0004 e9bc df5c 79bd fe71 b53d 0596 cabd
000003b0: 6fd1 c13d 4e0f b83d d924 1dbd 9524 873d
000003c0: 65ba e03d 3ed6 983c b009 b73d 57d7 1bbe
000003d0: 80d7 e7bd 4c20 2c3d 028b 8bbd 126d 44bd
000003e0: 04ec d2bd a568 62bd d63b e0bc 7f67 80bc
000003f0: 58c3 84bc e288 993d 8056 823d c6d3 39bd

weight f4 [16]
1.0255421 0.9683384 1.0075636 1.0465436 0.958993 1.0403692 1.0165279 0.9995666
0.96462417 1.0029365 0.96579474 1.0663638 0.98558325 1.0131553 0.9926958 1.037186
00000000: f744 833f 06e5 773f d8f7 803f 24f5 853f
00000010: 9180 753f d12a 853f 961d 823f 99e3 7f3f
00000020: 9cf1 763f 3960 803f 533e 773f 9c7e 883f
00000030: 2f4f 7c3f 13af 813f 5021 7e3f 83c2 843f

bias f4 [16]
0.056682583 0.0115630375 -0.008091582 0.00499479 0.006038893 -0.059037324 0.031890057 0.005560954
-0.021830736 -0.034640044 0.05255353 0.03996326 -0.09071468 0.045844894 -0.017457653 -0.010361704
00000000: ff2b 683d e572 3d3c 8e92 04bc 56ab a33b
00000010: e8e1 c53b 1fd1 71bd 269f 023d aa38 b63b
00000020: 5fd6 b2bc b8e2 0dbd 5f42 573d 84b0 233d
00000030: 9ec8 b9bd dbc7 3b3d 5a03 8fbc 23c4 29bc

running_mean f4 [16]
0.11863172 0.09120338 -0.552667 0.5955996 -0.11223729 -0.534599 0.16146195 -0.08621698
-0.42550588 -0.053828213 -0.39105725 -0.70697665 -0.23697552 -0.68865436 0.5699834 0.3620234
00000000: 30f5 f23d d6c8 ba3d 967b 0dbf 3779 183f
00000010: aadc e5bd 7bdb 08bf 4856 253e 8792 b0bd
00000020: e8db d9be f97a 5cbd a838 c8be 6cfc 34bf
00000030: b6a9 72be a74b 30bf 6fea 113f 225b b93e

running_var f4 [16]
0.076378934 0.099979796 0.10952948 0.20949416 0.04168354 0.2521595 0.266854 0.1295013
0.29500762 0.06564304 0.13716519 0.13075896 0.08615051 0.094684385 0.7835035 0.36113888
00000000: 8f6c 9c3d 35c2 cc3d fe50 e03d a385 563e
00000010: 5cbc 2a3d 0d1b 813e 16a1 883e fd9b 043e
00000020: 3d0b 973e dc6f 863d 0875 0c3e ade5 053e
00000030: ae6f b03d e3e9 c13d af93 483f 32e7 b83e

weight f4 [32, 16, 3, 3]
-0.062027816 -0.09287115 -0.05415021 0.018474467 -0.07631095 0.00547218 0.050077572 -0.02470673
-0.04878394 0.009549064 -0.010799906 0.026948135 0.057130765 0.051946558 -0.059100833 -0.025177449
-0.05508662 -0.016066238 0.0039616437 -0.078099675 -0.09096214 -0.008710473 0.019406777 -0.10712616
-0.0068392046 -0.107558794 -0.07472841 -0.005067401 0.0081499675 0.03758768 -0.014524539 0.02668808
0.02906484 0.050472576 0.08761054 0.12559846 -0.018000135 -0.08652519 -0.001427453 0.018466134
0.055894043 -0.031965215 0.0034460153 0.028776916 0.020329887 0.037257764 -0.010955734 -0.0030514926
-0.020141643 -0.025519805 -0.039862666 0.0006471506 -0.09053396 0.016075997 -0.048033874 -0.053449746
0.022361828 0.008646135 0.013639616 0.08138742 0.0042917873 -0.007940101 0.07588788 -0.09075661
-0.15078297 -0.0101919845 -0.009635568 0.06962765 0.03844172 0.074013576 0.023402631 -0.08565354
-0.017421959 -0.05892484 0.0657747 0.033963166 0.07589308 0.054773748 -0.042968974 0.05482509
0.013889156 -0.087110154 -0.001791049 -0.069748305 -0.07479042 -0.045917105 0.01934242 0.01707233
0.060092226 0.08302127 -0.0048197517 0.06626044 0.04929933 0.051006302 0.13043061 0.09717799
-0.03189469 0.015090198 0.036172055 0.11905966 0.10106968 -0.019838406 -0.06357509 -0.03052346
-0.07085027 -0.0005742482 -0.027390629 -0.054872345 -0.048687223 -0.06874542 -0.043278083 -0.09994157
-0.036718912 -0.032631747 -0.064887695 -0.008835434 -0.09331541 0.08717374 0.06264341 0.09387256
0.03964438 0.076686 0.07537986 -0.10994594 0.01331755 -0.07387716 0.009552448 0.009193321
0.0692286 -0.02246748 0.058614623 0.087040305 0.024423145 0.11611086 0.07647686 0.032763053
0.020140985 -0.038496695 -0.03644839 -0.067011625 0.026952997 0.09915134 -0.048448406 0.03688521
0.10976859 -0.017355818 0.08876417 0.09079097 0.09457132 -0.079131946 0.06452263 0.05783489
-0.086590305 0.0724546 0.009157285 0.064038195 0.034247722 -0.075872235 -0.03421127 -0.10179843
0.023532128 -0.1037021 -0.060513515 -0.04191781 -0.078742065 0.058587324 -0.016635176 -0.0085558435
0.0024513837 -0.0752283 -0.07217508 -0.0045266096 0.024348907 0.08121203 0.15829152 0.11947526
0.106376424 0.08813492 0.05081227 -0.0992503 0.058530826 0.12253111 0.0019744886 -0.040726513
-0.058749095 0.08034384 0.027510734 0.0052762562 0.02198885 -0.004383247 -0.08479191 0.026635097
-0.0010181051 0.029956127 0.08574614 0.0870286 0.04205405 0.051460907 0.024893021 0.08578093
-0.038172126 -0.015764648 -0.05158915 -0.021675114 0.022201527 0.0034440483 -0.036082394 0.017120568
-0.016250376 -0.058384348 0.071150064 -0.021053681 0.12843315 0.066798374 -0.028069938 -0.13893747
-0.06551527 0.075653866 -0.028139122 0.028373063 -0.026277652 -0.09011723 0.0626878 -0.05864666
-0.06844936 -0.092927195 0.094246365 -0.048458908 0.097903214 0.06447852 0.09537423 0.0073930854
0.07346776 -0.013247967 0.027565226 0.015451999 -0.013549208 -0.049930103 -0.024594469 0.0084985625
0.02044638 -0.099652946 -0.0040786695 0.014502606 -0.06991583 -0.074469596 -0.087297685 0.031206055
-0.03953964 -0.039537054 -0.03754761 -0.0010407842 -0.03602281 -0.0478557 -0.04644864 0.009102644
00000000: e110 7ebd 3b33 bebd 9ccc 5dbd c457 973c
00000010: ea48 9cbd f94f b33b 241e 4d3d c565 cabc
00000020: abd1 47bd ad73 1c3c 17f2 30bc 56c2 dc3c
00000030: f301 6a3d eac5 543d b713 72bd f040 cebc
00000040: 82a2 61bd 589d 83bc add0 813b b9f2 9fbd
00000050: 5c4a babd 5fb6 0ebc f6fa 9e3c f664 dbbd
00000060: 681b e0bb c947 dcbd 350b 99bd 710c a6bb
00000070: 7187 053c 8af5 193d 55f8 6dbc f6a0 da3c
00000080: 6319 ee3c 55bc 4e3d 286d b33d e29c 003e
00000090: 0575 93bc 1e34 b1bd 6019 bbba 4a46 973c
000000a0: 27f1 643d f5ed 02bd 8bd6 613b 91bd eb3c
000000b0: dd8a a63c 999b 183d ae7f 33bc 8dfb 47bb
000000c0: 1600 a5bc e90e d1bc 0947 23bd 8ba5 293a
000000d0: de69 b9bd cfb1 833c 2bbf 44bd 1fee 5abd
000000e0: 2730 b73c 85a8 0d3c b278 5f3c 73ae a63d
000000f0: 1fa2 8c3b 3317 02bc 1b6b 9b3d 9ade b9bd
00000100: da66 1abe 48fc 26bc 80de 1dbc f198 8e3d
00000110: 1175 1d3d 6e94 973d e0b6 bf3c 206b afbd
00000120: 7fb8 8ebc 2c5b 71bd e3b4 863d f61c 0b3d
00000130: d56d 9b3d 705a 603d 3c00 30bd 4690 603d
00000140: 588f 633c cf66 b2bd a2c1 eaba 33d8 8ebd
00000150: b82b 99bd 9313 3cbd ff73 9e3c 45db 8b3c
00000160: 4423 763d 0e07 aa3d 02ef 9dbb 8eb3 873d
00000170: 18ee 493d fceb 503d 9a8f 053e 4105 c73d
00000180: 02a4 02bd e13c 773c 2629 143d 8dd5 f33d
00000190: 9ffd ce3d 2784 a2bc a833 82bd 560c fabc
000001a0: f219 91bd 2589 16ba 5062 e0bc d3c1 60bd
000001b0: 416c 47bd 66ca 8cbd 5c44 31bd 2aae ccbd
000001c0: 9266 16bd dea8 05bd d7e3 84bd 7fc2 10bc
000001d0: 261c bfbd 2588 b23d 304b 803d 4240 c03d
000001e0: 2562 223d 8d0d 9d3d c260 9a3d 562b e1bd
000001f0: da31 5a3c e94c 97bd df81 1c3c 959f 163c
00000200: b9c7 8d3d b80d b8bc e315 703d 3042 b23d
00000210: 0c13 c83c 88cb ed3d e69f 9c3d 8d32 063d
00000220: b5fe a43c b6ae 1dbd e84a 15bd 643d 89bd
00000230: 88cc dc3c dc0f cb3d d671 46bd f214 173d
00000240: 5bce e03d ca2d 8ebc fdc9 b53d 9ef0 b93d
00000250: 9cae c13d ee0f a2bd 7124 843d 47e4 6c3d
00000260: 4256 b1bd 1463 943d 7008 163c 7526 833d
00000270: 5747 0c3d e762 9bbd 1e21 0cbd b27b d0bd
00000280: 73c6 c03c c461 d4bd 05dd 77bd 02b2 2bbd
00000290: 8543 a1bd 43f9 6f3d 7e46 88bc cf2d 0cbc
000002a0: 65a7 203b 4c11 9abd 87d0 93bd f453 94bb
000002b0: 5c77 c73c 7e52 a63d 2c17 223e 72af f43d
000002c0: e2db d93d 1580 b43d 8720 503d be43 cbbd
000002d0: 05be 6f3d 97f1 fa3d 6c66 013b d8d0 26bd
000002e0: e4a2 70bd 508b a43d 315e e13c 72e4 ac3b
000002f0: f621 b43c 57a1 8fbb 62a7 adbd d931 da3c
00000300: f071 85ba 8d66 f53c ac9b af3d 0d3c b23d
00000310: de40 2c3d acc8 523d 73ec cb3c eaad af3d
00000320: 605a 1cbd dd24 81bc 254f 53bd 0290 b1bc
00000330: fadf b53c 8bb5 613b 22cb 13bd 6f40 8c3c
00000340: 821f 85bc 6d24 6fbd 20b7 913d c578 acbc
00000350: fb83 033e 96cd 883d edf2 e5bc a045 0ebe
00000360: df2c 86bd 6af0 9a3d 0484 e6bc a06e e83c
00000370: 3b44 d7bc 628f b8bd 7662 803d 7b37 70bd
00000380: 2e2f 8cbd 9d50 bebd 3d04 c13d d97c 46bd
00000390: 7b81 c83d 500d 843d 9053 c33d b241 f23b
000003a0: 4476 963d 000e 59bc 78d0 e13c 622a 7d3c
000003b0: 7ffd 5dbc 8283 4cbd 577a c9bc 8e3d 0b3c
000003c0: 2b7f a73c d816 ccbd 5ca6 85bb 579c 6d3c
000003d0: 0830 8fbd 8483 98bd 21c9 b2bd d7a3 ff3c
000003e0: 51f4 21bd 9bf1 21bd 86cb 19bd ec6a 88ba
000003f0: a78c 13bd 5704 44bd ee40 3ebd 4223 153c

weight f4 [32]
1.0165659 1.0024846 1.0148482 1.0280862 1.0233915 0.96858 0.994724 1.0292422
0.9956339 0.9963684 1.0095885 1.0017085 1.0072123 0.96936214 1.0286537 0.99439496
0.99966174 1.0304625 1.04003 0.9837722 0.9846012 0.9330535 1.0145297 1.0164272
0.98082167 0.9902934 1.0362772 0.9835096 0.96848315 0.95464563 1.060175 0.97218835
00000000: d51e 823f 6a51 803f 8ce6 813f 5498 833f
00000010: 7efe 823f dcf4 773f 3ba6 7e3f 35be 833f
00000020: dde1 7e3f 0012 7f3f 323a 813f fc37 803f
00000030: 55ec 803f 1e28 783f edaa 833f ab90 7e3f
00000040: d5e9 7f3f 32e6 833f b41f 853f 7fd8 7b3f
00000050: d30e 7c3f 98dc 6e3f 1cdc 813f 491a 823f
00000060: 2117 7b3f de83 7d3f bba4 843f 49c7 7b3f
00000070: 83ee 773f a863 743f d0b3 873f 56e1 783f

bias f4 [32]
0.055653527 -0.03710556 0.0024119143 -0.042805005 -0.037241254 -0.04595252 0.11100024 -0.090578854
-0.013829854 -0.08319593 -0.06822597 -0.12542152 -0.043936267 -0.06219794 -0.026204944 0.025283894
0.016407764 -0.020040989 -0.027669715 -0.010882361 -0.04586388 -0.03254806 -0.027655985 -0.12494696
-0.03858613 -0.018326141 -0.073505394 -0.02141124 0.011840912 0.042126894 -0.11421648 -0.0050539006
00000000: f4f4 633d 00fc 17bd 3511 1e3b 4d54 2fbd
00000010: 498a 18bd b638 3cbd 1854 e33d 6881 b9bd
00000020: 9d96 62bc a162 aabd 0fba 8bbd 806e 00be
00000030: 84f6 33bd 44c3 7ebd c0ab d6bc 2b20 cf3c
00000040: 9369 863c 002d a4bc 99ab e2bc ee4b 32bc
00000050: c4db 3bbd 1d51 05bd ce8e e2bc 31e4 ffbd
00000060: 7d0c 1ebd b420 96bc ff89 96bd a066 afbc
00000070: 6200 423c 408d 2c3d 54ea e9bd 319b a5bb

running_mean f4 [32]
-0.099260636 0.81109035 0.5847031 -0.51246583 -0.5148795 -0.29847556 -0.49134174 -1.0864072
-0.6938248 -0.71298313 0.97650075 1.0701588 -1.4368572 -0.16036643 0.11003296 -0.25257185
-0.27293453 -0.34210396 -1.5713357 0.32597536 0.351206 1.0913335 -1.9509478 0.5483646
0.22962458 -0.11696815 0.98544127 -0.551922 0.55751306 -0.00751147 0.46938595 -0.11203848
00000000: 2949 cbbd 9ea3 4f3f 1aaf 153f f630 03bf
00000010: 25cf 03bf cad1 98be 2591 fbbe 640f 8bbf
00000020: 819e 31bf 1086 36bf f4fb 793f f7fa 883f
00000030: f0ea b7bf 1937 24be f658 e13d 1951 81be
00000040: 13be 8bbe 4028 afbe 8721 c9bf 3ee6 a63e
00000050: 46d1 b33e d1b0 8b3f a8b8 f9bf 9f61 0c3f
00000060: b522 6b3e ff8c efbd e145 7c3f c34a 0dbf
00000070: 2db9 0e3f c722 f6bb 5b53 f03e 6e74 e5bd

running_var f4 [32]
0.44020465 0.48969203 0.76754785 0.7383845 0.8237163 0.3510902 0.44479802 1.6289921
0.46434537 1.5125585 1.1399695 1.2323521 1.1810737 0.3979187 0.98453575 0.7752249
0.75250304 0.8851495 0.770919 0.72714835 0.82546854 0.92104447 2.1479917 1.003902
0.902103 0.89209175 1.6519151 0.5651053 1.1682678 0.5127453 0.36772358 1.1015716
00000000: 8162 e13e eab8 fa3e 047e 443f c406 3d3f
00000010: 12df 523f 18c2 b33e 91bc e33e d082 d03f
00000020: adbe ed3e 849b c13f 85ea 913f b7bd 9d3f
00000030: 6c2d 973f 00bc cb3e 890a 7c3f 2475 463f
00000040: 0aa4 403f 2899 623f f35a 453f 6526 3a3f
00000050: e851 533f 92c9 6b3f b278 0940 dc7f 803f
00000060: 39f0 663f 2060 643f f471 d33f beaa 103f
00000070: cd89 953f 4743 033f 4446 bc3e 4c00 8d3f

weight f4 [16, 32, 3, 3]
-0.012432854 -0.033545665 -0.033656552 -0.006141826 -0.0067649283 0.02030109 0.024376363 -0.051672306
0.03898217 0.027391193 -0.019473407 0.03613408 0.004438626 -0.09034401 -0.06735616 -0.010968879
-0.0018561803 0.005284216 -0.07882828 0.011028603 -0.050773375 0.030592745 -0.014836855 -0.03177247
-0.09900093 -0.019294158 -0.06956602 -0.044772174 -0.017674623 -0.048337102 -0.019752212 -0.025119279
0.0488185 -0.015524055 0.06679051 0.04969504 -0.020748766 0.07654828 0.02216941 -0.052140884
-0.029714638 0.036513697 -0.06262534 0.006024507 -0.062199786 0.06913554 0.028737068 0.07926564
-0.077261835 -0.039611965 -0.027002653 0.01893873 0.010773511 -0.021205397 0.010644206 -0.05327828
-0.025387868 -0.10446217 -0.00597598 -0.026099835 0.035763398 0.058436237 0.07243097 -0.04428565
0.0068955896 -0.019727541 -0.019442098 -0.031314716 -0.01398964 -0.042224064 0.050613873 0.05338381
-0.00022886529 -0.017535103 0.009370946 -0.04659914 -0.069532074 -0.048324145 -0.052169465 -0.004210507
-0.044227228 -0.0012478966 -0.02774385 0.03137096 -0.11165198 -0.10218767 -0.07923193 0.054018423
0.05659591 0.04987117 -0.04529224 0.01811123 0.068143636 0.087470464 0.030558597 -0.03387614
0.0068489974 0.030658167 0.054876663 -0.029049918 0.0011290804 -0.02270643 0.07094229 0.002605014
0.0068929875 -0.037708797 0.059629243 0.027103486 -0.041268393 -0.028652914 -0.05008571 0.029961579
0.03634528 -0.004476441 -0.07418873 -0.044590395 -0.053205527 -0.017798819 -0.054268632 -0.07773258
-0.001296592 -0.0049895984 -0.0087543735 -0.023006458 0.02460261 0.016708992 -0.042060185 -0.03137231
-0.055709932 0.06377766 -0.014320824 0.06171221 -0.04155216 0.009580267 -0.08061362 -0.10277076
-0.011186157 -0.06363796 0.03683964 0.07202774 0.051724542 -0.04449287 0.056940496 0.049145427
0.035351396 0.0069157095 0.06846376 0.076730795 0.062340163 0.05537945 0.064143546 -0.042422276
0.0072060428 -0.0494768 -0.02532913 -0.05567724 -0.057598628 -0.042536546 -0.0318619 -0.05148792
-0.086241335 -0.07467507 -0.029337028 0.006958928 -0.034453284 -0.04053605 0.032911632 -0.018799683
-0.016956644 -0.026151722 -0.007347625 -0.030991262 0.028009895 -0.008978675 0.012485702 0.035532083
0.0350845 0.07761919 0.010329093 0.027505716 0.051514182 -0.043022357 0.043936756 -0.05449663
-0.031230042 -0.015023153 -0.050855666 -0.052074496 -0.035537656 -0.010370673 -0.0674748 -0.07703052
-0.027699312 0.043004096 -0.033544276 0.018513877 -0.0609749 -0.0039689164 0.0046738232 0.04524573
0.054537125 -0.060167015 -0.083994284 -0.0028787937 0.03418021 -0.06316763 0.007303156 0.058544602
0.030071711 -0.011521523 -0.0894275 -0.05383214 -0.03573516 -0.054206103 -0.009541088 0.035444245
-0.057992812 -0.0018269963 0.03346628 -0.036007196 0.025406584 -0.024979668 -0.033456877 0.03517344
-0.029767029 0.012325265 0.013830465 0.047849394 0.071764655 0.051015016 0.027610224 -0.0027084728
0.04450881 0.09182965 -0.034229565 -0.107267305 -0.024911849 -0.039418295 -0.06679926 0.025230598
0.046437073 -0.031508423 -0.012246095 0.037055727 -0.055265274 -0.0119301835 -0.010087919 0.007885327
-0.031544242 -0.03727563 0.093985654 -0.023654722 -0.025399694 -0.05192128 0.038902752 -0.04083564
00000000: 2bb3 4bbc 2e67 09bd 74db 09bd 5f41 c9bb
00000010: 55ac ddbb 794e a63c f0b0 c73c 57a6 53bd
00000020: c5ab 1f3d 7f63 e03c b286 9fbc 5401 143d
00000030: e571 913b 4806 b9bd 07f2 89bd d0b6 33bc
00000040: 134b f3ba 3727 ad3b b970 a1bd 50b1 343c
00000050: bef7 4fbd a39d fa3c 4816 73bc d923 02bd
00000060: 00c1 cabd c80e 9ebc a178 8ebd 0763 37bd
00000070: 5fca 90bc 20fd 45bd 64cf a1bc f2c6 cdbc
00000080: e8f5 473d 9b58 7ebc 77c9 883d 078d 4b3d
00000090: 51f9 a9bc 58c5 9c3d 9f9c b53c ae91 55bd
000000a0: 1d6c f3bc 638f 153d b741 80bd 3a69 c53b
000000b0: 34c5 7ebd ef96 8d3d 006a eb3c 0656 a23d
000000c0: 743b 9ebd 2840 22bd ab34 ddbc 6525 9b3c
000000d0: 6183 303c f1b6 adbc 0965 2e3c 533a 5abd
000000e0: 38fa cfbc 43f0 d5bd 27d2 c3bb 52cf d5bc
000000f0: a47c 123d d65a 6f3d b056 943d df64 35bd
00000100: 66f4 e13b a79b a1bc 0945 9fbc dc43 00bd
00000110: ce34 65bc 24f3 2cbd 7e50 4f3d fba8 5a3d
00000120: 8ffb 6fb9 c7a5 8fbc 9988 193c bdde 3ebd
00000130: d566 8ebd 8aef 45bd a6af 55bd 4bf8 89bb
00000140: 9c27 35bd 7690 a3ba 1247 e3bc d67e 003d
00000150: cba9 e4bd c547 d1bd 5a44 a2bd 6c42 5d3d
00000160: 1dd1 673d b645 4c3d 5b84 39bd 015e 943c
00000170: e48e 8b3d b723 b33d 0656 fa3c b5c1 0abd
00000180: 8e6d e03b d626 fb3c 5ac6 603d 18fa edbc
00000190: a7fd 933a d602 babc 314a 913d e2b8 2a3b
000001a0: 92de e13b 8a74 1abd cb3d 743d 2108 de3c
000001b0: 0c09 29bd 84b9 eabc ac26 4dbd fc71 f53c
000001c0: cade 143d 1caf 92bb 43f0 97bd 6ba4 36bd
000001d0: 0aee 59bd d4ce 91bc c948 5ebd 4232 9fbd
000001e0: 68f2 a9ba c97f a3bb 816e 0fbc 0a78 bcbc
000001f0: 6a8b c93c 4ce1 883c 4d47 2cbd 4080 00bd
00000200: 1930 64bd dd9d 823d e4a1 6abc f1c5 7c3d
00000210: 9932 2abd 8df6 1c3c c118 a5bd 7a79 d2bd
00000220: 2546 37bc 9e54 82bd 2ae5 163d 4883 933d
00000230: 1ddd 533d 283e 36bd 703a 693d b74c 493d
00000240: a0cc 103d 2d9d e23b ba36 8c3d 0925 9d3d
00000250: 6658 7f3d 90d5 623d b15d 833d fbc2 2dbd
00000260: ab20 ec3b 2fa8 4abd 097f cfbc d10d 64bd
00000270: 8aec 6bbd cd3a 2ebd a081 02bd ffe4 52bd
00000280: 4c9f b0bd 3eef 98bd 3554 f0bc b807 e43b
00000290: e31e 0dbd 2109 26bd 59ce 063d cb01 9abc
000002a0: a9e8 8abc 233c d6bc 59c4 f0bb 63e1 fdbc
000002b0: 0275 e53c 4b1b 13bc d490 4c3c 178a 113d
000002c0: c4b4 0f3d cff6 9e3d 5b3b 293c ab53 e13c
000002d0: 8900 533d 3638 30bd 07f7 333d dc37 5fbd
000002e0: 25d6 ffbc ac23 76bc 084e 50bd 114c 55bd
000002f0: ef8f 11bd c1e9 29bc 3a30 8abd 2dc2 9dbd
00000300: abe9 e2bc 1025 303d b965 09bd 6aaa 973c
00000310: d1c0 79bd af0d 82bb df26 993b 9653 393d
00000320: 5262 5f3d b071 76bd 3205 acbd 25aa 3cbb
00000330: 8c00 0c3d 085e 81bd 504f ef3b 77cc 6f3d
00000340: f358 f63c c5c4 3cbc c425 b7bd 177f 5cbd
00000350: 085f 12bd 3807 5ebd 3952 1cbc fc2d 113d
00000360: df89 6dbd d377 efba f013 093d 487c 13bd
00000370: 7821 d03c 29a2 ccbc 140a 09bd 0612 103d
00000380: fcd9 f3bc e9ef 493c 2d99 623c bafd 433d
00000390: 59f9 923d 1ff5 503d d62e e23c a280 31bb
000003a0: df4e 363d 2f11 bc3d 4d34 0cbd f6ae dbbd
000003b0: ef13 ccbc 1475 21bd 0dce 88bd 66b0 ce3c
000003c0: cd34 3e3d fa0e 01bd d8a3 48bc bfc7 173d
000003d0: d75d 62bd d176 43bc cd47 25bc 7531 013c
000003e0: 8934 01bd 55ae 18bd 8d7b c03d 8cc7 c1bc
000003f0: 0513 d0bc 68ab 54bd 7e58 1f3d 4643 27bd

weight f4 [16]
0.99141824 1.0364157 0.96665746 0.9717529 0.9825141 1.0287228 0.9553118 0.9841322
0.98813283 1.02704 0.9949049 1.007758 1.0010594 1.0624386 0.9718497 0.970656
00000000: 96cd 7d3f 45a9 843f dd76 773f ccc4 783f
00000010: 0b86 7b3f 30ad 833f 508f 743f 16f0 7b3f
00000020: 46f6 7c3f 0c76 833f 16b2 7e3f 37fe 803f
00000030: b722 803f fdfd 873f 24cb 783f e97c 783f

bias f4 [16]
-0.029430544 -0.030745687 -0.044575065 0.038621273 0.0005270984 0.03708403 0.026958156 0.030564152
-0.12301884 -0.008997378 0.021813417 -0.0035737096 -0.008761515 -0.0878585 -0.05139449 0.016134456
00000000: 5318 f1bc 61de fbbc 5894 36bd 5731 1e3d
00000010: fa2c 0a3a 6de5 173d 5ad7 dc3c ac61 fa3c
00000020: 4df1 fbbd bd69 13bc 0db2 b23c e634 6abb
00000030: 758c 0fbc 28ef b3bd 0783 52bd 682c 843c

running_mean f4 [16]
-1.4395705 -1.1467613 -1.659511 -1.096658 -0.6962997 0.3708563 -1.2253819 -1.0096455
-1.4160222 -0.95959884 0.042485353 0.76230836 -1.0811452 0.69861925 -1.0699809 -1.2416816
00000000: d943 b8bf 13c9 92bf db6a d4bf 4a5f 8cbf
00000010: b240 32bf e1e0 bd3e 50d9 9cbf 103c 81bf
00000020: 3740 b5bf 45a8 75bf 1f05 2e3d a426 433f
00000030: f762 8abf b6d8 323f 22f5 88bf 6cef 9ebf

running_var f4 [16]
2.627964 1.0056362 2.7697723 0.9415509 1.8253804 1.1984209 1.5763305 2.9725213
1.8689414 1.5930438 2.2915769 2.278732 2.3273637 1.1333097 1.3618621 2.1698697
00000000: 9030 2840 b0b8 803f f343 3140 7b09 713f
00000010: 11a6 e93f db65 993f 33c5 c93f ca3d 3e40
00000020: 7939 ef3f dce8 cb3f 32a9 1240 bfd6 1140
00000030: 87f3 1440 4b10 913f 7f51 ae3f 25df 0a40

weight f4 [1, 16, 4, 5]
-0.018865798 3.2783648e-06 0.0032011485 0.028822148 -0.052447706 -0.06243333 -0.05110445 -0.035179485
0.0074333376 0.06517822 0.04041333 -0.01226874 -0.018215485 -0.055345822 -0.03647121 -0.0338905
-0.027399898 -0.021897703 -0.05101896 -0.02960675 0.037549984 -0.0037176765 -0.031728394 -0.01069718
-0.049184952 0.022424469 -0.0058497377 -0.056009345 -0.059433345 -0.057429306 0.06742649 0.09138151
0.02319098 0.076707 0.09273397 -0.070452735 -0.024026467 0.025362622 -0.040970776 -0.004538026
-0.046031494 0.012363725 0.04829163 -0.060869686 -0.07895371 0.031048818 -0.016787628 0.03487991
-0.003292175 -0.054479565 0.010828799 0.06369622 -0.020984793 -0.053597853 0.042542025 0.012566954
-0.011686886 -0.06731652 0.025240734 0.041028306 0.006621896 -0.031319253 -0.032761812 -0.020606406
-0.029304571 -0.02368674 0.060556814 0.020297943 0.057474587 0.06869337 -0.012637974 0.017892465
0.039133176 -0.015135468 -0.0259788 -0.028111467 0.0050190175 0.05078914 0.009192569 -0.015287098
0.019923713 -0.003501792 -0.05562897 -0.017895915 -0.03638481 -0.034956563 0.058923997 0.01569323
0.054119833 -0.043342814 0.060295384 0.027105171 -0.032539893 0.0048262924 -0.018995963 -0.01048893
0.024377096 0.048522253 -0.016307617 -0.054620378 -0.024207622 -0.0552407 -0.027644958 0.058152247
-0.066348374 -0.033635467 0.04304687 -0.076692574 0.046640415 0.113906495 -0.010095176 -0.028873738
0.0263479 -0.0154784545 -0.03602305 0.01602868 0.0019835453 -0.018541383 0.024499489 0.0027720446
0.018623184 -0.05293307 -0.0359693 0.0027319994 -0.04117974 -0.0028236576 0.019633444 -0.017150449
-0.0056785992 -0.08408586 -0.046864137 -0.0055364785 0.064704135 0.021959536 0.015651558 -0.016078778
-0.049264826 -0.04614199 -0.008722167 0.041664384 -0.010766119 0.037757963 -0.0112314 0.012007254
0.08640767 -0.075724885 0.012409285 -0.031174937 -0.056953914 -0.050427098 0.02232725 0.043901443
0.015151944 0.0781271 0.0036944782 -0.030718587 0.02251483 -0.05610618 -0.04184729 -0.05383207
-0.038088653 0.02383029 0.063708864 -0.015031244 -0.031849172 -0.052581664 0.051182516 0.088136986
0.089046314 0.12541653 0.01379687 0.026594207 -0.033721644 -0.027643373 -0.02394128 0.01154021
0.024866803 -0.04532235 0.019708842 0.036616657 -0.012201847 0.04071117 -0.026877379 0.06490701
0.10518798 -0.0535088 -0.0026215971 0.055617385 -0.019832132 -0.023257904 0.10921844 0.07734773
0.011321627 0.05231638 0.031243721 -0.0075396365 -0.03331131 0.06391701 0.025418002 -0.048437387
-0.052080568 -0.027213821 0.0108336415 0.05564854 0.080976285 0.030936578 -0.045972396 -0.07299055
-0.017173037 -0.08721582 0.036011852 0.03582836 0.002138993 -0.027141772 -0.02709596 0.028176041
0.0343091 -0.012600572 0.010957752 -0.05687185 -0.010341838 0.025882438 0.057125513 -0.008934952
0.06330149 0.028504582 -0.053075865 -0.031095084 -0.010550446 -0.038249675 0.08630701 0.029533485
0.043830387 0.04491698 0.016181577 0.01729193 0.03471351 0.01219713 0.06233168 -0.04078722
-0.0031882243 0.0021930994 -0.0057016946 -0.060022745 0.013829185 0.041556917 0.0075495937 -0.0046620383
0.08935228 -0.05274899 -0.045106977 0.0055236095 -0.0063226046 -0.033943735 0.0022050075 0.007940361
00000000: 728c 9abc e101 5c36 5cca 513b 6d1c ec3c
00000010: 68d3 56bd 17ba 7fbd e652 51bd 5d18 10bd
00000020: 5b93 f33b 297c 853d 7388 253d d302 49bc
00000030: a438 95bc 4db2 62bd d662 15bd c4d0 0abd
00000040: c075 e0bc d062 b3bc 42f9 50bd db89 f2bc
00000050: 03ce 193d 43a4 73bb a2f5 01bd 3a43 2fbc
00000060: 2976 49bd 85b3 b73c 28af bfbb 0e6a 65bd
00000070: 6170 73bd fe3a 6bbd e616 8a3d 3b26 bb3d
00000080: 03fb bd3c 8f18 9d3d 4feb bd3d 8649 90bd
00000090: 27d3 c4bc 46c5 cf3c f9d0 27bd b9b3 94bb
000000a0: 858b 3cbd 3991 4a3c 72cd 453d 7e52 79bd
000000b0: 7cb2 a1bd 175a fe3c 3586 89bc 3dde 0e3d
000000c0: 88c1 57bb f725 5fbd 466b 313c 2a73 823d
000000d0: 4de8 abbc 6c89 5bbd 8c40 2e3d a0e5 4d3c
000000e0: 5a7a 3fbc 3edd 89bd a8c5 ce3c 4c0d 283d
000000f0: 7dfc d83b 9e48 00bd 4031 06bd c4ce a8bc
00000100: 2410 f0bc b20a c2bc 6c0a 783d df47 a63c
00000110: 796a 6b3d 1caf 8c3d 810f 4fbc 3893 923c
00000120: 1c4a 203d c1fa 77bc 7ed1 d4bc 054a e6bc
00000130: 9276 a43b 4608 503d 6e9c 163c bc76 7abc
00000140: 0e37 a33c 527e 65bb 34db 63bd 749a 92bc
00000150: 3d08 15bd 9d2e 0fbd 4a5a 713d 178f 803c
00000160: c2ac 5d3d 3c88 31bd 4bf8 763d aa0b de3c
00000170: 8d48 05bd e025 9e3b 6c9d 9bbc c3d9 2bbc
00000180: 7ab2 c73c 45bf 463d 8d97 85bc 9eb9 5fbd
00000190: 104f c6bc 1244 62bd ae77 e2bc 0d31 6e3d
000001a0: a8e1 87bd 58c5 09bd ea51 303d ff10 9dbd
000001b0: 050a 3f3d cf47 e93d 3d66 25bc 9e88 ecbc
000001c0: 8dd7 d73c 5899 7dbc e88c 13bd 944e 833c
000001d0: 5efe 013b 19e4 97bc 27b3 c83c 31ab 353b
000001e0: a68f 983c 59d0 58bd 8b54 13bd 580b 333b
000001f0: 16ac 28bd 1d0d 39bb 51d6 a03c 197f 8cbc
00000200: 8b13 babb 3535 acbd 9cf4 3fbd 596b b5bb
00000210: 9a83 843d 7ce4 b33c b237 803c a4b7 83bc
00000220: eac9 49bd 62ff 3cbd 6ce7 0ebc 46a8 2a3d
00000230: 6064 30bc 18a8 1a3d e803 38bc 13ba 443c
00000240: 81f6 b03d a615 9bbd 5050 4b3c 9562 ffbc
00000250: 8248 69bd a58c 4ebd a3e7 b63c 00d2 333d
00000260: dc3f 783c 1a01 a03d 0f1f 723b 8ca5 fbbc
00000270: 0571 b83c 98cf 65bd 1068 2bbd 047f 5cbd
00000280: d902 1cbd be37 c33c cb79 823d 9b45 76bc
00000290: 4774 02bd df5f 57bd c2a4 513d 2a81 b43d
000002a0: ea5d b63d 316d 003e 440c 623c 18dc d93c
000002b0: b51f 0abd 5b74 e2bc 8120 c4bc 2613 3d3c
000002c0: 77b5 cb3c eea3 39bd 7074 a13c 59fb 153d
000002d0: 41ea 47bc c1c0 263d f32d dcbc f7ed 843d
000002e0: cc6c d73d 0b2c 5bbd 1acf 2bbb 0ecf 633d
000002f0: ff76 a2bc 5c87 bebc ebad df3d 7d68 9e3d
00000300: 587e 393c b349 563d d5f2 ff3c 0e0f f7bb
00000310: 7171 08bd ece6 823d 6a39 d03c 4866 46bd
00000320: 6f52 55bd 85ef debc 967f 313c b9ef 633d
00000330: e5d6 a53d b56e fd3c 8d4d 3cbd 127c 95bd
00000340: 78ae 8cbc 359e b2bd 2a81 133d c2c0 123d
00000350: 592e 0c3b 6c58 debc 59f8 ddbc 71d1 e63c
00000360: b387 0c3d a172 4ebc 2588 333c 75f2 68bd
00000370: d070 29bc 6807 d43c 71fc 693d e863 12bc
00000380: 36a4 813d 7182 e93c 1466 59bd 1ebb febc
00000390: c7db 2cbc b1ab 1cbd bbc1 b03d 35f0 f13c
000003a0: 7e87 333d defa 373d 3a8f 843c cea7 8d3c
000003b0: c12f 0e3d 79d6 473c 814f 7f3d 8010 27bd
000003c0: 87f1 50bb 1aba 0f3b 48d5 babb 69da 75bd
000003d0: ce93 623c 9637 2a3d 9562 f73b 03c4 98bb
000003e0: 54fe b63d 530f 58bd 18c2 38bd 65ff b43b
000003f0: da2d cfbb 9608 0bbd e381 103b 4a18 023c
