source/models/SingleNoteTimbreCNNSmall/model_256_20_0.003_MIDIsampledseen_evalmode_smalltest.pth (torch, 58207 bytes, 21 tensors)

weight f4 [8, 1, 3, 3]
000000 87 94 c5 3d c2 df e1 bc b9 ba fb 3c 94 d2 36 3c
       0.0964747 -0.027572516 0.030728685 0.011158604
000010 41 24 34 3e 6f ff 4a 3e 11 92 0a be aa aa 67 3e
       0.17591955 0.19824003 -0.13532282 0.22623697
000020 d9 dc 71 be 57 bf 01 3e 79 9d 5c be 2b a8 f0 3b
       -0.23619403 0.12670647 -0.21544446 0.007344266
000030 fd a4 55 be 45 05 aa be ac bb 2f 3b c9 a3 64 3d
       -0.2086372 -0.33207145 0.0026814742 0.05582026
000040 c3 ad f7 3d 63 e0 38 3d 74 d3 00 be 16 70 33 be
       0.12093689 0.045135867 -0.12580663 -0.17523226
000050 2c 5e 58 be 13 a5 9b be 61 f0 75 3e 0d a8 54 3e
       -0.21129674 -0.3039938 0.24017479 0.20767231
000060 3c 24 3f be f3 35 27 3e d4 77 2e 3e 19 a2 2e 3e
       -0.18666166 0.16329174 0.17037898 0.17054023
000070 58 2a 39 bd 64 51 10 be 2e 66 0a bd 22 8f d1 3e
       -0.045206398 -0.14093548 -0.033788852 0.40929514
000080 c1 53 88 3e f8 8c a4 3e 26 4f fc bc b6 57 56 3e
       0.266264 0.321388 -0.03079946 0.20931897
000090 57 6e 8d 3d 7a cc 9f 3e 83 42 f4 bd 35 4d 32 be
       0.06905811 0.3121069 -0.119267486 -0.17412265
0000a0 66 6a 3f 3e 47 81 2e 3b 07 13 e6 3d 01 a3 b8 bd
       0.18692932 0.0026627348 0.11234098 -0.090154655
0000b0 0f 9f 67 be dc 2c 82 be 70 64 7c 3e b4 82 85 3e
       -0.2261927 -0.2542485 0.24647689 0.2607628
0000c0 3b 45 3a be f8 e3 28 3d 1f cf 37 3d 8e 95 5f 3d
       -0.18190472 0.041233033 0.04487526 0.054585986
0000d0 a6 9f 07 be 89 de f8 3d 33 ba 76 be 2a 9b 0e 3e
       -0.13244495 0.1215182 -0.24094467 0.13926378
0000e0 4c 0e 8b 3e 2d 25 6e 3d 80 ee 28 be 32 75 77 bd
       0.27159345 0.058140922 -0.1649723 -0.0604145
0000f0 f4 15 8a bd ab 17 08 be da 21 45 be 78 77 44 be
       -0.067424685 -0.13290279 -0.19251195 -0.19186199
000100 b1 f4 89 3e 0f e2 90 bb a4 a9 39 be 6b 8f d2 bd
       0.26944497 -0.0044214795 -0.18131119 -0.10281261
000110 e4 97 7a be 6e 31 52 3c f3 69 6a bd 42 39 5e 3d
       -0.24472004 0.012829168 -0.057229947 0.054253824

weight f4 [8]
000000 83 90 7b 3f ae d4 80 3f 13 08 8a 3f 5d 94 76 3f
       0.9826738 1.0064905 1.0783714 0.96320134
000010 ed 00 7b 3f 77 2a 80 3f 8f 85 81 3f 23 ca 82 3f
       0.9804829 1.0012959 1.0118884 1.0217937

bias f4 [8]
000000 0c d2 14 3d 12 a3 a5 3c 09 26 80 3b b7 ab e2 bc
       0.03633313 0.02021936 0.003910784 -0.02766977
000010 0c 7c 7d 3c 14 20 94 bb b2 99 41 3d 97 ca e5 3c
       0.01547147 -0.0045204256 0.047265716 0.028050704

running_mean f4 [8]
000000 bc 7d 37 3b 19 cf 3d bb 50 c7 bc ba 95 fe 8c 3b
       0.0027998528 -0.002896255 -0.0014402661 0.0043028095
000010 28 eb 54 3a e1 b0 88 3b 95 df 54 3a f2 98 04 bb
       0.0008122199 0.0041714762 0.00081204745 -0.0020232764

running_var f4 [8]
000000 fc d1 04 3e 67 55 2d 3e 09 4d ac 3d b0 d3 a4 3f
       0.12970728 0.1692711 0.08413131 1.2877102
000010 e6 ca bc 3c 1e bf 68 3d 26 74 1d 3e 1c db 58 3e
       0.023045968 0.05682289 0.15376338 0.21177334

weight f4 [16, 8, 3, 3]
000000 65 82 cc bc 7b 64 9f 3d 85 3e 6e bd 7f d5 9a 3c
       -0.02496452 0.07782837 -0.058165092 0.018900631
000010 b8 2d 7f 3a 9f 32 d4 3d 0a e3 e5 bd bf d5 a6 bd
       0.00097342907 0.10361218 -0.11224945 -0.081462376
000020 cb 01 90 bd 73 fd 2e bd 95 02 24 bd 28 82 fa 3c
       -0.07031592 -0.042722177 -0.040041525 0.030579641
000030 c7 08 b9 3d 5e 23 b9 bd e9 11 22 bc 65 e0 bf 3c
       0.09034877 -0.09039949 -0.009891965 0.02342243
000040 cb 6a 5d 3d 9d 34 9e ba 16 45 26 bd 19 d1 23 be
       0.054056924 -0.0012070123 -0.04059323 -0.15997733
000050 1d 96 7e bd 22 29 e0 3b d3 be 0b bd c5 b5 e7 bd
       -0.062154878 0.006840841 -0.03411753 -0.11313967
000060 3c ee 3d bd 29 10 38 3a 20 0f da 3d 9d bd bb 3d
       -0.046369776 0.0007021451 0.10647416 0.09167025
000070 81 e2 8f 3d 05 b1 40 bd 40 85 88 bd 27 f2 a4 bd
       0.07025624 -0.04704382 -0.066660404 -0.080539994
000080 c3 33 16 bd da 4b 9c 3c fd c5 98 bd 65 0a 6c bd
       -0.036670458 0.019079138 -0.07459638 -0.0576271
000090 93 d6 d3 bd 4b a3 2f 3d 88 9f b1 bd 9b 5f 2d 3d
       -0.10343661 0.042880338 -0.08673006 0.042327505
0000a0 bd 72 22 bd 54 3e 62 3d 88 01 d2 3c c1 3d 0a be
       -0.039660204 0.055235222 0.025635496 -0.1350012
0000b0 21 6b 3e bd 53 15 a9 bd 0a 37 28 3d 85 31 b7 bd
       -0.046488885 -0.082560204 0.041068114 -0.08944992
0000c0 cd f1 aa 3c cb 35 d7 3d ad 4c db bd 60 81 c3 3c
       0.020867253 0.10508307 -0.10707984 0.023865402
0000d0 65 6c 2c bd 81 ae d5 3c 9e 67 c4 bc e6 a9 10 be
       -0.04209556 0.026084187 -0.02397519 -0.14127311
0000e0 60 67 ba bd 3f 8d a6 bd f0 07 74 bd 4e e1 c6 3c
       -0.091017485 -0.08132409 -0.059577882 0.024277356
0000f0 16 ce de bd 3e 96 23 be 5b f3 f9 bd bf a5 9c 3c
       -0.108791515 -0.15975282 -0.122046195 0.019122003
000100 fc 3c c1 bd 34 05 b3 bc fd 51 22 3c 9c d3 b7 3d
       -0.0943546 -0.021853067 0.009907243 0.08975908
000110 8e 01 04 be c6 db 94 bc 87 16 ff 3c 7d f8 c3 bd
       -0.12891218 -0.018171202 0.031138672 -0.0956888
000120 52 1f ba 3d 82 b9 d9 3c c2 df 8c 3c b8 68 0f bd
       0.09088005 0.026577715 0.01719654 -0.035011977
000130 5d 94 2b bd e9 fb fc 3d a3 0a a2 3d f0 70 c6 3d
       -0.041889537 0.123527355 0.07912185 0.0968951
000140 0d 91 8b 3d 2d ac b6 3b d7 c4 12 3d c4 9e 1a bb
       0.068147756 0.005574724 0.035832252 -0.0023593167
000150 70 6c 05 bd cf 49 91 3d fe 00 f1 bd c1 8b 69 3d
       -0.032574117 0.07094156 -0.11767767 0.057018045
000160 df 7d f3 ba 52 27 1a 3c 2e 61 99 3d 53 4d 7b 3d
       -0.0018576941 0.009408789 0.07489239 0.06135304
000170 64 59 de 3d ef e3 9c bc f6 83 1c 3c 13 19 fd 3c
       0.10856894 -0.019151656 0.009552946 0.030895745
000180 7a 72 98 bd b3 a6 76 3d bf f8 a7 bb f0 47 61 bd
       -0.0744371 0.06021757 -0.0051260884 -0.055000246
000190 36 49 ec 3c 91 6f d8 bd e9 5a 46 bd 14 2c 29 3c
       0.028843503 -0.105681546 -0.048426542 0.01032545
0001a0 3c 17 8b 3b 64 ad 42 bd b8 ea 84 bd b2 cf 83 3d
       0.004244713 -0.04752864 -0.064900815 0.06436099
0001b0 8d 12 4f 3c 9b b0 c5 bb 93 9e fe ba 8d 07 81 3c
       0.0126387 -0.006033016 -0.0019425921 0.01575067
0001c0 b9 3b 65 3d 7c e1 aa 3d 46 67 8d 3c 13 24 c4 3c
       0.05596516 0.08343789 0.017261159 0.023942983
0001d0 6f 88 0a bd 65 f5 d0 3d d6 d1 7e bd c3 63 a0 3d
       -0.03382152 0.10203055 -0.062211834 0.07831528
0001e0 36 15 9c 3d c4 e8 b7 3d ab 62 8d bd 0a 46 21 bd
       0.07621233 0.089799434 -0.06903585 -0.039373435
0001f0 f4 48 32 3e 3f 0c c0 bc 7a b7 67 3d 1f c9 3b bd
       0.17410642 -0.02344334 0.05657146 -0.0458461
000200 36 79 33 3c 72 8a 1e be 86 e1 24 be 73 62 48 bc
       0.010954192 -0.154825 -0.16101655 -0.012230503
000210 b5 69 db bc 01 06 c7 3a 90 51 31 bd fd e4 88 bd
       -0.026783803 0.0015184284 -0.043290675 -0.06684301
000220 da dc 87 3d 6c 05 02 3e 7f 9d b3 bd 2d 26 5d 3d
       0.06633921 0.12697381 -0.08770274 0.053991485
000230 42 24 ac bd 19 9b 9f 3d 34 4a 2c 3d 74 93 91 3b
       -0.08405353 0.077932544 0.042062953 0.0044426266
000240 7b 13 f8 3d bd eb 3e 3d 65 8e d1 bd dd e8 aa bd
       0.121130906 0.046611536 -0.10232238 -0.083451964
000250 55 1b d6 bd 19 dc ac 3c 1d 28 c7 3d cb 26 e6 3c
       -0.10454432 0.021101044 0.09724448 0.02809467
000260 c3 ba e9 bd 78 a2 12 bd 9c 11 cd 3c 4c 18 8c 3d
       -0.11412575 -0.035799474 0.02503281 0.06840572
000270 c1 03 55 3d ea 3e 3c 3d ab 75 49 3d 77 b5 b1 3d
       0.052005533 0.045958437 0.049184483 0.0867719
000280 08 0d 38 3d 80 a1 e8 bc ae 4d 4d 3b 39 9c ec bd
       0.044934303 -0.028397322 0.0031326818 -0.115532346
000290 8f a4 35 be fe dc 00 3e 73 0a 1c 3c e1 ed 05 3e
       -0.17738555 0.12584302 0.009523976 0.13079025
0002a0 45 4a 6a 3d 50 24 0b 3d 59 55 c1 bd d0 54 5a bd
       0.057199735 0.033970177 -0.09440107 -0.05330354
0002b0 a7 21 d9 bc d8 dc cf 3d 95 d9 98 bd e1 25 fd bd
       -0.026505305 0.101495445 -0.074633755 -0.123607405
0002c0 73 b0 be bd 8c af fc bc 18 bd e7 3d 08 7f ba 3d
       -0.09310999 -0.030845426 0.11315364 0.091062605
0002d0 cc 96 ee 3d c6 0a 06 3e 3f 1d e5 3c 4e ab ec bd
       0.11649856 0.13090047 0.027968047 -0.11556111
0002e0 8b af 5d 3b 06 62 88 3d 95 0b c6 bd df 18 e0 bd
       0.0033826556 0.066593215 -0.09670178 -0.10942244
0002f0 14 de 1b bd 86 01 9a 3d be 17 21 bd c1 4b 93 3d
       -0.038053587 0.07519822 -0.039329283 0.07192183
000300 d3 65 84 bc 1c 73 9a bc 66 6b 53 bd d8 cd 81 bc
       -0.016161835 -0.018853717 -0.051616095 -0.015845224
000310 6c 22 b1 bd cf 49 0a bd 2d f4 a3 3d ea 19 86 bd
       -0.086491436 -0.033761796 0.08005557 -0.065479115
000320 9c 35 01 3d a0 be a0 3c d6 88 c6 3d 6e 4f b3 3d
       0.031545267 0.019622147 0.09694068 0.087553844
000330 69 19 96 3c 95 da 38 3c d4 33 52 bc 9f 1b 00 be
       0.018322663 0.011282583 -0.01282974 -0.12510537
000340 d3 46 68 3a c5 c2 5a bd 89 36 a3 bd 5b 86 0d bd
       0.0008860651 -0.053408403 -0.07969386 -0.03455196
000350 09 84 ac 3d 45 c8 e9 bd 44 5c 0c bd f5 ef ac 3c
       0.08423621 -0.114151515 -0.03426768 0.021110514
000360 b8 54 d2 3c c1 28 2a 3d e1 77 77 bc c2 1c 05 3b
       0.025675163 0.041542772 -0.015104265 0.002031133
000370 29 2a 02 be d8 21 04 be 36 0e ba 3d 7d 15 a1 bd
       -0.12711395 -0.12903535 0.09084742 -0.07865427
000380 5a e1 a4 bd 62 03 0e 3d 8b 03 e5 3d e7 a5 76 3d
       -0.08050795 0.034671195 0.111823164 0.06021681
000390 9d fc f3 3d c9 a4 d6 3d 99 5a 07 bd 24 e8 b8 bd
       0.119134165 0.10480649 -0.033045385 -0.09028652
0003a0 d9 04 9d bd d6 c1 df 3d c2 09 4a bc 0a 74 99 bc
       -0.0766694 0.10925643 -0.012331428 -0.01873209
0003b0 a4 ac 1f bc cf c7 1d bd 23 7e 1d 3e 66 9d a2 bd
       -0.009745751 -0.03852063 0.15380149 -0.079401776
0003c0 4d 15 e2 3d b7 c1 35 3d f8 5f b8 bd 3b 7c 2b bd
       0.11039219 0.044374194 -0.090026796 -0.041866522
0003d0 08 98 23 3d 45 96 73 3d 25 6e a2 3d 88 8f 96 bd
       0.03993991 0.05946948 0.07931165 -0.07351595
0003e0 f6 2a ad bd 61 eb bd bd b4 f7 57 3d 6e 86 f5 bd
       -0.0845546 -0.092734106 0.052726462 -0.11988531
0003f0 c9 d8 c2 3d 31 43 8c bd 22 e8 61 bc 06 33 ec bd
       0.09514005 -0.06848753 -0.013788255 -0.115331694

weight f4 [16]
000000 e8 71 85 3f c0 3b 78 3f bf 06 80 3f 03 31 82 3f
       1.0425386 0.9696617 1.0002059 1.0171207
000010 09 09 82 3f a1 85 7f 3f fa 1a 7c 3f 34 f0 76 3f
       1.0159007 0.99813277 0.9847866 0.9646027
000020 a1 3d 80 3f 30 2c 85 3f 60 66 7a 3f 86 06 7c 3f
       1.0018808 1.040411 0.9781246 0.98447454
000030 da 7c 81 3f 1c e6 76 3f ea a2 7d 3f 6c 34 83 3f
       1.0116227 0.9644487 0.9907671 1.0250373

bias f4 [16]
000000 26 62 62 3d 82 80 c6 bc 92 80 ce 3c 61 ff 0b bd
       0.055269383 -0.0242312 0.025207791 -0.034179095
000010 16 29 62 bc e6 e6 8d bc 65 38 c4 3c ed cf 01 bc
       -0.013803741 -0.017322015 0.023952672 -0.0079231085
000020 f9 3f 83 bd 93 de 0e 3d bc 7a 83 bc 23 e8 2a bb
       -0.06408686 0.034880232 -0.016049735 -0.0026078306
000030 1d 76 87 3c fe 37 51 bd 76 b4 f7 3b 30 03 0a 3c
       0.016535813 -0.05107879 0.0075593544 0.0084236115

running_mean f4 [16]
000000 e0 32 85 bf da 93 dd 3e 83 07 94 bb 5d 3c 75 3d
       -1.0406151 0.43276864 -0.004517497 0.05987202
000010 85 36 d7 3c 2a c2 2b be 68 ac 1e be c3 4d 8a be
       0.026271114 -0.16773286 -0.15495455 -0.27012452
000020 71 95 f3 be 96 ba cd 3d 5e f4 0b 3f f3 bc 98 be
       -0.47574952 0.10045354 0.5466975 -0.29831657
000030 2b 4a 19 3f 91 ad 2d 3f 56 b5 ee b7 96 79 34 bf
       0.59878796 0.67842966 -2.8456252e-05 -0.70498025

running_var f4 [16]
000000 17 e3 e2 3d a2 cb 92 3e 4e c4 a5 3e b6 f4 36 3e
       0.1107847 0.28670985 0.3237633 0.17866787
000010 10 25 b8 3e ca 13 a3 3d 92 b6 8a 3d 45 2a c8 3e
       0.35965776 0.07962759 0.06773104 0.3909475
000020 05 89 36 3e 33 5e 02 3f 2e cf 15 3f 2a 2f a8 3e
       0.17825706 0.50924987 0.58519256 0.32848483
000030 62 a2 3f 3e fa 16 d8 3e fa 5e 9d 3d ef 36 7b 3d
       0.18714288 0.4220503 0.07684131 0.061331686

weight f4 [32, 16, 3, 3]
000000 2b 8a 0c 3c 16 fb 93 bd b8 a3 a5 bc 97 a4 02 bd
       0.008577864 -0.07225625 -0.020219669 -0.031895246
000010 72 2a e4 bc 8d 8d a7 3d 40 b3 3e 3d 57 65 a1 3d
       -0.02785227 0.081812955 0.046557665 0.07880657
000020 ad 1e e1 bb 00 e1 18 bd ed af 52 bd 1b 35 02 bd
       -0.006870112 -0.03732395 -0.051437307 -0.031788927
000030 4f c5 98 3d 3f 25 ea 3c 73 f2 17 bd 80 89 9f 3d
       0.07459509 0.028582213 -0.037096452 0.07789898
000040 35 43 c8 bc 88 0b 01 3d 4a 4b 87 3d c5 52 2c 3d
       -0.02444611 0.031505138 0.06606157 0.042071123
000050 27 a4 db 3d 0b fa cc bd 6f 78 41 bd 83 53 71 bd
       0.10724669 -0.100086294 -0.047233995 -0.058917534
000060 d2 e9 83 3d ad 21 2d 3a f8 7e de 3b 5b eb 03 be
       0.06441082 0.00066044444 0.006790038 -0.1288275
000070 93 ca 18 3d 63 4a 79 3d 18 ac ca bd c7 3f b9 bd
       0.037302565 0.060861956 -0.098961055 -0.09045368
000080 bc 7d 60 bd 08 f1 e6 bd 0d 97 df bd 20 ce 9f bc
       -0.05480741 -0.11276442 -0.109174825 -0.019507468
000090 37 58 58 bd 6f fe 62 bd 97 6f 11 bd dd 27 bc 3c
       -0.052818503 -0.055418428 -0.03550681 0.022968227
0000a0 9b 31 ac 3d 34 11 13 3d 6a a9 1a 3b ae 93 9f bd
       0.08407899 0.035905078 0.0023599514 -0.077918395
0000b0 8c 1c a3 bd 40 11 35 3d 3d 09 2e 3c 6e ab 2f 3d
       -0.07964429 0.044205904 0.01062232 0.042888097
0000c0 42 5e 81 3d a9 24 56 3d 16 72 b1 bd 97 c8 30 3d
       0.063168064 0.052281056 -0.08664338 0.043160047
0000d0 79 b4 d8 3c 98 1b 9b bd ed f2 26 3d 62 a3 4f bb
       0.026453244 -0.075736225 0.040759016 -0.0031683077
0000e0 27 a2 0c bd 5f e0 6f 3d a5 55 16 bc 66 3f 71 bd
       -0.034334328 0.058563586 -0.009175693 -0.058898352
0000f0 7d d7 42 bd ee e6 e7 bb 99 12 c1 3d c3 29 32 bd
       -0.047568787 -0.0070770895 0.09427375 -0.04349686
000100 5e 99 53 3d 56 fc 87 bd b8 d0 85 bb 68 09 ee bc
       0.051659934 -0.06639926 -0.004083719 -0.02905722
000110 85 5d c0 bc c6 2d da 3d 9a 18 4c bd f2 08 e9 bc
       -0.023482094 0.10653262 -0.04982815 -0.028446648
000120 de 59 23 3d 5e 95 69 3d 86 93 1c 3d 7a 5b 60 3d
       0.039880626 0.057027213 0.038226627 0.05477474
000130 b7 ec e5 3d a5 78 a1 3c 25 08 84 bd ec 1f ce bd
       0.112267904 0.019710848 -0.06446866 -0.10064682
000140 88 01 c5 bd 4f 57 b1 bd 27 ff 0d bd 92 fb 2c 3d
       -0.09619433 -0.08659231 -0.03466716 0.042232104
000150 f5 fe 6e 3c d2 bd 0b 3d ad 26 68 bc 58 1c 37 bd
       0.014587154 0.034116574 -0.014169377 -0.044704765
000160 07 db 86 bd 60 ff b7 bd a5 69 2f bd fa 90 d0 bd
       -0.06584745 -0.08984256 -0.04282536 -0.10183902
000170 9e 74 b6 bd 74 d3 69 3d 30 5f 97 bd 75 23 94 3b
       -0.08908962 0.057086423 -0.073912024 0.0045208284
000180 46 dd ae 3c 3e 5f 11 3d b2 b1 e4 3c 84 fc 79 bd
       0.021345746 0.03549122 0.027916763 -0.061031833
000190 23 bd 8c bb 68 16 9e bd 12 cd 84 bb 63 45 9a 3d
       -0.004295008 -0.077191174 -0.0040527666 0.07532766
0001a0 bf 76 8f 3c fe 85 09 bc 98 a1 31 3d c2 f1 02 bd
       0.017512677 -0.008393763 0.043367 -0.03196884
0001b0 37 19 e8 bd 50 73 c4 bc 3b ae 1f 3d 25 e7 dd bd
       -0.11332934 -0.023980767 0.03898452 -0.10835103
0001c0 12 84 f7 bd ca a6 ab bd d8 3e 79 3c 7b af 39 bd
       -0.12085737 -0.08381422 0.015212737 -0.045333367
0001d0 3a c5 24 bd 19 51 85 bc 24 28 1f 3d f3 6b e9 bc
       -0.040227152 -0.016274022 0.03885664 -0.028493857
0001e0 5c 72 a2 bd 08 46 c7 bd c0 4d 2b 3d bf e5 70 bc
       -0.079319686 -0.09730154 0.041822195 -0.014703213
0001f0 6d d2 92 bd ac cb d7 bd c7 13 e9 3b 9e 7f df bd
       -0.07169042 -0.10536894 0.0071129533 -0.10913013
000200 95 16 81 bd 72 f1 49 bc 2b 1f de bb 6a 99 08 bd
       -0.06303135 -0.012325631 -0.006778618 -0.033349432
000210 27 e2 51 3d 81 36 78 bd 74 08 38 bd d7 93 03 bd
       0.051241066 -0.060598854 -0.044929937 -0.032123413
000220 19 04 84 bd f0 82 4d bd ef 8c 53 bd 95 69 e2 bd
       -0.06446094 -0.0501737 -0.051648077 -0.110552944
000230 ca 6b 82 bc c3 8c 8d 3b 39 35 22 bd a2 d2 c5 3d
       -0.015920538 0.0043197586 -0.03960154 0.09659316
000240 83 94 76 3c 4b a4 22 3d 75 e8 57 bc 44 4e f2 bc
       0.015050056 0.039707463 -0.013177981 -0.029578336
000250 47 75 04 bd 63 69 3d 3d e7 c6 bf bc 62 3f 4f bd
       -0.032338407 0.046243083 -0.023410274 -0.050597556
000260 21 81 c3 3c c4 49 c3 bd 2b 2d c0 bd bf 9f 85 bd
       0.023865284 -0.09535554 -0.09383615 -0.0652461
000270 b2 1e 1e bd 01 5c b3 bc c4 ec e4 bd 35 09 5a 3d
       -0.038603492 -0.021894457 -0.11177972 0.053231437
000280 cc 0f 6a 3d 2a 35 06 3d a3 da 81 bd 27 a5 af 3d
       0.05714397 0.032765545 -0.0634053 0.08576422
000290 a2 09 85 bd 09 d2 a8 3d a8 55 cc 3d 76 aa a3 3d
       -0.06495978 0.08243186 0.09977275 0.07991497
0002a0 00 6a b3 3d 38 7e de bc ec eb 15 bc e3 45 bb 3c
       0.08760452 -0.027159795 -0.009150486 0.022860473
0002b0 84 4a e9 3d 89 2c 57 b9 ba 04 16 39 85 27 c6 bc
       0.11391166 -0.00020520588 0.00014306876 -0.024188766
0002c0 c2 32 4e 3d 59 79 16 bd 55 4b 8c bd f2 81 d7 bc
       0.050341375 -0.03673682 -0.06850306 -0.02630708
0002d0 a3 68 66 3d 0d 89 fa 3c 25 42 b7 bd c1 5e 3a 3d
       0.056252133 0.030582929 -0.08948163 0.04550052
0002e0 71 04 db bc 36 39 dd bd cc 3c 0f bd 07 73 87 bd
       -0.026735516 -0.10801928 -0.03497009 -0.066137366
0002f0 c6 e0 f6 bc 5e 3d 86 bd f4 cb a9 bd 82 9d 9b bd
       -0.030136477 -0.065546736 -0.08290854 -0.075984016
000300 43 1b 01 3c a3 60 3d 3d 61 5f 5c 3d cc df f0 3b
       0.007880035 0.046234738 0.053801898 0.0073508974
000310 3f a5 89 3d 40 1e b5 3c c6 a9 eb 3c 4f 10 09 bd
       0.06720971 0.02210915 0.028767478 -0.03346282
000320 d5 e9 4a 3d 51 fe 9d bd 47 db 4d bc 89 a5 01 bd
       0.049539406 -0.07714523 -0.012564487 -0.031652007
000330 41 41 cf 3c cc 58 b1 bd 3e ad 13 bd 38 c6 ba bd
       0.02529967 -0.08659515 -0.03605389 -0.091198385
000340 b3 d3 35 bd 2c 4c b8 bd 44 17 38 3d 87 aa 24 3d
       -0.044391345 -0.08998904 0.044944063 0.04020169
000350 47 79 61 bd 15 07 bf bd bb 8f 24 3b f1 a3 3a 3c
       -0.0550473 -0.09327523 0.0025110084 0.011391626
000360 ec c3 5c bc 81 ed 1a 3c 82 4b 53 bd 65 04 1f 3d
       -0.013474446 0.009456039 -0.05158568 0.03882255
000370 41 2f 22 3d 62 5f ac 3d ed 31 b5 3a fc 46 e6 3c
       0.039595846 0.0841663 0.0013824083 0.02811002
000380 4f af 44 3d ce 57 be 3c d5 cd ab 3d 6f 03 31 bd
       0.04801875 0.023235228 0.08388869 -0.043216165
000390 af d7 65 3d 9b ce 25 bc fe e8 bc 3d 97 16 31 bd
       0.056113895 -0.010120059 0.09224127 -0.043234434
0003a0 92 1f 71 bd 26 85 89 bc 77 39 08 bb 2a ea d2 bd
       -0.058868 -0.016787123 -0.0020786205 -0.102985695
0003b0 12 bb 7e 3d e4 33 06 3c bf bf f4 bd 9b e8 42 bd
       0.062190123 0.008191083 -0.11950635 -0.04758511
0003c0 e4 7d 96 bc ae 5f 4f 3c 95 ac 0b bd e5 f7 26 3c
       -0.018370576 0.012657089 -0.034100134 0.010190939
0003d0 8e 2a 93 bc df ff 97 bd f3 34 df bd 09 a6 e8 bd
       -0.017964628 -0.074218504 -0.10898771 -0.11359794
0003e0 7b 2c c9 3c 1f 70 43 bd bd 21 7d ba 40 89 4f bd
       0.024557343 -0.04771435 -0.00096562115 -0.050668
0003f0 1e 5d 2a bc 5b ee 2f bd e7 f3 a7 bc f5 38 e8 3d
       -0.010398177 -0.042951923 -0.020502044 0.11338989

weight f4 [32]
000000 4f d5 7d 3f d0 01 7b 3f 50 56 83 3f 32 b6 76 3f
       0.9915361 0.9804964 1.0260715 0.9637176
000010 40 aa 80 3f 6c e2 82 3f b0 35 81 3f 3d 11 7c 3f
       1.0051956 1.0225348 1.0094509 0.98463804
000020 a3 13 7f 3f 3b 35 7a 3f f5 32 85 3f c9 c7 7e 3f
       0.9963934 0.97737473 1.0406176 0.995236
000030 73 90 7b 3f fe 58 81 3f 7c a3 84 3f 46 64 82 3f
       0.98267287 1.0105283 1.0362391 1.0186851
000040 54 26 85 3f 85 f6 80 3f 01 c1 7f 3f 3a 79 82 3f
       1.0402322 1.0075232 0.99903876 1.0193245
000050 e4 75 83 3f fb 04 7c 3f af 5f 78 3f aa 2a 84 3f
       1.0270352 0.984451 0.97021 1.032552
000060 e5 47 82 3f 8a 4a 7b 3f 1d 6b 81 3f 85 2d 80 3f
       1.017819 0.9816061 1.0110813 1.0013891
000070 63 e4 74 3f 41 87 7c 3f 4d 60 71 3f 43 b7 7f 3f
       0.9566099 0.9864388 0.9428757 0.9988901

bias f4 [32]
000000 50 c7 06 bc f1 9b ee 3c 40 9f 24 bc b8 55 0a 3d
       -0.008226231 0.029127093 -0.010047734 0.033773154
000010 02 08 8b 3c f1 77 1a bc b6 25 6c bd 69 84 ca bc
       0.016971592 -0.00942801 -0.05765315 -0.024721341
000020 22 85 d8 3c 90 91 3a bd 57 19 b1 bc 06 db 8c 3a
       0.02643067 -0.045548975 -0.021618528 0.0010746426
000030 e0 65 13 3a 2a 46 81 bc 6b 40 ad bb 0d 78 ba 3d
       0.00056227855 -0.015780527 -0.0052872202 0.09104929
000040 8a 9c 51 3c 79 d1 82 3d 59 f1 a9 bc a4 47 a3 bc
       0.0127936695 0.0638761 -0.020744966 -0.019931622
000050 0e 6e 30 bd f1 37 f6 3c f4 26 51 bc a4 12 c8 bc
       -0.043073706 0.030055972 -0.012765635 -0.024422951
000060 03 e5 fc 3c 59 fa 38 bd 72 b1 1d bd 58 95 8b bc
       0.03087092 -0.045160625 -0.038499303 -0.017038986
000070 ea a5 08 bd 51 5c 63 bd c8 c0 ac bd 68 d5 25 bd
       -0.033361353 -0.05550796 -0.084352076 -0.040486723

running_mean f4 [32]
000000 8a 7e 96 bf 52 e6 08 bf a7 25 ce 3e 42 59 32 bf
       -1.1757367 -0.5347644 0.402631 -0.69667447
000010 a7 71 34 3f 7c be bb bf 74 af ac bd f2 a6 0e bf
       0.7048592 -1.4667506 -0.084319025 -0.5572349
000020 34 c4 23 bf 57 6a b0 3e b0 23 3b bf cc c8 95 3e
       -0.6397126 0.3445613 -0.7310133 0.29254758
000030 b5 bc a0 3f b5 cf b5 bf 86 8c bf be 0c 1c 53 bf
       1.2557589 -1.4204012 -0.37411898 -0.8246467
000040 8d 51 b5 be 26 61 7b be bf a5 39 bf 41 77 6a be
       -0.3541378 -0.24548778 -0.72518533 -0.22897054
000050 96 7a 64 3f 96 83 fa 3d 90 86 ca bd 7f 2c 48 bf
       0.8924955 0.12232129 -0.09888947 -0.78192896
000060 2d d4 1e bf 5a 3e e9 3c 5b 74 95 3e 46 01 1e bd
       -0.62042505 0.028472114 0.29190335 -0.038575433
000070 b1 82 2b 3f c4 e9 45 3e 9a c3 31 3f 6f 34 fb be
       0.66996294 0.19327456 0.6943909 -0.4906344

running_var f4 [32]
000000 ce ad f0 3e 39 ed f2 3f 94 6f 1d 3f a2 d7 60 3f
       0.47007602 1.8978645 0.6149838 0.8782903
000010 5d 1e eb 3f 8d b2 1e 3f ee b0 4c 3f 1c f3 c0 3f
       1.8368641 0.61991197 0.79957473 1.5074191
000020 8f 3a 9b 3e a2 c2 d2 3f 3a 58 5e 3f 68 e3 35 3f
       0.30318114 1.6465647 0.86853373 0.7105012
000030 7a 67 fa 3f 80 53 17 3f 47 5a 71 3f c2 81 09 3f
       1.9562829 0.59111786 0.9427838 0.5371362
000040 35 89 20 3f 9c 3e 4f 3f 7d 82 d5 3f 2b fa 31 3f
       0.6270936 0.8095491 1.6680447 0.6952235
000050 17 6a 60 3f eb f7 87 3f 8e 8a 04 3f 79 f6 2f 3f
       0.8766188 1.0622534 0.5177392 0.6873546
000060 01 61 93 3e 0c 2d e6 3e 15 40 00 3f 44 be 55 3f
       0.28784946 0.44956243 0.5009778 0.8349345
000070 7c 29 13 40 f5 a1 3f 3f 6e 94 b1 3f f5 bc a9 3f
       2.299407 0.748565 1.3873422 1.326079

weight f4 [16, 32, 3, 3]
000000 e2 10 16 3d 79 f0 94 3d 6f 28 84 bb 7e 84 c2 bc
       0.036637194 0.07272429 -0.0040331404 -0.023744818
000010 0f b1 20 bd 0f 9f 05 bd cc 7d 0e 3d f4 27 6d 3d
       -0.039231356 -0.032622393 0.034787938 0.05789943
000020 5a 5a 6c bd a5 38 1f bb 2c 79 a8 3c 02 70 37 bd
       -0.057703353 -0.0024295237 0.020565592 -0.044784553
000030 5b ab 24 bd 44 54 53 bc be 3d 2f bd a5 f9 40 3d
       -0.04020248 -0.012898508 -0.04278349 0.04711308
000040 a4 19 b4 3c 5b b1 03 bd 66 2b 0a bd 4d d8 c5 bc
       0.021984883 -0.03215156 -0.033732794 -0.024150992
000050 33 bf 47 3d 30 0a 27 bd 13 e1 92 3c ee 24 f7 bc
       0.048766326 -0.0407812 0.01792959 -0.030168977
000060 89 b3 4b 3c 9a b9 44 3d a0 ba cc bd d1 1c 8c bd
       0.012432941 0.048028566 -0.099965334 -0.06841434
000070 58 ae 91 3c 51 14 b4 bd a9 c6 62 3d 66 a8 49 3d
       0.017783329 -0.087929375 0.05536524 0.049232863
000080 fb 39 33 bc 81 fd 74 bd a5 41 56 bd 66 27 ac 3c
       -0.010939117 -0.059812073 -0.052308697 0.02101488
000090 80 69 1d 3c 83 7b 5e 3c 94 2c 09 bc 8b 2b 73 bb
       0.009607673 0.013579252 -0.008372445 -0.003710481
0000a0 05 4c 3d 3d f2 07 e0 bb 4f f2 c5 3c 25 30 67 bb
       0.046215076 -0.0068368847 0.024163393 -0.00352765
0000b0 50 5d 0d bd 9b ae 5a bd 13 ba cb 3b 6e 3a 01 bd
       -0.034512818 -0.053389173 0.00621725 -0.031549864
0000c0 0f 84 df bc 83 c9 70 3b 2c ab 7d bd 90 5e 9e 3d
       -0.02728465 0.0036741204 -0.06193082 0.0773288
0000d0 64 e0 5c 3d 0b 2f af 3c 45 ee 1d bd ec 03 38 bd
       0.053924933 0.021384737 -0.03855731 -0.044925615
0000e0 81 2b 4f 3c 26 2e bb 3c 5c 40 ba 3c f0 1d dd 3c
       0.0126446495 0.022849154 0.022735767 0.026991814
0000f0 d6 a2 d3 bc b1 1a df bd 04 16 b8 bc 53 57 20 3d
       -0.025834482 -0.10893763 -0.022471435 0.03914578
000100 b1 16 7f 3b 23 68 9d bc d8 b7 e5 3b 61 cc 1a 3d
       0.0038923437 -0.019214695 0.0070104413 0.037792567
000110 aa b8 57 bc 4a 2e 30 bc 75 e0 e1 3c 66 b1 0e 3d
       -0.013166586 -0.010753224 0.02757285 0.03483715
000120 76 46 c9 3c 52 85 95 bd 87 87 ff 3b 0d 45 b7 bc
       0.024569731 -0.073008195 0.0077981385 -0.022371793
000130 19 85 94 3c 8b c5 1f bd 3a 7a 17 3d df 6a 05 3d
       0.018129872 -0.03900675 0.0369818 0.032572623
000140 4b f7 40 bb cb 6d 22 3d 9c bc 47 3d 36 b4 11 3d
       -0.0029444273 0.039655488 0.048763856 0.035572253
000150 aa 0d 41 bc f2 36 f9 bc bd c3 f3 3c 95 b2 aa 3c
       -0.011783043 -0.030421708 0.029756421 0.020837108
000160 29 4c 91 bd 25 98 22 bd fc 91 af bc 2b 53 6b 3c
       -0.070946045 -0.039695878 -0.021431915 0.0143630905
000170 4e 45 27 bd 2f 00 cb 3c 06 48 80 bb 32 2b e2 bc
       -0.04083758 0.024780361 -0.003914836 -0.027608488
000180 b5 76 45 bd 45 0d 78 bd 84 13 ad 3a 5a b6 12 3c
       -0.04820891 -0.06055953 0.0013204669 0.008954609
000190 af b0 ac 3c 7a 9d aa bd 26 e5 26 3d 77 4b bc bb
       0.021080343 -0.083308175 0.040745877 -0.005746301
0001a0 ac 39 36 bd dd 11 8e bd 8d 35 eb 3c 16 21 ae 3c
       -0.044488594 -0.06937001 0.028712058 0.021256011
0001b0 4f 57 ad 3d 70 63 6b 3d a4 5b cd 3d 8a 44 55 bb
       0.084639184 0.057467878 0.10027245 -0.0032542073
0001c0 a8 3e 38 bd 97 ce b9 3c 9e b8 07 bd 65 a9 4c bd
       -0.04498163 0.022681518 -0.03313505 -0.049966235
0001d0 18 df 32 3c c3 68 b5 bc 06 66 09 3d 05 2f 0e 3b
       0.0109174475 -0.02214468 0.033544563 0.0021695506
0001e0 9f 40 13 bc 2f 28 56 bc 17 4d 0c 3c 14 86 d9 3c
       -0.008987575 -0.013071104 0.0085633015 0.026553191
0001f0 d0 03 7e bd cd 4e 81 3c 96 36 d9 bc ad 93 7e bd
       -0.062015355 0.015784645 -0.026515286 -0.062152553
000200 c6 27 93 bd 5b 84 31 3c 78 25 8f bc 2b 7a 34 bd
       -0.071853206 0.010834779 -0.017473921 -0.04406182
000210 94 ba 3a 3d d4 5d c7 3d 65 16 a4 3d fe 62 be bd
       0.04558809 0.09734693 0.08012084 -0.09296225
000220 11 a9 2c bd 46 6a fe bc b3 48 a9 3b 45 9d 3b 3d
       -0.04215342 -0.031056534 0.005166137 0.04580428
000230 c0 71 8a bd 79 5d 63 39 7f d2 15 3c ba c0 a6 3c
       -0.06759977 0.00021683228 0.009144424 0.020355571
000240 b9 52 c8 ba 63 ea a9 3d 18 26 39 3d 72 9c 19 3d
       -0.0015283442 0.08296659 0.045202345 0.037502714
000250 52 52 98 bc a8 24 0f bc 28 98 c1 3b cf 99 4a 3d
       -0.01859394 -0.008736767 0.005908031 0.04946309
000260 b8 e8 7a bd 41 cb 1a 3c 01 07 18 bd d5 7b c7 3c
       -0.061257094 0.009447874 -0.037116054 0.02435104
000270 d4 da 31 3d 88 3c f4 bc df b7 af 39 c0 2e 63 bd
       0.04342158 -0.02981402 0.00033515596 -0.055464506
000280 53 e2 29 3d b2 b6 dd bc 71 aa 64 bc 34 94 5c bc
       0.041475605 -0.027064655 -0.013956652 -0.013463069
000290 f7 e6 90 bd af 42 62 3c 81 39 4b bd a5 f8 40 3d
       -0.07075303 0.013809844 -0.049615387 0.047112126
0002a0 8e c3 ef 3b bb dc 67 bc fc d4 21 3d b5 61 ab bc
       0.007317013 -0.014151747 0.03950976 -0.020920614
0002b0 67 bf 37 bc 3b af 67 bb 25 9f 8d 3c f8 40 54 3d
       -0.0112150675 -0.0035352248 0.0172878 0.05181977
0002c0 cf bb 90 3d 58 88 43 bd 4d fe 49 3d 3b 9e 93 3d
       0.07067072 -0.04773745 0.049314786 0.072079144
0002d0 37 52 4f bd 1e 98 1d 3d d6 ef 82 3c a0 3c 90 bc
       -0.050615516 0.03847515 0.015983503 -0.017607033
0002e0 31 47 33 3d 96 4e 36 bd 89 bf cb bd 01 0d bd bd
       0.043769065 -0.04450854 -0.09948642 -0.09230996
0002f0 b7 8a b2 3c 78 2b 0d bc bf 04 ca bb 32 ca f1 3c
       0.02179466 -0.008616321 -0.0061651166 0.02951536
000300 76 81 15 3b 00 34 12 3b fa 6d 50 bd d3 0b 56 3d
       0.002281276 0.0022308826 -0.05088613 0.05225737
000310 30 ec 4f 3d e1 3d c0 3c 22 54 cf 3b a7 b4 94 bd
       0.050762355 0.023467006 0.006327168 -0.07261019
000320 66 28 c7 3b 9a cf 98 bd 44 08 94 bc d1 fb 9b 39
       0.006077814 -0.07461472 -0.018070348 0.00029751522
000330 03 9c 19 3d de 03 2c bd 17 2d 7d bc 37 f1 ee bd
       0.0375023 -0.041995876 -0.015452645 -0.11667102
000340 a8 33 3b bd 01 9f a7 bd 95 99 be 3c e9 11 28 bb
       -0.04570356 -0.081846245 0.023266593 -0.002564544
000350 92 a6 04 3d 52 9b fb bc 86 75 c1 3d 64 5a 36 3c
       0.032385416 -0.030713711 0.09446244 0.011129949
000360 c9 5c 93 3d b1 01 88 bb 5a c4 95 bc 6a 1a 78 3d
       0.07195432 -0.0041505923 -0.018282104 0.060572065
000370 89 85 43 3b 62 e4 0c 3b 21 4f 40 bd 0c e8 a7 3c
       0.0029834232 0.0021498431 -0.046950463 0.02049639
000380 d3 98 15 bd 0c fb 6c 3d c0 b2 7b bd 43 c1 25 3a
       -0.036522698 0.057856604 -0.061449766 0.0006323049
000390 7d 56 7e 3d 37 b3 00 bd 00 8b 3b 3d a1 93 31 bd
       0.0620942 -0.031420913 0.045786858 -0.04335368
0003a0 c5 a0 1d 3d f3 3e 19 3d 20 d1 c6 3d 7c 3f 49 3d
       0.0384834 0.03741355 0.09707856 0.04913281
0003b0 58 34 bb 3d 33 45 14 bd d1 fb 65 bc 12 4d 8c 3b
       0.09140843 -0.036198806 -0.0140370885 0.0042816484
0003c0 89 95 70 3d 6d 94 f3 3b 7a 14 9b bc c1 d9 e4 3c
       0.058736358 0.007433465 -0.018930662 0.027935864
0003d0 07 3c 26 3d d2 99 55 3d 9b 06 5d bc c5 76 36 3d
       0.04058459 0.052148648 -0.013490344 0.04454686
0003e0 c2 a4 b3 3c be 89 2f bd 6d 1e bd bc ea 62 9f 3c
       0.021929149 -0.04285597 -0.023085797 0.019456346
0003f0 ba 4d 80 3d 7d 32 af 3b f4 1b 29 bd 3b c7 87 bc
       0.06264825 0.005346595 -0.041286424 -0.016574493

weight f4 [16]
000000 39 8a 76 3f a5 a7 7f 3f e9 3c 83 3f 74 97 82 3f
       0.9630466 0.9986518 1.0252963 1.020247
000010 93 99 81 3f b5 83 7e 3f 23 80 80 3f 09 01 82 3f
       1.0124992 0.9941972 1.0039104 1.0156566
000020 42 51 79 3f 62 0d 83 3f 9c 8c 7a 3f 32 67 7e 3f
       0.97389615 1.0238459 0.978708 0.99376214
000030 6f f1 7f 3f e1 8d 81 3f e2 32 83 3f 6a d7 81 3f
       0.99977773 1.0121423 1.0249903 1.0143864

bias f4 [16]
000000 2b 3c 4c 3d 03 86 86 3d dc 60 22 bc 6c 44 51 bc
       0.04986207 0.065685295 -0.009910788 -0.012772661
000010 9b 6f 03 bd 37 b1 1a bc 1a 44 4f bc d8 21 4c bd
       -0.032088857 -0.009441665 -0.012650514 -0.049836963
000020 24 20 49 3b 84 e7 02 bd 3c b3 3e 3d 87 9c e9 bb
       0.0030689323 -0.03195907 0.04655765 -0.007129255
000030 6a 49 42 3d d1 83 5f bc 12 4e e5 bb 8a 01 ce 3c
       0.047433294 -0.013642267 -0.006997832 0.025147218

running_mean f4 [16]
000000 57 9c 75 3d 4e 2d 31 bf 31 98 3c bf b7 0a 59 3e
       0.05996355 -0.69209754 -0.73669726 0.21195494
000010 3f 18 76 3e f3 2b 6d 3f c3 cf f4 3d 23 34 15 bf
       0.24032687 0.92645186 0.1195369 -0.5828268
000020 be 10 c6 3f c6 cb a6 bd cd 71 32 bf be e9 e2 bf
       1.5473859 -0.081443354 -0.69704896 -1.7727582
000030 bd 01 22 bf 4d 4b 47 3d 36 9d 25 bf 53 98 ae 3e
       -0.632839 0.048655797 -0.6469301 0.3410059

running_var f4 [16]
000000 d3 05 1a 3f b3 af ce 3e d3 21 5a 3e 60 af 5c 40
       0.6016514 0.40368423 0.21301965 3.448204
000010 ad 95 16 3f d4 9f 60 3f fb 3a d5 3e 79 db e6 3e
       0.5882214 0.8774388 0.4164656 0.4508932
000020 c9 6d 7d 3f f5 9e 4a 3e 2f 75 3f 3f 33 f4 52 3f
       0.98995644 0.197872 0.7478818 0.8240387
000030 6b 46 04 3f 32 5c 3c 3f 28 0e 8a 3f e8 31 32 3f
       0.5166995 0.7357818 1.078557 0.696074

weight f4 [1, 16, 4, 5]
000000 c3 33 05 3d ab b7 e9 3c f5 f1 b0 bc 2b 2c 0c bd
       0.032520067 0.028529963 -0.02159975 -0.03422181
000010 77 71 e0 3b 6a 13 a6 3b 7a 6e 93 bb 3d 64 41 bd
       0.0068494636 0.0050682323 -0.004499254 -0.047214735
000020 14 7b 79 3d 7c 1f 8b 3d 23 f7 42 bd 59 0c 2c 3d
       0.060908392 0.067931145 -0.04759897 0.042003963
000030 a8 7d 75 3d 73 45 ab 3d 6c 3e b0 b9 65 b6 ea 3a
       0.05993429 0.08362856 -0.00033615844 0.0017907141
000040 d3 30 bb b9 c7 59 8e bd 2b db 82 bd e2 2b 6c 3c
       -0.00035703796 -0.069507174 -0.06389459 0.014414759
000050 a8 e3 2f bc c5 38 9c bb 3a a4 16 3d a3 37 c7 3d
       -0.01073543 -0.0047675096 0.036777712 0.09727409
000060 f0 fb 41 bc 7d c0 9f bc cd 26 b4 3c 7f 55 81 bc
       -0.011839852 -0.019500965 0.021991158 -0.015787838
000070 95 80 ea 3d 53 be 8a 3c 89 b5 47 bd 4a 56 4f bd
       0.11450306 0.016936457 -0.04875711 -0.0506194
000080 1a 3e 5a bd c2 d6 fc 3c 05 d2 90 3b 94 32 6f bd
       -0.05328188 0.030864123 0.0044195675 -0.058397844
000090 7c 0f ca 3c 87 58 2c 3d ed 0c 63 3b fc ca d3 bc
       0.024665587 0.042076614 0.0034645156 -0.025853626
0000a0 b4 30 44 3d 9c a6 3d 3d 19 93 7d 3c e5 28 cf 3c
       0.04789801 0.04630147 0.015476965 0.025288055
0000b0 86 fb dd 3d b8 81 2d 3d cc a6 a4 3b 7d 33 25 3c
       0.1083899 0.042360038 0.0050247665 0.010083077
0000c0 b5 05 96 3d cc 5c 9a bd 2a 0c fb 3c 8f a6 a3 3c
       0.07325307 -0.07537231 0.030645449 0.019976882
0000d0 ee c7 91 3d 3d ce c5 3c be c8 66 bc b8 9a 33 bb
       0.07118212 0.024146194 -0.014085947 -0.0027405452
0000e0 2d 7a 8b 3c 86 c5 53 3d 41 a7 4f bd c0 2d 81 bd
       0.017026031 0.051702045 -0.050696615 -0.06307554
0000f0 84 7a 9d 3c da 7d 27 bc ac 3f bd 3d b1 79 90 3d
       0.019223459 -0.010222876 0.0924066 0.07054461
000100 a5 c1 92 3d 4c 1c 13 bd c4 1b 51 bc 99 ec c8 3c
       0.07165841 -0.035915658 -0.0127629675 0.024526881
000110 39 b0 04 3d fe bb 09 3d 80 f4 fc bc 95 5a 9b bd
       0.03239462 0.03362655 -0.030878305 -0.075856365
000120 45 5a 00 3d 1b 05 49 3a 6f 5b 91 3d 12 29 7d bb
       0.031336088 0.0007668302 0.07097518 -0.0038629216
000130 6d 82 57 bc 79 76 91 3c 0b ba 18 bd b6 d7 47 bd
       -0.0131536545 0.017756687 -0.0372868 -0.048789702
000140 fb 0d ab 3c 45 2f 92 bd 78 0a 65 bc 81 db 3e bd
       0.02088069 -0.07137922 -0.013979547 -0.046596054
000150 40 c0 63 bc 84 46 42 bc 0b 5b a9 3d c6 16 27 bd
       -0.013900816 -0.011857633 0.08269318 -0.040793203
000160 e2 eb 7c 3d 41 1e c9 3d 53 91 e4 3c 56 a6 23 bd
       0.061748393 0.098202236 0.027901327 -0.039953552
000170 c9 28 02 bd c0 54 a3 3d 8d 26 ea 3c 4f 86 c3 bc
       -0.031777177 0.07975149 0.028582836 -0.023867754
000180 3b 21 21 bc 5f 5e 08 bd f7 75 ed 3b 60 95 4d bc
       -0.009834583 -0.033293124 0.0072467285 -0.012547821
000190 80 a3 85 3d 7f 9a a0 3b e4 0e fd bc 2a 48 66 bd
       0.06525326 0.00490123 -0.03089089 -0.056221165
0001a0 f5 8f fe bc 56 9b 0b bd 30 79 de 3c e2 31 6a bd
       -0.031074503 -0.034083687 0.027157396 -0.05717648
0001b0 e0 3c 1f 3d 8d 6f 1d 3d f4 c9 c6 bc 17 cc b5 3c
       0.038876414 0.03843646 -0.02426622 0.022192044
0001c0 e2 07 4b 3d 94 1c 97 3d 66 5a 81 3d d3 7e aa bb
       0.049568065 0.07378498 0.0631607 -0.005203107
0001d0 0e ba 15 bd 5c a5 1a 3c 06 c0 ff bc 0d 43 88 3b
       -0.03655439 0.009438839 -0.031219494 0.0041583837
0001e0 30 e3 1f 3d cc 75 ec 3b 71 59 b1 3c f1 26 a9 bb
       0.039035022 0.007216191 0.021649094 -0.005162113
0001f0 dd 0d 22 3d bb 0c e6 3c 19 1e b4 3b f3 d9 5a 3c
       0.039564002 0.028082242 0.005496752 0.013357627
000200 78 75 d4 3c 32 d5 cc 3c 55 91 f3 bd b2 f1 77 bd
       0.02593492 0.025004003 -0.11892954 -0.060533233
000210 bd 7d b7 bc 45 d6 86 bd 63 4e ac bc eb 7b 40 3c
       -0.022398824 -0.065838374 -0.021033471 0.011748294
000220 3a 22 a1 bc 6b ad 82 3d b0 ec 3e 3d 4f 5d 6b 3d
       -0.01966964 0.06380733 0.04661244 0.057462033
000230 d3 e2 f0 bc fc 9b a4 3c 9b 59 65 bb f9 06 47 3c
       -0.029405033 0.02009391 -0.0034996036 0.0121476585
000240 bd b0 a4 3d a5 37 b3 bc f1 0b 4e 3d 63 02 7e 3d
       0.08041523 -0.02187712 0.050304357 0.062013995
000250 f4 e3 1d 3d 57 21 df 3c 5e f6 8f 38 ed dc c1 bd
       0.03854747 0.027237577 6.864661e-05 -0.094659664
000260 39 a7 63 bd 2e a2 3f 3b 96 38 c1 bc ba f7 90 3c
       -0.055579398 0.0029240954 -0.023586553 0.01769625
000270 b8 36 9d 3c 93 12 61 3d 26 f5 81 ba 55 3b 65 bd
       0.019191131 0.054949354 -0.0009914979 -0.055964787
000280 df a7 96 3c 59 40 1e bd ec 42 fb ba 37 b4 2e 3d
       0.018390594 -0.038635585 -0.0019169725 0.042652335
000290 e8 15 d2 bc 4d ab 39 3d 45 1f 18 bd 22 dd d7 bc
       -0.025645211 0.04532938 -0.037139196 -0.026350562
0002a0 05 49 ab 3c 21 0a 00 3d f7 9d ef 3c d6 67 7e bc
       0.020908842 0.03125966 0.029250128 -0.015527686
0002b0 e2 f1 29 bd b8 3c 5b bd fc 34 61 bd e3 64 f8 ba
       -0.041490443 -0.053524703 -0.05498217 -0.0018950965
0002c0 2a c0 a0 3c d7 33 13 3d 68 0c 5a bd 2d 42 a7 bd
       0.019622881 0.03593811 -0.053234488 -0.08166919
0002d0 7a 19 33 3d f8 37 16 3d 40 f5 9e 3c 8e 58 6f 3d
       0.04372547 0.03667447 0.019404054 0.05843406
0002e0 14 6f 84 bd 3c 71 57 3d c2 67 65 bd 23 fd 60 3c
       -0.06466499 0.052598223 -0.056007154 0.0137322275
0002f0 b2 e0 4f 3d 21 1a d3 3d e2 20 87 3c d9 6c 94 bb
       0.050751396 0.10307718 0.016495172 -0.004529577
000300 b0 cd 67 3c 80 81 5b 3c ae e7 09 3d 52 8b 7d bd
       0.014148161 0.013397574 0.033668213 -0.061900444
000310 63 96 c4 3c 9a 3c b5 3b 67 d0 a1 bc 65 5c 62 bd
       0.023997491 0.005530906 -0.019752694 -0.055263896
000320 f7 99 29 bd bc e9 1c 3a aa 3e ac bc 10 9a be 3b
       -0.041406598 0.0005985757 -0.021025974 0.0058167055
000330 02 43 15 bd 3b 4c 9e 3b 29 0f 29 3d a9 a5 80 3d
       -0.036440857 0.0048308647 0.041274223 0.06281597
000340 24 21 21 3d 6d 11 16 3c 43 02 67 bd 04 28 f8 bc
       0.039338246 0.009159428 -0.05639864 -0.030292518
000350 80 1a 4d 3d 24 94 04 bd d7 54 10 bd c3 5f 6b bc
       0.0500741 -0.03236784 -0.03523716 -0.014366093
000360 ba e0 d6 bb 9b a0 15 bd e1 a0 d6 3c 18 97 0a bd
       -0.006557551 -0.03653012 0.02619976 -0.0338355
000370 9a d7 d1 bd 10 e7 b9 3c 6c 3d 76 bc 1d 4f 2b bd
       -0.10246201 0.022693187 -0.015029293 -0.041823495
000380 98 15 1e 3d 2f da 87 3c cd 41 88 bd ea 43 18 bd
       0.038594812 0.01658353 -0.066531755 -0.037174143
000390 6b 5a a5 bc d3 68 38 bd 8d bb 5c 3d 37 81 f4 3c
       -0.020184716 -0.045021843 0.0538898 0.02984677
0003a0 6e d4 0d 3d b3 9d 0e 3d 98 58 65 39 55 f9 32 3c
       0.034626417 0.034818362 0.00021872146 0.010923703
0003b0 4c eb 01 3d 81 d8 51 3d 0d be df 3c 5b 9b a1 3c
       0.031718537 0.051231865 0.027312303 0.0197274
0003c0 f5 97 06 bd 58 7d 92 3c aa 33 ef bc d1 f2 08 3d
       -0.03285976 0.017882034 -0.02919944 0.033434693
0003d0 9c 00 93 bd aa 94 96 3c eb 09 0a 3d ad d0 05 3c
       -0.071778506 0.018381435 0.033700865 0.008167428
0003e0 a3 d1 21 bc 48 3a 8d 3c 44 dc 03 3d 94 09 49 3d
       -0.009876641 0.017239705 0.032192484 0.0490814
0003f0 dd 27 92 bc d1 18 be 3d d8 c3 b7 3d 64 5a 5c bc
       -0.017841274 0.09282077 0.08972901 -0.013449285
