source/models/SingleNoteTimbreCNNSmall/model_64_20_0.002_plot.pth (torch, 58207 bytes, 21 tensors)

weight f4 [8, 1, 3, 3]
0	0x3e45a2e6	0.19300422
1	0x3db2992f	0.08720624
2	0xbe90ff95	-0.28319994
3	0xbe558f96	-0.20855555
4	0x3d0af961	0.033929233
5	0xbea468e5	-0.32111278
6	0xbc1c6b58	-0.009547077
7	0xbe391ece	-0.18078157
8	0x3ddc5a4b	0.107594095
9	0xbe600ef0	-0.21880698
10	0xbe703c8c	-0.23460597
11	0xbe2cd08c	-0.1687643
12	0xbe8767cd	-0.2644638
13	0xbe98c040	-0.29834175
14	0x3e9b7b16	0.30367345
15	0x3eadaeb0	0.33922338
16	0x3e823930	0.25434256
17	0xbe53b0cf	-0.20672916
18	0x3d6c8356	0.05774244
19	0xbd3e8918	-0.04651746
20	0xbd6e0002	-0.058105476
21	0xbe80b2e5	-0.25136486
22	0x3de22d84	0.11043838
23	0xbcb44af9	-0.022008406
24	0x3de469f6	0.11153023
25	0x3e5e8b76	0.21732888
26	0x3eb3e0ff	0.35132596
27	0x3e49a6c5	0.19692524
28	0xbd611f04	-0.05496122
29	0xbdba4bcf	-0.090964906
30	0x3ea4daae	0.3219809
31	0xbeb73fd1	-0.35790876
32	0x3e6189e2	0.22025254
33	0x3e5d2d11	0.21599223
34	0xbea61bdd	-0.32443133
35	0xbdb53ff3	-0.08850088
36	0xbe7d6422	-0.24745229
37	0x3d821fd1	0.06353725
38	0x3ea33b67	0.31881258
39	0xbeb17871	-0.34662202
40	0x3e06dba8	0.1316973
41	0xbe2919d4	-0.16513759
42	0xbe91d741	-0.28484538
43	0xbe07c724	-0.1325956
44	0xbdafa383	-0.08576109
45	0x3de7197d	0.112841584
46	0x3e8ec95b	0.27887997
47	0x3e240aea	0.16019788
48	0x3e8f764b	0.28019938
49	0x3e9849b1	0.29743722
50	0x3df1f841	0.11814929
51	0xbcbbfa9a	-0.022946645
52	0x3e56aa79	0.20963468
53	0x3e743609	0.23848738
54	0x3dce962a	0.10087235
55	0xbe92e6ca	-0.28691703
56	0x3e40cc91	0.18828036
57	0xbc9488c8	-0.018131629
58	0x3e8e23f2	0.277618
59	0xbe9beb75	-0.30453077
60	0xbe9097c4	-0.28240788
61	0x3e75df48	0.24010956
62	0x3ea79bd6	0.3273608
63	0x3a7c6aff	0.0009628981
64	0x3dfb26f1	0.12263287
65	0xbe89bf67	-0.2690384
66	0xbce29357	-0.027658148
67	0x3e2e2cff	0.17009352
68	0xbe503a62	-0.20334771
69	0xbe92d3ba	-0.2867716
70	0x3e8f481a	0.27984697
71	0x3d0ec4b7	0.03485557

weight f4 [8]
0	0x3f7538f4	0.9579003
1	0x3f7dc9d3	0.99136084
2	0x3f7af155	0.98024493
3	0x3f89727d	1.0738064
4	0x3f7223b5	0.94585735
5	0x3f69b0b1	0.91285235
6	0x3f8349a5	1.025685
7	0x3f85276f	1.0402659

bias f4 [8]
0	0xbcec1458	-0.028818294
1	0x3c1e6af7	0.009669057
2	0x3d3df6cf	0.046377953
3	0xbd124c82	-0.035717495
4	0x3db20f93	0.08694377
5	0xbd7a7f59	-0.061156604
6	0xbdb95b51	-0.0905062
7	0x3c43a56e	0.011941297

running_mean f4 [8]
0	0xbb904c34	-0.0044036154
1	0xbbc274ad	-0.005934319
2	0x3a5c09b9	0.0008393783
3	0xb9e24daf	-0.00043163958
4	0x3a6d1348	0.00090437056
5	0x3c214621	0.00984338
6	0x3abcbf96	0.0014400359
7	0xbb16f2cf	-0.0023032909

running_var f4 [8]
0	0x3ea7013f	0.32618138
1	0x3e8c5773	0.27410468
2	0x3e79cbab	0.243941
3	0x3ccaad02	0.0247407
4	0x3f0ffea2	0.56247914
5	0x402a3200	2.6593018
6	0x3d918298	0.07104987
7	0x3d2bc5ce	0.041936688

weight f4 [16, 8, 3, 3]
0	0x3ce1918f	0.027535228
1	0xbd24f2e0	-0.040270686
2	0xbc4a3dd5	-0.0123438435
3	0x3e22b26c	0.15888375
4	0x3d19f31a	0.037585355
5	0xbdaf703c	-0.08566329
6	0xbbe76f7c	-0.0070628505
7	0xbe0250cb	-0.12726133
8	0xbcd0c1e9	-0.025483089
9	0xbd57f5d8	-0.05272469
10	0xbdb060c1	-0.08612204
11	0x3ca80304	0.02050925
12	0x3b638680	0.003471762
13	0xbd826565	-0.06366996
14	0xbdcd3adf	-0.100209944
15	0x3dd50118	0.10400599
16	0xbdff3e42	-0.124630466
17	0xbd367915	-0.044549067
18	0xbda9937e	-0.08280085
19	0x3d8d110b	0.06888016
20	0xbd880a70	-0.06642616
21	0xbd61f7cb	-0.055167954
22	0x3d9efad3	0.07762685
23	0x3dd8de12	0.105892316
24	0xbd602b62	-0.054728873
25	0xbd88eaf2	-0.06685437
26	0x3d17e546	0.037083887
27	0x3dcde4d4	0.10053411
28	0x3e11062c	0.1416251
29	0xbd84240b	-0.06452187
30	0x3cf8e91b	0.03038459
31	0xbcb99b6a	-0.022657115
32	0xbcb9930c	-0.022653125
33	0xbe276430	-0.16346812
34	0xbe08ed95	-0.1337188
35	0x3dac7c86	0.084221885
36	0xbcc12443	-0.023576861
37	0x3d0d3c8b	0.034481566
38	0x3db0af3d	0.08627174
39	0xbbcd32ff	-0.0062621827
40	0x3e0b5302	0.13605884
41	0xbd0c2624	-0.03421606
42	0xbdfeda1a	-0.12443943
43	0xbd8969c7	-0.067096286
44	0x3d5c6647	0.053808477
45	0xbd83c8f0	-0.0643481
46	0x3d467056	0.048446976
47	0x3de6a3da	0.11261721
48	0x3d3c8277	0.04602286
49	0xbd8ed3f7	-0.06974023
50	0x3d8bc009	0.06823737
51	0xbdfa7fdc	-0.122314185
52	0x3cdef247	0.027215136
53	0x3dcf445a	0.10120459
54	0xbcc88f08	-0.024482265
55	0xbd68d1c6	-0.05684068
56	0x3de45650	0.11149275
57	0x3da80b5a	0.0820529
58	0x3ca730d6	0.020409029
59	0x3bc2702c	0.005933782
60	0x3914aa4b	0.00014177819
61	0x3d97241d	0.07379935
62	0x3e23a0d6	0.15979323
63	0x3dd1dc24	0.102470666
64	0x3c72ccf8	0.014819376
65	0x3bc18908	0.005906228
66	0x3ccecbfe	0.025243755
67	0x3df4c670	0.119519114
68	0x3c3ad710	0.011403814
69	0xbcaf518f	-0.021401195
70	0x3d3c67d7	0.045997467
71	0x3d674bb7	0.05646869
72	0x3df8437e	0.12122248
73	0x3d1c26ce	0.038122945
74	0xbdd554de	-0.10416578
75	0x3da70a7a	0.08156295
76	0x3e1d70a7	0.15375005
77	0x3de394e1	0.11112381
78	0x3d4edb8d	0.05050235
79	0x3d60eb2d	0.05491178
80	0xbd7e94ea	-0.062153734
81	0x3d69f4ed	0.057118345
82	0x3daee862	0.08540417
83	0x3be7492f	0.0070582847
84	0x3dfcab95	0.12337414
85	0x3d2dc2fa	0.042422272
86	0x3dc20df8	0.094753206
87	0x3e5da0c2	0.21643355
88	0x3d6f4c17	0.058422174
89	0xbd944fba	-0.07241769
90	0xbdf9779f	-0.12181019
91	0xbd902fa2	-0.07040335
92	0x3d19909d	0.03749143
93	0x3cfb38c6	0.03066672
94	0xbd1c3c25	-0.038143296
95	0xbb71bcf2	-0.0036886302
96	0x3d41bc77	0.047298875
97	0x3dcd3936	0.10020678
98	0x3df544a9	0.119759865
99	0x3c052398	0.008126162
100	0xbcf557e8	-0.029949144
101	0xbc6de9cb	-0.014521073
102	0xbcc6fd32	-0.024290655
103	0xbc83f61d	-0.016108567
104	0xbd8c0d17	-0.06838434
105	0x3cbf72c9	0.023370164
106	0x3df0e61d	0.117626406
107	0x3cd47254	0.025933422
108	0xbc61a51a	-0.013772273
109	0xbd8031ab	-0.062594734
110	0x3dd76991	0.10518182
111	0x3d926447	0.07148033
112	0x3de2b4a4	0.11069611
113	0x3d8281d7	0.06372421
114	0xbd5cf51b	-0.05394469
115	0x3dc82752	0.09773125
116	0xbc0631f7	-0.0081906235
117	0xbd14e5d2	-0.036351986
118	0xbcb58815	-0.022159616
119	0x3d74de9e	0.059782617
120	0x3ba5fbf8	0.0050654374
121	0x3b95c270	0.004570298
122	0x3d412458	0.0471538
123	0xbdc81913	-0.097704075
124	0xbda35f9c	-0.079772204
125	0xbda25712	-0.079267636
126	0x3c27f683	0.010251644
127	0xbdba3c9b	-0.09093591
128	0x3ddf5242	0.10904361
129	0xbc97b213	-0.01851753
130	0xbd991928	-0.07475501
131	0xbafb202f	-0.0019159372
132	0x3d7162d0	0.058932126
133	0x3d8cde52	0.06878342
134	0x3dd5d24a	0.104405
135	0xbcb9e65e	-0.022692855
136	0xbd14ff37	-0.036376204
137	0xbd77f311	-0.06053454
138	0x3c0a5b0d	0.00844456
139	0x3de0a2d0	0.10968554
140	0xbcaef4cf	-0.021356968
141	0x3e388109	0.18017973
142	0xbdacb77a	-0.08433433
143	0x3e027cea	0.12742963
144	0xbcb541bf	-0.022126077
145	0x3cb85b05	0.022504339
146	0xbc6061a8	-0.013695158
147	0xbd238596	-0.03992232
148	0xbdf8f67d	-0.12156389
149	0x3cca7f7e	0.024718996
150	0xbe15d79a	-0.14633027
151	0x3d597af4	0.053095773
152	0xbd1068f5	-0.035256345
153	0xbe1b7785	-0.15182312
154	0x3d924617	0.07142275
155	0x3d90b320	0.070654154
156	0xbdbf25d6	-0.093333885
157	0x3cd41d45	0.025892863
158	0xbdcb94db	-0.09940501
159	0x3c46b8ed	0.012129051
160	0xbd39aa34	-0.045328334
161	0xbc944628	-0.01809986
162	0x3d56917f	0.05238485
163	0x3c73e3b7	0.014885834
164	0x3c909c4b	0.017652651
165	0xbe0f1531	-0.13972928
166	0xbdf9ce6f	-0.12197577
167	0xbe130593	-0.14357595
168	0xbd731259	-0.05934367
169	0x3e022c15	0.12712128
170	0x3d5f0c1e	0.054454915
171	0xbd856fff	-0.06515502
172	0xbd59b469	-0.05315057
173	0xbdc4bbfc	-0.09606168
174	0x3d82f79c	0.06394884
175	0x3daf5b6c	0.08562359
176	0x3dbaa4a3	0.09113433
177	0xbd1b2744	-0.037879243
178	0x3d2a7a1d	0.041620363
179	0xbd923e7d	-0.07140825
180	0x3d39dabe	0.045374624
181	0x3ca8b1e0	0.02059263
182	0xbd38819b	-0.045045476
183	0xbd70d7c0	-0.058799505
184	0x3de8c46f	0.11365592
185	0xbc1f4968	-0.009722091
186	0x3d5f7cfe	0.05456256
187	0xbd8d14b2	-0.06888713
188	0xbdcc3159	-0.0997035
189	0xbd32570d	-0.04354005
190	0x3d883b12	0.06651892
191	0x3d74525d	0.05964886
192	0xbd565d74	-0.052335218
193	0xbe0d4c79	-0.13798703
194	0x3d6ef7d1	0.058341805
195	0xbc858260	-0.01629752
196	0xbd269c07	-0.040676143
197	0x3db73c9a	0.08947106
198	0xbda7b373	-0.08188524
199	0xbdf00251	-0.11719192
200	0xbdb497ce	-0.08818017
201	0xbe426744	-0.18984705
202	0xbc881fb4	-0.01661668
203	0x3d7bfd8b	0.061521094
204	0x3ce26f80	0.027641058
205	0xbd82f647	-0.0639463
206	0x3d065983	0.03280021
207	0xbd5e8829	-0.05432907
208	0xbd7108f2	-0.05884642
209	0xbd93a049	-0.07208306
210	0x3e025193	0.1272643
211	0xbd82d155	-0.06387583
212	0x3d599e66	0.053129576
213	0xbdd3049b	-0.10303613
214	0x3e23ae94	0.15984565
215	0x3def2042	0.116760746
216	0xbd9440a3	-0.07238891
217	0x3d7680a2	0.060181268
218	0x3cdc1369	0.026864724
219	0xbd84db06	-0.06487088
220	0x3d7c87cd	0.061652947
221	0x3d5ff551	0.05467731
222	0xbd19fcd4	-0.03759463
223	0x3d615177	0.05500933
224	0x3b1791b0	0.0023127608
225	0xbd16ba65	-0.036798853
226	0xbd305d7c	-0.043057904
227	0xbd2e31e8	-0.042528063
228	0xbccec5bf	-0.025240777
229	0x3dae5c2c	0.08513674
230	0x3cac12e2	0.021005098
231	0xbd81c512	-0.06336416
232	0xbdb5881e	-0.08863853
233	0x3dcfc701	0.10145379
234	0x3d7a984a	0.06118039
235	0x3d8e9ac0	0.0696311
236	0x3d982692	0.07429232
237	0xbcae1fb3	-0.02125535
238	0xbd79ab3e	-0.060954325
239	0x3de3bc32	0.1111988
240	0xbd60a935	-0.05484887
241	0xbd436e3d	-0.047712553
242	0xbdee4167	-0.11633568
243	0x3e030a67	0.12796937
244	0xbd9e888e	-0.077408895
245	0xbd62cbf5	-0.05537029
246	0x3cf3afec	0.029746972
247	0x3d920676	0.071301386
248	0x3b539f1a	0.0032290877
249	0x3d8bb4e7	0.06821614
250	0xbd85794d	-0.06517277
251	0x3d913f9f	0.07092213
252	0x3d06642d	0.03281038
253	0xbd8422db	-0.06451961
254	0xbe129f34	-0.14318544
255	0x3d487a64	0.048944846

weight f4 [16]
0	0x3f7cc868	0.98743296
1	0x3f818712	1.0119345
2	0x3f877a72	1.0584242
3	0x3f6fd03c	0.93677115
4	0x3f8898c3	1.0671619
5	0x3f6afeb0	0.9179487
6	0x3f7b6927	0.98207325
7	0x3f78e442	0.97223294
8	0x3f6d17ba	0.9261433
9	0x3f8620cb	1.0478758
10	0x3f8963ab	1.0733541
11	0x3f7db0bb	0.99097794
12	0x3f80317a	1.0015099
13	0x3f89aec8	1.0756464
14	0x3f7e23da	0.99273455
15	0x3f7cec15	0.9879773

bias f4 [16]
0	0xbdce2a8f	-0.10066711
1	0xbd82b820	-0.06382775
2	0x3d9960da	0.07489176
3	0xbcfc4dae	-0.03079876
4	0x3d4b21a2	0.04959262
5	0xbc3f31eb	-0.011669616
6	0xbc1d30a9	-0.009594121
7	0xbd54aa96	-0.051920496
8	0xbd666f2a	-0.056258358
9	0xbc5652d8	-0.013081275
10	0x3c577be5	0.013152097
11	0x3b6e928e	0.0036403271
12	0x3cb4d7eb	0.022075614
13	0xbd61fc90	-0.055172503
14	0x3d5ee148	0.054414064
15	0xbd904834	-0.07045022

running_mean f4 [16]
0	0x3e8829dd	0.2659444
1	0x3f60d3ff	0.8782348
2	0xbf0c8281	-0.54886633
3	0xbb216209	-0.0024625084
4	0xbfa93ae0	-1.3221092
5	0x3f612d87	0.87960094
6	0x3f892347	1.0713891
7	0xbd9fb5bb	-0.07798334
8	0xbe463943	-0.19357781
9	0xbf45e700	-0.77305603
10	0xbeb51d37	-0.35373852
11	0x3f2f1aaf	0.6840009
12	0x3f803e3d	1.0018994
13	0xbdcb66cc	-0.09931716
14	0xbed3e694	-0.41386855
15	0xbe839df9	-0.2570646

running_var f4 [16]
0	0x3e229433	0.15876846
1	0x3e74897f	0.23880576
2	0x3e9242c0	0.2856655
3	0x3e474176	0.19458565
4	0x3ea25a3b	0.31709465
5	0x3f18f5cc	0.59750056
6	0x3f6c56b1	0.9231978
7	0x3ed8aae1	0.4231787
8	0x3f21005c	0.62891173
9	0x3f0c5fb7	0.5483355
10	0x3f5bc9ad	0.8585461
11	0x3efba906	0.49152392
12	0x3e2b751c	0.16743892
13	0x3dd5b9ab	0.10435804
14	0x3e8383a2	0.25686365
15	0x3f0263ab	0.5093333

weight f4 [32, 16, 3, 3]
0	0x3b53c39a	0.0032312633
1	0x3d380ec2	0.04493595
2	0xbd787a3b	-0.060663443
3	0x3c1e8fc9	0.009677836
4	0xbc964230	-0.018342108
5	0xbd2f8066	-0.04284706
6	0x3d7ebeab	0.062193554
7	0xbcc49f9a	-0.024001885
8	0xbcd3ddca	-0.025862593
9	0xbd0a032c	-0.03369443
10	0xbd9c78e7	-0.07640248
11	0xbce5deed	-0.0280604
12	0x3cb48c38	0.022039518
13	0x3cc64532	0.024202917
14	0xbd8f92c2	-0.07010414
15	0x3c81d979	0.01585077
16	0x3c902e52	0.017600212
17	0xbd9f702d	-0.07785068
18	0x3d314820	0.043281674
19	0xbb711067	-0.0036783458
20	0x3d090531	0.033452217
21	0xbd8261ff	-0.063663475
22	0xbd89ab12	-0.06722082
23	0xbdb8323e	-0.08993958
24	0xbd4b1fc8	-0.049590856
25	0x3c62aab3	0.013834643
26	0xbd827dab	-0.063716255
27	0x3ad4c39b	0.0016232611
28	0x3d18820f	0.03723341
29	0x3d7caf67	0.061690714
30	0xbc1eccc2	-0.009692373
31	0x3cba05ef	0.022707907
32	0xbd21166f	-0.039328035
33	0x3d3f2c9f	0.046673413
34	0x3d130b67	0.035899546
35	0x3bd23532	0.006415033
36	0x3dc2a7ab	0.095046364
37	0x3d6a6e2b	0.05723397
38	0xbd21a2b8	-0.03946182
39	0x3d2c64bf	0.042088266
40	0xbd9b49ce	-0.075824365
41	0xbcbd6b81	-0.02312255
42	0x3d16aa45	0.036783475
43	0x3d261cc7	0.040554788
44	0x3da280d0	0.07934725
45	0x3b30da7a	0.002698569
46	0x3d53c931	0.051705543
47	0x3ddbffab	0.10742124
48	0xbc166bee	-0.009181006
49	0x3c0957f6	0.008382788
50	0x3dceca85	0.10097221
51	0x3d8910b1	0.06692637
52	0xbcc111b3	-0.02356801
53	0x3d032102	0.0320139
54	0x3d6e3dcb	0.0581644
55	0x3cf4570c	0.029826663
56	0x3de6a0de	0.11261152
57	0xbabad113	-0.0014252983
58	0x3ce28148	0.027649537
59	0x3e09f563	0.13472514
60	0x3b191a2f	0.0023361554
61	0xbcbe66e8	-0.023242429
62	0xbb6cb6b9	-0.0036119653
63	0xbad3c442	-0.0016156512
64	0xbd18318a	-0.03715662
65	0xbd2839be	-0.041070692
66	0x3da7992b	0.08183511
67	0xbcb06e54	-0.021536984
68	0xbc9336a1	-0.017970385
69	0xbd465939	-0.048424933
70	0x3d9a7827	0.075424485
71	0x3d75ae3f	0.059980627
72	0x3c938abe	0.018010493
73	0xbab3d4b0	-0.0013720002
74	0x3dff140c	0.124549955
75	0xbc7f068f	-0.015565529
76	0x3d8a0adb	0.06740352
77	0x3e1dcf42	0.15411094
78	0xbd33a46c	-0.043857977
79	0x3dad4f7b	0.08462425
80	0x3ccfef2f	0.025382606
81	0x3c41fecd	0.011840534
82	0xbc1efffa	-0.009704584
83	0xbdb6848e	-0.089120016
84	0x3d9d74fd	0.07688329
85	0x3c1f3728	0.00971774
86	0xbd23e7c1	-0.04001594
87	0xbd8d4ddc	-0.06899616
88	0x3d2a08c8	0.04151228
89	0xbcae800d	-0.021301294
90	0xbdcc571a	-0.09977551
91	0xbc992741	-0.018695476
92	0xbce2af6a	-0.027671535
93	0xbbd16d1e	-0.0063911816
94	0x3dc37250	0.09543288
95	0xbd20e89b	-0.03928433
96	0x3d9af74f	0.075667016
97	0xbda54cbd	-0.08071277
98	0xbcee4f1a	-0.029090453
99	0x3cba24ff	0.02272272
100	0xbc5fd6b4	-0.013662029
101	0x3deeaa7e	0.116536126
102	0x3dc81d40	0.09771204
103	0x3d91a4b0	0.0711149
104	0x3e114e4e	0.14190027
105	0x3d479635	0.048727233
106	0x3cc6fad4	0.024289526
107	0x3c42bc88	0.01188577
108	0xbcb01c11	-0.021497758
109	0xbd98e5ee	-0.074657306
110	0x3b76ed6d	0.0037678138
111	0xbbaa114c	-0.00519005
112	0xbcd7ddbe	-0.026350852
113	0x3aca9f83	0.0015458915
114	0x3c49f5c1	0.012326659
115	0xbdb240eb	-0.08703788
116	0x3ae116c5	0.0017172924
117	0xbd69984c	-0.057030007
118	0xbdced9f3	-0.10100164
119	0x3d37af32	0.044844814
120	0xbd9b49b5	-0.07582418
121	0xbdd153ad	-0.10221038
122	0xbdc9b17a	-0.09848304
123	0xbd0c25c4	-0.034215704
124	0x3c59ddb1	0.013297484
125	0x3d18e172	0.037324376
126	0x3da19727	0.07890158
127	0x3db9df28	0.09075767
128	0x3d82534d	0.063635446
129	0x3c61f60e	0.013791574
130	0x3c660d3e	0.014041243
131	0x3def11a7	0.11673289
132	0x3d49baf8	0.049250573
133	0x3d0ca7e2	0.034339793
134	0x3d30c576	0.043157063
135	0xbce84606	-0.028353702
136	0x3d0ef214	0.034898832
137	0x3dd4b412	0.10385908
138	0x3cdf2732	0.02724037
139	0x3d389e5f	0.04507291
140	0x3c7f67c5	0.015588705
141	0x3d220066	0.03955116
142	0xbdeee6ef	-0.11665141
143	0x3c329b97	0.010901353
144	0xbddea587	-0.108714156
145	0xbd9a2277	-0.07526105
146	0xbd18fe1b	-0.03735171
147	0x3c3501f3	0.011047828
148	0xbb59511b	-0.0033159915
149	0xbcfa8541	-0.030581119
150	0xbce28800	-0.02765274
151	0xbd00c46b	-0.03143732
152	0xbd483a51	-0.04888374
153	0xbd4823a6	-0.048862122
154	0x3c8a3180	0.016869307
155	0x3cbda87c	0.023151629
156	0xbcab64bb	-0.020922055
157	0xbda857e9	-0.082198925
158	0xbbc3b8bb	-0.0059729493
159	0xbcfa85f5	-0.030581454
160	0xbbba4376	-0.0056843115
161	0xbd9135b9	-0.07090325
162	0x3ae018d3	0.0017097242
163	0x3ae55e95	0.0017499501
164	0x3b10d2f8	0.0022098403
165	0x3ce7c4b3	0.028292036
166	0xbd4b7f4d	-0.04968195
167	0xbd876b58	-0.06612271
168	0xbda6a5af	-0.081370704
169	0xbdabb2ea	-0.083837345
170	0xbdce7149	-0.10080201
171	0xbd8b004e	-0.067871675
172	0xba0ed6cf	-0.0005448879
173	0xbcb026f1	-0.021502944
174	0xbd848972	-0.06471528
175	0xbccd0a43	-0.025029307
176	0x3ca4358b	0.020045063
177	0xbd54baa9	-0.051935825
178	0x3d053581	0.03252173
179	0xbcd90440	-0.026491284
180	0x3da85d3d	0.08220909
181	0xbc65b3b8	-0.014019899
182	0x3dca0881	0.09864903
183	0x3def806c	0.116944164
184	0x3d8f8b04	0.07008937
185	0xbd662709	-0.05618957
186	0xbd1a7dc9	-0.037717614
187	0xbcaed786	-0.021343004
188	0xbda1e73c	-0.079054326
189	0xbba4b0ff	-0.0050259824
190	0xbd109117	-0.03529462
191	0xbdac24ca	-0.084054545
192	0x3c964716	0.018344443
193	0x3c8c9b83	0.017163998
194	0xbd0e0a21	-0.03467763
195	0xbdbc6c45	-0.09200338
196	0x3d647669	0.055776987
197	0x3d5980e2	0.053101428
198	0x3c7dd41e	0.015492467
199	0x3d26d674	0.040731862
200	0xbd482c80	-0.048870564
201	0xbdb81c9a	-0.0898983
202	0x3d321ce9	0.043484602
203	0xbd82f0a9	-0.063935585
204	0x3d409b59	0.04702315
205	0x3c58a3a3	0.013222608
206	0xbca87e04	-0.020567901
207	0xbd764429	-0.060123596
208	0xbc8fde74	-0.017562129
209	0xbdac2134	-0.084047705
210	0xbdbbeb1c	-0.09175703
211	0xbd071914	-0.0329829
212	0x3c3a2d43	0.01136333
213	0xbc50f8a8	-0.012754597
214	0x3da77491	0.0817653
215	0xbc331407	-0.010930068
216	0xbce5f933	-0.028072929
217	0x3d4efd33	0.05053444
218	0xbd75712d	-0.059922386
219	0x3d4bda5d	0.049768794
220	0x3d48cf76	0.049025975
221	0xbcbf3e24	-0.02334506
222	0x3da0bcc3	0.078485034
223	0x3d84e465	0.06488875
224	0xba61c7ed	-0.000861286
225	0x3c9062ae	0.01762518
226	0xbd4c76ed	-0.049918104
227	0x3c7542e8	0.014969565
228	0xbdbda45d	-0.092598654
229	0xbdc45d34	-0.095880896
230	0xbd2ac1cf	-0.041688737
231	0x3cb75303	0.02237845
232	0xbd8c9fd4	-0.06866422
233	0xbd5d62fa	-0.05404947
234	0xbd115d80	-0.03548956
235	0x3da05cef	0.07830226
236	0x3d90b726	0.07066183
237	0x3ca33132	0.01992092
238	0xbd6cfb93	-0.057857107
239	0x3d995c1d	0.07488272
240	0x3bd46bf3	0.006482595
241	0xbde6fc70	-0.112786174
242	0xbd9c2797	-0.07624739
243	0xbc95cfa9	-0.018287497
244	0xbcedb2da	-0.029015947
245	0x3ce15225	0.02750499
246	0xbd8cfe99	-0.06884498
247	0x3d8fa6dd	0.070142485
248	0x3bd065bc	0.006359784
249	0x3d888d70	0.06667602
250	0x3c8140b2	0.01577792
251	0xbcbc9dda	-0.023024488
252	0x3b614e67	0.0034379007
253	0xbcfbdf0f	-0.030746011
254	0xbd294ba3	-0.0413319
255	0x3c6cb4f7	0.014447442

weight f4 [32]
0	0x3f717156	0.9431356
1	0x3f8411b9	1.0317909
2	0x3f80232a	1.0010731
3	0x3f8034cb	1.0016111
4	0x3f818cba	1.0121071
5	0x3f812382	1.0088961
6	0x3f81a51d	1.0128514
7	0x3f7c2c1e	0.9850482
8	0x3f808549	1.0040675
9	0x3f8c3d20	1.0956154
10	0x3f7eec4d	0.99579316
11	0x3f767249	0.96268135
12	0x3f7fdb83	0.99944323
13	0x3f7dc26c	0.9912479
14	0x3f85f8ba	1.046653
15	0x3f713920	0.9422779
16	0x3f80a3f2	1.0050032
17	0x3f83b0a2	1.0288279
18	0x3f7983c8	0.9746671
19	0x3f877c3b	1.0584787
20	0x3f82f203	1.0230106
21	0x3f7c40e1	0.985365
22	0x3f7adad4	0.97990155
23	0x3f81d702	1.014374
24	0x3f6df3e6	0.92950284
25	0x3f7ab355	0.9792989
26	0x3f7b838d	0.98247606
27	0x3f8d3591	1.1031972
28	0x3f8a1dac	1.0790305
29	0x3f738068	0.9511781
30	0x3f71187e	0.94178
31	0x3f7fccf9	0.9992214

bias f4 [32]
0	0xbdd6c29b	-0.10486337
1	0x3a9adf41	0.0011815802
2	0x3b8a88a0	0.0042277128
3	0xbcf6edc1	-0.030142667
4	0xbdb900c2	-0.09033348
5	0x3c8fecb8	0.017568931
6	0xbd027610	-0.031850874
7	0xbd87f6ba	-0.06638856
8	0x3dfc354c	0.12314853
9	0xbd2e7a06	-0.04259684
10	0xbd2e15a9	-0.042501125
11	0xbb682356	-0.0035421452
12	0x3c96f212	0.018425975
13	0xbb939cb7	-0.004504766
14	0xbd0a5c8c	-0.033779666
15	0xbcf51585	-0.029917488
16	0x3b9743b0	0.0046162233
17	0xbca2a9a3	-0.01985628
18	0x3d653921	0.055962685
19	0x3e026bf8	0.127365
20	0x3c89cb39	0.016820537
21	0xbdb3a217	-0.087711506
22	0xbc020de6	-0.007937884
23	0xbc18bd34	-0.009322453
24	0xbc75ac47	-0.014994687
25	0xbd5dddfa	-0.05416677
26	0x3d380112	0.044922896
27	0x3d3510ff	0.044205662
28	0xbd5928d7	-0.053017464
29	0xbcf501bb	-0.029908052
30	0x3d070eda	0.032973148
31	0x3d378eda	0.04481397

running_mean f4 [32]
0	0x3f3522c4	0.70756173
1	0xbfa9fb7d	-1.3279873
2	0xbe55aff8	-0.20867908
3	0xbf6b0c7f	-0.9181594
4	0x3df3d04c	0.11904964
5	0xbff25401	-1.8931886
6	0x3eaf523d	0.3424243
7	0x3ef50178	0.47852683
8	0xbf56fbcd	-0.8397797
9	0xbfb022fb	-1.3760675
10	0x3f902e81	1.1264192
11	0xbf281a03	-0.6566469
12	0xbeecd2ad	-0.46254483
13	0x3f4c7682	0.7986833
14	0x3eb3d47d	0.35123053
15	0x3f7f1faa	0.9965769
16	0xbf24f0f2	-0.64430153
17	0xbfc26285	-1.5186316
18	0xbf0c2ac4	-0.54752755
19	0x3f663b96	0.8993467
20	0xbe17d510	-0.1482737
21	0xbebc8b3b	-0.36824974
22	0xbeefb17a	-0.4681509
23	0xbfa5407c	-1.2910304
24	0xbf13f4d4	-0.57795453
25	0x3e5a5303	0.21320729
26	0xbf8d4916	-1.1037929
27	0xbf80fbef	-1.0076884
28	0xbf01158a	-0.5042349
29	0xc01313aa	-2.2980752
30	0x3f249cd2	0.6430179
31	0x3e1d5853	0.15365724

running_var f4 [32]
0	0x4026becc	2.6053953
1	0x3f561797	0.83629745
2	0x3f1f348e	0.6218957
3	0x3f9d59b9	1.2293006
4	0x3f8e982b	1.1140188
5	0x3fdda7c7	1.7316827
6	0x3f5620ac	0.83643603
7	0x3f36b469	0.71369034
8	0x3ee5d86d	0.44891682
9	0x3feac5bf	1.8341597
10	0x40024511	2.0354655
11	0x4041c69b	3.027747
12	0x3ef2f37a	0.47451383
13	0x3f2e8b50	0.68181324
14	0x3f93c982	1.154587
15	0x3ed0778c	0.40716207
16	0x400dfb9b	2.2184818
17	0x406f017a	3.7344651
18	0x3f1136db	0.5672433
19	0x3f44a2f7	0.76811165
20	0x3fb99669	1.4499027
21	0x3f6acb0a	0.91716063
22	0x401a1a9e	2.4078746
23	0x3fb0b98f	1.3806628
24	0x3f8dfb80	1.1092377
25	0x3fa802c4	1.3125844
26	0x3f0a64fa	0.5406033
27	0x408bfa46	4.374301
28	0x3edd2e85	0.43199554
29	0x40988ae7	4.766956
30	0x3ec65d3a	0.38743
31	0x3fb66245	1.424874

weight f4 [16, 32, 3, 3]
0	0x3c9e9ef5	0.019362906
1	0x3d0e47b0	0.034736335
2	0x3d886b76	0.066611215
3	0x3c858f2c	0.016303621
4	0xbd99dcd1	-0.075128205
5	0xbd266813	-0.040626597
6	0x3c93f5a9	0.018061476
7	0xbc7947f1	-0.015214906
8	0x3dd43005	0.103607215
9	0xbdb88245	-0.09009222
10	0xbdd646ca	-0.10462721
11	0xbd5b761a	-0.053579427
12	0xbc98e20e	-0.018662479
13	0xbc37b604	-0.0112128295
14	0x3caa13b3	0.020761346
15	0x3dd5edc4	0.10445741
16	0x3df21387	0.11820131
17	0x3c5ac153	0.013351756
18	0xbd451247	-0.048113134
19	0xbdc94afe	-0.09828757
20	0xbc33f349	-0.010983297
21	0xbd53f911	-0.0517512
22	0xbd7289a3	-0.05921329
23	0xbc049b2d	-0.008093637
24	0xbd2773e5	-0.04088201
25	0xbd475a80	-0.048670292
26	0xbcaa9ba7	-0.020826174
27	0xbd2a91b9	-0.04164288
28	0xbdd3c979	-0.10341162
29	0xbdd64a18	-0.10463351
30	0xbc7fa437	-0.015603117
31	0x3cd96848	0.026538983
32	0x3d6f67e5	0.05844869
33	0x39c344f2	0.00037244667
34	0x3d1a4d04	0.037671104
35	0xbac5375d	-0.0015046407
36	0x3d22c9e7	0.03974333
37	0x3d759601	0.059957508
38	0x3c9a99ae	0.018872108
39	0xbad78a4d	-0.0016444415
40	0xbd0cbd1a	-0.03436003
41	0xbcecaf37	-0.028892143
42	0xbda746e3	-0.081678174
43	0xbca2fe67	-0.0198967
44	0x3d8660ae	0.06561409
45	0xbdc3461a	-0.09534855
46	0x3ca0b66d	0.019618237
47	0xbd9b0d1d	-0.075708605
48	0xbd22c7be	-0.03974127
49	0xbda7d3f3	-0.08194723
50	0xbd8d6ba7	-0.06905299
51	0x3d57473c	0.05255817
52	0x3d6b819c	0.057496652
53	0x3d56d75b	0.052451473
54	0x3d80da54	0.06291643
55	0x3ddee4aa	0.10883458
56	0x3d7c82b7	0.061648097
57	0x3cb96579	0.022631394
58	0xbd4b8e21	-0.04969609
59	0xbd30a404	-0.043125167
60	0xbce745e1	-0.028231563
61	0x3d42f9d1	0.047601525
62	0x3d42ee9a	0.04759083
63	0x3d8f9012	0.07009901
64	0xbbba5ea3	-0.005687551
65	0x3ce06102	0.027390007
66	0x3d1e3131	0.03862113
67	0x3d58bb29	0.052912865
68	0x3cb349b4	0.02188573
69	0xbe0a7362	-0.13520578
70	0xbd1a5b93	-0.03768499
71	0xbc5ee8c8	-0.013605304
72	0xbda219af	-0.07915055
73	0xbd89f734	-0.067366034
74	0xbd393623	-0.045217644
75	0x3d8ff55c	0.070292205
76	0x3ddeb80a	0.108749464
77	0x3d456386	0.048190616
78	0x3c9355d4	0.017985262
79	0x3d3fb5ad	0.04680412
80	0xbd000310	-0.03125292
81	0x3d3a8c52	0.045543976
82	0xbc919965	-0.01777334
83	0x3d405241	0.046953443
84	0x3c7f4a81	0.015581728
85	0xbd009e8e	-0.03140121
86	0xbd93a6d2	-0.07209553
87	0x3dddb997	0.10826414
88	0x3d025305	0.031817455
89	0x3d13d7cc	0.03609447
90	0xbd0fa77d	-0.03507184
91	0xbd7ad083	-0.06123401
92	0xbddaae8c	-0.106778234
93	0xbd235831	-0.039879028
94	0x3ca18ed7	0.019721432
95	0xbd1dbf87	-0.038512733
96	0x3a3e54b8	0.0007260549
97	0x3cfce559	0.03087108
98	0x3d93e7e5	0.07221965
99	0x3cf1d0ca	0.029518504
100	0xbd81a893	-0.06330981
101	0x3b224e01	0.0024765732
102	0x3cbc8714	0.023013629
103	0xbd886e50	-0.066616654
104	0xbc0825e8	-0.008309819
105	0x3cc367d9	0.02385323
106	0xbb9b5ce2	-0.004741297
107	0xbcc3c064	-0.02389545
108	0xbd91489d	-0.07093928
109	0xbd75b6b3	-0.05998869
110	0xbd767a05	-0.06017496
111	0x3ccdf194	0.025139607
112	0xbb933e34	-0.004493499
113	0xbd340218	-0.04394731
114	0x3c891e27	0.01673801
115	0xba55328a	-0.0008132836
116	0xbc2a386f	-0.010389431
117	0x3d3fdb4d	0.04684
118	0x3cb8720b	0.022515317
119	0xbd885e65	-0.06658629
120	0xbcbfe6e5	-0.023425529
121	0x3baceb00	0.0052770376
122	0xbb2382c4	-0.0024949769
123	0xbd795e9a	-0.060881235
124	0x3cc2e459	0.023790525
125	0x3d285fdc	0.041107044
126	0x3dfd5148	0.12369019
127	0x3dd0fed8	0.102048576
128	0x3ac00d8a	0.0014652472
129	0xbcaedde8	-0.021346048
130	0xbd85a2d5	-0.06525198
131	0x3c9cfbc3	0.019163018
132	0xba0716ba	-0.0005153228
133	0x3d4e52e7	0.05037203
134	0x3d013b33	0.031550597
135	0xbce5467f	-0.027987717
136	0x3c02c42f	0.007981344
137	0xbd8b21ba	-0.06793542
138	0xbd06c72a	-0.03290478
139	0xbc17e29e	-0.009270338
140	0xbd96af18	-0.07357615
141	0xbd1d3fbb	-0.038390856
142	0xbbb2e5b4	-0.0054595117
143	0xbc258c91	-0.010104314
144	0xbd2b75fc	-0.041860566
145	0xbdb02767	-0.086012654
146	0xbc56eb85	-0.013117676
147	0x3c704c36	0.014666608
148	0xbcbf44b9	-0.0233482
149	0xbc8d62e3	-0.017259067
150	0xbce9c00f	-0.028533963
151	0xbda3b02a	-0.07992585
152	0xbc8d53fa	-0.017251957
153	0x3d13db77	0.03609797
154	0xbce60ef5	-0.028083304
155	0xbd3943c7	-0.045230653
156	0xbb2ce50f	-0.0026381647
157	0xbcb710ed	-0.022346938
158	0xbd15d7b8	-0.03658268
159	0x3d915ef3	0.07098188
160	0x3df68736	0.12037508
161	0x3c3d1c1b	0.011542345
162	0xbcb8b356	-0.022546452
163	0xbd2a9fa1	-0.04165614
164	0x3d0f9cfd	0.035061825
165	0xba7fc7bb	-0.000975724
166	0x3d4146d4	0.047186688
167	0x3d3c55bc	0.0459802
168	0xbcd2be72	-0.025725577
169	0xbd59cc94	-0.053173617
170	0xbd232f92	-0.03984029
171	0xbe15fb5f	-0.14646672
172	0xbd1c9bd6	-0.038234554
173	0xbde3c7cc	-0.111220926
174	0x3d898c3c	0.06716201
175	0x3d003e58	0.031309456
176	0x3d40e50b	0.047093432
177	0x3aeeb089	0.001821057
178	0x3d24f662	0.04027403
179	0xbd39a7a6	-0.045325898
180	0xbd15de23	-0.0365888
181	0xbdf3bead	-0.11901603
182	0xbde1f8e6	-0.11033802
183	0x3d51f066	0.051254652
184	0xbbdcc854	-0.006737748
185	0xbd3617d7	-0.04445633
186	0xbd939290	-0.07205689
187	0xbdb7e31c	-0.089788646
188	0xbd852d34	-0.065027624
189	0x3d038f47	0.03211906
190	0x3d07e9b9	0.03318188
191	0x3d91e086	0.071229026
192	0x3c6ae45b	0.014336671
193	0xbd9c211e	-0.07623504
194	0x3b264a52	0.0025373888
195	0xbd970704	-0.07374385
196	0xbd2e0209	-0.04248241
197	0x3c5aa422	0.013344796
198	0xbd907ad3	-0.07054677
199	0xbd1642a7	-0.03668466
200	0xbc835cce	-0.016035464
201	0x3cabe458	0.020982906
202	0x3d35dff4	0.04440303
203	0x3cf217b9	0.029552327
204	0x3c09584a	0.008382866
205	0x3b682756	0.0035423837
206	0x3c290069	0.010315039
207	0xbde1b9c3	-0.11021759
208	0xbda809f1	-0.08205021
209	0xbd4cf35b	-0.05003677
210	0x3c93dc9f	0.018049536
211	0x3d06514f	0.032792386
212	0xbcb5e571	-0.022204133
213	0x3d6eb992	0.058282442
214	0x3d95af10	0.07308781
215	0x3cd9d766	0.026591968
216	0xbd50cceb	-0.050976675
217	0x3c1cfc3a	0.00958162
218	0xbd58b379	-0.052905533
219	0x3d2adeb0	0.041716278
220	0xbc68695b	-0.014185275
221	0xbc5010f6	-0.012699356
222	0xbdc6870f	-0.09693729
223	0x3c4bdea2	0.0124432165
224	0x3d7e48ec	0.062081262
225	0xbd910e41	-0.07082797
226	0xbca75772	-0.02042744
227	0xb8f0f776	-0.00011490185
228	0xbc2c2a5f	-0.010508149
229	0x3c65b817	0.014020941
230	0x3d90b8a7	0.0706647
231	0xbdd4350c	-0.103616804
232	0xbd847ca1	-0.064690836
233	0xbc7c6629	-0.015405216
234	0xbd4debdb	-0.050273757
235	0xbd773224	-0.060350552
236	0xbc6d1bd0	-0.014471963
237	0x3d28076c	0.041022703
238	0xbb062078	-0.002046613
239	0xbcada033	-0.021194553
240	0xbd765271	-0.060137216
241	0x3a0e4c10	0.00054282043
242	0x3c8b5775	0.017009476
243	0xbd14e095	-0.03634699
244	0xbda81d37	-0.08208697
245	0xbd5ec573	-0.05438752
246	0x3d9eb7a1	0.07749868
247	0x3d675b26	0.05648341
248	0xbd02be2d	-0.031919647
249	0xbc1c4a2d	-0.009539169
250	0xbcfa0e4e	-0.0305244
251	0x3c651738	0.013982587
252	0x3d95eb7f	0.07320308
253	0x3dd12fa8	0.10214168
254	0x3cb4cef7	0.022071345
255	0xbc11f6b3	-0.008908915

weight f4 [16]
0	0x3f810e0f	1.0082415
1	0x3f870beb	1.0550512
2	0x3f82f186	1.0229957
3	0x3f7a34c7	0.9773678
4	0x3f89f890	1.077898
5	0x3f7ba3ba	0.982967
6	0x3f8434f0	1.0328655
7	0x3f82cf6c	1.021955
8	0x3f863fce	1.0488222
9	0x3f7b809e	0.9824313
10	0x3f7ba1cd	0.98293763
11	0x3f769702	0.9632417
12	0x3f792905	0.97328216
13	0x3f7b5e5d	0.9819086
14	0x3f74087a	0.95325434
15	0x3f7beeee	0.9841145

bias f4 [16]
0	0xbc16e7cf	-0.009210541
1	0x3cfbdf3a	0.030746091
2	0x3d7352bd	0.059405077
3	0xbdce6bec	-0.10079178
4	0xbcef41d1	-0.029206188
5	0xbc87aecc	-0.016562842
6	0xbcc8b472	-0.024500106
7	0xbccb6d39	-0.024832355
8	0x3cc3baee	0.023892846
9	0xbb51a3e4	-0.0031988556
10	0xbcb09b37	-0.021558387
11	0xbd9961ad	-0.07489333
12	0xbd768e01	-0.06019402
13	0xbb14844e	-0.0022661868
14	0xbc5dbead	-0.01353423
15	0x3bcb83c3	0.0062107756

running_mean f4 [16]
0	0xbfb30b6e	-1.3987863
1	0xbfd4a0bb	-1.6611551
2	0xbe2dea83	-0.1698399
3	0x3eb43e02	0.35203558
4	0xbf4b2c28	-0.7936425
5	0x3f46294b	0.7740676
6	0xbf337552	-0.7010089
7	0xbfcca627	-1.5988206
8	0x3eea48f8	0.45758796
9	0xbfea63a1	-1.8311654
10	0xbf4e4d26	-0.8058647
11	0xbd2de28f	-0.04245239
12	0xbfe880c9	-1.8164302
13	0x3f92c430	1.1466122
14	0xbee9a9c4	-0.45637333
15	0xbfa9e24f	-1.3272189

running_var f4 [16]
0	0x3f0324c1	0.51227957
1	0x3fe299cf	1.7703189
2	0x3fa0ca56	1.2561748
3	0x400acab2	2.1686215
4	0x40795c8c	3.8962736
5	0x3f5d4586	0.8643421
6	0x3feddd15	1.8583094
7	0x4037cb39	2.8717787
8	0x3f48bb01	0.78410345
9	0x4096ca27	4.712177
10	0x3f0998f6	0.53749025
11	0x3ff6c0f1	1.9277631
12	0x3fb95a85	1.4480749
13	0x40808d3c	4.0172405
14	0x3fa5a5e7	1.2941254
15	0x3f8f6e91	1.1205617

weight f4 [1, 16, 4, 5]
0	0xbc990a2f	-0.018681614
1	0x3d4f45c1	0.050603632
2	0x3d366903	0.04453374
3	0x3da4c0af	0.08044564
4	0x3dae4682	0.08509542
5	0xbd5b9545	-0.05360915
6	0xbdb3b172	-0.087740794
7	0x3d5f6081	0.054535393
8	0x3d6697ba	0.05629704
9	0x3c8b84c9	0.01703109
10	0x3ceabc8f	0.028654365
11	0xbc8883ea	-0.016664464
12	0xbc8f96b9	-0.017527925
13	0x3c2b5f6d	0.010459763
14	0x3d19d08c	0.0375524
15	0x3c60ab94	0.013712782
16	0x3bd49864	0.006487893
17	0xbd2351df	-0.039873
18	0x3cc8e099	0.024521159
19	0xbda23b73	-0.07921495
20	0xbc6b6c3f	-0.01436907
21	0xbd0999f1	-0.033594076
22	0x3c09489b	0.008379127
23	0xbd584b1a	-0.052805997
24	0xbcfa9fc3	-0.030593758
25	0xbb63395b	-0.0034671638
26	0xbc08c7a5	-0.00834838
27	0x3d9b0f3c	0.07571265
28	0x3d3b336c	0.045703337
29	0x3dc1e38b	0.094672285
30	0xbdad6405	-0.08466343
31	0xbd992e14	-0.07479492
32	0xbd15df2b	-0.036589783
33	0xbda47ec3	-0.080319904
34	0x3d4b16ca	0.04958228
35	0x3d163586	0.036672138
36	0xbc1670f0	-0.0091822
37	0xbd11040b	-0.035404246
38	0xbd528a89	-0.05140165
39	0x3d5175ec	0.05113785
40	0x3bc87021	0.0061168824
41	0xbd17e4ca	-0.037083425
42	0xbd80cea0	-0.062894106
43	0xbce7de2a	-0.028304178
44	0x3c6e7d79	0.014556282
45	0x3ccf4dd4	0.025305666
46	0xbc30d79b	-0.010793592
47	0xbd15313c	-0.036423907
48	0xbdcdea8c	-0.10054502
49	0x3dcdbc6a	0.10045703
50	0x3d6b5321	0.057452325
51	0xbb312f78	-0.002703635
52	0x3d9dff4f	0.07714712
53	0x3d8b8363	0.068121694
54	0xbb2d94e5	-0.0026486453
55	0xbd30cc53	-0.04316361
56	0xbd8a20bd	-0.067445256
57	0xbd8c5daf	-0.06853806
58	0xbbf5f025	-0.007505434
59	0xbd05d238	-0.032671183
60	0x3d12a0c0	0.035797834
61	0x3d28a106	0.04116919
62	0x3aafc934	0.0013411404
63	0x3cba76e8	0.022761777
64	0x3d507797	0.0508953
65	0xbbb29615	-0.00545002
66	0xbc89a7e8	-0.016803697
67	0x3ceda8ac	0.029011093
68	0xbc09102b	-0.008365671
69	0x3e010379	0.12598981
70	0xbc57c32e	-0.013169093
71	0xbcc6cfbc	-0.024268977
72	0xbd8cc4af	-0.06873452
73	0xbc1170af	-0.0088769635
74	0xbc886d6d	-0.01665374
75	0x3cbe7d45	0.023253093
76	0x3c381f4e	0.011237932
77	0xbc34d48d	-0.011037004
78	0xb9b8b2dc	-0.00035228475
79	0xbd5b656f	-0.05356353
80	0xbd8a9dbf	-0.06768369
81	0x3da9161c	0.0825617
82	0x3dcb5a2a	0.09929307
83	0x3dcdb272	0.10043801
84	0x3cf074ec	0.029352628
85	0xbd12824b	-0.03576879
86	0xbceb6de9	-0.028738933
87	0xbcfdf6f9	-0.031001555
88	0xbd3448e4	-0.044014826
89	0xbc2c72f7	-0.010525457
90	0xbc89e7e0	-0.0168342
91	0xbd92e5ad	-0.071727134
92	0x3b5059c8	0.0031791795
93	0xbad3477b	-0.0016119325
94	0xbc0b641c	-0.008507755
95	0x3cd67ec5	0.026183495
96	0x3afe2bea	0.001939175
97	0x3d22c356	0.039737068
98	0xbd183907	-0.03716376
99	0xbd1a222f	-0.037630256
100	0xbdbbba12	-0.091663495
101	0xbcfc63d5	-0.030809322
102	0x3ce82c30	0.028341383
103	0x3c3f63e9	0.011681535
104	0xbd2f0f52	-0.04273922
105	0x3d1c0f19	0.038100336
106	0x3d6c46ab	0.05768458
107	0xbd211342	-0.039325006
108	0x3c8fd4ca	0.01755752
109	0x3ce77568	0.028254226
110	0x3c8edc88	0.017439142
111	0x3d89077c	0.06690881
112	0xbd61b7a2	-0.055106767
113	0xbb75ec85	-0.003752501
114	0xbd19423a	-0.037416674
115	0x3ade79c3	0.0016973544
116	0x3d88231a	0.0664732
117	0xbbf788e0	-0.0075541586
118	0xbc24c591	-0.010056869
119	0xbc840f0b	-0.016120454
120	0xbda06480	-0.07831669
121	0xbc7ef00a	-0.015560159
122	0xbd324d83	-0.043530952
123	0x3d92ab32	0.07161559
124	0x3d0666ff	0.03281307
125	0xbc49d91f	-0.012319832
126	0xbd91beef	-0.07116496
127	0xbde3575c	-0.11100647
128	0x3d3751b7	0.044755664
129	0x3dab7297	0.08371466
130	0x3d76a24f	0.060213383
131	0xbc9c5385	-0.019082794
132	0x3cffdd0b	0.031233331
133	0xbce69a18	-0.02814965
134	0xbdc6144f	-0.09671842
135	0xbd7d1d7b	-0.061795693
136	0x39b53049	0.00034558985
137	0xbd8e75c4	-0.06956056
138	0x3b5f2081	0.0034046473
139	0xbcb003d8	-0.021486208
140	0xbbfd6021	-0.0077324067
141	0x3b35ae2e	0.0027722227
142	0xbd085983	-0.03328849
143	0xbd116e20	-0.035505414
144	0xbc06c672	-0.008226024
145	0xbc07be5d	-0.008285132
146	0x3e041109	0.12897123
147	0x3dd9dc23	0.10637691
148	0x3c33df44	0.010978524
149	0x3d5f55a6	0.05452504
150	0x3ce37d95	0.027769843
151	0x3cef0f15	0.029181996
152	0x3d7ff673	0.06249089
153	0x3d9ac5ea	0.0755728
154	0x3d9c4762	0.07630803
155	0xbd691914	-0.056908682
156	0x3bebba5f	0.007193848
157	0xbd5e793e	-0.054314844
158	0x3cce4357	0.025178595
159	0x3d57b34c	0.052661225
160	0x3cc2ae4f	0.023764757
161	0x3c2e666d	0.010644537
162	0xbccba86c	-0.024860583
163	0x3cc6df25	0.024276325
164	0xbdeb89ed	-0.11500917
165	0x3da5a559	0.08088178
166	0x3dd99acb	0.106252275
167	0x3d4ef7ac	0.050529167
168	0x3d47dead	0.048796345
169	0xbd248a4d	-0.040170956
170	0xbd143b61	-0.03618944
171	0x3c6f9927	0.014623917
172	0x3d3e8a65	0.046518702
173	0x3d7908e1	0.060799483
174	0x3dc50bd6	0.09621398
175	0xbba4b47e	-0.005026399
176	0xbc6c8ca9	-0.014437833
177	0xbbeaa672	-0.007160955
178	0x3c77b96f	0.015119894
179	0x3d56f4a4	0.0524794
180	0x3b194384	0.002338619
181	0x3caa843a	0.020815004
182	0xbcbd4630	-0.023104757
183	0xbd744647	-0.059637334
184	0xbd87f249	-0.06638009
185	0x3d0528de	0.032509677
186	0xbd15f509	-0.036610637
187	0xbd6674c1	-0.05626369
188	0x3c163ee1	0.009170265
189	0xbd31c8e1	-0.043404464
190	0x3db43693	0.08799472
191	0xbb8053f0	-0.003916256
192	0x3ca94516	0.020662826
193	0x3d38b414	0.04509361
194	0x3d47f3fa	0.04881666
195	0x3c517475	0.012784113
196	0x3cf47a4c	0.029843472
197	0xbd06a2f6	-0.032870255
198	0xbb1f3720	-0.0024294332
199	0xbda4f6fc	-0.08054921
200	0x3d076ba1	0.033061627
201	0x39788292	0.00023699764
202	0x3d4bb760	0.049735427
203	0x3d8fa89e	0.07014583
204	0xbc95f589	-0.018305557
205	0x3d0af3a0	0.033923745
206	0xbda6867d	-0.0813112
207	0xbc57df96	-0.013175866
208	0xbb708831	-0.003670227
209	0x3df34ecd	0.118802644
210	0x3b6bc1e2	0.0035973717
211	0x3be401f4	0.0069582406
212	0xbd13fac8	-0.036127836
213	0x3c2e03af	0.010620995
214	0x3d19e832	0.037574954
215	0x3d37e43c	0.044895396
216	0x3bca34f9	0.0061708656
217	0xbc79aedd	-0.015239445
218	0xbd4e7d8c	-0.0504127
219	0x3d443cd9	0.04790959
220	0xbd94adc9	-0.072597094
221	0x3c89854b	0.016787192
222	0x3d8132a5	0.06308488
223	0x3c6aaf88	0.0143240765
224	0x3d5a537b	0.05330227
225	0x3c6e2d3e	0.014537154
226	0x3d302edc	0.04301344
227	0x3c9bed04	0.019033916
228	0xbd49e837	-0.049293723
229	0x3dc03384	0.09384826
230	0xbc95f1a5	-0.018303702
231	0x3c11e28f	0.008904113
232	0x3d4f2a24	0.050577298
233	0x3d2df346	0.04246833
234	0xbd24578b	-0.04012255
235	0x3d2b5d05	0.041836757
236	0x3adf3c7e	0.0017031578
237	0x3d454aec	0.048167154
238	0xbc8fb16a	-0.017540652
239	0x3d885513	0.066568516
240	0x3d14c415	0.03631981
241	0xbcb5d141	-0.022194507
242	0x3d884649	0.06654031
243	0xbc8e5589	-0.01737477
244	0x3d1a6b79	0.03770015
245	0xbcefd9a1	-0.029278578
246	0x3cae91fa	0.021309841
247	0xbd819860	-0.06327891
248	0x3d5c3e7e	0.053770535
249	0x3d9184d1	0.07105411
250	0xbd743f86	-0.059630893
251	0xbd5f0716	-0.054450117
252	0xbd6910e3	-0.05690087
253	0xbb8eabd8	-0.0043539815
254	0xbd3dabf1	-0.046306554
255	0xbd510374	-0.051028684
