source/models/MelodyTimbreCNNSmall/model_128_25_0.003_smalltest.pth (torch, 58237 bytes, 21 tensors)

weight f4 [8, 1, 3, 3]
000000 c5 f1 b4 3e 72 6f 77 3e ff a7 b7 bc 35 74 1d be
       0.35340706 0.24163607 -0.022418974 -0.1537636
000010 cc d2 16 3e df c3 6c be 64 b2 ca bd 26 eb 5f be
       0.1472885 -0.23121594 -0.098973066 -0.21867046
000020 0e 99 ee be 07 8d 33 3f 61 39 c6 bc 54 9b 9c 3d
       -0.46601146 0.70137066 -0.024197282 0.07646814
000030 7f 1f c3 3e 4e f9 85 be a5 f2 fd bd dc d8 48 3e
       0.38109967 -0.26166767 -0.123997964 0.19613975
000040 a4 7a 88 bd 7e 3c a0 be 27 10 d4 bd ae 94 ad 3e
       -0.06664017 -0.31296152 -0.10354643 0.33902496
000050 77 99 5b 3e 44 6b 92 3d f1 50 a1 3e 37 2d d5 3e
       0.21445261 0.071493655 0.31507066 0.4163606
000060 8e 97 3e be 60 c2 e1 3e e9 4b 11 be cb d0 f7 3b
       -0.18612501 0.4409361 -0.14189114 0.007562732
000070 d9 e3 86 3e 30 bf a5 be 2f 59 6b 3d cd 57 ab 3e
       0.2634571 -0.32372427 0.0574581 0.33465424
000080 1c 21 7d be c4 13 b9 bc b7 14 02 3f a4 5d c1 be
       -0.24719661 -0.022592433 0.5081286 -0.37766755
000090 ca cd a1 3d ef 4f 71 be 36 f4 52 be 38 3f c6 bb
       0.07900579 -0.23565648 -0.20600972 -0.0060500167
0000a0 25 c2 45 bf 63 a2 cd be 57 f5 d8 3e a0 29 15 bd
       -0.77249366 -0.40162954 0.4237468 -0.03641665
0000b0 5d e1 87 bd 5c 99 9c be b6 76 96 3d b7 1d 30 be
       -0.066347815 -0.30585754 0.07346861 -0.17198835
0000c0 b1 c8 c9 bc de d1 a4 3d a7 00 2c bd 0b 94 93 3c
       -0.02463183 0.080478415 -0.04199281 0.018014928
0000d0 ff 81 1f 3f e9 3a 04 3f b2 95 bc 3e ff 4a 88 be
       0.62307733 0.5165239 0.36832958 -0.26619717
0000e0 18 21 15 be 33 2c 94 3d 07 59 99 be 15 a8 9e be
       -0.14563406 0.07234993 -0.29950735 -0.3098761
0000f0 48 23 89 be 03 7c 05 be d3 d1 9e be 32 d9 2d be
       -0.2678473 -0.13035588 -0.31019458 -0.16977385
000100 48 ce 24 be bc 64 6b be 70 9b 86 bd 95 03 a5 3e
       -0.16094315 -0.22987646 -0.06572616 0.32229295
000110 b0 ac e0 3e e6 ef 0b be 83 d0 41 3d 58 73 cf bc
       0.4388175 -0.13665733 0.047317993 -0.025323555

weight f4 [8]
000000 6a 6a 70 3f b6 a8 92 3f ef 53 68 3f 53 37 4c 3f
       0.93912375 1.1457736 0.9075307 0.7977192
000010 32 9c 67 3f 20 b9 6d 3f ea aa 3a 3f 06 9d 9f 3f
       0.9047271 0.92860603 0.72917044 1.2469795

bias f4 [8]
000000 f2 31 86 3d 1b b6 23 be 03 e9 be be 3a c2 4a be
       0.06552495 -0.15987436 -0.3728715 -0.19800654
000010 c0 19 84 3c 80 c6 46 3d 23 0c 16 be 53 d1 e8 bc
       0.01612556 0.048529148 -0.14653067 -0.028420126

running_mean f4 [8]
000000 49 90 99 3b f4 63 96 3b 36 7f 81 3b cc a4 ac b9
       0.0046863896 0.004589552 0.0039519323 -0.0003292918
000010 1b 80 ad bb c0 0d a5 bb f6 8b b8 39 a6 b7 c8 ba
       -0.0052948124 -0.0050370395 0.00035199494 -0.001531352

running_var f4 [8]
000000 d9 1f 9b 3e 40 57 f5 3e 66 e9 e8 3f f0 1c 20 3e
       0.30297735 0.4791813 1.8196228 0.15636039
000010 9f ae c9 3f 5d be 31 3f 8e 8f cf 3f e6 49 32 3d
       1.5756415 0.69431096 1.6215684 0.043527506

weight f4 [16, 8, 3, 3]
000000 e4 42 a6 3e da 79 93 3d 61 55 82 bd f1 15 2b 3e
       0.32472908 0.07200976 -0.06363941 0.16707589
000010 22 97 71 3d 75 ae 29 3d 80 d4 21 bd c9 f1 7e bd
       0.058982022 0.04142614 -0.039509296 -0.062242303
000020 f0 e5 88 bd 38 f8 d8 bd 7a c2 df 3d 7e 67 30 3d
       -0.06684482 -0.10594219 0.10925765 0.043067448
000030 17 48 43 3e 95 1b 0f 3e a9 c5 93 3e da 76 11 3e
       0.19070469 0.13975365 0.2886174 0.14205495
000040 f1 22 7b 3e 3a fa e8 3d bd 4d 88 3d 90 4e b2 3b
       0.24525048 0.11375852 0.066554524 0.0054414943
000050 e0 a3 e0 3d b5 87 62 3e 54 12 b3 3e b1 3f 90 3e
       0.10968757 0.2212208 0.3497492 0.28173593
000060 67 9a 83 3e 81 70 42 3e cc af 35 3e 83 c0 d2 bd
       0.25703737 0.1898823 0.17742842 -0.10290625
000070 49 09 ce bd 4c 60 bf 3d 94 68 85 bd 50 3a 84 3d
       -0.10060365 0.09344539 -0.06514087 0.06456435
000080 b3 dc 68 3d 28 8e 1c 3e 27 a2 80 bd 08 79 e7 3d
       0.0568511 0.15288603 -0.06280928 0.11302382
000090 4b 41 d8 bd 93 c0 99 bd 5f 92 22 bd 87 d6 35 3e
       -0.10559329 -0.07507434 -0.03969037 0.17757617
0000a0 79 3f cf 3d 51 89 5a bc 9a f9 94 bd 63 79 59 3d
       0.10119528 -0.013338403 -0.0727417 0.05309428
0000b0 81 4e 29 3e 88 7f 2c 3d 41 3a b6 3e ec 31 ee 3e
       0.16533853 0.04211381 0.3559132 0.46522462
0000c0 bc 27 1e 3e c3 bd 0d 3e 42 ac 6d bc 68 ef ad 3e
       0.15444845 0.1384192 -0.0145064015 0.33971715
0000d0 7b 61 19 3e 88 d4 14 3e 7f 84 1c bb 19 e9 ca 3b
       0.14978592 0.14534199 -0.0023882685 0.006192338
0000e0 dd e3 d6 3d 07 a8 0d 3d 82 e7 ca bd 42 8e 56 bd
       0.1049268 0.03458407 -0.09907438 -0.05238176
0000f0 4a 3c 31 3e f6 11 2d 3c 1f 6c 13 3e 1f be 03 be
       0.17308155 0.010563364 0.14396714 -0.12865494
000100 5b d3 b0 be 69 a6 69 be 70 ad 2c be af 84 12 3e
       -0.3453625 -0.22817387 -0.16863036 0.14308427
000110 8a 7b c7 bd 02 f8 3d 3e fe 96 cb 3d a2 f3 69 bd
       -0.0974036 0.18551639 0.09940909 -0.057117112
000120 1d f8 d7 bd 87 65 31 bd 5f fd f1 3d 8c 55 5c be
       -0.10545371 -0.043309715 0.11815905 -0.21517009
000130 71 32 c9 3d 1f 5e f5 bc 3b a6 e0 be 9b b9 f2 be
       0.09824074 -0.029952107 -0.43876824 -0.4740723
000140 78 f7 f5 be 74 54 fb 3d 7e ee ae be 45 24 23 bc
       -0.48040366 0.122719675 -0.3416633 -0.009957378
000150 38 98 a3 bd 1d 46 49 be 02 15 61 bd b4 64 ce 3c
       -0.07988018 -0.19655652 -0.054951675 0.025194503
000160 0b 6a 09 bd c1 22 cf 3d d6 9a a1 bd 6f cd 4a be
       -0.033548396 0.10114051 -0.07890861 -0.19804929
000170 59 48 95 be 38 f6 de ba 97 d0 93 3d 6b b4 50 3d
       -0.2915676 -0.0017010635 0.0721752 0.05095331
000180 d8 29 4d be 16 b7 db bb 00 f4 b3 bd 75 20 5a be
       -0.20035493 -0.006705175 -0.08786774 -0.21301444
000190 12 25 3b 3c 0a 77 d2 bc 68 b0 62 be 33 35 ac 3d
       0.0114224125 -0.025691528 -0.22137606 0.084085844
0001a0 e0 28 79 3d 66 3d 8a be 61 8d a1 bd cd d7 e9 3d
       0.060829997 -0.26999968 -0.07888294 0.11418114
0001b0 30 6a 3e be 54 d4 4f 3e 1f 20 5f bd 8e c1 d5 bd
       -0.18595195 0.2029584 -0.054473992 -0.10437308
0001c0 d7 83 23 be bc 7b 03 bc b0 3f 18 be 5e 5a 40 3e
       -0.15968262 -0.008025106 -0.14868045 0.18784472
0001d0 cb ad ee bd 15 b2 d7 bd 0d 25 3c be ea 57 dd bd
       -0.11654242 -0.10532013 -0.18373509 -0.10807784
0001e0 fd 41 37 be 6d 6f 1f be e8 23 db 3d a3 fb 90 3e
       -0.17896266 -0.1556985 0.10700208 0.28316984
0001f0 23 2e 5c 3e e5 bc 7a 3e c8 4c f0 3c 5b d2 2f 3e
       0.21501975 0.2448612 0.029333487 0.17170088
000200 9d 62 76 bd 31 be 3a bd 07 22 88 bd 9f 40 c2 bd
       -0.06015264 -0.045591537 -0.06647115 -0.09484982
000210 1b 23 a3 be d1 a3 39 bd 97 65 46 be c9 0c 72 3d
       -0.3186272 -0.045322243 -0.19374691 0.059094224
000220 d8 e0 4e be a8 d6 0c 3e d6 a3 08 3e 8b 3d b5 bd
       -0.20202959 0.1375376 0.13343748 -0.08849629
000230 01 fb 12 3d 2e 26 87 3e 56 34 aa bd f1 b9 54 be
       0.035883907 0.26396316 -0.083107635 -0.20774056
000240 5a 2b 34 be 18 92 80 be 89 b2 80 be a8 bf 2a 3e
       -0.17594662 -0.2511146 -0.25136212 0.16674674
000250 c1 8a 22 3e 9c c2 43 3e d6 5c 52 be 6d 73 0d be
       0.15873243 0.19117206 -0.20543227 -0.13813563
000260 b7 8a 23 3c 8f ff d1 bd c7 7f 55 be fc ac 00 be
       0.009981803 -0.10253822 -0.20849524 -0.12565988
000270 a5 1a 42 3c cc a2 d2 3b 12 85 49 be 97 bb a2 bd
       0.011847173 0.0064280983 -0.19679669 -0.07945936
000280 7c dd a7 bc c9 b6 3e be 5b f3 67 3d 6a ae 18 be
       -0.020491354 -0.18624415 0.056628566 -0.14910284
000290 ec 6d 8f 3d 6c eb 01 3e 5d 4f 4d bd a4 70 fa bc
       0.07003388 0.12687463 -0.050124515 -0.03057129
0002a0 e8 f3 2e 3e ba d1 f0 bd 34 c5 a7 3d a8 20 f3 3c
       0.1708523 -0.11758752 0.081919104 0.029678658
0002b0 70 f7 8c be 44 20 a9 3d 2c 12 a8 3d 81 4c f0 be
       -0.2753253 0.08258107 0.08206591 -0.46933368
0002c0 d9 a8 55 be 4a 0f 41 3e 8e 0c 8e bd 9b 69 59 3d
       -0.20865192 0.18853489 -0.06935988 0.05307923
0002d0 de 64 73 3d 8d dc 35 3e de d0 3e 3e 9a 54 d3 bc
       0.059422366 0.17759915 0.18634364 -0.025797177
0002e0 fc e2 7a bd 70 fb a4 bd 51 93 27 be fa 8d 2c 3d
       -0.061251625 -0.080557704 -0.1636479 0.042127587
0002f0 98 d5 1a 3d 87 cc bb 3d 1c d8 f0 bc 25 28 1b 3e
       0.037801355 0.0916987 -0.029399924 0.15152033
000300 3c 06 9e bd e9 cf 9b be f3 25 83 bd 02 1c 26 bc
       -0.07716033 -0.3043206 -0.064037226 -0.0101385135
000310 d0 f4 c9 bd 4b 7b 8e bd 1e 92 31 bd 99 b6 12 bc
       -0.098611474 -0.0695711 -0.04335224 -0.0089546675
000320 92 6c bc 3d 22 d5 c9 bd d9 03 5c bd 3a ef 56 bd
       0.09200396 -0.09855105 -0.053714607 -0.052474238
000330 d2 22 e9 bc 30 bb a0 bc 49 cd 0a bd 0e 95 64 3e
       -0.028458986 -0.019620508 -0.03388718 0.22322485
000340 06 bb 38 3d dc b8 2a 3e 0a 04 e6 bd be 7e 9d be
       0.045100234 0.16672081 -0.11231239 -0.3076076
000350 d5 a2 a3 be 5f a0 16 3e 25 4b 4d 3e fc 86 55 3e
       -0.31960168 0.14709614 0.20048197 0.20852274
000360 60 5a b2 bd ba b0 85 3e 2d 12 36 3d f0 19 37 be
       -0.08708644 0.26111394 0.044450928 -0.17880988
000370 90 3c 9d be f4 5d 9d be b1 93 41 be 60 2e e6 bd
       -0.30710268 -0.30735743 -0.18903996 -0.11239314
000380 e3 c1 dd be dc 4d 8f 3e 68 09 1d be 33 d7 20 3e
       -0.43311986 0.2798909 -0.1533562 0.15707092
000390 6a a9 9d bc 8e 10 0f be 93 69 4f 3e 2a aa bb bd
       -0.019245822 -0.13971159 0.20255117 -0.091633156
0003a0 ef 95 6d be 26 fe cc 3e 46 e5 aa bc 31 4d 52 bd
       -0.23201726 0.4003765 -0.02086128 -0.051343147
0003b0 f2 92 06 3e 92 8a 2c be e8 36 29 3d db 61 01 3d
       0.13141993 -0.16849735 0.04131213 0.031587463
0003c0 ca e3 53 3b be 7f 13 3e 00 16 0d bd 5d df 87 3e
       0.0032331818 0.14404199 -0.03444481 0.265376
0003d0 d1 75 b9 bc 8a b1 19 3d ea 6b 07 bb 92 b9 11 3e
       -0.022639187 0.03752283 -0.0020663687 0.14230946
0003e0 26 46 c0 3c 64 c2 15 be 78 55 82 3e 3a 68 df bd
       0.02347095 -0.14624935 0.25455832 -0.109085515
0003f0 75 a1 24 be 24 73 94 3b 10 33 8b 3d 93 98 88 be
       -0.16077216 0.0045303274 0.06796849 -0.26678905

weight f4 [16]
000000 32 b2 3e 3f be 18 75 3f d4 f8 5a 3f 4c a7 4c 3f
       0.74490654 0.9574088 0.8553593 0.79942775
000010 e9 b5 81 3f 95 76 52 3f c3 41 9e 3f 46 9d 90 3f
       1.013364 0.8221219 1.2363819 1.1297996
000020 63 93 ab 3f 41 20 74 3f d2 32 4d 3f f3 d8 87 3f
       1.3404354 0.95361716 0.8015567 1.0613083
000030 48 92 86 3f a0 aa a4 3f e8 c6 5c 3f 4f 75 9a 3f
       1.0513391 1.2864571 0.86241007 1.206705

bias f4 [16]
000000 9d d4 74 be f1 44 3d be b4 d7 8a 3d ff 23 b2 be
       -0.2390923 -0.1848333 0.06779423 -0.34793088
000010 50 9d f8 bc dd e3 33 3e 22 e2 0a bf 20 ff 8a bd
       -0.03034845 0.17567392 -0.542513 -0.067869425
000020 98 c6 f4 3e da 9a ac 3d de dd 79 be 89 36 39 3e
       0.47807765 0.08427973 -0.24401042 0.1808721
000030 bf 6f e0 be 04 7e 84 be 95 d6 a0 3c f4 78 4c be
       -0.43835256 -0.25877392 0.01963357 -0.19968015

running_mean f4 [16]
000000 5e 42 00 40 89 36 e0 bf e8 0a 6b bf da 8d 83 bf
       2.0040507 -1.7516643 -0.91813517 -1.0277665
000010 94 0b 0a bf 10 65 ba 3d c1 f3 31 bf 93 84 cd 3e
       -0.53923917 0.091013074 -0.69512564 0.4014021
000020 e0 ad 4d bf 06 02 41 bf 28 4d 53 be ad 7b 56 bf
       -0.8034344 -0.7539371 -0.20634902 -0.83782464
000030 5f af b2 bf d5 d8 df 3d 63 56 12 bf a9 f0 90 bf
       -1.3959769 0.10930029 -0.57163066 -1.1323444

running_var f4 [16]
000000 db ea af 40 ae 37 c5 3f 10 66 b7 3f 71 d0 33 40
       5.497419 1.5407617 1.4328022 2.8095973
000010 44 72 0f 40 28 fa a5 3f e3 84 82 3f 56 b5 c9 3f
       2.2413492 1.2966967 1.0196804 1.5758464
000020 56 d7 d6 3f 88 65 cc 3f 41 52 98 3f d1 c6 00 40
       1.6784465 1.5968485 1.1900102 2.0121348
000030 45 cf 8d 3f 88 49 a3 3f b9 e9 8b 3f ad 47 fb 3f
       1.1078879 1.2756815 1.0930701 1.9631249

weight f4 [32, 16, 3, 3]
000000 bf f2 49 3d 23 b2 87 bd c4 89 b3 bc 46 f2 d0 bd
       0.049303766 -0.06625774 -0.021916278 -0.1020246
000010 2e 8f 69 bd d7 de 2c bc 07 96 2e 3d ed 64 c2 bd
       -0.057021312 -0.010551176 0.042623546 -0.09491906
000020 7c a0 6f be 9a ce 30 be 70 b0 83 3c ad c6 05 3e
       -0.23401064 -0.17266312 0.016075343 0.1306407
000030 20 49 27 bd c7 85 41 bd a4 77 2c be e2 45 42 bd
       -0.04084122 -0.04724672 -0.16842514 -0.047429927
000040 75 1f 01 be 4f b9 0c be d2 c8 ea 3b 57 d3 eb 3d
       -0.12609656 -0.13742565 0.007165053 0.11514919
000050 fb e7 fe bc c8 ce d5 3d 59 47 14 be b7 ce 6e bd
       -0.031116476 0.10439831 -0.14480342 -0.058302607
000060 66 84 e3 bc 57 89 51 be 96 5f bc 3d df 74 90 bd
       -0.027773093 -0.20462547 0.09197919 -0.070535414
000070 85 32 9b bd 96 4b 20 be e2 d6 94 3d 72 75 0f 3e
       -0.07577995 -0.15653834 0.07267548 0.14009646
000080 35 2e 88 3d 60 e4 81 3d 11 41 d3 bd dd 48 6c 3d
       0.06649438 0.06342387 -0.10315145 0.057686675
000090 6b 94 2a be 17 47 c6 be cf 1f bd be 54 72 f1 3c
       -0.1665818 -0.38726112 -0.3693833 0.029473461
0000a0 62 70 03 3d 18 fe b2 3d df 87 48 3e fa 30 5f bd
       0.0320896 0.08739871 0.1958308 -0.054490067
0000b0 5c 7e 2b 3e 1a dd 61 be 2d 5f c9 bd 01 d1 75 be
       0.16747421 -0.22057 -0.098326065 -0.2400551
0000c0 cc 1f 61 be 3a e5 23 be 20 05 3e be db 18 c8 bd
       -0.21984786 -0.16005412 -0.18556643 -0.09770366
0000d0 62 e8 62 be 47 a3 00 be 48 f4 db bd 64 ea f4 bd
       -0.2215896 -0.12562285 -0.10739952 -0.11958769
0000e0 99 c9 89 3e 5a e7 8e 3d 1e 32 7e 3d c8 d9 bb bd
       0.2691162 0.069777206 0.062059514 -0.09172398
0000f0 f4 6a ca 3d da 86 d8 3d 51 fb 58 bd d9 81 03 be
       0.09883681 0.10572596 -0.05297405 -0.12842502
000100 b4 0a 34 be a8 d6 80 be db a2 72 be be 1c 11 be
       -0.17582208 -0.2516377 -0.23694937 -0.1417112
000110 7a c0 78 be d2 bf 61 3e 8b d0 73 3d 27 39 0f 3e
       -0.24292174 0.2204583 0.059525054 0.13986646
000120 11 41 de 3e b7 af af 3e 86 e8 cd 3e 87 dc 1e be
       0.43409017 0.34313747 0.40216464 -0.15513812
000130 ac e3 97 bd d6 35 ab be d5 35 12 bf da 90 00 bf
       -0.07416472 -0.3343951 -0.5711339 -0.50221026
000140 bb 29 03 bf f3 a0 2a bd 3f b2 9d 3d 51 8d 7c 3c
       -0.5123555 -0.0416574 0.07700013 0.015414552
000150 4d 48 8f bb 1b 90 1c 3d 1a d0 23 3e da fe d6 3d
       -0.0043726326 0.038223367 0.15997353 0.10497828
000160 4d 86 3b bd 49 39 6d bd e7 dc 93 be 77 db 64 be
       -0.045782376 -0.05791596 -0.28879473 -0.22349344
000170 c9 ea 22 be 8f 53 f1 3d 18 51 88 bc 66 ed 2a bd
       -0.15909876 0.11783516 -0.016640231 -0.041730307
000180 06 f1 7a 3d 48 ad 85 bd be 59 26 be 9c b1 89 3d
       0.061265014 -0.065271914 -0.16245171 0.067233294
000190 1b f3 69 bd 4f 36 c2 bd 8a c4 ba be 58 79 d0 be
       -0.05711661 -0.09483015 -0.36478072 -0.40717578
0001a0 58 a1 9c be 4a 99 82 bd 1d 9c a3 bd 45 d4 60 bd
       -0.30591846 -0.06376894 -0.079887606 -0.054889936
0001b0 ec 24 b8 3e ff 87 99 3d a3 49 c9 bd 2a 52 4a 3d
       0.3596567 0.07496642 -0.09828498 0.049394764
0001c0 c3 02 a2 3d c3 75 12 be d8 7d 0c 3e 29 f9 16 bd
       0.07910683 -0.14302735 0.1371988 -0.03685871
0001d0 33 e1 06 3d 30 17 b0 be 5e 9e 82 be 83 e3 66 be
       0.03292961 -0.3439269 -0.2551145 -0.22547726
0001e0 4e 13 93 bd 7c b4 c6 be a6 5d 93 3c 1d 34 06 be
       -0.071814165 -0.38809574 0.017988991 -0.13105817
0001f0 b5 bf 28 be a6 a1 4a 3d e2 b6 07 be d6 a1 23 bd
       -0.1647938 0.049470566 -0.13253358 -0.03994926
000200 05 d8 ed be 63 be 06 bc 7c 6f 0d be 88 78 16 be
       -0.46453872 -0.008224103 -0.13812059 -0.14694417
000210 5b f3 a2 3d 7c 7f df 3d 73 7a 8d bd 09 4e 86 be
       0.079565726 0.109129876 -0.06908121 -0.2623141
000220 a7 d8 60 be 15 e8 96 bd 40 09 ca bd 88 e4 44 3d
       -0.21957646 -0.07368485 -0.098650455 0.048069507
000230 6d a0 b4 3d de dd 1c 3e 87 6f 3d 3e e7 3d 52 3e
       0.08819661 0.1531901 0.18499576 0.20531426
000240 2b 1a a2 3c b9 26 47 3b d9 f7 a3 3c b9 5c 10 be
       0.019787868 0.003038807 0.020015644 -0.14097871
000250 75 05 3c be 13 98 48 be 2a 89 0d 3d f6 5e 40 be
       -0.18361457 -0.19589262 0.034554638 -0.18786225
000260 53 6b 29 bd 55 42 8b bd 8d 57 12 3e 59 32 9d 3d
       -0.041362118 -0.06799761 0.1429121 0.07675619
000270 aa 35 f3 3c 9c 53 0f be d3 87 14 be 55 ec d3 3c
       0.029688675 -0.13996738 -0.14504938 0.025869528
000280 a7 a6 87 3e 2d 22 e3 3c bb 3e 02 be 08 05 21 be
       0.26494333 0.027726257 -0.12719242 -0.15724576
000290 e3 3b 3f be 36 74 b6 bd 6f d9 91 bc 33 42 42 3e
       -0.18675189 -0.08908884 -0.017803876 0.18970565
0002a0 99 39 20 3e 86 94 2d 3e fa 1f 68 3e ae 1b 0c bd
       0.15646972 0.16951188 0.22668448 -0.034206085
0002b0 3a db 80 3e 18 e9 3e 3e 96 45 84 be 69 80 1e be
       0.25167257 0.18643606 -0.2583434 -0.15478672
0002c0 70 99 8a bb 2a b9 0c bc 07 10 08 3e 25 b0 71 bd
       -0.004229717 -0.008589068 0.13287364 -0.059005875
0002d0 be 16 25 bd 83 51 95 3d d2 3e 88 3e 0c ac 0c 3e
       -0.04030489 0.07290938 0.26610428 0.13737506
0002e0 5b 65 ac 3e a8 42 83 3e 92 18 98 bd fb c8 85 be
       0.33671078 0.25636792 -0.074265614 -0.26129898
0002f0 c9 d3 8e be f5 43 03 be b7 9d 35 3e eb e8 cd bc
       -0.27895954 -0.12818892 0.17735945 -0.025135478
000300 2c 4c 0b be 8a 1d 84 bc ba 50 37 bd 49 cc e9 bc
       -0.13603276 -0.016127367 -0.04475472 -0.028539794
000310 3b 5f 0f 3e 52 f6 8c 3d 48 8b 1d bd 1f 64 a9 ba
       0.14001171 0.06882919 -0.038462907 -0.0012923515
000320 b9 5d 20 be a7 3c 9c bd 39 6d 48 3d 48 e3 98 3d
       -0.15660752 -0.07628756 0.048932288 0.074652255
000330 56 01 20 3d 80 37 12 be 0a 93 20 3d 3b ad e3 be
       0.039063774 -0.14278984 0.039202727 -0.44468102
000340 b2 db de be 60 5e be be 0e d4 2e 3d a3 93 90 3d
       -0.4352699 -0.37181377 0.0426827 0.070594095
000350 91 70 4d be 31 c5 1c 3e 17 14 78 3d 13 62 a8 3d
       -0.20062472 0.15309598 0.060566034 0.08221831
000360 8d f6 0e bd 34 ea 25 be e6 47 04 be bd 5d 22 bd
       -0.034903098 -0.16202623 -0.12918052 -0.039640177
000370 a3 4c 59 3d 05 2a 62 bd 1a 86 8e 3d 35 20 91 3e
       0.053051602 -0.055215854 0.069591716 0.28344885
000380 76 b2 3e 3e a0 81 ef bd 55 31 c8 bd 62 32 99 bd
       0.18622765 -0.11694646 -0.09775034 -0.07480313
000390 68 28 38 3e 1f 96 e5 bd fe 25 2a 3c 0f bd e1 3b
       0.17984164 -0.11210274 0.010385035 0.0068889926
0003a0 02 e0 10 3e 34 6c 5e 3e 00 f9 d6 bd e5 77 dc bb
       0.14147952 0.21720964 -0.10496712 -0.0067281597
0003b0 ef 09 b0 3c 6b ee ca bd 5b 54 94 bc 62 81 05 3b
       0.021489112 -0.09908756 -0.01810663 0.0020371308
0003c0 26 c5 d3 3d 32 61 8e bd 92 61 0b 3e 5e 27 4e 3e
       0.103403375 -0.06952132 0.13611439 0.20132205
0003d0 9c 18 41 3e 4c 96 c5 3d 30 a0 02 3c e6 65 36 3e
       0.18857044 0.096478075 0.007972762 0.17812309
0003e0 42 53 23 3e 2b c5 eb be 89 e6 a0 be cd 0b ac bd
       0.15949729 -0.46048865 -0.31425884 -0.08400688
0003f0 94 f0 df bc f5 69 1c be 5b 98 a1 bd 2e 7c f7 bc
       -0.027336396 -0.15274794 -0.078903876 -0.03021058

weight f4 [32]
000000 89 9e aa 3f 99 2f 59 3f 21 5b 67 3f fc 6f 9c 3f
       1.3329631 0.84838253 0.90373427 1.2221675
000010 fe e9 59 3f 37 19 78 3f 88 15 9f 3f c5 b8 7d 3f
       0.8512267 0.96913475 1.2428446 0.9911006
000020 43 a5 70 3f 3d 25 82 3f 53 38 7f 3f 41 9f 9a 3f
       0.9400217 1.0167614 0.9969532 1.207985
000030 2f 24 70 3f f5 49 90 3f e6 be 57 3f c8 2a 4d 3f
       0.9380521 1.127257 0.8427566 0.80143404
000040 7d 9f 7a 3f f4 db 6b 3f b0 8a 7f 3f 24 27 6b 3f
       0.9789961 0.92132497 0.99820995 0.918566
000050 f6 30 7f 3f c2 f1 5d 3f ff c6 86 3f ca 8e 69 3f
       0.99684083 0.8669702 1.0529479 0.91233504
000060 5a e0 81 3f b4 99 76 3f 8f 13 5f 3f c6 03 55 3f
       1.0146592 0.9632828 0.8713922 0.8320888
000070 0e d0 40 3f 2e f4 76 3f b0 f4 8d 3f c2 a9 80 3f
       0.75317466 0.9646634 1.1090298 1.0051806

bias f4 [32]
000000 64 c2 a4 be 9d c1 47 3e cc 36 4e be 3a 76 0c bf
       -0.32179558 0.19507451 -0.20138091 -0.548679
000010 19 11 bd 3d 17 ba d6 bd 14 78 2b be 32 7f 79 be
       0.09231777 -0.104847126 -0.16745025 -0.24364927
000020 16 d3 3b be 2f f7 50 3d e9 e2 15 be f0 ff 4c 3f
       -0.18342242 0.051016983 -0.1463734 0.8007803
000030 9b 53 c4 b9 6e 91 14 3f f1 30 c5 ba 28 b7 8b 3d
       -0.00037446324 0.5803441 -0.0015044493 0.06822044
000040 02 d7 03 3f c5 2b a6 bd ae 28 3e be eb 80 56 bf
       0.5149995 -0.08113817 -0.18570206 -0.83790463
000050 8d a3 a8 3d 04 87 04 bf 70 06 7a bc 18 55 07 be
       0.0823432 -0.5176852 -0.015260324 -0.13216054
000060 0d 98 56 bb cd 7e 31 be c2 9e 0a be 90 5c 9d be
       -0.0032744438 -0.17333527 -0.13537124 -0.30734682
000070 ec b4 45 bd ee 96 0f bf c3 e5 c4 bd 43 5e 4a 3e
       -0.048268244 -0.56089675 -0.09614136 0.1976252

running_mean f4 [32]
000000 c3 57 ca c0 fc 0b c4 be be ed 3a be a2 d5 ea c0
       -6.323213 -0.38290393 -0.18254754 -7.338578
000010 ec 6e 39 bf fb f7 98 bf 96 23 16 c0 da a9 02 40
       -0.7243488 -1.1950678 -2.345922 2.041617
000020 9c 6a 1e 3e c4 20 41 bf 2e 0f 36 3d eb dc a9 c0
       0.15470356 -0.7544062 0.04444807 -5.3082175
000030 33 cc 4d 40 e4 87 9b bf a2 a5 1c c0 d5 a6 c6 3f
       3.2155883 -1.2150846 -2.4476094 1.5519663
000040 ef 3c a5 bf 2e 6a 82 bf eb 0b a0 c0 2f d7 b1 3f
       -1.290922 -1.0188653 -5.001455 1.3893794
000050 d4 f1 0c c0 e4 8c aa 40 d8 dc 26 c0 37 f9 f9 bd
       -2.20226 5.3296986 -2.6072292 -0.12205737
000060 f2 b5 44 3e 0b 1d 9f c0 22 60 7c bf 38 4e c7 bf
       0.19210032 -4.9722953 -0.9858419 -1.5570745
000070 e7 0d cc bf 6e f8 92 3f f5 d5 8a c0 26 e3 14 c0
       -1.5941743 1.1482065 -4.338618 -2.326364

running_var f4 [32]
000000 88 0b dd 40 d7 56 98 40 ff b2 52 40 d9 d3 c6 40
       6.9076576 4.7606006 3.292175 6.2133603
000010 99 87 33 40 f5 ec 6b 40 e5 a0 6b 40 4b 68 a9 40
       2.8051512 3.6863377 3.6816952 5.293981
000020 2d a6 90 40 5a 90 81 40 95 bf 1c 40 74 2b 02 41
       4.520285 4.048871 2.4491932 8.135609
000030 1b 26 a1 40 e7 43 a4 40 37 1f 29 40 76 eb 55 40
       5.0359015 5.133289 2.6425302 3.3424964
000040 00 ca 8b 40 a9 a2 32 40 04 e6 91 40 7f d1 c4 3f
       4.368408 2.791178 4.559328 1.5376433
000050 a4 f3 7b 40 33 f7 df 40 79 11 0e 41 28 84 b2 40
       3.9367456 6.9989257 8.879266 5.5786324
000060 fa 70 f9 40 30 46 42 41 df 66 7a 40 44 af 26 40
       7.795041 12.142136 3.9125288 2.6044474
000070 4e fb ab 3f 10 af de 3f 93 01 80 40 7f fe 5d 40
       1.3436067 1.7397175 4.000192 3.4686582

weight f4 [16, 32, 3, 3]
000000 11 44 0b be c6 4f 8b 3e b3 09 5d 3e 6f 40 81 3d
       -0.13600184 0.272093 0.21585731 0.06311118
000010 34 5a 58 3e fe 49 8b 3e 71 87 bf bd 13 18 e0 bd
       0.2112816 0.2720489 -0.09352005 -0.10942092
000020 d2 e7 97 be f0 e1 9e bc ee 83 dc bd ab 34 8a be
       -0.29669052 -0.019394845 -0.10767351 -0.26993307
000030 6a 89 84 bd 36 93 92 3d e5 08 44 3e 8e 5e 07 be
       -0.06471522 0.071569845 0.19144018 -0.13219664
000040 9e 91 86 be 8f ee 3a be e4 b4 92 3e 66 0c c1 3e
       -0.26282972 -0.18255065 0.28653634 0.37704772
000050 80 d2 a6 3e bb cf a3 be fa 36 62 be af 75 d8 bd
       0.32582474 -0.31994423 -0.22091284 -0.10569321
000060 52 8a 3d be c9 fd 99 bd df 6c d4 bd a1 7a 80 3d
       -0.18509796 -0.07519109 -0.10372328 0.062733896
000070 ca fa 37 3d dd 2c eb 3d ac f8 21 be 0f 81 9c be
       0.044916905 0.11483166 -0.15817517 -0.30567214
000080 42 74 c0 be 13 a0 44 be 90 82 9c be 65 40 8d be
       -0.37588698 -0.19201688 -0.3056836 -0.27588192
000090 03 d3 38 be 5a 7e 9b be 75 75 3a be 2d 0b bd bd
       -0.18049245 -0.30369836 -0.18208869 -0.09230647
0000a0 81 68 88 bd 29 e7 14 bd 2f 3a 98 3c 76 cf a8 3d
       -0.066605575 -0.036353264 0.018582432 0.08242695
0000b0 d7 91 9d bd da 5e 4a bd 8c b3 3c be 21 5a 73 be
       -0.07693832 -0.049406864 -0.18427867 -0.2376485
0000c0 78 67 d9 3d dc 70 ed 3d 47 1e 0d 3e 7e 5e 1e be
       0.10615438 0.11593792 0.13781081 -0.15465733
0000d0 f2 4a 5b be c5 70 00 bf 79 87 54 3d 48 34 3a 3e
       -0.21415308 -0.5017207 0.05188701 0.18184006
0000e0 25 20 8c 3d 3d 1b 8f 3c f2 30 e1 bd b4 e8 d6 bd
       0.068420686 0.017469043 -0.10995664 -0.10493603
0000f0 3f 27 54 bd 2c 7f dd bd ff 76 44 be 0a 7c 22 bc
       -0.05179524 -0.10815272 -0.19186018 -0.0099172685
000100 6b 9a b5 bd c5 18 e9 3d 87 62 93 bc d8 6f dc bd
       -0.088673435 0.113816775 -0.017991317 -0.1076352
000110 9b 84 1a be 2c f6 11 be 90 7c 5d be 98 dc d1 be
       -0.15089647 -0.14254063 -0.21629548 -0.40988612
000120 ff 3c ba bd e8 78 f9 bc 10 29 4f bd be 06 1d 3e
       -0.09093665 -0.03045316 -0.05057627 0.15334603
000130 a6 c9 95 3d e0 51 7c 3d 55 48 b4 3d aa 3f 5b 3d
       0.07313852 0.06160152 0.08802859 0.05352751
000140 46 0f 4c 3e 4a 84 df 3d 05 bb ad 3e 5a 7d 55 3e
       0.19927701 0.10913904 0.33931747 0.20848599
000150 7d c5 8b be 7a c0 ea bd 8f 16 6b bd 7f 97 f3 3d
       -0.2729911 -0.11462493 -0.05739456 0.1189413
000160 c3 c1 0a 3e cb f4 dc bd 21 00 8b bd b4 37 3e 3e
       0.13550477 -0.10788878 -0.06787134 0.18575937
000170 a7 2e ca 3d d1 f1 88 3e 97 9b 29 bc d3 e4 26 3d
       0.098721795 0.2674699 -0.010352037 0.040745568
000180 67 28 07 be 3e e8 a8 be 82 2d cd be 8e 71 82 3d
       -0.13199006 -0.32989687 -0.40073782 0.06369315
000190 d1 17 23 3e ae e9 63 3e 27 5e 80 3c c8 ea 29 3e
       0.15927054 0.2225711 0.015669895 0.16593468
0001a0 da c8 3a 3d 7a 03 48 be fc 98 97 be 6d 24 d4 bd
       0.045601703 -0.19532576 -0.29608905 -0.1035851
0001b0 e5 72 2a be e2 3e 21 be 35 6e a4 be 41 5c dd bd
       -0.16645391 -0.15746644 -0.3211533 -0.10808612
0001c0 6b 7f 8a bd 34 b2 61 be 75 4c 8d bd 17 da 54 3d
       -0.06762584 -0.22040635 -0.06899349 0.0519658
0001d0 80 8e 97 3e 85 77 10 be ee 7b c0 bd 59 0c 5e be
       0.29600906 -0.14108093 -0.09398638 -0.21684398
0001e0 70 16 9a bc a0 e5 78 bd 53 8b 2c be 54 12 04 be
       -0.018809527 -0.060765862 -0.16850023 -0.12897617
0001f0 50 e4 0e bd 06 7f e4 3b f0 4b 66 bd dc 82 d6 3e
       -0.034885705 0.00697315 -0.056224763 0.41896713
000200 d7 5b d7 3e c7 fc 3a be ed 5b 0c bd d1 15 3e 3b
       0.42062256 -0.1826049 -0.034267355 0.0029004703
000210 ca 44 38 bd 8c a9 8c bc cb 24 40 bd 3e d5 35 bd
       -0.044987477 -0.01717069 -0.04691009 -0.044392817
000220 33 04 f3 3d d4 b4 63 3e f0 fc 1d 3e e5 bd 4d 3e
       0.11866035 0.22236949 0.15428519 0.2009197
000230 a0 a1 2b 3e 98 0d ac be c7 5c 46 be 07 dd 56 bd
       0.16760874 -0.3360412 -0.19371329 -0.05245688
000240 13 50 21 3e f0 7b 1f 3e 64 97 f3 bc 3f 54 13 be
       0.15753202 0.15574622 -0.029735275 -0.14387606
000250 23 cd 19 39 dc 43 94 bc b1 9f bb be a4 6a ba be
       0.00014667636 -0.018098764 -0.36645272 -0.36409485
000260 8a de be be 58 f2 8e 3d 2c 78 d2 3c cd b1 3a bd
       -0.3727916 0.06979817 0.025692068 -0.04557972
000270 1a 8a 9d 3c a0 75 3a 3d dc 2d 87 3c d8 92 29 3d
       0.019230891 0.045522332 0.01650136 0.041399807
000280 9f 5e ff 3d be 0e ac 3d 94 af b1 be a0 4d 33 be
       0.124692194 0.08401249 -0.34704268 -0.1751008
000290 e6 92 bf bd e1 dc 9a 3d ea 1c 65 3e 14 fc cd 3d
       -0.093541905 0.075616606 0.22374311 0.10057846
0002a0 ba 7d de 3d 40 63 2f bd ad 0c ad 3d 6b 83 97 3d
       0.10863824 -0.04281926 0.08449683 0.07398113
0002b0 03 c8 a6 bc 49 be 1e be a7 d8 27 3d f1 0b c9 bd
       -0.020359045 -0.15502276 0.0409781 -0.09816731
0002c0 44 39 5a be 51 da b7 be 1c 4f c2 be ec cf 09 be
       -0.21310908 -0.3590875 -0.3795098 -0.13458222
0002d0 cb 93 83 3e 88 cf 0c 3c a4 9b f0 3d e6 22 8c bd
       0.25698695 0.008594401 0.11748436 -0.06842594
0002e0 36 5a 24 be 00 4f 19 be ec 84 59 bd d1 bd 00 be
       -0.16050038 -0.14971542 -0.05310528 -0.12572409
0002f0 6f 2a 75 be 56 2d 39 3e d8 50 17 3e a9 b3 d3 3d
       -0.23941968 0.180837 0.14776933 0.10337002
000300 d0 fb 4a be 44 7f e0 be 79 32 8e be d6 99 c2 bc
       -0.19822621 -0.43847096 -0.27772883 -0.023754995
000310 31 69 5d bd 9e 6b 08 3e 81 ac 07 be 8b c4 10 be
       -0.054055396 0.13322303 -0.13249399 -0.14137475
000320 a7 69 0d bd 53 e1 51 ba eb 56 bd 3d 39 3c 73 3d
       -0.034524586 -0.0008006293 0.09245094 0.059383605
000330 dc 36 26 bd d0 6c 09 bd 37 9f 88 be 2a f0 15 be
       -0.04057966 -0.033551037 -0.2668397 -0.14642397
000340 0e 45 ab be 79 35 00 3d c0 bb d6 bc 98 81 00 be
       -0.33451122 0.031300995 -0.026212573 -0.12549436
000350 fd c0 ff 3d 77 29 2c be 55 5e a6 be 67 0c c2 bd
       0.124879815 -0.16812693 -0.32493845 -0.09475022
000360 65 98 b4 3d 82 0c 2e 3d bb b5 11 3e 3d b5 48 be
       0.088181295 0.042492397 0.14229481 -0.19600387
000370 4b 15 8b be 7a 50 14 be df 6c 83 be 6f 1b ad be
       -0.27164683 -0.14483824 -0.25669 -0.33809993
000380 71 b6 6e be b6 0c 58 bd 8d 7c 10 be c7 38 03 3e
       -0.23311783 -0.052746497 -0.14110012 0.12814628
000390 66 36 c7 3d 6f 88 9f 3d 5c d8 32 3e ac 18 4c bc
       0.097271726 0.077896945 0.17465347 -0.012457054
0003a0 57 e4 0a be c6 b7 59 bd 74 d2 8e 3d 62 70 e7 3b
       -0.13563667 -0.053153776 0.069737345 0.0070629576
0003b0 86 8b 21 3d 00 91 99 3d 1b 46 0f 3e 3c f1 16 3c
       0.0394397 0.0749836 0.13991587 0.009212788
0003c0 ee 69 3f be 0d c2 f2 bd 57 31 5c bd 57 c2 29 3e
       -0.18692753 -0.118534185 -0.05375799 0.16578041
0003d0 1e 5d f0 3d 6c 25 61 3e 49 be d4 bd 1c cd 46 be
       0.11736511 0.21986932 -0.103878565 -0.1941418
0003e0 05 1b 25 be d1 f6 47 be 3c 32 13 be 9e ef a0 3d
       -0.16123588 -0.19527747 -0.14374632 0.07858203
0003f0 a6 fa ef bd 11 6d 29 be 95 33 1f be 47 3c 8e bd
       -0.11717729 -0.16545512 -0.1554702 -0.06945091

weight f4 [16]
000000 6b 83 61 3f fb f0 7d 3f 27 0d 86 3f a1 ce 31 3f
       0.8809115 0.9919583 1.0472764 0.69455916
000010 35 de 81 3f 92 0c 5c 3f 4e e7 6e 3f 5e 08 6c 3f
       1.0145937 0.8595668 0.9332169 0.9220027
000020 64 8f a7 3f 1e 26 83 3f 91 13 73 3f 7d b9 74 3f
       1.3090634 1.0246007 0.9495173 0.9559553
000030 63 e9 76 3f 61 8b 6f 3f ae c9 8a 3f e0 0f 58 3f
       0.9644987 0.9357205 1.0842798 0.84399223

bias f4 [16]
000000 5f 92 72 be cd 84 ae be 1c 9d 81 be e3 cd 94 be
       -0.23688649 -0.34085694 -0.25315177 -0.2906333
000010 f1 f4 a5 be 00 07 aa be 77 20 b2 be 5c f0 a9 be
       -0.32413438 -0.33208466 -0.34790394 -0.33191192
000020 59 3f de be de a2 c0 be b9 1f 2d be 5f 8d 65 3c
       -0.43407705 -0.37624258 -0.16906632 0.014010756
000030 66 8f af bd 9b d1 c8 bd 87 68 14 be 67 99 7b be
       -0.08572273 -0.09805604 -0.14492999 -0.24570237

running_mean f4 [16]
000000 41 88 e6 c0 6a 3e 22 c1 52 78 b6 c0 c8 31 14 40
       -7.2041326 -10.140238 -5.7021875 2.3155384
000010 b9 a5 86 c0 1e fb f7 c0 2d e2 d7 be 76 99 66 c0
       -4.20773 -7.749404 -0.42164746 -3.6031165
000020 37 92 04 c0 57 fc 9d bf 45 2f e8 bf b0 15 b9 3f
       -2.0714242 -1.2342633 -1.8139426 1.4459743
000030 61 16 c1 3f 47 1c 1b 40 50 a6 18 c1 e5 4b 1a c0
       1.5084955 2.423601 -9.540604 -2.4108822

running_var f4 [16]
000000 d7 c0 2c 41 47 67 9d 41 ef b8 fb 40 9f b2 ab 40
       10.79708 19.675428 7.866325 5.3655543
000010 67 13 3a 41 c6 5a 9d 41 4f 54 80 40 84 05 d9 40
       11.629737 19.669323 4.0102916 6.7819233
000020 f4 a4 97 40 ef 10 1c 41 b2 b5 eb 40 ac 69 eb 40
       4.738886 9.754134 7.3659296 7.3566494
000030 3d 39 b6 40 56 44 1e 41 b4 52 2a 41 c5 ce 70 40
       5.694487 9.891684 10.645191 3.7626202

weight f4 [1, 16, 4, 5]
000000 09 01 04 be b4 07 81 bd 3d e8 23 bd 75 3a bf bd
       -0.1289102 -0.063002974 -0.0400164 -0.09337322
000010 c9 a9 e7 bd 35 f9 0f 3e 2d 16 33 3e 45 a5 3d 3e
       -0.11311681 0.14059909 0.17488928 0.18520077
000020 4b 06 26 3e 2e 80 70 3e de c6 38 3b 52 b7 51 bc
       0.16213338 0.23486397 0.0028194706 -0.012800055
000030 a5 9d 4e bd 0b a3 2c 3d f6 b1 20 be 5b 60 35 3e
       -0.05044331 0.042147677 -0.15692887 0.17712538
000040 1b 94 d0 3d 0e 52 ab 3d 6e 8f 09 3d 85 48 88 3e
       0.10184499 0.0836526 0.03358405 0.26617828
000050 be b5 20 bb 58 6c 36 3d 77 61 08 bd aa 49 ee bd
       -0.002452239 0.04453692 -0.033296075 -0.11635144
000060 26 1f 81 bd 8e f7 66 3e 5b ea 64 3e 5a 03 c5 3d
       -0.06304769 0.22555372 0.22355025 0.0961978
000070 13 24 5b 3e 8f 8a 10 3e 64 1f be 3b 04 9c 87 bd
       0.2140048 0.14115356 0.005802082 -0.066215545
000080 21 90 02 bd d5 fb 0f bd 08 38 07 3c 7f 9a 62 be
       -0.031875733 -0.035152275 0.008253105 -0.22129248
000090 a0 e2 f0 bd 9a 8f 34 be 59 b5 17 be be b4 8a be
       -0.11761975 -0.17632905 -0.14815272 -0.2709102
0000a0 76 2c 36 3e 16 74 b6 3d 0f ec 0b bd 22 19 1c 3e
       0.17790398 0.089088604 -0.03416067 0.15243962
0000b0 65 76 29 bb c7 71 06 bd 14 86 3d bd 0c b2 6e bd
       -0.0025857922 -0.03282335 -0.046270445 -0.058275267
0000c0 e1 5b 26 3c 5a b2 41 bd 4f 20 51 3e 99 59 7d 3d
       0.010153742 -0.04728923 0.20422481 0.061853025
0000d0 1f 27 35 3e 62 b0 d3 3d 0f ae 31 3e 04 44 6d be
       0.17690705 0.10336377 0.17351554 -0.23170477
0000e0 4a b7 4d be a3 60 3f be fa 54 18 be 8b 82 c5 be
       -0.2008945 -0.18689208 -0.14876166 -0.3857616
0000f0 86 08 86 bd d4 ee 4b bd e9 64 a7 3c 03 a7 cc bd
       -0.065445945 -0.04978831 0.02043386 -0.099927925
000100 1a b7 83 bd 57 e9 d1 3d bf 2c b1 3d b9 a1 9e 3d
       -0.06431408 0.10249584 0.08651113 0.0774569
000110 0e 42 d3 3c a3 a6 10 3e 67 07 db bd b3 bb 6c bd
       0.025788333 0.14126067 -0.10694771 -0.05779619
000120 54 fe 71 bd 7a 46 14 bd 0e 35 8a bd 51 c9 7b 3e
       -0.059080437 -0.036200024 -0.06748401 0.24588515
000130 59 4d d7 3d c2 9b 2e 3e 94 99 76 bc f7 66 a9 3e
       0.105128 0.17051604 -0.015051264 0.33086368
000140 84 85 6c be e3 e1 b2 3c 26 98 a0 bd 42 ea 14 bd
       -0.23097807 0.021836227 -0.0784152 -0.03635622
000150 3d a7 bd bd d2 6e b4 3e cc 4d df 3d 0c 10 f6 3d
       -0.09260414 0.352408 0.109035105 0.120147794
000160 f2 7a b5 3d 1c 31 99 3e 80 20 a3 bd 85 f7 f7 bc
       0.088613406 0.2992028 -0.07965183 -0.030269394
000170 50 03 c4 bd 93 97 85 3c 92 67 5d 3c 5d 5e ce bd
       -0.09570944 0.016307628 0.013513463 -0.10076592
000180 98 36 77 bd 42 28 9a bd 90 f3 b1 bd 29 c4 73 bd
       -0.0603548 -0.0752721 -0.08689034 -0.059513245
000190 1a 51 b9 3d ff ad 9f 3d 8a 5d 98 bd 0a 14 d4 3d
       0.09048672 0.07796859 -0.07439716 0.10355385
0001a0 6d 89 dc 3b 57 7e 0e 3d 28 f7 84 bd b2 92 9a bc
       0.0067302496 0.034788456 -0.06492454 -0.018868778
0001b0 02 b6 51 bd 36 7f 44 be 80 dc 04 3e 9c ea b7 3d
       -0.051198967 -0.19189152 0.12974739 0.08980295
0001c0 25 6d 34 3e 8a fd 1a 3e 60 7e e9 3d d5 fc cd bd
       0.1761976 0.1513578 0.11401057 -0.100579895
0001d0 41 cf 72 be 33 6c d3 bd f9 9f 03 be a5 52 fd bd
       -0.23711874 -0.10323372 -0.12853993 -0.12369279
0001e0 9e 26 13 bd 18 c1 25 3d 88 9b bd bc 50 72 44 3d
       -0.0359255 0.04046735 -0.023145452 0.04796058
0001f0 c4 18 a3 bd 6f fa 67 bd 54 98 c7 bc 8f 64 cc bd
       -0.07963708 -0.056635316 -0.024364628 -0.099801175
000200 ce 55 91 bd 4c 5b 28 bd 68 50 ab 3e 65 b6 9c ba
       -0.07096444 -0.041102692 0.33459783 -0.0011956213
000210 1e 58 4f 3e bb c1 82 bd 13 08 c9 3e 5c a8 a9 3d
       0.20248458 -0.063846074 0.39263973 0.08284065
000220 16 b4 de 3d 4c a8 7d 3c 09 df 8d 3d 79 3c f2 3d
       0.108741924 0.01548202 0.06927306 0.118279405
000230 cd 6e 8a 3d 91 10 9f 3d d8 7c 38 3c a2 3a 7c 3d
       0.06759415 0.07766832 0.011260234 0.061579354
000240 21 d7 26 3d d8 40 9e bd 7b 06 92 3c 56 cc 60 3d
       0.040732507 -0.07727212 0.017825356 0.05488237
000250 5a a5 e0 3c 37 9f c9 bc e0 73 88 be 75 fd c9 bd
       0.027422596 -0.024612052 -0.26650906 -0.09862796
000260 75 a3 52 be 74 e2 ca bd 4f a1 93 be c4 74 89 3e
       -0.20570166 -0.09906474 -0.28834006 0.26846898
000270 6a 00 a8 3d a4 27 9a 3d f0 ec 0e 3e 63 23 85 3e
       0.08203204 0.07527092 0.13957572 0.2600356
000280 b9 be f0 3e 7b 21 91 3d ba c5 82 3e db a4 8c 3d
       0.4702051 0.07086464 0.25541478 0.06867381
000290 05 14 f9 3e 86 7c 6c bd 0d c5 c8 bc ba 3a 1b bd
       0.48648086 -0.057735942 -0.024508024 -0.037897803
0002a0 01 d7 9b bc ab 3b 6f bd dc bd 1d bd f8 97 61 bd
       -0.01902342 -0.058406513 -0.038511142 -0.05507657
0002b0 a1 f1 ca 3b 55 4e a2 3c 81 f4 9c bd dc b6 0a be
       0.006193355 0.019812742 -0.07663823 -0.13546318
0002c0 3e 3b 7d bc b7 e6 d3 bc 3d ee 0e bd 2c 3d f7 bd
       -0.015456019 -0.02586685 -0.03489517 -0.120722145
0002d0 64 ea 5b be 91 4d cf bd c9 98 da bd cb 14 bc bd
       -0.21476132 -0.101222165 -0.10673673 -0.091836534
0002e0 42 a5 7c be 80 ef 0a be ae ce bf bc 5c 6b ae bd
       -0.24672416 -0.13567924 -0.023413982 -0.08516571
0002f0 0e 57 bb bb bb a1 59 be fe 34 37 3d b9 a7 12 3e
       -0.005717165 -0.21253102 0.04472827 0.14321794
000300 97 12 13 3e a8 be ca b9 2c 3e 76 3e bc 63 c6 bd
       0.1436256 -0.00038670492 0.24047154 -0.096869916
000310 98 86 4b be 5b e9 a4 3b bb 7a 13 be d0 fb 26 3c
       -0.19875562 0.005032701 -0.14402287 0.010191873
000320 2a 9f 37 be b2 8c a9 bd ed b6 b0 bd b3 03 a7 bd
       -0.1793181 -0.082787886 -0.0862864 -0.081550024
000330 aa 2f 58 be 93 7a 96 be 7a 34 e4 bd 24 3f 4c be
       -0.21111932 -0.29390392 -0.111428216 -0.19945961
000340 13 4b 0f be 19 09 71 be a6 a2 94 bd ef 10 71 bc
       -0.13993482 -0.23538627 -0.07257585 -0.01471351
000350 af af 83 3a 5d 51 55 bd 9b d1 d9 bd b6 13 2c be
       0.0010046865 -0.052079547 -0.10635682 -0.16804394
000360 45 d2 84 bd f8 a0 05 be 8d 86 29 3d ef 97 7f be
       -0.06485418 -0.13049686 0.041388083 -0.24960302
000370 ef 49 79 bd 9a a4 84 bd c9 58 2e bd 33 1a 80 bd
       -0.060861524 -0.06476708 -0.04256514 -0.06254997
000380 5b 12 01 be cc 03 8b 3e 6c dc bb 3d 7f 32 25 3e
       -0.12604658 0.27151334 0.091729015 0.16132544
000390 c0 e2 bc 3d a3 9c 91 3e 52 ee dc 3d 9a 84 2c 3d
       0.09222937 0.28439817 0.107876435 0.042118646
0003a0 6b ea b6 3d da 33 69 3d d8 36 12 3e 18 28 25 be
       0.089314304 0.056934215 0.14278734 -0.16128576
0003b0 44 d8 8a bb b2 11 ae bd 4a e6 05 bd 98 2a ae bd
       -0.0042372067 -0.08499469 -0.032690324 -0.08504218
0003c0 9e 2a 64 3e fc 20 58 bc a3 6a a6 3d 7d 2b a4 3d
       0.22281882 -0.013191458 0.08125808 0.08016107
0003d0 63 49 70 3e 0f df 85 3d f5 ef 1c 3d 95 20 8f 3d
       0.23465495 0.06536686 0.03831478 0.069886364
0003e0 07 74 a2 3d bb e5 d4 3d 37 e1 81 3e 5e af 04 3d
       0.07932287 0.1039538 0.25367138 0.032393806
0003f0 e6 0a 29 3e 39 35 fc 3c 0b b9 85 3e 8b 5a e0 bd
       0.16508064 0.030787097 0.2611774 -0.1095477
