source/models/MelodyTimbreCNNSmall/model_512_20_0.003_plot.pth (torch, 58237 bytes, 21 tensors)

weight f4 [8, 1, 3, 3]
000000 26 f5 29 bd ce bd 22 3e f9 cf 89 bc d9 e6 95 be
       -0.041493557 0.15892717 -0.016822802 -0.29277685
000010 61 e9 f1 be d7 64 6b be 73 30 cb 3e 72 ee 13 3e
       -0.47248366 -0.22987686 0.396854 0.14446428
000020 29 06 7a be af 30 85 be 34 1c 50 3e 45 a0 5e be
       -0.24416412 -0.26013705 0.20323259 -0.21740825
000030 45 e1 5e be 12 73 a1 be f6 b0 ac bd 08 15 ed 3d
       -0.21765621 -0.31533104 -0.0843219 0.11576277
000040 c0 18 9d 3e 0e 5b 80 3e 7e 06 84 3d d1 9b 54 bd
       0.30682945 0.2506947 0.06446551 -0.05190641
000050 41 5e 71 be b2 93 6e bd 4c 84 fe bd d1 3a 6b 3e
       -0.23571111 -0.058246322 -0.124275774 0.22971655
000060 0e c0 6f be eb cc b6 bd 40 93 7b 3e de 3c 96 3e
       -0.23413107 -0.08925804 0.2456789 0.29343313
000070 ca 03 94 3e 76 af 28 3d 1a 92 21 3d ab a9 8f 3d
       0.2890914 0.041182958 0.039445974 0.070147835
000080 17 95 1f 3e bf 56 15 3d 02 35 5a 3e f2 fb 95 3e
       0.15584217 0.03645968 0.21309283 0.29293782
000090 3d 7f 92 be f8 bd 3b 3e 6a 41 83 be d8 04 0b 3e
       -0.286127 0.18334186 -0.25635844 0.13576066
0000a0 bf 5b 39 3e cb 2f 6c 3d 31 3c 91 3e 7b e8 48 be
       0.18101405 0.057662766 0.28366235 -0.19619934
0000b0 d4 b7 84 3e 71 02 2e be 88 d9 99 be 51 e7 57 be
       0.259215 -0.16993119 -0.30048776 -0.21084334
0000c0 72 55 ac bd fe b0 f1 be 3c 91 57 be c5 27 b3 bc
       -0.08414735 -0.47205347 -0.21051496 -0.02186955
0000d0 09 d7 21 3e 17 f0 6d bd b9 52 55 3e 0b 06 cb 3c
       0.15804686 -0.058090296 0.20832337 0.024783155
0000e0 3c 99 81 3e e4 d0 9a 3e 8d 14 50 bd 72 c7 33 be
       0.2531222 0.30237496 -0.05080085 -0.17556551
0000f0 8b 64 31 be 31 84 7f bd 32 db 34 be b1 e7 29 be
       -0.1732351 -0.062381927 -0.17661741 -0.1659229
000100 7d 0c 00 3e 45 de a3 3e a5 49 c6 bd 72 31 87 3d
       0.12504764 0.32005516 -0.09682015 0.06601228
000110 49 5c fe 3d a8 07 6f be a4 d7 52 be 78 4a 92 3e
       0.12419946 -0.23342764 -0.20590073 0.2857244

weight f4 [8]
000000 4f 4f 76 3f 91 a0 78 3f 6c 84 72 3f 2a 3d 70 3f
       0.96214765 0.97120005 0.9473331 0.9384333
000010 6e 13 73 3f 7d bd 7a 3f 94 c2 87 3f fd 2e 85 3f
       0.9495152 0.97945386 1.0606256 1.0404965

bias f4 [8]
000000 eb 3e 46 bc 57 ef cc 3d 96 b3 f5 3d 6a 27 68 bd
       -0.012099962 0.10006588 0.11997144 -0.056678213
000010 23 2c 82 3d c5 79 77 3d 13 d2 a8 bc 76 9a 89 be
       0.06356075 0.060418863 -0.020607984 -0.26875657

running_mean f4 [8]
000000 04 5d 0c bb d2 58 8f bb 9d 6a 7b ba c2 2f 38 3b
       -0.0021417746 -0.004374602 -0.0009590777 0.0028104638
000010 19 50 0f bb 62 44 b7 bb ba 81 7f 3b a9 4a 15 3b
       -0.002186781 -0.0055928687 0.0038987235 0.0022780097

running_var f4 [8]
000000 d9 5d c3 3e 15 03 cf 3d 7e 44 9b 3d c9 d4 ef 3f
       0.38157538 0.1010801 0.07581423 1.8736812
000010 e5 a3 17 3e 08 61 e4 3f 18 5e 8f 3d 15 e6 0b 3e
       0.14808615 1.7842112 0.07000369 0.13661988

weight f4 [16, 8, 3, 3]
000000 ae 3f 1a 3d 18 59 88 3d ea 61 5b 3c 38 e4 ab bd
       0.037658386 0.06657618 0.013390044 -0.08393139
000010 9a 58 af bd ac 76 ba bd bf 23 2d 3d 7f 46 aa bb
       -0.08561821 -0.09104666 0.04227042 -0.005196392
000020 88 5e cf bc 72 7c 4a 3d 78 c1 37 be c4 0c 74 3d
       -0.02531363 0.049435087 -0.17944896 0.059582487
000030 bf cd 5d 3e 06 c7 c7 3d 49 22 c8 3d a7 ad 11 be
       0.21660517 0.097547576 0.097721644 -0.142264
000040 5e e7 74 bd 67 cf 33 be 31 b6 8d 3d 34 49 83 3c
       -0.05979096 -0.17559586 0.06919516 0.016026117
000050 66 64 19 3e 90 9e 27 bd fd ec 8f bd d1 c5 12 3e
       0.14979705 -0.0409227 -0.07027624 0.14333273
000060 6d 12 8f bb 1a 8b b7 bc 51 42 63 bd b1 c0 ec bd
       -0.00436621 -0.022405196 -0.055483166 -0.115601905
000070 3f 84 44 be f1 c7 1f be 4d 2e 0c bd ff 11 91 bc
       -0.19191073 -0.15603615 -0.034223843 -0.017708777
000080 b0 c8 e3 3d b3 80 59 bc 3d fc 81 bd 5b 3e 4e bd
       0.111222625 -0.013275313 -0.06346939 -0.050352436
000090 07 e9 39 bb 60 29 14 be 74 b1 74 bd 03 c3 9d 3d
       -0.0028367655 -0.14468908 -0.059739545 0.07703211
0000a0 37 f0 a8 3d 7e 5c 19 bd cb 87 83 bd 99 e9 26 3b
       0.08248942 -0.037441723 -0.06422385 0.0025468825
0000b0 66 59 75 3d 1e fe 68 bc 04 f7 1f 3e e5 b9 9b 3d
       0.05989971 -0.0142207425 0.15621573 0.07603816
0000c0 c6 55 81 3c ed 92 ab 3b 28 71 18 3e 5f 73 10 bd
       0.01578797 0.005236021 0.14886916 -0.035266276
0000d0 11 ef d1 3d d4 d1 4a 3d f0 cd 0e 3e e9 56 1f 3d
       0.102506764 0.049516514 0.13945746 0.038901243
0000e0 a3 74 25 be ea b5 d7 bc 7f 5c 36 bd 29 eb 5d 3d
       -0.16157775 -0.02633186 -0.044521805 0.054179344
0000f0 02 c4 f8 3d ba 15 c6 3d c3 43 e4 bc d5 12 38 bb
       0.121467605 0.09672113 -0.027864343 -0.0028087397
000100 06 85 86 bd 92 75 f6 bc 90 54 31 3d 59 77 3b bd
       -0.06568341 -0.030085359 0.043293536 -0.045768116
000110 dd d0 e2 bd 8f 70 91 bd f8 df a5 bd 98 73 2d 3d
       -0.11074994 -0.07101547 -0.08099359 0.042346567
000120 13 21 33 bd f1 40 25 bd 92 d7 f3 3b e0 bd b5 bd
       -0.043732714 -0.040345136 0.0074414695 -0.088741064
000130 81 9b 5b bc cc 99 de bd e2 ea 3e bd 3a 13 9d bd
       -0.013403774 -0.10869178 -0.04661072 -0.07669683
000140 c5 41 ac 3c d8 06 a1 3b a3 cc d5 3d af 0f 67 3d
       0.021027455 0.004914146 0.10439422 0.05641144
000150 0f 1c 3d 3c 85 4b 72 3d 95 8d 68 bc 55 53 2e 3c
       0.011542334 0.059154052 -0.014193912 0.010639985
000160 8e 4a 84 3d 8a 4f 69 3d 83 00 df bd 81 6f a8 3d
       0.06459533 0.05696062 -0.108887695 0.08224393
000170 2b 70 77 3b ff e4 44 bd 88 3b 9f 3d 9e cf b6 bd
       0.0037756066 -0.04806995 0.077750266 -0.089263186
000180 b2 89 3c 3c 68 e0 27 3d 6c 18 80 3d b8 2c 29 3d
       0.0115074385 0.040985495 0.06254658 0.041302413
000190 6a 1d f2 bd 18 de ea bd c7 f1 0e bd a2 d0 81 bc
       -0.118220165 -0.11468142 -0.034898546 -0.015846554
0001a0 4d 57 9a 3d 0f ca 0c be 73 57 19 3d 97 03 cd 3b
       0.075361826 -0.13748954 0.037436914 0.0062565315
0001b0 43 b2 8b bd ed 59 b2 bd 0b 03 4f 3b f3 62 b0 bd
       -0.0682111 -0.08708558 0.0031587507 -0.08612623
0001c0 0c a4 96 3d fa 8a 08 bd c9 f7 5f bd e0 29 25 be
       0.07355508 -0.033335663 -0.054679666 -0.16129255
0001d0 ff 2d 03 be 1e ea 03 bc d7 0c 87 bd 01 5c e4 bd
       -0.12810515 -0.008051423 -0.06594246 -0.11150361
0001e0 aa 87 10 be 28 36 14 3c ee 22 17 be 4b f3 07 be
       -0.14114252 0.009046115 -0.14759418 -0.13276403
0001f0 0b 17 02 bd 00 2b e3 bd df 38 8a 3d e5 37 d0 bc
       -0.031760257 -0.11092186 0.067491286 -0.025417278
000200 19 22 e0 bd 34 ca c3 bd 5f a0 01 3d 76 ae 11 be
       -0.109440036 -0.095600516 0.031647082 -0.14226708
000210 e1 84 ab 3c 12 75 39 bc 70 76 ae 3c 80 21 45 3d
       0.020937385 -0.011319416 0.02129671 0.04812765
000220 e3 c0 18 bd 84 b3 a2 bd 4f 0b 7e bd 21 39 92 bc
       -0.037293326 -0.07944396 -0.062022503 -0.017849507
000230 f1 d6 21 bd 33 51 bc bd 4c 84 f2 3d eb c0 cc 3c
       -0.039511625 -0.09195175 0.1184164 0.024994334
000240 9f af c6 3d d9 1e a0 bc fa 86 1d 3d ff 86 99 3d
       0.09701466 -0.01954596 0.0384588 0.074964516
000250 41 73 91 3d 52 b9 60 bd db d3 bb 3c 7d a6 87 3b
       0.07102061 -0.054864235 0.022928169 0.00413972
000260 0a 67 ca bd 18 97 2a be 95 85 30 be 80 45 e4 3c
       -0.098829344 -0.166592 -0.17238458 0.027865171
000270 78 b8 c6 3c 41 d8 01 3d 23 66 69 3d f3 43 a0 bd
       0.024257883 0.031700376 0.05698217 -0.0782546
000280 99 fb c1 bd b2 c8 84 bc 6a ec 3a 3d dc ac b2 bd
       -0.094718166 -0.01620898 0.04563562 -0.087243766
000290 0c c3 b1 bd a4 9a 3d 3c e3 f6 36 bc 31 3a 54 bd
       -0.0867978 0.011572514 -0.011167261 -0.05181331
0002a0 eb f2 83 bc 27 be 83 bd bf 4e 3c 3c e8 e2 9f bc
       -0.016107043 -0.06432753 0.011493384 -0.019517377
0002b0 d5 76 da 3d dc 1f 9d 3d 55 c8 c9 bd 0a ee d5 3d
       0.10667197 0.07672092 -0.098526634 0.10445793
0002c0 71 40 7d ba a4 88 86 3c 2b 60 01 3d e3 ef 08 3d
       -0.00096607866 0.016422577 0.031585854 0.0334319
0002d0 c9 17 cf bc 35 85 4d bd 2e 20 3a 3d 89 08 d2 bd
       -0.025279896 -0.050175864 0.045440845 -0.10255534
0002e0 87 fc f3 bd 04 0c ef bd 1d 0a e5 3b 0d f4 3b bc
       -0.119134 -0.11672214 0.006989731 -0.01147176
0002f0 fd be ff 3d b2 6c 65 3d 68 71 b4 3d 12 28 39 3b
       0.124876 0.056011863 0.08810693 0.0028252644
000300 1a e5 6e 3d 82 e8 15 3e ec 90 e5 3c 44 4d d1 bb
       0.058323957 0.14639476 0.028023206 -0.0063873846
000310 65 9b e1 3d ce 22 79 bd da 4f ec bd db 0b 5c bd
       0.11015967 -0.060824208 -0.11538668 -0.053722244
000320 71 4c 00 3c c7 bc b8 3d f0 19 1c 3e 13 95 11 3d
       0.007830725 0.090203814 0.1524427 0.03554256
000330 f8 4c 49 be 2f a0 b1 bd 2a ea 1f 3d b3 8a ed 3d
       -0.19658267 -0.08673131 0.039041676 0.115987204
000340 2b 64 44 3d a2 00 f8 bd a9 63 f7 3d 2c 15 c3 b8
       0.04794709 -0.12109496 0.120795555 -9.302268e-05
000350 55 62 34 bd 9c 40 1c be d0 d7 5a bd ef a1 09 be
       -0.04403909 -0.15259022 -0.05342847 -0.13440679
000360 86 b4 4b 3d 17 e6 71 bb 6c e5 3b 3e 33 46 17 be
       0.049732707 -0.0036910826 0.18349236 -0.14772873
000370 59 02 91 bd 9e 0d 00 be 55 03 bf 3d 38 ea 61 3c
       -0.07080526 -0.12505195 0.093268074 0.013788752
000380 14 de fe 3d 18 b5 09 3e 2b 82 10 3e 68 5d 80 3c
       0.12444702 0.13447988 0.14112155 0.01566954
000390 35 f0 b2 3d 9e 58 8c 3d b2 78 a0 bd 7e 4e 1b 3e
       0.08737222 0.0685284 -0.07835521 0.15166661
0003a0 6b 58 bf 3c 5c a5 ad bb ff 36 64 3c 8e e4 94 bd
       0.02335759 -0.0052992534 0.013929128 -0.07270156
0003b0 42 0e a2 3d fc 40 d4 3d 05 97 f6 bc 64 71 f0 bd
       0.07912876 0.10363957 -0.030101309 -0.117403775
0003c0 dc 06 1f 3d 6c c1 36 3d ed 44 72 3d 76 7b 2e 3b
       0.0388249 0.044618055 0.059147764 0.0026623881
0003d0 c1 42 1c 3d 1c a6 0c 3e dd 4d b6 3d 7e 62 f7 3d
       0.0381496 0.1373524 0.0890157 0.12079333
0003e0 cc 41 ed 3d cb 3f d7 3d 7f 40 dc bc b0 cd d8 3c
       0.115848154 0.105102144 -0.026886223 0.026465267
0003f0 dd 59 df 3c 9e 5d fb bd a8 69 ea 3d 08 da 06 bd
       0.02726453 -0.122737154 0.114459336 -0.032922775

weight f4 [16]
000000 70 0d 73 3f 22 a4 81 3f 1e 2b 6f 3f 5c bc 78 3f
       0.9494238 1.0128214 0.93425167 0.97162414
000010 d0 1e 74 3f 15 33 88 3f 09 55 75 3f d8 1a 84 3f
       0.95359516 1.0640589 0.9583288 1.0320692
000020 a4 0e 83 3f 4c 45 86 3f db 4f 93 3f 43 a0 88 3f
       1.0238843 1.0489898 1.1508745 1.0673908
000030 c9 e5 70 3f cd 8e 81 3f 0e b9 85 3f 42 8a 6b 3f
       0.94100624 1.0121704 1.0447099 0.9200784

bias f4 [16]
000000 9c 92 1f 3b 53 a0 3a bc 37 8a 4e bd 85 a6 36 bd
       0.002434886 -0.011390763 -0.05042478 -0.0445924
000010 1f e1 57 bd aa 55 ad bc e4 98 5d bd 28 6c 18 be
       -0.052704927 -0.021159012 -0.054100886 -0.14885008
000020 93 da d0 3d 04 f6 b2 bd 16 34 9e bc ae d4 20 3e
       0.1019794 -0.0873833 -0.019311946 0.15706131
000030 8c 1d 4c be 61 d8 9e 3c fc 54 24 bd 8a e7 9d bd
       -0.19933146 0.019390287 -0.04012011 -0.07710178

running_mean f4 [16]
000000 da 09 21 bd 99 77 67 bf da 19 a4 be a6 eb 85 3f
       -0.039316036 -0.90416867 -0.32050973 1.0462539
000010 c3 65 47 bf e1 70 61 be 95 91 d7 3d ef 40 c2 be
       -0.7788965 -0.22015716 0.105258144 -0.37940165
000020 9b 14 3c bf 79 a1 56 be 13 60 04 3d 3c ef 2a 3d
       -0.7346894 -0.20960034 0.032318186 0.041732058
000030 cb b3 10 3e 03 ca 00 bf 23 d3 f3 be 6f be 9e be
       0.14131086 -0.50308245 -0.47622022 -0.31004664

running_var f4 [16]
000000 f2 0d 0d 3f 68 40 9c 3e 85 56 6e 3e 18 63 c5 3e
       0.55099404 0.30517888 0.23275192 0.38552165
000010 dd 4c ac 3e 1f 61 b2 3e 8f cf b3 3e f3 f0 2f 3e
       0.33652392 0.34839723 0.35119292 0.17181759
000020 4f 10 b5 3e 8c b5 83 3f 97 34 80 3f f1 17 02 3f
       0.35364005 1.0289779 1.0016049 0.5081778
000030 fd 9e fe 3e 46 0c 02 3f 24 89 aa 3e 6d ff 8e 3e
       0.49730673 0.5079998 0.33307755 0.2792925

weight f4 [32, 16, 3, 3]
000000 49 90 ce bd da a1 91 bd 57 3e 94 bc 00 11 45 bc
       -0.10086114 -0.07110949 -0.018096132 -0.012027979
000010 d1 99 0c bd 73 50 00 bd ea 5c 29 3d 09 20 64 3d
       -0.03432638 -0.031326722 0.041348375 0.055694614
000020 b0 99 e5 3d 9e da 29 3e 99 8d 17 3e 89 48 c1 3d
       0.11210954 0.16587302 0.14800109 0.09437663
000030 5d d1 0e 3d 1d bc 90 bc ec cd 81 3c 57 f7 ad 3c
       0.034867633 -0.017667824 0.015845262 0.021236105
000040 42 ff af 3d 8d 76 b9 bc b9 f7 c5 bd b2 37 9d bd
       0.085936084 -0.022639537 -0.0966639 -0.07676639
000050 a2 fe 94 bc 8c c8 f8 3b 0a 5a 3d bd 36 21 1d be
       -0.018187825 0.0075922664 -0.046228446 -0.153447
000060 fa 06 8c bd 83 c5 d5 bc 34 ec 05 be 4b f8 ef bd
       -0.06837268 -0.026095157 -0.13078386 -0.1171728
000070 b5 d2 ed bd aa ca 21 be 7c 6f c2 3d 42 dd 8f bd
       -0.11612455 -0.15799966 0.0949392 -0.070246235
000080 5d d4 09 3d 72 d8 2f 3d f1 55 07 bd b8 e5 98 bd
       0.03364979 0.042931028 -0.033040944 -0.074656904
000090 8c 68 3a be 02 78 04 be 67 86 f5 3c b9 cc a6 bc
       -0.18203944 -0.12936404 0.029971315 -0.020361291
0000a0 c5 bc 01 be 20 a1 e0 bd af 05 26 3d 69 99 17 bb
       -0.12669666 -0.10968232 0.040532764 -0.002313221
0000b0 79 b7 2d bd d6 66 9e 3e 16 d4 a7 bd 3a ac e1 3d
       -0.0424113 0.30937833 -0.08194749 0.11019178
0000c0 c0 a0 3c be c2 07 ec bc 9d 21 19 3c 0b cc 1a bd
       -0.18420696 -0.028812293 0.009346393 -0.037792247
0000d0 d5 e1 33 3c 5f fb 7d bd 26 d0 16 be 8d 7b bd bc
       0.0109791355 -0.062007304 -0.1472784 -0.023130203
0000e0 78 ff 09 bd 15 3c f1 3d a5 29 c6 3d 87 a7 2b bd
       -0.0336909 0.11779038 0.09675912 -0.041907813
0000f0 b6 35 e7 3b ea e5 c3 bd 37 9e f0 3c 77 21 88 3a
       0.0070559634 -0.09565337 0.029372318 0.001038595
000100 08 08 ed bd 7d bd 8a bd ae 74 da 3d aa 9f a1 bd
       -0.115737975 -0.06774423 0.10666786 -0.07891782
000110 a0 6e 6a 3c f5 1e 2e bc e1 3f 87 bd 69 56 f1 bc
       0.014308602 -0.010627498 -0.06603981 -0.029460149
000120 aa 5f 12 3e 8d b1 26 3e 2b 66 94 3d 3a bb 57 bd
       0.14294305 0.16278668 0.072460495 -0.052668788
000130 74 52 03 bc 65 99 11 3e 14 4a a0 bd 47 3b a7 bd
       -0.008015264 0.14218672 -0.07826629 -0.08165603
000140 92 e3 87 3c 0f a2 c0 bb bf 90 7d bd d6 af e1 bc
       0.016588006 -0.005878694 -0.06190562 -0.027549665
000150 6b df 8e bd b5 c4 39 be 67 55 54 bd 9d 37 ae bb
       -0.06976207 -0.18141444 -0.05183926 -0.005316688
000160 91 bb 15 bd 1d 61 75 bc 8e 95 71 bc 7d 68 f7 3c
       -0.03655583 -0.014976767 -0.014745129 0.030201191
000170 45 07 c8 3d 5f 3d 14 be c9 f8 59 bc 7f 01 4f bb
       0.097670116 -0.14476536 -0.013303944 -0.0031586585
000180 b2 9a 52 3c b3 ce 47 bd c6 63 8a 3c 00 ae 7c bd
       0.012854265 -0.048781108 0.016893279 -0.061689377
000190 f6 de f3 bc 81 f6 40 39 2d 44 96 bd 7b d3 7e bd
       -0.029769402 0.00018402377 -0.07337222 -0.062213402
0001a0 d3 ed 80 39 05 09 34 3d 89 24 1e 3d 6c 2f ae 3a
       0.00024591255 0.043953914 0.03860906 0.0013289279
0001b0 c6 f3 c7 bc 6d 8f f5 bc 5c 1b 3e bd 3d c2 60 3d
       -0.024408232 -0.029975617 -0.04641281 0.05487274
0001c0 2f 4e fa bc ae c5 03 bd a6 3b 9b 3d d5 73 57 3d
       -0.030554859 -0.032170944 0.075797364 0.0526007
0001d0 6a 90 83 bd cc 2a 9f bd 30 fb 1d bd 54 31 86 bd
       -0.06424029 -0.07771835 -0.03856963 -0.06552377
0001e0 ba a1 94 bd 6e 84 23 be ed 82 a7 3d b6 77 f2 3c
       -0.072574094 -0.15968487 0.08179269 0.029598098
0001f0 87 89 bc bd ec 05 e6 bc 59 f8 cb 3d fa 1a b0 3d
       -0.09205919 -0.028078996 0.09959478 0.08598895
000200 3b 88 9a bc 47 d8 ed bd 13 88 c3 bc 12 6b dd 3c
       -0.018863788 -0.11613517 -0.023868596 0.027028594
000210 7d 11 85 bc 0e 5e ac bd 9d b5 97 bb 8b 21 84 3d
       -0.01624369 -0.08416377 -0.0046298043 0.0645171
000220 0f 62 bc bd d0 e5 39 3d 23 94 e2 3c f9 e5 b6 bd
       -0.09198391 0.045385182 0.027658528 -0.089305826
000230 fa 5c 32 3c e2 63 81 bb db 62 65 3d 69 6d 95 bb
       0.010886425 -0.0039486745 0.05600248 -0.004560162
000240 99 8b 89 bd 9f b7 59 be fa c9 5a be b4 fd 16 3d
       -0.06716079 -0.21261452 -0.2136611 0.036863044
000250 53 a6 d7 39 cb 42 78 3d 10 46 22 be f4 09 11 be
       0.00041131917 0.060610574 -0.15847039 -0.14163953
000260 85 33 d2 bd a7 81 5d 3d be 1c d4 3d 71 a4 6e 3d
       -0.10263733 0.054078724 0.10357045 0.058262292
000270 1d 15 97 3c 10 2f f1 3c 28 18 84 3c 3e 66 bd 3d
       0.018442685 0.029441386 0.0161248 0.09248017
000280 17 f7 d0 3d 9b a4 94 3d 05 bd df 3b 19 d7 c1 3c
       0.10203379 0.072579585 0.006827953 0.023662137
000290 ca d5 ed 3c 5b 2f 8c 3d cf 2e 95 bc ae fc a4 3d
       0.029032607 0.0684497 -0.018210797 0.08056007
0002a0 8c 6c 83 3d 11 b1 77 bc 26 f6 8f bd be 95 0f bd
       0.06417188 -0.0151178995 -0.07029371 -0.035054915
0002b0 bb 81 8a bb 0d f8 ef bc d4 e6 ad 3d b8 c8 8d bd
       -0.004226891 -0.029293085 0.084912926 -0.0692305
0002c0 88 74 24 3d fe 40 ab bd 89 e4 ca bd fa c9 10 bd
       0.040150195 -0.08362006 -0.09906871 -0.03534887
0002d0 66 ac f2 3c 3a ae 7a bd 42 49 0c 3d 8b e7 2e 3d
       0.029623222 -0.06120131 0.03424955 0.042701285
0002e0 ef 30 93 bd b0 8f b8 bd 00 01 c0 3d 77 6a 9b 3d
       -0.07187068 -0.09011781 0.09375191 0.07588666
0002f0 68 5b bb 3d 16 a6 2c bc 06 73 83 bd 0e e4 8d bd
       0.09148294 -0.010537645 -0.06418423 -0.069282636
000300 f8 36 25 3b 72 66 4a bc 86 60 19 bd 73 a8 e3 bc
       0.0025209766 -0.012353526 -0.037445568 -0.027790284
000310 06 1a c9 3d 49 af 49 bd cc c1 af bd 37 24 97 bc
       0.09819417 -0.04923943 -0.08581886 -0.018449886
000320 cf e4 68 3d 9e 55 4e bd 6d 10 a4 bc 17 a4 9d 3d
       0.056858834 -0.05037462 -0.020027364 0.07697313
000330 87 0a 8c bd 3e 66 52 3d c2 b5 eb 3c cf 3a 7a bd
       -0.068379454 0.051367037 0.028773192 -0.06109124
000340 36 0a 11 be f5 d1 17 bd c3 ef c9 3d e4 5d 78 3d
       -0.14164051 -0.037065465 0.09860184 0.060636416
000350 2a 33 05 bd 49 6c b5 3c c8 1c 1c 3b 4d 69 20 bb
       -0.032519497 0.022146361 0.0023820866 -0.0024476827
000360 7e b8 ef bc 42 ad 88 bd 41 f4 0a bd 49 b2 8a bd
       -0.029262777 -0.06673671 -0.033924345 -0.067722864
000370 68 b7 88 bd 9d 81 1e 3e 97 46 1b 3c 9d ee d7 bc
       -0.06675607 0.15479131 0.009477279 -0.026358897
000380 7c 3e 82 3d 47 de 40 bd ef 3a 00 3d 87 71 31 3d
       0.06359574 -0.04708698 0.031306203 0.04332116
000390 3f 19 4e bc 2d 0d dd bd ea e1 9c 3d b2 df 19 bd
       -0.012579261 -0.10793529 0.07660277 -0.037566848
0003a0 01 bd 98 bd 70 ee b4 bd a5 af 95 3b 9f 21 9c bd
       -0.07457925 -0.08834541 0.0045680576 -0.076236
0003b0 17 93 80 3d 6d e5 1a be 1d 14 76 be 8a aa 0c be
       0.06278055 -0.15126581 -0.2403111 -0.1373693
0003c0 ee 76 31 be ca fd 93 bd 40 4f d6 3b f9 9e 13 3d
       -0.17330524 -0.07226141 0.006540209 0.03604028
0003d0 bc 8a 1b 3d c6 c7 c5 3d 8c 80 d6 bd 36 37 4a be
       0.037974104 0.096572444 -0.10473737 -0.19747624
0003e0 d8 da 05 3d 5b af 83 bd fe 43 47 bd 74 23 84 3c
       0.03267941 -0.06429931 -0.048648827 0.016130187
0003f0 dd a5 b2 bd 54 2d 83 bd f2 73 9d 3c 5b a3 59 3a
       -0.08723042 -0.0640513 0.019220326 0.0008302235

weight f4 [32]
000000 bd fa 99 3f 91 9e 78 3f 61 34 8f 3f 59 e6 7d 3f
       1.2029644 0.97116953 1.118786 0.9917961
000010 ea f4 78 3f f0 73 6e 3f a4 a9 7f 3f 38 c5 6e 3f
       0.9724871 0.93145657 0.99868226 0.9326968
000020 ea 7c 63 3f c0 c1 85 3f a7 6c 6b 3f 34 f1 82 3f
       0.8886248 1.0449753 0.91962665 1.0229859
000030 bd 79 82 3f f8 ea 80 3f 8d fa 67 3f e1 63 83 3f
       1.0193402 1.0071707 0.90616685 1.0264856
000040 9a 5f 7b 3f 8f 16 82 3f ab 54 78 3f b8 f0 81 3f
       0.9819275 1.0163134 0.97004193 1.0151587
000050 de cf 7f 3f ac 67 75 3f 2b 0f 7d 3f 40 a6 77 3f
       0.99926555 0.95861316 0.9885127 0.9673805
000060 0b 47 7e 3f d0 55 86 3f 97 ca 90 3f 84 72 7f 3f
       0.9932715 1.0494938 1.1311826 0.9978411
000070 93 b2 7d 3f 0d c5 78 3f c9 11 82 3f 46 bc 85 3f
       0.9910061 0.97175676 1.0161678 1.0448081

bias f4 [32]
000000 be d5 36 3e 58 1e 36 3d 92 c9 06 3d d7 e0 e1 3c
       0.17854974 0.04446253 0.032907076 0.027573032
000010 3d e6 68 3c e6 27 b7 bd 22 63 b4 bd 09 d6 bb bc
       0.014215049 -0.08943157 -0.088079706 -0.022929208
000020 af 2d 2c be a3 19 3f 3e 64 14 03 3d 05 a3 35 3c
       -0.16814302 0.18662123 0.032001868 0.01108623
000030 2d 8c 08 be fc fb 45 bc 21 30 25 3e 9e a9 a3 bd
       -0.13334723 -0.012084004 0.16131641 -0.07991336
000040 84 f8 40 be 0e cd b8 bc 51 1c 81 be 9f e4 02 bd
       -0.18844801 -0.022558715 -0.25216916 -0.03195631
000050 83 0e 3e 3d de 0f 6f be 9a fe 95 bd 21 39 09 be
       0.04640056 -0.23345897 -0.07323952 -0.13400699
000060 45 9e 00 be 84 3c c9 bd e5 a3 31 bc 94 e8 81 be
       -0.12560375 -0.098259956 -0.010842298 -0.25372756
000070 23 9c 1b be 59 aa 18 3c f7 65 12 be 01 48 e2 3c
       -0.1519628 0.009317958 -0.14296709 0.027622225

running_mean f4 [32]
000000 68 fa ac bf 7e e5 ab bf cd 32 8e bf 2e 17 67 be
       -1.3513918 -1.342941 -1.1109253 -0.22567436
000010 27 b1 1e 3f 33 19 ec 3d fe 7b 5e 3f 3e da 8d 3f
       0.61989063 0.11528244 0.8690795 1.1082227
000020 08 64 26 bf e7 29 93 bf aa 66 2a bf 26 e7 52 be
       -0.64996386 -1.1497163 -0.665629 -0.20595989
000030 92 d2 f4 3c bf 12 d4 3d fa 2f 9b 3f f2 ae 9b bf
       0.029885564 0.10355138 1.2124016 -1.2162764
000040 96 2e 5d be 44 67 7d be b0 e8 56 3f 80 60 a4 be
       -0.21599802 -0.24746424 0.839488 -0.32104874
000050 2b ac 7d be 20 cd 5c 3f 00 0d af 3f 14 62 67 3e
       -0.24772708 0.86250496 1.3675842 0.22596008
000060 3e 98 23 bf 3b eb db be 49 9a 8c 3f c7 8b 70 3e
       -0.6390418 -0.42952904 1.0984584 0.23490821
000070 3e bc 2b 3e f7 83 e4 bf 56 fb a6 bf ea 8a e6 bf
       0.16771027 -1.7852772 -1.3045452 -1.8011143

running_var f4 [32]
000000 41 41 1b 3f f3 1a fc 3e 74 ec 0d 3f 5a e5 b2 3e
       0.60646445 0.4923931 0.55438924 0.34940606
000010 58 01 ef 3e bb 90 bf 3e a6 cd 10 3f f0 e9 bc 3e
       0.46680713 0.37415108 0.56563795 0.3689723
000020 b9 98 c6 3e 4e 39 31 3f 1f dc a2 3e f9 f6 1b 3f
       0.38788393 0.69228065 0.31808564 0.60923725
000030 3a e1 8a 3f f5 be 4a 3f c5 c4 c9 3e 79 85 cc 3e
       1.0849984 0.7919763 0.39407936 0.39945582
000040 c9 c3 b8 3e 0a 39 49 3f ca 22 9a 3e 35 7f d1 3e
       0.36086872 0.7860266 0.30104667 0.40917364
000050 9f b7 cd 3e 5a 8a 85 3f a6 54 12 3f a2 31 ca 3e
       0.40179154 1.0432847 0.57160413 0.39490992
000060 7b 71 1a 3f 84 38 6c 3f b0 6c 43 3f 4e 5a 32 3f
       0.6032941 0.92273736 0.7633772 0.69669044
000070 3f db f3 3e dd 1b d5 3e f2 e2 4d 3f 47 2b 53 3f
       0.4762821 0.4162282 0.80424416 0.8248791

weight f4 [16, 32, 3, 3]
000000 eb d6 6d bc 59 74 bf 3d 48 64 29 3d 8c a3 66 bc
       -0.0145165725 0.093483634 0.0413554 -0.014077079
000010 8d 61 16 be 32 28 b6 bd ca 54 8b 3d 1b cf 82 bd
       -0.1468565 -0.088943854 0.068032816 -0.063871585
000020 71 7d 23 3d 8f 3a e6 3b b4 97 45 bd a0 b7 51 bd
       0.039914552 0.0070260237 -0.04824038 -0.05120051
000030 10 b3 43 3c d2 a3 f0 bc a5 60 72 3c 58 4d 00 3d
       0.011944547 -0.02937499 0.01479355 0.03132376
000040 39 c4 aa 3c 5c 71 a5 3d 13 73 af bd 86 be e8 bd
       0.02084552 0.08078262 -0.085668705 -0.113644645
000050 a8 d7 f9 bb b8 da a3 3d 71 41 07 3c 89 51 1e bd
       -0.007624585 0.08000702 0.008255349 -0.038651977
000060 26 34 75 3c ac 9b 21 3d 18 57 1c 3d 09 fe 1b 3c
       0.014966046 0.0394551 0.038168997 0.009521016
000070 af 72 66 bd 3c d1 f7 3c e4 d3 3c bd e3 bf a7 bd
       -0.056261715 0.030251138 -0.046100512 -0.08190896
000080 89 35 35 bd 5f 85 c4 3c 58 76 43 3d f3 c5 a2 3d
       -0.04424051 0.023989378 0.047720283 0.07947912
000090 af 68 f5 3c 38 1d b9 3d 23 6a b9 3d 49 09 26 3d
       0.029957144 0.09038776 0.09053447 0.0405362
0000a0 ca b2 ba bd 2c 1d eb bb 08 18 94 bc 94 34 2b bd
       -0.091161326 -0.0071751084 -0.018077865 -0.04179819
0000b0 f8 de 6c bd 5c 07 97 3d 36 e8 4b 3d 9c fc 60 3d
       -0.057829827 0.073744506 0.049782 0.054928407
0000c0 d9 dd a7 bc 08 23 8c 3c 8a bf eb 3c 95 90 4a bc
       -0.020491527 0.017106548 0.028777856 -0.012363573
0000d0 3a 32 21 3d 16 f5 79 3d d8 7d 34 bd 50 c3 4d 3d
       0.03935454 0.061024748 -0.044065326 0.050235093
0000e0 f0 ee 28 bc de 47 c9 bd bd 5d ab bd 4c 33 e1 bc
       -0.010310873 -0.09828161 -0.083674885 -0.02749028
0000f0 1e 98 b5 3b fb b4 bc 3d f9 24 2b bc 4e 14 00 be
       0.0055418154 0.09214207 -0.010445827 -0.12507746
000100 73 b6 60 bd 72 35 39 bd 48 13 3c 3c e3 97 8e 3c
       -0.054861497 -0.045216985 0.011479206 0.01740641
000110 56 7f c0 3d af 12 f5 bd e0 a5 bd bb 5e a9 67 3d
       0.093992874 -0.11966454 -0.005787596 0.056558006
000120 da 98 6c ba 75 33 5d 3d 6a ad 3f bd 18 81 7a 3b
       -0.0009025462 0.05400415 -0.04679624 0.0038223919
000130 61 63 20 bd 73 12 c8 bc f8 97 fb 3c aa 5c bc bd
       -0.039157275 -0.02442286 0.030712113 -0.09197362
000140 20 14 43 3d f6 96 39 bd 92 25 1a be d3 bc cc bd
       0.047626615 -0.045309983 -0.15053394 -0.09996953
000150 59 b6 60 bc 5b dc 55 3d 43 d7 31 3d 3f 25 2d be
       -0.01371535 0.0522121 0.04341818 -0.1690874
000160 73 49 cb bc 40 7a f2 3c d2 c5 48 3d ac c7 e3 3c
       -0.024815297 0.029599309 0.04901678 0.027805172
000170 74 a1 33 3d 83 a6 b0 bc 4b 80 df bc ae 6b 03 bc
       0.043855146 -0.021563774 -0.027282855 -0.008021278
000180 6f 75 99 3c 40 cb 48 bd 36 8c e1 bb 75 c8 90 3d
       0.018732755 -0.04902196 -0.0068831695 0.07069484
000190 d6 db 51 3c fb f8 e7 3c 14 4d d8 bd 1b cb aa bd
       0.012808761 0.028316965 -0.105615765 -0.083395205
0001a0 ef 02 c2 3b 1b 1a 36 be be 8a 0d be 63 61 8a bc
       0.00592076 -0.17783396 -0.13822457 -0.01689214
0001b0 ec 2b 3a bd eb 2c 2a 3d 32 7f 4e bc c8 da d6 3c
       -0.045452043 0.041546743 -0.012603568 0.02622737
0001c0 56 67 2b 3d 5c 88 be 3c 8c 9a d2 bd 06 fa a2 bd
       0.041846596 0.02325838 -0.10283384 -0.079578444
0001d0 dd 7e a3 bd e2 2b 97 bd 47 ea 9f bc 05 e2 07 bd
       -0.079831816 -0.07381417 -0.019520892 -0.033174533
0001e0 89 57 6c 3d 53 04 d1 bb 30 3a f4 3c 14 8b c4 3c
       0.057700668 -0.0063786893 0.029812902 0.023992099
0001f0 22 6d 72 3d 70 88 be 3c ed c7 84 bd 0a 3e 9f bd
       0.05918611 0.023258418 -0.06483445 -0.07775505
000200 f8 77 b8 bd 6f a5 cb 3d 76 0b 29 3d c1 8e fa 3b
       -0.09007257 0.09943663 0.041270696 0.007646412
000210 2b 76 48 ba 9f 33 ab 3d 98 0a 30 3d 16 51 de bc
       -0.0007647003 0.08359455 0.042978853 -0.027138274
000220 d7 92 47 bd 6d 0c fa bd 6e bd 8a 3d 26 e8 e4 3d
       -0.04872402 -0.12209401 0.06774412 0.11177091
000230 b0 1e 7c bc 9d 54 28 3d 87 ba 1d 3d c2 18 f3 3d
       -0.015388176 0.04109632 0.038507964 0.118699566
000240 7b 59 59 3d 81 24 8f 3d 6e 68 09 3c f3 cf d6 bc
       0.05306385 0.069893844 0.008386714 -0.026222205
000250 36 a8 43 bc 9d 4b e4 bc 81 5a db 3d a4 20 02 3c
       -0.01194196 -0.027868086 0.107106216 0.007942352
000260 12 be 89 3d 0a 64 00 bc 79 be 53 3c 41 ad 7b 3d
       0.06725706 -0.007836351 0.01292383 0.061444525
000270 28 24 0d 3c 8f e1 7b bd d2 a6 03 3c 40 6f ac bc
       0.008614577 -0.061494406 0.0080353785 -0.021049142
000280 a4 32 8c bc 75 e6 8c bd 2b a8 90 3c 4a 76 f8 bb
       -0.017113991 -0.06879894 0.017658314 -0.0075824605
000290 7c 40 03 bd 49 04 41 3d 84 7f a7 3b cb 9e d8 3c
       -0.03204392 0.047123227 0.0051116366 0.026442906
0002a0 7c 23 a2 3a 72 a4 a0 bc fb e9 56 3d 20 41 2b 3e
       0.0012370194 -0.019609664 0.052469235 0.16724062
0002b0 dd 14 18 3e 94 c2 01 3e 5c 0b 3f bd 4c e6 4f ba
       0.14851709 0.12671882 -0.046641693 -0.000793074
0002c0 e9 23 bd 3d 1d 7b 5f 3b c1 75 11 bd b1 94 8c 3d
       0.09235365 0.003410048 -0.03551269 0.06864298
0002d0 57 f8 ab 3d 7c 5b ea 3c bc 76 1e bd c9 52 7b 3c
       0.083969764 0.028608076 -0.038687453 0.015339562
0002e0 ea c5 71 bd 2d 81 e4 bd 6a 7f 75 3d b5 42 51 bc
       -0.059026636 -0.11157451 0.059935965 -0.012772252
0002f0 f4 d6 ac 3d db 7f 35 bd 2b 91 26 bd 94 e5 dc bb
       0.084394366 -0.044311386 -0.040665787 -0.006741235
000300 51 b6 12 3d 37 68 fd bd 4e 12 1d bd 74 e2 4b 3d
       0.0358184 -0.12373393 -0.038347535 0.04977651
000310 44 ee 13 bd 5d 62 a9 3d 76 7f 31 3d 61 85 f1 bc
       -0.0361159 0.082707144 0.043334447 -0.029482545
000320 19 17 10 3d ac 6b d7 bc d9 ec aa 3d 61 ac 77 3c
       0.035178278 -0.02629646 0.08345956 0.015116782
000330 89 7b 4e bc 6d b6 b2 3c 60 d7 30 bd 8b f4 45 3d
       -0.012602695 0.021815503 -0.043174148 0.048328917
000340 03 9e 1b bc 4f a5 82 3d 8f fd 37 3d 46 1f cb 3c
       -0.009498122 0.06379186 0.044919547 0.024795186
000350 a1 a6 97 3d 5c 31 bf bc 72 f1 5c bd d4 2d b0 3c
       0.07404829 -0.023338966 -0.053941198 0.021506228
000360 1e 2d a9 3c 06 25 d3 3d d9 e9 b8 b9 04 77 12 be
       0.020651396 0.10309796 -0.00035269445 -0.14303213
000370 0d 18 99 bc d1 d5 ff bc 1f ec 40 3d e9 14 81 3c
       -0.018688226 -0.031229885 0.047100183 0.015757041
000380 18 cc 1a 3e a6 56 18 3e 0e 44 96 bc 21 bd ff ba
       0.15116918 0.14876804 -0.018342998 -0.0019511321
000390 83 d7 06 be 49 7d 58 bd 80 0b 90 bb 27 bd 22 bc
       -0.13168149 -0.052853856 -0.004395902 -0.009932793
0003a0 33 d5 a1 3d e6 3f 29 bd 4f c2 06 3e 69 e3 aa 3d
       0.07901993 -0.041320704 0.1316006 0.08344156
0003b0 7f b9 83 bd ea 1a 70 3b 7e ce 22 3d b0 cf 8d bd
       -0.06431865 0.0036637136 0.039747708 -0.06924379
0003c0 1d 9f db bc 9a b6 ae 3d ce 92 71 3d 58 9f 7d 3d
       -0.02680927 0.08530922 0.058977894 0.06191954
0003d0 84 00 da 3d a3 a0 99 3c e8 31 48 3d 11 a8 b7 bc
       0.106446296 0.018753355 0.04887572 -0.022419007
0003e0 5a 86 97 bd 61 db ad 3d d9 49 b4 3d 9c 94 47 3c
       -0.073986724 0.08489109 0.08803148 0.012181427
0003f0 18 51 d9 3c f2 4d 46 3d 4d 3b 00 3e 89 f9 c4 ba
       0.026527926 0.04841418 0.12522621 -0.001502798

weight f4 [16]
000000 a8 7f 77 3f 4b c1 6a 3f db c8 80 3f f6 5d 7e 3f
       0.9667916 0.9170119 1.0061296 0.99362123
000010 a3 53 80 3f 8c ec 8a 3f 6a 8c 81 3f 37 c1 7c 3f
       1.0025524 1.0853438 1.0120976 0.9873232
000020 a2 77 7b 3f b6 e4 6a 3f 56 7e 6c 3f b7 3b 85 3f
       0.9822942 0.91755235 0.92380273 1.0408849
000030 2a 2d 82 3f 03 29 83 3f 23 97 88 3f 83 ea 83 3f
       1.0170033 1.0246891 1.0671123 1.0305942

bias f4 [16]
000000 70 ca 77 bc 12 b2 26 3d 55 93 2e be d6 49 bd be
       -0.015123948 0.040697165 -0.1704839 -0.36970395
000010 a2 69 81 bd 7e 72 8c 3c 13 ca b6 3c 31 c0 34 be
       -0.06318976 0.017144438 0.022313153 -0.1765144
000020 c0 b4 02 be dd ff 64 bd 93 a1 25 bd db 9d c6 3c
       -0.12764263 -0.055908073 -0.040437292 0.024245193
000030 94 e4 12 be e0 37 fb bd de e7 cd bd 22 b9 00 be
       -0.14345008 -0.12266517 -0.10053991 -0.12570623

running_mean f4 [16]
000000 14 34 81 3f 64 bc d0 bf 50 82 95 be 72 59 a9 3f
       1.0094018 -1.6307492 -0.29200983 1.3230422
000010 7f cf 51 bf ad df 11 bf 19 3b 5c 3f 05 e3 52 3c
       -0.8195724 -0.5698193 0.86027676 0.0128715085
000020 ad ae 4d bf 9c d1 10 c0 68 b2 93 bf 6f b6 44 c0
       -0.8034466 -2.2627935 -1.153882 -3.0736349
000030 f5 bf 29 c0 33 d1 ad 3e 8f 0c e9 be ec c2 6b be
       -2.6523411 0.3394867 -0.45517394 -0.23023576

running_var f4 [16]
000000 59 61 93 3f e7 1b 9e 3f 2d a5 46 3f 2d 98 8b 3f
       1.1514083 1.2352265 0.7759579 1.0905815
000010 c1 cb 68 3f d9 ac d0 3f 9b a3 34 3f d7 9c 74 3f
       0.90935904 1.6302749 0.7056214 0.9555182
000020 2f 35 75 3f b2 b7 f7 3f 88 df 4f 3f 24 31 b9 40
       0.95784277 1.9352934 0.81200457 5.7872486
000030 83 5f 4f 40 fa 43 28 3f 2b e8 d9 3f 00 2b ca 3f
       3.2402046 0.65728724 1.7023977 1.5794373

weight f4 [1, 16, 4, 5]
000000 08 c7 ed 3c 6f c1 c7 3c 4f 99 c1 3c ba 24 6f 3c
       0.02902557 0.024384229 0.023632674 0.014596159
000010 6d 81 35 3d b0 19 0c bc 22 7f ea bc 2e 35 9d bc
       0.044312883 -0.008551046 -0.028625075 -0.019190397
000020 f0 5e 19 bc 5b 74 91 bd 59 cc 99 3d ee 9b 3e 3d
       -0.009361014 -0.07102271 0.07509679 0.046535425
000030 4b 33 51 3d 0d 85 ce 3c db d6 bb 3d 60 d8 42 bd
       0.051074307 0.025209928 0.0917184 -0.047569633
000040 1a db b2 bd e5 e5 1d bd 64 58 3b 3c 2e e4 77 bd
       -0.087331966 -0.038549323 0.011434648 -0.060520343
000050 be fe d3 bd 18 0a 5b bd 22 c1 8d bd e4 0a 7c bc
       -0.103513226 -0.053476423 -0.06921603 -0.015383456
000060 92 ff e7 bd 1a 31 07 bd 20 d5 b0 bc d5 db e6 bc
       -0.11328043 -0.03300581 -0.021586 -0.028180996
000070 1d 3d e1 bb c9 75 46 bd fb dc 99 bc 85 cd af bc
       -0.0068737403 -0.048452172 -0.01878213 -0.021460304
000080 bd 88 a2 bc 28 02 b4 bc e5 2c 3c bd a6 6b 1d bd
       -0.019840593 -0.021973684 -0.045941252 -0.03843274
000090 99 a8 cb bc ff 04 3f bd f1 ed 39 3c ac c9 14 bd
       -0.024860667 -0.046635624 0.011348234 -0.03632514
0000a0 1f 4b 72 bd 14 ad 8b bc f0 a5 2f bc 07 e7 2d bc
       -0.059153672 -0.017050304 -0.010720715 -0.010614163
0000b0 32 3c 63 bd 04 1f f8 3c f5 b2 90 3c d7 19 a9 3c
       -0.05547733 0.030288227 0.017663458 0.020642204
0000c0 a8 16 90 3c 2a 5b e9 3c cb 2e 17 3e 5d 3f 18 3d
       0.017588928 0.028485853 0.14763944 0.037169803
0000d0 5c 8b b3 3d ff b4 31 bd cb ae 34 3e c1 43 00 bd
       0.08766815 -0.043385502 0.17644803 -0.031314615
0000e0 58 6b 50 bd 9e d9 93 bc cc 97 ff bb 8e 5a 0f bd
       -0.05088362 -0.018048104 -0.007800078 -0.03499847
0000f0 57 8d 17 3e 2f 6c 03 3a 23 bc a6 3d be 40 79 bd
       0.1480001 0.0005013374 0.08141353 -0.06085276
000100 6b ea 4d 3e c3 0b 17 3c fb 21 60 3b 29 b4 4c 3c
       0.20108955 0.009219113 0.0034199941 0.012494125
000110 40 7d 81 3b c6 d5 a5 3b 68 5a ba bc fa 9c 6b 3c
       0.0039516985 0.005060884 -0.022748187 0.014380688
000120 e4 be a4 bc 4d 03 e1 bc 81 32 ba 3a 00 05 06 3b
       -0.020110555 -0.027467394 0.0014205725 0.0020449758
000130 95 43 4f 3c 4a a3 0c bd 88 7c b6 bc 4f f3 be bc
       0.01265039 -0.034335412 -0.022276178 -0.023309378
000140 a9 c3 74 3d 60 c8 59 3d e5 f9 7a 3b 44 e7 f9 3c
       0.05975691 0.053169608 0.0038295921 0.030505784
000150 fa 33 8c 3d 13 ad 71 3d 2d 9f 6d 3d 78 b2 7a 3d
       0.06845851 0.059002947 0.05801313 0.061205357
000160 77 fa 39 3d ee d3 8e 3d f1 6f d6 bc 5e 0f 91 3c
       0.045404878 0.06974016 -0.026176425 0.017707523
000170 bd 60 41 bc e2 87 01 bc 33 93 95 bb 63 b2 d6 bd
       -0.011802849 -0.007905932 -0.0045646667 -0.10483243
000180 85 f2 f6 bc 11 ff a3 bd dd 16 6b ba 2a 3d 16 be
       -0.03014494 -0.080076344 -0.00089679455 -0.1467177
000190 74 1d 0f be 98 44 74 bd 82 5e 89 bd f0 48 96 bd
       -0.13976079 -0.05963573 -0.06707479 -0.073381305
0001a0 23 e3 16 be 11 70 89 bd 47 05 6a bd 76 2a 65 bd
       -0.14735083 -0.06710828 -0.05713394 -0.055948697
0001b0 bd e4 59 bd b9 51 98 bd b5 d0 83 3b 68 e5 cf 3c
       -0.053196657 -0.07437462 0.0040226826 0.025377944
0001c0 09 0a 89 bc d0 08 3f 3d 3c db 0b bc e9 fd 98 bd
       -0.016728418 0.046639264 -0.008536156 -0.074703045
0001d0 59 91 c9 bc 8a 22 6a bd 15 ae a7 bb 77 e5 c9 bd
       -0.02460544 -0.057161845 -0.0051171877 -0.0985822
0001e0 be 9f e1 bd 7c a5 17 bd d3 1e be bd 1c ca 81 3c
       -0.110167965 -0.037023053 -0.09283223 0.015843444
0001f0 b0 97 0f be 83 c6 69 3d 02 68 d7 3c 55 94 20 3d
       -0.14022708 0.05707408 0.026294712 0.03920396
000200 5b 5f 1a 3d 83 9d 80 3d cf 7b 5c bd df e1 21 bd
       0.037688594 0.06280043 -0.05382901 -0.039522048
000210 51 39 11 bd 67 7a a8 bc b2 0f 82 bd 1a 39 0b bd
       -0.03545505 -0.020566178 -0.0635065 -0.033990003
000220 34 3c e6 bb 74 de be bc ad 2a 79 bb 7d 4b 85 bd
       -0.0070262197 -0.023299433 -0.0038019822 -0.06508539
000230 a8 27 88 3c b2 89 35 bd 9a 48 3b 3b c4 2e a6 bd
       0.016620472 -0.04432077 0.002857721 -0.081143886
000240 55 d5 a3 3d 84 fd 3c 3d e4 c0 ab 3c 36 17 1c 3d
       0.07999674 0.04614021 0.020966 0.038108073
000250 20 25 7e bc 58 fb 20 3d 00 b1 73 3d 62 97 d3 3a
       -0.015511781 0.0393022 0.059494972 0.0016143138
000260 cf 20 51 3d 54 23 0f bc 2f cc c8 3d 1e 87 a0 3d
       0.05105668 -0.00873645 0.0980457 0.078382716
000270 d5 9a 83 3d e2 71 61 3d 47 7d 4c 3d 42 11 be 3d
       0.06426016 0.055040248 0.04992416 0.092806354
000280 e1 da 45 bc 20 ee 5c 3c 40 98 9b bb 1d 2c 97 3a
       -0.012076111 0.013484508 -0.004748374 0.0011533533
000290 03 de 7b bc 85 37 f2 3d dc e4 6e 3d 3d 66 9b 3d
       -0.015372756 0.11826996 0.058323726 0.0758786
0002a0 b3 e5 5e 3d 50 6e 15 3e d6 0a 6e bc c1 a8 a8 bc
       0.054418277 0.14592862 -0.014528951 -0.02058828
0002b0 2b 33 1c bc 7f 4e 84 bc 16 7d d3 bc 31 76 53 bc
       -0.009533684 -0.016150711 -0.025816482 -0.012906597
0002c0 bd b5 2d bc 8b 05 79 3b 50 20 41 bc 92 4f 26 bc
       -0.010602412 0.0037997689 -0.011787489 -0.010150807
0002d0 16 2a 6f 38 5b 61 a5 bd 06 b8 b0 bc 77 e7 d3 bd
       5.7021236e-05 -0.0807521 -0.021572124 -0.10346883
0002e0 0b 54 47 3c c3 e3 9c 3d 96 39 17 3d 0d b3 d4 3d
       0.0121660335 0.076606296 0.036920153 0.10385714
0002f0 ab 32 15 3c 1b 6b 98 3d 15 fd d0 3c 08 fc ad 3c
       0.0091063185 0.07442304 0.025511304 0.021238342
000300 7b 67 4e 3b 59 33 fe 3b f2 b2 c4 3b 0c f3 01 3d
       0.0031494785 0.007757586 0.0060027773 0.03172593
000310 e7 98 02 3d 0c e3 9e 3c 1a a2 d9 3c c2 50 16 3d
       0.0318841 0.019395374 0.026566554 0.03669811
000320 a2 d2 11 3d c6 fb 0a bd be 41 ed 3c a0 6e 53 bd
       0.035601266 -0.033931516 0.028962012 -0.051619172
000330 6c 2d aa 3d f4 76 47 bc 0b 86 d2 3c 7a 0d 92 bc
       0.08309445 -0.012174357 0.025698682 -0.017828692
000340 56 9d 6e 3d 53 44 3a bd 2d 4f 5d bd f6 f2 81 bc
       0.058255516 -0.045475315 -0.054030586 -0.015862923
000350 bc 68 3d bd 68 65 13 bd f3 00 a1 bd bf 9d 4c bd
       -0.04624246 -0.03598538 -0.07861509 -0.049955126
000360 ab 54 5f bd 3f 56 39 bd b3 8f a1 bc 17 2d 79 bd
       -0.054524105 -0.045248266 -0.019721841 -0.060834017
000370 30 73 75 bd 18 16 8d bd b1 6d 23 bd 55 b7 c7 bd
       -0.059924304 -0.0688898 -0.03989953 -0.09751765
000380 0f ce d0 bd e7 f6 0b be 2b 86 73 bd 77 88 c4 bd
       -0.101955526 -0.13668405 -0.059454124 -0.09596341
000390 8d 87 ac bd 98 fc 4e be 12 6f 9e 3b 4b 2c 14 3c
       -0.08424292 -0.20213544 0.004835018 0.009043763
0003a0 8d 84 86 3c 4d e2 48 3b 09 2f 04 bd ff b1 86 bd
       0.016420627 0.0030652464 -0.03227142 -0.06576919
0003b0 ed 16 a9 3c 8a 4e 51 bd 3a 6c 36 3d 51 ea 79 bd
       0.020640815 -0.05110029 0.044536807 -0.061014477
0003c0 34 aa 8f 3d c2 72 a4 3c ea f2 6c 3c 26 45 c5 3d
       0.070148855 0.020074252 0.014462212 0.0963233
0003d0 1f 3d 76 3d 7c fd b9 3c 6c 22 c8 3d 2d 32 ef 3d
       0.060116883 0.022703879 0.097721905 0.11679492
0003e0 c9 a8 3b 3d e6 65 b9 3d 79 9c 8c bd f6 b1 88 bd
       0.045815263 0.09052639 -0.06865782 -0.06674568
0003f0 d4 c4 81 bd e2 76 9d bc 9c 7f 80 bd e0 7a 33 3d
       -0.0633637 -0.019221727 -0.062743396 0.043818355
