source/models/MelodyTimbreCNN/model_128_20_0.001_MIDIsampledseen_evalmode_test.pth (torch, 201935 bytes, 26 tensors)

weight f4 [6, 1, 5, 5]
00000000: 5049 23bd f6ea e53c c29c 993d 6f90 18be
00000010: 85b2 b5bd 1c4f cabd 59c0 283e 4519 023e
00000020: c629 2b3e f4c2 1cbe 20b9 49bd 366c 813d
00000030: 82f5 7a3e 9451 51bd 2fe5 3f3e 9f00 5cbe
00000040: 9985 7a3d db53 193e 61b8 09be e258 e73d
00000050: 28a1 4cbc 7925 ff3d a870 f43d d8f7 7b3d
00000060: 88a9 e23d 6b46 3b3e c73d d93b 1041 f43d
00000070: d27b 0e3e c6ed 4cbe a338 04be fa41 c5bd
00000080: 19a3 15be 140b 23bd 9075 d83c 2718 fbbc
00000090: ca2d 1b3d 14a1 cb3d ced5 4dbc 4211 8f3d
000000a0: 2b05 12be 1178 a9bc d9ea 4dbe 1317 bdbb
000000b0: 2cfe d1bd e9ef 563e 6306 1fbe b400 05be
000000c0: 27f4 c3bd a0dd 3d3e a289 1c3e a5a2 483b
000000d0: 1eb3 61be 8b23 7dbc 89c8 233e a9dd c3bd
000000e0: 7c79 f93c aa5f 8c3c 64c1 26be 475f 9b3d
000000f0: 0049 073b 4850 183e 2102 9e3d 0c00 4bbe
00000100: 19d8 b93d 47c1 f93d bb8f 2bbd 677a d83c
00000110: b502 f2bd 6a27 043e b21c afbd 55b6 f9bd
00000120: 03fc 24bd cd22 5ebd b006 c2bd 7343 013e
00000130: c272 d83d a033 c0bd b155 0abe 5064 203e
00000140: d0da 42be 36ff 3cbe e852 913d 441b e1bd
00000150: b774 93bd 37b6 e0bd 0620 10be 37e8 c8bd
00000160: 64a0 3bbd 19e7 513e 8667 5dbe 7433 e2bd
00000170: 5f4f adbd 051a fcbd 7aaf 24bd 25b0 353e
00000180: 164d e13d 706b ca3d 4119 af3d 4a70 473e
00000190: da93 43be 95c9 cdbd 130f 413e 64db d2bd
000001a0: 50c1 0cbe 4792 bb3d 4a04 013e 0fbf 983d
000001b0: 10bc 9cbd d3dc 3b3b 6f57 c03d 7f91 f53d
000001c0: 25d1 8c3e f8ed 71b9 77e7 c0bd f884 17be
000001d0: 4493 c03c 004c 193c e4aa 063e ccd2 9ebd
000001e0: 611f f9bd 0e3e efbd cc10 713d c6cc 35be
000001f0: c094 d03d 4371 31be 1a12 9cbd 9d6a 5ebd
00000200: aa20 18be 37ce e3bd 7bb0 343e fca1 2b3d
00000210: d54e ea3c 47a6 4d3e ffbc d5bd 3cf6 313e
00000220: 1967 153e dd8c dc3d fd3f 9e3d 4e91 3f3e
00000230: d074 673e 153c 443e 2664 e93d 4ae4 46bd
00000240: 455d 943d a89a 20be 57a5 28be 9462 e7bc
00000250: da75 bc3d 392c 88bd
-0.039864838 0.02806614 0.07500602 -0.14898847 -0.088719405 -0.0987837 0.16479625 0.12704952
0.16715154 -0.15308744 -0.049248815 0.06319468 0.24507716 -0.05110319 0.1873977 -0.21484612
0.061162565 0.14973395 -0.13449241 0.1129625 -0.0124895945 0.12458319 0.1193555 0.06151566
0.11067492 0.18288581 0.006629679 0.11926472 0.13914421 -0.20012578 -0.1291223 -0.09631725
-0.14612998 -0.039805487 0.026423246 -0.030651165 0.037885465 0.099428326 -0.012563182 0.069857135
-0.14259784 -0.020687135 -0.20109119 -0.005770573 -0.102535576 0.20989956 -0.1552978 -0.1298855
-0.09568053 0.18541574 0.15286878 0.0030614522 -0.22040984 -0.015450369 0.15994467 -0.09563763
0.030453436 0.01713546 -0.1628471 0.07586532 0.0020642877 0.14874375 0.0771525 -0.19824237
0.090744205 0.12195068 -0.04188512 0.026425553 -0.118169226 0.1290566 -0.08550395 -0.1219298
-0.0402794 -0.054232407 -0.09473932 0.12623386 0.10568763 -0.09384847 -0.13509251 0.15663266
-0.19028783 -0.1845673 0.07095891 -0.10991529 -0.07199996 -0.10972255 -0.14074716 -0.098099165
-0.045807257 0.20498313 -0.21621522 -0.1104497 -0.084624045 -0.1230965 -0.04020641 0.17742975
0.11001031 0.09883773 0.08549739 0.19476429 -0.1909937 -0.10048214 0.18853407 -0.10295752
-0.13745618 0.091587596 0.12599292 0.074583165 -0.076530576 0.0028665557 0.09391677 0.11990642
0.27503315 -0.00023072201 -0.094191484 -0.14796817 0.023507722 0.009356499 0.13151127 -0.0775505
-0.12164188 -0.11681758 0.05885391 -0.17753896 0.10184622 -0.17328362 -0.0762064 -0.054300893
-0.1485621 -0.11123317 0.17645447 0.041902527 0.028602043 0.20082961 -0.10436439 0.17379087
0.1459011 0.10769055 0.077270485 0.18707773 0.22603154 0.19163544 0.11396055 -0.048557557
0.07244352 -0.15683997 -0.16469322 -0.028245248 0.09202166 -0.0664906

weight f4 [6]
00000000: 2165 683f d157 7c3f f880 7e3f 3faf 833f
00000010: a3d2 8a3f 9e18 763f
0.9077931 0.985715 0.9941554 1.0287856 1.0845531 0.9613131

bias f4 [6]
00000000: f93c e1bd 1282 aabc 009a 90bd 2e2a 8abc
00000010: f669 393d 7156 5ebd
-0.10997958 -0.020813975 -0.07060623 -0.016865816 0.045267068 -0.054281656

running_mean f4 [6]
00000000: 7f93 b2ba 68e5 7a3a b1db 1f3b 1ac4 b7bb
00000010: 7c53 0f3a 8f23 deb9
-0.001362428 0.00095709274 0.002439242 -0.005608094 0.0005467457 -0.00042369633

running_var f4 [6]
00000000: cbee 2b3f 603b 543e 4915 b63d 9b3e 993e
00000010: e9a2 773d 485a 0c3f
0.67161244 0.20725775 0.088907786 0.29930577 0.060458098 0.5482526

weight f4 [18, 6, 5, 5]
00000000: 302e 7c3c 139a 8e3d 20f2 7ebd 5c3c 793c
00000010: a989 a83d ffa1 593d f209 ae3c 5354 eabb
00000020: f2fd a63c 7f5f 00bc f26c c73d c3e5 b13d
00000030: 5341 853d b80a ffba f2e8 46bd 8cf4 c13d
00000040: 54f7 833d 0c6d 893d 4aed 9d3c bf7a e83d
00000050: 8fa9 8fbd 543d 823b 52f0 373d 9726 36bd
00000060: eee8 5b3d 357c 2cbd c7bc 48bd 5730 86bd
00000070: e6ca 273c 4b1d a3bc 6e98 853a 0ad7 273d
00000080: 2f3f 733d 1e69 83bd 6818 48bd 77ba 56bc
00000090: 086d 2d3c 7ded f5bd e26a 6abd ca16 0dbe
000000a0: 22b6 f83c 236c e03c 9c05 e3bd 6b2b 9f3d
000000b0: 66cc 273d 0750 b6bd 5bc8 e83b c67c 85bd
000000c0: eb13 713d 94f5 5fbd 4943 083d 3ef6 ca3d
000000d0: 78aa c73d 2508 6f3d fb59 d13c 7fe7 a33d
000000e0: 1429 053d ecfc 863c d126 8d3d 62b6 e9bb
000000f0: cc05 253d ab5b ef3b 03ff 8cbd 58d3 023e
00000100: d2db 3abd a5bf babd 9828 6ebd 1410 f0bc
00000110: c2af d03d 1493 46bd 082b 013d 5bc1 8c3c
00000120: 1ca4 8e3d e043 c6bc e455 acbd dbca 993c
00000130: 682d 093d c3fc 423b 3ab7 273d 0ced a9bd
00000140: e7d4 a9bd 1578 8abd 2c4b 49bd ae53 0bbd
00000150: ec15 76bd 34f2 423d d2ba 6cbc b1f4 c4bc
00000160: e6ee a0bc ab5b abbd b04d 273c d216 e13c
00000170: 5b86 ab3d 1dda 88bd b460 1cbd 7914 f1bc
00000180: 9801 f2bc bea7 ceba 1b3b 18bd 53f6 ebbd
00000190: 82b9 b2bc a61b 0abd 6abb 32bd 0706 c23d
000001a0: b0a0 eb3c 111a 473d 7ea0 be3b 7852 0cbd
000001b0: b268 253d 0a0e 593d 89e9 ebbb c8f9 8cbd
000001c0: c6ef 793d 87a4 953d 7da3 463d 732d e7bb
000001d0: b73f 54bd cfe9 683d fbfa 843d a6ed bdbd
000001e0: 468e 37bd 0c7c 3fbd f862 b8bd 0a50 723c
000001f0: 5bfd 96bd abb1 2abd c81f b7bd 8f54 dcbd
00000200: 2409 65bd f196 9ebc 0e2a 03bd 4979 483d
00000210: f339 733d 67f8 8d3b f49d 48bd 281c e43c
00000220: 0465 473d bded 97bd c609 43bc 0784 183c
00000230: bcc1 2cbd 681f c53c e86f 50bd eae5 ddbd
00000240: 0017 88bb 57ed 943d c7d1 203c ddbc 74bd
00000250: b677 a1bc 8f33 0d3b 96fd 823c eded 863d
00000260: 38a5 093d 5379 d4bc d0ac 3ebc 1718 a9ba
00000270: 56f3 23bd ae17 c0bd 49d8 84bc 8781 cdbd
00000280: 94c9 0c3d ce07 b5bb d73c 8fbc e890 773d
00000290: 8c5d b4bd 96cc 8a3d 4aca 483d 1888 6cbd
000002a0: 8590 eb3c 5011 e6bc 3452 a93b 6ccb 6dbd
000002b0: 4ad6 93bd 3a97 a3b9 e5d2 90bd 64c4 64bc
000002c0: c1c4 87bc 17b4 963d e9f4 b43d 2a0c bf3d
000002d0: 3769 80bd e1f5 4ebd aa28 a53b dfb9 8bbd
000002e0: 4f82 5c3c ea4f 39bd 9051 893d bd6f 263c
000002f0: 4fb2 2f3d 8a1c 96bc b6e6 7fbd 6a3f d53c
00000300: 153f 49bd 7112 be3c e52b d7bb ce58 513d
00000310: 7429 65bd 9352 1b3c 953c 88bd 87d8 7bbc
00000320: 4b41 dcbc f9bf 25bc eec4 b63d d3e1 08bd
00000330: 9432 b1bc 59d6 c2bd 4d1f b2bd 390b 4fbd
00000340: 1691 853c f5bf b2bd f5fe e9bd 59a9 5fbd
00000350: 4391 11be d483 b7bd 4e4a a8bd 24f3 2e3d
00000360: c706 073e b71b da39 b52b d6ba a62e 1a3e
00000370: 5942 96bb 801b 173e 0aa3 123d cbf0 3c38
00000380: dbe4 e73d 3c81 243d d488 203c 00dc d53d
00000390: 7e10 4cbb ff2c f8bc 443b 833d c94e e63d
000003a0: 8e1b 52bd 06f0 d4bc 6f14 aabc bf63 a3bc
000003b0: 2d53 a63d de34 43bd 292f b6bc 341e 6f3b
000003c0: f5e7 b1bc cae6 463d 77ef 5ebd 40cf d03c
000003d0: 1ba4 24bd 80de 15be 92da f03c 45f4 2abd
000003e0: 5ca7 2bbd 1f7e 8fbd 0cad 94bd 8a59 dcbc
000003f0: 0b4c 59bd 8b40 3dbd 5b7f 50bd 59d5 683d
0.015391871 0.06962981 -0.062242627 0.015212145 0.082293816 0.053133007 0.021244977 -0.0071511655
0.020384762 -0.007835268 0.097375765 0.08686402 0.065066 -0.001945815 -0.048561998 0.09470472
0.064436585 0.06710252 0.019278187 0.11351537 -0.070147626 0.003974596 0.04490692 -0.044470396
0.053688936 -0.04211064 -0.049008157 -0.06552189 0.010241246 -0.019911429 0.0010192522 0.04097656
0.05938643 -0.06416534 -0.0488514 -0.01310598 0.010585077 -0.12008188 -0.057230838 -0.13778225
0.030360285 0.027395314 -0.11085054 0.07771953 0.040966414 -0.08901983 0.0071039624 -0.06517939
0.058856886 -0.05467756 0.033267293 0.09910248 0.09749311 0.058357377 0.025555601 0.08003139
0.03250988 0.016478024 0.06892169 -0.0071323374 0.04028873 0.007304629 -0.06884577 0.12775934
-0.045619793 -0.091185845 -0.058144182 -0.029304542 0.10189773 -0.04848011 0.03153518 0.017182043
0.06964895 -0.024202287 -0.0841482 0.018773487 0.03349057 0.0029752709 0.040946223 -0.08297166
-0.08292561 -0.06761185 -0.049143955 -0.03401535 -0.0600795 0.047594264 -0.014448838 -0.02404246
-0.019645166 -0.08367094 0.010211393 0.027476702 0.08375236 -0.06682227 -0.03817816 -0.029428707
-0.029541776 -0.0015766544 -0.037165742 -0.11521592 -0.021816973 -0.033717774 -0.043635763 0.09473806
0.028763145 0.048608843 0.005817472 -0.034258336 0.04038305 0.052991904 -0.0071994704 -0.068835795
0.06101968 0.07306772 0.04849576 -0.0070549785 -0.051818576 0.056863602 0.06493183 -0.092738435
-0.044813417 -0.04674916 -0.09003252 0.014789591 -0.073725425 -0.041673344 -0.08941609 -0.10758316
-0.05591692 -0.019359084 -0.03202253 0.04894379 0.059381437 0.0043325904 -0.04897876 0.027845457
0.04868032 -0.07418392 -0.011904186 0.0093088215 -0.042176947 0.024062827 -0.050887972 -0.10834868
-0.0041531324 0.072718315 0.00981564 -0.059750427 -0.019710403 0.0021545624 0.01599006 0.065883495
0.03360483 -0.025936758 -0.011637881 -0.0012900856 -0.040026985 -0.093795165 -0.016216414 -0.10034471
0.034371927 -0.005524612 -0.017485065 0.060440928 -0.08806905 0.06777303 0.049021043 -0.057746977
0.028755436 -0.028084427 0.00516727 -0.058055326 -0.07218607 -0.00031202455 -0.07071475 -0.013962839
-0.016573312 0.07358568 0.088357754 0.09328492 -0.06270068 -0.050527457 0.005040248 -0.068225615
0.013458802 -0.045242228 0.0670501 0.010158476 0.042894658 -0.018324155 -0.062475882 0.026031215
-0.049132425 0.023202153 -0.006566512 0.05111008 -0.055947736 0.009480136 -0.0665218 -0.015371448
-0.026886603 -0.010116571 0.0892428 -0.033418488 -0.021630563 -0.0951354 -0.086973764 -0.050547812
0.016304534 -0.08728019 -0.11425582 -0.054604862 -0.14215569 -0.08960691 -0.082172975 0.042712346
0.13186179 0.0004160085 -0.001633993 0.15056857 -0.004585546 0.14756584 0.035800017 4.504695e-05
0.113229476 0.04016231 0.009798247 0.10442352 -0.003113776 -0.030294893 0.064077884 0.11245496
-0.05129581 -0.025993358 -0.020761697 -0.019945024 0.08121333 -0.04765784 -0.022239285 0.0036486508
-0.021717051 0.04855994 -0.05442759 0.02548945 -0.040195566 -0.14635658 0.029401097 -0.04173686
-0.041907653 -0.070064776 -0.072595686 -0.026898164 -0.053051036 -0.04620413 -0.050902706 0.05684409

weight f4 [18]
00000000: f110 683f cbbd 813f 9c52 803f 744f 7b3f
00000010: 0d81 673f a06a 843f 04e1 723f 0a98 843f
00000020: 581c 8b3f fc7d 823f ac0c 783f a575 813f
00000030: d40f 893f ef14 7c3f 5d0b 793f 510d 7c3f
00000040: ed89 6b3f dc12 863f
0.9065085 1.0136045 1.002521 0.9816811 0.9043129 1.0345039 0.94874597 1.0358899
1.0868025 1.0194697 0.96894336 1.0114027 1.0707955 0.9846944 0.97282964 0.9845782
0.92007333 1.0474505

bias f4 [18]
00000000: 2524 45be 18a0 76bd 44be 85bd 9a14 58be
00000010: 0332 1ebe 9596 a8bd 3309 b3bd bef7 43be
00000020: c3f0 e1bd aec5 77bd 1417 54be e0ff e2bd
00000030: 90bc 67bd d8e5 d8bd b4ee 0dbe bd66 c6bd
00000040: 405c 5bbe bfdf a7bd
-0.1925207 -0.06021127 -0.06530431 -0.21101609 -0.15448765 -0.08231846 -0.08741989 -0.19137475
-0.1103225 -0.060491256 -0.20711929 -0.110839605 -0.05657631 -0.10590714 -0.1386059 -0.096875645
-0.2142191 -0.08196973

running_mean f4 [18]
00000000: 7fed 83be 4e4d 1cbf 2764 14bf 0c60 e3be
00000010: 8622 d63f bc1c 22bf 0fd9 f9be 1cd9 99bd
00000020: 7e8f 1bbf c87d aabe 6d31 a83e 06cf a8bd
00000030: 3d50 bbbe a713 8dbd b145 83bd a29f 3d3e
00000040: 0a65 c43e 14e9 1e3f
-0.25767133 -0.6105546 -0.5796532 -0.44409215 1.6729286 -0.63325095 -0.48798415 -0.075121135
-0.60765827 -0.33299088 0.3285021 -0.082426116 -0.36584654 -0.06888514 -0.06409777 0.18517926
0.38358337 0.620744

running_var f4 [18]
00000000: 9f42 5d3e f1e8 7d3e 6776 a53e 728a 1e3e
00000010: d6cc 073f ee08 963e 8aef 783e fac2 253e
00000020: 5b9e 123f 0c19 863e 246a c53e 9f65 c53e
00000030: 233e 0c3e b4a6 433e e47e 583e c4fe 323e
00000040: b6cb b13e 7e1c cb3e
0.21607445 0.24795891 0.32316896 0.154825 0.5304693 0.29303688 0.24310127 0.16187659
0.5727288 0.26190984 0.3855754 0.38554093 0.13695578 0.19106561 0.21142155 0.17479998
0.34725732 0.39670175

weight f4 [45, 18, 5, 5]
00000000: ded2 8b3d 4caf 393d 27a9 be3d 4b16 ae3d
00000010: 7af7 6f3d 2299 713d d919 4e3c fa3e 7c3c
00000020: 2914 043c 9c55 50bd b357 97bc 37fb e2bc
00000030: a9ab 53bc 134f 3bbd 71df 74bc 431f 32bd
00000040: b7ff 43bd 75da 80bd 4890 00bd 59c7 83bd
00000050: e6bd 9ebd cea2 a63a 15e7 c9bd e038 93bc
00000060: ab42 d0bb 1efb 3fbd 917a f0bc 7411 59bd
00000070: d633 27bd fa95 83bd 3deb f2bd 8c47 adbd
00000080: ea03 9fbd 9f72 5ebd 50ec 8ebd 3557 f3bb
00000090: 1b41 843d 7386 113c 8268 943c 51f2 863d
000000a0: fbea 04bd cb9b 013d 6204 2bbd d061 a63c
000000b0: 1746 43bc 1f12 e03c c1b5 5a3d d3e1 8d3d
000000c0: f045 303d 8eb2 6c3d 0329 9c3c e7e7 363d
000000d0: e2a3 0a3d 923e a9bc 9f67 28bb fb91 24bd
000000e0: ab42 bfbd 8166 80bc ea20 9bbd ab95 fcbc
000000f0: 2044 00bd 8453 0cbd 5c46 a3bc 076d 06bd
00000100: 113e 08bd 08c6 afbd 9ff0 97bd 4f02 64bc
00000110: 393e adbd d975 8ebc 637b 0a3d 70c2 cf3c
00000120: d1cf 943d b59c 503c 185c 383c 390b dfbc
00000130: a42b a6bb 6a2e d6bc d22a 673c 05ee 35bd
00000140: 8067 a5bc d4db 323c 3c33 c2bc 9284 9cbc
00000150: 4860 e43b 3de8 503c 4db8 f3bc b5c1 39bd
00000160: 0313 ff3c 8389 edba 0eca 4ebd 1791 0abd
00000170: 62d7 22bd 8226 4abd ca15 42bd 1a76 f13c
00000180: 8276 2f3c c097 cb3c 1838 0a3b 4ddf 9b3c
00000190: 6ad7 53bc 0fe9 7fbc 3c1f ef3c 3ac0 42bd
000001a0: acc2 a0bd 42dd fcbc bed2 3cbd bce4 eb39
000001b0: 895d 023d 327b 9f3b 6cbb 003b b6aa 6a3b
000001c0: 1c58 c13c b488 19bd 5acb 76bc 9f8e a7bd
000001d0: 9483 a5bc 85eb f7bc c0df adbc 4f1f 76bd
000001e0: b67e c2bb 9faf c93c d94a d5bb 67ed 3b3c
000001f0: 0375 56bd 95aa 2cbd dc74 0fbd e90a 50bd
00000200: 63da bbbc b060 85bd ca8b f7bc e97a e6bd
00000210: 71b1 c6bd 6bec c3bd 4276 25bd f992 aabd
00000220: 2d6c 6bbc 4023 afbd 9b66 9a3c f6f4 26bc
00000230: f6ce 363d 9e01 573d dc19 2cbb 3463 063d
00000240: a104 6abb 727c 4f3d e7b8 a63c 0b16 01bd
00000250: 5031 dfbc a601 013d 2a53 843d 45ec 31bd
00000260: 5b45 18bd 1ffb 25bd 30bd cabc ad2f 723d
00000270: 4733 72bc a4b8 5b3c ff6f 16bd 2a65 293b
00000280: b30e f03c c0ff 41ba a071 d3bc 975a 81bc
00000290: 7a2b 083d 5121 4abc 7fa3 c0bd 9004 27bd
000002a0: 88df 97bd 10c7 9739 b02a 273c cc33 4fbd
000002b0: b8db 68bd 3254 4b3a 4ea3 823c af99 2a3c
000002c0: 4661 0b3b 7bbb 30bc 591d d43d 5f9b 99bc
000002d0: c3ad c1bc 0f9a e5bc 1ece 03bd 3a0f 57bd
000002e0: 9dab 60bd 36b8 793c 0d3b c03c 3138 4b3d
000002f0: f9d3 cabc 117a c4bc 23ab 59bc ae88 15bd
00000300: b16e 033d d4a4 54bc 9138 2ebd c478 a0bc
00000310: f449 80bc a5dd 293d 4ff2 2abb f72a 503d
00000320: 1c8f 243d 9aa8 2abc 113e 93bd 8d99 e03c
00000330: 5817 01bc d034 963c 1816 1fbd 364a 9abd
00000340: 165e b33c 2ea3 bcbd ffdc e83b d1db 25bc
00000350: 99c0 11bd e69c dd3c e96e 93bd bc1b 853d
00000360: 4bcf a2bb 5e16 dbb8 2c67 59bd c7d8 15bd
00000370: 56a1 993c 8b53 4cb9 1ca2 59bd fd4f 4fbd
00000380: 62de 2a3c f9ea 96bc 4148 5f3c 2fae b53d
00000390: 45ca 983d 940b 603d 6d20 23bd f4cd c4bb
000003a0: 05d2 72bd 6362 e0bb 9792 01bc 2405 89bd
000003b0: c54c 75bd d82d 58bd 73a3 c1bc 30a2 4c3b
000003c0: c383 96bd cc5c bbbd dd7e 57bc caae dbbc
000003d0: 5ef6 0abd d20d 3f3c 1cfb 25bd 0747 423b
000003e0: 1c28 b7bc 54b3 a1bc 3765 ad3d 765b 9e3d
000003f0: cb4b c13d d816 4d3c b514 423d 7305 ee3c
0.06827329 0.04533319 0.09309607 0.08500346 0.05858562 0.05898393 0.012579405 0.015395874
0.008061447 -0.050862893 -0.018474435 -0.02770768 -0.012919345 -0.045729708 -0.014945851 -0.043486845
-0.04785129 -0.06291667 -0.031387597 -0.06434507 -0.07751064 0.0012713314 -0.098585285 -0.017971456
-0.0063556037 -0.046870343 -0.02935532 -0.05299516 -0.04082092 -0.0642509 -0.118612744 -0.08460912
-0.077644184 -0.05430853 -0.06978667 -0.0074261674 0.064577304 0.008882153 0.01811624 0.06589187
-0.032450657 0.031642716 -0.041752227 0.020310313 -0.011918566 0.02735239 0.05339599 0.06927838
0.043035448 0.05778747 0.019062525 0.044654753 0.033847697 -0.020659719 -0.0025696529 -0.04017828
-0.09338888 -0.015673878 -0.07574637 -0.030833086 -0.03131497 -0.034259334 -0.01993101 -0.03281882
-0.033262316 -0.08582693 -0.07418942 -0.013916566 -0.08459134 -0.017390179 0.033809077 0.02536127
0.072662 0.012732674 0.011252426 -0.027227031 -0.0050711203 -0.026145179 0.01410933 -0.044416446
-0.020190954 0.010916669 -0.023706071 -0.019106183 0.0069694854 0.012750682 -0.029750967 -0.04535075
0.031136995 -0.0018122647 -0.050485663 -0.033829775 -0.039756186 -0.04935313 -0.04738406 0.02947526
0.010709407 0.024852633 0.0021090563 0.019027377 -0.012929777 -0.01561953 0.029189698 -0.047546603
-0.07849631 -0.030867223 -0.046099417 0.00044993113 0.031827483 0.004866981 0.0019642962 0.0035807318
0.023601584 -0.037483886 -0.015063131 -0.081815 -0.020204343 -0.030263672 -0.021224856 -0.060088452
-0.0059355153 0.024619875 -0.0065091667 0.011470175 -0.052357685 -0.042154867 -0.035023555 -0.050791655
-0.022931283 -0.06512582 -0.030218024 -0.11253912 -0.09701813 -0.095665775 -0.040395983 -0.08328814
-0.014369053 -0.08551645 0.018847754 -0.010190239 0.044630967 0.052491777 -0.002626053 0.03280945
-0.0035708325 0.05065579 0.02035184 -0.031515162 -0.027245194 0.031495713 0.06461175 -0.043438215
-0.037175518 -0.04052269 -0.024748415 0.0591275 -0.014782733 0.013410721 -0.0367279 0.0025847652
0.029303884 -0.00074004754 -0.025811017 -0.015790267 0.033244587 -0.012337045 -0.094061844 -0.040775836
-0.07415682 0.00028949277 0.010203049 -0.050586507 -0.056850165 0.00077563815 0.01594701 0.010412618
0.0021267696 -0.010786886 0.1035716 -0.018750845 -0.023642426 -0.028027562 -0.03217899 -0.052504756
-0.054851163 0.015241673 0.023465658 0.049614135 -0.02475928 -0.023983987 -0.013285431 -0.0365073
0.032087985 -0.012978751 -0.042534415 -0.019588836 -0.015660264 0.041471142 -0.0026084369 0.050822224
0.040175542 -0.010416174 -0.071895726 0.027416969 -0.007879101 0.01833573 -0.03883943 -0.07533686
0.02189545 -0.092108116 0.007106423 -0.010123209 -0.035584066 0.027052354 -0.07198889 0.064994305
-0.004968559 -0.000104469 -0.053076908 -0.036583688 0.018753689 -0.00019486078 -0.053133115 -0.050613392
0.010428997 -0.01842259 0.0136280665 0.088711135 0.07460455 0.05469854 -0.039825846 -0.006005997
-0.05928232 -0.006847666 -0.007908485 -0.066904336 -0.059887666 -0.052778095 -0.023637509 0.00312246
-0.0734935 -0.09148559 -0.013152805 -0.026816744 -0.03392636 0.01166101 -0.04052268 0.0029644386
-0.022357993 -0.01973883 0.08466571 0.077322885 0.094382845 0.012517653 0.04738303 0.029055333

weight f4 [45]
00000000: 5b99 843f 141e 893f 6f2c 7e3f 4bdc 813f
00000010: f63b 6c3f 879c 773f 34c3 803f f8db 6a3f
00000020: e7fc 793f 1ac4 873f b4b9 693f b363 793f
00000030: 5771 843f 5770 813f 3b44 753f 362a 803f
00000040: 4dca 793f 28f1 7d3f 5ac7 7b3f ca2d 863f
00000050: 6088 803f c273 7c3f 89c7 813f deb8 683f
00000060: aea7 863f c64f 803f 3545 843f 73c0 803f
00000070: a302 833f 86c9 6a3f 1a3b 7b3f 7117 7b3f
00000080: ded1 763f f930 813f 4706 873f 905e 823f
00000090: 529b 703f 3a5c 833f 8814 813f cd1a 843f
000000a0: f302 843f b126 843f 70e2 6c3f b7ff 813f
000000b0: 04a4 7f3f
1.03593 1.0712304 0.9928655 1.0145353 0.92278993 0.96723217 1.0059571 0.91741896
0.97651523 1.060672 0.91298985 0.97417754 1.0347089 1.0112408 0.95807236 1.0012882
0.9757431 0.991961 0.9835106 1.0482724 1.0041618 0.9861413 1.0139018 0.90907085
1.0519922 1.0024345 1.033362 1.0058731 1.023518 0.9171375 0.98137057 0.98082644
0.9641398 1.009307 1.0548791 1.0185108 0.93987 1.026252 1.0084391 1.0320679
1.03134 1.0324308 0.92533016 1.0156163 0.99859643

bias f4 [45]
00000000: 3a85 d8bd 0824 10be b62c d3bd 7629 7bbe
00000010: b44d 4ebd 9f54 fbbd 206d 09be 3710 01be
00000020: 1f19 8abd 16b0 00be 5845 e0bd 72da fcbd
00000030: 7d9f efbd 28e8 aabc 016b f7bd b1e7 bfbd
00000040: b8f4 b9bd 1dd3 cdbd 3ce0 cbbd 67a2 d3bd
00000050: 3e25 bcbc f0d8 d3bd b4d5 9cbd f5e3 e7bd
00000060: ed51 c4bd 3a25 bdbd a8d4 063d 4a91 3bbe
00000070: 04c8 19bc 1914 1bbe e6d8 83bd e93e 51be
00000080: c56c 00be 47bd 15be 107c bfbd 7186 7dbd
00000090: 295e e0bd edff 26be a46a 9cbd 0a32 bbbd
000000a0: e473 82bd 359c 13bd e132 9cbd 9f80 8bbd
000000b0: 9e23 66be
-0.10572286 -0.14076245 -0.10311262 -0.24527535 -0.050367072 -0.122719996 -0.13420534 -0.12603842
-0.06743073 -0.12567171 -0.10950726 -0.12346353 -0.11700342 -0.020862654 -0.12080956 -0.093703635
-0.090798795 -0.10050032 -0.09954879 -0.1033371 -0.022966977 -0.10344112 -0.07657948 -0.11322776
-0.095859386 -0.09235616 0.03291765 -0.18317142 -0.009386066 -0.15144385 -0.064378545 -0.20434155
-0.12541492 -0.14622985 -0.09349835 -0.06189579 -0.109554596 -0.16308565 -0.076375276 -0.091404036
-0.06369761 -0.036037643 -0.07626892 -0.06811642 -0.22474524

running_mean f4 [45]
00000000: 2e26 0cc0 0791 5cbf 5c13 08be ba55 9fbe
00000010: 14cc 5fbe 0082 85bf 515f c8be 8130 723f
00000020: b41a 84bd 57f0 92bf c02a c9be 6467 a4be
00000030: da4e 1a3d 1e7b 923e 9be3 4cbf f965 8dbf
00000040: 0f22 6abf 2fbb acbe c504 8e3e 9f05 70bf
00000050: ec4a 01be 6807 06bf b41b 4abf 044c b0be
00000060: 3e88 cbbf aa50 e4bf c0cb 1ebf 01ad 63bf
00000070: 06fb 2ebf 2208 30bf 2c42 7dbf a53d a83f
00000080: 940d 233d 0863 6ebf 2647 84bf d7fd 54bf
00000090: 13d8 4ebf e37f 0cbf a44e ec3e 9a53 bebf
000000a0: 67b4 0cbf 97af 90be f43c 453e 1fb1 0dbf
000000b0: 2733 323c
-2.1898303 -0.86158794 -0.13288635 -0.31120092 -0.21855193 -1.0430298 -0.3913522 0.9460526
-0.06450406 -1.1479596 -0.39290428 -0.3211013 0.037672855 0.28609556 -0.800348 -1.1046745
-0.9145822 -0.3373656 0.27738014 -0.9375858 -0.12626237 -0.5235505 -0.7894852 -0.34432995
-1.5900953 -1.7837117 -0.6202965 -0.8893586 -0.6835178 -0.6876241 -0.98929095 1.3143812
0.03980787 -0.9311986 -1.0334213 -0.8319983 -0.80798453 -0.5488264 0.46153748 -1.4869263
-0.5496277 -0.28258964 0.19261533 -0.5534839 0.0108764535

running_var f4 [45]
00000000: 8689 ca3f f9ad 3a3f ccb5 443f 2662 2d3f
00000010: 1f6c 063f 63b5 2c3f 117d b83f 3f86 3e3f
00000020: 6959 2c3f da9a 163f cb95 223f bc81 3c3f
00000030: 536c 7d3f 2bbd a83f e226 213f 7003 543f
00000040: 4a39 4e3f 967e 953f 9e51 343f 4aa1 a23f
00000050: 6a01 173f 8c7f 1f3f c30d 5b3f a78e a13f
00000060: c281 a03f 2566 2c3f fa4d 743f a90f 843f
00000070: df45 423f dae7 173f 468b 823f ff7c 873f
00000080: 45fc 7a3f 0c5f 733f 7bf7 5a3f 37e2 6d3f
00000090: 2f74 063f b93f 123f cea9 583f 1269 b03f
000000a0: 7df4 133f 7343 913f c785 513f 8ff8 943f
000000b0: 99d0 163f
1.5823219 0.7292171 0.768399 0.6772789 0.5250873 0.67464274 1.4413167 0.74423593
0.6732393 0.58830035 0.63509816 0.7363546 0.98993415 1.318273 0.62949955 0.82817745
0.80556166 1.1679256 0.7043704 1.2705472 0.5898653 0.62303996 0.85567874 1.2621659
1.2539599 0.6734336 0.9543148 1.0317279 0.75887865 0.5933815 1.0198753 1.0585021
0.9804118 0.95066905 0.85533875 0.929233 0.5252103 0.57128483 0.846341 1.3782065
0.57794935 1.1348709 0.81844753 1.1638354 0.58912045

weight f4 [18, 45, 5, 5]
00000000: 18b6 963c 19aa 223d 00a7 f33c cfe9 7f3d
00000010: 8901 993d c3c8 f8ba c75d 2c3c 3fc8 1e3d
00000020: 35ec 86bc 0fbc 3739 ae21 01bc 96f5 003c
00000030: be07 60bb 7884 513c b2cf 763d 726c b5bd
00000040: f686 cabd fdf9 a4bc c264 8cbd c8c0 52bc
00000050: 5689 4ebc 8144 a23c 1b6f f9bb 9dae 28bd
00000060: 54b7 2dbd 1457 85bd a572 e5bc 1d5d 783d
00000070: 81f2 543c 4517 093d e0d7 423b a2de 193d
00000080: 0e70 ed3c 80b8 4fbd 1a05 52bd de69 303d
00000090: 48b8 03bd 6e2f eebc e411 013d 0912 ef3b
000000a0: 13f2 dabb 9fe9 8e3c b794 5e3d 3d4f 443c
000000b0: 773b 1bbd 554b 713a 5bae 593b fb6e 413d
000000c0: adae 863c 3c4f fe3a 7299 29bc a5d7 adbc
000000d0: 5033 02bd fb3b 00bd 9178 9ebd 11a9 07bd
000000e0: 1ae8 dc3c f893 3ebd 8475 b3bb 8378 2a3d
000000f0: 442c 13bd 829a d43c 73d8 5e3d cdc0 bc3a
00000100: e1a6 0fbc b9de 58bd c151 0cbd dd63 10bd
00000110: d0a6 92bc db37 f1b9 a9fe 4dbd 5859 bcbd
00000120: 1b0c a5bc 1dcc bb3d cac8 933d adb1 4b3c
00000130: d29e 4dbb 49ee 51bb 8023 bfbb 6380 09bd
00000140: c46a c2bc ff96 d0bc 4c07 f0bc b442 26bd
00000150: 4649 3abc b118 273c e884 e23d d512 293d
00000160: cefc d53c dad3 803d 5c19 08bd f8fb 80bd
00000170: 7685 97bc 6418 13bd 564a 71bd 9bc3 21bd
00000180: 8e52 c6bc 9dfc 83bd 6717 2fbd dcd2 57bd
00000190: 22e8 823c 5907 46bd 383d 0fbd f9da 3c3d
000001a0: 8e6b 053c 31eb 68bc a579 0ebd 12be 87bd
000001b0: 2e76 e33a e90f fabc da96 2b3d 2e28 a23c
000001c0: 7deb 0e3d 146d 0b3d 8dbc d73c 826b 19bc
000001d0: 873e d33b 3521 083c c346 6a3c d626 3fbb
000001e0: 0a05 463c 87d9 69bc 1394 a0bc 0629 20bd
000001f0: 3a15 09bd 3a2a e73c 2413 a5bc ab1b 143d
00000200: 5f34 6dbc e6ea f9bb 1dd4 05bd d8e1 24bc
00000210: 5fe8 993c 59f4 9d3c baf4 7dbc 3bd4 4fbd
00000220: 8d77 eabd e55d 0b3d 6817 7a3c 4f2e 30bd
00000230: f1b6 9abb 1f19 403c ccc2 a33d 0c3b 733d
00000240: 133b 04bd 8c4f 81bc 0e56 393d 199e 9bbb
00000250: 1167 2a3d a114 a43c 0b48 f0bc d8e5 43bd
00000260: 263e bcbd 1a97 a23b ba53 94bd 0401 e6bc
00000270: 4b02 18bc f09a ffbc af0b dd3c 27aa ab3c
00000280: d604 12bd 8e80 73bd 1cd4 21bc efa2 a93b
00000290: e662 57bd 58a0 4c3a 94a1 c93c d472 40b9
000002a0: bf71 d73c 0d01 9cbc 366d 453b 2663 d13c
000002b0: 4564 b93c ed61 cd3b 71f6 9ebb e270 823a
000002c0: 157d 6b3d ab0e 9e3d d2f3 833d fb2d 463d
000002d0: 3850 0f3d b2ad 0b3d 012e f23b 6e0c e73c
000002e0: d588 b2bb 1207 8c3c 01c2 473b 671f 5fbc
000002f0: 08e9 9b3c 3c63 393d bb98 dc3b 1f3b 7b3d
00000300: aa9c 013d 4317 0f3d 0665 293d 94dd 9c3c
00000310: 2981 8cbc 35de 48bd ba24 17bd dc5f 8cbd
00000320: 039d 733d 4946 d83c 9c1a 043d 1afc 3b3c
00000330: ed36 143d 9fa6 153b d370 803c 3a08 21bd
00000340: d72f 333c 6f6b 61bc 3cc7 023d 8c89 9c3d
00000350: 7d27 a9bc 8ab0 10bb dbf4 c23a f0f8 54bc
00000360: d1b7 633b 4b75 243b 1347 93bd 8552 25b9
00000370: 94c9 9abd 5d76 d4bc 2c4f bbbc ea30 2bbd
00000380: 95fc 6ebd ab55 cabc b6dd bbbc 1841 383d
00000390: 827d 083d 3d3a 8bbc 3d4e 04bc 0d0c 5a3d
000003a0: 06e3 443d e3b5 a13b 0760 0fbc dbfc 17bd
000003b0: f2b2 9a3b ed46 043c d663 cc3a 9cf9 b5bb
000003c0: 884e e7bd 36dd 64bd 11b8 0dbd 9976 0bbd
000003d0: 99a3 53bd a4dc 9c3a 1c51 b53d a99e 873d
000003e0: c655 a43d 8dfd 3bbc ea10 f6bc a2a6 3abd
000003f0: 4931 493a 3f92 143d a044 1ebd 480e dcbc
0.018397376 0.039713 0.029742718 0.062478837 0.07470996 -0.001898073 0.010520405 0.03876519
-0.016470054 0.00017522297 -0.007881565 0.007871052 -0.0034184302 0.012787931 0.060256667 -0.08858575
-0.09889023 -0.020138735 -0.068551555 -0.012863345 -0.012605986 0.019808056 -0.0076121218 -0.04118215
-0.042411163 -0.065107495 -0.028008768 0.060635675 0.012997271 0.033469457 0.0029730722 0.037565835
0.028984096 -0.050713062 -0.051274396 0.043069713 -0.032158166 -0.02907535 0.031511202 0.007295851
-0.0066816895 0.017445384 0.054341044 0.0119817825 -0.037898507 0.0009204646 0.0033215496 0.04722498
0.016440714 0.0019402276 -0.010351526 -0.021220991 -0.031787217 -0.0313072 -0.0773784 -0.03312022
0.026966143 -0.046527833 -0.0054766554 0.041618835 -0.035930887 0.025952581 0.05440564 0.0014400721
-0.008767814 -0.05294678 -0.034257654 -0.035251487 -0.017901808 -0.00046008718 -0.05029169 -0.091967285
-0.020147374 0.09169791 0.07216032 0.012432498 -0.0031375182 -0.0032032898 -0.0058330894 -0.033569705
-0.02373255 -0.025462626 -0.029300354 -0.040590957 -0.011370009 0.010198758 0.11060506 0.041277725
0.026121523 0.062904075 -0.03322731 -0.06298059 -0.018496256 -0.035911933 -0.058908783 -0.039493185
-0.024209287 -0.064446665 -0.042746928 -0.052691326 0.01597983 -0.04834685 -0.034970492 0.046107266
0.008143319 -0.01421623 -0.034783978 -0.0662805 0.0017353946 -0.030525165 0.04189191 0.01979455
0.034892548 0.034039572 0.026335025 -0.009364011 0.006446663 0.008308698 0.0142990975 -0.0029167435
0.012086162 -0.014273054 -0.019601857 -0.039101623 -0.03346751 0.028218377 -0.020150729 0.0361592
-0.014477818 -0.007626879 -0.03267299 -0.010063611 0.018787561 0.019281553 -0.015500242 -0.050739508
-0.11448584 0.03402509 0.01526437 -0.043012913 -0.0047215153 0.011724739 0.07996139 0.059382483
-0.0322829 -0.015785001 0.045248084 -0.0047490713 0.041602198 0.020029368 -0.029331228 -0.047826618
-0.091915414 0.0049618604 -0.07242532 -0.028076656 -0.00927789 -0.03120181 0.02698311 0.020955158
-0.035649143 -0.05944877 -0.009877231 0.005176894 -0.05258455 0.00078058755 0.02461318 -0.00018353324
0.026299356 -0.01904347 0.003012491 0.025559973 0.02263082 0.006267777 -0.0048511554 0.0009951855
0.057492334 0.077176414 0.064429894 0.048383694 0.034988612 0.034101196 0.007390738 0.02820417
-0.0054484406 0.017093215 0.0030480626 -0.013618327 0.019032016 0.045260653 0.006732074 0.06133568
0.031643547 0.034934293 0.04135611 0.019148625 -0.017151432 -0.04904004 -0.03690026 -0.06854221
0.05947591 0.026400702 0.03225194 0.01147368 0.036185194 0.002283491 0.015678799 -0.039314486
0.010936699 -0.013758524 0.031928286 0.076434225 -0.020648712 -0.0022077882 0.0014873998 -0.012998804
0.0034747014 0.0025094326 -0.07191291 -0.00015766367 -0.07557979 -0.025935346 -0.0228649 -0.041794695
-0.05834635 -0.024699053 -0.022932868 0.044983953 0.03332282 -0.016995544 -0.008075294 0.05323415
0.04806807 0.0049350127 -0.008750922 -0.037106376 0.004721039 0.008073551 0.0015593718 -0.0055534374
-0.112942755 -0.055875026 -0.034599368 -0.03404865 -0.05166969 0.0011967611 0.08853361 0.06622059
0.080241725 -0.011474025 -0.030037362 -0.04556907 0.00076748856 0.036272284 -0.038639665 -0.026862279

weight f4 [18]
00000000: 17dd 793f 9fac 823f 4541 853f aebd 813f
00000010: 9ccb 813f 057c 8a3f 031c 823f 3a6f 813f
00000020: 53ac 743f 100d 7a3f ea60 803f 3e55 713f
00000030: e908 763f d9bc 713f d3b7 813f 4494 753f
00000040: 5c67 753f f8ba 863f
0.9760298 1.020893 1.0410544 1.0136011 1.0140262 1.0819098 1.0164798 1.0112069
0.95575446 0.9767618 1.0029576 0.94270694 0.96107346 0.94428784 1.0134224 0.9592936
0.9586084 1.0525808

bias f4 [18]
00000000: c3a5 91bd 5744 e8bd cc57 aebd 4f78 9dbd
00000010: 39ff babd 3545 33bd c012 8f3a dda0 c5bd
00000020: 3d7e 26bd c51e c33b 8ca0 c9bd e46e 91bd
00000030: 5c36 6abd 00b4 adbd 29d7 73bd 51fe 2bbe
00000040: 2683 0e3d 569f fcbd
-0.07111695 -0.1134116 -0.0851284 -0.07688963 -0.09130711 -0.043767173 0.0010915622 -0.09649823
-0.040647734 0.0059545957 -0.09845075 -0.07101229 -0.057180747 -0.08481598 -0.059531365 -0.16796233
0.03479304 -0.123350784

running_mean f4 [18]
00000000: e4d9 a6bf 34fa 39c0 d555 80c0 2d8a 433f
00000010: 1ef0 0d3e 7c8b 1ec0 5ff7 03c0 a209 f9bf
00000020: d50c b43f 0014 a63d ab0d 1ec0 646f 0bbf
00000030: f688 c43f 9158 893f a043 4ac0 098d 50be
00000040: f883 dc3f 8d1c 01c0
-1.3035245 -2.9058962 -4.0104775 0.76382715 0.13861129 -2.4772635 -2.0619733 -1.9456065
1.4066416 0.081092834 -2.4695842 -0.54466844 1.5354297 1.0730153 -3.1603775 -0.203663
1.7227774 -2.0173676

running_var f4 [18]
00000000: 285f 8140 8ebf 5440 6f35 6440 83b0 3740
00000010: d601 4a40 4938 c73f eb89 3340 98cf 5c40
00000020: 5fcb 0940 7584 e13f 7747 5640 9902 d03f
00000030: cee2 c73f 9294 5740 6641 6040 c900 1540
00000040: 4262 2f40 1472 bf3f
4.0428658 3.3241916 3.5657613 2.8701484 3.156362 1.5564052 2.8052928 3.4501705
2.1530378 1.7618548 3.3481119 1.6250793 1.561609 3.368443 3.5039916 2.328173
2.7403722 1.4956689

weight f4 [6, 18, 5, 5]
00000000: 7b0f 773d 74c7 6a3d 90e6 493c db6f 303d
00000010: 5da4 403c 80c0 c13c 25e9 b6bc 59e9 9e3c
00000020: deea e4bb 9d94 41bd 534c 34bc 211c 8abc
00000030: 8a1c 90bd 84f8 8bbb 87e4 6bbd 58bb 4e3d
00000040: 1185 203c ac1d 98b9 4d02 453b f8ce 0bbd
00000050: d641 1e3d dd53 40bc 4b4f 47bc 6506 f23c
00000060: 1f03 d3bc dbe4 2cbd f802 43bc 4e5f 2bbd
00000070: bae5 38bd ed23 dcbc 75c4 2dbc 52ac b9ba
00000080: 23f2 00bd c2cd 59bc cf1b d63c bdec af3d
00000090: 7d6e 973d 5bb4 a33d c293 da3c 743e e73d
000000a0: e4a0 de3d a319 d53b 532f a03d 9c7c 4d3d
000000b0: 3350 963d d05d 283d 9d33 f43a 7aa1 06bd
000000c0: b83d afbb 74bd 5fbd e4d3 093d 8a0d ee3c
000000d0: e0f5 853d 26f6 02bc a717 4a3d feb4 0b3d
000000e0: 26a2 283d 2e1b 463d 85a3 fb3c 97e1 733d
000000f0: d9af 0fbd 1dd3 72bc 0942 6ebd a64b 91bd
00000100: 520c eabd 1882 44bd 8883 8ebd fd0d 8dbd
00000110: c343 8fbd e6c5 d9bd f62c 423c 96cd 00bb
00000120: 0985 db3c b2f3 9cbc 7d93 963d 9aaf 193d
00000130: 68f4 0e3d 4d53 7d3c 06d6 c33d 190e 763d
00000140: 8d45 973c 1dc4 4d3d 7c2d a83b 15a1 833d
00000150: 2330 673d 0316 f63c 8a8e 513d 3623 083d
00000160: bf49 2cbc 6e25 c03c ba4c db3c 212d 983c
00000170: 53ec 523d 0836 bc39 f74b a53d 1cab abbd
00000180: 54c5 ce3c 0609 60bd 35a2 8ebb e17e 38bd
00000190: d9d2 adbd e9c0 2d3d 31ad a8bd 48af 653c
000001a0: a838 ee3b 9e33 06bd 3853 86bd c340 cebd
000001b0: 32ca 8cbc 4356 83bd 66bd 23bd 42dd 83bd
000001c0: 06fb 933c 1b55 1a3c f08e 2fbb 04d6 bfbd
000001d0: 79f4 b8bd aac6 a4bd f705 43bd 121c c2bd
000001e0: 9931 46bd 52e9 b7bb 3ee4 97bd 02e6 3fbd
000001f0: 77c0 cfbc 6477 2cbd 8fd4 a13c b134 f7bc
00000200: cfb1 24bd 78f0 aabd 0427 debb d343 963b
00000210: e450 47bd 0aef 75bc 4517 90bd cd40 ecbc
00000220: 8068 213c cf9a 1bbc d04b 28bd a2a8 fe3b
00000230: dd74 d73c 5a2b 203d 3e00 643d 3c27 4c3d
00000240: cb77 ac3d a67c a0bc a527 ecbb f42a 93bd
00000250: 297e 0dbd 7c93 7dbd f728 163c fa76 203c
00000260: 4cdc b7bc 10b8 a7bc b77d 70bc 0044 adbd
00000270: e5b8 3dbd 32c8 8ebd 6be9 c3bd d0f8 85bd
00000280: d470 aebd c3fe 15bd 83a6 5dbd 3c71 00bd
00000290: 8860 edbd 96d9 1abc fe5b 8abc d44c 433c
000002a0: ec2f 0e3d 18cd 6e3c 495d 10bd 171c 1c3d
000002b0: fe61 b63c ed31 a5bc faf2 a93d dbd0 903d
000002c0: 4e39 f53c b2bd 843d 309a ec3a ba85 3d3d
000002d0: 62c4 c53a 2e11 8d3c 0718 833d 8d59 8f3c
000002e0: d2c6 c43c 2295 09bd b3db 57bc 839c eb3b
000002f0: 0ca9 aebd c562 acbd 2ba7 e93c 6681 703d
00000300: b3ae da3c c0db e83c 5320 0abd d358 52bd
00000310: 4a09 81bc b6c7 f43b 21aa e4bc 06a2 84bb
00000320: b40e 91bd 1306 dcbb 48ba 99bd a3fe b1bb
00000330: 4b98 0cbd 683d a9bd 54c2 1bbc 7f04 8dbd
00000340: abf4 5cbc 017b 04bd 16f8 48bd a1d7 a1ba
00000350: 7546 52bd 76dd a5bc b0a3 9abd 1507 e4ba
00000360: 7573 483c 6300 373d ebb8 9b3d 0a51 ce3d
00000370: 20cd f13c eca5 7cbb e412 dcbc 564a 56bb
00000380: 1d53 e5bc 5f25 693b 30aa 63bd 9396 fabc
00000390: 6cef 12bd dbcd 7a3b e8dc 09bd 9f2b 97bc
000003a0: ea3d 613c 9edd 913c 4b67 d23c d048 cfbd
000003b0: a79a bdbd 8a5b 52bd 7ea0 86bd fe88 e9bd
000003c0: 80b5 73bd 77b7 0bbd 670f 73bc 99ac 97bc
000003d0: 8a46 37bd 4e29 bebc bf28 2c3d 1765 fdbc
000003e0: a8bb 263d 7bcc 563d abc5 093d 82aa 0fbd
000003f0: ad4b 053a 7a90 e83c d773 95bc 58ef 77bd
0.060317498 0.05731912 0.012323037 0.043075424 0.011757937 0.023651361 -0.022327969 0.019398378
-0.006986006 -0.04726087 -0.011004525 -0.016859116 -0.070366934 -0.0042715687 -0.057590988 0.050471634
0.0097973505 -0.00029013806 0.0030061186 -0.034132928 0.038637005 -0.011738745 -0.012164901 0.029544065
-0.025758324 -0.04221044 -0.011902563 -0.041838937 -0.04514096 -0.0268726 -0.010605921 -0.0014165735
-0.03148092 -0.013293685 0.026136307 0.08590076 0.07394121 0.079933845 0.026681785 0.11291209
0.10870531 0.0065033003 0.078215264 0.050167665 0.073395155 0.04110509 0.0018631105 -0.03286884
-0.0053479336 -0.054624036 0.03364934 0.02905919 0.065410376 -0.007993257 0.049338963 0.034108154
0.04117026 0.048365764 0.03071762 0.05954131 -0.03507981 -0.014820841 -0.058168445 -0.07094507
-0.11428131 -0.04797563 -0.06958681 -0.06887434 -0.069953464 -0.10633449 0.01185154 -0.0019653789
0.026796835 -0.019159172 0.0735235 0.037520982 0.034901053 0.015461755 0.09562306 0.06007204
0.018465782 0.050235856 0.0051323753 0.06427208 0.05644239 0.030039793 0.051161326 0.033236705
-0.010515629 0.023455348 0.026769985 0.018576207 0.051494908 0.0003589841 0.0807113 -0.08382246
0.025240578 -0.054696105 -0.0043528327 -0.045042876 -0.084874816 0.0424203 -0.08236159 0.014018841
0.0072699375 -0.03276407 -0.065588415 -0.10070946 -0.017186258 -0.064129375 -0.039975546 -0.06438686
0.018064033 0.009419705 -0.0026788078 -0.09366992 -0.090310045 -0.08045705 -0.04761311 -0.0947801
-0.048387144 -0.0056125307 -0.074165806 -0.046850212 -0.02536033 -0.042106047 0.019754676 -0.030176492
-0.040208634 -0.08346647 -0.0067795534 0.004585722 -0.048661128 -0.015010605 -0.07035688 -0.028839493
0.009851575 -0.009497358 -0.041087925 0.0077715674 0.026300842 0.039103843 0.055664293 0.049842104
0.08421286 -0.019590687 -0.0072068744 -0.07185927 -0.034544144 -0.06190823 0.00916504 0.009793991
-0.022443913 -0.02047351 -0.01467841 -0.084602356 -0.046318907 -0.06971778 -0.09566005 -0.06541598
-0.08517614 -0.036619913 -0.054113876 -0.03135799 -0.115906775 -0.009451291 -0.016889568 0.011920173
0.03471367 0.014575265 -0.035245214 0.038112726 0.022263523 -0.020165408 0.08298297 0.07071086
0.029934552 0.06481494 0.0018051323 0.04627011 0.0015088434 0.017220106 0.06401067 0.017498756
0.024020586 -0.03358949 -0.013174939 0.0071902885 -0.08528337 -0.08417276 0.028522095 0.058717154
0.026694631 0.028425097 -0.033722233 -0.05135424 -0.0157515 0.0074700965 -0.027913155 -0.004047635
-0.070828825 -0.0067145913 -0.075062335 -0.0054319664 -0.034324925 -0.082636654 -0.009506781 -0.06885623
-0.013486068 -0.03234387 -0.04906472 -0.0012347588 -0.051336724 -0.020247202 -0.07550752 -0.001739713
0.012234558 0.044678103 0.0760363 0.10074051 0.029516757 -0.0038551046 -0.026864477 -0.0032698116
-0.027993733 0.0035575253 -0.055582225 -0.030589378 -0.03587286 0.0038269672 -0.03365794 -0.018453417
0.013747672 0.01780587 0.02568402 -0.1012131 -0.09258013 -0.05135683 -0.0657358 -0.11403082
-0.059499264 -0.034110513 -0.014835215 -0.018514918 -0.044745006 -0.023213055 0.042031046 -0.030931992
0.040706307 0.0524411 0.033635776 -0.03507472 0.0005084824 0.028389204 -0.018243713 -0.06053099

weight f4 [6]
00000000: 2272 863f e3f5 7b3f 5f5e 7d3f 0303 7b3f
00000010: 46c1 7b3f 311d 803f
1.050358 0.9842207 0.98972124 0.9805147 0.98341787 1.0008909

bias f4 [6]
00000000: af16 8f3d b467 f7bc 233d 86bd caf9 61bd
00000010: 19d5 3c3e ff63 0f3e
0.069867484 -0.030200817 -0.0655463 -0.055169858 0.18440665 0.14002989

running_mean f4 [6]
00000000: dbae cfbf edfa 8bbf ba78 00c0 0bee 62bd
00000010: 25fc 0bbe 96f0 c7bf
-1.6225237 -1.0935951 -2.0073686 -0.055402797 -0.13670404 -1.5620296

running_var f4 [6]
00000000: ba23 b53f 9de7 e53e 3222 e43f 8039 a43f
00000010: 4d0d 4240 c356 cc3f
1.4151528 0.4490327 1.7822936 1.2830048 3.0320618 1.5963978

weight f4 [1, 6, 5, 3]
00000000: 2d29 8a3d cf27 db3b 42ae 363d c86c 36bd
00000010: 4578 4c3c 3a3c 143d 6539 0cbe 2485 00bd
00000020: 2972 20be c67d e13d 8a3c 823d d629 013e
00000030: 2a56 043c 1402 223d a222 fdbb 53d5 8a3d
00000040: 79f7 06bb c58c a93d 088f 21bd 210d dfbb
00000050: 6dc7 8abd bc03 023e 1c58 493c a430 003e
00000060: fa34 663b 08ea 32bb cd19 9e3c 22e9 253c
00000070: 8a10 143b cab6 813c ae81 66bb ba25 49bd
00000080: 3628 e53c 55f0 ce3d 2b78 513d 2db4 133e
00000090: da49 b03d d3d7 a8b8 9a27 803d c78f 853d
000000a0: ce74 1e3d 6bec 193e 11fe 11bb 5080 683c
000000b0: 8cfa 32bd 0952 06be 7449 cc3d 76e3 953c
000000c0: b44e af3d 439f 553b 91d4 563d 145a 373d
000000d0: 5816 413d 81bf a23d 9b89 ecbd 44fd 65bc
000000e0: 7832 debd c840 c73d 8b87 443d 9bc9 8d3d
000000f0: aaef 213d df57 083d 0863 683d 2b11 1fbd
00000100: 60c9 60bd c2f6 a23c a545 273e f1cb b23d
00000110: 7cfe 703d be73 a73a f790 813c 2952 7b3d
00000120: 888a 81bd 2808 ef3b 7ead b8bd fec0 ea3d
00000130: 9967 3c3d f35b e93d fae3 00be 8488 d1bc
00000140: 44e9 6abd dc39 863d 3a03 933c c450 b0bc
00000150: 6f23 24bd d113 4cbb d0d9 47bd d91b 59bd
00000160: 3d24 86bd f5a9 cabc
0.06746135 0.006688095 0.04459978 -0.044537336 0.012479846 0.03619025 -0.1369377 -0.031376973
-0.15668549 0.110103175 0.06359203 0.12613615 0.008077184 0.039552763 -0.007725076 0.067789696
-0.0020594283 0.08278803 -0.039443046 -0.006806985 -0.06776319 0.12696737 0.012289073 0.12518555
0.0035126791 -0.0027300138 0.019299412 0.010126384 0.0022592866 0.01583423 -0.003517251 -0.049108244
0.027973276 0.101044334 0.05113999 0.144242 0.08607836 -8.051065e-05 0.062575534 0.06521564
0.038685612 0.15031593 -0.002227668 0.014190748 -0.04369597 -0.13117231 0.099749476 0.018296938
0.08559933 0.0032596148 0.052448813 0.04476364 0.04714045 0.07946683 -0.11549684 -0.014037434
-0.1084947 0.09729153 0.047980826 0.06923219 0.039535202 0.033286925 0.05673507 -0.038834732
-0.054879546 0.019893054 0.16335161 0.08730305 0.058836445 0.0012775583 0.015816195 0.06135765
-0.06325251 0.0072946735 -0.09017466 0.114625916 0.045997236 0.11394491 -0.12586966 -0.025577791
-0.057351366 0.065540045 0.017945874 -0.021522887 -0.040072855 -0.0031139741 -0.048791707 -0.053005073
-0.06549881 -0.024739245
