source/models/MelodyTimbreCNN/model_velocityseg.pth (torch, 204095 bytes, 31 tensors)

weight f4 [6, 1, 5, 5]
000000 22 5a cc 3b 24 fd dd bd 1e 63 c3 3d 80 55 00 be
       0.0062363306 -0.10839298 0.095403895 -0.12532616
000010 ef 60 8e 3d db 3a bb bd d7 d5 e4 bd b4 90 2a be
       0.06952082 -0.09142085 -0.11173599 -0.16656762
000020 f2 a0 2c be f2 1d 0a bd e3 e1 bc 3d 2a a3 f1 3d
       -0.16858271 -0.033719964 0.09222772 0.11798699
000030 45 86 f6 bd 7d 16 2c 3e e1 34 ad bd d1 ac cd bc
       -0.12037329 0.16805454 -0.084573515 -0.02510682
000040 69 37 f5 39 ba c7 4d 3e 4b 37 0c 3e 05 be bf bd
       0.00046771325 0.20095721 0.13692968 -0.09362415
000050 8b 03 ba bd 5e 13 86 bd c4 6e a9 3d 09 48 6d bd
       -0.09082707 -0.06546663 0.0827308 -0.057930026
000060 32 eb 02 3e 95 4c 0f be 81 75 01 be a7 6d 8e 3d
       0.12785032 -0.13994057 -0.1264248 0.06954508
000070 27 3d e1 bd cf da 22 3e 24 e4 4e 3e 12 fb ad 3d
       -0.10997992 0.15903781 0.20204216 0.084951535
000080 94 b6 30 3e 12 bf 15 be 87 1d a1 bb d2 a0 80 3d
       0.17257148 -0.14623669 -0.00491685 0.06280674
000090 cf 09 1d be e3 3c ca bd a3 4f f5 3d 8b 7d 10 be
       -0.15335773 -0.098748945 0.1197808 -0.14110391
0000a0 28 be db 3d 7a 40 0a 3e 23 ed cd 3b d4 18 eb 3d
       0.10729629 0.13501158 0.0062843724 0.11479345
0000b0 0c 32 a8 3d 6c 26 ff bd e6 ec 3b 3e fe a3 2c be
       0.08212671 -0.124585 0.18352088 -0.16859433
0000c0 63 fe 5e 3e ae 5c a6 bd 32 27 13 be 5a 01 c9 bd
       0.21776728 -0.08123146 -0.1437042 -0.09814711
0000d0 4e 9c 79 bc 7b 72 b0 3d b7 14 44 3d 8c 06 d2 bc
       -0.01523502 0.086155854 0.047871318 -0.025637887
0000e0 b7 1b 26 3e dd b2 b8 3d 18 68 42 3e c2 92 33 3e
       0.1622151 0.090184905 0.18985021 0.17536452
0000f0 84 a4 24 be 11 4a ea 3d 36 bc 8f bd 48 ae 06 bc
       -0.16078383 0.11439908 -0.0701832 -0.008220263
000100 f1 b7 1a be d5 4a bb 3d 2b 61 24 bc e7 a4 6c bd
       -0.1510923 0.091451325 -0.010032932 -0.05777445
000110 7d f3 a2 bd c6 13 fb bd 4a ac 01 be 85 a1 14 3e
       -0.07956598 -0.12259631 -0.1266338 0.1451474
000120 01 cb 3c be 9c 52 b0 3d 05 3e c1 3d a7 fa f9 bd
       -0.18436815 0.086095065 0.094356574 -0.12206011
000130 dd 19 c2 bd 75 da 77 3d 34 33 e7 bb a4 47 83 3d
       -0.09477589 0.06051107 -0.0070556644 0.06410149
000140 38 35 72 3a bd 3f ca bd 1c e1 ff bd 11 89 44 3e
       0.00092394976 -0.09875438 -0.12494108 0.19192912
000150 26 85 38 3e 2f 39 f5 3d bb 4d a2 bc c7 80 4a bb
       0.18019542 0.119737975 -0.019812455 -0.0030899511
000160 be a2 92 3d 8c c3 0e be a3 bf 30 be be 9e c4 3d
       0.07159947 -0.13941783 -0.17260604 0.0960059
000170 d5 ca b2 3c fe 7c 7e 3d e5 2e 1b 3d 59 bc 2c be
       0.021825233 0.06213092 0.03788652 -0.16868724
000180 db 54 ed 3a 8e 63 04 3e cc 3b 47 bc 36 60 07 bd
       0.0018106954 0.12928602 -0.012160253 -0.03305074
000190 a0 80 51 3d 1f f8 1c 3e 58 03 ff bd 80 cc 18 3e
       0.051148057 0.15329026 -0.1245181 0.1492176
0001a0 43 96 70 3d 31 aa ea bd 43 26 28 3d 05 10 29 3e
       0.05873705 -0.11458243 0.041052114 0.16510017
0001b0 e5 e3 55 bb 79 0b c4 3d 70 26 39 3e b9 e1 53 ba
       -0.0032637056 0.09572501 0.18081069 -0.00080826465
0001c0 10 46 1d 3e 31 ef d7 bd a6 2a 19 3e 08 fe 00 3e
       0.15358758 -0.10543669 0.14957675 0.12596905
0001d0 0c 8f d7 bd 51 1e 37 bd c6 db e1 bd e4 9a 40 bd
       -0.10525331 -0.044706646 -0.110282466 -0.047022715
0001e0 34 12 d6 3d 24 6f f4 3d c3 13 c8 bd 74 db 05 3e
       0.10452691 0.11935261 -0.09769394 0.13071996
0001f0 6e 09 44 bd ed 3f f6 3d 83 70 f4 3d e5 59 25 bd
       -0.047860555 0.120239116 0.119355224 -0.040368933
000200 ce 2e af bd 1b 15 25 bd 39 2d 3f be 31 3e 0d be
       -0.08553849 -0.04030333 -0.18669595 -0.13793255
000210 83 c7 f9 3d fe 66 f3 bd 07 80 b0 3d 62 07 80 3d
       0.12196257 -0.118848786 0.08618169 0.06251408
000220 e5 b5 d7 bc 73 f4 c1 bd fd 14 9e 3d 85 05 fc 3d
       -0.026331851 -0.09470453 0.07718847 0.1230574
000230 b6 52 52 bd bb 64 21 3d 38 07 37 3e ae bd 9b 3d
       -0.05134841 0.039402705 0.17873847 0.07604538
000240 c2 5f 99 3c 65 6d 3d 3e b3 db 12 3e 97 30 b7 3d
       0.018722419 0.18498762 0.14341621 0.08944815
000250 5b 4f 89 3d 29 04 21 be
       0.06704589 -0.15724243

bias f4 [6]
000000 ec 81 68 bc f7 f0 3d bb 83 cc 49 bd c7 db 56 3d
       -0.014191132 -0.0028982738 -0.049267303 0.05245569
000010 c3 da 5f 3d 2e 24 3d 3d
       0.054651987 0.04617708

weight f4 [6]
000000 3a a8 83 3f 20 14 78 3f e4 5b 83 3f 56 30 7f 3f
       1.0285714 0.9690571 1.0262418 0.9968313
000010 6f a0 7b 3f c2 15 7e 3f
       0.9829168 0.9925195

bias f4 [6]
000000 0a ad 8d 3b 4d 87 f8 bb c9 73 18 3d 76 59 01 3c
       0.0043236064 -0.0075844885 0.037219796 0.007894864
000010 3d 42 1e bd 8e 41 8e bc
       -0.03863739 -0.017365243

running_mean f4 [6]
000000 77 c5 a1 bc 6d 52 de bb 5f 4d 3c bd fb 38 58 3d
       -0.019747479 -0.0067847283 -0.045972224 0.052788716
000010 3b cc 66 3d 46 f7 1d 3d
       0.056347113 0.038565896

running_var f4 [6]
000000 81 29 b0 3d 97 5c 3a 3e f8 af e4 3c 29 ac c4 3c
       0.08601666 0.18199383 0.02791594 0.024007874
000010 f1 a6 33 3f ec e0 a1 3e
       0.7017661 0.31616914

weight f4 [18, 6, 5, 5]
000000 96 ed d8 b9 da de 7e 3d 32 2f 1a bd ff 88 e4 3c
       -0.00041375746 0.062224247 -0.037642665 0.027897356
000010 9a 16 23 bd ab 60 8a bd dc 46 5c bd f4 96 4f bd
       -0.039816476 -0.06756719 -0.053778514 -0.05068107
000020 76 a1 07 bd 5f 67 94 bd 4b fb 29 3d c9 8b 38 bd
       -0.033112966 -0.07246279 0.041499417 -0.045055185
000030 2d 07 11 3d 64 a5 82 3c 5f 3a 42 3c 9a 5b 52 bd
       0.035407234 0.015948005 0.011854737 -0.05135689
000040 ea 97 37 bd ef 0b 4c 3c da 8e 6c bd 74 dc b1 3d
       -0.04482261 0.012454017 -0.05775342 0.08684626
000050 b6 2f c1 bd 1a e0 db bd 7f 19 50 3d f6 bf d8 bc
       -0.09432928 -0.10736103 0.050805565 -0.026458722
000060 98 aa a9 3c ab 9b 0e bb c7 66 59 bc 87 0c 8e bb
       0.020711228 -0.0021760266 -0.013269133 -0.0043349895
000070 dc 54 87 bd 13 0a 88 bd 03 af 4f bd a9 46 df bc
       -0.066079825 -0.066425465 -0.050704014 -0.027255373
000080 ec 7c 06 3d c0 dc c4 3c a8 0b ac bd b5 2b c0 3c
       0.03283398 0.024031043 -0.08400661 0.023458341
000090 72 46 93 3d 72 72 37 bd c2 51 38 3d 6b 87 85 3d
       0.07191171 -0.044786878 0.044999845 0.065199696
0000a0 f0 65 3a 3d 75 38 94 bd 60 1c 2d bd 8c 4e a7 bd
       0.04550737 -0.07237331 -0.04226339 -0.081692785
0000b0 5b 56 5b 3d d7 23 92 3c c7 1a 1e 3b c2 5c 39 3d
       0.053549152 0.017839355 0.0024124847 0.045254476
0000c0 b8 1e 89 bd b9 3e df 3b 2f 2c 7d bd e3 36 0d 3d
       -0.06695312 0.006812897 -0.061809715 0.034476172
0000d0 9b d9 2f 3c c7 7c b1 bc bb c2 0e bd 39 53 a4 bc
       0.0107330335 -0.021665944 -0.03485368 -0.020059215
0000e0 eb d8 40 3d 44 78 37 bc c9 45 2e 3d 5f b6 8a 3d
       0.04708187 -0.011198107 0.04254702 0.06773066
0000f0 c6 1e b8 3d 13 a1 86 3d 6d 5e b2 bd 7d 81 94 bd
       0.089902446 0.06573691 -0.087094165 -0.072512604
000100 7a 52 08 bd 27 a1 92 3d 45 97 b1 3c d8 d4 8e 3c
       -0.03328178 0.071596436 0.021678576 0.017435476
000110 bd 63 59 bd 39 27 43 3d 05 63 82 3c 2e fb 6f bc
       -0.053073633 0.047644828 0.015916357 -0.014647288
000120 f5 ef 4a bd f9 19 a9 3d 09 f8 89 bd 77 7b 3b bd
       -0.049545247 0.08256907 -0.06736762 -0.045772042
000130 14 b8 fe bb 3f c8 a5 bd e6 de c0 bc 3f 97 0c bc
       -0.0077734087 -0.080948345 -0.023543786 -0.008580982
000140 c0 52 29 3d bf 02 c5 3b 43 17 6c bd 37 eb a0 bc
       0.041338682 0.0060122903 -0.05763937 -0.01964341
000150 e7 6f 91 3d 62 a0 1e bd ec b3 74 3d cb bd bd bd
       0.07101422 -0.03872717 0.0597419 -0.09264716
000160 40 dd 2c bd 6a 53 ef 3a 21 93 88 bc c5 61 70 bd
       -0.042203188 0.0018259112 -0.016671719 -0.05868699
000170 ff 12 19 bc 0e 59 5a 3d f0 7c 25 3d a0 a5 49 bc
       -0.009342908 0.053307585 0.040402353 -0.0123075545
000180 d6 44 41 bd a7 52 d9 3b 73 b6 aa 3d 8f 61 3b 3d
       -0.047184788 0.0066321674 0.08335581 0.045747336
000190 d2 60 d4 bc 4f 40 56 3c b2 eb 08 bc 32 cd ea bc
       -0.025925074 0.013076856 -0.008356975 -0.028662298
0001a0 48 30 05 3d 08 88 46 3b e1 0c 0b 3d 16 d8 b6 3d
       0.032516748 0.0030293483 0.03394783 0.08927934
0001b0 eb 01 2a bd f2 9d 87 3d 99 91 93 3d 4b 12 38 3c
       -0.041505735 0.066219226 0.07205505 0.01123483
0001c0 58 ec 80 bc b4 55 da bb d4 c9 4c bd b4 a4 14 3c
       -0.015737697 -0.0066630486 -0.049997166 0.009072471
0001d0 37 24 47 3c bc 3b 8c bb f7 bd a5 bd 75 63 a9 bb
       0.01215463 -0.004279582 -0.080928735 -0.005169327
0001e0 66 b1 6c 3d b1 0e 58 bd da e5 0f bd 66 39 64 bd
       0.057786368 -0.052748386 -0.035131313 -0.055718802
0001f0 25 5e dc ba f4 a4 97 3d b0 25 98 ba 70 e4 87 3d
       -0.0016812725 0.07404509 -0.0011607911 0.06635368
000200 a9 53 3a 3d 11 2f 2c bd e3 37 a8 bd c2 a2 48 3d
       0.04548994 -0.042037074 -0.082137845 0.048983343
000210 34 84 8b bd de 13 e0 bc 37 96 b5 bd 49 1c 92 bc
       -0.06812325 -0.027353223 -0.08866542 -0.017835753
000220 6b f8 ad 3d dc ee 18 bc ab af c2 bc 6e f2 a8 39
       0.084946476 -0.009334292 -0.023765406 0.0003222408
000230 b9 c1 70 bb 7e 2d 3f bc 51 6a ea 3b 7d 67 7f bd
       -0.0036736561 -0.011668561 0.007153787 -0.062354553
000240 83 0c a4 3d 59 9d 75 3c e0 97 85 3d aa ba 2c bc
       0.08010199 0.014991128 0.065231085 -0.010542551
000250 63 da a3 bc 12 41 28 bb 71 97 90 bd 0b 62 9e bd
       -0.020001596 -0.002567355 -0.07060135 -0.07733544
000260 29 b6 8c bd be 86 89 3c fa ce 25 bd b1 6f 34 bd
       -0.06870682 0.016787883 -0.04048059 -0.04405183
000270 0e a4 a1 bd 01 8b 4a 3d 4e 0b 4a bd ef b8 56 3d
       -0.07892619 0.04944897 -0.049327187 0.05242246
000280 fb 71 02 bd a6 4b b0 bc eb db 11 bd 24 8e 2a 3d
       -0.03184698 -0.021520447 -0.03561012 0.041639462
000290 29 1c fa 3c 46 90 8f 3a a3 06 6d 3d f4 ba 16 3d
       0.030531006 0.0010953031 0.057867657 0.036799386
0002a0 09 c8 61 bd df ae a9 3d 19 ef a6 3c 79 fb 8e bc
       -0.05512241 0.08285307 0.020377683 -0.017453896
0002b0 e2 30 e1 bc 13 53 6a 3d 02 f7 24 bd cc 16 31 3d
       -0.02748913 0.057208132 -0.040274628 0.04323463
0002c0 dd cd 34 bd 1c bb 87 3d 35 83 f5 bc d9 b3 02 3c
       -0.04414164 0.06627485 -0.029969791 0.007977449
0002d0 f0 0b 00 bd 0e e6 83 bc e0 05 5b bc 5d 73 58 3d
       -0.031261384 -0.01610091 -0.0133681 0.052844394
0002e0 76 d6 37 3d c3 b6 ce bc aa d9 38 bd 6e 52 0d bb
       0.04488226 -0.025233632 -0.045129456 -0.0021564025
0002f0 9f 99 0c bd ee 7b a9 bc b9 6f d6 bb 84 6a ad bc
       -0.034326192 -0.020688977 -0.00654408 -0.021168955
000300 2f 80 20 3d 4a 8c b8 bd 6c 4a 97 3a 14 bd 80 bc
       0.039184745 -0.09011133 0.0011542565 -0.01571516
000310 a8 ae 9e bc 9e 47 9f bc 52 7e 8f 3d 46 d3 6e 3d
       -0.019370392 -0.01944333 0.070065156 0.058306955
000320 c7 d0 49 3d aa 5e 9b bc c8 3d 40 3d bf 5a a6 bd
       0.04927137 -0.018966038 0.04693392 -0.08122777
000330 02 7f b9 bd 91 7f 02 bd 5b f9 83 3d 0f e6 f1 bb
       -0.09057428 -0.031859938 0.06444045 -0.0073821614
000340 4e b9 a1 bd 11 45 67 3b 0d 45 83 3d 54 00 95 bc
       -0.07896672 0.003528897 0.06409655 -0.018188633
000350 24 02 2b bd 75 bc 90 bc b8 2b 5e 3d 7c 36 0a bd
       -0.04175009 -0.017667988 0.054240912 -0.033743367
000360 43 22 a0 3d f5 ac f9 3c f1 79 46 3d 9d 00 6b bd
       0.07819035 0.03047798 0.048456136 -0.05737363
000370 44 a4 08 bc 4b f2 8f 3d ed ef 54 3d 7c cb bb bd
       -0.008339945 0.070286356 0.051986624 -0.09169671
000380 94 69 a1 bd 41 41 55 bd 4b 88 cd 3c 74 ad 8e 3d
       -0.078814656 -0.052064184 0.025089404 0.06966677
000390 7b 94 7e 3d 73 fc b1 3d 33 54 84 bd 21 72 2a 3d
       0.06215332 0.08690729 -0.06461372 0.041612748
0003a0 ed d8 a7 bd f5 b8 75 bd d4 a5 a8 3d 49 94 e7 3b
       -0.08195672 -0.059990842 0.08234754 0.0070672375
0003b0 23 d8 0b bd 23 86 2c bb be a7 b4 3c 79 59 b1 3c
       -0.03414167 -0.002632507 0.022052642 0.02164911
0003c0 76 66 1e 3d aa a0 df 3c f8 a1 a7 3d 5f 52 0b bd
       0.038671933 0.02729829 0.0818519 -0.034014102
0003d0 e0 3f e9 3c a3 d1 25 bd 55 cd e8 3c 5b b2 d5 bc
       0.02847284 -0.04048313 0.028418222 -0.026086023
0003e0 d3 49 78 bd 24 7f ae bd 0c d9 a6 3d 3e 42 53 3b
       -0.06061728 -0.08520344 0.08146867 0.0032235528
0003f0 12 fb d2 bc 0e 92 b0 3d 7d 98 80 3d db 83 2b bc
       -0.025754485 0.08621608 0.06279085 -0.0104684485

bias f4 [18]
000000 e7 26 43 bd 58 d3 be bb 7a 36 87 bd 45 72 55 3d
       -0.047644522 -0.005823534 -0.066021875 0.05211093
000010 79 34 3c 3b 04 c6 b8 3c 14 5f 5e 3d 27 3a 77 3d
       0.00287178 0.022555359 0.054289892 0.060358193
000020 d2 05 7a 3c cc 86 fa bb 2f 58 77 3d 51 26 a6 3c
       0.015260177 -0.0076454636 0.060386833 0.020281943
000030 ca d0 ec bc af c0 da 3c 58 43 97 bd e5 b5 17 3c
       -0.028908152 0.026703207 -0.07385892 0.009259676
000040 f3 f5 7a 3d f4 84 0d bd
       0.06126971 -0.034550622

weight f4 [18]
000000 de cf 83 3f 9d 57 78 3f c6 aa 73 3f 4d dd 7d 3f
       1.0297811 0.9700869 0.95182455 0.99165803
000010 34 78 85 3f bc 1c 83 3f 48 a5 85 3f e7 8c 87 3f
       1.0427308 1.0243144 1.0441065 1.0589875
000020 1f 0d 7c 3f dc 7e 76 3f 40 88 83 3f 3e 99 82 3f
       0.9845752 0.9628732 1.0275955 1.0203016
000030 37 30 77 3f a2 70 76 3f d2 66 81 3f 08 3d 7d 3f
       0.96557945 0.96265614 1.0109503 0.9892125
000040 e4 ec 7b 3f 78 b1 80 3f
       0.9840834 1.0054159

bias f4 [18]
000000 37 52 bc bb 19 1d 08 bd 68 1a c9 bc 3c 75 05 bd
       -0.0057471055 -0.033230875 -0.024548724 -0.032582507
000010 3d a5 59 bb e9 00 22 bc 9b 8e 9c bc 7e a7 f5 bc
       -0.0033210062 -0.009887912 -0.019110968 -0.029987093
000020 47 10 0e bd 18 55 12 bc 65 dd da bc 24 0e 91 3b
       -0.034683492 -0.008931421 -0.026716897 0.0044267345
000030 f8 3e 35 bd 08 11 e7 bc 3c 9c 0b 3b 23 48 00 3b
       -0.044249505 -0.028206363 0.002130284 0.0019574247
000040 fa 5f 92 bc df 23 e3 3b
       -0.01786803 0.0069317664

running_mean f4 [18]
000000 60 54 cc be 03 a4 45 3e f2 48 e7 3e 98 0a ef 3e
       -0.39908123 0.19300847 0.4517284 0.4668777
000010 c2 e2 a4 be c6 b4 d2 3d 0b 3d ae be f6 43 9c be
       -0.32204252 0.10288386 -0.34030947 -0.305206
000020 b6 95 4f 3f 7f 70 8a 3e 6a 65 ed 3e 79 00 d8 be
       0.81087816 0.27038953 0.46366435 -0.4218786
000030 9a 08 2d 3e be 22 84 3e 56 e0 6f bd 68 f0 11 3e
       0.16897812 0.25807756 -0.058563553 0.14251864
000040 db 28 c2 3d 66 21 16 be
       0.09480449 -0.14661178

running_var f4 [18]
000000 c2 4d 28 3e f1 b4 b3 3e 0b 06 6b 3f 1c e0 5f 3e
       0.16435912 0.35098985 0.91806096 0.21862835
000010 fa a0 a4 3e 26 93 94 3e ef 14 23 3e b4 e2 59 3e
       0.32154065 0.29018515 0.15925954 0.21277887
000020 b8 bc 9a 3f 47 09 18 3f 59 36 b3 3d f0 ae 3e 3e
       1.2088842 0.59389156 0.087506 0.18621421
000030 32 6e c9 3e 46 42 1f 3f 11 41 87 3d a1 35 53 3e
       0.39341885 0.622105 0.06604207 0.20625927
000040 6a 26 ad 3d 21 a4 0e 3e
       0.084545925 0.13929798

weight f4 [45, 18, 5, 5]
000000 6b d4 b0 3b 7b a0 1e bd fa 1e 84 3c 67 61 22 3d
       0.005396416 -0.038727265 0.016128052 0.03964367
000010 36 d9 1c 3c 9b 14 b1 bc 8b e1 1d bd cd 2d f4 3c
       0.0095732715 -0.02161627 -0.038545173 0.029806996
000020 81 c3 39 3d 10 91 1c 3d 59 d4 9c bc 8e be 41 bd
       0.045352463 0.03822428 -0.019144224 -0.047300868
000030 b0 20 38 bd fe 81 c3 bc 0c e0 39 bd ac 3d 8a bc
       -0.04495305 -0.023865696 -0.045379683 -0.01687511
000040 55 75 26 3d a3 29 c7 3c e4 8f 40 3c c9 69 69 3c
       0.04063924 0.024311846 0.011753056 0.014246413
000050 89 c5 ca 3c 99 e2 62 bc d4 10 91 bc 8d 4f a4 bc
       0.024752395 -0.01384797 -0.01770822 -0.020057464
000060 eb ab 23 3d 20 d6 db bc 77 ed 51 bb ce f5 f8 3c
       0.039958876 -0.026835501 -0.003203241 0.030390646
000070 72 0c 9d 3c 7d dd 2a 3d 72 0d 73 bc 47 27 44 3c
       0.019170973 0.041715134 -0.014834749 0.011972255
000080 6a d9 28 bd ed f2 e9 bc 82 0b fc bc 99 7a 01 bd
       -0.041222967 -0.028558219 -0.030767206 -0.03161106
000090 6c 8e fa 3c 97 47 82 3c 65 86 b5 3c 76 f5 04 3d
       0.03058549 0.015903277 0.02215881 0.032460652
0000a0 5d 2c 24 bd 6d 17 23 3d 91 62 4b bd 6b 25 1c 3c
       -0.04008137 0.039817262 -0.049654547 0.0095304055
0000b0 c0 2a 0d bd aa 2c 47 3d d7 55 79 bb 70 bc 04 3c
       -0.034464598 0.04862658 -0.003804555 0.008101568
0000c0 fc 21 3b bd fe e6 83 3d 9b 02 45 bd d8 53 25 3d
       -0.045686707 0.06440543 -0.048098188 0.040363163
0000d0 9a e9 dc 3c 04 8d 40 3d 0f 1f 26 3d db 12 a2 3c
       0.026966859 0.047009483 0.040556964 0.019784382
0000e0 c9 87 0b 3d 5f 24 6b 3c 81 c0 15 bd 47 80 c3 bc
       0.03406504 0.014351933 -0.03656054 -0.023864878
0000f0 e9 f8 c3 3c 9a 8a b6 3c c9 22 eb bc a5 ea e7 bc
       0.0239224 0.022282887 -0.02870311 -0.02831013
000100 63 a7 05 3c 51 d9 1a 3d 17 d6 2e bd 3d 1e ce bc
       0.008157584 0.037804905 -0.04268464 -0.025160903
000110 c9 f6 50 3d ea 41 10 bd 65 4a 82 3c 6f 71 d0 bb
       0.051016603 -0.03521911 0.015904615 -0.0063611786
000120 3c 47 44 bd e5 e3 bd bb a5 b4 a5 bb 86 02 9c bc
       -0.047919497 -0.0057949894 -0.005056935 -0.019044172
000130 da f8 b3 3c 3a b8 01 bc 84 9e b4 3c a9 00 7e b9
       0.021969248 -0.007917458 0.022048242 -0.00024223574
000140 b6 b8 3f bc c8 53 91 bc 78 8a cc 3c b5 c5 36 3c
       -0.011701753 -0.017740145 0.02496837 0.0111555355
000150 c9 ba 34 bd 11 03 06 3d 46 49 6b 3d 98 f1 96 3c
       -0.044123445 0.032717768 0.057442926 0.018425748
000160 4c 7c 2a 3b 99 d8 2d 3d e5 d8 11 3d 00 8f c1 bc
       0.0026014028 0.04244289 0.035607237 -0.023627758
000170 a7 6d 41 bd 01 1f 6c bd a3 72 9a 3c 83 f7 b4 bc
       -0.047223713 -0.057646755 0.018853491 -0.022090679
000180 b6 23 21 3c 39 94 ad 3c cc 76 07 bd 8c eb 36 bd
       0.009835174 0.021188842 -0.033072278 -0.04465823
000190 f4 bc 81 3d f2 95 48 3d 95 d0 5b 3d 9f 3a 61 3d
       0.06334868 0.048971124 0.053665716 0.054987546
0001a0 0d 1b 4c 3c 99 27 8b bd b5 fe 6e bd 83 5e 3f bd
       0.012457621 -0.06794662 -0.058348376 -0.046720993
0001b0 d1 87 62 bd 01 99 93 bd 1c 14 94 bb cb 6a 70 3b
       -0.055305306 -0.072069176 -0.004518999 0.0036684747
0001c0 9e 02 85 3d 93 a0 5e 3c 55 df 19 ba b8 2d 2c bd
       0.0649464 0.013588089 -0.0005869766 -0.04203579
0001d0 71 bd ec 3c 65 6b 60 3b 5e a3 14 3d bd 95 34 3b
       0.028898926 0.00342437 0.03628861 0.0027555071
0001e0 2e d6 40 3a 0b 21 46 3d 41 2e 8a 3d 7d d1 18 bc
       0.0007356134 0.048371356 0.067471035 -0.00932729
0001f0 52 8d 0a 3d 13 1f 43 bd 08 af e2 bc 1c b4 2b 3c
       0.03382618 -0.047637057 -0.027671352 0.010479953
000200 8b 18 80 3d a3 cc 40 3d f1 db 80 bc d6 67 ae 3c
       0.06254681 0.047070157 -0.015729876 0.021289747
000210 fb 61 bf 3c 6d 87 92 bc 03 e4 0d bd 9a c9 89 bb
       0.02336215 -0.017886842 -0.034641277 -0.004204941
000220 33 49 c5 bc 7d 04 8d bb 86 e8 31 3d 02 89 2b 3c
       -0.024082756 -0.0043035136 0.043434642 0.010469677
000230 2b 73 e8 bb e3 4a 0d 3d 00 c8 f9 3a ce 69 5d 3d
       -0.007093807 0.034495246 0.0019056797 0.05405598
000240 c4 b5 05 bc 8a 4d dd bc 53 b8 96 bb 20 59 0b 3d
       -0.008161012 -0.027014513 -0.00459961 0.034020543
000250 28 5b d8 ba fa 01 cd 3c 40 41 77 bc 7c db 82 3c
       -0.0016506659 0.025025357 -0.01509124 0.015973799
000260 82 b9 e5 bc d0 5c 0b bc ce 08 75 3c b5 9e 8a bc
       -0.028042559 -0.008506015 0.0149557125 -0.01692138
000270 f3 97 0c 3d 9a f9 55 3c 9c 94 7c bd 76 c4 d3 bc
       0.034324598 0.013059998 -0.061665162 -0.025850516
000280 18 92 05 bd 2b f9 80 bc 2c 16 1d 3d 01 dc 42 3c
       -0.03261003 -0.015743813 0.038351223 0.011893273
000290 7c a7 99 bc 43 94 a1 3b 72 f9 5e bb 54 d3 51 3d
       -0.01875662 0.0049310043 -0.0034023193 0.05122693
0002a0 8f 44 24 3d 90 b0 35 b9 0b 9a 51 bb 2b d1 ac 3c
       0.040104445 -0.0001732728 -0.0031982686 0.021095833
0002b0 f1 3a e0 bc 77 a0 17 3c 3f af 27 bb da a8 66 bd
       -0.027371855 0.009254566 -0.0025586633 -0.056313373
0002c0 6d 67 14 bd 4f c8 52 bc 46 8a 3c bd 2f c5 88 bc
       -0.036231447 -0.01286514 -0.046030305 -0.016695587
0002d0 33 1d 19 bd e9 ce 06 3d 68 ba 21 3c 7d ee 29 3b
       -0.037381362 0.03291217 0.009871103 0.0025929504
0002e0 1f 7c 5a 3d ef 59 60 bd 21 1c f2 bb 95 88 f1 bb
       0.053341027 -0.054773267 -0.007388607 -0.007371018
0002f0 cd c0 1a bc 77 62 dc bc b3 7a 5d 3c 4f 6e 53 3c
       -0.009445381 -0.02690242 0.013518023 0.012904718
000300 12 41 af bc 36 27 2c 3c c0 16 cb 3a c0 9a 6e 3c
       -0.021393333 0.0105073955 0.0015494451 0.014563262
000310 02 ee fb 3c 59 54 63 bc 29 0f 15 bd 11 c5 4a 3d
       0.03075314 -0.0138750905 -0.03639141 0.049504343
000320 21 e1 26 bd 3d 2c cc 3b 8c 2c 7f bd 07 aa 16 3a
       -0.040742043 0.0062308596 -0.062298343 0.0005747382
000330 f6 4c 35 bd f6 97 ef 3c ea 45 ca 3c 29 cb 79 3b
       -0.04426285 0.029247265 0.02469154 0.0038115478
000340 a4 4e 98 bc 16 d6 8a bc 30 8a 13 bd 0b 26 a7 3c
       -0.018592186 -0.016947787 -0.036020458 0.020403882
000350 1a fa df 3b 00 57 d7 3c 4b ad ee bc 16 56 db bc
       0.0068352344 0.026286602 -0.029135367 -0.026774447
000360 03 36 55 bc e8 e2 a7 3c f8 d0 b6 3a 1d 82 20 3d
       -0.013013366 0.02049394 0.0013947776 0.039186586
000370 58 d3 b8 bc bb 51 26 3a ea 31 df bc 1d 19 04 3d
       -0.022561714 0.0006344576 -0.02724548 0.032250512
000380 41 2f ba 3c ad 0e 46 bc 90 8f 39 3d ef 0d fe 3c
       0.02272761 -0.01208846 0.045302927 0.031012503
000390 e6 9e 18 3d 8c 98 23 bd 9d c5 27 3d 4a 71 08 bd
       0.037260912 -0.039940402 0.040959943 -0.033311166
0003a0 fa 70 4e bd bf 44 a0 bc 04 e4 25 3d 24 05 65 bc
       -0.05040071 -0.01956403 0.040500656 -0.013978276
0003b0 28 48 bf 3c 46 d0 44 bd 41 aa 10 3d ea 1f 1f bd
       0.023349836 -0.048050188 0.035318617 -0.038848795
0003c0 13 e8 39 bd 16 d5 66 3c 32 9e dd 3c fe 18 4f bd
       -0.04538734 0.01408889 0.027052972 -0.050560944
0003d0 cd 0d 55 bd 26 6b 9c bc 6f 38 0e 3c 1b 01 1f 3d
       -0.052015115 -0.019094061 0.008680447 0.038819414
0003e0 8b 5b fd bc e8 b2 ff 3a 48 60 d8 3c a0 ef 05 bd
       -0.03092744 0.0019508274 0.026413098 -0.032699227
0003f0 9d 59 fc 3c 9e a7 cd 3b 5e 82 83 3c 9a e0 54 bd
       0.03080445 0.006276085 0.016053375 -0.05197201

bias f4 [45]
000000 57 19 fe bb df cf f9 3b 70 8d 4a bc 1f 97 2b bc
       -0.0077544856 0.007623657 -0.012362823 -0.010473042
000010 84 fc bc 3b 71 28 38 3d 46 6a 46 bd 06 73 1f 3c
       0.005767407 0.044960443 -0.048441194 0.009732014
000020 b2 71 7a 3c 32 97 a1 3c 89 b2 30 3c de 34 9b bc
       0.015285896 0.019725416 0.010784754 -0.018946107
000030 7a 4d 50 bc 73 e7 04 3d 97 1e 23 bd fb 00 41 bd
       -0.012713784 0.03244729 -0.039824095 -0.047120076
000040 3c 25 11 bd dd ef 24 3d 64 8d 2c bd a7 6c 6e 3c
       -0.0354359 0.040267814 -0.042127028 0.014552272
000050 ad 2f 5a 3d fd f6 4e bc 5f 20 f1 bc 4a 95 20 3d
       0.053268123 -0.012632129 -0.029434381 0.039204873
000060 e8 27 1d 3d 2f 10 e4 bc 46 a3 52 3d 43 95 d6 3c
       0.038368136 -0.027839748 0.05142524 0.02619422
000070 df 7c 18 bc 66 21 e0 bc d0 64 0e 3d cc 23 1b 3d
       -0.009307115 -0.027359676 0.03476411 0.037875935
000080 de 36 4f 3d 1c 49 54 39 63 b9 41 bd d6 5b e5 3b
       0.050589435 0.00020245131 -0.04729594 0.006999473
000090 67 58 48 3d c2 07 92 bb 20 19 ee bb 0c 0f 3d 3d
       0.048912432 -0.004456491 -0.0072661787 0.046156928
0000a0 5b 18 43 3d 8b 1c c1 bc 90 08 9a 3b 1b 16 e9 3b
       0.04763065 -0.02357318 0.0047007278 0.007113231
0000b0 93 e1 22 3c
       0.009941476

weight f4 [45]
000000 65 66 80 3f 8c 11 80 3f 7e 89 81 3f 1f 00 7a 3f
       1.0031248 1.0005355 1.0120084 0.97656435
000010 c3 ef 7f 3f 7b aa 7d 3f da 00 81 3f 41 e3 7d 3f
       0.9997522 0.9908826 1.0078385 0.99174887
000020 66 64 81 3f 3d 3b 7d 3f af f5 77 3f 0f 17 81 3f
       1.0108764 0.98918515 0.9685926 1.0085162
000030 84 52 7e 3f 7d 23 81 3f de 0e 7f 3f a8 d6 81 3f
       0.9934466 1.0088955 0.9963206 1.0143633
000040 21 0b 7e 3f 76 3a 80 3f 49 a1 7f 3f 6b 40 81 3f
       0.9923573 1.0017841 0.99855477 1.0097784
000050 3c 6f 82 3f bb 1c 84 3f cb 24 81 3f ab 91 80 3f
       1.0190196 1.0321268 1.0089353 1.0044454
000060 12 5a 7c 3f 0a 31 81 3f 68 c2 80 3f aa e1 80 3f
       0.98574936 1.009309 1.0059328 1.0068867
000070 97 29 80 3f 84 2d 80 3f 42 15 81 3f 5c 34 80 3f
       1.0012692 1.001389 1.0084612 1.0015979
000080 db 8c 7f 3f c4 7b 80 3f 47 5a 7d 3f 79 8e 7c 3f
       0.99824303 1.003777 0.9896588 0.98654896
000090 99 1a 7e 3f 8d 14 7d 3f 60 ee 77 3f e3 65 7e 3f
       0.99259335 0.98859483 0.96848106 0.99374217
0000a0 ab 0e 81 3f 9d 7d 7f 3f bc b4 81 3f 6b 1b 81 3f
       1.0082601 0.99801046 1.0133281 1.0086492
0000b0 f5 f9 78 3f
       0.97256404

bias f4 [45]
000000 6c 13 d4 3c d5 b1 ad bc f2 c5 0b 3b ee 10 e2 bc
       0.025888167 -0.021202961 0.0021327701 -0.027595963
000010 4d 8a 18 bb b3 cd c0 bb ea 9f 01 bd cd 07 20 bd
       -0.0023275793 -0.0058838963 -0.031646647 -0.03906994
000020 0a 17 df 3a fc 76 17 bd ef 04 22 bd 8b 58 9e bc
       0.0017020416 -0.036978707 -0.039555486 -0.01932933
000030 a0 1c 58 bc da a9 23 bc 53 83 72 3c 55 07 ac b9
       -0.0131904185 -0.009989226 0.014801818 -0.0003281186
000040 e6 f9 e6 bc c3 41 28 bd 65 2c 04 bd f7 1e 18 bd
       -0.028195333 -0.04107834 -0.0322689 -0.037138905
000050 0f 92 43 3c e7 8d e7 bc 71 7c 44 bc a4 3b d9 bc
       0.011936679 -0.028265906 -0.01199256 -0.026517697
000060 4e 85 30 bd 73 94 54 3b 7f 91 17 3b c6 3e f1 3b
       -0.04309588 0.0032437115 0.0023127494 0.0073622195
000070 25 44 98 bc 38 50 a7 3b 85 59 76 3c 19 12 c1 bc
       -0.018587181 0.0051059984 0.015035992 -0.0235682
000080 d2 65 c2 bb f0 6d 33 3d cf 33 92 bc d8 7e 3c bd
       -0.005932548 0.043806016 -0.01784697 -0.046019405
000090 b9 97 6d bc e9 45 07 bd 62 dc c1 bc 35 6d e2 bc
       -0.0145015055 -0.033025656 -0.023664657 -0.027639965
0000a0 b3 4b b9 bb 63 8b 09 bd ea 1e 9d bc e0 bd 3b bc
       -0.005654776 -0.033580195 -0.01917978 -0.011458844
0000b0 1d b3 89 bc
       -0.01680904

running_mean f4 [45]
000000 06 bb 20 bd 22 74 51 3f 60 82 23 be be 4e c1 bd
       -0.03924086 0.8181783 -0.15967703 -0.09438847
000010 32 8f ee be 61 3d d5 bc 33 9a bc bf b1 71 61 bf
       -0.46593624 -0.026030244 -1.4734558 -0.88064104
000020 84 6b 45 bf a4 e9 53 bf 4a de 5b 3f b1 87 1f bf
       -0.7711718 -0.8277838 0.8588606 -0.62316424
000030 0e 16 5a bf c6 cf 08 bf f6 4c 11 bf 84 d9 26 bf
       -0.851899 -0.5344204 -0.5675806 -0.6517565
000040 17 9b 8b 3d af 9a 25 bf 7c 58 f2 bd ef ec 14 be
       0.068166904 -0.64689153 -0.11833283 -0.14543508
000050 d2 15 67 bc ae 8d 30 bf af b3 55 3e 51 58 78 bf
       -0.014104323 -0.68966186 0.20869325 -0.9700976
000060 7d 82 8e 3e c6 28 06 3e c6 cc 3c bf b1 e2 e1 3d
       0.2783393 0.13101491 -0.7374996 0.11029566
000070 c1 06 69 be c2 ef c7 be 46 2b 91 bd 4d 74 ca 3d
       -0.22756483 -0.39050108 -0.07088332 0.09885464
000080 15 d9 9b 3e f9 c8 af be 37 89 eb 3e a8 b4 4d 3f
       0.30439058 -0.34333017 0.46003124 0.80353785
000090 3b bd c2 3e 85 15 08 3f 89 0b 88 3f b1 80 8d 3e
       0.38034996 0.53157836 1.062852 0.27637246
0000a0 52 57 36 3d 83 5c 83 be 89 67 17 bf 39 54 4c be
       0.04451687 -0.25656518 -0.5914236 -0.19954003
0000b0 27 e3 9c 3e
       0.30642053

running_var f4 [45]
000000 15 00 84 3e 70 53 95 3f 06 09 b3 3e df 34 27 3f
       0.25781313 1.1666088 0.34967822 0.6531505
000010 48 13 ed 3e 56 ed 6c 3e cf 2d 2c 3f 86 92 8e 3f
       0.46303773 0.23137411 0.672574 1.1138465
000020 ce 57 d1 3e bd 33 ca 3e 69 61 54 3f a4 45 01 3f
       0.40887302 0.39492598 0.82961136 0.5049689
000030 42 1e bd 3e c6 3b 4c 3f 7f da e7 3e 0d 15 a7 3e
       0.36937147 0.7977871 0.45283887 0.32633248
000040 5c 43 2b 3f 8e b4 19 3f 10 9c 2c 3f 45 5b c2 3e
       0.6689966 0.6004113 0.6742563 0.37960258
000050 3b f6 9a 3e 6f 94 6f 3e 86 df 8a 3e 13 67 82 3f
       0.30265984 0.23396467 0.2712366 1.0187706
000060 68 37 f5 3e d5 b9 9e 3e 46 96 d0 3e 67 63 d7 3e
       0.47893834 0.31001154 0.4073965 0.42068025
000070 20 54 f6 3e 53 39 7a 3e fc c8 11 3f 72 87 86 3e
       0.48111057 0.2443593 0.569473 0.26275212
000080 38 ac a5 3e c7 07 3c 3f 8b b1 63 3f 65 2f 2d 3f
       0.32357955 0.7344937 0.88942784 0.67650443
000090 7b a0 4d 3f 44 d3 46 3f ee b6 02 40 db 3c 9b 3e
       0.80323 0.77666116 2.0424151 0.30319867
0000a0 08 46 cf 3e af bb 2b 3f 9f 5c c8 3e d5 18 e5 3e
       0.40483117 0.6708326 0.39133164 0.44745508
0000b0 b3 78 47 3f
       0.7791855

weight f4 [18, 45, 5, 5]
000000 98 96 e9 bc d9 dc e3 39 3d aa fc 3b e7 69 02 b9
       -0.028514192 0.00043461358 0.0077107237 -0.00012437218
000010 89 95 1a bc 6f 50 51 3c 52 90 52 bb 60 9f 34 3d
       -0.009435066 0.0127755245 -0.0032129479 0.044097304
000020 ce cf 14 bc ef 7b d6 3c 84 ee 89 bb 8f a4 af 3c
       -0.009082748 0.026182143 -0.0042093415 0.021440772
000030 c2 6f 08 3c 1f 03 6b bb 1c 0d e9 3c 6e 99 ef bc
       0.008327426 -0.0035860015 0.028448634 -0.029247966
000040 13 c2 20 bc f0 3a 3e 3c 85 9d 13 3a 90 d8 af 3b
       -0.009811896 0.0116107315 0.0005631077 0.0053663924
000050 c5 30 d1 3c 3c ce 0e 3d b7 8a c1 3c a7 da 4f 3d
       0.02553595 0.03486465 0.023625715 0.050745632
000060 33 b7 4d bb 0c 28 25 3d 3c c6 f3 bb d7 9a 9c bc
       -0.0031389713 0.040321395 -0.007439403 -0.019116802
000070 27 e9 82 bc e8 f9 17 3c d8 a9 3c bb eb 48 01 3d
       -0.015980316 0.009275891 -0.0028787758 0.03156368
000080 fd c1 79 ba f4 91 8f bb b4 d5 e5 bc 2c 0a 8e bc
       -0.00095275027 -0.0043814126 -0.028056003 -0.017338835
000090 bf 5c 34 3c dc 97 e7 bb a1 03 d9 bc 64 d5 a5 3b
       0.0110084405 -0.0070676636 -0.026490988 0.0050608385
0000a0 66 f6 9e 3c ff 5e 07 bb a2 95 63 ba 7c 0d 48 bc
       0.019404601 -0.0020655987 -0.000868166 -0.012210246
0000b0 c5 be f2 3c 5a a7 84 3c 24 a9 12 bd 61 4e 1e 3c
       0.029631982 0.01619308 -0.035805836 0.009662242
0000c0 6b 94 61 3c 4f 0b 0c bd 79 ed 82 bb b3 fc b3 bc
       0.013768296 -0.034190472 -0.003995594 -0.021971082
0000d0 2a d2 88 3c cb 8e 33 bb c1 99 63 bb 99 a0 be 3c
       0.016701777 -0.0027398344 -0.0034729096 0.023269938
0000e0 c0 af 7d bc 3b 9f 30 3b c7 4e 70 bc bd 92 ce bc
       -0.015483797 0.0026950378 -0.0146672195 -0.025216455
0000f0 9c f8 8a bc f2 2e 4d bc 9d 4d 4e ba 79 ad bf bc
       -0.01696425 -0.0125234 -0.00078698416 -0.023398148
000100 24 15 0b bc c7 b7 98 ba 28 e7 bb 3b c9 e5 1b 3d
       -0.008488927 -0.001165145 0.005734343 0.038060937
000110 ed a7 ea bb 9e 78 8e 3c 7a ca b6 bc 42 f8 5d bc
       -0.0071611316 0.0173915 -0.022313345 -0.013547959
000120 2f 30 57 ba c0 63 18 bc 85 69 c5 3c 79 14 5d 3c
       -0.0008208779 -0.009301126 0.024098167 0.013493651
000130 7b bf 9d bc 1c b5 f1 3b 07 2d ac ba 32 97 67 3b
       -0.019256344 0.0073763262 -0.0013135978 0.0035337922
000140 d4 86 86 bc f3 85 b6 3c 32 b2 bc bc 04 c7 12 bc
       -0.016421713 0.022280669 -0.023034189 -0.008958582
000150 bb f6 cb ba 93 0c e0 3b 3b 4b 03 3d 33 a3 b1 3c
       -0.0015561202 0.0068374365 0.032054167 0.021684265
000160 40 f9 35 3c 12 f8 a0 3c c1 fa 33 3d 87 7b eb 3c
       0.011106789 0.01964954 0.04394031 0.028745426
000170 b6 8c 06 3d 0f 41 d7 3c 1b 71 b5 3c bc 8e 6b bb
       0.032849036 0.02627614 0.02214866 -0.003594323
000180 84 c6 ae bb dc b3 28 bc 64 a1 c1 3c 6a a4 c7 bc
       -0.0053337235 -0.010296788 0.023636527 -0.02437039
000190 b4 bb 16 3c ba 6a 03 bd 4e 5d 68 bc a2 55 a0 bc
       0.009200025 -0.032084204 -0.014182402 -0.019572083
0001a0 5d 9a a3 bc 03 e4 e2 bc 27 08 8f bc c4 b4 00 bd
       -0.019971067 -0.027696615 -0.017459942 -0.03142239
0001b0 03 9c c6 bc e9 b1 97 bc b8 5c a1 3c 1d 92 16 3d
       -0.024244314 -0.018517451 0.019697532 0.03676044
0001c0 0e 15 d7 bc ae ee fc 3c 91 64 45 3c 77 d4 f7 3a
       -0.026255157 0.03087553 0.012047903 0.0018907924
0001d0 54 6f 1c 3c fc ee 45 3c 14 9d ce 3c ee 49 bb ba
       0.009548027 0.012080904 0.025221385 -0.0014289
0001e0 f9 6e bb bb 7f e2 33 bb a5 a6 b4 b9 d9 73 89 bc
       -0.005720016 -0.0027448235 -0.00034456435 -0.016778873
0001f0 eb 6a 1a 3d 34 83 cc ba 73 53 2c 3d dc 1c d7 37
       0.03769962 -0.0015603066 0.04207177 2.5643436e-05
000200 ba 73 b9 3b 72 fb 11 bc bf 3a 1e bd ee 90 01 bc
       0.0056595476 -0.008910047 -0.038630243 -0.007908089
000210 09 4a 9b 3c 8d 6a 8f bb 85 ad ac bc a6 0d f9 3c
       0.018956201 -0.0043767155 -0.021078834 0.030402016
000220 fa c1 c3 bc 35 58 51 3c 38 80 bf bc 19 ea 72 3c
       -0.023896206 0.012777378 -0.02337657 0.014826321
000230 17 1e 1d bd dd 30 93 3c f7 13 84 3a 0d b8 e9 bb
       -0.038358774 0.017967636 0.0010076751 -0.0071325363
000240 f0 06 9e 3b c6 62 59 3c 0c ea c2 3c f6 29 df bb
       0.0048226044 0.013268178 0.023793243 -0.006810422
000250 de 1b 16 3d e5 b4 30 3c 33 eb ca 3b 84 c1 e6 3b
       0.03664767 0.010785316 0.0061925887 0.007042112
000260 69 53 19 bb 2b d7 6e bb ea e0 e9 3c 5e 1c 38 bc
       -0.0023395664 -0.0036444168 0.02854963 -0.011237232
000270 54 4d e3 bc 0f 60 b0 bc a9 bb 0e bd 67 87 ca bb
       -0.027746834 -0.02153018 -0.034846935 -0.006180692
000280 fb 81 17 bd dc 62 0b bd f9 8f 00 bd 62 e6 0d bd
       -0.036989193 -0.034029827 -0.031387303 -0.03464354
000290 aa f8 09 3d 5b 84 f5 3a 4f e1 11 3d ee 2c 8f bb
       0.03368441 0.0018731462 0.03561526 -0.0043693697
0002a0 68 48 5e bc d6 83 dc bc 30 d2 47 3c 86 64 07 3d
       -0.013567068 -0.026918333 0.012196109 0.03305485
0002b0 a3 17 e6 bc 0d 7d 2a bd ef 6a 97 3b 2e 5c 49 bc
       -0.028087443 -0.041623164 0.004620902 -0.012290044
0002c0 2d 5b ea bc b6 35 1b bc 6c 6b 61 bc 7c d8 fb bb
       -0.02860793 -0.009473255 -0.0137585215 -0.007685719
0002d0 bb 33 7c 3c 3e 13 c8 bc 37 3f 82 3c d3 81 99 bc
       0.015393193 -0.024423238 0.015899284 -0.018738663
0002e0 4e 25 ba bc 0d 92 d7 3c 12 54 90 bb a7 c4 2a bb
       -0.022722866 0.02631476 -0.004404553 -0.0026057155
0002f0 16 80 74 bb 67 61 36 3b 12 c9 41 3d d7 47 a8 3c
       -0.003730779 0.0027829052 0.047310896 0.020542068
000300 b0 c4 65 3d 7c 9a 19 3d 3d c7 12 3d 74 97 b8 3c
       0.05609578 0.037500843 0.03583454 0.022533156
000310 d1 f3 90 3c 23 ce 25 3c 1e 03 ce bc dc f9 7b 3c
       0.017694386 0.010119948 -0.02514797 0.015379395
000320 6a ce 62 bc c5 98 f3 3c e8 14 e3 3c 93 6b 32 3c
       -0.013843158 0.029735932 0.02771993 0.0108899055
000330 a0 53 e9 bb 29 b7 3b bc d1 74 b3 bc 02 26 cf 3c
       -0.0071205646 -0.011457243 -0.021906288 0.025286678
000340 c1 66 e7 3c e3 e7 d1 3c 29 bc 45 3c 1d 32 23 bc
       0.028247239 0.025623268 0.012068787 -0.009960678
000350 e2 eb e3 3c f8 49 bc 3c 7e 90 1d bc ca 05 0e bd
       0.027822439 0.02298449 -0.009616969 -0.03467349
000360 b3 13 12 bd 50 cf 15 bd 6c a6 b3 bc 4b a7 8d bc
       -0.035663318 -0.03657466 -0.021929942 -0.017291686
000370 34 66 f6 3c 17 29 34 bc 9a d2 35 bc 2d 58 00 bd
       0.030078031 -0.010996125 -0.011097575 -0.03133409
000380 8d 7f 9d 3c 38 56 5d 3c e2 e2 4e bc aa 24 ef bc
       0.01922586 0.013509326 -0.012627335 -0.029192287
000390 7b fd 8e bb 72 9b db bb 5a 69 f3 3c 24 bb 2b 3b
       -0.0043637133 -0.00670188 0.029713321 0.0026204074
0003a0 9b 17 4f bc ee d8 2e 3c 2a 62 26 bb 5d 78 15 bd
       -0.012639905 0.010671837 -0.00253881 -0.03649174
0003b0 d0 ca f9 bc 0c e5 6f bc 11 98 16 bd f7 5c a6 bc
       -0.030492216 -0.014642011 -0.036766116 -0.020308001
0003c0 b2 9f 01 bd 9e 1a 15 bd 2b 8f 00 3c 12 c2 00 bd
       -0.031646438 -0.036402337 0.007846634 -0.03143508
0003d0 31 70 e9 bc b3 f3 9b bc a0 06 4d bc 37 23 db 3a
       -0.02849588 -0.019037103 -0.012513787 0.0016718869
0003e0 08 3b 08 bd 86 7b 87 bb d3 f5 76 bc 1b 52 2a 3d
       -0.03325942 -0.004134598 -0.0150732575 0.041582208
0003f0 2e 0e b8 3c 01 5e a6 3c 4e d9 83 b9 01 c1 c9 bb
       0.022467699 0.020308496 -0.00025148172 -0.006157041

bias f4 [18]
000000 a2 a3 a4 bc 5c ba e5 3c d2 1f ed bc 9d f4 c3 bc
       -0.020097557 0.028042965 -0.028945837 -0.023920352
000010 de 65 47 3c cb 8f 8f 3c d1 75 43 3b 43 de 9a 3c
       0.012170283 0.01752462 0.0029824863 0.01890481
000020 38 eb 04 bb 5a 09 bc 3c 9f a4 ec bc 97 5b 7a 3a
       -0.0020281803 0.022953678 -0.028887091 0.0009550391
000030 32 f4 07 bd 4b d0 cd 3c 67 0f 43 bc d9 98 90 3c
       -0.033191867 0.025123736 -0.011905528 0.017651008
000040 b2 e9 84 3c 0d ae 93 3c
       0.016224716 0.01802733

weight f4 [18]
000000 8e cd 7d 3f 98 e2 80 3f 0a de 7c 3f e6 1f 7f 3f
       0.99141777 1.0069151 0.98776305 0.9965805
000010 fd 5b 7e 3f fc a8 84 3f f2 1a 80 3f 92 be 82 3f
       0.9935911 1.036407 1.0008223 1.0214407
000020 ad 2b 81 3f c1 e7 7c 3f c4 81 7a 3f 1c bf 7d 3f
       1.0091454 0.9879113 0.97854257 0.99119735
000030 6a 6d 7f 3f d7 54 80 3f 05 40 7c 3f b9 30 80 3f
       0.9977633 1.0025891 0.98535186 1.0014869
000040 2c f0 83 3f 5a d7 7e 3f
       1.030767 0.9954735

bias f4 [18]
000000 a8 78 3e bc d3 12 99 bc 4b 03 ce bb 1d 89 bc ba
       -0.011625446 -0.018685734 -0.0062870136 -0.0014384125
000010 40 b8 63 ba 95 21 ee bb 41 c9 12 bc 44 0e 63 bc
       -0.0008686818 -0.007267187 -0.0089591155 -0.013858382
000020 48 f3 88 bc e9 2d b9 bc 45 d2 8e ba 2b 71 b0 3c
       -0.016717568 -0.0226049 -0.0010896405 0.021538338
000030 f9 cc b8 3b 17 24 a5 bc 58 e0 5d 3c bf 43 83 bb
       0.005639669 -0.02015881 0.013542257 -0.0040058787
000040 ed 2d 75 3c 8b 16 9c bc
       0.014964563 -0.019053718

running_mean f4 [18]
000000 4d 7b 08 3f fb 47 99 3f 97 b5 70 bf 6a c6 92 3f
       0.5331314 1.1975092 -0.94027084 1.1466801
000010 d3 42 95 be 6f d6 91 bf e0 b1 aa bf 1a c2 bb bc
       -0.29152545 -1.1393565 -1.3335533 -0.022919703
000020 0c 4c 97 3f 85 78 e9 bd bc a1 01 3e 2a 78 8d bf
       1.1820083 -0.113999404 0.12659353 -1.1052296
000030 07 ed 3a bf c2 af bf 3e 94 0a 2d 3f a7 5e a2 bf
       -0.73017925 0.3743878 0.67594266 -1.2685136
000040 2b f2 b5 bd ff a2 b0 3f
       -0.088840805 1.3799742

running_var f4 [18]
000000 18 32 f7 3e 7b b9 30 3f 99 42 35 3f da 94 2a 3f
       0.48280406 0.6903302 0.70804745 0.6663338
000010 4a c6 93 3f 7c f8 a9 3f 9e 72 8d 3f d0 0a 3b 3f
       1.1544888 1.3278956 1.1050603 0.73063374
000020 41 90 86 3f 51 e0 3c 3f a0 39 cd 3e b8 35 4a 3f
       1.0512773 0.7377978 0.40083027 0.7898822
000030 7b a5 8f 3f a8 20 f9 3e 65 40 b4 3f 1d 78 32 3f
       1.1222376 0.48657727 1.4082152 0.6971453
000040 e4 32 65 3f b7 d1 c0 3f
       0.8953078 1.5064

weight f4 [6, 18, 5, 5]
000000 96 b7 5e bd 05 30 37 bd f2 6c ef 3b 6a a8 30 bc
       -0.0543743 -0.04472353 0.0073066885 -0.010782341
000010 d1 6e 94 bc 20 54 29 bc dd c2 9a 3c 29 3d 81 bc
       -0.018119248 -0.010334998 0.018891746 -0.015776234
000020 b2 27 22 3b fd a1 01 3c dc 27 35 3d 0f cf 27 3c
       0.0024742899 0.007912156 0.044227466 0.010242238
000030 e7 bf 87 bc 7f d7 1c 3c 2d db 43 3d 03 04 34 3b
       -0.016570998 0.009572863 0.047816444 0.0027468211
000040 e1 91 b8 3b 63 e4 2e bb bb 59 61 bb 76 af 5d bc
       0.0056326245 -0.0026686422 -0.003438576 -0.013530603
000050 5a 07 0e bd 98 25 a5 3c 5e 4c 70 bc f1 9c b0 3a
       -0.03467498 0.020159528 -0.014666645 0.0013474507
000060 b2 4d 5d bd 5f 08 b1 bc b9 58 0c bd 4a 14 6f bd
       -0.054029174 -0.021610437 -0.0342643 -0.05836896
000070 07 68 85 bc 2f 1d 49 bd 51 d5 61 3c cd 5f 32 3d
       -0.016284956 -0.049100097 0.013783769 0.043548394
000080 a4 f6 dc bc 8a 2d 32 ba 45 25 09 3d 25 f6 d4 bc
       -0.026973076 -0.0006796947 0.03348281 -0.025996277
000090 1e 17 f5 bc 01 43 99 3c a8 29 80 3c 6a 4a cc bb
       -0.02991825 0.018708708 0.015644863 -0.006234457
0000a0 1e 01 09 bd 12 e6 01 3d 7c df 1f 3d 6f 2e 37 bd
       -0.03344833 0.031713553 0.03903149 -0.044722017
0000b0 43 31 81 3c 8a b1 15 3d 4f f0 03 3c 6c 86 cc bb
       0.01577056 0.036546268 0.0080528995 -0.0062416103
0000c0 a4 e4 36 3d e8 46 3d bd d9 05 1e 3d 3d 10 c4 3c
       0.044651642 -0.0462102 0.038579796 0.023933524
0000d0 11 ab 12 3d c0 26 72 bc c5 16 30 3c 71 00 73 3c
       0.035807673 -0.0147797465 0.010747616 0.014831648
0000e0 b7 3c 60 3d a4 1c 53 3d c5 73 6c 3d fc d3 10 3b
       0.054745402 0.051540986 0.057727594 0.0022099009
0000f0 7b 0e 1c bc b2 b8 b6 3b 4f 14 93 bc 81 62 8a 3c
       -0.009524937 0.0055762166 -0.01795402 0.016892673
000100 52 94 29 3d 29 46 9a 3b 02 a6 f8 bc 96 c3 14 3b
       0.041401215 0.004708071 -0.030352596 0.0022699586
000110 7a df 0a bd 74 28 f8 ba 31 20 44 bd 50 1d bb 3c
       -0.03390453 -0.0018932954 -0.047882263 0.022841126
000120 ea e5 5c bc 4c c8 49 bc 50 b3 8c 3c a1 4b 8a b9
       -0.01348255 -0.012315821 0.017175347 -0.0002637776
000130 3a f2 2b bd 99 96 3e 3c 01 cb 1b 3d fc a3 aa bc
       -0.041979052 0.011632585 0.038035396 -0.020830147
000140 c4 d7 7a bc 46 2e 37 bc ac 04 c1 bb 98 93 da bc
       -0.015310232 -0.011180466 -0.0058904495 -0.026681706
000150 84 a3 65 bd 76 5e c9 bc 04 4e 20 bd 69 1b 5a 3a
       -0.056064144 -0.024581175 -0.0391369 0.00083201245
000160 79 15 fb bc ab 3d b6 3b 5c 2c 4f bc cc 5b 24 3d
       -0.030649887 0.0055615506 -0.012644853 0.040126607
000170 66 90 06 bd f6 fb 1e 3c b2 17 3b bd b3 d7 45 bd
       -0.032852553 0.009703627 -0.045676894 -0.04830141
000180 ea b6 a5 bc 26 a5 13 bd f5 6b b1 bc b0 bd 7e bb
       -0.020228822 -0.03604617 -0.021657923 -0.0038870387
000190 5f ff a3 3b e9 17 03 bd ce f2 c0 b9 41 eb e0 39
       0.005004808 -0.032005224 -0.00036801997 0.00042899887
0001a0 37 38 28 3c a2 5b 28 3d 52 de a3 bb 77 dc 1f bd
       0.010267309 0.041103013 -0.005000868 -0.03902861
0001b0 a9 da f8 bc d9 4e fb bc 6c 17 88 3c f5 76 04 3c
       -0.030377703 -0.030677246 0.01661273 0.008085002
0001c0 e8 0a 55 3d 06 d2 44 bd 79 e0 fa 3c e1 2d c4 bc
       0.052012354 -0.048051856 0.030624615 -0.023947658
0001d0 a6 0d 7e 3c 60 c2 e0 3a de a9 37 3d b1 23 f3 bc
       0.015506184 0.0017147772 0.044839732 -0.029680105
0001e0 9e 1d b9 3c c6 67 0b 3d e3 bf 53 3d f8 f0 1e 3d
       0.02259713 0.034034513 0.05169667 0.038804024
0001f0 d3 22 b6 3c 33 7b 19 bd 9f 60 c6 bc 84 a2 98 bd
       0.022233402 -0.037471008 -0.024215994 -0.074528724
000200 9d 04 24 bc 29 b4 4d bd 4d 83 78 3c c9 ea 40 3d
       -0.0100108655 -0.050220642 0.015168023 0.04709891
000210 58 60 97 3b 0e fc 3d bd be e0 66 bd 85 b2 bc 3c
       0.0046196394 -0.046382956 -0.056366675 0.023034343
000220 1f 9b 93 3c 78 20 18 3d 12 88 6f 3d 46 a1 fd 3c
       0.018018303 0.03714034 0.058479376 0.03096069
000230 88 39 25 bc 1a 0b 05 3d a1 87 99 3c 3d 6c 48 3d
       -0.010084517 0.03248129 0.01874143 0.04893135
000240 d8 5c 69 3c ea 41 16 3d fd f8 71 bb 25 12 4f 3d
       0.014243327 0.036683954 -0.003692209 0.050554413
000250 2d 08 06 bd 41 50 51 b9 47 c0 c0 bc dc 81 3a bd
       -0.03272264 -0.0001996169 -0.023529185 -0.045534
000260 b4 c5 10 bc e5 f1 3b bd e9 d5 60 bd 1c 82 c8 bc
       -0.008836199 -0.045884985 -0.0548915 -0.024476103
000270 69 91 50 3d 95 93 8d 3b 12 28 11 3d 76 39 b7 3c
       0.050919924 0.0043205717 0.035438605 0.022366267
000280 c0 e6 1a bd da 80 31 bd 95 43 d6 bc 34 2d f4 3c
       -0.037817717 -0.043335773 -0.026155272 0.02980671
000290 40 ed 2e 3d 17 b1 a0 bc 5e 7e 47 bd 7f 77 17 bd
       0.042706728 -0.019615693 -0.048704498 -0.036979195
0002a0 7a a9 97 bc f9 b8 5f 3b 97 7a 97 bc e7 db 1f 3d
       -0.01851343 0.0034137352 -0.018491073 0.039028075
0002b0 27 25 01 bc be fc 47 bc 94 74 98 bc 21 e6 21 3d
       -0.007882393 -0.0122062545 -0.018610276 0.03952611
0002c0 8f 9c b1 bb d3 69 b1 3a 69 d4 2e 3d 6d 9a 65 3c
       -0.0054202746 0.0013535566 0.04268304 0.014013869
0002d0 d4 92 45 3c 80 b7 ff 3b d4 17 4d bc 27 4f a4 3b
       0.012058932 0.0078038573 -0.012517888 0.0050143185
0002e0 63 93 45 3b 6a 52 61 bc 93 0c ce bc f5 e9 53 bd
       0.0030147664 -0.013752559 -0.02515248 -0.05173679
0002f0 72 46 16 bd d6 61 bd 3c d3 a1 0c bb e9 4e 73 bc
       -0.036688276 0.02311794 -0.002145876 -0.014850357
000300 c0 57 26 3d df 25 14 3b db 91 7b 3d 6f b5 3b bd
       0.04061103 0.002260558 0.061418395 -0.045827325
000310 95 a8 d0 3c 33 ab 50 bc 38 41 80 3d 81 5d ab 39
       0.025471011 -0.01273613 0.062624395 0.00032685327
000320 98 e5 c4 bb 5b a3 37 bd 33 03 8d bd 3f c3 7e 3c
       -0.006008815 -0.044833522 -0.06885376 0.01554948
000330 1c 98 cf 3c 4d 03 57 3d 09 61 d0 bc 0c 59 af 3c
       0.025341086 0.052493382 -0.025436895 0.021404766
000340 12 a7 18 bd 37 28 6f 3d 4d 8f 49 3c 3c 7b bf bb
       -0.037268706 0.05838796 0.012302232 -0.005843548
000350 9a a0 b8 bc 38 d2 f1 3c 68 18 92 bb ea f8 2d bc
       -0.022537518 0.029519185 -0.004458476 -0.010618428
000360 e6 6e 23 bd 9a 55 e7 3c 81 56 1d bd 81 e5 34 bd
       -0.039900683 0.02823906 -0.038412575 -0.044164184
000370 17 bf bb bc 86 8a 19 3d 68 62 99 bc 44 d2 97 3c
       -0.022918267 0.037485622 -0.018723682 0.01853288
000380 12 9d 2b 3b 95 7e b4 3c b3 ef cc 3c b8 61 42 bd
       0.002618615 0.022033015 0.025016641 -0.047456473
000390 73 8e a9 bc b3 c2 4f bd 34 0a 81 3b db cb f8 bb
       -0.020697808 -0.05072279 0.003937984 -0.007592661
0003a0 3b 98 cb 3c c9 30 43 3d db 14 36 bc de 30 35 3d
       0.024852863 0.047653947 -0.011113371 0.044236057
0003b0 7a 6f e8 bc ee a9 18 3d 94 c3 8e 3b 08 11 f1 bc
       -0.028373469 0.037271433 0.004356811 -0.029427066
0003c0 d6 f0 34 bc c2 1d 92 bc c2 d0 40 bd 1e 68 c3 3c
       -0.011043748 -0.017836455 -0.047074087 0.023853358
0003d0 e6 82 8d 3c 64 ff 04 3c 4c 1a 36 3c eb 8c 38 bd
       0.017274331 0.0081175305 0.011114668 -0.045056265
0003e0 bd 3f c2 bc 80 6c 8d 3c 63 12 8e 3c fe 83 88 3c
       -0.023712033 0.01726365 0.017342752 0.016664501
0003f0 cb 87 a7 3c 8a 23 7b 3c b7 09 ac bc 3b 6a b3 bc
       0.020450493 0.015328297 -0.021000726 -0.02190124

bias f4 [6]
000000 68 73 cf bc ff cd 3d bc 36 38 eb bb 49 67 3a bb
       -0.025323585 -0.011584758 -0.0071783317 -0.002844291
000010 65 19 10 3c 01 a2 11 bd
       0.008795117 -0.03555489

weight f4 [6]
000000 e2 2c 80 3f 82 c4 78 3f 93 d9 7b 3f 9c eb 7c 3f
       1.0013697 0.9717485 0.98378867 0.9879701
000010 59 1d 7e 3f 8e 17 84 3f
       0.9926353 1.0319688

bias f4 [6]
000000 38 6a bb 3d 39 43 cd bb 02 35 d5 3d 84 d6 c4 3c
       0.09151119 -0.006264117 0.10410501 0.02402807
000010 19 de 2e bc 9a 63 84 3c
       -0.010673069 0.016160775

running_mean f4 [6]
000000 1e 40 d9 be 51 75 eb 3d 55 7e 2c bd ad d0 43 bf
       -0.4243173 0.11496986 -0.042112667 -0.7649029
000010 72 e0 00 bf 91 93 04 be
       -0.50342476 -0.12946917

running_var f4 [6]
000000 57 8b 5a 3e 45 8b 17 3f 2f 53 fd 3e eb 0d 09 3f
       0.21342216 0.59196883 0.49477527 0.5353686
000010 03 96 1e 3f 1d 5a 94 3e
       0.6194765 0.28975

weight f4 [1, 6, 5, 3]
000000 5b 42 2c bd cd 5c 3b bb 4f 57 d6 bd 19 08 41 3c
       -0.04205547 -0.002858925 -0.104658715 0.011781716
000010 38 ed 37 3d 4b 6d 3a 3c 9b 6e 9f 3c 7c ed e7 bb
       0.044903964 0.011378597 0.01946192 -0.007077871
000020 b8 70 84 3c 79 1c ab bd 42 86 7a bd 44 46 07 be
       0.01616703 -0.0835504 -0.061163194 -0.13210398
000030 60 be 89 bd ee 94 0b bd 98 a9 6d bc d1 b0 9c bd
       -0.06725764 -0.034077577 -0.014505766 -0.076509126
000040 82 dd e3 3d 2a 8f 4d 3d 5c 1c 73 3d 79 6f a5 bd
       0.11126234 0.05018536 0.059353217 -0.08077902
000050 1d f3 91 bd 43 f7 d6 bd 7e 4a 7b bd 24 f3 61 3d
       -0.07126448 -0.1049638 -0.06135034 0.055163518
000060 40 ba 9a 3d cc 0f 9e 3d a2 09 75 3c 19 0b d9 3c
       0.075550556 0.07717857 0.01495591 0.02649455
000070 79 2a ca bc 8d 75 e0 3d bc e4 b7 bd cd d7 94 bc
       -0.024678456 0.10959921 -0.089791745 -0.018169308
000080 aa 34 d8 bc e9 f1 9d 3d bd 8c 7f 3d c2 39 51 bd
       -0.0263923 0.07712156 0.062390078 -0.051080473
000090 dd 5a fa bd 12 d7 b2 bd da 16 cf bd ca be 7e bd
       -0.12224362 -0.08732428 -0.101117805 -0.06219367
0000a0 91 fc 75 3d 19 d4 7f bd 1a 7a 93 bc 4c 74 8e 3d
       0.06005532 -0.06245813 -0.018002558 0.069557756
0000b0 51 75 35 bd 14 d8 c4 bd 81 09 59 3a 5c 74 8c bd
       -0.044301335 -0.09611526 0.0008279309 -0.06858131
0000c0 85 82 99 bd 63 60 0a 3d 2b 97 17 bd 49 6d 0f bb
       -0.07495598 0.033783328 -0.0370094 -0.0021885207
0000d0 86 ea 85 3d 0b c7 39 3d 7a 7d 72 bd d7 5b 78 3c
       0.065388724 0.045355838 -0.059201695 0.015158615
0000e0 58 96 0b 3c ee 50 aa bd 0e db 8d bd e4 db ec bd
       0.008519731 -0.08316217 -0.06926547 -0.11565378
0000f0 f6 77 85 3d ae d6 db bd 7d 1c 9a bd da 71 b1 3c
       0.06517021 -0.10734306 -0.07524965 0.021660734
000100 a0 2f 8e bb 42 13 0c bd 5e 41 01 bd aa 46 60 bd
       -0.0043391734 -0.034198053 -0.03155648 -0.05475489
000110 72 2d 6c bd 31 46 bd 3d 50 c0 aa 3d 20 ea b1 3d
       -0.057660528 0.092419036 0.08337462 0.08687234
000120 5b df ac 3d 41 aa 05 3c 8f ea 18 3d 82 bf e0 3d
       0.08441039 0.0081582675 0.037333068 0.10974027
000130 24 5d b7 3d 06 49 19 3e f4 6f 61 3d 77 72 62 bd
       0.08953312 0.14969262 0.055038407 -0.055284943
000140 fe 03 39 b9 db ed c6 bd 78 68 a5 3c 0e 5e 0d bd
       -0.00017644462 -0.09713336 0.020191416 -0.034513526
000150 9e a5 0b 3d 2b 2d 90 bd a1 3c 75 bd 43 1a f6 bc
       0.03409349 -0.07039865 -0.059872273 -0.03004182
000160 85 36 6b 3d 34 f8 df bd
       0.05742504 -0.10936013
