source/models/MelodyTimbreCNN/model_256_20_0.002_MIDIsampledseen_evalmode_attempt3.pth (torch, 201935 bytes, 26 tensors)

weight f4 [6, 1, 5, 5]
00000000: c868 bebd 4d33 1dbd 00cf cabd 5149 0a3e
00000010: 3015 37be 57d3 c93d 03a3 febd 0ad7 783d
00000020: fafe 9b3e 47e6 e73c 8595 85bd c9b4 e83d
00000030: c3a2 f639 7557 883e 77dd 1bbe 4580 67bd
00000040: e786 c9bd 4080 323b d707 c9bc 7ac8 a93d
00000050: 7f38 3a3c e411 e3bd cc29 a73d d504 59bd
00000060: 180b e53d 26bc 0dbe 2dad 14bd 9c52 7ebc
00000070: d080 a33d 43cb a13d f2c4 763d 1452 c53d
00000080: b565 43bd 5a37 d53c e36e 4abd 9b6c 93bb
00000090: 10c4 e93c d3a6 1fbe c9a7 2d3e 9fd6 ef3d
000000a0: d81e d2bd 4df2 9dbd 51a6 023e 6d01 a13d
000000b0: b421 123d cafe a6bd 17d6 cfbd 1183 2ebd
000000c0: f543 af3d 5778 053e 1678 76bd 4afe f13d
000000d0: c1a6 04be 2eee ee3d c6aa c03c bb61 86bc
000000e0: 5f92 42bc 0016 ddbd 6d79 96bd 7672 623e
000000f0: 1a1f 373e 2444 d63d 0b8f 033e 8dc8 12be
00000100: 4e1a 6a3d ce24 0bbe 9bfd 2cbe 55dc dd3d
00000110: 5a3a 4b3e 2b48 6bbe 2fbf 2bbe fedf ffbc
00000120: 1684 863c 606d 9fbd 7f6f c2bd 592d 313e
00000130: 94be 583e ea11 7d3d 0076 2ebd 6724 96bd
00000140: 763c 4a3e 0a78 1fbd 0141 e8bd f55b a4bd
00000150: 2fe2 0e3e b94f 0f3e f921 3dbe 1500 d2bb
00000160: ad2c 063d 5bef 1abc 0858 763e 8784 52bd
00000170: 615c c63d de13 02be 79e7 a63d 2f2b bb3d
00000180: a328 20be 348f d23d cbaa 4e3e 9587 60be
00000190: ffa1 0ebe b9d7 923d 323e 23be 566f d0bd
000001a0: 4d75 5abc 139d 2d3d e08d 473d 97c6 d53b
000001b0: 052f d8bd 7f3f 1fbe 4be6 1e3e bf80 73bd
000001c0: 4424 43bd 1cfa 4cbe 24f6 053e bd6f 0d3d
000001d0: fdf2 613e 9cab 1d3e 3910 833d 13ec 26bd
000001e0: 108b 123e 3008 533e 6ba9 00be 8334 27bd
000001f0: a74d 22be aad1 53bd 145e 9dbd 0bf5 40be
00000200: 3aed f4bd 08ca edba cfdd a83c 0823 353e
00000210: dd1d 1d3e 5f2a 8bbd c713 9b3d bdd8 14be
00000220: a5ec 6bbd 507d 943d d8c1 b23c ca3c d83d
00000230: 4a1e 383e f396 383e 20cd 2e3e 3143 633c
00000240: 3c97 3dbd 6737 c93d fe63 323e 82f1 38bd
00000250: ba19 053e 5953 3bbe
-0.09297329 -0.038379002 -0.09902763 0.1350453 -0.17879176 0.09854763 -0.12433436 0.060751952
0.3046797 0.028308047 -0.06522659 0.11362607 0.00047042043 0.26629224 -0.15221201 -0.05651881
-0.09840184 0.0027237087 -0.024539871 0.08290191 0.011366009 -0.11087397 0.08162269 -0.052983124
0.111837566 -0.13841304 -0.036297966 -0.015522625 0.079835534 0.07900097 0.060246415 0.09634796
-0.047704417 0.02602737 -0.049422156 -0.0044990308 0.028535873 -0.15590982 0.16958536 0.117108576
-0.10259789 -0.07712231 0.12758757 0.078616 0.035676673 -0.08154066 -0.10148256 -0.042605463
0.08557884 0.13034187 -0.060173117 0.1181608 -0.12954237 0.11666523 0.023518931 -0.016404023
-0.011875718 -0.10795212 -0.07347379 0.22113976 0.17882958 0.104622155 0.12847535 -0.14334317
0.057153992 -0.13588259 -0.16893618 0.108330406 0.19846478 -0.22976749 -0.1677215 -0.031234737
0.016420405 -0.077845335 -0.094939224 0.17302455 0.2116645 0.061784662 -0.042593002 -0.07331162
0.19749627 -0.038932838 -0.113405235 -0.08025352 0.1395347 0.13995256 -0.18469991 -0.006408701
0.03275745 -0.009456481 0.24057019 -0.05139592 0.09685589 -0.12702891 0.08149619 0.09139096
-0.15640502 0.1028122 0.2018234 -0.2192672 -0.13928984 0.07170052 -0.15941694 -0.10177486
-0.013333631 0.042386126 0.048719287 0.006523918 -0.10555843 -0.15551566 0.15517537 -0.059448954
-0.047642007 -0.20017284 0.13082176 0.03453039 0.22065349 0.15397495 0.063995786 -0.04075248
0.1431086 0.20608592 -0.12564628 -0.040821563 -0.15849935 -0.051713623 -0.076839596 -0.18843476
-0.1195931 -0.0018141875 0.02061358 0.17689145 0.15343423 -0.06795191 0.075721316 -0.14535804
-0.05759873 0.07250464 0.021820948 0.105584696 0.17980304 0.18026333 0.17070436 0.013871
-0.046286806 0.0982502 0.17420956 -0.045152195 0.12998095 -0.18293513

weight f4 [6]
00000000: b1d7 813f f746 783f ccf6 843f ed5c 713f
00000010: 0769 863f 0605 763f
1.0143949 0.96983284 1.0387816 0.9428242 1.0500802 0.96101415

bias f4 [6]
00000000: f846 58be fd9b c33c 0aee 1bbd 3513 3dbd
00000010: 54c8 903c 7640 e2bd
-0.21120822 0.023878092 -0.03806881 -0.046160895 0.017673649 -0.11047451

running_mean f4 [6]
00000000: 2da1 7539 a729 8b3a cea8 8e3b bd12 823b
00000010: f4c2 cdbb b77e 83bb
0.00023425063 0.0010617272 0.004353619 0.003969519 -0.0062793437 -0.0040129083

running_var f4 [6]
00000000: 2c9b d73d 471f 163e be54 8b3d 3f1b e33e
00000010: 7659 353e e0d7 cc3e
0.105276436 0.14660369 0.06803273 0.44356725 0.17709908 0.4000845

weight f4 [18, 6, 5, 5]
00000000: 02ba b8bd 5e58 d3bb d906 eebb e0d8 66bd
00000010: 1dc8 8abd 2622 03be 810a c7bd f17e b03b
00000020: 6717 c93b c542 723d e775 00bb 8a47 493d
00000030: 0a0f 97bd 9dfd 81bd 2b25 cb3c 9163 963d
00000040: 9895 a53d f313 6fbd 9bc9 9dbc 6204 193d
00000050: 92a4 efbc 83eb 3c3d 8984 403d 7f47 bd3d
00000060: 3573 b63c 484a b1bd ca8b febc 4dca 81bd
00000070: 3a66 bfbd f6ea a93d 4a91 e33c 3fd8 b1bd
00000080: b976 7fbd e931 6fbb f38f 743d b8e8 dc3c
00000090: 7167 833d dbb0 c2bd 3b44 a03c ec21 a6bd
000000a0: eac2 98bd cdcc a3bc 4938 03bc 0e43 143d
000000b0: df4f a8bd f150 e6bc ffab f1bc ffd4 c93d
000000c0: b79e 2a3e 0a26 1dbb 68d6 c0bc 6360 1f3e
000000d0: 419c 713d 838f a6bd 088c 083e af24 5abb
000000e0: 653f 63bd d208 123d afd0 1d3d 11d6 97bd
000000f0: 32ab 6b3d a48b 1d3e ff44 3f3d 258f f13d
00000100: 4ce4 8b3d 167a 8e3d e824 303d 2ea1 a43b
00000110: f1c2 023d 30ca dabd d626 813d fdd5 9abd
00000120: 0cad f3b8 b688 44bd c789 763d 9b7a 65bb
00000130: 2413 4a3d 9fbe c8bd ed5a 7fbd e747 0dbe
00000140: 225c 1b3c 87ac 623d bea3 433d ec78 e2bd
00000150: 2323 96bc 1915 8a3d 8361 bbbc 7937 493c
00000160: 273e 1cbc b86d a8bd e755 ef3c 6eae a5bd
00000170: d3ac 82bd 86de 5ebd 3872 bd3c 213f 643b
00000180: 225c 8f3d 2051 123c a981 4dbd b80e 1dbd
00000190: 9556 9cbd 69de 983c 41b4 f6bc 59b2 c3bc
000001a0: 3224 cbbd dc6d 90bc 080e ad3d d6f6 f33d
000001b0: d034 dc3d 1d7e ba3d 0016 d4bd 2fe0 33bd
000001c0: 04e9 233d 352a 94bc c611 adbd 8dac 193d
000001d0: 09b7 81bd 25f7 ba3d c82b c6bc 6340 1f3d
000001e0: 1081 86bd 7e63 a5bc e95c 383d e750 d5bc
000001f0: 05e2 b13d 73ff ee3c a6e2 e03b 75e5 e7bd
00000200: 1494 d3bd 5305 a3bd 975f 3b3d 714c 2a3c
00000210: 1137 8b3c c988 0f3c 4101 5abd c36c 913d
00000220: e3b6 8a3c 5c2e b2bb dbec 073d 9091 c43c
00000230: 48c3 1cbc 2d33 1d3d e382 c6ba bdde 833d
00000240: a5ca de3d 0a43 97bd 6a04 24bd 093b 9d3d
00000250: 585c 573d 8cbe b63d 46f6 393d c9b3 793d
00000260: e5f3 c83d 1647 3bbc 8fdb 253d da04 cfbd
00000270: 50ea febc a047 f23b 913b 9cbd e0f2 40bc
00000280: c3a8 173d 9e6c c83d c19f b73d 0e32 3b3d
00000290: 8966 9bbd d36d 3cbd 3caa 74bd d0ad 9abd
000002a0: 5b33 5a3d 14f6 69bd 2bd9 46bd 4074 c7bc
000002b0: 9676 3f3d bd2d b83d 9606 65bd f2ec 553d
000002c0: a3f3 c63c 0f42 15bd 0c60 c73d 638d 0bbd
000002d0: f2ed b5bc b0f0 4abb 1288 db3b 4520 37bd
000002e0: 3f21 ae3c e156 b63d 5761 423d adce d6bb
000002f0: b290 30bd 323d 9fbc 212d 4f3c e274 0e3d
00000300: 1468 aa3c 4b08 c8bc 4aa1 14bd 858d c7bb
00000310: 6154 bc3c aa72 74bc e6c4 453c e53f 8d3c
00000320: afba 1e3d 0160 a23d 8361 8f3d 0e62 ecb9
00000330: 6e80 23bd 09f3 2bbe 8e55 06bc 35b3 e5bc
00000340: 93bd f4bd 7f4b 9abc f3fc 723d f108 b53d
00000350: facd 5a3d 4755 34bd 39e2 ce3c d232 153d
00000360: b3d7 a13d f1d9 dc3d 580f 003d 3516 78bd
00000370: 1d85 c83d 0c27 aebc f3eb b33d c2b6 0cbd
00000380: b179 763d e56a 27bd da46 0a3d bacd 8e3d
00000390: 9bf9 063c 8187 a8bb 21e8 29bc 1af4 dd3d
000003a0: 9fa3 ed3d 678b e13c e49f 063d 4173 43bd
000003b0: 9b85 d0bc e189 573d fb6b b73d 8b69 ae3d
000003c0: 1f7e 9d3d 6c8e 3b3d d475 c23d b517 4e3d
000003d0: 1e17 bd3c 4522 48bd 2e3a 403d a984 293d
000003e0: b615 98bd 50d7 9dbd 3d18 0f3d 3eea 83bc
000003f0: e1eb 213c b7f4 ac3c 30a7 583d b027 b3bd
-0.09019853 -0.006449743 -0.007264 -0.056359172 -0.0677645 -0.12805995 -0.097188 0.0053862263
0.006136823 0.059145708 -0.0019601525 0.04914049 -0.07375915 -0.06347201 0.024797997 0.073432095
0.08085173 -0.058368634 -0.019261172 0.037357695 -0.029253278 0.04612304 0.047001395 0.092421524
0.022271732 -0.08656746 -0.031072516 -0.06337414 -0.0934567 0.08296768 0.02777924 -0.08683824
-0.062369082 -0.0036498255 0.059707593 0.026966438 0.06416214 -0.09506389 0.019563785 -0.08111939
-0.07459052 -0.019995118 -0.008009025 0.03619676 -0.08218359 -0.028114768 -0.02950096 0.09855079
0.16662107 -0.0023978972 -0.023539737 0.15564112 0.058986906 -0.081328414 0.13334668 -0.0033286025
-0.05548038 0.035652943 0.038529094 -0.07413877 0.05753631 0.153853 0.04669666 0.11794881
0.068306535 0.0695688 0.043003947 0.005024097 0.03192419 -0.106830955 0.063062355 -0.07560346
-0.000116193754 -0.04798194 0.06018999 -0.0035015706 0.04933466 -0.09801983 -0.062342573 -0.1379696
0.009482415 0.055340316 0.04776358 -0.1105822 -0.018327301 0.06742305 -0.022873646 0.012281292
-0.009536303 -0.08224052 0.029215766 -0.080899104 -0.0638062 -0.054411434 0.023125753 0.0034827667
0.06999995 0.0089304745 -0.05017248 -0.038344115 -0.07633702 0.01866074 -0.030115249 -0.023888754
-0.09919013 -0.01763051 0.08449942 0.119123146 0.10752261 0.091060854 -0.10355759 -0.04391497
0.040017143 -0.018086532 -0.08450656 0.037518073 -0.06333739 0.0912917 -0.024190798 0.038879763
-0.065675855 -0.020189043 0.04501048 -0.026039554 0.08685688 0.029174542 0.006862956 -0.11323062
-0.10330978 -0.0796 0.04574546 0.010394202 0.016994031 0.0087606395 -0.053223852 0.07100823
0.01693291 -0.0054376554 0.033184867 0.02399519 -0.009568043 0.038378883 -0.0015145208 0.06438968
0.10878495 -0.073858336 -0.040043272 0.07677276 0.0525783 0.08923063 0.04540088 0.060962472
0.09812144 -0.011430522 0.04049259 -0.10108347 -0.031117588 0.0073937923 -0.07628549 -0.011776656
0.037026178 0.09786342 0.089660175 0.045702033 -0.075879164 -0.046003174 -0.05973266 -0.07552683
0.053271633 -0.057119444 -0.04854695 -0.024347425 0.04674395 0.08993099 -0.055914484 0.05222792
0.024286097 -0.03643995 0.09735116 -0.034070384 -0.022208188 -0.0030966215 0.0066995705 -0.04470851
0.021256087 0.089032896 0.04745611 -0.0065553994 -0.043106742 -0.01943836 0.012645037 0.034779437
0.020801581 -0.024418017 -0.03628663 -0.0060898685 0.022989454 -0.014919916 0.01207087 0.017242381
0.038752254 0.079284675 0.07001021 -0.00045086484 -0.039917402 -0.1679193 -0.008199109 -0.028039554
-0.11950221 -0.018834827 0.059323262 0.08839596 0.05341909 -0.04402664 0.025254356 0.03642542
0.079024695 0.107837565 0.031264633 -0.060568053 0.09791014 -0.021258853 0.08785238 -0.03435398
0.060174648 -0.040873427 0.033758976 0.06972833 0.0082382215 -0.0051431064 -0.010370285 0.10837574
0.11603474 0.027532293 0.032867327 -0.047717337 -0.025454333 0.052621726 0.089561425 0.085162245
0.07690071 0.04579012 0.0949513 0.050315578 0.023082312 -0.048860807 0.046930484 0.04138628
-0.07426016 -0.07707083 0.034935225 -0.016102906 0.009882898 0.021112783 0.052893817 -0.08747804

weight f4 [18]
00000000: 3565 833f 2752 503f 51a0 4e3f dbad 463f
00000010: 30d0 8a3f df67 883f 58dd 863f 5716 8c3f
00000020: f489 7e3f 6f81 853f c9ee 863f 3ac6 923f
00000030: 206b 813f 4bd1 7f3f 0cba 863f f217 583f
00000040: c9e5 7d3f b629 843f
1.0265261 0.81375355 0.80713373 0.7760903 1.0844784 1.0656699 1.0536299 1.0944318
0.9942925 1.0430125 1.0541621 1.1466744 1.0110817 0.9992873 1.0525527 0.8441154
0.9917875 1.0325229

bias f4 [18]
00000000: 8aea 96bd 7e02 50be 08aa 36be 2ad0 54bd
00000010: 11d6 47be 4743 bebd 771d 9bbd 6a52 e63c
00000020: 7ab7 adbd 3df5 0abe 5aa0 64bd ee20 abbd
00000030: c6fb 22bd e6ab 06be a05d b9bd 2445 35be
00000040: 5879 bbbd 2634 e8bb
-0.073689535 -0.2031345 -0.178383 -0.051956333 -0.19515254 -0.09290176 -0.07573979 0.02811547
-0.08482261 -0.13570113 -0.055816986 -0.0835589 -0.03979089 -0.13151512 -0.09051061 -0.17702156
-0.09154004 -0.0070862947

running_mean f4 [18]
00000000: 169e ad3d 524c 813f 39c4 473f 22c7 533f
00000010: 4382 8ebe f3eb 7bbf 80e6 58bf 378a f6be
00000020: c9cc 5dbe bf80 f6be d701 38bf 6756 f0bd
00000030: 4ca3 16bf 9a72 1a3f a14d aebe 16e2 c03d
00000040: ff78 4cbf 5a4e 18bf
0.08477418 1.0101416 0.78033787 0.8272573 -0.27833757 -0.98406905 -0.84726715 -0.48152325
-0.2166015 -0.481451 -0.7187781 -0.1173523 -0.5884292 0.6033112 -0.340436 0.094181225
-0.79872125 -0.59494555

running_var f4 [18]
00000000: 6cb6 2d3f b98c ba3f e206 083f ae70 433f
00000010: 7bbd 903e 49bf 273f 8d6e 393f aa5a 703f
00000020: 3bf5 633e d3da a03e 9a6c 4b3f f232 493f
00000030: 8269 e33e aca6 183f cccd a63e a5c7 913f
00000040: d358 9b3f 7d89 273e
0.6785648 1.4574195 0.531355 0.7634381 0.28269562 0.65526253 0.7243431 0.9388834
0.22261517 0.3141695 0.7946259 0.7859336 0.44416434 0.5962932 0.32578886 1.1389052
1.2136482 0.16361041

weight f4 [45, 18, 5, 5]
00000000: 55ea 2c3d a18f 7b3d 9120 ae3c d4b6 193c
00000010: e850 a63b 32e7 8dbc 5036 923c d8f7 a7bd
00000020: dd19 9f3b de37 a03c 8c13 373d 03fe 28bd
00000030: 66a3 30bc b6b0 a73c ddcd 2bbd 48f2 833c
00000040: 64be 8e3b 812b 633c 5d20 a13d b357 cdbb
00000050: 459b 79bc 9200 18bd 499f 86bd 82f4 bdbd
00000060: 1cbe 74bc 6bc8 8bbc 223c fdbc a402 253d
00000070: af61 23bc ed32 18bc da49 b0bc 0b13 3dbc
00000080: c1b4 113c 43a6 79ba db53 3e3d 4c50 0abd
00000090: d84f 513d 6fef 203c fa34 21bc 211c 11bd
000000a0: 5aee 65bb 7bfd 463d 8b54 9e3d d494 e73c
000000b0: 3344 743c 019e f03c 6a23 fd3b 4341 c0bb
000000c0: 3f2c a6bb 56bd 7d3c df5a 70bc 3da4 46bc
000000d0: d131 963d 5a5a 633d 94cc c3bb 862c f6bb
000000e0: 2195 cdbc 5d31 81bd e900 23bc 77cd e7bc
000000f0: 6b33 5b3d 429d 8d3d 6865 03bc ca1a ac3b
00000100: 40ae 713c b2a3 243d a375 2b3d e305 6f3d
00000110: 453f 403d d4a2 2a3c 225a 33bc 0c0c a93c
00000120: dd1c 2f3d 3076 6f3b f5c4 25bd 8592 81bd
00000130: cfcf e7bb 5eb2 72bc 1e2c 973c ffd3 9b3c
00000140: b4b4 833c 7a1d 6b3c a09b 1a3c 4f0f 213d
00000150: 78db 9dbc 5de6 253d 2ef5 553d c434 febc
00000160: d0e6 c8bc ca9c f2bb 1ed8 053d 0a6b 52bd
00000170: 9af6 3a3c 70ea 843c c634 52bc d455 613b
00000180: df27 b4bc afc8 a7bd 605e 97bc f83d 3dbc
00000190: 8601 243d aa54 babc 3f4e 093e 5bfd 373d
000001a0: c7e8 603d 6da3 83bd 12dd 833c 0875 4dbd
000001b0: 53b4 93bd 9cf2 c4bc 824c e1bb 5f9b b33d
000001c0: 4a5b 31bb 46ca d7bc b255 a4bb a18f 413c
000001d0: cecb 0d3c 19cf d53c e9b1 193d a54b 6e3c
000001e0: 2258 1c39 8238 ca3d 6c04 003d ed59 65bc
000001f0: 820c 803c 2f3a c0bc d86a 56bd 84ac 15bd
00000200: f9ef 653b 6f7f 48bd e5f1 49bd df50 c53c
00000210: acb8 6abd 469c 903b 31a4 61bd b975 8a3c
00000220: d3e8 22bd 057d 19bd d518 54bd a8d6 2dbd
00000230: 2f75 7b3d 7ea6 dcbc 9f5f 803d 2239 7437
00000240: a320 153d 3a58 b83c 9898 083d f6bd 403c
00000250: 3167 33bd 5215 0a3c 7c5e 38bd b787 87bb
00000260: aa3b 45bd e81e 1b3b c500 4bbd a424 f5bc
00000270: 2e73 a3bd d3db aabd 8ce8 bfbd c47b 1cbe
00000280: e2f0 613d bbc0 283d c49c 49bc 759a 1d3d
00000290: 7c11 3b3c 46c2 fc3d e2b1 f73d c761 013e
000002a0: f46e 6e3d a9fb 193d 9081 b13d 3b75 013d
000002b0: f19b 07bd af14 0bbd 1170 adbd 931f 06bd
000002c0: 0783 e13c 55e4 3d3d 2a52 77bd d259 b0bd
000002d0: 21a3 64bd f58d 8abd ae81 c5bd 89e8 d2bc
000002e0: ef10 3fbd 7959 5ebc a386 cd3c 3980 a0bc
000002f0: cc3e 013d 4ee4 313c 40c1 593d fcf2 fe3d
00000300: b228 2a3d 3125 863c 7623 523b 1a09 ee3b
00000310: 9d2f 463d 75b6 ac3c b830 afbd dfbc c43c
00000320: 30d0 6d3c 9451 6f3d 1d5b 9e3b 2e6a 453c
00000330: dd74 88bd 5e6e bfbc 3a8d 6e3c 4815 d0bb
00000340: 71d5 9f3c b041 733c f63c b7bd 9f55 71bb
00000350: ab7c e93c 4464 ac3b 9a38 8abd 0772 2e3d
00000360: 2d85 2e3c 0171 493d a348 0abd 5883 b0ba
00000370: 9647 683d 49e2 103e edec 153e 4843 d53d
00000380: 8e40 423d 9dce 503d 27e2 58bb 3eee 5cbd
00000390: 8c5e 6fbd 53da 93bc 71cb 95bd 5d9f 693c
000003a0: 8512 d23c f630 493d c598 6fbd a1e1 813c
000003b0: d045 56bc 5b0b 36bd 9267 e8bc 7e45 9abd
000003c0: 6898 213d 8c7f 8bb9 742b 28bc 28a4 303d
000003d0: 897a b73b 4b68 273c 77fb 9f3d fe34 533c
000003e0: ab7d a03c 133a e93c 042f b43d 4033 473c
000003f0: 5bda a03d d6a9 743d c019 793c 26c9 f43b
0.042215664 0.061416272 0.021255763 0.0093819685 0.0050755627 -0.017322157 0.017848164 -0.08201569
0.004855378 0.01955789 0.044696376 -0.04125787 -0.010781145 0.020470005 -0.041944373 0.01610674
0.0043561924 0.013865353 0.07867501 -0.006266558 -0.015234773 -0.03710992 -0.0657335 -0.09275152
-0.014937904 -0.01706334 -0.030912463 0.04028572 -0.00997202 -0.009289485 -0.02151959 -0.011540185
0.008893193 -0.0009523371 0.04646669 -0.033767983 0.051101536 0.00982271 -0.009839291 -0.035427216
-0.0035084696 0.04858158 0.07730969 0.028269209 0.014908838 0.029372217 0.007725169 -0.005867155
-0.0050711925 0.015487036 -0.014670103 -0.012124118 0.073337205 0.055506088 -0.0059753153 -0.007512632
-0.025095524 -0.063082434 -0.0099489475 -0.028296215 0.053515833 0.0691476 -0.008019783 0.005252217
0.014751017 0.040195175 0.041860234 0.058355223 0.04693534 0.010414798 -0.010946782 0.020635627
0.042752136 0.003653895 -0.040471036 -0.063267745 -0.0070743333 -0.014813034 0.018453654 0.019021986
0.016077377 0.0143502895 0.009436518 0.03932124 -0.01926969 0.040502895 0.052235775 -0.03103102
-0.024524122 -0.0074039446 0.03267681 -0.05137161 0.011411333 0.01622507 -0.012829965 0.0034383433
-0.021991668 -0.08192574 -0.018477619 -0.011550419 0.040040515 -0.02274545 0.13408755 0.044919353
0.054909494 -0.06427655 0.016096625 -0.050160438 -0.072121285 -0.024041466 -0.0068755755 0.08769869
-0.002706247 -0.026341569 -0.0050150985 0.011814029 0.008654548 0.026099728 0.037523184 0.014544402
0.00014910151 0.09874059 0.031254217 -0.013998491 0.015630964 -0.023465244 -0.052347988 -0.036541477
0.0035085662 -0.048949655 -0.049302954 0.024086414 -0.057305023 0.0044131605 -0.055088226 0.016901838
-0.03977282 -0.037472744 -0.051781494 -0.04244104 0.06139105 -0.026934858 0.06268238 1.4556836e-05
0.036408078 0.022503007 0.03334865 0.01176404 -0.043799583 0.008427935 -0.045011982 -0.0041360515
-0.048152603 0.0023669545 -0.04956128 -0.029924698 -0.07980953 -0.083427094 -0.09370527 -0.15281588
0.055161364 0.041199427 -0.012305442 0.03847738 0.011417743 0.12341742 0.12094475 0.12634955
0.058211282 0.037593517 0.0866729 0.03160594 -0.0331077 -0.033955272 -0.084686406 -0.032744955
0.027528299 0.046360333 -0.060381092 -0.08610882 -0.055819634 -0.067653574 -0.09643875 -0.025745647
-0.04664701 -0.013571137 0.025088614 -0.019592391 0.03155403 0.010857655 0.053162813 0.12448689
0.041542716 0.016375156 0.0032064593 0.0072642686 0.04838525 0.021083096 -0.08554214 0.024015842
0.014514968 0.05842741 0.004832639 0.012049241 -0.06662915 -0.023368057 0.014560038 -0.006350193
0.019510956 0.014847204 -0.08947174 -0.0036824716 0.02850183 0.005260976 -0.06749077 0.042589214
0.010651869 0.049180035 -0.033760678 -0.0013466878 0.056708895 0.14148821 0.14641161 0.104132235
0.047424845 0.05097829 -0.0033093782 -0.053938143 -0.058439776 -0.018048441 -0.07314194 0.014259187
0.025643596 0.04911896 -0.0584953 0.015854659 -0.013078168 -0.044444423 -0.028369699 -0.07532786
0.039451987 -0.00026607176 -0.010264266 0.0431253 0.005599324 0.0102177365 0.07811635 0.012891052
0.019591173 0.028470075 0.0879803 0.012158215 0.07854148 0.05973228 0.015203893 0.007470268

weight f4 [45]
00000000: a340 703f b643 7e3f a776 883f 7fda 753f
00000010: ad72 673f 02d3 743f ddf9 693f 0deb 803f
00000020: 752d 7d3f 789a 7f3f 0be1 6f3f 3f5d 863f
00000030: 3e9c 883f f92c 833f aab9 643f 72a8 883f
00000040: 732a 823f 70a6 8a3f a2d6 6f3f 39a6 713f
00000050: bbb3 843f 8a54 7e3f 6d7b 743f 71d3 833f
00000060: 209c 843f b15a 8f3f ab85 7d3f b0bd 743f
00000070: a154 8b3f e636 6e3f ac58 773f 9bff 7b3f
00000080: 4b52 753f e7ef 6d3f 047d 6b3f cbad 8c3f
00000090: 5839 623f 54a3 823f e73d 703f f650 893f
000000a0: 052b 6d3f e89d 7e3f e09e 833f 876d 913f
000000b0: 14a6 6d3f
0.9384863 0.9932207 1.066121 0.96036524 0.90409356 0.9563447 0.91396886 1.0071732
0.98897487 0.99845076 0.93702763 1.0497206 1.0672681 1.02481 0.893458 1.0676405
1.0169204 1.0832043 0.9368688 0.9439426 1.0367349 0.99347746 0.9550083 1.0298902
1.0360146 1.1199552 0.99032086 0.9560194 1.0885202 0.9305252 0.9661968 0.984369
0.95828694 0.92944187 0.91987634 1.0990537 0.8836875 1.0206094 0.93844455 1.0727832
0.9264377 0.99459696 1.028286 1.136155 0.9283154

bias f4 [45]
00000000: 4528 29be d05c 10be 063a 59bd 6814 16bd
00000010: bfa0 2ebe 4a4c bcbd 5232 20be aae8 28be
00000020: e4b7 91bd 1d26 0f3b 726a 41be 2120 1ebe
00000030: 3701 8cbd 9874 38be 8169 05be a7c2 42be
00000040: a56f 3bbe 8d59 6dbe 1146 0dbe b30a 39be
00000050: fbaa 34be 1ed2 eabd 76d6 9abd 71d0 86bd
00000060: 620a 11be 7e76 2dbe a1bc a9bd 5137 15be
00000070: 9578 42ba 9f1b ddbd 1c6b 0ebe a568 9cbe
00000080: 5d98 8fbd fcd8 53be 604d 29be e3fd 43be
00000090: cb76 42be 1925 25be c03e 0bbe 4abd f7bd
000000a0: b0b1 68be 67eb 9bbd 01d8 2abe 2d01 c8bd
000000b0: 345f 30be
-0.16519268 -0.14097905 -0.05303385 -0.036640555 -0.17053507 -0.091942385 -0.15644196 -0.16495004
-0.071151525 0.0021842786 -0.18888262 -0.15441944 -0.06836169 -0.18013227 -0.13028528 -0.19019566
-0.18304308 -0.23178692 -0.1379626 -0.18070488 -0.17643349 -0.11465858 -0.075604364 -0.06582726
-0.14164117 -0.16939732 -0.08287931 -0.14571883 -0.0007418481 -0.10796284 -0.13908046 -0.30548587
-0.07011483 -0.20688242 -0.16533422 -0.19139819 -0.18990628 -0.16127433 -0.13598156 -0.12096651
-0.22724032 -0.07613259 -0.16683961 -0.09765849 -0.17223817

running_mean f4 [45]
00000000: 426b d13f c4dc 1ebf 34c4 02c0 78d5 79bf
00000010: 30ad a3be 0a35 85bd 9e5c c9bf 0aa8 79bf
00000020: d18c 773e 98f6 4f3f 7c3e ccbd 90a0 6e3d
00000030: 64db b8be 3108 153e 2084 22bf 7246 83bf
00000040: 780a 163f facd 37bf cfe3 c73e a5ae b1be
00000050: ba73 a2bd e745 6f3f 7675 ddbf e303 4d3e
00000060: fe29 873f de9f c9bf a144 86bf 3b1f ae3f
00000070: eb00 a5bf 2252 33bf eee1 0ebe 9a35 92bf
00000080: 6c36 4b3f e4d6 663f 97bc d83f bdf0 f0bf
00000090: e808 12c0 7e9e 383f bebd 97be 14cc a5bf
000000a0: 937c 4f3e bf41 89bf 7964 833e bc38 9e3f
000000b0: fd78 86be
1.6360857 -0.6205561 -2.0432253 -0.9759135 -0.3196807 -0.06504257 -1.573139 -0.9752203
0.24174811 0.8123565 -0.099728554 0.058258593 -0.36104882 0.14553906 -0.63482857 -1.0255873
0.58609724 -0.7179867 0.39040992 -0.34703556 -0.07932229 0.9346604 -1.7301471 0.20021014
1.055969 -1.5751913 -1.0489694 1.3603281 -1.2890905 -0.700472 -0.13953373 -1.1422608
0.79379916 0.9017165 1.6932553 -1.8823467 -2.2817936 0.7211684 -0.2963695 -1.2952905
0.20262365 -1.0723189 0.25662592 1.2361064 -0.26264182

running_var f4 [45]
00000000: d563 043f c2e0 943f a952 d03f 115b 9c3f
00000010: 29bc 913f 25e1 923f f914 5a3f 2ea8 883f
00000020: e622 573f 970c 8a3f 302c 883f fa1a 533f
00000030: 7828 033f 566d 083f 7ce4 973f cc1c 453f
00000040: 5de7 273f 4370 043f 67a4 3e3f c1bd 883f
00000050: 132d 303f ba8f 9f3f 21d3 263f f34a 353f
00000060: 5c40 933f 2580 c43f 23fc 943f 0c7c a13f
00000070: 5d38 c93f d8ef 483f 6e26 7b3f d374 373f
00000080: 4649 2d3f eda4 263f 9e41 dd3f 8e49 a63f
00000090: 8a74 733f 4bbb 0c3f d78d 8a3f 1acf 423f
000000a0: c1cf 8a3f 6631 1c3f 727b 8d3f d068 b73f
000000b0: b5df 143f
0.5171483 1.1631091 1.6275226 1.2215291 1.1385547 1.1474959 0.8518825 1.0676324
0.84037626 1.0785092 1.0638485 0.8246304 0.51233625 0.53291833 1.1866603 0.76997066
0.6558741 0.517338 0.7446961 1.0682908 0.6881878 1.2465737 0.6516591 0.7081749
1.1504016 1.5351607 1.1639446 1.2615981 1.5720326 0.7849097 0.98105514 0.71662635
0.6768993 0.65095407 1.728565 1.2991197 0.950997 0.54973286 1.0824536 0.7609726
1.0844651 0.61012876 1.1053298 1.4328861 0.5815385

weight f4 [18, 45, 5, 5]
00000000: 21b6 b1bb 1982 99bc 416f bcbc d808 8cbc
00000010: 2f46 1fbd 6a46 273d 04c7 ca3b 8f4a c63c
00000020: 7b3c 9637 122a e13c 7f6d adbc 5191 423c
00000030: edae 9c3c e1c5 653c b336 a5bc e69e 62bc
00000040: f260 243d ab05 c0bc 8857 473d a59c 853b
00000050: 2311 9bbc 692a f13a 9d06 babc 325d 1dbb
00000060: 84f8 503d d218 303c ffd2 00bd b29a 15bd
00000070: a379 3e3d 9c5e 40bc 9dd7 d3bc 90d4 41bd
00000080: 2d50 07be 5f88 20bd d89a c3bd 1e8f 18bd
00000090: f4b6 393c 4298 16bc 7d71 513c d73a 0ebd
000000a0: 2fc6 aa3b 544e 07bc bd74 4bbc 096d ab3c
000000b0: 0718 26bc 29f7 29bc b09d 99bc 3c58 f2ba
000000c0: 758f a3bd fe9b 31bd 56e4 75bd ead1 c6bd
000000d0: e219 c9bd 69c5 dabd 4d43 ffbd 11be a5bc
000000e0: 3102 0fbc a8c7 203c f1cf 36bd f748 49bd
000000f0: 7faf 643c 2a5e 1e3d 34d6 7e3c 7bed c5bc
00000100: be1a 51bd 7e6b 133d dc1b cc3d c3ae 253d
00000110: 26c8 5e3c 8240 923d 8ed6 bb3d 2f65 893d
00000120: a301 083c 922c 823c 3be7 f03b 516b 97bd
00000130: 814c 9fbd e30d e7bd 9f30 e9bd 5ad0 a2bd
00000140: e133 1bbd c496 3cbd b4ad 97bd 6af6 7fbd
00000150: 3a78 10bd 0e9d 3a3d 201b 493d 557c 543d
00000160: 82a5 1b3d 18e5 f43d b024 303b 670b 36bb
00000170: 35e4 0ebd 1dfa bb3b 161b 5c3d d185 933d
00000180: bf7a 833d 6449 873d 46aa 543d 969f a93d
00000190: 2a11 46bc 56a0 febc 9efa 0cbd be4c 0cbc
000001a0: d00a edba 86b2 41bd 5e8a 14bc 7efd 7cbc
000001b0: eb2c 1d3d d4f4 5e3d e98a bb3c 0b0d cc3a
000001c0: 2abc 083c 7c28 113d 4829 933b 163b 52bc
000001d0: d514 b3bb 371e 25bb a288 063d 8a1f 193c
000001e0: 9590 73bc c8e4 09bc 2916 15bd 3b90 debc
000001f0: eff6 4ebc d367 8c3a 7485 36bc 9fa0 9bbc
00000200: 550b f5bb d223 5a3d 0110 25bb 6ad8 55bd
00000210: dbad b53c 5589 cd3c 858b 08bd ad7e 15bc
00000220: 99f1 143d bcc1 5b3c 8f90 6abb 84c0 553d
00000230: 2246 8d3c f89b 09bc 8ab0 7d3c 0d7f f13b
00000240: fd8b bbbc 2682 11bd 117c dc3b 506f e13c
00000250: e96d c43c 2f7f cabc ed77 bdbd 6d4e 97bd
00000260: ffd0 8dbd 91ac 75bd 7dad 81bc e7c3 363d
00000270: 693d 963d f56b 883d 718b 433d e143 1d3c
00000280: be99 143d 5229 303c c239 243c d95e 383d
00000290: db8b 723c 1efe 083d e89b 583d 0a0e 0f3a
000002a0: 60af 193d 33fc cb3d 92e9 a23b f2c0 36bc
000002b0: b7f8 a0ba ec48 0e3c 84f1 893c e45a 99bd
000002c0: 82c6 22bc b5f1 7ebc 3e0a 863c 255c 003c
000002d0: dbd1 87bc d8ad 1a3b d6e0 193d 06d0 4f3c
000002e0: 3009 7fbc cf71 31bb 4199 1bbd 6983 07bd
000002f0: d8bf c7bc 186c a23b 9342 e8bc cc2a 20bd
00000300: f3e2 0aba d6ff 603c 02d3 7dbc bd5b d03d
00000310: f2b4 303d 053f c3bb 7f7a e73c bb7a e7bc
00000320: 2cf1 9a3c 0cf1 cb3c b52d b93b 0bcd e53b
00000330: af52 1e3b 43b5 03be cdfc f6bd c804 adbd
00000340: c6e4 28be b1fa 22be 80fb 71bd cade 363c
00000350: 5a99 0fbc 9381 10bd 562d 34bd 1291 41bd
00000360: 0443 2cbd f0cb 973a 88e0 9abc ce5d aabd
00000370: 7301 f5bc 2f90 3dbc dacd 3e3c 7678 45bd
00000380: edf5 68bd 659c 603d 7200 c3bb 633e dd3c
00000390: 8e4f d83c 5da4 843d 8228 29bc 018b ecbc
000003a0: a281 dc3c 6554 863d a94d e039 6b09 63bc
000003b0: 9804 47bd 2b5e 44bb 0e6f bebb 30f7 bcbc
000003c0: e87d c73c c91d f83c 96e1 e53c 77ac 173d
000003d0: aa4c 633d 1e81 39bd 8a71 71bd b704 a63c
000003e0: 3274 103d 88c9 c73c d90f c0bb ef67 d33b
000003f0: c152 3c3c 162f b33c 205a 4dbb 651e 69bd
-0.005423323 -0.018738793 -0.023002269 -0.01709406 -0.03888529 0.040838636 0.0061882753 0.024205474
1.7909557e-05 0.027485881 -0.021170376 0.011875466 0.01912638 0.014024229 -0.020167684 -0.01383183
0.040131517 -0.023440203 0.04866746 0.0040775114 -0.01892907 0.001839948 -0.022708232 -0.0024011848
0.051018253 0.010748105 -0.03145122 -0.036524482 0.04650272 -0.011741307 -0.025859648 -0.047321856
-0.13214178 -0.039192554 -0.095510185 -0.037245862 0.011335123 -0.0091915745 0.012783405 -0.034724083
0.0052116136 -0.008258421 -0.012417969 0.020926015 -0.0101375645 -0.010373869 -0.01875195 -0.0018489431
-0.07986347 -0.043361656 -0.06003221 -0.09708007 -0.0981939 -0.10682184 -0.124640085 -0.020232232
-0.00872855 0.009813227 -0.044631902 -0.04914185 0.013957857 0.03866402 0.015554 -0.024161091
-0.051050894 0.035991184 0.09966251 0.04044987 0.013597524 0.0714121 0.091717824 0.06708752
0.0083011715 0.015890393 0.0073517836 -0.07393516 -0.07778264 -0.112819456 -0.11386227 -0.07949896
-0.037891272 -0.04604222 -0.07406178 -0.06249086 -0.035270907 0.045559935 0.049098134 0.051876385
0.037999637 0.11957759 0.0026877336 -0.0027777792 -0.034885604 0.005736603 0.05373677 0.07203258
0.06419896 0.06605795 0.051920198 0.08282392 -0.012089053 -0.031082314 -0.034418695 -0.008563219
-0.0018084887 -0.047289394 -0.009066192 -0.015441297 0.038372915 0.054432705 0.022893386 0.0015567852
0.008345643 0.035439 0.004491005 -0.01283147 -0.00546513 -0.0025195011 0.032845147 0.009345898
-0.014866014 -0.008416362 -0.036398087 -0.027168384 -0.012632116 0.0010712094 -0.011140216 -0.018997489
-0.0074781575 0.053256817 -0.002518654 -0.05220834 0.022177627 0.0250899 -0.03333618 -0.00912444
0.036363218 0.013412889 -0.003579173 0.05218555 0.017245356 -0.008399002 0.015483985 0.007369882
-0.0228939 -0.03552451 0.006728657 0.027518898 0.02397819 -0.024718849 -0.0925139 -0.073880054
-0.069246285 -0.059979025 -0.015829796 0.04462042 0.07335932 0.06661216 0.047740404 0.009598703
0.036279432 0.010752039 0.010023536 0.04501233 0.014803852 0.03344547 0.05288306 0.0005457109
0.037520766 0.099602126 0.0049716914 -0.0111544 -0.0012281154 0.008684378 0.016838796 -0.07488039
-0.009935023 -0.015560557 0.016362306 0.007834469 -0.01657956 0.0023602154 0.037567936 0.012683874
-0.015566155 -0.0027075892 -0.03798795 -0.033084307 -0.02438347 0.0049567334 -0.028352058 -0.039103314
-0.00052981003 0.013732871 -0.015492203 0.10173748 0.043141313 -0.0059584402 0.028256653 -0.028256765
0.018913828 0.024895214 0.0056512007 0.0070129684 0.002415817 -0.12862115 -0.12059937 -0.084481776
-0.1649352 -0.15915944 -0.05907774 0.0111615155 -0.008764589 -0.03527982 -0.04398855 -0.04725749
-0.0420561 0.0011581164 -0.018905893 -0.08318673 -0.029907918 -0.011570021 0.0116457585 -0.048210584
-0.056875158 0.05483665 -0.005950981 0.027007287 0.026405122 0.06476662 -0.010324599 -0.028874876
0.026917282 0.06559066 0.0004278247 -0.013857226 -0.048588365 -0.0029963355 -0.0058115786 -0.023067087
0.024352029 0.03028764 0.02806167 0.03702971 0.055493034 -0.04528915 -0.05894617 0.02026592
0.035267062 0.02438809 -0.005861264 0.006451599 0.011494339 0.021873038 -0.0031334236 -0.056913752

weight f4 [18]
00000000: f3d0 843f 9919 733f c64f 803f 483b 6e3f
00000010: e3c8 8a3f 2581 873f 1356 733f f473 853f
00000020: 742c 843f 302e 763f 01c2 713f ef18 843f
00000030: 67cc 833f d804 7b3f 88ef 813f 5432 883f
00000040: 766d 723f 5487 713f
1.0376266 0.94960934 1.0024345 0.93059206 1.0842556 1.0586287 0.95053214 1.0426011
1.0326066 0.96164227 0.9443665 1.0320109 1.0296754 0.98054266 1.0151224 1.0640359
0.94698274 0.9434712

bias f4 [18]
00000000: 44a8 b4bd 6db7 71bd 2cb1 eabd 3d9c c2bd
00000010: 0e42 4ebd eea9 67bc 837f 9b3c 65dc 633d
00000020: 54ba 06be d7a0 dcbc 2b30 e3bd f2e6 7cbd
00000030: 38fe 8bbd b074 d7bc 4c02 a6bc 8b6d 98bc
00000040: 71fc 5d3c 15bc 4ebd
-0.088211566 -0.05901282 -0.11459574 -0.09502456 -0.050355963 -0.0141396355 0.0189817 0.055630106
-0.13157016 -0.026932163 -0.11093172 -0.061743684 -0.06835598 -0.026300758 -0.020264767 -0.018606922
0.013548956 -0.050472338

running_mean f4 [18]
00000000: ac2e 003e 9cf6 44bd f83e a4c0 5eba 82bf
00000010: 2dbf 3fc0 c64b 38c0 2da5 25bf f445 09c0
00000020: 6b89 5cc0 2af2 5740 2f1d 9dbf 23f0 073f
00000030: f7a7 7ec0 7177 c73f 2e2a e73e e48a 15c0
00000040: 90a3 2540 0177 04bf
0.12517804 -0.048086748 -5.1326866 -1.0213125 -2.9960434 -2.8796248 -0.64705163 -2.1448946
-3.4458873 3.3741555 -1.2274531 0.53100795 -3.9790018 1.5583326 0.45149368 -2.3366022
2.588108 -0.51744086

running_var f4 [18]
00000000: 39a2 3f40 995e 5340 480a b940 9656 8940
00000010: 3884 6540 47c8 9140 9057 3340 dd43 9040
00000020: ad15 c540 ea41 0f40 bbeb 4b40 bc3d f13f
00000030: 337a c940 0392 3940 247b a740 4f3b 6b40
00000040: f9da 5240 c45d 8040
2.9942763 3.3026488 5.782505 4.2918196 3.586195 4.555698 2.8022194 4.508284
6.158896 2.238398 3.1862628 1.8846965 6.296167 2.8995368 5.233782 3.675495
3.294615 4.011446

weight f4 [6, 18, 5, 5]
00000000: 9a61 093d c046 49bc 1067 7abc c8fe 64bc
00000010: 2a76 0bbd 7cd0 3e3d 9081 92bc cce7 23bc
00000020: ab7c 0c3d 3ebe 4bbc 5677 bdbd d645 2e3a
00000030: 8224 35bd 635a d33c 39e1 87bd f210 88bd
00000040: 66ab 58bd 3ed4 1ebd 59e7 afbc afd0 63bd
00000050: cdce edbc a94c 9ebd 1b30 6ebd 1cf9 0abd
00000060: 6534 1bbd 1803 00bb 1702 173c dbb2 c43c
00000070: 9395 d43b 22e2 ad3c 53ef 0a3d 40c9 03bd
00000080: 277a 853b 132b bb3c 5f16 12bd 18f1 bcbd
00000090: 0489 d23b 7a70 03bd 6f63 4f3d e0cb 833b
000000a0: 4341 8abd a696 f5bc 6a61 c23b 0182 033d
000000b0: 6f68 5bbd c304 783d defa 5f3d 2535 813a
000000c0: a57f ddbb 8847 1c3d 1cd0 82bd 3372 0ebe
000000d0: 5274 83bc c853 99bd 7274 81bd a3da 09bd
000000e0: 7b52 27bd dcaa debc 5163 3bbd 2fae 37bd
000000f0: 3ce8 883d 6d2a c8bc 3085 3c3d bbd1 fc3b
00000100: a40d ef3c e758 0c3d 5d69 08bd 5b91 50bc
00000110: a07e 45bc c313 31bd ce26 ac3d 17e9 7f3d
00000120: 8cf4 0d3b c6fa 4b3d 1e5a ac3d c700 3bbd
00000130: d1a6 fe3c 27e9 ffbb aa88 abbc 7557 013d
00000140: 3bed 94bd ee75 5f3c 3f71 d4bc 6472 043d
00000150: 50fd 07bc 965e 843c 046b 893c 7841 fc3c
00000160: 104c 8dbc afed cabc 315e 923c 45d8 1cbd
00000170: 082b 4cbc 7902 c8bc 9bdc 8c3b 6e05 fe3c
00000180: bdc3 dfbc 67cd acbc a01d 01bd 6967 723c
00000190: 3709 13be 50f3 08bd 4345 86bc cb12 91bb
000001a0: a592 dfbc 869b c03d af3c a23d 3ab7 823d
000001b0: b2e4 e53c 1669 9b3d 217f c93c fce2 583c
000001c0: 4544 06bd 7cc6 cc39 2109 763d 73b7 263d
000001d0: ed9c 053d 515f 133d 42ec cdbc 8710 7c3c
000001e0: f181 443d 136c bdbc f936 833b c130 16bd
000001f0: 7ddd fe3c 5f9a b8bd 5bc3 31bd 13d2 b3bc
00000200: 6ce1 83bd 8e63 b3bd 82ea eebb f2af dc3c
00000210: b27a d03c e504 a43c 2541 0bbc cd4c 813b
00000220: b778 e3bb 1a62 973b e15b 7ebb a999 55bd
00000230: 10af 083d f23e a2bd c6c7 1f37 456e b4bc
00000240: 7c51 19bd b817 3d3e 95fc ed3d 080a bc3d
00000250: 9cbe 913c 282e 0a3e 806e 073c 08a3 64bc
00000260: 511b 8cbd d87d d93c 491c 13bd c886 163d
00000270: 7be9 53bc adc7 333c 275a 4ebd b69d ee3c
00000280: 097e af3d 42e6 f73c 529d 243d b57e e23c
00000290: 2671 723d 9de0 edba d5bf 4dbc 83fc 27bc
000002a0: 8b66 083c e470 713d 3420 b1bd fa8a 08bd
000002b0: 5ed6 50bd fba8 90bd 3318 90bd f6b0 8ebc
000002c0: 06fd 6fbd 9265 c2bc 6a0b 1abd d7ac 9cbd
000002d0: 2e26 9a3d 7123 703d 9f7a af3c 893d 143c
000002e0: dff2 0abc 75e9 d03d a059 ba3d 989f 9a3c
000002f0: 6724 403d 355c 813d 138d 823c 5903 72bd
00000300: 2aa5 40bd 3d2b 0d3d 5109 8d3d 9aad 7e3d
00000310: 21e4 343d 979f 683d c269 df3a 74c9 323d
00000320: f678 61bc 1766 bdbc 85e8 23bd ef36 3f3c
00000330: c6b2 7fbc 3669 073e 25eb 323d 1514 623d
00000340: 3652 613d a542 9f3d 3014 5dbd b732 303b
00000350: 59a3 c8bc 49cd 813b 8d8b dcbc 6da6 ea3c
00000360: a159 9f3d 3294 1eb9 c6e7 ac3d a3e6 4d3d
00000370: d259 dabd 94e1 cabd 839d 7ebd 41ca 67bd
00000380: 5bb3 eabd 920d 723d 31a9 92bc 9467 69bd
00000390: 8f55 b7bc a37f d7bb 652a 803d a7e6 e5bc
000003a0: d1fb 21bc d744 70bd 3841 76bd 1b99 873c
000003b0: 293c e83b 5c06 193d c0fb a23c 1fba 953d
000003c0: 8f30 3c3c a3ac ffbc ed2f a8bc 9772 a8bc
000003d0: 30df da3c 52aa 4cbc a6de 2dbc 887b a23c
000003e0: e69c c83c ab36 a9b9 7cf3 4f3c a2bd 84bc
000003f0: 92a6 3ebc 04fb dbbb 8582 1c3c 963c 9bbd
0.033540346 -0.0122849345 -0.015283361 -0.01397676 -0.034048237 0.046585545 -0.017884046 -0.010003995
0.03429858 -0.012435494 -0.09251277 0.00066479796 -0.04422427 0.025799936 -0.06634755 -0.06643857
-0.052897833 -0.03877663 -0.02147262 -0.055618938 -0.029029274 -0.077294655 -0.058151346 -0.033928975
-0.037891764 -0.0019533094 0.009216807 0.024011066 0.006487557 0.021225993 0.033919644 -0.03217435
0.0040733996 0.022847688 -0.035665866 -0.092256725 0.006425025 -0.032089688 0.050631937 0.0040221065
-0.06750729 -0.029979061 0.005932023 0.032106403 -0.053566393 0.060551416 0.054682605 0.0009857757
-0.006759601 0.038154155 -0.0638735 -0.13910751 -0.016046677 -0.07486683 -0.06321038 -0.033655774
-0.040850144 -0.027181081 -0.045749012 -0.04484385 0.0668492 -0.024434293 0.046025455 0.0077154315
0.029181309 0.03426447 -0.033303607 -0.012729968 -0.0120541155 -0.043231737 0.08405839 0.06247815
0.0021660654 0.049799703 0.08415626 -0.04565504 0.031085404 -0.0078097763 -0.02093919 0.031577546
-0.072718106 0.0136389565 -0.025932906 0.032335654 -0.0083001405 0.016158383 0.016774662 0.030792937
-0.017248183 -0.02477154 0.01786718 -0.03829219 -0.012461431 -0.024415242 0.004298759 0.031008448
-0.027315015 -0.021094037 -0.031522393 0.014795163 -0.14358984 -0.033435166 -0.016390448 -0.004427289
-0.027291605 0.09404664 0.07921731 0.06382604 0.028063152 0.07588403 0.024596753 0.013237711
-0.03277995 0.00039057794 0.0600673 0.040702295 0.03262036 0.035979573 -0.02513707 0.0153848
0.047975484 -0.023122823 0.004004356 -0.03666759 0.031111473 -0.09013819 -0.043399196 -0.021950757
-0.0643948 -0.08759223 -0.007291139 0.026939366 0.02544913 0.020021865 -0.008499418 0.003945923
-0.0069418806 0.004619849 -0.0038812088 -0.052148495 0.033370078 -0.07922162 9.523652e-06 -0.022025237
-0.037431225 0.18466079 0.11620442 0.09181601 0.017791085 0.1349417 0.008266091 -0.013954885
-0.06841148 0.026549265 -0.035915647 0.03674963 -0.012934084 0.010972899 -0.050378945 0.029127937
0.08568961 0.030261163 0.040189095 0.02764831 0.059189938 -0.0018148605 -0.012557943 -0.010253075
0.008325229 0.05894555 -0.086487204 -0.033335663 -0.050985686 -0.070634805 -0.07035866 -0.017418366
-0.05859091 -0.023730073 -0.03760854 -0.07650154 0.075268134 0.05862755 0.021420775 0.009047874
-0.008480757 0.102007784 0.09099126 0.018874928 0.046909716 0.06316415 0.01593641 -0.059085224
-0.047032513 0.034465063 0.068865426 0.062177278 0.044162873 0.05679282 0.0017045068 0.043649152
-0.0137617495 -0.02311997 -0.04001667 0.011670812 -0.015606588 0.13223729 0.043681283 0.055194933
0.055010043 0.07776383 -0.05397433 0.0026885697 -0.024491953 0.0039612395 -0.026922012 0.028643811
0.07780767 -0.00015123261 0.08442645 0.05026878 -0.10661663 -0.09906307 -0.062161934 -0.05658937
-0.114599906 0.059094973 -0.017902942 -0.056983545 -0.022379665 -0.006576495 0.06258086 -0.028064085
-0.009886698 -0.0586594 -0.06012079 0.016552499 0.00708725 0.03735958 0.019895434 0.073108904
0.011486187 -0.03121025 -0.020530665 -0.020562453 0.026717752 -0.012491779 -0.010612166 0.019834295
0.024488878 -0.00032274923 0.012692329 -0.016203705 -0.011636393 -0.006713273 0.009552603 -0.07579915

weight f4 [6]
00000000: 1a29 853f fc13 713f 2e94 803f a483 833f
00000010: 7158 803f ea6a 743f
1.0403168 0.9417112 1.0045221 1.0274549 1.002699 0.9547564

bias f4 [6]
00000000: d648 54bc b75f 31bd bebc 0f3e 53aa 0f3e
00000010: f656 203d d044 d0bc
-0.012956819 -0.04330417 0.14036843 0.14029817 0.039145432 -0.025423437

running_mean f4 [6]
00000000: 4d04 6c3d 1c42 b6bf 344b 873f f424 4240
00000010: aaff da3d aca9 b03f
0.05762129 -1.4238925 1.0569825 3.0335054 0.10693295 1.380178

running_var f4 [6]
00000000: c203 833f acda 8a3f 6cde 5640 5d10 2540
00000010: 17a4 853f e628 583f
1.0235522 1.0847983 3.3573256 2.5791237 1.0440701 0.84437406

weight f4 [1, 6, 5, 3]
00000000: f4ad 5dbe 0c33 d4bd 1f98 8ebd eae4 07bc
00000010: 0b34 843c 25ec 8abc 04f8 2d3e d6d6 983d
00000020: 7e7b 063e b1dd 333d 4f1b 0a3c 01d1 833c
00000030: e37e 85bd c330 0cbc 32ec eebd c538 b03d
00000040: 49ca 923c 133f 393d a66f dfbc c4e3 05bd
00000050: f1a9 0cbd e936 06bd bdfc 823b 36ad b33c
00000060: 761f b0bd 4836 193c e042 96bd 507c cf3d
00000070: 5d65 363d 9122 913d ef51 21be cf53 0cbd
00000080: b384 0dbe 9fe3 4b3d 36ae 1eba 70af bb3d
00000090: 8a2f 823c 120c 603d 69be 8b3c e24b c63c
000000a0: 42b8 18bd 77ef 943c 7657 c63c e32a 3f3d
000000b0: a2e0 2bbd b99d 98bd 7370 503c 542d cfbd
000000c0: de6f 113e 169d 023d 627e 083e a2f1 75bd
000000d0: 1740 8fbc 0221 9dbd ab48 79ba f4c4 06bd
000000e0: b66a 1c3d ef86 3cbd 8e79 9f3c 82b3 f1bd
000000f0: 3faf e43a c83d 103a 7c65 42bc 850c b43d
00000100: 37cd 0d3b 1c2b e03d 72df 053d d85d fc3b
00000110: eeac 4f3d 6db2 1dbd b37f f43b bcb7 80bc
00000120: 68bc 0d3e a618 4abc ae7a 053e 6791 0bba
00000130: 9cbc 2c3a e6c6 b63c 94d8 e23d 3185 a23b
00000140: 6a35 233e c1c7 0e3d 4e76 643c 1256 9f3c
00000150: 56cc e33c c8d1 8f3c 72bc 35bd 3ba8 63bc
00000160: 3384 753b 67c2 acbc
-0.21648389 -0.10361299 -0.069626085 -0.008294323 0.016138097 -0.016958306 0.16989142 0.07462852
0.13133046 0.043912593 0.008429362 0.016090872 -0.06518342 -0.008556548 -0.116661444 0.08604578
0.017918723 0.045226168 -0.027274918 -0.032687917 -0.034341756 -0.03276721 0.003997414 0.02193318
-0.08599751 0.009351321 -0.07336974 0.101311326 0.04453026 0.07086671 -0.15753911 -0.034259614
-0.13820152 0.049777623 -0.0006053181 0.091643214 0.015891809 0.05469901 0.017058568 0.024206106
-0.037285097 0.018180592 0.024211626 0.04667176 -0.041962273 -0.07451958 0.0127221225 -0.101160675
0.1420283 0.03188809 0.13329461 -0.060044892 -0.017486615 -0.07672311 -0.00095094246 -0.032902673
0.038187705 -0.04602712 0.019467141 -0.118018165 0.0017447247 0.000550237 -0.011865016 0.087914504
0.002163721 0.109457225 0.032683797 0.0077016167 0.050702028 -0.03850024 0.007461512 -0.015712611
0.13841403 -0.012334978 0.1303508 -0.0005324096 0.0006589384 0.022311639 0.11076465 0.0049597253
0.15938345 0.03485847 0.013944222 0.019450221 0.027807396 0.017556086 -0.04436917 -0.01389509
0.003746283 -0.021088792
