source/models/MelodyTimbreCNN/model_256_20_0.002.pth (torch, 201935 bytes, 26 tensors)

weight f4 [6, 1, 5, 5]
000000 4e ee 10 3d 9d 79 8c 3d 37 ee 7c 3d 72 f4 d1 3d
       0.035383515 0.068591334 0.061750617 0.10251702
000010 18 62 a6 3d 1f af 7b 3e 3a e0 49 3e da 86 c0 3d
       0.08124179 0.24578522 0.19714442 0.09400721
000020 5f b5 89 3d d5 f8 58 3d 03 2a b3 bc 3c 51 26 be
       0.06724047 0.05297168 -0.021870619 -0.16241926
000030 0e d9 64 bd ab 4b d2 bc 76 f2 b1 3d 22 c1 cb bd
       -0.055871062 -0.025670847 0.08688824 -0.099489465
000040 9f 97 28 be 39 43 18 3d 76 c8 b8 bd f8 30 0d bd
       -0.16464089 0.037173484 -0.0902261 -0.03447053
000050 6d 0c 14 3e b6 d6 3f bd 76 b7 29 be ed 9d 45 3d
       0.14457865 -0.046835624 -0.16573891 0.048246313
000060 24 13 f7 bd 74 0b 02 3d 51 ec 19 3e 46 4e 93 bd
       -0.12064198 0.031749204 0.15031554 -0.07192664
000070 eb 08 8e 3d df 51 f5 bd fa fb b5 3a 15 dc 30 bc
       0.06935295 -0.11978506 0.0013884299 -0.010794659
000080 32 b2 4e be 94 fe cf bc fb c4 13 3e ca 11 0a 3e
       -0.20185164 -0.025389947 0.14430611 0.13483348
000090 5a 8e d8 bd be 8d 97 bd e8 9a 46 3e df f2 0d 3d
       -0.105740264 -0.07400082 0.1939503 0.034655448
0000a0 d7 b8 55 3e 62 61 85 3d d9 7f 29 be 12 f2 85 3d
       0.20871292 0.06512715 -0.16552676 0.06540312
0000b0 d4 6c 1c bd 89 6b 42 be f5 b6 15 be 1b 36 ef bd
       -0.038189724 -0.18986334 -0.14620574 -0.11680242
0000c0 66 cc 4d 3e 6e 4e e8 bc 23 89 2d 3e 3a 61 8f 3d
       0.20097503 -0.02835771 0.16946845 0.07000966
0000d0 e6 b0 4d bd 4b ff 00 3e 5a c6 29 be 7d c8 49 be
       -0.05021753 0.12597387 -0.16579571 -0.19705386
0000e0 99 30 42 be c9 ff ed bc 9d dd 06 bd 91 b2 01 3d
       -0.18963851 -0.029052632 -0.03292619 0.031664435
0000f0 b6 94 3a 3e 0e f5 ad 3d 99 d8 90 3d 10 a6 cf bd
       0.18220791 0.08494006 0.07072563 -0.10139096
000100 aa 35 ae bd f2 bd 29 3c 25 ca 67 3a 2e f7 01 be
       -0.08506329 0.010360228 0.00088420726 -0.12691948
000110 44 5b 65 be b8 5a b5 3d ac 91 0e 3e 5e b9 bd bd
       -0.22398096 0.08855194 0.13922757 -0.092638716
000120 90 63 79 3d 42 46 77 bd 51 2c b4 bd 58 73 39 be
       0.060885966 -0.060369737 -0.08797515 -0.18110406
000130 43 46 7f 3d c2 af 96 bd 2c eb 4f 3e db 13 59 bc
       0.062322866 -0.07357742 0.20304555 -0.013249363
000140 4f 9c 1d 3e 77 45 8c bd 74 5b aa bd 27 2c 29 3e
       0.15391658 -0.06849187 -0.083182245 0.16520749
000150 4d 9e 36 3e 33 9b d6 bd 64 5e 90 bd cb 82 d0 3d
       0.17833824 -0.10478821 -0.070492536 0.10181197
000160 89 d6 28 3e 42 6c 5b 3e a2 c3 13 be c9 0a 39 3e
       0.16488089 0.21428016 -0.14430097 0.1807052
000170 9e 0c a1 bd 04 93 03 3c 06 2a 6b 3c aa 53 0e be
       -0.07863735 0.008030657 0.014353281 -0.13899103
000180 79 87 50 be 5b 7e eb bd 89 ef de bd 28 17 48 be
       -0.20364179 -0.1149871 -0.108855315 -0.19540083
000190 3d 59 b3 3d 69 67 e9 3c 58 c1 d7 bd a9 04 da bd
       0.08757255 0.028491693 -0.10534924 -0.1064542
0001a0 be 07 65 3d 2c 56 5d 3e 43 83 8d bd 39 e3 1d 3d
       0.055915587 0.21614903 -0.06909802 0.038546775
0001b0 b8 53 70 3c 84 c3 18 be 23 51 82 3e d5 44 a5 bd
       0.014668398 -0.14918333 0.25452527 -0.08069769
0001c0 7c f6 0c bc f2 40 0b be ca 6f b3 bd 97 31 6a 3d
       -0.008603688 -0.13598993 -0.087615564 0.0571762
0001d0 48 20 d7 3d 0c ae c0 3d de 91 65 bc c2 a9 a0 bd
       0.10504204 0.09408197 -0.014011828 -0.07844879
0001e0 2a f9 86 3e 9f 72 c1 3d d8 92 45 be 98 02 ab bb
       0.26361972 0.0944569 -0.19294298 -0.005218815
0001f0 c2 7e 25 3e b5 08 81 3d 19 9c 0e be 2f 65 19 bc
       0.16161636 0.06300489 -0.13926734 -0.009362503
000200 dd d8 2a 3e 52 49 92 3d 0e 51 92 bd 2c 9c 22 bc
       0.1668429 0.07142891 -0.07144366 -0.00992493
000210 03 fe 37 be b2 2a 9e 3d e5 5c 7e be b6 95 ea 3b
       -0.17967992 0.07722987 -0.24840124 0.00715896
000220 c7 7e bf 3d b2 53 04 3e 68 91 76 3e aa cb 2d 3e
       0.09350353 0.12922552 0.24078906 0.16972223
000230 55 b5 90 bd 6e df d4 bd e9 cb 88 3c 3c 8c bb 3c
       -0.07065836 -0.10394178 0.016698794 0.022894017
000240 2e 25 4e 3d c0 97 1b 3e 35 6b c2 3d 8a 3c 24 bc
       0.050328426 0.15194607 0.09493104 -0.010024199
000250 f6 af 3f 3e 0f 7e 91 bd
       0.18719468 -0.07104122

weight f4 [6]
000000 a7 87 6f 3f c0 75 7c 3f 2e dc 80 3f 49 d9 8b 3f
       0.93566364 0.9861717 1.0067194 1.0925685
000010 68 64 85 3f da aa 6d 3f
       1.0421267 0.92838824

bias f4 [6]
000000 90 74 9b 3c ed 61 83 3d 82 0e 08 bd c3 35 f8 3d
       0.01897648 0.06415162 -0.03321696 0.12119629
000010 b1 fa 9d bd c0 dc 7e bc
       -0.07713831 -0.015555561

running_mean f4 [6]
000000 2b ad 22 3c 8b b2 09 3b 13 7d 3c ba be 38 08 3c
       0.009928982 0.002101096 -0.00071902684 0.00831431
000010 ef 02 25 bb f3 77 9f ba
       -0.002517875 -0.0012166485

running_var f4 [6]
000000 7a 7c 6e 3e cb 55 2b 3d 9a b2 52 3e 40 59 65 3e
       0.23289672 0.041829865 0.20575944 0.22397327
000010 99 32 a8 3e 18 5a bf 3e
       0.32851103 0.37373424

weight f4 [18, 6, 5, 5]
000000 3b 79 71 3d 9a a6 bb bc f4 75 d3 3c c0 44 4a bd
       0.058953505 -0.02290659 0.02581308 -0.04938197
000010 14 35 ae 3c 4b 46 54 3c 44 10 a3 3d 66 7c 21 3c
       0.021265544 0.012956212 0.07962087 0.009856319
000020 14 f0 6d bd ab 34 43 bd aa a2 af bd 61 d7 bd 3d
       -0.058090284 -0.04765765 -0.085759476 0.09269596
000030 45 f4 58 3d c4 1c 13 3d c6 18 16 3d 57 11 4f bd
       0.05296733 0.035916105 0.03664472 -0.050553646
000040 05 a1 f0 3c 1e 12 66 bd 60 37 fd bd ba 53 fa bc
       0.029373655 -0.05616962 -0.123640776 -0.030557502
000050 77 64 93 bd 4d da 25 3d a4 2a aa bd 8f a5 80 bd
       -0.071968965 0.04049139 -0.08308914 -0.06281578
000060 39 7e 8d bd 04 a4 a9 ba a9 62 af bd b5 58 09 bc
       -0.06908841 -0.0012942557 -0.0856374 -0.008382966
000070 5c 79 60 bc 76 07 34 bd b2 28 a3 bd 1d dc 71 3d
       -0.013700809 -0.043952428 -0.079667464 0.059047807
000080 53 3d 89 bd ce f3 6d bc cf 04 27 3d 79 73 b1 bd
       -0.0670115 -0.01452346 0.04077607 -0.08664603
000090 80 50 7b bc 5f 54 83 3d 2a 39 39 bc 0e e2 4d 3c
       -0.015339017 0.06412577 -0.011305133 0.012566103
0000a0 13 2c 31 3d ca 43 86 bd 35 43 68 bd 46 61 a4 bc
       0.043254923 -0.065558985 -0.05670472 -0.020065915
0000b0 5d b3 36 bd 56 3c 66 3d 56 c8 84 bc e8 df 11 3d
       -0.044604648 0.056209885 -0.016208809 0.035613924
0000c0 10 ec f4 bc fc 39 27 bc b0 ad 81 3d 51 a9 7e 3d
       -0.02989772 -0.010206696 0.063319564 0.06217319
0000d0 ba dc 83 3d 0b ee 07 bc 70 38 9e 3d 68 1a e6 3b
       0.064385846 -0.0082965 0.07725608 0.007022191
0000e0 c9 78 0d 3c df bc 8c bd 43 1a 59 3a a7 b9 33 3d
       0.008634754 -0.06871962 0.00082818064 0.043878224
0000f0 a9 41 b4 3d ff 60 0f bd 99 02 d5 3d df 12 91 3d
       0.08801586 -0.035004612 0.10400886 0.070836775
000100 a4 cf 05 bd 38 17 61 3d 47 4d 29 bc 78 b8 be bd
       -0.032668725 0.054953784 -0.010333366 -0.09312528
000110 3b 19 47 bb f8 d6 93 bc b9 07 f4 3c 08 94 5a bd
       -0.0030380029 -0.018046841 0.029788839 -0.05336383
000120 20 6c c1 bd bf ee 73 bd 81 35 6c bd bb 81 d4 bd
       -0.09444451 -0.059553858 -0.057668213 -0.103763066
000130 62 94 07 bc a0 91 d7 bd a9 4c a6 bd 4c 59 49 bd
       -0.008275123 -0.10525823 -0.081200905 -0.049157426
000140 61 db 8d 3d 28 bc f8 3d 6c 9e 04 3e 28 96 4a 3d
       0.06926609 0.12145263 0.12951058 0.049459606
000150 f2 98 dc 3c 0e b7 c4 bc c4 20 41 ba 0c 4f 3a 3d
       0.026928399 -0.024013069 -0.0007367248 0.04548554
000160 a5 e4 b1 bc af e4 1e 3d 11 05 00 3d 46 0a 83 bb
       -0.021715472 0.03879231 0.03125483 -0.0039990274
000170 1c 8e ce bd ea 5b 2d be 7b 29 00 be 25 74 63 3d
       -0.10085699 -0.16929594 -0.12515824 0.055530686
000180 33 30 88 3c c3 b8 09 3d e6 fc 76 bd 63 11 13 bd
       0.016624546 0.033623468 -0.060299776 -0.035905253
000190 74 4a e1 3c 26 3b f9 3d 84 59 21 3b 2e 73 13 bd
       0.027501322 0.12169485 0.0024620006 -0.035998516
0001a0 77 f9 8c ba 3b 0a 0d 3c 2d aa 78 3d 9f b5 0f bd
       -0.0010755499 0.008608396 0.060709167 -0.035085317
0001b0 a3 4c cb 3c 2a d8 a2 bd 22 70 4d bd 7b b4 91 3d
       0.024816817 -0.07951386 -0.050155766 0.07114502
0001c0 71 ee d4 bd eb f2 81 bc 93 04 a1 bd 08 73 19 3c
       -0.103970416 -0.015862903 -0.078622006 0.0093658045
0001d0 e0 07 fb 3d 8b 41 82 bc 3b 80 6d 3d c1 76 25 bd
       0.122573614 -0.015900394 0.05798362 -0.040396456
0001e0 ec 0a ae bd 5a d6 36 3d 1c 8b 41 3d db 64 8d 3d
       -0.08498177 0.044638015 0.047251806 0.06904002
0001f0 4f 7c f7 bc f0 2a 90 bc 23 9a d2 3c f9 a9 ce bb
       -0.030210642 -0.0175986 0.025708264 -0.0063068834
000200 5d 2c 13 bd 54 59 15 bd 90 19 b4 3d 04 50 01 3c
       -0.03593098 -0.036462143 0.08793938 0.007892612
000210 ef 2b 9c 3d c3 9c 24 3c 54 ac 67 bd b5 5f 55 3c
       0.07625567 0.0100471405 -0.05656083 0.013023307
000220 5d 96 fc ba 23 a3 e7 bc 3a 85 6f 3d 1f 85 05 bc
       -0.0019270886 -0.028276032 0.058476664 -0.008149414
000230 52 19 69 bc 9b 05 28 3c a7 b2 72 bd f3 39 0e bc
       -0.014227228 0.010255243 -0.059252407 -0.008680808
000240 19 55 c9 bd da 8b e6 3c 7c 02 36 bc 93 17 38 3d
       -0.09830684 0.028142858 -0.011108991 0.044944357
000250 32 83 2c 3d ba d8 0e 3d bb df 0e 3c 2b 38 c8 bd
       0.042117305 0.034874655 0.008720334 -0.09776338
000260 92 89 cd 3a 61 c9 a5 bd 9a 7a 93 3c 24 fc 6c bd
       0.0015681258 -0.080950506 0.018002797 -0.057857648
000270 e2 03 dd bd b3 1c 88 3c 82 55 36 bd dc d3 5f 3d
       -0.10791756 0.016615247 -0.04451514 0.054645404
000280 a0 f0 a7 bc d7 c7 c5 3c 2a c7 59 bc c2 cb b6 bd
       -0.020500481 0.024143143 -0.013292113 -0.089255825
000290 d0 76 91 3d 20 70 b8 bd 7b 39 73 3b bb 58 04 ba
       0.0710274 -0.09005761 0.0037113118 -0.0005048622
0002a0 02 74 55 bd 41 bd 95 3c c4 4e 5b 3c 69 72 70 3c
       -0.052112587 0.01827872 0.013385478 0.014675715
0002b0 00 5a 3d 3d b6 a0 38 3d 1c c1 68 3d d3 15 92 bd
       0.04622841 0.04507514 0.05682479 -0.07133069
0002c0 d6 b4 b2 3d 01 d0 22 3d 72 91 bc 3c 64 b3 88 bd
       0.08725898 0.03974915 0.023018572 -0.06674841
0002d0 ac 1b ef 3d a6 c8 88 3d ed 85 bb 3d 52 12 c7 bc
       0.116752 0.06678896 0.09156404 -0.024300728
0002e0 9f c1 d8 3d 36 98 81 3c 70 65 4d bd 41 b2 df ba
       0.10583805 0.01581965 -0.050145566 -0.0017066674
0002f0 79 13 75 3d df c6 41 3d 4b 8f f1 3c cc 28 f4 3c
       0.059833024 0.0473088 0.029487273 0.02980461
000300 df 9d 5c 3d c7 3d 01 3d 3b 66 df 3c aa 9b 4a bb
       0.053861495 0.031553056 0.027270427 -0.0030915537
000310 42 20 1e 3c ad 29 b8 bc a4 15 d8 3b d6 09 d2 bc
       0.009651246 -0.02248081 0.0065943766 -0.025639456
000320 ac 89 06 3c 16 4c 9e bd db 0f 31 3d aa 38 d8 bc
       0.0082115345 -0.07729356 0.04322801 -0.026394207
000330 34 eb 82 bd 93 85 4d 3c 7b 46 c6 bd 2c 2c 11 be
       -0.06392518 0.012544054 -0.09681412 -0.14177006
000340 fa 45 53 bd d8 50 ee bd 01 36 1d 3d 18 57 35 bd
       -0.051580407 -0.116365135 0.03838158 -0.044272512
000350 0c ec f3 bc bc 00 ee bb 33 ef 1a 3d 80 d7 2c 3c
       -0.029775642 -0.007263271 0.037825774 0.010549426
000360 ae a4 96 3a 6d d5 a3 bc 0e 5c 3e bd 92 7c 8a bd
       0.001149317 -0.01999923 -0.04647451 -0.06762041
000370 ea 78 ae bc 41 e9 5d bd 2c 83 05 bd 9f 91 8f bd
       -0.02129789 -0.054177526 -0.0325958 -0.07010197
000380 70 ec ed bc 0c db 0d 3c 75 ca b7 3a 8a 72 f4 bc
       -0.029043406 0.008658182 0.0014022129 -0.029839773
000390 15 53 a8 bd 4b e1 84 bc 56 05 d9 3d 74 47 94 3d
       -0.08218972 -0.01622071 0.10596721 0.07240191
0003a0 24 72 15 3e 92 1e be bd 5e 3e 13 3d 34 65 14 bd
       0.14594322 -0.092831746 0.03594815 -0.036229327
0003b0 cd 7a ef bd e2 c7 1e bc 5b de 97 bd d6 14 92 3c
       -0.11693344 -0.00969121 -0.07415458 0.017832201
0003c0 33 cf d2 3d c5 02 79 3b 97 a3 a6 3c e6 a4 8b bd
       0.10293426 0.0037996036 0.020341678 -0.06818561
0003d0 4b 3a 27 bd b3 b5 fd bb 1b 34 e1 bd 9e ea 5f 3d
       -0.040827077 -0.0077426075 -0.109962665 0.054667108
0003e0 dd 7f 40 bc 00 fd 9d 3d 6e 04 21 bc b6 c4 9d 3c
       -0.011749235 0.077142715 -0.009827716 0.019258838
0003f0 a7 6c 26 3e d2 18 5b bc d7 50 77 3c ed 97 85 3d
       0.16252385 -0.013372617 0.015094957 0.06523118

weight f4 [18]
000000 6c af 84 3f dc 22 6b 3f 06 dd 8a 3f 46 11 6d 3f
       1.0366035 0.91850066 1.0848701 0.9260448
000010 8a b5 7f 3f d1 26 58 3f 72 71 84 3f 31 29 82 3f
       0.9988638 0.8443423 1.0347121 1.0168821
000020 f0 a2 82 3f 68 88 6f 3f 93 a2 81 3f ca 28 76 3f
       1.0205975 0.93567514 1.0127739 0.9615599
000030 74 0b 89 3f e4 0a 7d 3f 19 c0 95 3f a6 d4 5b 3f
       1.070662 0.9884474 1.1699249 0.8587135
000040 fe 9c 79 3f c8 14 8b 3f
       0.97505176 1.0865717

bias f4 [18]
000000 00 27 2d bc 29 e9 47 be eb f3 87 bd 46 89 a7 3d
       -0.01056838 -0.19522537 -0.066383205 0.0818048
000010 6a 6c db bd 79 1f d8 bd 0b 52 b9 bd 51 71 fd bc
       -0.10714038 -0.10552878 -0.090488516 -0.030937823
000020 86 50 44 be cc 57 06 be 2b 4b 21 bd 63 b6 f9 bd
       -0.19171342 -0.1311943 -0.039378326 -0.12192991
000030 22 a7 9a 3c 5b 86 d1 bd bf 2c 8e be 82 ba 45 be
       0.018878523 -0.102307044 -0.27768514 -0.19309428
000040 ca ae db bb b1 d9 40 be
       -0.006704186 -0.18833043

running_mean f4 [18]
000000 e1 1d db be a4 78 93 3d cd 0e 6e be b4 1d 1e be
       -0.42796233 0.07200745 -0.23247834 -0.15441018
000010 8f d9 3f bf 75 3a 1c 3f ed 96 3f be 15 b9 95 bf
       -0.74941343 0.610267 -0.18709917 -1.1697108
000020 ac c1 15 3f f4 77 de bd 62 df 02 3e 36 cf eb 3b
       0.58498645 -0.10862723 0.12780526 0.0071963323
000030 66 f4 1f be c5 a0 d7 be 0b 57 9b bf 99 39 9e 3c
       -0.15620574 -0.42114845 -1.2135938 0.019314574
000040 51 24 07 be b2 b1 57 bf
       -0.13197447 -0.84255517

running_var f4 [18]
000000 47 6f f0 3e d8 a8 0b 3f a3 25 60 3e 75 bd 94 3e
       0.46959898 0.5455451 0.21889357 0.29050794
000010 1b 00 0e 3f a1 3e f9 3e 4a 65 d4 3e 42 ef 32 3f
       0.5546891 0.48680595 0.41483527 0.6989633
000020 85 72 4a 3f 46 9e 80 3f 98 cd 42 3e 36 35 14 3e
       0.7908099 1.0048301 0.1902374 0.14473423
000030 5a 87 92 3e f6 cb 45 3f 97 f2 16 3f 18 b6 da 3e
       0.2861889 0.77264345 0.5896391 0.42717052
000040 a7 6c e5 3e 40 83 3e 3f
       0.44809458 0.7441902

weight f4 [45, 18, 5, 5]
000000 1d a9 9d bd 12 eb c8 bb 9a 16 2d bd 58 4a 86 bd
       -0.076982714 -0.006131538 -0.042257883 -0.06557149
000010 27 34 8f bc ee 62 cb bc ab 31 f9 3c de 20 77 3a
       -0.017480923 -0.024827447 0.030419191 0.00094272
000020 6c 15 0d 3d cc 4b ac bc 31 7e b0 bc 37 2b 48 3d
       0.034444258 -0.021032237 -0.021544548 0.048869338
000030 04 a9 ba bc 3e d9 f8 bc cd 78 63 3c 21 0d 94 3c
       -0.022785671 -0.030377027 0.013883782 0.018072667
000040 a5 46 ec 3c 23 61 8c 3d 14 f0 88 3c 75 a4 9c 3c
       0.02884228 0.06854465 0.01671604 0.019121388
000050 8e 23 89 3d 5d 24 9d 3d e7 50 81 3c 63 ca 8a 3d
       0.06696235 0.07672951 0.015785648 0.067768835
000060 6b df 11 bd 60 f7 48 3d d1 5e cc 3c 01 7f 37 3d
       -0.03561346 0.04906404 0.024947556 0.044798855
000070 e3 a0 31 bd 66 ca 88 bd 02 68 b9 bc 94 01 95 bb
       -0.043366324 -0.066792294 -0.022632603 -0.0045473073
000080 f3 a1 cd bc 16 68 4b bb e4 2f 23 bd e8 23 7f bd
       -0.025101637 -0.0031037382 -0.039840594 -0.062290102
000090 3f 65 63 bd ce c3 b0 3c f5 c2 07 bd fd 54 7e 3d
       -0.055516478 0.021577742 -0.03314491 0.06209277
0000a0 ff 59 2e bd 4e e1 0a bd 28 90 d4 3c d7 a7 20 bd
       -0.042566296 -0.033906274 0.025947645 -0.039222565
0000b0 cc 08 85 bc 8d 69 7a 3c c4 35 d9 bc 90 87 12 bd
       -0.016239546 0.015283954 -0.026514895 -0.035773814
0000c0 36 40 81 bc 37 60 8a 3b a9 ae 7f bc e6 c3 25 3d
       -0.015777688 0.0042228955 -0.015605607 0.040470026
0000d0 39 cd 89 3c d7 d0 9a 3b d4 97 2c bb 92 9a 72 bd
       0.01682149 0.0047246027 -0.0026335614 -0.05922944
0000e0 d2 5e 90 bd 18 e4 82 3c a5 bc dc bc d1 d7 09 bd
       -0.070493355 0.015977904 -0.026945421 -0.033653084
0000f0 a1 9e 8a bb ff 99 59 3b f4 a3 fa 3c 49 27 08 3c
       -0.004230336 0.003320336 0.030595757 0.008310148
000100 a8 41 b9 3d 06 b3 7f bd f4 ac bc bc 5c f8 da bc
       0.09045726 -0.06242659 -0.02303169 -0.026729755
000110 5c 2e 73 bc 63 fc 27 bd a8 a2 a0 bd c2 20 51 bd
       -0.014842596 -0.04101218 -0.07843524 -0.05105663
000120 3c 7f 34 bd 21 30 23 bd 12 c8 00 bc 1a 97 57 bd
       -0.044066653 -0.03984082 -0.0078602005 -0.052634336
000130 6c 64 39 bc 96 be 87 bc 10 64 74 bd 63 fc c0 bc
       -0.011315446 -0.01657037 -0.05966574 -0.023557847
000140 38 06 90 bc 88 39 80 3d 7c e1 fd bc 00 bc 73 3d
       -0.01758109 0.06260973 -0.030991308 0.059505463
000150 d8 66 b0 3b 50 9d cc bc e6 ea 06 bd 93 f0 36 bd
       0.0053833537 -0.024977356 -0.03293886 -0.044663023
000160 ed 9a 13 bd f0 8a 2c 3d b4 ef b8 bc dd f9 11 bd
       -0.03603642 0.04212469 -0.022575237 -0.03563868
000170 95 8f 8c bd 58 96 75 bb 7b f0 e4 bc d5 58 8b 3d
       -0.068633236 -0.0037473645 -0.027946701 0.06804053
000180 5c 77 8e 3d d4 5f 2b 3d 9a a0 30 bc e3 f5 00 3c
       0.0695636 0.041839436 -0.010780478 0.007871124
000190 bb 23 03 3d 61 a0 0a 3d af c8 6a 3c 82 24 43 bc
       0.032016497 0.033844355 0.014330073 -0.01191056
0001a0 a1 04 24 3d 43 65 53 3d bc 0d 43 3d cd 37 17 3d
       0.040043477 0.051610243 0.04762052 0.03691845
0001b0 a8 ee 6e 3d 61 1d 42 3a 59 6f 47 3d 4e 9d 98 3d
       0.05833307 0.00074048905 0.048690174 0.074518785
0001c0 d0 aa a0 3d 2a 66 81 3d 6b 76 39 3d 5a c8 c1 3c
       0.0784508 0.063183144 0.045278948 0.023655105
0001d0 89 05 23 3d 12 4a 1c bd 48 0e 40 bd d8 a3 0e bd
       0.0398002 -0.038156576 -0.04688862 -0.034824222
0001e0 23 e9 07 bd 32 2e 2a 3d 90 e2 58 3d 88 f2 00 3d
       -0.03318132 0.04154796 0.05295044 0.031481296
0001f0 59 3a 30 bd 33 69 8c 3d 16 03 c2 3c 4e 17 71 3b
       -0.043024395 0.06856003 0.023683112 0.0036787572
000200 b7 92 2f 3c 81 07 96 bd 03 a2 30 bc 25 65 36 3c
       0.010716132 -0.0732565 -0.010780814 0.011132513
000210 0c 21 45 bd 81 76 5a bb 91 46 95 bd ce a6 71 bd
       -0.04812722 -0.0033334794 -0.0728885 -0.058996968
000220 ab 6f 25 bc 6d 6d c2 3c 1b d5 2a bd 4a e4 89 3c
       -0.0100974245 0.023733819 -0.04170714 0.01683249
000230 a8 07 da 3c c9 d6 b0 bc 45 03 f7 3b 6a db 0a bc
       0.026614979 -0.021586793 0.0075382316 -0.008475164
000240 8a 83 ec 3b dd f9 da bc 97 43 2b bc 3f 38 00 3d
       0.007217829 -0.026730472 -0.010453126 0.03130364
000250 91 5b f2 bc 28 6e a0 bc d2 3b d0 bc dc 2f fd bb
       -0.029584678 -0.019583777 -0.02541915 -0.0077266525
000260 aa fa d0 bb 74 88 ce bc 19 26 09 bd 19 3f 3d bd
       -0.0063775377 -0.02521155 -0.0334836 -0.046202753
000270 72 97 c4 bc d1 c3 b4 bb 19 42 08 bc 77 a3 cc bc
       -0.023997996 -0.005516507 -0.00831654 -0.02498029
000280 f2 a4 b9 3c 15 92 76 bc 1f 02 4d bd bb 8a 16 bd
       0.02266166 -0.015049477 -0.05005085 -0.036753397
000290 45 0e 23 3d 95 ce c5 3c a3 b3 16 bc bd 3f 02 3d
       0.03980853 0.024146358 -0.009198102 0.031799067
0002a0 ff 11 2c bd e9 e0 0c 3d c5 94 e5 bb fe 99 26 bd
       -0.04200935 0.03439418 -0.00700626 -0.040674202
0002b0 f1 f8 73 bd 65 de 10 3d 79 0d e4 bb 3b 9e 11 bd
       -0.05956358 0.035368342 -0.006959614 -0.03555129
0002c0 d5 ae db bc c8 97 9e 3b a1 6b e3 bc 30 ad 7d bd
       -0.026816765 0.004839871 -0.027761282 -0.061932743
0002d0 b9 e6 9e bc 06 2d a1 bc 15 b7 ab 3b 57 2b 9a ba
       -0.019397127 -0.01967479 0.005240331 -0.0011762184
0002e0 a5 58 fd 3c a5 4d c6 3a ec a1 a3 bc 58 1d 1b bc
       0.030926058 0.0015129341 -0.019974671 -0.009467445
0002f0 fd a4 ac 3d ab ff 69 3d 9a b5 71 3d c6 51 7d 3d
       0.084299065 0.05712859 0.05901108 0.061845563
000300 19 2a 57 3d 63 04 27 3b 9e ba 38 3c 1f 30 13 3d
       0.05253038 0.0025484792 0.011274962 0.035934564
000310 93 65 a1 3d be 58 01 3e 32 fe a8 3d bf ee 94 3d
       0.07880702 0.12631509 0.08251609 0.072721
000320 bb b6 bc bc 94 d6 57 3d 84 73 e9 bb f7 0f 8d bb
       -0.023036351 0.052694872 -0.0071243662 -0.0043048817
000330 ae b6 14 bd d9 df c5 3d 2e 06 55 3d 9c 78 a7 3d
       -0.03630703 0.09661836 0.052007847 0.08177301
000340 18 12 8e bc c7 d4 9f 3c d0 e9 a3 3d 13 bb 5d 3d
       -0.017342612 0.01951064 0.080035806 0.054133486
000350 2c f4 0b 3d fa bf c3 3c fc 01 0b 3d 47 bc d3 3c
       0.034168407 0.023895252 0.03393744 0.025846614
000360 f2 4c 69 3c b1 71 ca bb 24 66 18 bc 1a 7e 89 3c
       0.014239537 -0.006178104 -0.009301696 0.016783763
000370 c3 50 6a bc 4e d4 1e 3c 45 3e 9b 3c 9b a4 81 bd
       -0.014301482 0.009694172 0.01895059 -0.06330224
000380 50 6a 49 3c 41 c5 ff 3c f9 75 29 3d d7 08 00 bd
       0.012293413 0.031221988 0.041372273 -0.03125843
000390 93 1a 21 bd 2a 55 55 3c 2a 47 2b 3d f9 cc 2c 3d
       -0.039331984 0.013020793 0.041815914 0.042187665
0003a0 bf c9 7c 3d 00 c4 e2 3d 58 f3 b7 3d a2 28 13 3c
       0.061715838 0.1107254 0.08981961 0.008981856
0003b0 2d da 80 3b 54 92 94 3d 41 11 9c ba c9 db 6a 3d
       0.0039322586 0.072544724 -0.0011906998 0.05733851
0003c0 e4 92 70 3c 5c d1 68 3b b6 23 08 3c 02 2a 84 bc
       0.014683459 0.0035525179 0.008309295 -0.016133312
0003d0 ab b8 2b bd 98 eb 88 bd fe e5 c9 3c 10 e0 09 3b
       -0.04192416 -0.06685561 0.024645802 0.0021038093
0003e0 60 cb 2e 3b 89 59 3a 3c f2 ee 19 3d bf 0e 81 3c
       0.0026671514 0.011373886 0.03758139 0.015754102
0003f0 d6 93 11 bd b2 e6 d6 bc 00 9c 8f bd 0e 17 47 3d
       -0.035541378 -0.026233051 -0.070121765 0.04860597

weight f4 [45]
000000 88 f0 73 3f 68 68 84 3f 6f 1d 86 3f dc 4f 73 3f
       0.95288897 1.0344362 1.0477732 0.9504373
000010 8e 6d 83 3f 1e 17 79 3f ab 8b 81 3f 94 8c 88 3f
       1.0267808 0.973009 1.0120748 1.0667901
000020 2f dd 7b 3f 1f 82 6f 3f fe ef 86 3f 19 7b 7d 3f
       0.98384374 0.93557924 1.054199 0.9901596
000030 43 fa 7e 3f 13 08 75 3f 9a 8d 7f 3f 8c d0 74 3f
       0.9960062 0.95715445 0.9982544 0.9563072
000040 a4 2c 80 3f e6 e0 7f 3f e2 94 7e 3f 79 3d 87 3f
       1.0013623 0.9995254 0.9944593 1.0565635
000050 c4 73 8a 3f 69 6e 7d 3f d2 83 67 3f 3f 7e 85 3f
       1.0816579 0.989966 0.90435517 1.0429152
000060 70 f8 6d 3f 30 c3 83 3f 29 f5 8b 3f 9b 58 83 3f
       0.9295721 1.0293941 1.0934192 1.0261415
000070 4d d6 7b 3f c4 3e 74 3f f9 46 86 3f 55 f6 6b 3f
       0.9837387 0.9540827 1.0490409 0.9217275
000080 ed 5c 85 3f 20 7a 71 3f 83 1c 79 3f 10 4c 84 3f
       1.0418984 0.9432697 0.9730913 1.0335712
000090 38 c0 82 3f b8 f2 82 3f 3a 9c 83 3f 6e 14 86 3f
       1.021491 1.0230322 1.0282052 1.0474985
0000a0 88 47 81 3f 14 d3 71 3f 30 b4 82 3f 22 54 7e 3f
       1.0099955 0.94462705 1.0211239 0.99347126
0000b0 3d 71 71 3f
       0.9431341

bias f4 [45]
000000 7a 84 fb bd a6 ec b3 bc b2 0d d4 bd 3c 37 9e bd
       -0.12281127 -0.021963429 -0.10354175 -0.07725379
000010 a8 78 71 bd 3c ff 91 bd 6d 37 b4 bd 58 97 49 be
       -0.058952957 -0.0712876 -0.08799634 -0.1968664
000020 9a 43 65 bd 6c 73 ba bd 9e 7d a0 bd d7 70 8b bd
       -0.055972673 -0.09104046 -0.078364596 -0.06808632
000030 02 45 39 bd 76 12 17 be 93 f7 ec bd e1 04 c4 bd
       -0.045231827 -0.14753136 -0.115706585 -0.09571243
000040 3d 37 0e be dc 88 e3 bd d7 23 c2 bd 70 2a 11 bd
       -0.13888259 -0.11110088 -0.09479492 -0.035440862
000050 84 42 e6 bd 23 2a ba bc 25 cb 07 be 38 63 d2 bd
       -0.112431556 -0.02272517 -0.13261087 -0.10272831
000060 e8 c8 04 be 76 6e 6b bd f3 1c aa bd 65 5b ae bd
       -0.12967265 -0.05747839 -0.08306303 -0.08513526
000070 37 2c de bd 56 e4 ca bd 9e c1 bc bd e7 9d 29 bd
       -0.10848277 -0.09906833 -0.09216617 -0.041410353
000080 86 57 ab bc de da b5 bc 9c c6 6d bd 52 aa 57 be
       -0.020915758 -0.02219909 -0.058050737 -0.21061066
000090 f3 a2 05 be 58 88 22 be 1a e6 c5 bd 1d 24 5b be
       -0.13050441 -0.15872324 -0.09663029 -0.21400495
0000a0 ee 56 08 bd 6c d3 f8 bd 3c ee 00 be 1e e9 1a be
       -0.033286028 -0.121497005 -0.12590879 -0.1512799
0000b0 bd 57 92 be
       -0.28582564

running_mean f4 [45]
000000 0f 5d 10 be 8b 61 a4 be bb 6c a7 bf 21 e3 92 bf
       -0.14097999 -0.3210567 -1.3080057 -1.1475564
000010 6b 03 ee bf 48 49 ff be bd 53 06 bf 29 f8 7d bf
       -1.8594793 -0.49860597 -0.52471524 -0.9920679
000020 54 6e b7 bf 9e e8 05 bf 44 b2 2e 3e 1e 4a 0d c0
       -1.4330544 -0.5230807 0.1706019 -2.2076488
000030 d6 15 6b bc e7 d3 21 3f 79 f8 6b 3e a1 0b 56 bf
       -0.014348468 0.6321396 0.23044004 -0.83611494
000040 4f ae 19 c0 12 0e c4 3f 81 c6 0b be 98 eb 6a bf
       -2.401264 1.5316794 -0.13649942 -0.9176574
000050 00 86 a1 bf f4 a3 0a 3d dc ba f9 3d 88 29 41 bf
       -1.2619019 0.033847764 0.12193844 -0.75453997
000060 d9 59 70 bf 26 79 c3 bf 21 e0 2c bf 3d b3 38 3c
       -0.93887097 -1.5271347 -0.67529494 0.0112732025
000070 93 1c cc bd 85 be c8 3f 2d e9 ea 3d ef d3 71 be
       -0.099663876 1.5683142 0.11470256 -0.23616003
000080 52 81 ba bf c7 39 5f bf 2c 44 69 bf f8 26 bc bf
       -1.4570715 -0.87197536 -0.9111965 -1.4699392
000090 6f 9a 63 bf 28 fe fa bf fe 22 bd be b8 da 03 3e
       -0.8890752 -1.9608812 -0.3694076 0.12876403
0000a0 a4 d3 ad 3f 17 1b 68 3f f0 9c 59 bf a2 53 f1 3e
       1.3580213 0.90666336 -0.8500509 0.4713412
0000b0 9b f6 43 3f
       0.76548165

running_var f4 [45]
000000 f0 72 d2 3f 6e de 03 3f 26 44 6d 3f 5d 3a 7b 3f
       1.6441326 0.51511276 0.9268211 0.9813593
000010 fb 8d 70 3f f4 4f 8c 3f 38 98 5d 3f e2 99 61 3f
       0.93966645 1.09619 0.8656039 0.8812543
000020 fd b1 9c 3f 11 91 93 3f 9e 0c 13 3f 8a a5 7d 3f
       1.2241818 1.1528646 0.5744113 0.9908072
000030 92 c1 e8 3e 4e 20 30 3f e2 f6 61 3f 43 df 8c 3f
       0.45460182 0.68799293 0.8826734 1.1005634
000040 eb 6c ce 3f 16 ff ee 3e 43 0c 55 3f 53 ea 99 3f
       1.6126989 0.4667899 0.83221835 1.2024635
000050 0b 52 a1 3f b8 c4 78 3f 25 1d 90 3f 83 71 77 3f
       1.2603163 0.9717517 1.1258894 0.9665758
000060 aa 0a 84 3f f0 78 48 3f e8 42 4c 3f f9 1b 96 3f
       1.0315754 0.78309536 0.7978959 1.1727287
000070 79 4e 2e 3f 05 05 10 3f 9e 10 8a 3f 73 f4 24 3f
       0.6808849 0.5625766 1.0786321 0.644355
000080 06 b3 95 3f 48 e4 a6 3f b5 27 12 3f 6d c0 8e 3f
       1.1695259 1.3038416 0.5709184 1.1152474
000090 91 56 40 3f 6c b8 2a 40 32 76 9e 3f 24 14 42 3f
       0.7513209 2.6675062 1.237982 0.7581198
0000a0 62 39 25 3f 1b 3d 8d 3f 06 f5 a2 3f de 6f 3f 3f
       0.64540684 1.1034273 1.2731025 0.7478007
0000b0 a8 39 93 3f
       1.150197

weight f4 [18, 45, 5, 5]
000000 81 2f 49 bc b9 6e a6 3c 58 75 89 3c 3c af 39 bc
       -0.012279392 0.020316469 0.016779587 -0.011333283
000010 12 00 19 bc 76 45 d6 bc 2a 98 75 bb 4b 6f ff bc
       -0.009338396 -0.026156168 -0.003747473 -0.031180998
000020 b8 0a 01 bc d0 06 88 3c bd c6 a1 3c 26 da 8e 3d
       -0.007876091 0.016604811 0.019748086 0.06975202
000030 dd 70 4e 3d e3 46 0f 3d d3 1a 32 3c fc 3d 36 3c
       0.050400604 0.034979712 0.010870653 0.011123177
000040 2d b6 49 3d 6b 54 14 3d 36 80 e0 3b 86 31 e2 3b
       0.049246002 0.03621332 0.0068512214 0.0069028763
000050 b3 8e a0 bc e4 5c ac 3c 14 14 4f bc 24 b8 6e bd
       -0.019599294 0.021040387 -0.012639064 -0.05828108
000060 66 f8 b9 3c 58 82 d1 3b d0 fc e3 bc b0 0f 99 bc
       0.022701453 0.006393712 -0.027830511 -0.018684238
000070 48 c3 92 bd 30 b2 2c bd 05 d3 de 3c 75 fd 4f bd
       -0.07166153 -0.04216212 0.027200231 -0.050778825
000080 64 80 73 bc 14 32 70 3c 23 b9 61 bc c4 9b 43 bc
       -0.014862154 0.014660377 -0.01377705 -0.011938993
000090 c6 d5 10 3c 7d f7 bf bc b5 e6 3c bd 24 9b 2a 3c
       0.00884003 -0.023433441 -0.046118457 0.010412965
0000a0 06 b3 59 3d d8 76 3f 3d 17 62 98 3d da fa 7e bb
       0.053149246 0.046744198 0.07440584 -0.0038906843
0000b0 1e 35 c2 bb 5e cb a3 3c 59 a3 8c 3c 58 ad 31 3d
       -0.005926742 0.019994434 0.017167734 0.043378204
0000c0 5b 58 96 bb 82 a6 20 bd f4 9e e2 bc 02 37 1c bd
       -0.0045881695 -0.039221294 -0.027663685 -0.038138397
0000d0 f2 60 a7 bc f2 8e 42 3b 24 9e 86 bb 03 21 73 3c
       -0.02043197 0.0029687253 -0.0041082073 0.014839414
0000e0 3e 28 8a 3b eb 2c 5f ba 59 1b 9a 3c 65 0c 43 3a
       0.004216223 -0.0008513468 0.018811869 0.00074405066
0000f0 6e 3f 07 bc a8 9c 80 3b 6f a1 1e 3d 17 b8 7a bb
       -0.008254869 0.003924925 0.038728174 -0.0038256699
000100 67 c5 23 bb 03 98 83 3d d7 e3 20 3d 4d 26 7a 3d
       -0.0024989487 0.06425478 0.039279785 0.061071683
000110 9e ff 29 3d 88 36 ac 3c 67 69 84 3d 56 e1 25 3d
       0.04150354 0.021022096 0.064654164 0.0404981
000120 5f 15 6d bd d1 f1 87 bc c0 94 4e bd 38 c2 85 3c
       -0.05788171 -0.0165948 -0.050434828 0.016327962
000130 16 12 f4 bc 03 01 15 bd b5 b5 36 3c df f3 48 bd
       -0.02979378 -0.036377918 0.011151721 -0.0490607
000140 e3 6c 95 bd 17 6b 90 bd 40 52 09 bd b7 86 37 bd
       -0.07296159 -0.07051676 -0.033525705 -0.04480621
000150 97 4d 25 bd f6 1b 62 bc 36 1c 39 bc f8 13 16 3d
       -0.0403572 -0.013800612 -0.01129823 0.036640137
000160 30 57 cf bc 0a f2 0a 3b 0b 37 83 bd b8 84 19 bd
       -0.025310129 0.0021201395 -0.06406983 -0.037480086
000170 30 69 b3 bc c4 3c 82 bd 2d a9 42 bd 41 91 fe bc
       -0.021900743 -0.063592464 -0.04752462 -0.031075122
000180 2b 7b 12 ba c8 0e dc 3b 22 f2 3c bc 70 a7 99 bc
       -0.00055878115 0.0067156292 -0.011532338 -0.018756598
000190 ac e7 93 ba 69 65 f1 bc 24 2b e2 3c d8 35 25 3d
       -0.0011284254 -0.029467301 0.027608462 0.040334553
0001a0 0f 51 65 3c 16 d1 a1 bd db 29 bb bd df 79 2a bc
       0.013996377 -0.07901208 -0.09138843 -0.010405033
0001b0 0e 62 89 bc 2b 9e 46 bd 16 a2 05 3d 95 4a 8d 3d
       -0.016770389 -0.048490684 0.03262528 0.06898991
0001c0 94 f3 9c 3d a9 ed 55 3d 49 d1 96 3c 0f 4e 8e 3d
       0.07663646 0.052228604 0.018410342 0.06948482
0001d0 8d 3f 13 3c 60 45 03 bd 6c 08 cc bc b1 6e 72 bb
       0.00898732 -0.032048583 -0.02490636 -0.0036992247
0001e0 cd a7 8c 3d 98 cd 0b 3d 4a b4 7d 3d cc cd 95 3c
       0.06867943 0.034131616 0.061939515 0.018286608
0001f0 fc ba 47 bc 54 ba 3e bb 68 f7 17 3d 44 5f 0d 3b
       -0.012190577 -0.002910276 0.03710118 0.0021571675
000200 b2 21 1d bd 56 c5 fb 3c 7b 9a 89 bc 4c ba c5 3c
       -0.038362212 0.030733746 -0.016797295 0.024136685
000210 e1 3d 28 3c f5 2d 43 b9 8d 3b bc 3c b6 99 7d bc
       0.010268659 -0.0001861377 0.022977615 -0.015478542
000220 09 8a b7 bc 1f a9 c2 bc e5 8a 92 3b f7 88 c6 3c
       -0.022404687 -0.023762284 0.004472124 0.024235232
000230 6f 0b 9d bc 5b 80 0a bc b0 b7 cf 3a 23 a2 93 3c
       -0.019170491 -0.008453454 0.001584759 0.018021649
000240 a3 6c 8e 3c a8 69 51 bd 0e ba ad 3c 13 31 d9 bc
       0.017385786 -0.051126152 0.021206882 -0.026512658
000250 fe e7 a5 bc 75 df 8d bc 43 04 ba 3b ed e8 48 3d
       -0.020252224 -0.017318467 0.0056767776 0.04905026
000260 2b 8e 23 3d 54 11 31 3c 63 5b 00 bb 24 41 a0 bb
       0.039930504 0.010807354 -0.001958572 -0.004890578
000270 70 a9 f4 bc ae 0c 00 bd 74 87 00 3c 95 63 a7 bb
       -0.02986595 -0.031262092 0.007844795 -0.0051083067
000280 d9 f2 b6 3c 6e b2 c5 3c 28 4c 78 3c e5 83 c9 3c
       0.022332596 0.024132933 0.015154876 0.024599025
000290 3e 0b 17 3d f7 70 14 bb a6 89 8f bd d0 0b 8a bd
       0.036875956 -0.002265034 -0.07008676 -0.06740534
0002a0 f8 aa 0d bd 35 3d 86 3c 42 f0 7f bc 88 ae 2d bd
       -0.034586877 0.016386608 -0.015621247 -0.042402774
0002b0 ac 69 5d bd 9f 9f bf bc 00 f7 22 bd 56 ee 85 bc
       -0.054055855 -0.023391543 -0.03978634 -0.016348999
0002c0 b2 f1 00 bd 9a 96 6c bc d6 a6 d3 bc 98 ba a2 3c
       -0.0314805 -0.014440203 -0.02583639 0.019864365
0002d0 61 e1 8e bc f7 d6 00 bd bc d2 02 3c a8 45 30 bd
       -0.017441453 -0.031455006 0.007984813 -0.04303518
0002e0 88 38 e0 3b 90 98 7e bc 1b ff f5 bb ac 26 c8 ba
       0.0068426766 -0.015539303 -0.0075072176 -0.0015270314
0002f0 bf 6a 9c 3c 50 45 19 3d 25 3e 34 bd 99 79 a5 ba
       0.01909387 0.037419617 -0.04400458 -0.001262474
000300 32 44 8b 3c cd 8a 9d bc 88 9f 36 bc 0e 96 b2 3c
       0.017000291 -0.019231224 -0.011146434 0.021800067
000310 4c 5c b1 3d 9d 13 9c 3c a8 d7 49 3d 1e 94 63 3d
       0.08660182 0.019052321 0.04927793 0.055561177
000320 81 93 17 bd 18 a0 99 bc f1 26 67 bd c1 75 28 bc
       -0.037005905 -0.018753096 -0.05643362 -0.010281981
000330 2a d5 49 3d 31 0a e9 3b 3e 62 48 bc 0e b5 85 bb
       0.049275555 0.0071118106 -0.012230454 -0.0040804213
000340 47 19 9d 3c 46 fa 70 bb 59 e4 c4 3b c6 39 18 3c
       0.019177092 -0.0036770268 0.0060086665 0.009291118
000350 27 b9 58 bd cd e5 76 bd ae 0e 31 3c 96 60 37 bc
       -0.05291095 -0.06027775 0.010806723 -0.0111924615
000360 eb 88 21 3d eb c4 26 3c c0 e6 3c bd 12 ce bc 3c
       0.039437216 0.010178785 -0.046118498 0.02304748
000370 df 02 18 bd 0f 6e 98 bc 6a 7f ee bc df 40 e1 3c
       -0.037112113 -0.018607168 -0.02911349 0.027496753
000380 94 d1 ac 3b a3 f6 0c 3d b2 b4 6c 3d be 65 d5 3c
       0.005274007 0.0344149 0.057789512 0.026049491
000390 70 6f b4 bb dc 04 92 3c 93 fe 2e bd 9f 7b a0 3a
       -0.0055064484 0.017824583 -0.04272325 0.0012243873
0003a0 54 1d b6 3c 21 29 31 3d 4e 24 4d bd 76 fa 1c 3d
       0.022230782 0.043252114 -0.05008345 0.038324796
0003b0 0f 57 00 3b 21 a6 ab bb d3 24 83 3a e7 36 90 bc
       0.001958314 -0.00523831 0.0010005481 -0.017604304
0003c0 40 d2 0c bd ea 92 ce 3c ea be e4 bc 70 49 8b 3c
       -0.034380198 0.025216538 -0.027923066 0.017002791
0003d0 88 16 56 3c be 0d ea 3c 44 68 b8 3c d5 9d 8d bc
       0.013066895 0.028571006 0.022510655 -0.017287174
0003e0 5c 33 e5 3c f3 dc 67 3b 2a 8f 3c bd 3c 49 5d bb
       0.027978592 0.0035379499 -0.04603497 -0.0033765575
0003f0 67 05 c4 bc 24 49 46 bd 89 f6 46 bd cb 61 05 3d
       -0.023928357 -0.048409596 -0.048574958 0.032563966

weight f4 [18]
000000 8f d2 80 3f 6b e5 73 3f be 5a 8d 3f b5 be 8e 3f
       1.0064257 0.9527194 1.1043317 1.1151949
000010 ef 11 78 3f 1d 30 73 3f d0 44 78 3f 99 08 83 3f
       0.96902364 0.9499529 0.9698 1.0236999
000020 c6 ce 6f 3f 08 14 72 3f 1c ff 8a 3f e5 19 80 3f
       0.93674886 0.94561815 1.0859103 1.0007902
000030 79 05 77 3f 8e e2 75 3f 84 40 82 3f d5 4b 7c 3f
       0.96492726 0.9604882 1.0175939 0.9855321
000040 1e 23 7e 3f cb dc 7b 3f
       0.99272335 0.9838378

bias f4 [18]
000000 5c 0c 9b ba 5e a6 52 3d c7 04 c7 bd 39 90 00 be
       -0.0011829245 0.05142819 -0.09717708 -0.12555017
000010 2a dc 59 3c fd 89 20 bc 38 26 96 bd 24 03 95 3c
       0.01329712 -0.009798524 -0.073315084 0.018189974
000020 0b a8 a4 3c 47 ce f0 bb b3 b6 68 be f7 2c c8 3d
       0.02009966 -0.007348809 -0.22725944 0.09774201
000030 0d d9 ce bd f0 19 65 3d a6 11 86 bd a3 41 89 bc
       -0.10099993 0.05593294 -0.06546335 -0.01675493
000040 33 6a 45 bd 5a d0 9a bd
       -0.048196983 -0.07559271

running_mean f4 [18]
000000 7b d7 99 3f 4e 36 63 bf b4 48 4a c0 39 94 4d c0
       1.2018884 -0.8875474 -3.1606874 -3.2121718
000010 b0 ac e8 bf 0d 28 57 40 4f 51 20 3f 57 b9 9d bf
       -1.81777 3.3618195 0.6262407 -1.2322186
000020 24 19 22 3f 98 22 0c 3f 76 35 d2 bf 15 0d 10 bf
       0.6331961 0.54740286 -1.6422565 -0.5626996
000030 28 1e c3 3e a8 6e 8a bf 84 1e 97 bf d0 3a 09 40
       0.38108945 -1.081502 -1.1806188 2.1442146
000040 03 3c e3 bd aa fc 10 be
       -0.11095431 -0.14158884

running_var f4 [18]
000000 4d d6 c4 3f 1a 8b d3 3f c7 b5 21 40 9c e4 33 40
       1.53779 1.6526825 2.5267198 2.8108282
000010 55 f5 ce 3f 9f b5 07 40 b1 59 2a 40 e6 bd 15 40
       1.6168619 2.1204603 2.6617243 2.3397155
000020 da a4 08 40 e2 ff d9 3f bf c8 e8 3f 03 cf 6e 40
       2.1350617 1.7031214 1.8186263 3.731385
000030 e8 f6 c5 3f 55 05 c3 3f fa bf 32 40 64 c8 94 40
       1.5465975 1.5236002 2.7929673 4.6494617
000040 9e 08 76 40 0c 9c b0 3f
       3.844276 1.3797622

weight f4 [6, 18, 5, 5]
000000 b5 27 ec bb 33 9c 91 bd 0f 0e 25 bd 70 e1 2f bd
       -0.007206882 -0.07109871 -0.04029661 -0.042939603
000010 b0 8b fe bc 54 7b de 3b ad af 70 3c 06 4e 29 bb
       -0.031072468 0.006789604 0.014690322 -0.002583386
000020 f2 a7 ff 3c 80 eb 8b bc cf 0e 5e 3d 8c 94 ac 3d
       0.031208012 -0.017080069 0.05421334 0.084267706
000030 4c 41 ac 3d f1 cf ea 3c b2 95 dd bc 2a f8 92 3d
       0.08410892 0.028663607 -0.02704892 0.0717624
000040 a5 3c 6b 3d 25 8e be 3c 2e 77 aa 3c 14 37 f1 3c
       0.057430882 0.02326114 0.020808782 0.029445209
000050 93 1d bd 3d 2f cd 50 bc 9f 15 a2 3d 0e c1 88 3c
       0.092341565 -0.012744232 0.0791428 0.016693618
000060 26 7f 0e 3d fb 65 16 3c bd 0e 85 bd 83 ba d8 3c
       0.034789227 0.0091795875 -0.06496952 0.026456123
000070 33 0b 9d bb 02 eb be bb 7d 74 49 bc 57 6d 98 bc
       -0.004792595 -0.005826355 -0.012295839 -0.018606825
000080 e2 e3 f9 3c ee 4d 39 bd a6 e0 2a bd d3 6f 12 3d
       0.03050417 -0.045240335 -0.041718148 0.035751175
000090 ab 72 9f 3c da d8 5c 3d ec 83 57 3c b1 51 94 3d
       0.019463858 0.053917743 0.013154011 0.07242144
0000a0 67 08 dc bc c0 b9 88 bb e7 66 e5 bc 9c ad 99 bc
       -0.026859475 -0.0041725338 -0.02800317 -0.018759541
0000b0 84 25 2e 3d 86 74 b2 3b 36 87 82 3d c3 c0 bb 3d
       0.042516246 0.0054460196 0.06373446 0.09167626
0000c0 eb 2f 73 3d d3 61 86 3d 49 53 e6 bb d4 18 06 bd
       0.05937187 0.06561627 -0.0070289713 -0.03273852
0000d0 77 56 df 3c 0d 8a 78 3c b9 33 b4 bb 9d 05 85 3d
       0.02726291 0.015169633 -0.00549933 0.06495211
0000e0 88 c8 cc 3c 3a 4e ab bb dd a6 e0 3b 00 5a 4d bc
       0.024997965 -0.005227831 0.006855829 -0.012533665
0000f0 90 39 66 3d 64 dc 09 3d e2 51 22 3c c2 a1 f7 3d
       0.05620724 0.033657447 0.009907218 0.120914
000100 2f 98 0a 3e 07 fe ac bc a8 d4 87 bd d4 22 1f bd
       0.13534616 -0.021117223 -0.06632358 -0.038851574
000110 22 f1 96 bd 63 6d 87 bd e8 64 37 3c 7a 1b 92 bc
       -0.07370211 -0.06612661 0.0111934915 -0.017835367
000120 5e f6 04 3d b8 1b 52 bd 75 70 94 bc 64 c9 a4 3c
       0.032461517 -0.051295966 -0.01812003 0.020115562
000130 e0 45 af 3c c4 6a 4d 3d fe 26 8b bc 41 a0 03 3d
       0.021395624 0.050150648 -0.016986366 0.032135252
000140 69 44 d4 3c 58 46 73 3c ca 87 3e 3d 8e fe 8b 3c
       0.025911527 0.014848314 0.046516217 0.017089155
000150 45 99 85 3b 47 27 86 bc 38 8b ea bc 64 6e ce bb
       0.004077109 -0.01637615 -0.028630838 -0.0062997807
000160 a0 54 6b bb 6a 8c 02 bd f9 6b 0a bd ee e7 26 bc
       -0.0035908595 -0.03187219 -0.033794377 -0.010187132
000170 15 48 08 bd 46 b0 42 bd 97 f8 82 bd 79 ac 6e bd
       -0.033271868 -0.04753139 -0.06395071 -0.05826995
000180 32 bd 49 bd 5b 2f 1f bd 5c 5e 4d bd b0 7f ae bc
       -0.049252696 -0.03886352 -0.050138816 -0.02130112
000190 26 a3 89 3c 63 3e 0d 3d f4 55 e2 3c cc 98 f5 3c
       0.016801428 0.034483325 0.027628876 0.029980086
0001a0 cd 53 48 bc 55 f4 89 3d 34 8d 88 3d 20 79 0e 3d
       -0.012227011 0.06736056 0.06667557 0.034783483
0001b0 4d 4c ad 3c cd 2a 6c 3d 9f 02 6e bc ee 3f 0c 3d
       0.021154547 0.057658006 -0.014526992 0.034240656
0001c0 6a 27 7b 3b d0 7f e7 3c 0b d3 56 ba 0a f1 06 bc
       0.0038323053 0.028259188 -0.00081949 -0.008236179
0001d0 e2 75 fb bc 04 91 a2 3c 4a 01 92 bc 87 5a 88 bb
       -0.03069586 0.01984454 -0.01782288 -0.0041611823
0001e0 92 92 d4 3b 59 a7 5c 3d b0 54 9c 3d 8b af 2b 3d
       0.006487199 0.053870533 0.0763334 0.041915458
0001f0 89 2d d1 3d f6 60 14 bd 5f 5f fa bc 7c 10 27 bd
       0.10213763 -0.03622528 -0.030563055 -0.040787205
000200 9a 20 0f bd ae 06 69 bd ad da a9 bc d8 4a e6 ba
       -0.0349432 -0.056891136 -0.020734156 -0.0017569913
000210 7a 51 ce bc a4 2e c2 bc 78 b9 30 3d fd d1 67 bd
       -0.025185335 -0.02370388 0.043145627 -0.056596745
000220 e5 5f e1 3b 3b f9 fd 3b a6 46 92 bd e3 fe c9 bc
       0.0068778866 0.007750658 -0.07142381 -0.024657672
000230 33 cb d6 3b b1 39 36 bd da 28 8c 3c 31 31 3a 3d
       0.006554985 -0.044488613 0.017109323 0.04545707
000240 3a a5 fb bc 86 d7 a3 3d c8 8e 72 3d 1d 2d af bb
       -0.030718435 0.08000092 0.059218198 -0.005345954
000250 6c 20 a1 3d b6 bc b0 3d 00 17 39 3b fb 7c 73 3c
       0.07867512 0.08629744 0.0028242469 0.014861341
000260 55 bd 7b 3c 54 92 ef 3c 08 81 cb 3c 88 fe 27 bd
       0.0153649645 0.02924458 0.0248418 -0.041014224
000270 0d c3 fd 3b 0e fa e8 3c f9 69 41 3c 55 aa 05 3c
       0.007744199 0.028439548 0.011805051 0.008158286
000280 38 a3 b6 bd e1 47 af bd 8d 4f 76 bd 55 cb 8b bd
       -0.0891785 -0.08558632 -0.06013446 -0.06825892
000290 78 5c 41 bd 8c 6d 08 bd 2a ef c7 3c 08 b8 2d bd
       -0.047207326 -0.033307597 0.024406034 -0.042411834
0002a0 60 6e 6b 3c 7c 52 a7 3c 54 85 c1 bc 9a dd 6d bd
       0.014369577 0.020425074 -0.023623146 -0.058072664
0002b0 9b 2d 80 bd fa c2 6f bd 3c 83 9f bd 13 45 3b 3d
       -0.062586986 -0.058535554 -0.07788703 0.04572017
0002c0 a2 70 9c 3d f6 48 bd 3c 4a 4a b7 bc 80 e7 16 3d
       0.076386705 0.02310608 -0.022374291 0.03684187
0002d0 2f 87 0e 3c e0 d4 a8 3c 25 79 57 bd 62 a7 e0 bc
       0.0086992225 0.02060932 -0.052605767 -0.027423564
0002e0 27 cf c5 3c 6f b9 5a bc 7b 72 a9 bc 3c df 96 bc
       0.02414663 -0.013349875 -0.020684471 -0.018416993
0002f0 5a 0e 1d bc 08 8b 06 3d 7e c0 2e bd 11 58 37 bc
       -0.009585941 0.032847434 -0.042664044 -0.01119043
000300 a4 fe 87 bd 5f af 04 bd 60 e4 a1 bd a2 a9 66 bd
       -0.06640366 -0.03239381 -0.07904887 -0.05631412
000310 f6 d8 66 bd 64 53 1c bd a2 d9 d0 bd 5c cb 39 bd
       -0.056359254 -0.038165465 -0.1019776 -0.045359954
000320 c3 b5 1f 3b ea 6e e6 3b 45 f6 48 3d bf df 21 bc
       0.0024369813 0.007032265 0.049062986 -0.009880005
000330 fc 97 a9 3c f5 8f 0f bd 55 3a e3 3c 28 99 87 3c
       0.020702355 -0.035049397 0.027737776 0.016552523
000340 82 fd 86 3b 77 2a 64 3d c3 64 0c 3d 17 52 3b 3d
       0.004119576 0.05570456 0.03427578 0.045732584
000350 65 60 63 3d e5 05 15 bc 8d 64 8b 3d c6 a1 b1 bc
       0.05551185 -0.009095644 0.06806288 -0.021683585
000360 65 78 ca 3c 96 c4 21 3d 99 5f c8 bb ae 06 0a 3d
       0.024715612 0.03949412 -0.0061149118 0.033697776
000370 08 4d 98 bd c2 09 8a bc 0d 3e 9f bd 31 68 35 bc
       -0.074365675 -0.016850356 -0.07775507 -0.011072204
000380 aa 06 5e 3d f6 7e 6d 3c 9e d0 ba 3b a1 42 3e 3c
       0.054205574 0.014495602 0.0057011386 0.011612565
000390 19 92 c1 3b ae 2e 38 3d 3d 64 fd bc 54 4d f0 bb
       0.005907309 0.044966392 -0.030931586 -0.007333437
0003a0 70 c9 71 bd ba b5 87 3b 8b fb e2 bc c2 40 d1 3c
       -0.059029996 0.0041415365 -0.027707836 0.025543574
0003b0 90 5d 31 bd bb 4e 49 bc 3c b6 5d bd 26 b7 34 bd
       -0.04330212 -0.012286837 -0.05412887 -0.044119976
0003c0 1f a7 42 3b bc d1 8f 3d 54 9b e9 3c 54 d4 cb bc
       0.0029701663 0.070224255 0.028516449 -0.02488152
0003d0 2a 03 da 3c 14 18 1b bc 9e 23 5e 3d 00 b5 b0 bc
       0.026612837 -0.00946619 0.054233186 -0.021570683
0003e0 8e a5 b4 3c 0f 16 9a 3d 43 84 38 3c ad cd b5 ba
       0.022051599 0.075237386 0.011262002 -0.00138705
0003f0 f2 26 4b 3d 74 33 04 3c ea 21 d4 3d b6 f3 11 bd
       0.049597688 0.008068908 0.10358031 -0.03563281

weight f4 [6]
000000 39 b1 6b 3f 84 bd 78 3f 50 4e 6c 3f 52 d8 7c 3f
       0.92067295 0.9716418 0.92306995 0.9876758
000010 89 ab 93 3f 10 bd 82 3f
       1.1536723 1.0213947

bias f4 [6]
000000 aa c2 89 3d 3a 32 01 3d 57 02 a8 3d ce 21 8f bd
       0.06726582 0.03154204 0.08203571 -0.069888696
000010 65 c6 21 3e 05 1b 88 3d
       0.15798338 0.066457786

running_mean f4 [6]
000000 c4 b0 50 3d 7f b1 8d 3f 51 66 f0 3f 7d 8c b9 3d
       0.050949827 1.1069793 1.8781224 0.09059999
000010 62 b9 12 bd 69 1f 14 be
       -0.035821326 -0.14465107

running_var f4 [6]
000000 9a 7d a8 3f fe f9 20 40 e0 71 91 40 f2 6a a2 3f
       1.316333 2.5152583 4.5451508 1.2688887
000010 e5 d1 79 3f 02 85 2b 40
       0.975859 2.6799932

weight f4 [1, 6, 5, 3]
000000 06 e6 c6 3b 41 99 61 3c 52 7e ac 3d 67 ca 56 3c
       0.0060699014 0.013769449 0.08422531 0.01310978
000010 ea 64 88 bc f6 a5 92 bb 70 f8 8f 3d e5 f3 07 3d
       -0.016649682 -0.0044753505 0.070298076 0.03319158
000020 ca 1b 0f 3d 78 18 d5 bc 92 00 6e bd 47 85 7e bd
       0.03493861 -0.026012644 -0.058106013 -0.062138822
000030 00 65 96 bd a2 80 83 3c 82 ca a6 3c b0 37 c9 3d
       -0.07343483 0.016052548 0.020360235 0.09825075
000040 bd 5e 5f 3d f5 a6 16 3d bc 2a e1 bc 33 44 14 bd
       0.05453371 0.036780316 -0.027486198 -0.036197852
000050 c6 db 5e bd 97 4b d5 bd 4f fd 83 bd f3 f7 3e bd
       -0.05440881 -0.10414808 -0.06444799 -0.04662318
000060 1f c0 70 3b 40 87 04 bd 14 93 4f bc 44 c0 30 3d
       0.0036735607 -0.032355547 -0.0126693435 0.04315211
000070 13 40 38 bd dc d9 40 3d 12 dc c1 3c 60 ba c7 bd
       -0.04498298 0.047082767 0.023664508 -0.09752345
000080 3f 53 12 3c 60 06 04 bc bc 94 8f 3d 9a 1c 27 3e
       0.00893098 -0.008058161 0.07010791 0.16319504
000090 7f 74 19 3d 26 63 1c 3d 24 21 12 bd 4d 0a 8e bc
       0.037464615 0.038180493 -0.035676137 -0.017338896
0000a0 34 ee be 3d 11 f0 72 bb 15 6e f8 3c 53 fe e8 bc
       0.093227774 -0.003706936 0.030325929 -0.028441584
0000b0 9c 27 ad bd 17 48 c2 bd 81 59 0f bb c2 5b 87 bd
       -0.084548205 -0.09486406 -0.0021873417 -0.06609298
0000c0 57 28 67 bc 4b 3a 52 3c 37 85 d5 bc fb bb 15 3e
       -0.014108739 0.012831281 -0.026064498 0.1462249
0000d0 3e 15 a7 3d 45 ba 67 3d ab e8 57 bd db fe 44 bd
       0.081583485 0.056574125 -0.052712124 -0.04809461
0000e0 07 25 fd bc 8a e6 12 3d ac 1c 48 3d e6 97 9a 3d
       -0.030901445 0.03586439 0.04885547 0.075485036
0000f0 1b ed 51 be 5b ed 9d bd 4b ce 74 be b5 ff 96 3c
       -0.20500605 -0.077112876 -0.2390682 0.018432477
000100 fa d4 a5 3c 21 7c 28 3d ce dd a1 3d d5 ae c5 3c
       0.020243157 0.041134004 0.07903634 0.024131218
000110 7d 14 b1 3d 60 35 7d 3d 63 98 cc 3c de 95 03 3d
       0.08646486 0.06181848 0.024975007 0.032125346
000120 c3 d2 4f bd 35 93 3c bd 02 74 6a bd 94 27 19 3e
       -0.050738107 -0.046038825 -0.05723954 0.14956504
000130 71 4d 96 3c 1b c1 06 3e 0a 14 0d 3a 1c 12 79 ba
       0.018347474 0.13159601 0.0005381709 -0.00095012947
000140 87 37 62 bd a9 3a 93 3b ab f6 e2 3b 60 66 87 bc
       -0.055228736 0.004493077 0.006926378 -0.016528308
000150 84 9f 5d bb 55 df 98 3c 9c b4 5b 3d 54 23 0b bd
       -0.0033817003 0.01866118 0.05363904 -0.03396924
000160 c2 03 35 3c 8c 1d ec 3a
       0.011048259 0.0018014177
