source/models/MelodyTimbreCNN/model_segment-velocities_diff-melodies_MIDIsampledseen.pth (torch, 204095 bytes, 31 tensors)

weight f4 [6, 1, 5, 5]
0.035131775 0.030895593 0.19929002 0.047809124 0.044777986 0.09082633 0.03543365 -0.06296058
0.15514688 0.07112283 0.16257729 0.030743172 0.048293877 -0.10049296 -0.080234475 -0.20238587
-0.034250353 0.14793539 -0.12335886 0.056596976 -0.14385778 -0.0454411 -0.0057171877 0.11113278
-0.15578099 -0.18270493 -0.13229182 0.066971146 -0.12562077 0.14556286 -0.21980825 0.030556852
-0.17787862 -0.074125804 -0.20530654 0.18179992 0.048294894 -0.14873052 0.10534131 0.13712335
0.096748985 -0.0029644682 0.09539119 0.07360813 0.02871791 -0.07450666 0.13262327 -0.052210644
0.035406016 -0.0048109503 -0.049512055 -0.06714117 -0.07968514 0.11700814 -0.06258586 -0.12725806
0.21014754 0.17977342 -0.14568946 -0.09796381 -0.085000455 0.09987222 -0.11598458 0.068830945
0.003089852 0.12667269 0.12996182 0.18931282 0.03339936 -0.07421988 0.005774347 0.12798102
0.06102649 -0.0827448 -0.14521085 0.12724291 0.03766455 -0.07996523 0.08629592 0.11857384
-0.16849032 -0.17570707 -0.110839486 -0.027961532 -0.089657955 -0.06883917 -0.22426066 -0.15752041
0.093197465 0.14531608 -0.14256291 0.18010259 -0.078679286 -0.03125153 -0.1610545 0.20099007
0.015309387 0.14962962 0.048549186 0.07760876 -0.13444436 0.009906193 -0.11770589 0.029248508
0.0580149 -0.015457981 -0.0015836724 -0.10682145 -0.12379127 -0.060895167 -0.054197114 0.14981164
0.15729387 -0.07605193 -0.19454265 -0.20362872 0.11046404 -0.010719371 -0.12031888 -0.1905227
-0.19885562 0.123877965 0.114986025 -0.19125374 0.14702421 0.14740445 0.18331397 -0.11837723
0.10650692 -0.05249423 0.20449995 -0.031802863 -0.18922016 -0.11023602 0.06609701 -0.11185692
0.0639411 0.087437846 0.078462265 -0.20977092 -0.02563587 -0.14611149 -0.05206946 0.04431957
0.10788137 0.009253908 -0.05623931 0.14116488 0.07399227 0.04465206
00000000: 56e6 0f3d c118 fd3c af12 4c3e 80d3 433d
00000010: 1f69 373d 2803 ba3d e022 113d 7af1 80bd
00000020: d3de 1e3e d9a8 913d a97a 263e 1bd9 fb3c
00000030: cdcf 453d 41cf cdbd f951 a4bd 3e3e 4fbe
00000040: 194a 0cbd 607c 173e 92a3 fcbd 3bd2 673d
00000050: 744f 13be 7220 3abd 3f57 bbbb 9599 e33d
00000060: 0d85 1fbe 0017 3bbe 8277 07be 2b28 893d
00000070: bba2 00be 6e0e 153e 6a15 61be 5d52 fa3c
00000080: d025 36be 45cf 97bd e13b 52be c229 3a3e
00000090: ded0 453d d04c 18be 2fbd d73d 106a 0c3e
000000a0: 5524 c63d 8647 42bb 755c c33d dcbf 963d
000000b0: d341 eb3c f396 98bd 65ce 073e d4da 55bd
000000c0: e605 113d 2da5 9dbb 27cd 4abd 4f81 89bd
000000d0: f631 a3bd f7a1 ef3d 042d 80bd f04f 02be
000000e0: eb30 573e 8616 383e 9e2f 15be 40a1 c8bd
000000f0: b814 aebd ce89 cc3d 5389 edbd 3df7 8c3d
00000100: 1d7f 4a3b 7cb6 013e b614 053e 38db 413e
00000110: c4cd 083d 9800 98bd bc36 bd3b 750d 033e
00000120: eaf6 793d 1b76 a9bd 27b2 14be f74b 023e
00000130: 2546 1a3d cfc4 a3bd eabb b03d d7d6 f23d
00000140: ba88 2cbe 8eec 33be d0ff e2bd 950f e5bc
00000150: 979e b7bd 8dfb 8cbd 96a4 65be 084d 21be
00000160: 50de be3d bdcd 143e 03fc 11be d06c 383e
00000170: 9b22 a1bd 9b01 00bd 79eb 24be 57d0 4d3e
00000180: 39d4 7a3c 8238 193e 83db 463d 57f1 9e3d
00000190: c8ab 09be 964d 223c c90f f1bd 919a ef3c
000001a0: 08a1 6d3d 7943 7dbc 3a93 cfba 34c5 dabd
000001b0: 4786 fdbd 366d 79bd cbfd 5dbd 3968 193e
000001c0: a511 213e 1dc1 9bbd 3036 47be 0c84 50be
000001d0: f83a e23d 4da0 2fbc bf69 f6bd 6218 43be
000001e0: cfa0 4bbe bbb3 fd3d cb7d eb3d 05d8 43be
000001f0: 848d 163e 31f1 163e a8b6 3b3e c36f f2bd
00000200: 4d20 da3d 3104 57bd 6f68 513e b843 02bd
00000210: eec2 41be 6cc3 e1bd df5d 873d 3e15 e5bd
00000220: 8df3 823d 9d12 b33d d3b0 a03d 30ce 56be
00000230: 5102 d2bc 409e 15be c946 55bd 7088 353d
00000240: e8f0 dc3d b49d 173c 315b 66bd 878d 103e
00000250: 4289 973d 14e5 363d

bias f4 [6]
-0.009428999 -0.14225051 -0.19704817 -0.15655929 0.022079242 -0.1415206
00000000: 177c 1abc 1eaa 11be ffc6 49be 1451 20be
00000010: 87df b43c c7ea 10be

weight f4 [6]
0.9813853 1.0160611 0.97731555 1.0246414 0.98533565 1.0120348
00000000: 113c 7b3f 4a0e 823f 5a31 7a3f 7327 833f
00000010: f53e 7c3f 5b8a 813f

bias f4 [6]
-0.04472693 0.006970485 -0.057833146 0.018967615 -0.050334577 -0.05553634
00000000: 9633 37bd ab68 e43b 73e2 6cbd f961 9b3c
00000010: a12b 4ebd 137a 63bd

running_mean f4 [6]
-0.0012073747 -0.14946891 -0.19935077 -0.1607818 0.019036913 -0.14055079
00000000: c640 9eba 610e 19be 9c22 4cbe fca3 24be
00000010: 4df3 9b3c 8cec 0fbe

running_var f4 [6]
0.16572984 0.11530179 0.12520699 0.12132145 0.71956605 0.061876
00000000: 15b5 293e 5823 ec3d 4336 003e 6177 f83d
00000010: 7b35 383f b071 7d3d

weight f4 [18, 6, 5, 5]
0.04085593 0.042319227 0.0013643621 0.03830183 0.060356565 0.014285727 0.041495956 -0.020066638
0.057958752 0.02819256 -0.051810674 -0.04557529 0.0644021 -0.05136337 -0.029376779 -0.06958194
-0.03735333 -0.040297184 0.036630016 -0.013696654 -0.002570006 -0.038832173 0.03875357 -0.012651047
0.08268331 -0.07086369 0.014365888 -0.024541993 -0.048892885 -0.061423194 0.05123491 0.032932676
0.06262706 -0.06159592 -0.04865447 0.080569044 0.04359213 -0.028724594 -0.010774366 0.006602222
-0.050299473 0.022300571 -0.036321245 0.026206627 -0.06385418 0.022278093 0.014462908 -0.0036170552
-0.13563724 -0.083471805 0.06403176 0.017032707 -0.068910055 0.038648684 0.041866712 -0.086445555
-0.08377335 -0.0340036 -0.002197316 0.07016293 -0.08067808 0.031413417 -0.0022298102 -0.047413092
-0.05478697 -0.039344378 -0.002738745 -0.0022230519 -0.008585995 -0.06667463 0.014519381 0.081348464
0.11486083 -0.03861692 -0.08096741 0.046417397 0.073256105 0.0979092 0.08938296 0.04961196
-0.070864655 -0.058922373 0.07301601 0.007918994 0.05346593 -0.009634308 -0.05009521 0.0581355
-0.025642497 0.019970236 -0.057062495 -0.050585434 -0.0052459473 -0.03537246 -0.072620295 0.06259839
-0.058394805 0.045791633 0.027144216 0.047939688 0.018900039 0.06274464 0.06274148 -0.061310418
-0.02563815 0.049135808 0.059732035 0.043686084 0.004965179 0.09060212 0.019543862 0.07030845
0.086091205 -0.046018433 -0.010038107 -0.061927862 -0.025442332 0.015690941 -0.012862531 -0.06311913
0.06567981 0.016638342 -0.028738763 -0.065812156 0.08322268 0.069686465 0.032456998 0.013205704
0.02593082 0.09610977 0.01975695 0.02061045 -0.09204351 -0.055936355 0.042276625 -0.0578145
-0.05640305 0.047722638 -0.06417709 0.07202495 0.043508846 0.056053996 -0.026885968 0.025676182
-0.020736292 -0.06394738 0.012010354 -0.12508592 -0.09631391 -0.04831486 -0.014110831 -0.102767214
-0.0839511 -0.09651329 0.045110986 -0.06250045 0.037187025 -0.052531417 -0.0494954 0.006536112
-0.052976713 -0.05989069 -0.025231626 -0.0831024 0.020664198 0.0716327 0.072952166 0.014333627
0.081417486 -0.043978546 0.05189132 0.0486658 0.067560904 0.033412483 0.009627589 -0.016701156
0.06708989 -0.08094755 0.07613872 -0.03981085 -0.010616576 0.06575526 0.05292139 -0.028395558
0.015470901 0.009844127 0.07059955 0.08325341 0.06728643 0.05221077 -0.043875463 0.022732342
0.09321625 0.08819342 -0.0046758424 0.021997802 -0.082119256 0.022512931 -0.08511154 -0.0430457
0.01657011 -0.0515459 -0.08400786 0.053832814 -0.025513267 0.07540433 -0.008704798 -0.023161253
0.031597566 -0.031202791 0.054338057 -0.027954856 -0.09037834 0.036221057 -0.06705531 0.054290596
0.062076945 -0.020031536 0.01095337 0.06259775 0.00081460405 -0.08698482 0.038044393 0.0051224534
0.06289874 0.019130267 0.042452704 -0.10142147 -0.005675762 -0.04089933 -0.012190409 0.060071543
-0.030276895 -0.082088165 -0.009185353 -0.024627637 -0.034918867 0.043123767 -0.010828486 -0.051978767
-0.021138288 0.06712035 0.011482832 0.042222623 0.055763453 0.016724974 0.05404509 0.03600266
0.038380466 -0.054376457 -0.037778918 -0.0068652234 -0.07662274 -0.011723765 -0.03747863 0.07159484
00000000: 8c58 273d ed56 2d3d 65d4 b23a 61e2 1c3d
00000010: 7238 773d af0e 6a3c aaf7 293d ca62 a4bc
00000020: 2866 6d3d 15f4 e63c 6e37 54bd 28ad 3abd
00000030: 40e5 833d 6662 52bd 92a7 f0bc fa80 8ebd
00000040: ceff 18bd a90e 25bd 5b09 163d ee67 60bc
00000050: 8c6d 28bb 7c0e 1fbd 10bc 1e3d 5646 4fbc
00000060: de55 a93d fb20 91bd e75e 6b3c 4a0c c9bc
00000070: e843 48bd e396 7bbd b2db 513d 6ae4 063d
00000080: 9e42 803d 014c 7cbd e949 47bd 6201 a53d
00000090: a98d 323d d74f ebbc f786 30bc 7457 d83b
000000a0: d206 4ebd b0af b63c 96c5 14bd 48af d63c
000000b0: fbc5 82bd 8c80 b63c d5f5 6c3c 1e0c 6dbb
000000c0: 7de4 0abe 44f3 aabd 1523 833d 2d88 8b3c
000000d0: b720 8dbd 154e 1e3d 6e7c 2b3d 5e0a b1bd
000000e0: 5d91 abbd 5c47 0bbd d800 10bb 95b1 8f3d
000000f0: 8d3a a5bd 5bab 003d 0222 12bb 3b34 42bd
00000100: 4d68 60bd 9227 21bd 847c 33bb 9fb0 11bb
00000110: 46ac 0cbc b58c 88bd b3e2 6d3c 069a a63d
00000120: 283c eb3d c72c 1ebd 3ed2 a5bd 2b20 3e3d
00000130: 4c07 963d 9e84 c83d 6a0e b73d e935 4b3d
00000140: 7d21 91bd 9658 71bd 6b89 953d abbe 013c
00000150: 17ff 5a3d 37d9 1dbc a330 4dbd 7d1f 6e3d
00000160: 3710 d2bc 9f98 a33c 5dba 69bd ac32 4fbd
00000170: 32e6 abbb b6e2 10bd f3b9 94bd 9633 803d
00000180: 642f 6fbd 0290 3b3d 8c5d de3c 685c 443d
00000190: 41d4 9a3c 4380 803d 9b7e 803d a220 7bbd
000001a0: 1907 d2bc a142 493d 94a9 743d 2ef0 323d
000001b0: f1b2 a23b 9b8d b93d 731a a03c e0fd 8f3d
000001c0: 9650 b03d d37d 3cbd df76 24bc 12a8 7dbd
000001d0: 706c d0bc 4a8a 803c 5dbd 52bc 9a44 81bd
000001e0: 2383 863d 224d 883c 8e6d ebbc 86c8 86bd
000001f0: a770 aa3d c7b7 8e3d a1f1 043d bd5c 583c
00000200: df6c d43c 33d5 c43d 54d9 a13c 3fd7 a83c
00000210: 4f81 bcbd 851d 65bd 412a 2d3d e6ce 6cbd
00000220: e206 67bd d078 433d 476f 83bd d181 933d
00000230: 5536 323d e098 653d f63f dcbc db56 d23c
00000240: 28df a9bc d8f6 82bd 13c7 443c 8616 00be
00000250: 3a40 c5bd cde5 45bd 1d31 67bc 9e77 d2bd
00000260: 8eee abbd c3a8 c5bd 4cc6 383d 3c00 80bd
00000270: 6c51 183d 2f2b 57bd b0bb 4abd e22c d63b
00000280: 1cfe 58bd f14f 75bd 8eb2 cebc 9731 aabd
00000290: f747 a93c 2ab4 923d f267 953d 97d7 6a3c
000002a0: 36be a63d d922 34bd fe8b 543d ca55 473d
000002b0: 5f5d 8a3d 87db 083d 09bd 1d3c ddd0 88bc
000002c0: 6d66 893d d4c7 a5bd 9eee 9b3d b410 23bd
000002d0: 26f1 2dbc b2aa 863d 19c4 583d cd9d e8bc
000002e0: a979 7d3c 4349 213c 7f96 903d c480 aa3d
000002f0: 78cd 893d f6da 553d c2b6 33bd 2d39 ba3c
00000300: 29e8 be3d c09e b43d cf37 99bb bc34 b43c
00000310: 242e a8bd 0a6d b83c f64e aebd b050 30bd
00000320: 0abe 873c cb21 53bd 500c acbd cc7f 5c3d
00000330: 3301 d1bc 966d 9a3d 929e 0ebc abbc bdbc
00000340: 736c 013d ff9c ffbc 9591 5e3d 9501 e5bc
00000350: 4718 b9bd 885c 143d 4b54 89bd d15f 5e3d
00000360: 6544 7e3d 2d19 a4bc c375 333c 4033 803d
00000370: 278b 553a 1925 b2bd 70d4 1b3d 41da a73b
00000380: 0ed1 803d 14b7 9c3c e3e2 2d3d 0fb6 cfbd
00000390: befb b9bb 0e86 27bd 48ba 47bc 940d 763d
000003a0: 4007 f8bc d71d a8bd 2a7e 16bc e6bf c9bc
000003b0: 1607 0fbd 8ca2 303d f669 31bc b0e7 54bd
000003c0: 342a adbc 6576 893d 7d22 3c3c a1f1 2c3d
000003d0: 3868 643d d002 893c 625e 5d3d 8677 133d
000003e0: d634 1d3d d9b9 5ebd 11be 1abd abf5 e0bb
000003f0: 62ec 9cbd 0915 40bc 3183 19bd 51a0 923d

bias f4 [18]
-0.03685646 -0.024898127 0.0070919744 0.022275874 -0.037886977 0.0630221 -0.022923755 0.0847108
0.022609495 0.059172425 0.070614174 -0.026907671 0.05647371 0.04506587 -0.05418809 0.0044694724
0.044500373 -0.00895027
00000000: cdf6 16bd 28f7 cbbc cb63 e83b e57b b63c
00000010: 602f 1bbd bb11 813d 99ca bbbc db7c ad3d
00000020: 8c37 b93c c95e 723d 2a9e 903d 7a6d dcbc
00000030: fa50 673d fd96 383d 55f4 5dbd a774 923b
00000040: 0646 363d 27a4 12bc

weight f4 [18]
1.0118599 1.001055 1.0222422 1.0412482 1.0072248 0.95108753 0.9565099 0.93528444
1.0390812 0.95284086 0.9651429 0.9883161 1.0434179 1.0596808 0.9899842 1.014954
1.0107672 0.9686244
00000000: a084 813f 9222 803f d5d8 823f 9f47 853f
00000010: beec 803f 797a 733f d5dd 743f cd6e 6f3f
00000020: 9d00 853f 61ed 733f 9b13 773f 4902 7d3f
00000030: b88e 853f 9fa3 873f 9b6f 7d3f 03ea 813f
00000040: d260 813f c5f7 773f

bias f4 [18]
-0.051896937 0.0011622892 0.037035003 -0.05741228 -0.0069754766 -0.08717801 -0.07356331 -0.09274658
-0.007282564 -0.12601428 -0.042916607 -0.11909293 0.04595104 0.056727532 -0.03951813 -0.10687895
-0.011876371 -0.085251495
00000000: e291 54bd f457 983a 04b2 173d 2429 6bbd
00000010: 8a92 e4bb 628a b2bd 5ca8 96bd ebf1 bdbd
00000020: 93a2 eebb e309 01be 53c9 2fbd fee6 f3bd
00000030: 2837 3c3d 215b 683d c3dd 21bd 5ae3 dabd
00000040: 1c95 42bc 5698 aebd

running_mean f4 [18]
-0.04018803 -0.30014068 0.4005922 -0.3461942 -0.6798298 0.39405957 0.5970587 -0.30635512
-0.26572755 1.0369519 0.22727984 -0.759547 -0.18217789 -0.18046512 -0.56809396 0.6208651
-0.8018758 -0.0059179715
00000000: 349c 24bd 0aac 99be 6c1a cd3e 5e40 b1be
00000010: 5309 2ebf 2dc2 c93e d7d8 183f 94da 9cbe
00000020: 710d 88be d7ba 843f 0cbc 683e ac71 42bf
00000030: d78c 3abe d9cb 38be 9b6e 11bf 04f1 1e3f
00000040: bc47 4dbf 8beb c1bb

running_var f4 [18]
0.2056049 0.45568758 0.07878304 0.09457908 0.122719675 0.17193054 0.2205991 0.28141418
0.105335444 0.19725178 0.70620984 0.34750775 0.12559384 0.17820401 0.08382307 0.11188058
0.5097568 0.2515207
00000000: 178a 523e e24f e93e 0159 a13d adb2 c13d
00000010: 7454 fb3d 8f0e 303e bbe4 613e 8515 903e
00000020: 1cba d73d 5ffc 493e 2bca 343f 89ec b13e
00000030: ac9b 003e 1d7b 363e 6eab ab3d a521 e53d
00000040: 6c7f 023f 52c7 803e

weight f4 [45, 18, 5, 5]
-0.087601714 -0.090558246 -0.07539763 -0.0882665 -0.057611562 0.038500715 -0.012564695 0.01734262
-0.011622505 -0.026479777 0.025858015 -0.008644408 0.05551766 -0.026165448 0.013673167 -0.03062705
0.07029125 -0.0024107757 0.03518354 -0.03712959 0.042672414 0.09410622 0.069977626 0.011627292
-0.002500677 -0.051933747 -0.0423943 0.03818063 0.036131565 -0.06799308 0.018534103 0.0721741
0.011461775 0.003136998 0.008051164 0.04000696 0.064434014 0.01748878 -0.025269454 0.029566668
-0.007870807 0.009465268 -0.033786476 -0.0065398244 0.02318827 0.05809677 -0.02830401 0.0050213546
-0.042785395 0.016060274 -0.011004355 0.0009645308 -0.029628266 0.032850415 -0.022049079 0.011032729
0.016649373 0.010482011 0.028831245 0.0069992766 0.004209799 0.0072329724 0.041945495 0.007020578
-0.048678614 -0.007691606 0.017965235 0.014390224 0.010063453 -0.025247036 -0.009487823 0.023813298
0.032777354 -0.015456036 -0.008989069 -0.036227293 -0.03352782 -0.1281727 -0.0714715 -0.05087354
-0.014095473 -0.010685522 0.002250471 0.062279373 -0.008894762 0.008624554 0.021675749 0.06025779
-0.048067972 0.0475956 -0.003676487 -0.02181369 0.0066224677 0.011391913 0.002815441 -0.02122994
0.053568907 0.013432033 0.008502642 -0.006524065 -0.06304608 -0.107292704 0.001304142 -0.049099673
0.0060235946 0.0034361992 -0.06371779 -0.03591343 0.015292135 0.03925484 -0.029788002 0.017825492
0.033533134 0.038881693 0.015662272 -0.009879066 0.02100418 -0.027936302 -0.006707746 -0.031547375
-0.0025957706 0.06151439 0.05955614 -0.024133828 0.0016053766 -0.066979304 -0.054450065 -0.009351603
-0.034663375 0.04938522 0.0095023345 -0.020690674 0.057710722 0.03559907 -0.002555411 -0.014741547
0.06990675 0.059877176 0.016360648 0.014945189 0.033942282 0.0682601 0.03457158 0.029620003
-0.05807979 -0.028084025 -0.031586703 0.039460372 -0.038364463 -0.022543991 0.03510766 -0.011119561
0.014734926 -0.053800322 0.043686584 0.0014569978 -0.03573819 -0.020057056 -0.0024525386 -0.015475283
-0.0039212327 0.07091164 0.055685353 -0.020188563 -0.008255662 -0.011936122 0.034235675 0.031406436
-0.06260909 0.0068018474 0.024465196 0.035346206 -0.002218263 -0.054360487 0.0010921124 -0.0061504734
0.020621197 0.0046900692 0.00434445 0.025750088 -0.08915562 -0.060154166 -0.048586402 0.020835115
0.043558404 0.005194103 -0.005954405 0.054849677 0.038884714 -0.039440263 0.0038461068 0.015046878
-0.00045063073 0.04015411 -0.03147837 0.03778208 -0.035290428 -0.008979429 -0.042158592 -0.030884262
-0.007012895 0.05575628 -0.020374216 -0.039157026 -0.09217507 -0.06657329 0.0010900097 -0.08309031
-0.063254274 -0.07867176 -0.02316205 0.00011842888 -0.05817943 -0.08531625 -0.029128239 0.013448116
0.029848954 -0.008733079 0.013422938 -0.032771192 -0.015492362 -0.0076576397 0.07573822 -0.0006471762
0.015569244 -0.06064983 -0.012394003 -0.039927475 -0.04967402 -0.012720067 0.033067573 0.06136938
0.01748231 0.034014773 0.0016370029 -0.0006968225 0.03817025 0.012523604 0.053275518 0.009843407
0.0017113148 0.009725685 0.005821365 0.029868942 -0.054040756 -0.0019953249 0.030941097 0.053342137
-0.0012024206 0.0132927755 -0.033526685 -0.07348434 -0.0728214 -0.0031976658 -0.04488975 -0.08787069
00000000: 8768 b3bd 9a76 b9bd 136a 9abd 11c5 b4bd
00000010: 1afa 6bbd edb2 1d3d 27dc 4dbc 1c12 8e3c
00000020: 526c 3ebc 1eec d8bc 30d4 d33c 46a1 0dbc
00000030: 7c66 633d ec58 d6bc 6b05 603c 94e5 fabc
00000040: dcf4 8f3d 1bfe 1dbb 9e1c 103d 3215 18bd
00000050: 45c9 2e3d c3ba c03d 6e50 8f3d 6680 3e3c
00000060: 66e2 23bb 7bb8 54bd a5a5 2dbd 4b63 1c3d
00000070: b1fe 133d f53f 8bbd d5d4 973c 04d0 933d
00000080: 2bca 3b3c 1896 4d3b 08e9 033c 57de 233d
00000090: fbf5 833d a144 8f3c e301 cfbc cc35 f23c
000000a0: 8ff4 00bc 3614 1b3c b063 0abd 064c d6bb
000000b0: 54f5 bd3c e1f6 6d3d d0dd e7bc 2d8a a43b
000000c0: bd3f 2fbd d690 833c 9c4b 34bc 91d8 7c3a
000000d0: fab6 f2bc 288e 063d 45a0 b4bc 9fc2 343c
000000e0: 4464 883c bebc 2b3c 812f ec3c 305a e53b
000000f0: 5bf2 893b 9202 ed3b 0acf 2b3d e00c e63b
00000100: 3a63 47bd de09 fcbb d42b 933c f9c4 6b3c
00000110: 2ee1 243c dfd2 cebc d072 1bbc 1b14 c33c
00000120: 8c41 063d 503b 7dbc e346 13bc 1263 14bd
00000130: 7854 09bd b43f 03be a65f 92bd c660 50bd
00000140: b3f0 66bc 5412 2fbc a37c 133b a818 7f3d
00000150: 56bb 11bc 004e 0d3c 5791 b13c dfd0 763d
00000160: ece2 44bd 9bf3 423d 37f1 70bb a0b2 b2bc
00000170: 4901 d93b 25a5 3a3c 4383 383b 69ea adbc
00000180: 126b 5b3d 0812 5c3c aa4e 0b3c d3c7 d5bb
00000190: 4e1e 81bd 47bc dbbd beef aa3a bd1c 49bd
000001a0: 9361 c53b db31 613b 797e 82bd f619 13bd
000001b0: dd8b 7a3c afc9 203d f805 f4bc c406 923c
000001c0: 0a5a 093d 6942 1f3d 2a4e 803c cedb 21bc
000001d0: f510 ac3c acda e4bc a7cc dbbb d237 01bd
000001e0: ce1d 2abb 83f6 7b3d 24f1 733d 4eb4 c5bc
000001f0: 806b d23a 722c 89bd 0807 5fbd 7737 19bc
00000200: 2ffb 0dbd 2848 4a3d aeaf 1b3c 7d7f a9bc
00000210: 1462 6c3d 55d0 113d af78 27bb 8886 71bc
00000220: 452b 8f3d c541 753d c406 863c aadc 743c
00000230: 1007 0b3d f4cb 8b3d ee9a 0d3d a6a5 f23c
00000240: 13e5 6dbd 7810 e6bc 0f61 01bd 33a1 213d
00000250: 0e24 1dbd 2dae b8bc 0dcd 0f3d d22e 36bc
00000260: c26a 713c ba5d 5cbd b4f0 323d bcf8 be3a
00000270: 3562 12bd b24e a4bc c5ba 20bb 0b8c 7dbc
00000280: af7d 80bb 1f3a 913d 5316 643d 7c62 a5bc
00000290: c242 07bc b98f 43bc b53a 0c3d 09a4 003d
000002a0: 3239 80bd 08e2 de3b 3c6b c83c 2fc7 103d
000002b0: 4760 11bb 1aa9 5ebd 3625 8f3a e989 c9bb
000002c0: c9ed a83c 27af 993b e35b 8e3b d9f1 d23c
000002d0: 3997 b6bd 3764 76bd 8902 47bd 67ae aa3c
000002e0: 4c6a 323d 4b33 aa3b 2b1d c3bb 0eaa 603d
000002f0: 9445 1f3d 1d8c 21bd f70e 7c3b 2e87 763c
00000300: a242 ecb9 a378 243d 77ef 00bd 62c1 1a3d
00000310: b28c 10bd 741e 13bc 7dae 2cbd fe00 fdbc
00000320: 6dcc e5bb b260 643d d4e7 a6bc 1e63 20bd
00000330: 48c6 bcbd 9457 88bd a8de 8e3a 412b aabd
00000340: 758b 81bd a91e a1bd 57be bdbc 055d f838
00000350: 8e4d 6ebd 49ba aebd 589e eebc 7d55 5c3c
00000360: cb85 f43c 3015 0fbc e2eb 5b3c 163b 06bd
00000370: add3 7dbc f0ec fabb a41c 9b3d 42a7 29ba
00000380: 2416 7f3c f56b 78bd 3710 4bbc fe8a 23bd
00000390: fc76 4bbd d467 50bc dd71 073d 765e 7b3d
000003a0: 1037 8f3c 1353 0b3d b490 d63a f7aa 36ba
000003b0: 6858 1c3d cd2f 4d3c 6e37 5a3d 3e46 213c
000003c0: 324e e03a 7b58 1f3c 26c1 be3b b6af f43c
000003d0: d759 5dbd ffc3 02bb 2f78 fd3c 497d 5a3d
000003e0: 8a9a 9dba f1c9 593c 4753 09bd f57e 96bd
000003f0: 6323 95bd ee8f 51bb 51de 37bd 8cf5 b3bd

bias f4 [45]
0.022780027 0.052626528 -0.042650368 0.0042522834 -0.005610417 0.01317391 -0.016805692 0.01955144
0.041115496 0.03681736 -0.012169071 -0.009144591 0.031037059 -0.035121426 0.04633677 -0.024116086
-0.036804657 0.011998173 -0.008881353 -0.024646485 -0.018618902 0.0053677512 0.017452212 -0.045097027
0.04681857 0.049788777 0.016877264 0.03234803 0.0034951572 0.038110044 0.012686584 -0.013012767
0.03797904 -0.009256519 -0.02840499 -0.01640804 0.005099156 -0.022020122 0.04010679 -0.0022048547
-0.033835784 0.038683586 0.018935066 -0.0016915703 0.047849692
00000000: 2e9d ba3c ea8e 573d 27b2 2ebd bd56 8b3b
00000010: 97d7 b7bb 62d7 573c 17ac 89bc 572a a03c
00000020: b968 283d cdcd 163d c860 47bc 32d3 15bc
00000030: 6e41 fe3c 7cdb 0fbd a0cb 3d3d 198f c5bc
00000040: 7bc0 16bd fc93 443c 1883 11bc 6de7 c9bc
00000050: ab86 98bc f6e3 af3b f1f7 8e3c a9b7 38bd
00000060: d4c4 3f3d 51ef 4b3d 3042 8a3c 5e7f 043d
00000070: 020f 653b 4719 1c3d 64db 4f3c 8033 55bc
00000080: e98f 1b3d a8a8 17bc 95b1 e8bc 276a 86bc
00000090: d216 a73b 8b63 b4bc 0447 243d 537f 10bb
000000a0: 6497 0abd ae72 1e3d b61d 9b3c aeb7 ddba
000000b0: 0afe 433d

weight f4 [45]
1.0066931 1.0261014 1.011151 0.98386145 1.0231596 1.0246664 1.0352505 0.98306286
0.9823182 0.9715967 0.9597762 1.03332 1.0295746 0.98266494 0.96375096 1.0188923
0.9750335 0.9974307 0.9750239 0.97256273 0.97879803 0.95998776 1.0320424 1.0105402
1.0274255 1.0085366 0.98544514 1.0008593 1.0368189 1.033066 1.0495871 0.99682456
0.9925593 0.97289586 1.0185353 0.977662 0.98763895 1.0007019 0.94840693 0.9815593
1.0168421 1.0093055 1.024535 1.0307168 0.9768911
00000000: 52db 803f 4a57 833f 656d 813f 58de 7b3f
00000010: e5f6 823f 4528 833f 1783 843f 02aa 7b3f
00000020: 3579 7b3f 90ba 783f e5b3 753f d443 843f
00000030: 1ac9 833f ee8f 7b3f 62b8 763f 106b 823f
00000040: cc9b 793f 9e57 7f3f 2b9b 793f dff9 783f
00000050: 8292 7a3f c2c1 753f f719 843f 6259 813f
00000060: ae82 833f ba17 813f 2246 7c3f 281c 803f
00000070: 7bb6 843f 823b 843f df58 863f e52f 7f3f
00000080: 5e18 7e3f b40f 793f 5d5f 823f 0f48 7a3f
00000090: e8d5 7c3f 0017 803f ccca 723f 7847 7b3f
000000a0: e227 823f ec30 813f f623 833f 87ee 833f
000000b0: 8915 7a3f

bias f4 [45]
-0.030549433 -0.0030810384 -0.07826674 -0.083067186 -0.019460058 -0.053628642 -0.047668815 -0.02876665
-0.033332117 -0.069825865 -0.08172923 -0.12047721 0.009944507 -0.048829716 -0.06942368 -0.013101847
-0.024733301 -0.06751324 -0.0634662 -0.024128648 -0.0902712 -0.022168556 -0.037750356 -0.038044535
-0.018686816 -0.055891454 -0.055701897 -0.03935021 -0.022871003 -0.0631377 -0.095607474 -0.061912175
-0.07065858 -0.086985275 -0.020527719 0.024256451 -0.030994305 -0.02858543 -0.076461285 -0.09781922
0.005740022 -0.026091272 -0.038104918 -0.04886645 -0.037955903
00000000: ce42 fabc 3feb 49bb 504a a0bd 211f aabd
00000010: b36a 9fbc b5a9 5bbd 6040 43bd 0aa8 ebbc
00000020: 4287 08bd dd00 8fbd a861 a7bd c1bc f6bd
00000030: 49ee 223c ab01 48bd 012e 8ebd 21a9 56bc
00000040: 7e9d cabc 6244 8abd 91fa 81bd 71a9 c5bc
00000050: 1be0 b8bd d59a b5bc 1ea0 1abd 96d4 1bbd
00000060: 1815 99bc 70ee 64bd ac27 64bd b02d 21bd
00000070: f85b bbbc 574e 81bd dacd c3bd 9f97 7dbd
00000080: 72b5 90bd 5625 b2bd bf29 a8bc 77b5 c63c
00000090: c5e7 fdbc fe2b eabc bc97 9cbd 7155 c8bd
000000a0: cb16 bc3b 5dbd d5bc e713 1cbd 3028 48bd
000000b0: a677 1bbd

running_mean f4 [45]
-0.041215353 -0.46518898 -0.99625653 -0.9849934 -0.6607431 -0.24964762 -0.7905953 1.6562889
-1.2483937 -0.3119335 0.5401393 -0.81704605 -1.1827424 -1.4646311 -0.53999907 -0.72314376
-1.2343888 0.20056581 -0.48006496 -0.78798854 0.25241423 0.12984648 -1.4777263 -1.5615195
-0.28449914 -0.21121132 0.5505535 1.0424457 -0.6670678 -0.5649855 -0.12185711 -0.8483746
-0.8310133 -0.9401813 -0.048464224 -0.11288982 0.20016533 -0.4999679 -0.042812698 -0.59799045
-0.95360523 -1.0533074 -0.13457194 -1.1553313 0.25894457
00000000: 6ed1 28bd 402d eebe ab0a 7fbf 8728 7cbf
00000010: 7626 29bf a0a3 7fbe 7464 4abf 4601 d43f
00000020: 5dcb 9fbf bfb5 9fbe 9246 0a3f ee29 51bf
00000030: 1a64 97bf 0879 bbbf 613d 0abf f31f 39bf
00000040: 7400 9ebf 2061 4d3e 13cb f5be 9eb9 49bf
00000050: 703c 813e 7af6 043e 2326 bdbf dfdf c7bf
00000060: dfa9 91be c847 58be 13f1 0c3f dc6e 853f
00000070: f5c4 2abf e4a2 10bf 3890 f9bd 142f 59bf
00000080: 4abd 54bf b9af 70bf 6c82 46bd c732 e7bd
00000090: 24f8 4c3e cbfb ffbe 5e5c 2fbd e715 19bf
000000a0: 791f 74bf c7d2 86bf 3acd 09be e5e1 93bf
000000b0: 6294 843e

running_var f4 [45]
0.41576818 0.8088886 0.416918 1.0357243 0.3746065 0.59151703 1.597555 0.6527649
0.41217503 0.42997772 0.7099189 0.81107515 1.3693097 0.5705859 0.6257355 0.5186661
0.84799856 0.5319063 0.49350867 0.7038553 1.193403 0.6275646 0.7844973 0.51936924
0.5108422 0.5248949 1.3016324 0.622969 0.4449658 0.48932934 0.35141698 0.5875899
0.924537 0.5330403 0.9377785 0.38716903 0.4062234 0.65811646 0.37947625 0.66978097
0.43363246 0.52589494 1.1021749 0.7243094 0.33175346
00000000: 91df d43e 5313 4f3f 4776 d53e 9d92 843f
00000010: 6ccc bf3e a96d 173f af7c cc3f 9a1b 273f
00000020: 9b08 d33e 0a26 dc3e 3fbd 353f 9fa2 4f3f
00000030: 8a45 af3f eb11 123f 3430 203f 4dc7 043f
00000040: 6f16 593f 032b 083f 2bad fc3e dc2f 343f
00000050: 6ec1 983f 13a8 203f d1d4 483f 62f5 043f
00000060: 8ec6 023f 835f 063f e49b a63f e57a 1f3f
00000070: 8fd2 e33e 6089 fa3e edec b33e 4b6c 163f
00000080: 75ae 6c3f 5475 083f 4012 703f 053b c63e
00000090: 83fc cf3e 527a 283f b64a c23e c476 2b3f
000000a0: 1305 de3e 0da1 063f 1114 8d3f 576c 393f
000000b0: 97db a93e

weight f4 [18, 45, 5, 5]
-0.00075775065 0.035155088 0.024426866 0.03878079 0.024585065 0.011618181 -0.015307484 -0.02286456
-0.032842334 -0.04849112 -0.059542105 -0.008957623 -0.0250848 -0.03534963 0.011137371 -0.011724558
-0.011912462 0.026447803 -0.023067843 -0.004700009 -0.01983247 -0.043858886 -0.017250737 -0.031514533
-0.012234983 -0.0069960454 -0.033844337 -0.049883112 -0.018427169 -0.015433839 0.016567126 -0.03772388
0.022674346 0.04355109 -0.013326307 -0.013359968 0.008271742 -0.030605396 -0.013066978 0.008019318
-0.021570414 -0.010929915 0.012198528 -0.00896829 0.0011815666 -0.023564022 -0.006742543 -0.02858238
-0.026389243 -0.0063594687 -0.017830169 0.018415933 0.007114337 -0.018250909 0.019345347 0.021741474
0.014068903 0.023472443 0.00019048218 0.02001221 -0.02033592 0.0005444248 0.010809739 -0.026335927
-0.016230514 -0.014593001 -0.027019143 0.0030697852 -0.03269513 -0.06381478 -0.051560182 -0.0013307406
-0.007354741 0.032459598 -0.00055447797 0.014357325 0.010174559 0.017293075 -0.02200958 -0.0013267936
-0.008356722 -0.026581643 0.008152135 -0.032079957 -0.008489796 0.03692194 0.02070362 0.03354202
0.055706657 0.03324827 -0.009063075 0.008540181 -0.009371407 0.006454095 0.0074806074 0.040095508
0.019817576 0.0054457183 -0.027263133 -0.013046533 0.018881641 0.002882376 -0.019357663 0.05185186
0.046566952 -0.00045930012 -0.013605513 -0.053185787 -0.0491129 -0.02452314 -0.009571356 0.024130864
-0.023872994 -0.009910032 0.007902826 0.037731536 -0.03523104 0.029540485 -0.0009321769 -0.0231963
0.07146815 0.06480784 0.06724954 0.008924257 0.03676879 0.042176694 -0.0006527979 -0.0018835352
0.025300596 -0.026352795 -0.021784509 -0.006945662 0.0042306967 -0.0052633765 -0.028963992 0.008102623
0.033665847 0.0047291815 0.006446827 -0.010049616 0.011046541 0.0011356508 -0.04304491 -0.05531686
-0.0009487024 0.0049144058 0.02454802 0.020426843 0.0329481 0.0011122355 -0.0002027919 -0.024816247
-0.041412093 -0.028885072 -0.03772765 0.023176633 0.0444112 -0.025324525 -0.028800242 -0.02184773
0.00082510896 0.014769037 -0.0387402 -0.03311204 0.0063207927 0.017410498 0.03003786 -0.009255636
0.0039422354 0.04701683 -0.043748572 -0.04136158 -0.035337042 -0.04713108 0.021868397 0.00694166
0.0013635184 -5.8736303e-05 0.013785331 0.016342286 0.047522184 0.0044056433 -0.01743534 0.030831916
0.007276628 -0.046910763 -0.015056443 -7.570344e-05 -0.0094035985 -0.011694743 -0.034831703 0.02204598
0.0340106 0.044592842 0.010328106 -0.022023033 0.010147748 -0.015242603 0.01137425 -0.013202957
-0.0057047396 0.0353162 -0.042287212 -0.04137155 -0.015314038 -0.05644049 -0.058769025 -0.006300523
0.0096303625 -0.029219564 -0.01069985 -0.024135057 0.013499624 0.03260483 -0.0045567914 0.030403385
0.052377112 0.036658287 -0.012572464 -0.019224431 -0.035576973 -0.024588123 0.002902904 -0.014017441
0.0039707357 0.0057284688 -0.00092729705 -0.016101986 0.030048983 0.0017067308 0.0025364193 0.011433208
0.007446227 -0.0050820136 -0.016157256 0.007346643 0.027954062 -0.0055052224 0.01531774 -0.0011651674
0.01863516 -0.009056709 0.0044414913 0.044085704 -0.0085783005 -0.029553538 -0.02857239 0.0072606276
-0.029521255 -0.03818836 -0.018473824 -0.001403344 0.04544533 0.046769734 0.0066146324 -0.025633147
00000000: c9a3 46ba c8fe 0f3d da1a c83c 9bd8 1e3d
00000010: 9e66 c93c 2f5a 3e3c 3ecc 7abc 754e bbbc
00000020: af85 06bd a09e 46bd 6ce2 73bd fec2 12bc
00000030: a37e cdbc c6ca 10bd 8579 363c 5c18 40bc
00000040: 7d2c 43bc 10a9 d83c c6f8 bcbc 8802 9abb
00000050: b477 a2bc 60a5 33bd 6b51 8dbc 6215 01bd
00000060: 3d75 48bc 153f e5bb 5ca0 0abd 3c52 4cbd
00000070: 93f4 96bc 36de 7cbc c8b7 873c 5b84 1abd
00000080: 8dbf b93c a162 323d 9556 5abc c4e3 5abc
00000090: 3386 073c 2bb8 fabc e116 56bc 7563 033c
000000a0: 70b4 b0bc 6313 33bc 56dc 473c bcef 12bc
000000b0: ccde 9a3a 5609 c1bc 8df0 dcbb 9825 eabc
000000c0: 412e d8bc 1763 d0bb 9310 92bc 03dd 963c
000000d0: 621f e93b ee82 95bc 227a 9e3c 2d1b b23c
000000e0: 4281 663c 4849 c03c 2cbc 4739 a5f0 a33c
000000f0: 8497 a6bc bbb7 0e3a 551b 313c 71be d7bc
00000100: dbf5 84bc 7c17 6fbc 4057 ddbc 732e 493b
00000110: 54eb 05bd 53b1 82bd c530 53bd 3f6c aeba
00000120: 0a00 f1bb 5bf4 043d 635a 11ba fc3a 6b3c
00000130: 32b3 263c 35aa 8d3c 6f4d b4bc cee7 adba
00000140: a2ea 08bc bfc1 d9bc 8890 053c 4666 03bd
00000150: c918 0bbc 763b 173d a39a a93c 5b63 093d
00000160: aa2c 643d 572f 083d 4b7d 14bc 1eec 0b3c
00000170: 888a 19bc df7c d33b e21f f53b 303b 243d
00000180: 7858 a23c ff71 b23b ef56 dfbc 20c1 55bc
00000190: acad 9a3c 3fe6 3c3b f693 9ebc 9e62 543d
000001a0: fdbc 3e3d 38ce f0b9 a8e9 5ebc 57d9 59bd
000001b0: 9c2a 49bd c1e4 c8bc 2dd1 1cbc 17ae c53c
000001c0: 4c91 c3bc b05d 22bc db7a 013c 628c 1a3d
000001d0: 6c4e 10bd e3fe f13c 555d 74ba 2b06 bebc
000001e0: e55d 923d f9b9 843d 20ba 893d 0c37 123c
000001f0: df9a 163d 78c1 2c3d 8720 2bba f4e0 f6ba
00000200: 3243 cf3c d1e1 d7bc 6d75 b2bc 7098 e3bb
00000210: a8a1 8a3b 6778 acbb e545 edbc ddc0 043c
00000220: 33e5 093d 40f7 9a3b e83f d33b 25a7 24bc
00000230: 8dfc 343c 1eda 943a dc4f 30bd ef93 62bd
00000240: 57b2 78ba 0609 a13b ee18 c93c 3256 a73c
00000250: 96f4 063d 6ec8 913a 89a4 54b9 714b cbbc
00000260: ba9f 29bd 63a0 ecbc 4f88 1abd ecdc bd3c
00000270: 85e8 353d 6175 cfbc 7cee ebbc 03fa b2bc
00000280: 204c 583a d5f9 713c 0bae 1ebd 7ea0 07bd
00000290: a71e cf3b 76a0 8e3c f511 f63c f3a4 17bc
000002a0: de2d 813b b894 403d b431 33bd c36a 29bd
000002b0: 93bd 10bd 850c 41bd 5a25 b33c dd76 e33b
000002c0: 16b8 b23a a05b 76b8 dedb 613c 42e0 853c
000002d0: 9fa6 423d 375d 903b 8fd4 8ebc 3793 fc3c
000002e0: c870 ee3b 8025 40bd 4daf 76bc fac2 9eb8
000002f0: 8d11 1abc 4f9b 3fbc b0ab 0ebd c599 b43c
00000300: b34e 0b3d fca6 363d 3737 293c a669 b4bc
00000310: bd42 263c 1cbc 79bc 105b 3a3c 3751 58bc
00000320: d3ee babb b8a7 103d 5b35 2dbd 3775 29bd
00000330: bbe7 7abc 252e 67bd cab7 70bd 9e74 cebb
00000340: abc8 1d3c de5d efbc 6c4e 2fbc e2b6 c5bc
00000350: 872d 5d3c a48c 053d 2351 95bb 8510 f93c
00000360: 6289 563d 0027 163d bcfc 4dbc 8e7c 9dbc
00000370: 29b9 11bd 086d c9bc a63e 3e3b 69a9 65bc
00000380: f21c 823b e1b5 bb3b da15 73ba 50e8 83bc
00000390: 4929 f63c 62b4 df3a 0e3a 263b 5a52 3b3c
000003a0: 7bff f33b 0587 a6bb 395c 84bc 1cbc f03b
000003b0: ebff e43c 2765 b4bb 42f7 7a3c 88b8 98ba
000003c0: c3a8 983c 9762 14bc ee89 913b 3693 343d
000003d0: 008c 0cbc 431a f2bc a510 eabc 8fea ed3b
000003e0: 8fd6 f1bc 666b 1cbd 6b56 97bc 69f0 b7ba
000003f0: e224 3a3d 9f91 3f3d 8fbf d83b 9bfc d1bc

bias f4 [18]
-0.0026769699 -0.025983961 0.010016054 -0.022877414 -0.0024495234 0.00363711 -0.01831697 0.013438973
-0.024839431 -0.0010008243 0.0034479317 -0.024437798 0.008110306 0.0027628553 -0.012421226 -0.029208725
0.024564536 0.006200153
00000000: 1a70 2fbb 51dc d4bc 601a 243c 6a69 bbbc
00000010: 2f88 20bb 955c 6e3b 780d 96bc 232f 5c3c
00000020: 107c cbbc 172e 83ba b2f6 613b c731 c8bc
00000030: 17e1 043c 0511 353b 6682 4bbc 2347 efbc
00000040: 913b c93c a72a cb3b

weight f4 [18]
0.99387026 0.9881289 1.0031769 1.0067028 1.0066804 0.98044723 0.97525465 0.9687023
0.9860017 1.0096039 1.0191003 1.0786481 0.99816483 0.9699496 1.0192685 1.0002743
0.9971381 1.0198431
00000000: 486e 7e3f 04f6 7c3f 1a68 803f a3db 803f
00000010: e7da 803f 97fe 7a3f 4aaa 793f e0fc 773f
00000020: 9b6a 7c3f b33a 813f e171 823f 2411 8a3f
00000030: bb87 7f3f 9e4e 783f 6477 823f fd08 803f
00000040: 7144 7f3f 388a 823f

bias f4 [18]
-0.020079263 -0.07753589 -0.009786895 -0.04565711 0.005054693 -0.020183299 -0.034805525 -0.020576436
-0.019778192 -0.0058394056 -0.031162787 -0.04754945 -0.032031942 -0.015051389 -0.015815128 -0.065261014
-0.009973103 -0.05217913
00000000: 447d a4bc 23cb 9ebd 3659 20bc f302 3bbd
00000010: d7a1 a53b 7257 a5bc 3d90 0ebd ea8f a8bc
00000020: e005 a2bc 7c58 bfbb 1a49 ffbc 36c3 42bd
00000030: ed33 03bd 1a9a 76bc ba8e 81bc 91a7 85bd
00000040: 3a66 23bc c9b9 55bd

running_mean f4 [18]
-0.76632684 2.0729494 -0.60754687 1.026837 -0.62479883 -0.46079576 0.11848854 0.09925079
0.7418851 -1.0497091 -0.07141122 -0.9301906 -1.5854774 -0.667453 -0.77573436 -1.596267
1.2527946 -0.7525757
00000000: ff2d 44bf 34ab 0440 3188 1bbf 656f 833f
00000010: d1f2 1fbf 6ced ebbe 1faa f23d 0044 cb3d
00000020: 2fec 3d3f de5c 86bf 0c40 92bd f920 6ebf
00000030: ecf0 cabf 33de 2abf 8796 46bf 7a52 ccbf
00000040: 935b a03f cda8 40bf

running_var f4 [18]
1.306369 1.1357449 0.893359 1.6879444 1.643939 2.0252173 2.257165 0.7961531
1.3789517 2.7704244 0.809766 1.7718393 0.67131937 0.80739963 0.91299284 1.7957286
2.5161057 2.7712054
00000000: 1937 a73f 1760 913f 2db3 643f 900e d83f
00000010: 986c d23f 299d 0140 6475 1040 b1d0 4b3f
00000020: 7d81 b03f a24e 3140 d34c 4f3f a1cb e23f
00000030: 96db 2b3f beb1 4e3f e6b9 693f 6fda e53f
00000040: e007 2140 6e5b 3140

weight f4 [6, 18, 5, 5]
-0.012618418 0.014094062 -0.011311271 -0.029269492 -0.017422654 -0.0035085736 0.0019470445 -0.006880465
-0.03509037 -0.028840203 -0.0024242373 0.03394325 0.009416538 -0.010061155 -0.0014252206 0.052077472
0.04125592 0.04098562 0.029240219 -0.03411692 -0.057374913 -0.057515044 -0.04886474 -0.052668925
-0.0838156 -0.008832653 -0.0031183648 -0.017410286 -0.018540794 -0.059054963 -0.02981156 0.006558306
-0.032572076 0.05270848 0.0018768997 -0.018320942 -0.00960025 -0.027922783 0.004038243 -0.045657143
-0.0058794008 -0.046711214 -0.022995563 -0.0226705 -0.041185144 -0.044710163 -0.035427902 -0.006989881
-0.02669584 -0.04678098 0.0006355766 0.031776067 0.015138891 -0.009712049 0.013169448 -0.0009806678
-0.046355862 -0.008089366 -0.018855313 -0.0021325187 -0.017345566 0.034810666 0.08759651 0.0816322
0.07213 0.024567802 0.04473588 -0.014859431 0.053840514 0.08539892 0.038124256 -0.027880764
-0.044940468 -0.045018792 -0.0538792 0.051050182 0.03443208 0.035006616 0.01735737 -0.02537847
-0.021398626 0.015991481 0.016004164 0.013123812 -0.003556186 0.02257725 0.024927478 0.043985404
0.004782988 0.061858937 0.018127058 0.0364224 -0.019739188 -0.0792698 -0.075480685 0.009758699
-0.030162891 0.052736964 -0.0033096846 -0.011512486 0.045834113 0.011049334 -0.023478499 0.035386268
0.03967725 -0.035453618 0.007655114 0.009999063 0.026489824 0.010656871 0.00020526808 -0.03505524
-0.06926128 -0.02756504 -0.0458583 0.04470694 -0.004266839 0.060378708 0.022349687 -0.02726917
-0.028469175 -0.019408308 0.01956044 -0.031984575 -0.04919628 0.015268352 0.014117594 -0.03712209
0.032457374 0.0241099 -0.050338503 -0.04623503 -0.043095913 -0.047156915 0.00834651 -0.016071267
0.029218769 -0.00793498 0.034332 0.035783246 0.0032360158 -0.047373723 0.0053730262 -0.041883856
0.047321115 -0.048834607 0.006798193 -0.037923772 -0.038511124 0.01540466 0.053978365 0.055357717
0.008738068 -0.002575642 -0.010833135 -0.016069813 0.051553726 -0.014192538 0.019166874 0.019289175
0.016084583 0.0022847066 -0.009211683 0.03019303 0.010966293 0.027824568 -0.005306578 0.014249655
0.047911517 0.059687756 0.0130190775 0.011951455 0.029854935 -0.028430555 -0.015815781 -0.015534373
0.016908878 -0.024703104 0.0009021029 -0.034660317 -0.0020311952 -0.045894433 0.013418256 0.03928359
-0.03438691 0.028413178 0.0016090921 0.04052427 0.0056135342 -0.00430614 -0.005064609 -0.017757239
-0.017210035 -0.015271783 -0.03964983 -0.008764698 -0.0033093 -0.02928516 0.023591427 0.05605286
-0.0034670916 -0.011429594 0.013048619 -0.025203232 -0.052314796 0.007701545 -0.054523494 -0.04485961
0.024924919 -0.0070911264 0.013792258 0.026904484 0.012956396 -0.02255321 0.03172423 -0.010085941
-0.023175841 -0.0420674 -0.0018821477 -0.012096683 0.017050209 0.009398392 -0.002833964 -0.0021076363
0.028241003 0.029343246 0.015714118 0.016782315 -0.025065787 0.023196256 0.048729543 0.0066094515
0.014085811 -0.05310512 -0.053255502 0.031760767 0.032906547 -0.0072047324 -0.04647478 -0.02341995
-0.0031048784 -0.023278309 0.033290904 0.018647935 0.0034466241 -0.04861453 0.0049925675 -0.05573812
-0.04013678 -0.026539277 -0.019133106 -0.02421938 -0.021915501 -0.08094368 -0.07472966 0.013772452
00000000: 7bbd 4ebc c8ea 663c e952 39bc 93c6 efbc
00000010: f4b9 8ebc 19f0 65bb f933 ff3a 8675 e1bb
00000020: ebba 0fbd 4a42 ecbc f4df 1ebb 1408 0b3d
00000030: d347 1a3c 8bd7 24bc 78ce baba 304f 553d
00000040: f8fb 283d 8ae0 273d 2f89 ef3c 2fbe 0bbd
00000050: f501 6bbd e594 6bbd 6526 48bd 5fbb 57bd
00000060: 83a7 abbd d5b6 10bc 7b5d 4cbb 04a0 8ebc
00000070: dde2 97bc 9ee3 71bd 5f37 f4bc 0fe7 d63b
00000080: 4c6a 05bd d9e4 573d 4e02 f63a cd15 96bc
00000090: 5e4a 1dbc 52be e4bc 3d53 843b fc02 3bbd
000000a0: fda7 c0bb 4254 3fbd 3161 bcbc 7cb7 b9bc
000000b0: c1b1 28bd 0122 37bd d91c 11bd 5f0b e5bb
000000c0: 3cb1 dabc 6a9d 3fbd d39c 263a 9f27 023d
000000d0: 1c09 783c 491f 1fbc abc4 573c c089 80ba
000000e0: a5df 3dbd 4389 04bc 7576 9abc bac1 0bbb
000000f0: 4a18 8ebc a195 0e3d cd65 b33d c82e a73d
00000100: e5b8 933d 6a42 c93c f83c 373d f974 73bc
00000110: df87 5c3d a1e5 ae3d 2e28 1c3d 3366 e4bc
00000120: 7f13 38bd a065 38bd 70b0 5cbd ff19 513d
00000130: a708 0d3d 1963 0f3d 0b31 8e3c 82e6 cfbc
00000140: 2c4c afbc 9100 833c 2a1b 833c 4205 573c
00000150: e70e 69bb edf3 b83c b634 cc3c 0a2a 343d
00000160: 9dba 9c3b cc5f 7d3d 327f 943c a82f 153d
00000170: 14b4 a1bc 3458 a2bd 9e95 9abd f3e2 1f3c
00000180: 2b18 f7bc b702 583d 4be7 58bb de9e 3cbc
00000190: 8dbc 3b3d 4408 353c fb55 c0bc 31f1 103d
000001a0: 9d84 223d d037 11bd c0d7 fa3b 1cd3 233c
000001b0: 3001 d93c 289a 2e3c 3b3d 5739 1596 0fbd
000001c0: dcd8 8dbd 14d0 e1bc ead5 3bbd a01e 373d
000001d0: d7d0 8bbb aa4f 773d b116 b73c 9863 dfbc
000001e0: 3038 e9bc 2cfe 9ebc 373d a03c 4202 03bd
000001f0: 0a82 49bd 1c28 7a3c 7b4d 673c 550d 18bd
00000200: 06f2 043d 2082 c53c bf2f 4ebd f160 3dbd
00000210: 5785 30bd 9c27 41bd cdbf 083c e4a7 83bc
00000220: 335c ef3c b801 02bc b69f 0c3d 7491 123d
00000230: 5613 543b f30a 42bd 3610 b03b 688e 2bbd
00000240: c9d3 413d cc06 48bd 60c3 de3b f555 1bbd
00000250: d7bd 1dbd d463 7c3c 6b18 5d3d c6be 623d
00000260: 1d2a 0f3c 1acc 28bb 767d 31bc d7a4 83bc
00000270: 002a 533d d287 68bc d903 9d3c 5504 9e3c
00000280: d1c3 833c 04bb 153b 99ec 16bc 6057 f73c
00000290: f7ab 333c 59f0 e33c cde2 adbb 6377 693c
000002a0: de3e 443d 267b 743d f84d 553c 09d0 433c
000002b0: 5692 f43c 32e7 e8bc 1990 81bc e283 7ebc
000002c0: 7d84 8a3c 2a5e cabc 1a7b 6c3a faf7 0dbd
000002d0: cd1d 05bb cdfb 3bbd 3fd8 5b3c d4e7 203d
000002e0: 4ad9 0cbd c1c2 e83c 2ce8 d23a c7fc 253d
000002f0: bdf1 b73b 851a 8dbb 05f5 a5bb a177 91bc
00000300: 0ffc 8cbc 8036 7abc dc67 22bd cf99 0fbc
00000310: d7e0 58bb 6fe7 efbc cf42 c13c af97 653d
00000320: 2538 63bb 3143 3bbc e0c9 553c 0277 cebc
00000330: 0a48 56bd 3e5d fc3b 0754 5fbd b6be 37bd
00000340: 582f cc3c ae5c e8bb ecf8 613c cb66 dc3c
00000350: 1047 543c 82c1 b8bc 44f1 013d 813f 25bc
00000360: 43db bdbc de4e 2cbd 66b2 f6ba 2a31 46bc
00000370: e1ac 8b3c b7fb 193c 07ba 39bb 4520 0abb
00000380: ad59 e73c 3f61 f03c e5ba 803c 117b 893c
00000390: c456 cdbc 1306 be3c a198 473d 1994 d83b
000003a0: 2cc8 663c c184 59bd 7122 5abd 9417 023d
000003b0: 04c9 063d ad15 ecbb 575c 3ebd 32db bfbc
000003c0: 377b 4bbb 27b2 bebc 0b5c 083d 8ec3 983c
000003d0: c2e0 613b 0820 47bd b198 a33b a84d 64bd
000003e0: 7766 24bd e668 d9bc 08bd 9cbc b967 c6bc
000003f0: 2388 b3bc cdc5 a5bd dd0b 99bd daa5 613c

bias f4 [6]
0.030349828 0.049755845 -0.0082706995 0.0155772455 -0.011709443 -0.037069786
00000000: 34a0 f83c c9cc 4b3d d481 07bc b437 7f3c
00000010: f7d8 3fbc 7dd6 17bd

weight f4 [6]
0.9791925 1.0415081 0.99997425 1.0340477 0.981085 0.91932654
00000000: 5cac 7a3f 2350 853f 50fe 7f3f ad5b 843f
00000010: 6328 7b3f fc58 6b3f

bias f4 [6]
0.034084976 -0.006782485 0.07435073 0.019264922 0.004882169 0.015539405
00000000: b09c 0b3d 9c3f debb 3245 983d 78d1 9d3c
00000010: 9afa 9f3b fd98 7e3c

running_mean f4 [6]
-0.32558662 -0.1859026 -0.6118766 -0.5050673 0.20184939 -0.59623677
00000000: 4ab3 a6be 405d 3ebe f2a3 1cbf 174c 01bf
00000010: 9bb1 4e3e f9a2 18bf

running_var f4 [6]
0.2159498 0.8017148 0.20780487 0.414807 1.910288 0.8656187
00000000: f221 5d3e 2e3d 4d3f cdca 543e 9561 d43e
00000010: 5184 f43f 3099 5d3f

weight f4 [1, 6, 5, 3]
0.056950737 -0.011504321 0.06357723 -0.05556789 -0.009702695 -0.069556765 -0.09310388 -0.026454533
-0.10941319 -0.030937688 -0.03611736 -0.06605319 0.030647583 -0.032475967 -0.05826225 -0.074738555
-0.07592351 -0.17703815 -0.01799042 0.059421413 -0.104020424 -0.033344764 -0.034501623 0.035178814
0.06543539 -0.051575795 0.09875768 0.109263435 0.061754446 0.10958433 0.03854582 0.030709127
0.00873997 -0.09297583 0.01819956 -0.03307131 -0.056963358 -0.03998357 -0.038657997 0.13264278
0.06527662 0.13999008 -0.017671186 0.002206578 0.061320968 -0.09832078 -0.046401165 -0.12677865
-0.0062274905 0.025471946 0.029749306 -0.17693534 -0.012195661 -0.15359521 -0.02234973 0.07902
0.032398935 -0.09650356 -0.034873445 -0.040698674 -0.03612267 0.06683871 0.09047278 0.032362945
-0.083480366 0.032155767 -0.029894061 0.052001186 0.045653623 -0.036714636 0.09884328 -0.053735815
0.061470512 -0.0368839 0.09059278 0.024810517 0.07709836 -0.03340027 -0.07710518 0.04397107
-0.0900506 -0.041639663 0.034512855 -0.039524514 0.010682187 0.0014153587 -0.0028510967 0.008988964
0.06519024 -0.04708279
00000000: 2d45 693d 9f7c 3cbc c734 823d 289b 63bd
00000010: 0df8 1ebc c773 8ebd 3fad bebd 2db7 d8bc
00000020: 0614 e0bd 0971 fdbc ccef 13bd e546 87bd
00000030: a410 fb3c 8505 05bd 66a4 6ebd 8710 99bd
00000040: c97d 9bbd 7d49 35be a560 93bc de63 733d
00000050: a908 d5bd 8594 08bd 9351 0dbd a917 103d
00000060: fd02 863d 2441 53bd 7741 ca3d 82c5 df3d
00000070: 3bf2 7c3d c06d e03d 39e2 1d3d b591 fb3c
00000080: 1732 0f3c 1d6a bebd 3e17 953c c875 07bd
00000090: 6952 69bd d0c5 23bd d957 1ebd 82d3 073e
000000a0: c0af 853d 8f59 0f3e 2ac3 90bc 3c9c 103b
000000b0: b22b 7b3d 685c c9bd 260f 3ebd 43d2 01be
000000c0: fa0f ccbb 8baa d03c d1b4 f33c 8a2e 35be
000000d0: 4fd0 47bc 1048 1dbe c816 b7bc 3dd5 a13d
000000e0: bfb4 043d a9a3 c5bd 75d7 0ebd a7b3 26bd
000000f0: 5df5 13bd bce2 883d cb49 b93d 028f 043d
00000100: c1f7 aabd c4b5 033d 64e4 f4bc 32ff 543d
00000110: 4bff 3a3d 1662 16bd 586e ca3d 161a 5cbd
00000120: 81c8 7b3d 9313 17bd b588 b93d 6d3f cb3c
00000130: bfe5 9d3d b9ce 08bd 52e9 9dbd 021b 343d
00000140: 736c b8bd 5a8e 2abd 5a5d 0d3d 75e4 21bd
00000150: 5704 2f3c 8f83 b93a 77d9 3abb 7346 133c
00000160: 7682 853d e2d9 40bd
