source/models/MelodyTimbreCNN/model_128_25_0.003_besthyp_minclassacc.pth (torch, 202227 bytes, 26 tensors)

weight f4 [6, 1, 5, 5]
00000000: 8673 e73d 2c64 68be ffdd 483e 6730 53be
00000010: e7cb 16be c290 89be ca70 e03d b9ae c13c
00000020: 024d a6ba 9acd 8ebe 0605 a0bd 93bf 40be
00000030: 1e84 00bd 0536 88be 5286 28be 198d c03b
00000040: 716b 0cbe 5b7a 073e 45cb 8bb8 b774 733e
00000050: 673e 85be 22cf a6be 6082 96be 90bb 69be
00000060: f931 91bc 6a4c 06be 97f3 243e 142a c3bd
00000070: c640 0fbe beb0 eabd a8bf fc3d 62b5 293e
00000080: 8f47 24be 03b6 46be 0ec7 13be 0e53 0e3f
00000090: 0c8a 783e 9808 913e 077e 4c3e 792d 79be
000000a0: d567 843e 15e7 a23c a4c8 8fbd 4261 87be
000000b0: 94a1 99be 7a63 9e3d 0d49 ef3d fe42 253e
000000c0: 701b a13d 47b5 56be 5df5 19be 292b 74bd
000000d0: 9f62 113e 117e 553d c3a4 eb3d cd40 6bbe
000000e0: 963c 17be 89e3 0c3e 2466 093e 7871 f83d
000000f0: 689d 7c3d 0368 78be 9dad fb3d df84 8fbe
00000100: 820e c33d c650 33ba 59a8 693e a10e ca3e
00000110: c598 8abe 0c6f 74be ab1f a4bd 5838 6b3e
00000120: 1e76 6e3e f8ef 1bbb f7c1 71be df17 06be
00000130: 050f 073d c4e0 3ebe 7dc6 d53c 2b52 66bd
00000140: 24ac c53d 1213 133e bdaf ab3e 1457 0e3e
00000150: fb38 f73d e142 bebe 02e4 333d 0c55 893d
00000160: 7fd1 56be 79c8 0cbe 75dd 7e3d 6246 2a3e
00000170: 24b9 cc3e 5f2f 563e 2e11 bf3c a266 403e
00000180: 1b63 ee3e 962b bc3e 133b 183e 2907 ff3d
00000190: fe7d 80bd c9af 13be eff4 52be 4095 ca3c
000001a0: 7242 b33e 4281 a23d 6fc6 483e 35a4 46be
000001b0: 55e0 e83b ce43 533e e633 6e3e 4122 223e
000001c0: 5062 0d3e 73e5 083d 86b5 843e 76b4 5f3d
000001d0: 9b07 8b3c 8f77 85be 2f24 a33d 3c23 4b3b
000001e0: ad7c 08be dd53 0dbe 4b80 acbe 195e a8be
000001f0: 3699 24be 81e6 a73e 548d 103e 4dab bf3e
00000200: 7ed0 863e 2c2f a0bc 2058 983e ee50 a03d
00000210: 40d9 433e 13fd 4b3e 2e6d cd3d 3216 84bc
00000220: 7b77 bfbd b166 e1bd 200f 1dbe 72c0 ecbd
00000230: 807f f23c 8f89 673b 4301 1b3d dd12 f8bd
00000240: 44c2 03be 6fe7 e0bd 136d 8dbe 7a81 7ebe
00000250: b5b6 25be a156 7cbe
0.11301331 -0.22694463 0.19615935 -0.20623933 -0.1472622 -0.26868254 0.10959013 0.023642885
-0.0012687745 -0.27891237 -0.07813458 -0.1882308 -0.031375997 -0.26603714 -0.16457489 0.005876195
-0.1371286 0.13230269 -6.6658984e-05 0.23774992 -0.26024172 -0.32579905 -0.29396343 -0.22825456
-0.017724024 -0.13115087 0.16108547 -0.0952951 -0.13989553 -0.11459492 0.12341243 0.16573098
-0.16042922 -0.1940537 -0.14431402 0.5559548 0.2427141 0.2832687 0.1996995 -0.24333753
0.25860468 0.01988558 -0.07020691 -0.2644139 -0.30006087 0.077338174 0.11683855 0.16138837
0.078665614 -0.2096759 -0.15035005 -0.059611473 0.14197777 0.05212218 0.11506035 -0.22973938
-0.14769205 0.13758673 0.1341787 0.121310174 0.06167355 -0.24258427 0.122889735 -0.2803106
0.095242515 -0.0006840344 0.22818126 0.39464286 -0.2706968 -0.23870486 -0.08013853 0.22970712
0.23287246 -0.0023794156 -0.23609148 -0.13095044 0.032973308 -0.18640429 0.026095623 -0.056230705
0.09651974 0.14362743 0.33532515 0.13900405 0.12071415 -0.371604 0.043918617 0.067056745
-0.20978354 -0.13748349 0.062222917 0.16628411 0.39985 0.20916508 0.023323622 0.18789151
0.46559986 0.36752003 0.14866285 0.124525376 -0.06274031 -0.14422525 -0.20601247 0.024729371
0.3501163 0.0793481 0.19606946 -0.19398578 0.0071068206 0.20631334 0.23261985 0.1583338
0.13807034 0.033421945 0.2591974 0.05461546 0.0169714 -0.26067778 0.07965886 0.0030996343
-0.1332881 -0.13801523 -0.3369163 -0.3288429 -0.1607407 0.32793048 0.14116412 0.3743538
0.26330942 -0.019553743 0.29754734 0.07827936 0.19125843 0.19920759 0.1003059 -0.016123865
-0.09348961 -0.11005915 -0.15337801 -0.115601435 0.029601812 0.0035329794 0.037843 -0.12112973
-0.12867075 -0.109816425 -0.2762228 -0.24854079 -0.16182978 -0.24642421

weight f4 [6]
00000000: 9319 453f 6746 793f 2409 9f3f 1bc6 293f
00000010: 8634 8e3f 61ee 553f
0.7699215 0.9737305 1.2424664 0.6631791 1.1109779 0.8356686

bias f4 [6]
00000000: 05b2 03be 1881 7bbd 944d 9cbd 6626 a2be
00000010: eb34 c83e c787 8f3d
-0.12860878 -0.06140241 -0.07631984 -0.3166992 0.39102873 0.07008319

running_mean f4 [6]
00000000: dfbf 31bb 3c82 4abb fac0 02ba 110d 01bc
00000010: 366b 343c b4b1 c33c
-0.002712242 -0.003090038 -0.0004987862 -0.00787665 0.011011889 0.023888446

running_var f4 [6]
00000000: a5b0 8d40 0d1d 533f 9a4a f63d 58e8 7e40
00000010: 7059 ba3e de43 6b3f
4.427813 0.824662 0.12025948 3.9829311 0.3639636 0.9190043

weight f4 [18, 6, 5, 5]
00000000: 9258 bdbd 8206 ffbc c80f eebd 3007 64be
00000010: cc0b 91bd 7170 563c 75bf 25bd c596 97bd
00000020: ae29 12be 469b e0bc 80df 74be f233 40bd
00000030: 1b66 25be bf87 55be 6886 3abe 9c24 22be
00000040: 486d 0bbe f621 cbbc 30b2 ebbc e8df ccbc
00000050: 2bac 5f3e 8185 4a3e c18c 3c3e 9efe 4a3e
00000060: 37b4 943e b094 adbc c394 c53d 66a0 d0bd
00000070: df05 dbbd f9cc 4f3d 5e89 0a3c f498 c63d
00000080: e7ee 383d 2e17 763e f5f4 5f3e e41b 64bd
00000090: 9e38 f93b 6e3f 8bbc 271d 0a3e c0b0 dc3d
000000a0: fc60 1dbe f426 83bd 82ca d9bb d246 4cbd
000000b0: ec3f 94bd 418f 1cbe 5a45 2ebe faa0 2ebe
000000c0: 946f 33be 5413 c3bd f0df a53e 31f8 ac3d
000000d0: 741a f53d 48bd b43e 0a06 313e e9aa 733d
000000e0: 0492 07be 18e6 8cbd 5dce 6d3e b45b 0cbd
000000f0: ca49 e63d fc6a 22be ca14 07be 5304 803c
00000100: 8cc4 90be 1951 0e3d 460d df3c f5a9 05bd
00000110: 0239 27be 3773 18be 2b58 33bd 00f9 f0bd
00000120: d87d 523c e2d1 a0bd 6162 0a3d 272b 6dbd
00000130: d1d9 3cbd fd3e bbbd f21a ddbd 592a e1bd
00000140: 6a58 083d e06c f5bb adf6 103d 8f6c a03c
00000150: 4ec4 22be 3f64 973d 79e3 9f3c 8a19 a43c
00000160: b668 acbd 1a6b f4bd 5e5b 10bd e222 bf3c
00000170: 2ee8 d6bb 091d 06be cc8f 25bd f900 133b
00000180: ac07 833c 0962 603d b2ad 8c3c 2aa3 54bd
00000190: 5a7e f13d 3dae 86bc 63f2 373e e803 86bc
000001a0: fb97 54bd e171 e6bd 69dc 81be ab8f 9bbd
000001b0: 291a a8be cb18 71be 8e50 f6bc 7f5f e8bd
000001c0: 7033 75bc e257 62bd 8ca1 c5bc fed5 453e
000001d0: 6adb 013e 4430 473d f5b4 993d 68ed eabd
000001e0: f019 a0bd d95b 41be 25ed 45be c326 373c
000001f0: 1dd3 51be 00e9 313e 84e5 a33e 4bc2 4c3e
00000200: 025a 383e b34d 693e 5e9c c8bc 2c6c f5bd
00000210: 02b2 fabd 34d0 c4bd 2165 ab3c 3595 f3bc
00000220: 58c7 edbc 0d5e 25bd 9557 0b3d a2e8 41bd
00000230: 0cff 263e 28af 673e b806 4f3e 692e 2f3e
00000240: e841 f53d d24c d53d ce3a 563e 952c 2d3e
00000250: be4d 243d 6198 90bc bc76 29be aa48 49bd
00000260: 1d0c 8e3d 5b34 d2bd adb0 4cbc e2d8 94bd
00000270: 852e b3bc 99cb 01bc d683 123d 3395 bfbd
00000280: 2b52 d53d 5cad 933e 51ab 313d 94d4 7e3d
00000290: a93d b3bc 5ab0 68bd 47b9 a93d fd19 84bc
000002a0: 27c8 e4bd f822 0a3c adff e43b 314e 5d3d
000002b0: 37b5 023d 74ce 62bd 99ed 80bb f783 003d
000002c0: 7acc 9cbc feeb 823e 5c1c b8bd 4a3a 5e3d
000002d0: 59ce 81bd 5409 bebd c1ce e5bd 4f75 57be
000002e0: 8668 3dbe 3c87 26be e4a2 c6bd 14c9 8abd
000002f0: 6dcc dbbe c92c 89be 11c2 4bbe 7e57 04be
00000300: a3b9 1dbc 7405 8cbe 78ce 1fbd 830e e33d
00000310: 2dc3 b63d 53e1 843e 2a24 193e 2648 223e
00000320: 4863 5b3e cee2 9b3e 840b 0fbe acbc 6a3d
00000330: 610d e53c 6cf0 f83d 2a8e bd3e 77fe 2bbe
00000340: 7539 803d 0904 52bd bd10 703d 9f14 0ebe
00000350: 5e25 7c3d 542b dabd 3e2a 84bd 4dce f23c
00000360: 7037 c6bd c459 04be 9c5b 2e3e 6518 033e
00000370: 6c18 87be a286 2fbe e5d6 4b3e 51f8 cbbb
00000380: 62d2 963c bf36 5abe 9db8 dcbd 43b0 51be
00000390: c08d 94be f3a1 78be 15f2 a6bd b357 d3bd
000003a0: 76c1 5fbe 7659 b3be 8333 c1be 0085 b33a
000003b0: fc89 3c3c 3642 7cbe 1a0e 93be 40e4 dbbd
000003c0: 91e1 92bc b5f0 373e e2f1 1b3c b3b7 60bc
000003d0: 28f4 bcbc ab44 633d efa5 393e 9b29 293e
000003e0: 3b79 233e bf79 853d ca91 323e 999c a9bd
000003f0: 890d 18be ae32 1f3d 5a48 b4bb 9647 2f3e
-0.09245409 -0.031131033 -0.11624104 -0.22268367 -0.07082328 0.013088332 -0.04046579 -0.07401804
-0.14273712 -0.02741779 -0.23913383 -0.04692454 -0.16152231 -0.20852564 -0.18215334 -0.15834278
-0.13615906 -0.024796467 -0.02877149 -0.02500911 0.2184302 0.1977749 0.18413068 0.19823691
0.29043743 -0.021189064 0.09647515 -0.101868436 -0.10694479 0.050732587 0.008455602 0.09697142
0.04514971 0.2403228 0.21870787 -0.05569066 0.0076056262 -0.01699802 0.13487683 0.107759
-0.15369028 -0.06403914 -0.0066464553 -0.049872227 -0.07238755 -0.15289022 -0.17018643 -0.17053595
-0.17523032 -0.09525171 0.32397413 0.08445776 0.11967936 0.3530066 0.1728746 0.059489165
-0.13239294 -0.068798244 0.23223253 -0.034267142 0.11244543 -0.15861124 -0.13191524 0.015627062
-0.28274953 0.03474531 0.027228009 -0.032632787 -0.1633034 -0.14887701 -0.043785255 -0.11766243
0.012847386 -0.07852532 0.033785228 -0.05790248 -0.046106163 -0.091428734 -0.10796155 -0.10994405
0.033287443 -0.0074897856 0.0353915 0.019583015 -0.15895197 0.07392167 0.019517647 0.02003171
-0.084184095 -0.119344905 -0.035243385 0.023332063 -0.0065584397 -0.13097014 -0.04042034 0.0022431
0.01599487 0.054780994 0.017172668 -0.051913418 0.11791678 -0.016440505 0.17963557 -0.016359285
-0.051902752 -0.112521894 -0.25363472 -0.07595762 -0.3283246 -0.23544614 -0.030067708 -0.113463394
-0.014965877 -0.055259593 -0.024124883 0.19319913 0.12681356 0.048630014 0.07505218 -0.11471063
-0.07817447 -0.18882693 -0.19328745 0.011178675 -0.2049069 0.17374039 0.32011044 0.19995992
0.18003085 0.22783546 -0.024488624 -0.11983523 -0.122409835 -0.09610024 0.020922245 -0.029734233
-0.029025719 -0.040372897 0.03401907 -0.047340997 0.1630823 0.2262541 0.20217407 0.17107548
0.11975461 0.10415043 0.2092087 0.16911538 0.040113203 -0.017650785 -0.165492 -0.049141563
0.06935904 -0.10263892 -0.012493295 -0.072679296 -0.021872768 -0.007922077 0.03577026 -0.09354629
0.10416063 0.288432 0.04337627 0.06221445 -0.021879988 -0.056808807 0.08287292 -0.016125673
-0.111709885 0.008431189 0.0069884867 0.054029647 0.0319111 -0.05537267 -0.003934574 0.03137585
-0.01914047 0.25570673 -0.08989784 0.054254808 -0.06338186 -0.09279123 -0.11221076 -0.21040843
-0.18496904 -0.16262525 -0.09699038 -0.06776634 -0.42929402 -0.2679198 -0.19898249 -0.12924
-0.009626779 -0.2734791 -0.039015263 0.11086752 0.089239456 0.2595316 0.14955202 0.15847835
0.21424592 0.30446476 -0.13969237 0.057308838 0.027960481 0.12155232 0.37022525 -0.1679629
0.06260959 -0.05127338 0.058609713 -0.13875054 0.061559074 -0.106527954 -0.064533696 0.029639388
-0.096785426 -0.12924868 0.17027134 0.12802275 -0.2638582 -0.17141202 0.19906195 -0.00622467
0.018410865 -0.21309946 -0.107774 -0.20477395 -0.29014397 -0.24280529 -0.08151642 -0.10319462
-0.21851143 -0.3502919 -0.37734613 0.0013696253 0.011507507 -0.24634632 -0.28721696 -0.107368946
-0.017929824 0.17962916 0.009518119 -0.013715672 -0.023065642 0.05548541 0.18129705 0.16519777
0.15964215 0.06517362 0.17438427 -0.08281822 -0.14848913 0.03886669 -0.005501789 0.17117152

weight f4 [18]
00000000: 4a00 4b3f f06b a23f 959b 8f3f 061b b03f
00000010: 4a38 623f 2452 8e3f c361 5d3f cdf9 213f
00000020: d964 373f 893d 623f c28d 783f 1e2f 8f3f
00000030: 5a6c c03f ccf8 833f 0bce 493f e2ae 7d3f
00000040: 79da 7b3f f269 233f
0.79297316 1.268919 1.1219355 1.3758247 0.8836714 1.1118817 0.864773 0.6327179
0.71638256 0.88375145 0.97091305 1.1186254 1.5033066 1.0310302 0.7883002 0.99094975
0.9838024 0.63833535

bias f4 [18]
00000000: 9a05 8cbe a9e7 b3be 429e 3ebe 48c0 b1be
00000010: 2ed9 b6be dd08 e9bd f4be 8bbe 6fa0 08bf
00000020: b10b a2be 0602 bfbe 4ab1 c8be fe4c 18be
00000030: 865f 69be f89e 31be 0738 91be d370 d8bd
00000040: a8ba 6cbe 2483 4fbe
-0.27348024 -0.3513768 -0.18615058 -0.3471701 -0.3571257 -0.11378644 -0.27294123 -0.533698
-0.31649545 -0.3730623 -0.3919776 -0.1487312 -0.22790346 -0.17345798 -0.28363058 -0.105683945
-0.23118079 -0.2026487

running_mean f4 [18]
00000000: af67 43bf bc23 50bf acbf 46bf a707 04c0
00000010: bb1e 6d3e f297 fbbf d269 b7bf 3a15 4d3f
00000020: 5c95 0bc0 e5df 34bf 2ad7 ddbf b903 6fbf
00000030: 5037 86c0 a022 1dc0 2018 e63d dc9c 8dc0
00000040: 0ffe 573f 98ad d43e
-0.76330084 -0.81304526 -0.7763622 -2.062967 0.23156254 -1.9655745 -1.4329169 0.80110514
-2.1809912 -0.70654136 -1.7331288 -0.93365055 -4.194252 -2.4552383 0.1123507 -4.425398
0.8437204 0.41538692

running_var f4 [18]
00000000: 791d 4e40 22eb b340 63cb a540 ab3b 9b40
00000010: f2ff 3f40 9fd8 ae40 f6d4 e640 1fbb aa40
00000020: c394 c840 facd c940 1525 6140 1af8 ca40
00000030: bca9 7041 59ab bf40 2c8b 7240 3c90 3741
00000040: 75a1 1841 12bc 7540
3.2205489 5.6224527 5.1810775 4.8510337 2.9999967 5.463943 7.213496 5.335342
6.2681594 6.3063936 3.5178883 6.342786 15.041439 5.9896665 3.7897444 11.472713
9.539418 3.839604

weight f4 [45, 18, 5, 5]
00000000: 65c4 cfbe 1976 b0be f253 92be a6f5 86be
00000010: ef28 a1be 11cf 4c3c 20eb 3b3d a6ca b63d
00000020: 2e1f 0f3e 6d30 903d 87e4 d93d 440d bc3b
00000030: d447 a83d 0e70 8e3d 224b 673d 7b34 18be
00000040: 3a6e 1abe 4f67 5dbd cc65 54bc aafc bebd
00000050: 93b3 6d3c 1b4b 1237 0239 8c3d a871 de3d
00000060: 9ffa 2bbd da6e c6bb 3ddb 8abd f0c1 cebd
00000070: 3414 71bd 5901 e5bd 7d9c ebbc 0c04 073d
00000080: 4f07 7b3e c7bc 29bb 82c9 edbc 91dc 043e
00000090: 1b86 1b3e d8eb 603e 90e7 093e 2aa2 1b3e
000000a0: 2c11 383e c9d4 d23d 8be8 203d 7297 503d
000000b0: 0dd5 e1bd a7fb b23b f504 b93d e3c0 a53d
000000c0: 653f 693d 561b 4f3d f14c 95bd df98 c73e
000000d0: 3855 17bb 6142 0bbe 8aa3 1ebe a56d 8abd
000000e0: f2f6 c03d d60e abbd ab6d e5bd 8438 a7bd
000000f0: ff69 063e dc7f c53d 308e d83d f1fa 37be
00000100: 0c37 3f3e e769 363e 6fb1 513e 04a5 b63d
00000110: d8a6 59bd a985 4a3e 5ebe 58bd df99 8d3e
00000120: ed13 163e bb9a 60bd c2e6 713e d87b 3cbe
00000130: 3b3c 803e 29de 863e 1df9 cbbd 5179 213e
00000140: f745 183d 4c07 4c3e d992 6d3e 9e0a d73d
00000150: c159 0a3e d7d6 73bd 3df5 b5bb 5ac4 91bd
00000160: d966 81bd c2d7 28be ce0b 39be 943f 08bd
00000170: c286 54bd 5bc2 33bd c4ad d3bd f5bf a9bd
00000180: c389 2b3e 49da 513d 38e3 f6bc cad1 163e
00000190: 60e3 833d e342 bbbc e459 103d 984f 5dbd
000001a0: 2d89 bdbd 1533 fdbc d0a7 f6bc d77b f43d
000001b0: bfa6 363d 4a88 143d 4030 3fbd f800 f2bd
000001c0: c168 963d 1ac3 47bd e7c3 54be 7062 9a3e
000001d0: 8226 5a3e 4dac 733e d1d7 743e f105 d23d
000001e0: 4f9b 333d b9d2 9abb 651b 22ba e932 a23b
000001f0: 7420 97bd e610 9a3e 6cbf ae3d 1471 4dbe
00000200: eecb 06be af87 0dbe 3623 8abc 0998 20bd
00000210: 43ad 77be 65c3 e9bd 5019 fabd c9d8 2ebe
00000220: 6fc7 cfbe 7d1d 50be 8c91 01be 4766 45be
00000230: 609c 853c 72b9 dabd 0e5f c9bc 8792 d0bd
00000240: e941 e4bd acaf 50bd 6a5b afbb dc88 b6bd
00000250: 83c1 d2bd d5bf 8bbd 8d6c 553d 42e4 68bc
00000260: a2af d6bd 5225 9c3d fac6 9fbd 43d9 b83d
00000270: 5f15 d73d 8230 a5bd 5f56 8e3b 03b9 243b
00000280: ad8b 9f3d e72c acbd a058 5fbd b158 903c
00000290: 41e1 c7bc 5e7a 1fbd 4f4a 153b 3139 67bd
000002a0: afec 863d e45a fc3d 43a6 0e3c 91b9 ec3c
000002b0: b616 efbd 551f d2bd 8bb0 923d 557d 5ebe
000002c0: 7119 dcbd 57fe 1ebe 8a2d 0abe 75e6 36be
000002d0: 3340 3f3d 5e82 503e 4db7 1c3e b91a 113e
000002e0: 354c 1b3d 0b74 2cbe 6cf0 80bd dd1b d3bd
000002f0: 70ac f7bd 9316 2ebe 0291 243d 1863 c43c
00000300: 0211 2c3d bb97 1339 9fcc 65bd ab66 ef3d
00000310: 751b 993d c433 263e 243d da3d 34be ab3c
00000320: b8c1 49be e79e cb3c ffc6 2f3c e73e f4ba
00000330: 6ec7 01be 9c00 00be 3ac7 c23c 5463 67bd
00000340: 533b 5f3d be85 31bd a974 b33c 5969 0fbd
00000350: dbc1 813d 83c6 8a3d 1ac1 14bc 91e4 86bd
00000360: 75d4 74bd c924 e7bb 2efa 923d eb1f 8fbd
00000370: fad1 83bd c207 a1bc 74f8 df3d 284b 5d3d
00000380: 8567 36bc 3668 68be dab3 76be 1683 9dbe
00000390: b371 41be 2c1b 72bd 981e 793d 5fb4 b33d
000003a0: c752 bc3d cf29 d5bc ee4c 123d 0444 01bd
000003b0: 8bb3 b63c 8364 003d 523d 3bbd a551 9ebd
000003c0: 13f1 aa3c 7aa7 c23d 417e 213b 6222 653d
000003d0: 9b8c 653d 07d2 d8bc b97a a8bb e87c 8ebd
000003e0: 74b3 e8bc 065a b93c 874c 773e 31cb 973e
000003f0: aec3 e73e e7d8 9d3e 3f6b 0c3f 8c7c 90be
-0.40579525 -0.344651 -0.2857967 -0.2635929 -0.31476542 0.01250054 0.04587853 0.08925371
0.13976738 0.070404865 0.10639291 0.005738886 0.08216825 0.069549665 0.056468137 -0.1486377
-0.1508111 -0.0540536 -0.012963723 -0.093255356 0.014508146 8.719765e-06 0.06846811 0.10861522
-0.041987058 -0.006055695 -0.06780098 -0.100955844 -0.058857158 -0.11181898 -0.028761143 0.032962844
0.24514507 -0.0025899874 -0.02902675 0.12974764 0.15187876 0.21964967 0.1346724 0.1519858
0.179753 0.10294492 0.03928427 0.05092568 -0.11026964 0.005462128 0.090341486 0.08093431
0.056945223 0.05056318 -0.07290066 0.3898382 -0.0023091566 -0.1359954 -0.15492073 -0.06759194
0.09422101 -0.08352439 -0.11202558 -0.081650764 0.13126372 0.09643528 0.10573995 -0.1796682
0.18673342 0.17813836 0.20477842 0.08918193 -0.05313763 0.1977755 -0.052915923 0.27656457
0.14656039 -0.054835062 0.23623183 -0.18406618 0.25045952 0.2634137 -0.09959624 0.15768935
0.0371761 0.19924659 0.23200549 0.10500072 0.13510801 -0.05953106 -0.0055529163 -0.07117529
-0.06318445 -0.16488555 -0.1807091 -0.033263758 -0.051886328 -0.043886524 -0.103358775 -0.08288566
0.1675177 0.051233564 -0.030137643 0.14728466 0.06439853 -0.022859043 0.035241976 -0.054030985
-0.0925468 -0.030908147 -0.030109316 0.11937683 0.044592615 0.036262788 -0.046676874 -0.11816591
0.07344199 -0.048770048 -0.20777856 0.30153227 0.21303752 0.23796196 0.23910452 0.102550395
0.043849286 -0.004724827 -0.00061838917 0.0049499166 -0.07379237 0.30091017 0.085326046 -0.20062667
-0.1316373 -0.1382129 -0.016862493 -0.039207492 -0.24187188 -0.11414222 -0.12211859 -0.17074884
-0.40581843 -0.20323749 -0.12653178 -0.19277297 0.016309917 -0.10679902 -0.024581458 -0.10184198
-0.11145384 -0.050948784 -0.0053514736 -0.089128226 -0.10290816 -0.068236984 0.052105475 -0.014214577
-0.10482718 0.07624306 -0.07801624 0.090258144 0.10502123 -0.08065893 0.0043437923 0.002513469
0.07790313 -0.08407002 -0.05452788 0.017620416 -0.024399402 -0.038935058 0.0022779887 -0.056451026
0.065881126 0.123220235 0.008706632 0.028897079 -0.11674254 -0.10259882 0.07162579 -0.21727498
-0.1074704 -0.1552671 -0.13493934 -0.1786135 0.046692085 0.20362231 0.15304299 0.1417035
0.037914474 -0.16841142 -0.06295857 -0.10308049 -0.12093437 -0.17000799 0.040177353 0.023973033
0.042008407 0.00014075536 -0.056103345 0.11689504 0.0747594 0.16230685 0.10656193 0.02096472
-0.19702804 0.024856044 0.010728597 -0.0018634469 -0.12673733 -0.12500232 0.02377664 -0.05649121
0.054499935 -0.043340437 0.021906214 -0.035012577 0.06335803 0.06776144 -0.009079242 -0.06586564
-0.059772927 -0.0070539457 0.07176624 -0.0698851 -0.06436534 -0.01965702 0.109360605 0.054026753
-0.011133079 -0.22696003 -0.24092045 -0.30764073 -0.18891029 -0.059107944 0.060820192 0.087746374
0.09195476 -0.026020912 0.035717897 -0.031559005 0.02230241 0.031345855 -0.045712776 -0.07730416
0.020866906 0.095046 0.0024641904 0.055940993 0.056042295 -0.026467336 -0.005141583 -0.06957418
-0.028405882 0.022625934 0.24150287 0.2964721 0.4526648 0.30829546 0.54851145 -0.28220022

weight f4 [45]
00000000: 0941 853f 55f0 683f a1e2 373f 37ea 6f3f
00000010: 5d66 653f 83a8 9f3f 7de5 893f fa8a 6f3f
00000020: dbc7 453f 02f0 a23f 3d95 413f b9fc 983f
00000030: 5f22 b23f feef 243f 261b 6e3f 70af 3e3f
00000040: 583c 4f3f 6a45 593f 16e6 6b3f 1039 603f
00000050: 1858 7e3f fdec 383f 5055 6f3f 744c 8e3f
00000060: ced1 803f b793 a23f 80cb 613f 1a6d 953f
00000070: 6670 4a3f 6b35 423f f1be 3a3f 6edc 543f
00000080: 1d54 593f e25b 7e3f bc00 823f 597c 623f
00000090: c20a 5d3f 0bb4 853f ad31 6e3f cf09 793f
000000a0: 11ac 8e3f 5666 9e3f a616 4e3f 3d9f fc3e
000000b0: 10d8 443f
1.0410472 0.9099172 0.71830183 0.9371676 0.8960932 1.2473301 1.0773159 0.93571436
0.7725808 1.2729495 0.75618345 1.1952125 1.3916739 0.644287 0.93010175 0.74486446
0.8095145 0.8487154 0.9214796 0.8758707 0.9935317 0.72236615 0.9348955 1.1117082
1.0064027 1.2701329 0.8820114 1.167392 0.79077756 0.7586276 0.72947603 0.8314885
0.8489397 0.9935895 1.0156474 0.8847099 0.8634454 1.044557 0.9304455 0.9728059
1.114626 1.237498 0.8050331 0.4934024 0.76892185

bias f4 [45]
00000000: 2c7b f8be 5698 9abe 14db 12bf 1f4c fabe
00000010: 5667 4abe 3d25 0ebe c5ad 20bf ec10 aabe
00000020: e59d ecbe f4bc 41bf 42fa 78be 2dd5 89be
00000030: 4a3b c8be 3b0e 15bf c2b0 0cbf b752 9ebe
00000040: ecf8 9fbe abd9 65be d736 23bf b3ea 06bf
00000050: bc37 d7be aabb 39bf 4446 1abf 2dec abbe
00000060: 8647 fbbe b958 99be 2417 d9be e70d cfbe
00000070: 548e 9ebe 8f8c e9be cd0f fbbe 0db0 fabe
00000080: 711c afbe 0553 d9be d6eb 8bbe c355 81be
00000090: 7f57 b1be 2b9a ebbe e489 54bf e10b fabe
000000a0: 91ea 09bf 2dbd 36be 6487 c8be 1e47 dabe
000000b0: c611 02bf
-0.48531473 -0.30194348 -0.57365537 -0.488862 -0.19765982 -0.13881393 -0.6276515 -0.33216035
-0.46214214 -0.75678945 -0.24314216 -0.26920453 -0.39107734 -0.5822484 -0.5495721 -0.3092248
-0.312446 -0.22446315 -0.63755554 -0.5270187 -0.4203471 -0.7255198 -0.60263467 -0.33578625
-0.49078006 -0.29950503 -0.42400467 -0.40440294 -0.30967963 -0.4561505 -0.49035493 -0.4896244
-0.34201387 -0.4244615 -0.27328366 -0.25260743 -0.34637067 -0.46016058 -0.83022904 -0.48837188
-0.53873545 -0.17845602 -0.39165795 -0.42632383 -0.5080837

running_mean f4 [45]
00000000: a151 f83e c525 6dbf 6b0c 96c0 c0cb aa3f
00000010: 5d38 fa3d a7d7 cabf 62a4 653f 49e9 97c0
00000020: 1011 9c3f af55 5fc0 f5ee af3f 5ced fdbe
00000030: ab47 6bc0 7eb1 99bf ab01 1d3f 447f a53f
00000040: fe89 b33f 4a66 b2c0 4b5c 2bbf 1d4d 463f
00000050: 6bef fbbf bc6f 5a40 07a7 fa3f 5418 c23d
00000060: d92f b040 6b87 3cc0 a3d6 6240 07e1 85bf
00000070: 4224 17c0 8ca9 223d f767 79c0 9e69 5abe
00000080: cfcf 6140 065b c43e 0eb2 4dbf 24ef 9abf
00000090: b418 c33f 4fad b33f bb00 d8bf 64e4 fc3f
000000a0: 23fd 0dc0 b6a5 15c0 befe 40c0 f908 6240
000000b0: 4bdf 96bf
0.48499778 -0.92635757 -4.689016 1.334343 0.12217782 -1.5847062 0.89703953 -4.747227
1.2192707 -3.4896047 1.3744799 -0.49595153 -3.6762493 -1.2007291 0.6133067 1.2929463
1.4026487 -5.5749865 -0.669377 0.77461416 -1.968244 3.4130697 1.9582223 0.094772965
5.505841 -2.9457653 3.5443504 -1.0459298 -2.361588 0.039712474 -3.8969705 -0.21329352
3.5283086 0.38350695 -0.80349815 -1.210423 1.5241914 1.4037265 -1.6875223 1.9757199
-2.2185752 -2.3382392 -3.0155482 3.5317976 -1.1786894

running_var f4 [45]
00000000: 91e9 f040 6b24 8641 1517 ff40 ee46 e140
00000010: b9eb 4441 1795 2541 c62b 0541 1375 2e41
00000020: 5774 4541 a666 2841 9ec0 4241 0bf5 b640
00000030: 43c6 1a41 cb7d d840 565c 0a41 86a8 7941
00000040: ca93 7c41 dc78 3c41 eefe e940 c70b 7f41
00000050: 26e5 2441 3a44 2641 9b7d 3341 4b7c b740
00000060: 7ec2 0f41 4ac8 0241 a4e7 4041 ac26 0941
00000070: 7250 0041 d45d f240 3c91 8041 d3e6 1341
00000080: 10c8 8241 376b b540 08d2 8041 68ec 5241
00000090: 518b cb41 466a 3041 16c6 f340 f99a 5941
000000a0: 31b6 3541 8ba6 4f41 324f 0a41 d389 2641
000000b0: 5317 8041
7.5285115 16.767782 7.9715676 7.0399084 12.307549 10.348899 8.323187 10.903583
12.340903 10.525061 12.172026 5.7174125 9.673404 6.7653556 8.647543 15.603643
15.786081 11.779507 7.3123693 15.940375 10.305944 10.391657 11.218165 5.7339225
8.984983 8.173899 12.056553 8.571941 8.01964 7.5739536 16.070915 9.243854
16.347687 5.6693377 16.102554 13.182716 25.443026 11.025946 7.6179304 13.600335
11.35698 12.97816 8.644335 10.4086485 16.011389

weight f4 [18, 45, 5, 5]
00000000: 05ea 8ebd 3748 adbd 6d60 18bd 969d 883c
00000010: 5b54 c6bd 7441 a5bd e0c2 3cbd f9ea dabc
00000020: 9c72 b1bd 30c3 c7bd a42c 1bbd 3872 cabc
00000030: d15c 84bd 8dea 24bd 9552 3c3d f1e2 493e
00000040: a7c1 d13e 2fa5 9a3e a920 6e3e 6c65 b13e
00000050: de93 123d 7fa3 1a3e 6285 b23c 8da7 f63c
00000060: 874a 70bd 9a6e 963e 253c 443e 5280 453e
00000070: c54e d43d 9fd9 0f3e 4f67 f83d c8f7 2b3e
00000080: f2c1 3e3e 779b 2f3e 871d 5f3e 525d f6bd
00000090: f3b8 c3bd db0f a4bc 51ca 8bbd d238 aebd
000000a0: 37f0 a0bd ed7b 91bd 88c3 c83b 3f83 b2bb
000000b0: 5df5 d73c fbef 113c b289 393c 0252 3a3d
000000c0: d229 23bd 3f42 b23d 722f e0bc b8cb e13b
000000d0: 7d79 cebc 88a1 b3bd b62a 1abe c2bf 67be
000000e0: 85df b1be 9c07 95be 1410 a2be 8962 9cbe
000000f0: 2cb7 8ebb 784b 933c 8aa7 c6bc c96d 57bd
00000100: cdba d4bc e6da e0bd 257c febd 0f7b f6bd
00000110: 9e49 54be 681c 1abe df85 21bd 29c6 0ebe
00000120: f13b bbbd d2b7 c7bd 340f 50be 8571 a53d
00000130: 9816 ce3c ed12 a33d 1c7d bcbc f5b1 b3bc
00000140: 5128 3abd ed9b f1bc 6a8e 55bd 96d3 cabd
00000150: e32c 743d 5efc 03be 9e5a b6bd 1ed1 bbbd
00000160: bc62 40be 84ae 07be 13e5 0ebe b7da bbbd
00000170: e776 abbd df2c 86bd 6b9a d0bd 9534 f1bd
00000180: 31fa 06be 87aa 34be c79d 83be f809 40be
00000190: ca92 ca3d 18c4 2e3d 2f62 843d b24f b83d
000001a0: 3f82 173e d234 ecbd bbf2 dcbd 1129 02be
000001b0: e952 f2bd 795e 02be 1da1 52bd f0eb cbbd
000001c0: f4f5 d1bd fe3b bcbd 68c2 82bc 5d09 be3d
000001d0: 42ad a23d 60e0 2e3d e08d 933b bfbc 3a3d
000001e0: 29b9 44bd 34ec 8bbd 7bc5 47bd db9a 93bd
000001f0: 7c35 2a3d f90d 50be 86ce 24be d918 08be
00000200: f16e f2bd c244 debd cd97 64be 929e 38be
00000210: 0e0d 6dbe 37d7 6abe f99a 24be 15ff babd
00000220: fb57 33be d086 52be 4b2f 5abe e26b 55be
00000230: 5329 1e3c 8b82 5dbd 8307 1cbe e869 09be
00000240: 643f fabd 8869 9a3e b170 193e 003e 923e
00000250: a17f 7a3e b726 5e3e d8c9 a2bd 2f46 25bd
00000260: ec75 31be 260d 59be e7a0 5a3b 75a4 dbbd
00000270: 436c 073d 95fa 083d 4015 eabc ce90 073e
00000280: ec3a fd3c 2fd2 123e 04b7 a73d 3644 98bd
00000290: e862 23bd ac75 623d 3102 4e3e dde2 c23d
000002a0: 6d6e 20bd 960a 17bd e2da 283e 964e 453e
000002b0: ef2c b03d 5d2e f3bc 743a e03d adda a93d
000002c0: 6f7c ce3c 8033 b63b 048b a8bc dbdd 523c
000002d0: b4cb 813e 25d0 403e 74a0 9a3e 9103 883e
000002e0: 2da4 aa3e d45a a0bc 35dc 1cbd 2538 0fbc
000002f0: e0de 49bd b4a6 ae3c 3bba 2dbe 3f23 a3bc
00000300: 27b4 4ebd 3dc5 cc3d 2d88 ca3c fac8 0c3e
00000310: 03f6 cc3d 78a2 253e e96c 653d f3dd 3d3d
00000320: 67d6 9cbd e9ee 04be f42e ffbd d7c2 abbd
00000330: e1f9 33bd a19f f93d ae38 9a3d 0a13 c03d
00000340: 48a1 ba3d 41c5 d23d ba45 183d 14db c93b
00000350: 0b42 ae3c 9777 283d 5767 bf3a 6adc 44be
00000360: 191a 5cbe 5075 dabd 455a 42be b7ec cfbd
00000370: cd46 57be 44fa efbd 47fe e8bd 281d 00be
00000380: 4a36 f5bd f5ac 6dbc 20c0 9a3c 20da 3f3e
00000390: 89a6 253d 86c1 46bd 476f ec3d d8a9 d93d
000003a0: 9990 073e 3af2 7c3d 535b ab3d 5350 1a3c
000003b0: c53b 0d3c 57ce 1d3e 1bc6 bd3d 5c60 3e3e
000003c0: 5251 bfbc ef19 91bd 6531 973d 87d6 f03b
000003d0: 9ec4 813d 8d1a 023d ab44 3f3d 8e0a 073e
000003e0: 3f4c e03d 8673 a13e b97e 4ebd a7cb 2bbd
000003f0: e871 093d 96ac 923d 346c c23d e746 4abe
-0.069782294 -0.084610395 -0.037201334 0.016676705 -0.09684058 -0.08069125 -0.046084285 -0.026723372
-0.08664438 -0.09754026 -0.03788437 -0.024712667 -0.06463016 -0.040262748 0.045977194 0.19715478
0.40968058 0.3020415 0.23254646 0.3464769 0.03578555 0.15101431 0.021792118 0.030109191
-0.058664825 0.29381257 0.19163568 0.19287232 0.103665866 0.1404786 0.121290796 0.1679374
0.18628672 0.17149149 0.21788608 -0.12029518 -0.09556761 -0.020027092 -0.06825698 -0.08506931
-0.07858317 -0.07103715 0.0061268248 -0.0054477747 0.026362116 0.008907313 0.011324333 0.045488365
-0.039834805 0.08704042 -0.027366374 0.0068907402 -0.025204415 -0.08771044 -0.15055355 -0.22631744
-0.34740844 -0.29107368 -0.31652892 -0.30543926 -0.004355332 0.017980322 -0.02424981 -0.052594934
-0.02596798 -0.109792516 -0.124260224 -0.1203519 -0.20731208 -0.15049899 -0.03943431 -0.1394278
-0.09142292 -0.09751858 -0.203183 0.08078293 0.025157258 0.07962594 -0.023008876 -0.021935442
-0.045448605 -0.029493297 -0.05213777 -0.09903638 0.05961312 -0.12889239 -0.089040026 -0.09170745
-0.18787664 -0.13250166 -0.13954572 -0.09172576 -0.08372288 -0.06551527 -0.10185703 -0.11777607
-0.13181378 -0.17643176 -0.25706312 -0.18753803 0.09891279 0.04266748 0.064640395 0.08999576
0.14795779 -0.11533512 -0.10788485 -0.12710978 -0.1183222 -0.12731351 -0.05142318 -0.09957111
-0.1025199 -0.0919113 -0.01596184 0.0927913 0.079432026 0.04269445 0.004502997 0.04559016
-0.048028145 -0.068321615 -0.048772316 -0.07207271 0.041554913 -0.2031783 -0.16094407 -0.13290729
-0.11837567 -0.10852958 -0.22323532 -0.1802924 -0.23149511 -0.2293366 -0.16074742 -0.09130684
-0.1751403 -0.2055924 -0.21307103 -0.20841935 0.009653407 -0.054079574 -0.1523724 -0.13419306
-0.12219122 0.3015864 0.14984395 0.28562927 0.24462749 0.21694456 -0.07948655 -0.040350135
-0.1733014 -0.21196422 0.0033360065 -0.10724727 0.03306223 0.0334421 -0.028574586 0.13238832
0.030911885 0.14337991 0.08189204 -0.07434885 -0.039889246 0.055288002 0.20118023 0.09515927
-0.03916781 -0.03687533 0.16489747 0.1926826 0.086023204 -0.029685194 0.10948649 0.08293662
0.025205819 0.0055603385 -0.0205741 0.012870277 0.25350726 0.18829401 0.3020054 0.2656522
0.3332838 -0.01957456 -0.038295943 -0.008741413 -0.049284816 0.021319725 -0.16965573 -0.019914268
-0.050464775 0.09998558 0.024723137 0.13748541 0.100078605 0.16175258 0.056012068 0.046354245
-0.076580815 -0.12981762 -0.124601275 -0.08386772 -0.043939475 0.1218865 0.07530342 0.093786314
0.09112793 0.102915294 0.03717587 0.0061601494 0.021271726 0.041129675 0.0014602941 -0.19224706
-0.2149433 -0.10666907 -0.18979748 -0.10152572 -0.21023102 -0.11717656 -0.113766246 -0.12511122
-0.119732454 -0.014506568 0.01889044 0.18735552 0.040442023 -0.048524402 0.11544662 0.10628098
0.13238753 0.061754443 0.08367028 0.009418565 0.008620207 0.15410744 0.09266301 0.18591446
-0.023354206 -0.070850246 0.07382468 0.0073497924 0.0633633 0.031763602 0.046696346 0.1318762
0.10952043 0.3153345 -0.05041382 -0.041942265 0.033555895 0.071618244 0.09493294 -0.1975361

weight f4 [18]
00000000: 5548 833f 3f42 603f 1d9d 913f 9580 683f
00000010: df21 5a3f ff6c 933f ff7a 493f dcc2 9b3f
00000020: 218a 473f 7dea 7d3f 9764 5b3f 3e9b 993f
00000030: cd4c 8c3f 2935 633f c8fa 5f3f 72bc 8f3f
00000040: 3c82 473f 3e51 733f
1.0256449 0.87601084 1.1376072 0.908212 0.85207933 1.1517638 0.787033 1.2168841
0.77945143 0.99185926 0.8570036 1.2000501 1.0960938 0.8875299 0.87492037 1.1229384
0.77933097 0.9504584

bias f4 [18]
00000000: c083 6dbe 7135 8dbd 2649 89be 2079 36be
00000010: cba7 e0be 9a81 07bf aa94 7fbe 33ed e2bd
00000020: 1301 70be a586 52bd 2443 92be 7e24 8ebe
00000030: 3364 09bf 7921 b7be e8a1 f2be accd 0dbe
00000040: fcec 8cbc b476 b2be
-0.2319479 -0.06894959 -0.2681362 -0.17819643 -0.43878016 -0.5293213 -0.24959055 -0.110803984
-0.2343791 -0.05139794 -0.2856685 -0.27762216 -0.53668517 -0.35767725 -0.4738915 -0.13847989
-0.017202847 -0.34856188

running_mean f4 [18]
00000000: ef71 02c1 fb58 d9c0 e56e 25bf 723d 0540
00000010: 0e8f 603f 6f52 37c1 c8a1 f440 1d5c 79c0
00000020: 9e5e 203f e247 04c0 3e4c 0941 3db4 62bf
00000030: 110f 10c0 2cf8 16c1 214c 2740 f809 b1c0
00000040: e95e 77bf 50b7 dcbf
-8.152816 -6.792112 -0.64622337 2.0818753 0.87718284 -11.457625 7.6447487 -3.8962471
0.62644374 -2.0668874 8.581114 -0.8855627 -2.2509196 -9.435589 2.6140215 -5.532467
-0.96629196 -1.7243443

running_var f4 [18]
00000000: ec48 7b42 59b3 da41 ce29 0b42 1678 ce41
00000010: 1143 9a41 292f 8942 c612 2042 4638 dc41
00000020: c360 1942 726c cc41 25ec 7b42 4e70 e941
00000030: 8100 e341 8cd5 7f42 eb5f 9d41 25d7 6342
00000040: ee55 af41 5933 ff41
62.821213 27.337572 34.790825 25.808636 19.282747 68.59211 40.018333 27.527477
38.344494 25.552952 62.98061 29.179836 28.375246 63.95854 19.671835 56.960102
21.916958 31.900072

weight f4 [6, 18, 5, 5]
00000000: 98f5 94bd e6da 16bd 2c32 19bd 4b28 673d
00000010: a0c8 213d e0fd 39be 367e 51bc bd48 ddbd
00000020: 8c4f bfbd 179e f1bd c954 6ebd 12f0 b03d
00000030: be8f f33c 756d 88ba 63ec 9dbd 1de0 0f3e
00000040: b1fc 043e 1729 a13d 8e2e 463d dd25 2e3d
00000050: dc44 933d 9320 b93c 88b3 12bc b417 69bd
00000060: c055 b4bc 3ec9 393d 6730 ddbd d7e9 c9bc
00000070: 6809 fbbc da0d 89bd 5830 3bbd ea2c 28bc
00000080: 216a 34bd 085c 8fbc 222b 0abd e8cb 2bbd
00000090: 82f3 0f3d e32c 2abd 1cb1 ea3b 5cef dcbc
000000a0: 9467 b23d b3a2 3b3d 8387 1abd 17d9 4e3d
000000b0: feb1 f33c 0c95 8ebe e590 a5be cd15 80be
000000c0: 2913 0ebe 83e5 3bbe e3f7 603e f191 e23d
000000d0: baa4 173e 4df4 f33c 735f 303d 14c9 f23d
000000e0: 7d4e b83d 6242 ec3d 7cf0 b93d a5b9 a43d
000000f0: c402 8bbd f0ae 5fbc 9aea b3b9 0c7f 373c
00000100: 8c4e 3a3c 1944 c3bd 741b 753c 14c3 4ebc
00000110: d887 68bd 1f4a 74bd a59e 15be d469 07be
00000120: 0160 bbbd 0c43 3bbe c9dd c3bd b3c6 7e3d
00000130: dd4b b13d eb7f 7f3d d804 5abd 2e99 0ebd
00000140: e5d0 753d aba0 773d 1cfc eb3d c235 dd3c
00000150: c798 ca3d 7958 95bd ff91 43bd 1d26 7fbc
00000160: 4fe7 fc3b b61e a5bc dd6d 51be 7453 b2bd
00000170: 8e94 e1bd b9b5 b8bd 9358 edbd 493c 09be
00000180: 8005 4bbe e525 25be d6de 2fbe e181 36be
00000190: 31f6 283d 385a 03bc ddeb 253b f2df 843d
000001a0: 174b 743d 4fd8 053e 7bcb 243d 2ab2 17bc
000001b0: 231f 20bd bf9b 623d e219 38bd efcf 29be
000001c0: 2ed6 79bd fccd a1bd 36f3 b7bd f8b8 3a3d
000001d0: 02ff 2b3c 1a18 9c3a 65ca 00bc 9814 ae3d
000001e0: 6f3d 983e f68c 183e 3fd2 0b3e e388 ee3d
000001f0: ec89 833e 9205 0fbe 41ea 28be 192d 87bd
00000200: 6991 49be e38b 99bd bac5 013e 571b a03d
00000210: 07a4 b13d 7a32 fd3c 48a9 7abc f883 773e
00000220: e288 523e 8f73 503e 908a f43d c7a6 243e
00000230: cd2d a3bd 1b70 89bd e7c7 d1bd 76fb 2dbe
00000240: 65c9 21be dd28 603e 1f51 403e 76ec 3b3e
00000250: 82de 9d3d 57ba b73d 16bb dabd 1ef5 f0bd
00000260: a45c e7bd b815 09be 5b50 00be 5111 fbbd
00000270: 3bf2 afbd 1e8c 5abc ef7a d6bd 8f1c d03b
00000280: fdf9 1bbc 1600 693c 586d 84bd 0029 39bd
00000290: 0c56 283e c691 b33d 9ed3 123e fad4 bc3d
000002a0: e56a 883d 90bb 0c3e 29cb 75bc 5f53 dfbc
000002b0: 2847 e1bc 8854 6d3d 5c28 193e 891e 153e
000002c0: 1ff7 2f3e 22c3 e93d e764 583b 538b 9f3d
000002d0: affb 0fbd f58a a93b e150 b1bc 4114 b0bd
000002e0: bba8 8bbd f832 26be b366 72bd 944c a2bd
000002f0: 6b10 e63c c27a 02bd aec1 97bd 6188 f7bc
00000300: a37c a8bd 4fba 44bd 4b80 92bd a5aa 8dbd
00000310: 0346 94bd 76a2 dabd 2883 dabd 6a08 50be
00000320: 4fde 00be 5468 edbd 98a3 11be 1f6a 30be
00000330: b102 0cbe 0f51 9a3d f2a7 413d a244 d8bb
00000340: 44c5 a8bd 70d3 fabc 5dc3 633e a11f 193e
00000350: f4e8 2d3e ecdf 153e 39f7 5b3e 6aca 543d
00000360: d758 a63c 7589 3b3c 921f 0e3d a5dc a93d
00000370: c37e fa3a 6b43 a7bc f1be e33c 6738 ab3c
00000380: 6774 bc3d 63c5 ea3d 586a ff3c cb3b 9a3d
00000390: a92a 353d 025d 843d 41f9 cbbd 76d6 86bb
000003a0: 0fe7 863b 8734 f93b ee26 823c 4b27 46be
000003b0: 7a31 ccbd 6ec4 1bbe 94d9 c5bd 1fbc f1bd
000003c0: 7f5b d93d 521a 823d 9fa0 babd 7633 c8bd
000003d0: 0e4e debd 1c67 5fbd ecbf ccbc a853 cebc
000003e0: 935b 2239 a831 c6bd 2a34 593d c733 49bd
000003f0: 6a5d 92bd 2bf8 47bd 3291 28bd db19 343e
-0.07273406 -0.03682985 -0.037401363 0.05643491 0.03949797 -0.18163252 -0.012786439 -0.10804889
-0.09341344 -0.11797731 -0.058186326 0.0863954 0.029731628 -0.0010408597 -0.07711103 0.14050336
0.12987019 0.078691654 0.04838424 0.042516578 0.07190868 0.02259854 -0.008953936 -0.05690737
-0.022013545 0.045357935 -0.10800248 -0.024647636 -0.030644134 -0.06692095 -0.0457004 -0.010264615
-0.044046525 -0.017499939 -0.03373254 -0.041942507 0.035144337 -0.041546714 0.0071622264 -0.026969604
0.08711162 0.04580946 -0.03772689 0.0505 0.02974796 -0.2784809 -0.32337108 -0.25016633
-0.13874497 -0.1834927 0.21969561 0.11062992 0.14808932 0.029779578 0.043059777 0.11854759
0.089993455 0.11536099 0.09079072 0.080432214 -0.06787637 -0.013652548 -0.00034316332 0.011199724
0.011371266 -0.09534473 0.014960159 -0.012619752 -0.056770176 -0.059641 -0.146113 -0.13223964
-0.09149171 -0.18287295 -0.095637865 0.062201213 0.08657048 0.06237785 -0.053227276 -0.034814052
0.06001367 0.06045596 0.115226954 0.027003173 0.09892421 -0.072922654 -0.047746655 -0.015573052
0.007718004 -0.020156246 -0.20452066 -0.08707324 -0.11014663 -0.09019036 -0.1158916 -0.13401903
-0.19826317 -0.16127737 -0.17174849 -0.17822982 0.04125041 -0.008017115 0.0025317587 0.06488027
0.059641924 0.13070796 0.040233117 -0.009258786 -0.039092194 0.055324312 -0.04494656 -0.16583227
-0.060995273 -0.079006165 -0.08981936 0.045586556 0.01049781 0.0011909038 -0.007860755 0.08500022
0.2973437 0.14897522 0.13654421 0.11647203 0.25691164 -0.13966969 -0.16495611 -0.066003986
-0.19684376 -0.074973844 0.12673083 0.07817715 0.08673864 0.030907858 -0.015299149 0.24171436
0.20560029 0.20356582 0.11940491 0.16079246 -0.0796772 -0.067108355 -0.102432065 -0.16990456
-0.15799482 0.21890588 0.18780945 0.18351921 0.077084556 0.089710884 -0.10680215 -0.117655024
-0.11296967 -0.13387191 -0.12530653 -0.12259162 -0.08591124 -0.013339071 -0.104726665 0.0063510607
-0.009520051 0.014221212 -0.06466168 -0.045205116 0.16439074 0.087680385 0.14338538 0.092203096
0.066610135 0.13743424 -0.01500205 -0.027261434 -0.02749975 0.057941943 0.14956802 0.1456243
0.17184113 0.11414172 0.0033019127 0.07790246 -0.035152134 0.0051740357 -0.021645011 -0.08597613
-0.06819292 -0.1623038 -0.059179973 -0.07924762 0.028084 -0.031855352 -0.07409988 -0.030216398
-0.082268976 -0.04802924 -0.07153376 -0.069173135 -0.07239916 -0.10675518 -0.10669547 -0.2031571
-0.12584804 -0.11592165 -0.14222562 -0.17227982 -0.13672902 0.07534992 0.047279306 -0.0065999785
-0.082407504 -0.0306184 0.22242494 0.14953472 0.16983396 0.146362 0.21481027 0.05195085
0.020306034 0.0114463465 0.034698077 0.08294038 0.0019111264 -0.02041789 0.027801009 0.020900918
0.092018895 0.1146343 0.031178638 0.07530936 0.044230137 0.06463052 -0.09959651 -0.004114921
0.0041169 0.0076051387 0.015887704 -0.19350927 -0.099703744 -0.1521165 -0.0966064 -0.118034594
0.106131546 0.063526765 -0.09112667 -0.097754404 -0.108547315 -0.054541692 -0.02499386 -0.025186375
0.00015483638 -0.0967744 0.053028263 -0.049121644 -0.071467236 -0.048820656 -0.041154094 0.17587988

weight f4 [6]
00000000: 5596 4a3f d0d8 683f fcb5 b73f 7ba2 4f3f
00000010: 55e4 873f a2e3 283f
0.7913564 0.9095583 1.4352412 0.811073 1.0616556 0.6597234

bias f4 [6]
00000000: b538 603e cfed 48be 3b38 85be 52f7 b23d
00000010: e2af eb3d 8714 2dbd
0.21896632 -0.19621967 -0.26019463 0.08738579 0.11508156 -0.042255905

running_mean f4 [6]
00000000: 2651 9bbf 4576 483f 4a0b 3dc0 d6dc 78c0
00000010: 7b33 ccbf dd35 d5bf
-1.213414 0.78305465 -2.953814 -3.8884788 -1.595321 -1.6657063

running_var f4 [6]
00000000: 89fc ba40 286a 1941 878a 6541 df3c 4341
00000010: 0d2d a441 c851 0641
5.843327 9.588417 14.34632 12.202361 20.521997 8.394966

weight f4 [1, 6, 5, 3]
00000000: 2e87 b53d 9f72 98bd ba51 f83c ef7d 4b3d
00000010: 85c2 993c a6cd b43d 2cce 0a3e f976 6b3c
00000020: e763 bb3d 02e0 d2bd 5fe5 f73c 7123 bebd
00000030: 77ca 08be 8ead 7ebd 3789 22be b433 813d
00000040: 9f3e 03bd 5e6a 8dbc 2d64 5ebe dfce a4bc
00000050: 2eb8 14be 37a9 813e 00e8 8cbd fdf4 f23d
00000060: abce c4bd 8816 d9bc b027 11be 8b4e 553d
00000070: 1cba 403c cd56 e53d 73e0 06bf 66ed 253e
00000080: b02f 17bf 3ff6 5b3d 2ea9 efbc 99bf dc3c
00000090: c0ce 403d 695e 8a3b 378c c03c 9c0b ec3b
000000a0: 32c5 023d 1d3b 853d 59ef 9d3c a123 a2bc
000000b0: c070 ddbb a758 56bd 21b2 89bc e051 91bc
000000c0: 7e28 68bd fc6f b43c b9c7 babd 9f7a f9bc
000000d0: 9e80 6b3c c44c b8bd 71b9 ff3d 05d0 973d
000000e0: d328 bc3d 3d15 543e 8b10 303d caf0 813e
000000f0: e9e1 9d3e 6e29 a7bd 9ed4 8e3e 18cd 3ebd
00000100: 326b e6bc ee42 bdbd 55c7 7abd 03ea 7abd
00000110: cc88 2dbd a1c8 183d 9dc5 043d cdb2 873b
00000120: 0b6b 20be 10cf a23d 263b 28be 6987 83be
00000130: a3c3 92bd 7b48 d63d 064f 033e b511 863d
00000140: d430 a03d f048 afbd c2c3 12bd e198 ed3b
00000150: 2caa ae3c 5a21 b53c 3761 f03c 808a 8fbd
00000160: d47a 143d 45cf 48be
0.08863674 -0.07443737 0.030312408 0.049680647 0.018769512 0.08828287 0.13555211 0.014371627
0.09149914 -0.10296632 0.03026074 -0.09284104 -0.13358484 -0.062177233 -0.15872656 0.0630869
-0.032042142 -0.017262634 -0.21717902 -0.020118175 -0.14523384 0.25324413 -0.06880188 0.11863134
-0.09609731 -0.026500002 -0.14175296 0.052076858 0.011763122 0.111981966 -0.5268623 0.16203842
-0.5905714 0.053701635 -0.029255476 0.02694683 0.047072172 0.0042226803 0.02350436 0.0072035324
0.03192634 0.065054156 0.019279169 -0.01979238 -0.0067578256 -0.05233064 -0.016808571 -0.017739236
-0.05667924 0.022026055 -0.09120125 -0.030453978 0.014373926 -0.08999017 0.12486542 0.074127235
0.09187474 0.20711227 0.042984527 0.2537902 0.30836418 -0.08162199 0.2789659 -0.04658231
-0.028127287 -0.092412814 -0.061225254 -0.061258327 -0.042366788 0.03730071 0.03241502 0.0041411878
-0.15665834 0.0794965 -0.16428813 -0.25689247 -0.07166221 0.10463043 0.12823114 0.06546346
0.07821813 -0.085588336 -0.03583122 0.0072508906 0.021321379 0.02211063 0.02934323 -0.07008839
0.03624995 -0.19610317
