source/models/MelodyTimbreCNN/model_256_25_0.002_attempt4.pth (torch, 201935 bytes, 26 tensors)

weight f4 [6, 1, 5, 5]
00000000: f8f6 213e 5ccc f83d 962e 853e e20c 323e
00000010: e59d 2f3e de2d e7bc 9a49 0fbe 6d48 59be
00000020: 4abf f6bc cff1 84be 8c28 1dbd 87a5 1bbe
00000030: abb5 c0bd c0d1 fb3d da5f dbbd 7ad1 43bc
00000040: dba6 2c3e a64a 233e 289d 05be ac23 d33d
00000050: 42c8 d73b 6775 de3d 3fb6 0a3e b730 403d
00000060: 2e0e 1fbe f8dc cd3c c7ef cb3d 0345 1fbc
00000070: cef2 0c3e e116 4fbd fff4 923c 30ff 1a3d
00000080: 3734 b5bd 37eb 17be 8551 5f3c 5704 4bbe
00000090: 5daf 6a3e cc9f 533e 594c 713d 9e9e 5ebd
000000a0: abd2 2a3e a930 483e 7d58 3b3e dff5 a23d
000000b0: c322 153d 1967 523d 7b19 20be e61e 4ebe
000000c0: b3c1 45be e199 eabd 6707 a8bd 18ed 16be
000000d0: 4e5b efbd 632c e2b9 3304 c3bc b97c cf3c
000000e0: 6c48 e7bd 6603 c4bd 806c bf3d e22b 0c3e
000000f0: f26d 603d b0f4 e73c 981f 07bd c632 393e
00000100: d205 45be 8a8d fcbd 5ed8 a53d 7cd4 053e
00000110: aea0 803e ab1f fc3c 8df6 033e 17b1 1dbe
00000120: 433d 173e ca31 7abd 60a7 2abe 19b7 463e
00000130: 8e6f 413c d64a ecbd 01b4 c6bd 0db7 253d
00000140: 678e babd 32e8 33be c5e3 bd3d 8595 05be
00000150: a1c5 08be 7e2f f1bd 3802 413d 77b2 d8bd
00000160: 4662 083e 11ce 2a3d 03da 3f3b e4c1 3d3e
00000170: a542 9cbd 13bc 7e3e 0705 f5bc 0a08 b0bd
00000180: 6f40 67be db2e 473e 560f 30be 399c 2f3d
00000190: c5cc 1bbe 690d e6bd 403f e23d e8e2 2c3b
000001a0: ce29 21be 2ba4 163c 55b2 8bbd c2ac 28be
000001b0: 6555 0f3e ede8 62bd c077 8ebd 7be1 493e
000001c0: 7b1c 1ebe 9714 083e 5fdb 033e 579f 063d
000001d0: 1eca 523e 1475 afbd b616 2dbe df11 c3bd
000001e0: 8cc7 34bd bb79 ca3d 3158 47ba c864 a63d
000001f0: f90a 4e3d 7578 2a3e e288 82be accb d8bd
00000200: 911c 36be 5844 d43d 9d20 0d3e b56d c1bd
00000210: dc1d 1dbc 00e5 e0bd 4da2 013e bc82 e2bd
00000220: 6110 29be 6359 e83d 4a94 7e3e 7c8d 41bc
00000230: fce8 d5bd 95c8 2c3c 17dd ffbd 783b 13be
00000240: 415e b53d ee8a d93d dc3f 43be ec21 cbbd
00000250: 7825 81be d4b2 71bc
0.15816867 0.121483535 0.26012105 0.17387727 0.17150076 -0.028220113 -0.1399292 -0.21219034
-0.03012051 -0.25965735 -0.038368747 -0.15199862 -0.094096504 0.12295866 -0.107116416 -0.011951799
0.16860525 0.15946445 -0.13048232 0.10309538 0.006585152 0.108622365 0.13546084 0.046921458
-0.15532753 0.02512978 0.09957843 -0.0097210435 0.13764498 -0.05055893 0.017939089 0.037841022
-0.0884785 -0.14835821 0.013630276 -0.19825874 0.22918458 0.20666426 0.0589107 -0.054350488
0.16681926 0.19549812 0.18295474 0.079570524 0.036410104 0.051367853 -0.1563472 -0.20128974
-0.19312172 -0.11455131 -0.08204537 -0.14738882 -0.11687337 -0.0004313915 -0.023805713 0.025328027
-0.1129311 -0.09570961 0.093468666 0.13688615 0.054792352 0.028314918 -0.032989115 0.18085775
-0.19240502 -0.12331684 0.080979094 0.13069338 0.2512259 0.03077682 0.1288702 -0.15399586
0.14769463 -0.06108264 -0.16665411 0.19405784 0.011806382 -0.11537711 -0.09702302 0.040457774
-0.09109192 -0.17569044 0.09271959 -0.13045318 -0.1335664 -0.117766365 0.047121257 -0.105809145
0.13318738 0.041700426 0.0029274232 0.18530995 -0.07629899 0.24876432 -0.029909624 -0.08595283
-0.22583173 0.19451468 -0.1719335 0.042873595 -0.15214832 -0.112330265 0.1104722 0.0026380364
-0.15738603 0.009194414 -0.068211235 -0.16472152 0.13997419 -0.055397917 -0.06956434 0.1971492
-0.15440552 0.13289104 0.12876652 0.032866802 0.20584914 -0.08567253 -0.16903195 -0.09524893
-0.044135615 0.098864995 -0.0007604389 0.08124691 0.050303433 0.16647513 -0.25495058 -0.10585722
-0.17784335 0.10364598 0.13781972 -0.09444753 -0.009589639 -0.10981178 0.12659569 -0.11060092
-0.16510154 0.11345174 0.24861255 -0.011813518 -0.10444829 0.010545869 -0.124933414 -0.14378154
0.08855868 0.10622202 -0.19067329 -0.099185795 -0.252239 -0.014752109

weight f4 [6]
00000000: 2d11 813f f786 773f adea 8a3f 6d39 7b3f
00000010: 764d 6b3f c773 743f
1.0083367 0.96690315 1.0852867 0.981345 0.9191507 0.9548916

bias f4 [6]
00000000: 3b7c 603c 2ae2 d8bd e62b 8fbd 3910 82bd
00000010: 7041 dcbc a771 25bc
0.013701494 -0.10590012 -0.06990795 -0.063507505 -0.026886672 -0.010097898

running_mean f4 [6]
00000000: f4a6 3f3b d9ac 8d3b b2d8 65bb 83bf 02bb
00000010: 7e29 9cbb 01fe 013a
0.00292438 0.0043235836 -0.0035071787 -0.0019950576 -0.0047656884 0.0004958809

running_var f4 [6]
00000000: f4e5 333e 03d5 323e 2633 683d 39cf ca3d
00000010: f604 4c3d b8ef 333f
0.17568189 0.1746407 0.056689404 0.09902806 0.04980942 0.70287657

weight f4 [18, 6, 5, 5]
00000000: 9742 3bbb e65b c1bd e46f bebb b2c0 1e3d
00000010: 8a9b 55bd 8c1c 913d b073 d5bb cc2b b73d
00000020: 6ee8 d23c 9b22 813c aaf8 6d3d 661c ccbd
00000030: 2c60 1fb9 49c1 96bc 4936 02bd 416e 9e3d
00000040: ce73 463d 0ebb 853d c764 393d 090b 1f3b
00000050: 7888 133b 3cf9 45bd 6f95 4abd 2a52 d7bd
00000060: 51b8 e6bd 3765 383d 0048 f8bc 3bb5 69bd
00000070: 311b f1bc b664 c13c d532 153d 108e 96bd
00000080: 4dd5 23bc d402 42bd 537d 24bd f4e0 9d3d
00000090: 75bc 87bd 7632 57bd 79d3 d3bc cde5 ac3d
000000a0: f88a 183e c396 e93c bdc0 243d 34f5 153d
000000b0: 9100 d1bb 0c4d 953d 2f78 f03c ef40 9ebc
000000c0: 30a1 343d 1f59 46bc fdd1 e6bd 5d00 8dbd
000000d0: 208c 80bd 42a5 db3d 4516 f1ba 9c32 ccbd
000000e0: fcaf 123d 88fa b73d b415 123e aa7b fb3c
000000f0: d551 bbbd 0c96 7dbb 36ff d4bd 4d7a be3c
00000100: 8f26 32bd 6f5a ee3c 6c60 65bd 1db1 d9bd
00000110: b37f 4fbd c932 ac3c 0c16 9fbb 2e2c 613d
00000120: 39dd bfbb 6005 98bd 05ef 68bd 8acb 373d
00000130: 938b 85ba 46d4 f03c 0086 533c 48ac b73d
00000140: a450 103d d12e e53d ac76 ac3c 4cfb 6d3d
00000150: d660 56bd 1b51 323c 6aac 483d 4ee4 2b3d
00000160: 2d3e 833d c36e 08bd e4d2 283d 00e0 86bd
00000170: c343 a73c e1a4 81bc 8a04 50bd b0d3 613c
00000180: afb4 35bd 98f1 71bd 01f5 ac3d f4b3 13bd
00000190: 9b62 86bd 4b53 88bd a928 d7bb b9a9 eabc
000001a0: 2431 adbd 8636 a6bd 048c a83c 67ec 993d
000001b0: 3841 353d ee96 083d 4b9a c73d d135 96bd
000001c0: dbca 38bd 8c23 c33c 196f 6f3c f929 043c
000001d0: 9da0 36bd da77 3e3d 4a4c 323d 1ad8 b63d
000001e0: 8ad4 333d b3c1 2e3b 0de0 473d 3f75 05bc
000001f0: 97f8 24bd 1484 843b 22b6 cfbd e021 903c
00000200: bff8 05bd 542b 07bc d94a abbc 403a e9bc
00000210: 55b1 9a3d 303b 39bc a26c b43c c994 be3d
00000220: 8c71 403d 7a40 e53c a849 8abd dc3c 8c3d
00000230: d9b5 1cbb e587 fabd 9008 1ebd 3ff5 c0bc
00000240: a08a 58bd 7e27 f63c 41c2 12be e3cf debd
00000250: 3abd 04bc ff24 8a3c 1793 2fbc e27c 483d
00000260: a107 5dbb c792 263c 079d 923d cd53 68bc
00000270: 3cd6 9f3d a068 acbd 0f5d 8b3b 6a95 4f3d
00000280: 57d1 d43a 65dd 24bc fe87 d2bd b128 773d
00000290: 6aa8 493c b291 3fba 4417 8b3d be33 a4bd
000002a0: ff4f 603c 2b61 82bd 5be2 b1bd d828 ebbd
000002b0: a79c 42be 10b4 e5bd 7074 b9bd ff06 2a3d
000002c0: 5c49 8dbc 7122 623b 1dc6 da3d c7a1 acbd
000002d0: 6ee8 8f3a f1fa 903d 571e b33d 5dfd 393d
000002e0: f466 78bd d3ae bbbc 0a5b 0cbc 0511 a53d
000002f0: 5170 c9bd 5aa0 65bd 1a3e c03d 74d7 d83c
00000300: aa6e 46bb c3ad debd cfa7 14bd 721e 58bd
00000310: 2557 ea3d bb5f cebb 2aee aabd 743e 7ebc
00000320: 4f6b 2ebb e4c8 b13d c169 cb3d d538 ca3d
00000330: b532 90bd 8fe4 0fbe 32f8 ad3d 22e5 0cbd
00000340: cff6 bebd 97e3 4f3c 99c5 843c b3ca ec3d
00000350: 440c 46bd 3fa6 613a b55c 4cbd c06a f03c
00000360: 820d 2d3e c687 1c3c f916 993d ad00 0fbd
00000370: 2f14 ddbd 4a31 083e 1999 0cbd c453 21be
00000380: d4ad 6fbd fb28 4b3d d838 8bbd c1b6 f03d
00000390: 73fc 74bc 4e27 a63d 5516 c23d 2c45 2abd
000003a0: aab9 eb3d e315 833d f712 903d b82a 8ebd
000003b0: 36fe 993c 7c7c 82bd 8d93 423c fb57 0bbd
000003c0: 25e4 d3bd 27e2 06be 80c6 9f3c 1857 613d
000003d0: 2152 35bd fd07 5d3c bf44 48bc 36c5 b9bd
000003e0: 5173 97bd b96c 44bd eff1 423d b1b3 ac3d
000003f0: fa4b 63bd 2888 123d 6de3 b43d 6c7a 94bd
-0.0028573626 -0.09441356 -0.0058116782 0.038757987 -0.052150287 0.07085523 -0.006514035 0.089439005
0.025745597 0.015763571 0.058098473 -0.09966354 -0.00015199248 -0.018402712 -0.03179005 0.07735873
0.048450284 0.065298185 0.045262124 0.0024268052 0.0022511762 -0.04833339 -0.049458917 -0.105137184
-0.11265624 0.0450184 -0.03030777 -0.0570576 -0.029431911 0.023607593 0.03642543 -0.07351315
-0.009999585 -0.04736598 -0.04015858 0.07708922 -0.06627742 -0.052538358 -0.025857674 0.084422685
0.14896762 0.028514272 0.040222872 0.036610797 -0.0063782413 0.07290086 0.029354183 -0.019318072
0.044099033 -0.012106209 -0.11270521 -0.06884835 -0.06276727 0.1072488 -0.0018393478 -0.099705905
0.035812363 0.08983332 0.14266092 0.030698616 -0.091464676 -0.0038694171 -0.1040024 0.023251677
-0.043493804 0.029095856 -0.05600016 -0.10629485 -0.050658893 0.02102031 -0.004854923 0.054973774
-0.005855229 -0.074229 -0.05686857 0.044871844 -0.0010188691 0.029398095 0.012910366 0.08968407
0.035233155 0.1119057 0.02105268 0.058100984 -0.052338444 0.010883595 0.048992552 0.041965775
0.064083435 -0.033308756 0.041216746 -0.06585693 0.020418053 -0.01582569 -0.05078558 0.01378338
-0.044361766 -0.059068292 0.08445168 -0.03606029 -0.06561776 -0.06656512 -0.0065661264 -0.028645383
-0.084566385 -0.08115868 0.020574577 0.07515793 0.04425165 0.033347063 0.09746226 -0.073344834
-0.045115333 0.023820661 0.01461389 0.008066648 -0.044586767 0.046501018 0.043529786 0.08927937
0.043903865 0.0026665747 0.048797656 -0.008145629 -0.040276136 0.0040440653 -0.10142161 0.017594278
-0.032707926 -0.008250076 -0.020909714 -0.028470159 0.07553355 -0.011305615 0.022024456 0.09305722
0.046983287 0.027984846 -0.0675233 0.068475455 -0.00239121 -0.12232951 -0.038582385 -0.023554442
-0.052866578 0.030048128 -0.14331914 -0.10879495 -0.008101756 0.016863344 -0.010716221 0.048947223
-0.003372647 0.01016683 0.07158857 -0.014180136 0.07804534 -0.08418393 0.004253037 0.0506796
0.0016236705 -0.01006255 -0.10279845 0.06034154 0.012308219 -0.0007307782 0.06791547 -0.080176815
0.013690948 -0.063661896 -0.08685752 -0.114824 -0.1900507 -0.11215985 -0.09055412 0.04151058
-0.017246895 0.0034505392 0.10682318 -0.08429294 0.0010979304 0.07079113 0.08746021 0.04540764
-0.06064506 -0.022910511 -0.008566627 0.08059887 -0.09835876 -0.056061126 0.09386845 0.026469924
-0.0030278363 -0.10872986 -0.036292847 -0.05276341 0.11442403 -0.006298033 -0.083462074 -0.01551782
-0.0026614254 0.08680895 0.0993228 0.09874121 -0.070409216 -0.14052032 0.08494605 -0.034398206
-0.09324419 0.012688539 0.016207503 0.11562099 -0.04835154 0.00086078414 -0.0498931 0.029347777
0.16899684 0.009553855 0.07475085 -0.034912754 -0.10794865 0.13300052 -0.034325693 -0.1575461
-0.058515385 0.04959963 -0.067979515 0.117536075 -0.014952767 0.081129655 0.09476916 -0.041569874
0.11510022 0.06400659 0.07034867 -0.06941742 0.018797975 -0.063714 0.011875999 -0.03401945
-0.103462495 -0.13172208 0.019503832 0.0550147 -0.044267777 0.013490674 -0.012223422 -0.09070818
-0.07395042 -0.04795525 0.047594007 0.08432711 -0.05549238 0.03577438 0.088324405 -0.072499126

weight f4 [18]
00000000: b66b 803f cf76 883f cad4 813f 5ade 763f
00000010: b65b 6f3f 2518 823f ecbc 893f 3d45 813f
00000020: a148 7c3f 0b23 893f ffc8 743f 8ac7 823f
00000030: 398d 883f 6de9 753f aa70 743f 0fa7 833f
00000040: 1dd8 6f3f 2cf2 7b3f
1.0032871 1.0661258 1.0143063 0.9643303 0.93499315 1.0163618 1.0760779 1.0099255
0.9854832 1.0713819 0.95619196 1.0217144 1.0668098 0.96059304 0.9548441 1.0285357
0.9368914 0.984164

bias f4 [18]
00000000: bf60 193d 8187 1ebd 5603 bdbd 6648 28be
00000010: 36e8 01be 81c4 04be f3b3 343c 6a87 3bbd
00000020: 8861 0abe 93fc 86bd 35b3 20bd 0e9a c3bd
00000030: 7f27 1cbe e152 21be 1108 c9bd b19e 18be
00000040: aed7 24be abac b3bd
0.03744578 -0.038703445 -0.09229152 -0.16433868 -0.12686238 -0.12965585 0.011029231 -0.045783438
-0.13513768 -0.065911435 -0.039233405 -0.09550868 -0.15249442 -0.15754272 -0.09815992 -0.14904286
-0.160979 -0.08773168

running_mean f4 [18]
00000000: 7536 3fbe 7f93 a9be 5d34 c1be c2de 8bbf
00000010: 183c f43e f7ce 8f3d 83a8 47bf c3a7 74bf
00000020: 5c27 edbe ed79 afbe 6aed 3dbe 71b3 29be
00000030: cbd3 f8be 6802 32bf 05a4 603e c174 1a3f
00000040: 69de edbe 8484 233d
-0.18673117 -0.33120343 -0.37735263 -1.0927355 0.47702098 0.07021897 -0.77991503 -0.95568484
-0.4631909 -0.3427271 -0.18547598 -0.16572358 -0.48599085 -0.6953492 0.21937568 0.603344
-0.46458748 0.0399213

running_var f4 [18]
00000000: e5a1 233e ab1d ac3e c9be 913e ebae f33e
00000010: e9e6 bd3f 812d 7c3e 2902 353f 4746 e03e
00000020: 2425 5e3f dfae f43e 5755 f33e 65b4 533e
00000030: 7252 f13e 38f5 c33e 0cb0 c73e b407 6b3e
00000040: ef5f a13e 756e b83e
0.15979727 0.33616385 0.2846587 0.4759439 1.4836093 0.24626733 0.7070642 0.43803617
0.8677542 0.47789666 0.47526047 0.20674284 0.47133213 0.38273025 0.390015 0.22952157
0.31518504 0.36021772

weight f4 [45, 18, 5, 5]
00000000: e0d5 1d3d e140 f3bc ea40 d7bb 6fce 963b
00000010: 87ca 1f3c 6315 2dbd dde8 1e3d 8bca aa3d
00000020: b1f1 c6bc f17f d03b 7bb0 f0bc e75f a8bd
00000030: afa0 623c 3f90 863c cae1 fbbc c288 c03c
00000040: 4c10 813d 847f 993d 25c6 a0bd d76e f23a
00000050: d9fe 13ba 71e0 19bd 50a2 69ba 962f 85bc
00000060: 5dcb 83bc 3196 ee3d 765f cdbc 38fc 52bd
00000070: a912 ee3d ee80 463b a79d 2e3d be81 efbc
00000080: 1f65 8fbd 4a93 02bd b107 41bd cebe 023d
00000090: d1fa e83c 36f4 fa3c da77 803c 6caa 9cbc
000000a0: 33b4 9d3d c0b0 1bbd 61ee 2abd a666 1e3d
000000b0: ae95 6f3c 755c f6bd cba9 b1bd 6e48 d4bc
000000c0: e775 fa3b ef33 bfbd c668 f6bc 0412 bebc
000000d0: 6f42 1bbd 5b95 83bc b266 b23d 1a0e 343d
000000e0: 4e07 3ebc f2ca b4bc 0624 573d ffc5 abbb
000000f0: 7376 993c 9fd9 a83c 7bf8 043d 78e1 803d
00000100: 6b27 a93d 86e0 e23d 7595 463c e050 1b3d
00000110: e1ba 953d 6859 d33d 68d4 d9bc 9dbf 8abc
00000120: f0c6 74bd 015e 8b3c f031 17bd 7eb2 95bb
00000130: 6e25 d83d 8e41 b33d b6bb 6b3b 48fd 6a3b
00000140: ad94 a13b 6d5b de3c 3442 58bd bc58 c83b
00000150: f218 d4bb e92c d13c 1348 203c 549a 273a
00000160: 2709 e73c 42e0 153d 8c20 ecbc 876b debb
00000170: 0648 7bbc fae3 25bd bc47 aa3c f9a2 d4bd
00000180: efce eabd c510 4dbc 74d2 a2bc 3237 f03a
00000190: ebf0 85bd 4c40 47bd d04b ccbd 524b 20bd
000001a0: f1db 85bd 38f8 b03d e707 a23c 0715 3fbc
000001b0: fc7a 75bb 42d0 03bc e07b 54bc f96f b3bc
000001c0: 5dc4 33bd 7d09 683c 784d 2e3d a62e d93b
000001d0: e95e 30bd 1c67 74bd ebad 42bd 7b80 87bd
000001e0: 92a9 c3bc fb23 6f3c 2a8c b93c 4c04 813d
000001f0: 3fd8 c6b9 e118 0f3c 957b bfbc 7f48 163d
00000200: 1c85 113c 1d36 cebd d17d c63c c7d3 eb3c
00000210: c554 1d3c 80f8 173d 7183 073d 72ce b63c
00000220: 0f3e 8c3d c270 563c f2b5 91bb 5f9e e2bc
00000230: edf0 093c 4dfd 35bc 63e7 22bd 501e 1dbc
00000240: faec db3a 9f41 e73c 34da f3bc 982d 04bd
00000250: 343c 4c3d cac1 11bd a448 47bd 9d33 e1bc
00000260: d67d bfbb 8074 6c3c ba49 45bc 2a79 543d
00000270: 0eba 3ebc c05b e63b 9afe 533d 09e3 bf3c
00000280: 357d a83c d360 a73c e94b d73d c9b1 a3bc
00000290: be4f 873d b9e9 cf3c d11b 333d f23c bb3c
000002a0: 824d e33b 6e09 be3d f6f6 adbd 375b 09bd
000002b0: 41e5 76bc f33e 99bd 5e49 2b3c 2e25 183d
000002c0: 2aa7 533c e2b0 f63c 8943 abbc 4371 893c
000002d0: 9ac7 543d 090b 263d a26e e33d 566e de3c
000002e0: 12c4 f13d 9dc6 5bb9 7815 08bd a5d3 c6bd
000002f0: 1c14 58bd 3ba9 7cbd 318a aa3d 23ca 473d
00000300: 4b07 ac3d 24ac 5b3c 3d35 6b3a 4a2f f6bc
00000310: 9f26 853d dffe 9d3c 7973 02bc 7e5d 043d
00000320: aeb1 b03c 8829 243d 65ec 883d 85be 593d
00000330: bbd1 70bc 931c 823c 1101 a73d cc77 a63d
00000340: b5d7 00bd ea4d 7e3a 3f63 47bd b671 15bd
00000350: 9023 78bd 2492 323b da8a 6dbd 6082 0a3d
00000360: 00ac 573c 892b 933d 9497 4fbc f062 4d3d
00000370: 066f 22bc dd48 1fbd 24e3 83bc 8f46 553c
00000380: 0937 08bd 872b cf3d 17f2 db3c 152b 993d
00000390: 243c f23d f9e3 9a3d a82c 363d 268a 59bd
000003a0: ad82 14bd 3d63 043c 8cd0 d2bb cb69 e23c
000003b0: e8a9 1fbd 53f2 fcbc d489 93bc d3e8 3bbd
000003c0: 4700 8f3d 9343 8fbb 7469 363d b603 903d
000003d0: 704e 84bd 5b14 fd3c 8eaa e4bc 2597 ddbc
000003e0: 3109 84bd 3ab7 7abd c4df e13c 3e07 113d
000003f0: c6c4 f1bc 3a01 843c 3b31 1fbc ab93 1bbb
0.038534045 -0.029694023 -0.0065690177 0.0046022455 0.009752876 -0.042256724 0.038796294 0.08339413
-0.02428517 0.006362908 -0.029381027 -0.08221417 0.013832255 0.016426204 -0.030747313 0.023502711
0.063019365 0.07495025 -0.07850293 0.0018496168 -0.000564558 -0.03756756 -0.0008912431 -0.016258042
-0.016088182 0.116497405 -0.025069933 -0.051510066 0.11624653 0.003028925 0.042630818 -0.02923667
-0.07001709 -0.031878747 -0.047126476 0.031920247 0.028439911 0.030634027 0.01568215 -0.019124232
0.07700386 -0.03801036 -0.041731242 0.038672112 0.014623089 -0.120293535 -0.086749636 -0.025913443
0.0076434496 -0.093360774 -0.030079257 -0.02320195 -0.037905153 -0.01606243 0.08710994 0.04395876
-0.011598421 -0.022069428 0.05252459 -0.005242109 0.018733239 0.020611582 0.032463532 0.06293005
0.082594715 0.11077981 0.012120594 0.037918925 0.07311035 0.10319787 -0.026590541 -0.016937071
-0.059760034 0.017012598 -0.03691286 -0.004568397 0.10554014 0.08752738 0.0035970039 0.0035856534
0.0049310536 0.027143205 -0.05279751 0.0061140936 -0.0064727003 0.02553411 0.009782809 0.0006393541
0.028202606 0.036590822 -0.028824113 -0.0067877206 -0.015336996 -0.04050062 0.020786159 -0.10382647
-0.11465251 -0.012516205 -0.019875742 0.0018326996 -0.06540092 -0.048645303 -0.099753976 -0.03913433
-0.06536091 0.08641094 0.019779159 -0.011662728 -0.0037457338 -0.008045258 -0.012968987 -0.021903979
-0.04388844 0.014162418 0.04255435 0.0066278754 -0.043059263 -0.059668645 -0.047529142 -0.066163026
-0.023884568 0.014595981 0.022649843 0.06299648 -0.0003792662 0.008733959 -0.023374358 0.03669023
0.008881833 -0.10068915 0.024229916 0.028787507 0.00960273 0.037102222 0.033084337 0.022315238
0.06847774 0.013088407 -0.0044467384 -0.027663408 0.008419258 -0.011107755 -0.03977145 -0.009589747
0.0016778999 0.028229533 -0.029767133 -0.032270044 0.0498621 -0.035585202 -0.04865326 -0.027490431
-0.0058438582 0.014432073 -0.012041504 0.051873364 -0.011641039 0.0070299804 0.05175648 0.023423688
0.020567516 0.020431912 0.105125256 -0.019982236 0.066070065 0.025380002 0.0437277 0.02285621
0.00693673 0.09279142 -0.0849437 -0.033534255 -0.015069307 -0.0748271 0.010454504 0.037144832
0.012918273 0.030113641 -0.020906227 0.01677764 0.051948167 0.040537868 0.11105086 0.027152222
0.118049756 -0.00020959457 -0.0332236 -0.09708337 -0.052753553 -0.06168483 0.08327139 0.048776757
0.083998285 0.013407741 0.00089724717 -0.030051846 0.06501507 0.019286571 -0.007962101 0.032315724
0.0215691 0.04007867 0.06685714 0.05316021 -0.014698441 0.015882766 0.081545 0.08128318
-0.031455714 0.0009700941 -0.048678633 -0.036485396 -0.06058079 0.002724775 -0.057993747 0.03381574
0.013163567 0.07186038 -0.012670416 0.050143182 -0.009914165 -0.038887847 -0.01609952 0.013017311
-0.03325561 0.10115724 0.026848836 0.0747892 0.11827877 0.075630136 0.04447618 -0.053110264
-0.036257435 0.008080301 -0.006433552 0.027638337 -0.038980395 -0.030877268 -0.018010058 -0.045876335
0.06982475 -0.004372069 0.04453416 0.07031958 -0.06460273 0.030893495 -0.027913358 -0.02704961
-0.064470656 -0.061209895 0.02757252 0.035407297 -0.029512774 0.016113866 -0.009716327 -0.002373914

weight f4 [45]
00000000: 7aa9 7c3f ed5b 873f c6a4 603f 65a2 783f
00000010: e23e 803f 15ef 7c3f 54dc 7a3f 1959 823f
00000020: 600b 803f ba72 753f 7a83 883f ba02 833f
00000030: d64b 813f dcc2 7d3f 6b77 713f af39 7a3f
00000040: ef5e 803f 061e 713f 0fab 843f f1b8 633f
00000050: 2d95 833f fdbc 883f f76e 853f 136f 793f
00000060: 1035 633f 5fb0 843f dabd 823f 1507 803f
00000070: 29a7 703f 8e53 873f 2c8e 7e3f 409d 7d3f
00000080: 62e3 873f 26a9 813f c951 803f ec95 7c3f
00000090: 64b7 823f 808a 803f cb3c 733f 2ff8 803f
000000a0: 9ae9 823f 5bc7 853f 1b2f 813f c8e5 673f
000000b0: b61b 863f
0.986961 1.0574929 0.87751424 0.97122794 1.001919 0.9880231 0.97992444 1.018344
1.0003471 0.95878184 1.0665123 1.0235207 1.0101268 0.99125457 0.9432284 0.9774427
1.0028971 0.9418644 1.0364703 0.88954073 1.02799 1.0682675 1.0424489 0.9743511
0.8875284 1.0366324 1.0214188 1.0002161 0.94005066 1.0572374 0.9943569 0.9906807
1.0616267 1.0129745 1.0024959 0.9866626 1.0212216 1.0042267 0.9501464 1.007574
1.022754 1.0451463 1.00925 0.90584993 1.0477207

bias f4 [45]
00000000: 34f7 3abe 5211 56be a1ae 3cbe 3984 bcbd
00000010: 9a7b 12bd e4ab 70be cfdd 20be 01eb 1cbe
00000020: 25c6 a3bd 2708 09be 4b3e 9dbd e5eb 80bd
00000030: a747 343d 5f91 02be 1efc 47be bb3b 6ebd
00000040: 65de b3bd 69d8 23be 1738 61be d202 77be
00000050: 9034 28be ab6e 5f3d 0763 87be 9e66 3abe
00000060: 6019 62be 6690 9ebd 81cb 02be 91da e0bd
00000070: 10e6 f3bd a342 57be 524b 10be c4f5 6bbd
00000080: 8694 99be 8706 a6bd 4631 9bbd e3a1 04be
00000090: b438 13bd 2c3f a6be 610d 27be 0eea fcbd
000000a0: 85ab 25be f4b6 01be a0a5 e5bd fc23 cebd
000000b0: ba4e afbd
-0.18258363 -0.20905045 -0.1842599 -0.09204907 -0.035762407 -0.23503071 -0.15709613 -0.15324022
-0.079967774 -0.13382016 -0.07677897 -0.06294993 0.044013645 -0.12750767 -0.19529769 -0.058162432
-0.08782653 -0.16000523 -0.21994053 -0.2412217 -0.16426301 0.0545489 -0.2644274 -0.18203208
-0.22079992 -0.077423856 -0.12772943 -0.10979188 -0.11909115 -0.21021514 -0.14091232 -0.057607427
-0.29996127 -0.08106714 -0.075777575 -0.1295238 -0.03594275 -0.3247007 -0.16313697 -0.1234933
-0.16178711 -0.12667447 -0.11213231 -0.10065457 -0.08559938

running_mean f4 [45]
00000000: 7bb8 ac3f deb2 a1bf 53aa 68bf 8347 a4bf
00000010: bf60 a3bf 218d 353f 1bf3 a9bf 34be 4bbe
00000020: a0bd 46bf 983e 98be cacb 69bf 2281 4f3f
00000030: 3296 5ebf ea4d 15c0 f00e c83f 7a72 c8bf
00000040: ca50 a4bf b47b a2bf 7344 c8be 8905 53bf
00000050: 57ad f4bd c129 9ebf ac1b b7bc e7c4 02bf
00000060: 5b42 90bf 6465 f8bf 017e 66bf 98ef 1fbf
00000070: f858 67bf 7ece 623e 8817 5abf 8846 3bbf
00000080: 9497 0cc0 4a12 7fbd 53c4 dbbe f205 d6bf
00000090: 5a4e b5bf a283 16bf 9cbd 093f 4d18 3abe
000000a0: 6e5b 4dc0 61ec 0fbf b5bb 30bf 2468 28ba
000000b0: c90d 91bf
1.3493799 -1.2632711 -0.90884894 -1.2834324 -1.27639 0.7091847 -1.3277315 -0.19896775
-0.77633095 -0.29735255 -0.9132658 0.81056416 -0.8694793 -2.3328805 1.5629559 -1.5659935
-1.2837155 -1.2694001 -0.39114723 -0.8243032 -0.119471245 -1.2356492 -0.022352062 -0.510817
-1.127025 -1.9405942 -0.90036017 -0.62474966 -0.9037013 0.22149083 -0.85192156 -0.731545
-2.1967516 -0.0622733 -0.4292322 -1.6720564 -1.4164536 -0.58794606 0.53804946 -0.18173333
-3.2087054 -0.5622006 -0.6903642 -0.00064242096 -1.1332332

running_var f4 [45]
00000000: ba2d 863f 4886 b93f 9577 593f dca3 a33f
00000010: 8046 a03f 8dde 3c3f 98b8 883f 3977 453f
00000020: c4c3 0940 7525 993f 0c1d 6c3f a778 883f
00000030: 9161 863f 057b 1140 945c c13f d482 b13f
00000040: 32f4 a83f 0cf3 0340 cf11 8e3f 7265 a23f
00000050: 8258 a03f 42bb bf3f fc7a d33f f904 c63f
00000060: 94e7 a63f 4fb6 6f3f b627 363f ab58 623f
00000070: d648 5a3f ed91 863f 0ed0 823f e0a4 593f
00000080: d23e 3e3f 84e0 473f e831 993f 84f9 963f
00000090: 8ad0 543f cca4 6f3f 9bb8 983f 635a 6c3f
000000a0: d93c ad3f b20b 9e3f 5f22 ca3f 6d86 7b3f
000000b0: 0497 813f
1.0482705 1.4494104 0.8494809 1.2784381 1.2521515 0.73777086 1.0681334 0.77135044
2.1525736 1.1964556 0.9223182 1.066182 1.0498525 2.2731335 1.5106378 1.386805
1.3199522 2.0617094 1.1099185 1.2687209 1.252701 1.4979022 1.6521907 1.5470268
1.3039422 0.93637556 0.71154344 0.88416547 0.8526739 1.0513283 1.0219743 0.85017204
0.74314606 0.7807696 1.1968355 1.1794896 0.83130705 0.93610835 1.1931337 0.9232542
1.3534194 1.2347319 1.5791739 0.9825199 1.0124211

weight f4 [18, 45, 5, 5]
00000000: 95db 133d 7b76 22bd 7a71 40bd 74c4 6cbc
00000010: db23 a1bc e48d 44bc 06c6 86ba 79a4 acbb
00000020: 823e 853c 8ebd 383c a7dd ab3c f3ee 14bd
00000030: 5ac6 c53a 9bfc 423c 46f8 33bd 0a9a 1bbd
00000040: 5370 903c 30e0 babc d53c b8bc e05c d93b
00000050: 1ac2 573d 976d 643d d43c 4c3d 3fa1 073c
00000060: 66f8 673d 26c5 25bc 37a1 cebc 3e4b 7a3d
00000070: 8399 6f3d 1db7 873c 1e10 533d a4d8 efbc
00000080: b54d e93c 5757 f23c 559b 6a3c 2526 8dbd
00000090: 0d5c 79bd 4df7 4dbd 18bd 18bd 4de2 1cbd
000000a0: 7c6c 1e3d cca0 1f3d fda5 ad3d b23e 90bc
000000b0: 9f30 a93c bea3 faba 9ed4 43bd b3d1 8d3c
000000c0: bc8d 68bd b55c 14bd 902c 08bd 9c5a 7fbc
000000d0: 45ec 8bbb 3cc4 1d3c 5778 803c f87a e33c
000000e0: a26b b63b 5c84 fbbc c7b7 84ba 0a35 523c
000000f0: b15a 2a3d f4ee 843c 4f45 b33b 8a23 2dbd
00000100: de63 353c 5534 30bd b261 a6bd 6a1f d9bc
00000110: b782 27bd e360 fabc 4d90 f03b 3433 03bd
00000120: 8cc6 0ebd 99ca 22bd 9cad a43c b1c9 bd3c
00000130: e9f1 ad3c 4689 e53b 516b d33c ce10 15bd
00000140: e52f 0bbd 8b73 85bb 35cf 66bd 24e5 9f3c
00000150: 78b4 7bbd 6dfa a93b e23d 103d 629f e73c
00000160: 0897 e23c ac5d 44bd a6a3 013c 83a8 07bd
00000170: 7677 e03c d609 a0bc ea20 8abc 8cf0 4e3c
00000180: 7599 363c 8328 a33b 58ed 3e3a ba61 8cbc
00000190: 7f75 5b3d fddf ee3c 2160 893d cdb7 a63d
000001a0: 967b 753d d14c ad3a 4038 16bd 5eca 813b
000001b0: 6ce7 e93b bf6f d73c ef61 d33c c9af 183d
000001c0: b133 b3bb 06b9 eebb 68eb 1dbc e77e 20ba
000001d0: df4a f139 f6a0 1e3d b6b7 103d c051 83ba
000001e0: f7f7 89bd 42c7 f1bb 5b5d c4bc 001d 5e3b
000001f0: c5a6 d3bb 9010 073b ce9c 283c 6d58 87bc
00000200: 243e 82bd 677c 8abd 2024 fc3c de51 f7bb
00000210: 0961 cd3a 7e7a a1bc 01ed 843b b5fb bfbc
00000220: ef16 a43c ea91 c93b 5db4 dc3c 853e 2ebc
00000230: 5477 d7bc 25d7 d73c 47e9 18bc 2217 35bd
00000240: 44dc 22bd 12ac 843c c6b3 35bd 4226 7d3c
00000250: d881 813c a75c ac3c e76b 803d 27e1 df3a
00000260: 14b3 9cbc 5067 713c 901a e23b 32c4 013d
00000270: 4754 14bc 777b 893c d2b1 4d3c 7b4a 5dbc
00000280: 2f29 583c 72a1 0cbd e340 d03c 6a39 57bc
00000290: fa2f 063d 9fd2 87bc 66eb a5bc 19c9 21bd
000002a0: 6730 c0bc 42fc 0cbd 3ae6 423d 12de 283d
000002b0: 0ef6 203b ac20 26bc 1a6a aebc 1209 dcbc
000002c0: 91ff 643c 0b0f 533d c217 1f3d 5ec7 9e3c
000002d0: c620 c1bc 8b23 3ebd 2392 c63b e4db 03ba
000002e0: a78d 88bd 1c74 5fbd 5fba a4bc 5940 373d
000002f0: 863f 973d 823e 92bb 89ac 21bd 0a95 48bd
00000300: edfd 1cba fbba 8bbd 3ce2 acbd c85d fe3b
00000310: f4d1 1b3d 4a1c f33c d4f1 92bc 3329 e2ba
00000320: 9ba4 21b8 18c0 f9bc 46eb 38bd 8a55 29bd
00000330: d2c1 8a3c 644b 1a3d b050 113d 2c9b c33d
00000340: e567 3a3d e6a3 1b3d 2221 84bc 1d56 8dbb
00000350: edd5 d5bb 8c9a 953d 9835 e1bb 68e7 533d
00000360: 3a3b 8abd e075 82bb 6160 153c 66bf f6bc
00000370: b1aa 963b f465 d9bc 1e07 adbb d4c8 223d
00000380: 397e 103d 85b6 84bd dfa1 9bbc 4a9f 30bd
00000390: 1b9c abbc 527f a5bc 041c 303d 8cca 77bb
000003a0: 15dc e33b e5f8 4f3d 832d 0b3d 1836 c5bc
000003b0: 20da 23bd 67da edbc 2d61 82bc d281 c9bc
000003c0: 69ac 1cbd 0eb6 35bb 868d b23c 48ce a03b
000003d0: d29f 7f3c 2ca3 f8bc b816 ae3c f210 d7bc
000003e0: 1b02 00bd 6c6e 2bbc 7525 a6bc d809 5fbd
000003f0: e41d c1bb 06a9 b1bc 945d 8f3c 848c d13c
0.03609808 -0.039663773 -0.04698322 -0.014451135 -0.019670418 -0.01199672 -0.0010282404 -0.00526863
0.016265158 0.011275662 0.020979716 -0.036360692 0.0015089021 0.011901046 -0.043937944 -0.0379887
0.017631685 -0.022811979 -0.022489944 0.006633386 0.052675344 0.055768576 0.049862698 0.00827819
0.056633376 -0.010117805 -0.025223358 0.061106913 0.05849601 0.016566807 0.051529042 -0.029278107
0.028479436 0.029582663 0.014319261 -0.06892041 -0.060878802 -0.050284673 -0.03728971 -0.038301755
0.038677678 0.038971707 0.084789254 -0.01760802 0.020653067 -0.0019122285 -0.04781019 0.017311906
-0.056775793 -0.036221225 -0.033245623 -0.015585568 -0.004270109 0.009629305 0.015682383 0.027768597
0.00556703 -0.030702762 -0.0010125571 0.012830028 0.041590396 0.016227223 0.0054709087 -0.04227022
0.0110711735 -0.043018658 -0.08124103 -0.026504237 -0.040896144 -0.030563777 0.0073414207 -0.032031253
-0.034857318 -0.039743993 0.020102315 0.023167463 0.021233516 0.0070048897 0.025808008 -0.03639298
-0.033981223 -0.0040726117 -0.05634995 0.019518442 -0.061451405 0.005187324 0.035215266 0.028274242
0.027659908 -0.047940895 0.007912552 -0.03311969 0.027400713 -0.01953594 -0.016861398 0.012630593
0.011144985 0.0049791946 0.0007283292 -0.017136443 0.05357885 0.02915954 0.06707788 0.08140526
0.059932314 0.0013221746 -0.036674738 0.0039608916 0.0071381833 0.026298402 0.025803534 0.037277017
-0.0054688086 -0.00728524 -0.009638645 -0.00061224255 0.00046022885 0.038727723 0.03533145 -0.001001887
-0.06736749 -0.0073784897 -0.023970297 0.0033891797 -0.0064590895 0.0020609237 0.010291291 -0.016521657
-0.06359509 -0.06762009 0.030778944 -0.007547601 0.0015669178 -0.01971173 0.0040565734 -0.023435453
0.020030467 0.0061514275 0.026941473 -0.010635023 -0.026302017 0.026347706 -0.009332961 -0.044211514
-0.039760843 0.01619533 -0.0443609 0.015451016 0.015808985 0.021040274 0.06270581 0.001708065
-0.01912836 0.014734104 0.006900139 0.031681247 -0.009053296 0.016782505 0.012554603 -0.013506527
0.013193413 -0.034333654 0.025421565 -0.013136247 0.032760598 -0.016579924 -0.020253848 -0.039498422
-0.02346058 -0.03442026 0.047582842 0.041227408 0.0024560723 -0.0101396255 -0.021290828 -0.026859794
0.013976947 0.051528018 0.038841017 0.019382175 -0.023575198 -0.046420615 0.0060599013 -0.00050300197
-0.06667643 -0.05455409 -0.0201084 0.0447391 0.07385163 -0.004463018 -0.039471183 -0.04897026
-0.00059887656 -0.06822773 -0.08441588 0.0077626444 0.038042024 0.029676575 -0.017937578 -0.001725471
-3.8538692e-05 -0.030487105 -0.04514625 -0.041341342 0.016938124 0.037669554 0.03547734 0.09551081
0.045509238 0.037998103 -0.01612908 -0.004313244 -0.006525746 0.07304868 -0.006872844 0.051734358
-0.06749578 -0.003981337 0.009117217 -0.030120563 0.0045979847 -0.026537873 -0.0052803895 0.039742306
0.035276625 -0.06480125 -0.018998085 -0.04312066 -0.02094846 -0.020202313 0.042995468 -0.0037809936
0.006953726 0.050774474 0.03397895 -0.024073645 -0.040002942 -0.029034806 -0.015915478 -0.024598036
-0.03825036 -0.0027726921 0.021796 0.004907403 0.015602069 -0.030351244 0.021251068 -0.026253197
-0.031252008 -0.010463338 -0.020281533 -0.054452747 -0.005893456 -0.021687042 0.017500676 0.025579698

weight f4 [18]
00000000: 1135 843f 4d10 853f 4e34 853f 8b8f 893f
00000010: 2653 7a3f 2485 853f 23b1 7c3f 0956 7b3f
00000020: a3d3 7a3f b5e2 813f 2e63 813f 1e81 6e3f
00000030: 7d30 853f b962 833f 03ae 723f 6403 7c3f
00000040: ba5d 753f 096f 7d3f
1.0328695 1.03956 1.0406587 1.0746931 0.97783124 1.0431256 0.9870779 0.98178154
0.9797918 1.014731 1.0108392 0.9316577 1.0405422 1.0264503 0.9479677 0.98442674
0.9584614 0.9899755

bias f4 [18]
00000000: 2607 84bd 148c 35be 66a5 3cbd 1a35 08be
00000010: d82b 383c abfe b4bd fb24 89bd 4f9c 23be
00000020: 3356 41be 7a51 10be 9161 98bd 7b51 81bd
00000030: 6ea6 e1bd 8cb0 8bbd c34b d13c 1070 21be
00000040: 672d 05be 4a79 1fbe
-0.06446676 -0.17729217 -0.046056174 -0.13301507 0.011240922 -0.088376366 -0.066965066 -0.15977596
-0.18880539 -0.14093581 -0.07440484 -0.06314369 -0.11018072 -0.06820783 0.025548821 -0.15765405
-0.13005601 -0.15573612

running_mean f4 [18]
00000000: 8bbb a4bf fbee 46c0 4fe8 02c0 ebea 74c0
00000010: 6b64 f8bf bf71 35c0 65af 0cc0 e997 bf3f
00000020: be25 fc3e 9d2b 4ec0 10de 6cbf feb6 58bf
00000030: de2b 7cc0 f51a 7fc0 067c 5dbf 55ef 3cbf
00000040: 8c35 9f3f 3610 1fbf
-1.2869734 -3.1083362 -2.045429 -3.8268383 -1.9405645 -2.8350675 -2.1982052 1.4968234
0.49247545 -3.221412 -0.9252634 -0.84654224 -3.9401774 -3.9860203 -0.8651737 -0.7380269
1.2438216 -0.6213411

running_var f4 [18]
00000000: 26d1 7440 3ee8 bb40 bd01 3040 c92c 8840
00000010: 46f8 3740 00e3 4a40 93fc 7f40 b56a 0d40
00000020: 536f c43f 66bf 8a40 41d5 8e40 20fd ed3f
00000030: 7798 d640 51b8 a140 54b7 0040 cb58 1440
00000040: 975b 5540 856f f03f
3.8252654 5.8721 2.750106 4.255467 2.8745284 3.170105 3.999791 2.2096379
1.5346473 4.335864 4.463532 1.8592873 6.7061114 5.0537496 2.0111895 2.3179195
3.3337152 1.8784033

weight f4 [6, 18, 5, 5]
00000000: 0165 773d ed9d 383d 6bdb cebb 93ec 8fbc
00000010: 2892 623c a3c1 b33c 7517 fe3a 7480 923d
00000020: c5a7 b3bc 7d32 523d b769 83bd 5094 b5bd
00000030: 76ed 67bd ce70 c1bd 38a0 fbbd e184 c4bc
00000040: ddff 77bd 02b3 2abd ee81 eabb 31b8 33bd
00000050: a735 69bd 06f7 803c 185f 27bc c773 ac3c
00000060: 96ea 513b d18e 62bd 583d 30bc 04c3 eaba
00000070: c97c 1cbc 9fb0 e03c a101 353d 48ac af3d
00000080: 934d f73c fd16 8b3d b7e9 883d 926d 13bc
00000090: d6ed 023d 8753 62bd 7d16 a5bc 76bc 78bd
000000a0: ffcd 353d 4819 133d 1716 ebbb 650c 9f3c
000000b0: 879d 82bc 73f3 73bd ef17 233c 531b 893c
000000c0: 3390 8abd e8ff 05bc a0bd 83bd 1f22 d5bb
000000d0: bbbe 1c3d 5eb4 57ba f67f 83bc bebf 063d
000000e0: d7d2 423d 06a3 2a3d fbcb 543c fa45 583d
000000f0: f6cb b0bc 2f9b 6abd 96a9 45bc d8ab 13bd
00000100: 5b4c 37bd cd1e d83c 0dd6 0ebd 511f 4bbb
00000110: c898 35bc e459 15bd 3557 d73d d219 cb3d
00000120: 7336 5d3d 69b2 2b3d de97 b73d d6c8 a3bc
00000130: c42a dc3c d9ff 1bbd c933 b33b 069f 4ebc
00000140: f72c 353d e5ab 083d 9e7b ba3d aa0e 68bc
00000150: f0ef 1d3d 0e35 d53d 0c8d c9ba 8edb 9d3c
00000160: 662e ff3b 7193 543a f6ae 0b3d f217 553d
00000170: 1648 7abc 644a 5b3c 7193 3d3c d583 1cbe
00000180: 39ef 6fbd 41ca adbd 63b4 36bd 1aa7 c6bd
00000190: c96e 8b3d 8df5 533c f15c cf3c 527b a0bc
000001a0: 07bb e63c 27a8 bf3b 968d 4b3d 4b25 b53c
000001b0: b921 703d 360d d03c bf1d cabd 0300 dfbc
000001c0: 20e5 bbbc 538c a3bd e7e1 07bd 6e5d 6b3d
000001d0: 122e 413d cdba a53d 9b8e 133d 9dda b23d
000001e0: 128f 8b3d 4a1c 933d 7077 0fba c4f7 393d
000001f0: db91 073d 084d 66bc 7879 8f3c a723 38bd
00000200: 77dd 623c b79d 6abd 3c3e 6b3d 207b 3e3d
00000210: e8c3 923b c4e6 373d 474c f63c 9889 a5bc
00000220: 5d1c dbbc edbf 06bd b9c2 b3bc dfe7 a5bd
00000230: f935 56bd 4139 80bd d20c 89bd 64b7 46bd
00000240: a10f b7bd a133 92bd 932f 32bd 7c5e 29bd
00000250: 0fb5 55bc 0fbe 22be 1f26 cb3c 054d 263d
00000260: 9a52 e03b 8eee 2f3c 4388 a5bc 8e5c 20ba
00000270: 3b1c 583c e70a 393d af32 113d 77e2 a6bb
00000280: 8ad1 bf3b 1353 473c 7e1b 7eba 8664 72bc
00000290: a1f2 743c 6c45 44bc d4c0 f53a 695a 7dbc
000002a0: 23f7 c7b9 0767 e8bc 3a2c 9dbd a4f3 073d
000002b0: 8d6d bf3b 7db7 ab3c c4ba 9e3c 8e5c b43d
000002c0: 4486 f03c bedb d53c 8f62 d33c f27b 213d
000002d0: 9880 743b 61c2 ffba 88cc 46bc 1acd c53c
000002e0: f947 303d 7662 44bc 460b a53b 9122 8b3c
000002f0: f7a7 1ebd 6578 063d 7162 d7bd 7000 c4bc
00000300: b4a3 68bd 8fdd 68bd 9806 8fbd 0530 083d
00000310: 8cd9 783d e621 00bd 733f 97bb 93ee b1bc
00000320: 5583 14bd 936f d1b6 c06a 1b3c cf15 003c
00000330: a5aa c3b9 94df afbc 6104 26bc 5871 393c
00000340: 1433 0cbd effd 04bd 55cf d43c 47bb 213d
00000350: f25f 193d c381 e03b c9fb 2f3d 1463 23be
00000360: e895 abbd 2987 a6bd 17a2 48bd 4cce 21be
00000370: 11cb 5f3d 5abf 103d 883e c93c 61fc ed3c
00000380: 674e f23b dd36 c23b 3c4a 5b3c b085 b2bc
00000390: 98d5 683d 6403 833b f940 54bb a978 d33c
000003a0: b42b c03d cedd b33d 683b 0c3d 03d4 0e3d
000003b0: 8120 eebc b609 d9bd 17a8 d5bc 0348 6ebd
000003c0: b39f d73c 2f06 b03a 9810 81ba dc4d dc3d
000003d0: b227 2dbc 5019 983d 3a37 c73c a65c 023d
000003e0: 0842 d13c fc9e 813d 4998 f7bb ab07 4cbd
000003f0: 1728 413b ca0a b3bc fe4a d4bb fed2 ee3d
0.06039906 0.045072485 -0.0063127778 -0.017568862 0.013828792 0.02194292 0.0019385653 0.07153407
-0.021930585 0.05131768 -0.06416648 -0.08866179 -0.056622945 -0.09445344 -0.12286419 -0.023989143
-0.060546745 -0.04167462 -0.007156602 -0.04387683 -0.056935932 0.01574279 -0.010215543 0.0210513
0.0032030693 -0.05531198 -0.010756813 -0.0017910902 -0.0095512355 0.02742797 0.044191007 0.08577782
0.030188357 0.06791494 0.066852026 -0.008998292 0.0319651 -0.05525544 -0.020152325 -0.060726605
0.044385906 0.035912782 -0.007174264 0.01941509 -0.015944256 -0.059558343 0.009954437 0.016736662
-0.06765785 -0.008178689 -0.064326525 -0.0065043117 0.038267832 -0.0008228476 -0.016052227 0.032897703
0.047564354 0.041659378 0.012988086 0.05280111 -0.021581631 -0.0572769 -0.012064358 -0.036052555
-0.044750553 0.026381874 -0.034872103 -0.0030994008 -0.011083789 -0.03646268 0.1051468 0.09917034
0.054007005 0.041918192 0.08964513 -0.019993227 0.026875861 -0.038085792 0.0054688198 -0.012611156
0.044232335 0.033367056 0.09105609 -0.014163652 0.0385589 0.1041051 -0.0015377118 0.01926973
0.0077875135 0.00081091287 0.034102403 0.05202479 -0.015275976 0.013384435 0.011570797 -0.15284665
-0.05857775 -0.084858425 -0.044605624 -0.09699841 0.0680824 0.012936962 0.025312873 -0.019590054
0.028165353 0.0058489027 0.049695574 0.02211251 0.05862591 0.025396924 -0.09868955 -0.027221685
-0.022936404 -0.07985749 -0.03317442 0.05746215 0.047163077 0.0809227 0.03602467 0.087331034
0.06814398 0.0718313 -0.00054728147 0.045402303 0.033098083 -0.014056452 0.017513976 -0.044955876
0.013846747 -0.057279315 0.0574324 0.04650414 0.0044789203 0.04489781 0.030065669 -0.020207211
-0.026746923 -0.03289788 -0.021943437 -0.081008665 -0.052297566 -0.0626092 -0.066918984 -0.04851474
-0.08938528 -0.07138754 -0.0435024 -0.041349873 -0.013043656 -0.15892814 0.024798451 0.040600795
0.0068457844 0.010738028 -0.020206576 -0.00061173073 0.013190324 0.045176413 0.035448726 -0.0050929147
0.0058538364 0.0121658025 -0.0009693428 -0.0147944745 0.014950425 -0.011979442 0.0018749484 -0.01546345
-0.0003814037 -0.02836944 -0.07674451 0.03319134 0.005841917 0.020961517 0.019376166 0.08806716
0.029360898 0.026105758 0.025803832 0.039424844 0.0037308093 -0.0019512885 -0.012133725 0.024145652
0.04303739 -0.011986366 0.0050367443 0.016984256 -0.038734403 0.03282966 -0.10516823 -0.02392599
-0.056796744 -0.05685192 -0.069836795 0.03324892 0.060754344 -0.031282328 -0.004615718 -0.021720206
-0.03625806 -6.2416743e-06 0.0094859 0.0078177 -0.00037320438 -0.021468915 -0.01013288 0.011318527
-0.0342284 -0.032468732 0.02597777 0.039485242 0.037445016 0.0068514063 0.04296473 -0.15955764
-0.08378202 -0.081312485 -0.048982706 -0.15801352 0.05463702 0.035338737 0.02456595 0.029051008
0.0073946 0.0059269504 0.013384398 -0.021792263 0.056844324 0.003998207 -0.003238736 0.025814371
0.09383336 0.0878254 0.03423634 0.03487016 -0.029068233 -0.10597555 -0.026081128 -0.058174144
0.026321268 0.0013429577 -0.0009846864 0.10757038 -0.010568546 0.07426703 0.024318326 0.031826638
0.025544181 0.06329152 -0.0075559956 -0.049812 0.0029473358 -0.02185573 -0.0064786663 0.11661337

weight f4 [6]
00000000: 82ff 873f cd21 753f f0f8 803f 0091 803f
00000010: cb54 843f e5d7 7a3f
1.062485 0.957547 1.007597 1.004425 1.0338377 0.9798568

bias f4 [6]
00000000: 7341 843b 9d84 7b3b 95f5 4d3d e809 9ebd
00000010: a3ad 993d 734a d2ba
0.0040361225 0.0038378604 0.050283033 -0.07716733 0.07503822 -0.0016043916

running_mean f4 [6]
00000000: 5261 eabe 1470 9839 5552 6ebf 5688 e5bf
00000010: 646a b3bf 220f e43f
-0.45777375 0.00029075204 -0.9309438 -1.7932231 -1.4016843 1.7817118

running_var f4 [6]
00000000: cdcf 9b3f 9a6a 4c3f 012a 3b3f e8d3 463f
00000010: 0791 6740 6991 b93f
1.2172791 0.7985016 0.7311097 0.77667093 3.6182268 1.4497501

weight f4 [1, 6, 5, 3]
00000000: f4ea 883d b2a1 5c3b 037c 333c e0e7 65be
00000010: 719a 8fbc c2df 47be 89a3 73bb ee95 a23c
00000020: 6d2a 293b b810 6e3d 053a d93c a9c7 1e3c
00000030: 8317 a63d 888d 953b 6804 993d 9834 903c
00000040: c42a 933c 3f10 a73c d619 62bc 2c39 e63b
00000050: 4264 ab3c 4048 dabd 6261 a2bc 1fe7 febd
00000060: 37ad 1a3d 30da 003c 85cb e6bc 0b08 f3bc
00000070: b684 933b 2468 d83b 449e 1d3e 45dd b1bc
00000080: 8a47 303e 0ca5 0bbd 1b3e 813c 5050 94bd
00000090: 6000 82bd fcdf cc3b 0be3 8fbd 6d31 4f3c
000000a0: de74 ce3c c45e c13c 3750 25bd bc19 84bc
000000b0: 351f 61bc 3459 81bd 7f4b 87bc c7c5 9bbd
000000c0: 981e 48bc 6611 75bc 72f3 afbc 1df3 993d
000000d0: fbe9 8a3c e35d c03c 9123 293e b0d1 bb3b
000000e0: b38c 153e 995c dc3b 2bf7 09bd 5ec4 e2ba
000000f0: ee6c 00be b88b 9dbd f952 03be 9bf6 653d
00000100: b9a2 903d 4a8f eb3c 10de 203d 6121 d5bc
00000110: 1093 90bc 3ad3 dabc 8c25 07bc 4368 35be
00000120: 4148 db3c 45d7 283e 80cc 923d 58c1 813b
00000130: 9784 8f3d a882 5d3d c51c f2bd e5bb 76bd
00000140: 5691 dabd 1495 9c3c 4082 1cbc c2fb d5bc
00000150: 92b3 9fbd 30d9 c8bc d419 ccbd 42bc 983d
00000160: ccce c7ba 4121 553d
0.06685439 0.0033665714 0.01095486 -0.22451735 -0.017529698 -0.1951895 -0.0037176332 0.019846883
0.0025812641 0.058121413 0.026516924 0.009691157 0.08109953 0.004563991 0.074715436 0.017603204
0.017964728 0.020393489 -0.013800105 0.0070258584 0.02092183 -0.10658312 -0.019821826 -0.124464266
0.037762847 0.00786452 -0.028173218 -0.029666921 0.0045019044 0.0066042114 0.15392405 -0.021711955
0.1721479 -0.034092948 0.015776685 -0.07241881 -0.06347728 0.006252287 -0.07025727 0.012646061
0.025202211 0.023604758 -0.040359702 -0.016125552 -0.0137403505 -0.06315842 -0.016515492 -0.076060824
-0.012214325 -0.014957761 -0.021478388 0.07517073 0.016957274 0.023482269 0.16517474 0.005731784
0.14604454 0.0067249057 -0.033682983 -0.0017300954 -0.12541553 -0.07692665 -0.1282462 0.056143384
0.07062287 0.028754849 0.039274275 -0.026016893 -0.01764825 -0.026712049 -0.008248698 -0.17715554
0.026767852 0.16488369 0.071679115 0.003959816 0.070077114 0.05407968 -0.118218936 -0.060237784
-0.10672252 0.019114055 -0.009552538 -0.026121024 -0.07797922 -0.024517626 -0.09965864 0.07457782
-0.0015244125 0.052033667
