source/models/MelodyTimbreCNN/model_128_15_0.001_MIDIsampledseen_evalmode.pth (torch, 204095 bytes, 31 tensors)

weight f4 [6, 1, 5, 5]
0	0xbdb5d4f2	-0.08878507
1	0xbcb74f2a	-0.022376616
2	0x3995f821	0.00028604365
3	0xbe39b9d8	-0.181373
4	0xbd8fb1e3	-0.07016351
5	0xbda91801	-0.082565315
6	0x3e1639e3	0.1467052
7	0x3e1551ab	0.14581935
8	0xbe1cad8b	-0.15300576
9	0xbd3b2aea	-0.045695223
10	0xbd7896a4	-0.060690537
11	0xbda2049e	-0.07911037
12	0x3e00c56e	0.12575313
13	0xbe3e4013	-0.1857913
14	0xbd91162a	-0.070843056
15	0x3c8e533e	0.017373677
16	0xbe25aca2	-0.16179135
17	0xbca97309	-0.020684736
18	0xbc4b8ce7	-0.01242373
19	0x3e638a2a	0.22220674
20	0xbdec7b23	-0.11546924
21	0x3e12ae4b	0.143243
22	0xbdbdf53e	-0.09275292
23	0x3dbc42d1	0.09192432
24	0xbce15a03	-0.027508741
25	0xbcdbf00f	-0.026847867
26	0xbca3a3af	-0.019975511
27	0x3da0c7c3	0.078506015
28	0xbe4254de	-0.18977687
29	0xbddcdab7	-0.10783904
30	0x3d196895	0.037453253
31	0x3de20fca	0.11038168
32	0x3def6c55	0.116905846
33	0xbd458bf3	-0.04822917
34	0xbbd277c3	-0.006422968
35	0xbe3982a4	-0.18116242
36	0x3d23eb1d	0.040019143
37	0x3e02f8e3	0.12790255
38	0xbcb18596	-0.021670144
39	0x3db71b5d	0.08940766
40	0xbc4ba97a	-0.012430543
41	0x3d917ecb	0.07104262
42	0x3e49260c	0.1964342
43	0x3cb1a87d	0.021686787
44	0x3da40655	0.0800902
45	0x3c565a33	0.013083029
46	0xbe30a11e	-0.17248961
47	0xbcb3111f	-0.02185875
48	0x3c0e5057	0.008686147
49	0xbd62c1ca	-0.055360593
50	0xbdeb1983	-0.11479475
51	0xb9fe2e6a	-0.00048481236
52	0xbd37dca8	-0.04488817
53	0xbe0bc1cb	-0.13648145
54	0x3dbfbc28	0.0936206
55	0x3e3c3ed8	0.18383348
56	0x3e6b33ff	0.22969054
57	0x3d2b6432	0.0418436
58	0x3e2570e9	0.16156353
59	0xbe0d33f4	-0.1378935
60	0x3d886512	0.06659903
61	0x3d87e4c7	0.06635433
62	0xbe22709c	-0.1586327
63	0xbd9d0121	-0.07666231
64	0x3e3c0d31	0.18364407
65	0xbe500c6e	-0.20317242
66	0x3d5e41eb	0.054262083
67	0x3e35ba08	0.17746747
68	0x3d7c586f	0.061607774
69	0xbe0d7caf	-0.13817094
70	0x3d55a362	0.052157767
71	0xbd51a1c0	-0.051179647
72	0xbdcebcb1	-0.10094584
73	0x3e2bcbe7	0.16777001
74	0xbde07056	-0.109589264
75	0x3e0ba4eb	0.1363713
76	0xbc2e7efc	-0.010650393
77	0xbce1f593	-0.02758292
78	0x3d81ec4e	0.063439
79	0x3d0d8a27	0.03455558
80	0xbb1e10c7	-0.0024118887
81	0xbd73e6e4	-0.059546366
82	0x3c2f88b7	0.010713748
83	0xbe401f22	-0.18761876
84	0xbe2534e8	-0.16133463
85	0xbe196aaf	-0.14982103
86	0xbdb12ad8	-0.0865075
87	0xbe0b1328	-0.13581526
88	0x3cf652ea	0.030068833
89	0x3e7138b4	0.23556787
90	0x3e299d6f	0.16563962
91	0x3e25cd45	0.16191585
92	0xbbe40c9a	-0.00695951
93	0x3d8710a5	0.065949716
94	0x3c4e49a0	0.012590796
95	0x3dc7b8a9	0.09752018
96	0xbd559ce3	-0.052151572
97	0xbe25abe0	-0.16178846
98	0xbde70eed	-0.11282144
99	0x3d056cb3	0.032574367
100	0xbdb19efd	-0.08672903
101	0xbe24eb4c	-0.16105384
102	0x3d652034	0.055938914
103	0xbd162700	-0.036658287
104	0x3e780bed	0.242233
105	0xbe004daa	-0.12529626
106	0x3d1e17b4	0.038596824
107	0xbd9c223b	-0.076237164
108	0xbe13e66f	-0.14443372
109	0xbe0263f0	-0.12733436
110	0xbe2c45dc	-0.16823524
111	0x3d9b1e84	0.0757418
112	0x3cc55a8a	0.024091024
113	0xbd67925b	-0.05653606
114	0xbe040b97	-0.12895046
115	0xbcb7fc9f	-0.022459326
116	0xbe3a0f65	-0.18169935
117	0xbc258058	-0.0101014
118	0xbc6f1a40	-0.014593661
119	0x3d7221fb	0.059114438
120	0x3d6975ec	0.056997225
121	0x3e44bd1a	0.19212762
122	0x3dce7f96	0.10082929
123	0xbd28133b	-0.041033965
124	0x3d86bade	0.06578611
125	0xbc095ac5	-0.008383458
126	0x37a7a6be	1.9985597e-05
127	0x3e601a87	0.2188512
128	0x3e0d982d	0.13827582
129	0x3d98a325	0.07452992
130	0xbbbe7a8c	-0.0058129486
131	0xbe006b28	-0.12540877
132	0x3e2af6f2	0.16695765
133	0xbe0c0e39	-0.136773
134	0xbcd851fe	-0.026406284
135	0xbcfe59a4	-0.031048603
136	0xbe33b696	-0.1755012
137	0x3dd996e2	0.10624482
138	0x3daff6e9	0.08592016
139	0x3e531795	0.20614465
140	0xbda994cb	-0.08280333
141	0x3e519b7b	0.20469467
142	0xbdbe5f15	-0.09295479
143	0xbdec2d4a	-0.11532076
144	0x3dc1e8f4	0.094682604
145	0xbe20518e	-0.1565611
146	0x3db85de7	0.090022855
147	0x3daeff77	0.0854482
148	0x3c4e95e9	0.012608984
149	0x3a25ab9b	0.00063198217

bias f4 [6]
0	0xbe3e02a5	-0.18555696
1	0x3cfb4727	0.030673577
2	0x3dcb668f	0.09931671
3	0x3e1919a5	0.14951189
4	0xbddc4f48	-0.10757309
5	0xbe4a67d7	-0.19766174

weight f4 [6]
0	0x3f7663d7	0.96246094
1	0x3f87fa73	1.0623306
2	0x3f7a0889	0.97669274
3	0x3f73f4c5	0.95295364
4	0x3f8521b9	1.0400916
5	0x3f7df9c6	0.9920925

bias f4 [6]
0	0xbc962424	-0.01832778
1	0xbd3eaa10	-0.046548903
2	0xbd1b7ac3	-0.03795887
3	0xbca3db6b	-0.020002088
4	0xbbe650c0	-0.007028669
5	0xbd48f4bf	-0.049061533

running_mean f4 [6]
0	0xbe44380f	-0.1916201
1	0x3cf471a1	0.029839339
2	0x3dd06f9b	0.10177537
3	0x3e17bb06	0.14817438
4	0xbde5c16c	-0.11218533
5	0xbe4593e9	-0.19294704

running_var f4 [6]
0	0x3e9592ac	0.29213464
1	0x3d646192	0.055757113
2	0x3dc1691a	0.09443875
3	0x3d4130c2	0.04716564
4	0x3e76a5ae	0.2408664
5	0x3e971c29	0.29513672

weight f4 [18, 6, 5, 5]
0	0x3c722514	0.014779348
1	0xbd534611	-0.051580492
2	0x3d9dfd32	0.07714309
3	0x3d3ec9e3	0.046579253
4	0x3d260378	0.04053065
5	0x3d397d29	0.045285378
6	0xbd2797fc	-0.040916428
7	0x3cca7f95	0.024719039
8	0x3cd03560	0.025416076
9	0x3cf93de5	0.030425021
10	0x3ce204fb	0.027590265
11	0xbd92c898	-0.071671665
12	0xbd3b1fbe	-0.04568457
13	0x3d2d6bf1	0.04233927
14	0xbc64b7b5	-0.013959815
15	0xbd5873c8	-0.052844793
16	0xbd715839	-0.058922026
17	0x3c8fef97	0.0175703
18	0x3c21b6dc	0.009870257
19	0xba5cb0b6	-0.0008418666
20	0xbc9d0720	-0.019168437
21	0xbd46f78f	-0.048575934
22	0x3dc33e9f	0.095334284
23	0x3c9ba899	0.019001292
24	0xbac776f9	-0.0015217952
25	0xbccabcda	-0.024748255
26	0x3d4cdf6f	0.05001777
27	0xbd4994c1	-0.04921413
28	0x3d016e83	0.031599533
29	0xbc5ea697	-0.013589523
30	0xbdbc2b79	-0.09187979
31	0x3d118423	0.035526406
32	0xbdd3c3fe	-0.10340117
33	0xbd76ce71	-0.06025547
34	0xbd1cf797	-0.038322058
35	0xbd8d5695	-0.0690128
36	0x3c06a7e2	0.008218737
37	0xbdbc3afb	-0.09190937
38	0xbc6da4ad	-0.014504594
39	0xbd3256e9	-0.043539915
40	0xbd52d45a	-0.051472045
41	0x3d2958fc	0.041344628
42	0x3c9dd6ac	0.019267403
43	0xbd77c3c0	-0.060489416
44	0xbc1ee5fb	-0.009698386
45	0xbd858074	-0.06518641
46	0x3cb7b722	0.022426192
47	0x3d96c90e	0.07362567
48	0xbd815865	-0.06315688
49	0x3d48eded	0.04905503
50	0xbd1e13ba	-0.03859303
51	0xbda912c7	-0.082555346
52	0xbe0313f6	-0.12800583
53	0xbd9598d7	-0.073045425
54	0xbd145283	-0.0362115
55	0x3d4e45ee	0.05035966
56	0xbd59b39a	-0.053149797
57	0xbd8f82df	-0.070073836
58	0xbd772d0f	-0.060345706
59	0x3c9a03e4	0.018800683
60	0x3c73ecbb	0.014887984
61	0xbc556911	-0.013025538
62	0x3ca84dd7	0.02054493
63	0xbe06864a	-0.13137165
64	0x3d95fd42	0.07323696
65	0xbe11c937	-0.14236914
66	0xbdb18aee	-0.08669077
67	0x3bf63199	0.0075132367
68	0xbdbefa4e	-0.093250856
69	0x3d227f3e	0.03967213
70	0xbd322ce6	-0.04349985
71	0xbc8591dd	-0.016304905
72	0x3d9a2e7f	0.075284
73	0x3d4cdd85	0.050015945
74	0x3d57ef8d	0.052718688
75	0x3cbd10eb	0.023079356
76	0xbd6adee2	-0.057341464
77	0xbd11d88f	-0.035606917
78	0xbcf58817	-0.02997212
79	0xbd24eab0	-0.040262878
80	0x3d937a2e	0.07201038
81	0x3d572e8a	0.052534617
82	0x3db92892	0.09040941
83	0xbd78e373	-0.060763787
84	0x3d1608f1	0.03662962
85	0x3d8a668e	0.06757842
86	0x3d0ba9c3	0.034097444
87	0xbd09a773	-0.033606958
88	0xbce85ff2	-0.028366063
89	0xbc2aabd6	-0.010416945
90	0x3e03fea3	0.12890105
91	0x3d2ef652	0.042715378
92	0x3c092c6a	0.008372406
93	0x3b9a5d28	0.004710812
94	0x3d1f99b9	0.03896496
95	0xbcbd3443	-0.02309621
96	0xbd91f9d5	-0.0712773
97	0xbda93713	-0.08262458
98	0xbbcf5eed	-0.0063284547
99	0x3c90222a	0.017594416
100	0x3d543269	0.051805887
101	0x3d83c41e	0.06433891
102	0x3d54652f	0.05185431
103	0xbcac4448	-0.021028653
104	0x3d9dc100	0.077028275
105	0xbb98b8ef	-0.0046607177
106	0x3d6060f3	0.054779958
107	0xbd2da268	-0.04239121
108	0xbdc41c87	-0.09575754
109	0x3d14a83d	0.036293257
110	0xbe088dd8	-0.13335359
111	0xbd491650	-0.049093544
112	0x3d28d70f	0.04122072
113	0x3cd0c51f	0.02548462
114	0xbd8cdf7c	-0.06878564
115	0x3cc1640c	0.023607276
116	0xbd45b0a2	-0.048264153
117	0x3d6b9316	0.05751332
118	0xbd5238b1	-0.051323596
119	0xbd312d0e	-0.043255858
120	0xbd9cfcf1	-0.07665432
121	0xbd62c469	-0.055363093
122	0xbc836989	-0.016041534
123	0xbd9858da	-0.07438822
124	0x3d8acf19	0.06777782
125	0x3cdb2509	0.026751058
126	0xbd03b854	-0.03215821
127	0xbb87beb4	-0.0041426066
128	0x3cde337a	0.027124155
129	0x3cc6c89b	0.024265578
130	0x3dcddacf	0.100515
131	0x3beb8c64	0.0071883667
132	0x3d8b653e	0.0680642
133	0x3db833c2	0.08994247
134	0x3cd3587d	0.02579903
135	0xbc6f22d3	-0.014595705
136	0xbd5379bf	-0.051629778
137	0x3d1d8554	0.03845723
138	0xbd0a9505	-0.033833522
139	0x3dca3eab	0.09875234
140	0x3dd15c82	0.102227226
141	0x3dd4ea25	0.10396222
142	0xbd54201f	-0.051788446
143	0xbc24e230	-0.010063693
144	0xbd79d848	-0.060997277
145	0x3dccf159	0.10006971
146	0x3d8b5b9c	0.068045825
147	0xbd5511c3	-0.052018892
148	0xbd70c853	-0.058784794
149	0xbc1a4ee0	-0.009418219
150	0xbd830c01	-0.06398774
151	0x3d630620	0.055425763
152	0xbc993738	-0.018703088
153	0x3d9d471f	0.07679581
154	0xbb543db3	-0.0032385408
155	0x3db031ee	0.08603273
156	0x3d6cf38d	0.057849456
157	0xbd28c38a	-0.041202106
158	0x3d876177	0.06610387
159	0x3d4af64b	0.04955129
160	0x3d7253a2	0.05916179
161	0x3dc49359	0.09598417
162	0x3db44a48	0.088032305
163	0xbd3a1891	-0.045433585
164	0x3cb9a2a5	0.022660563
165	0xbcf6e8e1	-0.030140342
166	0xbd6b2412	-0.057407446
167	0x3d19f2e8	0.03758517
168	0xbd9ef818	-0.07762164
169	0xbdeac06c	-0.11462483
170	0x3da07cf3	0.07836332
171	0x3cfa9e47	0.03059305
172	0x3d96a158	0.07354993
173	0xbda7b79c	-0.081893176
174	0xbdb773b9	-0.08957619
175	0xbd85cd88	-0.065333426
176	0xbdc023fc	-0.093818635
177	0xbb9c3d20	-0.004768029
178	0xbd77bb31	-0.060481254
179	0x3ca702af	0.020387022
180	0xbc935b45	-0.017987857
181	0xbcb56879	-0.022144543
182	0xbc88040e	-0.016603496
183	0x3d2a7c50	0.04162246
184	0xbc8f245e	-0.017473396
185	0x3d39a9c1	0.045327906
186	0x3db4aa33	0.088215254
187	0xbc96ffcc	-0.01843252
188	0xbd81f234	-0.06345025
189	0x3d2e4d34	0.042554095
190	0xbd9ca14e	-0.07647954
191	0xbc5460af	-0.012962504
192	0x3cf99ea7	0.03047116
193	0xbd5526e0	-0.052039027
194	0xbc665a06	-0.014059549
195	0x3d1abc6a	0.037777342
196	0xbc4b5da1	-0.01241246
197	0x3dc00d83	0.09377577
198	0x3d040a31	0.03223628
199	0x3d1bab97	0.038005438
200	0xbd923aa7	-0.07140093
201	0xbe233687	-0.1593877
202	0x3caa2cae	0.020773258
203	0xbd137a26	-0.03600516
204	0xbdf11cb8	-0.11773056
205	0x3d780954	0.06055577
206	0x3a8ea026	0.0010881468
207	0x3d86f60f	0.06589901
208	0xbd918df9	-0.07107157
209	0xbd35694b	-0.04428987
210	0x3b91d287	0.0044501456
211	0xbd9f0d8e	-0.07766257
212	0x3de63cd4	0.11242071
213	0xbb2a9c71	-0.0026033188
214	0x3b3e982e	0.0029082405
215	0xbcb2ec22	-0.021841113
216	0xbd710b28	-0.05884853
217	0x3d86de4d	0.06585369
218	0x3c0b4f15	0.008502741
219	0xbd774b03	-0.06037427
220	0x3cd21b80	0.025647879
221	0xbc6123ed	-0.0137414755
222	0x3da6efc9	0.08151204
223	0x3ce218e8	0.027599767
224	0x3d95032b	0.07275995
225	0x3b332ced	0.002734001
226	0x3d2898dd	0.041161407
227	0x3cd53293	0.026025092
228	0x3d088ade	0.03333556
229	0x3c04c425	0.008103405
230	0xbd160fb4	-0.03663607
231	0x3bd3a2ea	0.00645863
232	0xbdad396f	-0.0845822
233	0x3d8266cf	0.063672654
234	0xbc10db44	-0.0088413395
235	0x3d5876aa	0.052847542
236	0x3dec4fdb	0.11538669
237	0xbce40f30	-0.027839273
238	0x3d6198d7	0.0550774
239	0x3da84133	0.08215561
240	0xbd01dafb	-0.031702977
241	0xbcb4f3dc	-0.022088937
242	0x3d853e20	0.0650599
243	0x3c83635a	0.016038585
244	0xbd993149	-0.074801035
245	0x3c538d02	0.012912037
246	0xbd6852d4	-0.056719616
247	0x3c32d84b	0.010915826
248	0x3d48e923	0.04905046
249	0xbc9b50cd	-0.018959427
250	0x3d96d0ce	0.07364045
251	0xbccec432	-0.025240038
252	0x3dd5f87c	0.10447785
253	0xbd26a258	-0.040682167
254	0x3ce99980	0.028515577
255	0xbceda1a2	-0.029007737

bias f4 [18]
0	0xbd9bfe8b	-0.076169096
1	0xbd6020e8	-0.05471888
2	0xbc6898e0	-0.0141966045
3	0x3dd4ee31	0.10396994
4	0x3d4392da	0.04774747
5	0xbcd182e2	-0.025575105
6	0xbd00c18b	-0.031434577
7	0xbd4daf64	-0.050216094
8	0x3db2bcdf	0.087274306
9	0x3d98b8f0	0.07457149
10	0x3d705d1a	0.05868254
11	0xbd997c7b	-0.07494446
12	0xbd41da60	-0.0473274
13	0x3d45fdfc	0.04833792
14	0xbcc85ada	-0.024457384
15	0x3d0bded7	0.034148064
16	0xbd1c46fb	-0.03815363
17	0xbd6d9321	-0.05800164

weight f4 [18]
0	0x3f88d845	1.0691
1	0x3f7e13fe	0.99249256
2	0x3f803e7d	1.001907
3	0x3f7c688d	0.9859703
4	0x3f7e17f7	0.9925532
5	0x3f7a5f86	0.9780201
6	0x3f807644	1.0036092
7	0x3f7ea464	0.9946959
8	0x3f7d74d8	0.99006414
9	0x3f7ec003	0.99511737
10	0x3f816cea	1.0111363
11	0x3f810078	1.0078268
12	0x3f82a70b	1.0207227
13	0x3f7d5de2	0.9897138
14	0x3f791ba5	0.9730781
15	0x3f79d8cc	0.9759643
16	0x3f8a4110	1.0801105
17	0x3f7ad1f7	0.9797663

bias f4 [18]
0	0xbe300334	-0.17188722
1	0xbd81b8d7	-0.063340835
2	0xbbf3c057	-0.0074387
3	0xbdd1bcb7	-0.102410726
4	0xbdb52931	-0.08845747
5	0xbd80ecbb	-0.06295153
6	0xbd249495	-0.04018076
7	0xbe106865	-0.14102323
8	0xbe3eef61	-0.18646003
9	0xbd2ede12	-0.04269225
10	0xbd045476	-0.03230711
11	0xbda1e308	-0.07904631
12	0x3b12a22e	0.0022374499
13	0xbd42217c	-0.047395214
14	0xbdc557a3	-0.09635856
15	0xbddbe87c	-0.10737702
16	0xbdbf1067	-0.093293004
17	0xbdee03c6	-0.116218135

running_mean f4 [18]
0	0xbf02dc6d	-0.51117593
1	0xbe4c564b	-0.19954793
2	0xbe1907ca	-0.14944378
3	0xbef5d1bd	-0.4801158
4	0xbe533e7a	-0.20629302
5	0xbecbacfb	-0.3978041
6	0x3f1cfeb7	0.61326164
7	0x3f5de2d9	0.8667427
8	0x3d3210a2	0.043472894
9	0xbda2694a	-0.079302385
10	0xbf254fa1	-0.6457463
11	0xbe1465e1	-0.14491989
12	0xbede2744	-0.43389332
13	0xbeeeef2b	-0.46666846
14	0x3f3a2757	0.7271628
15	0x3f1cd1ad	0.6125744
16	0xbe9f4359	-0.3110607
17	0xbe4aa26f	-0.19788526

running_var f4 [18]
0	0x3ea2265a	0.31669885
1	0x3f0a3b4e	0.5399674
2	0x3e902f46	0.28161067
3	0x3e67969c	0.22616047
4	0x3e1c6b22	0.15275243
5	0x3ee04e42	0.43809706
6	0x3e47e3da	0.19520512
7	0x3ec22e9d	0.37926188
8	0x3ea03df4	0.31297266
9	0x3e882835	0.26593176
10	0x3f018883	0.50598925
11	0x3e7d939e	0.24763343
12	0x3ee23004	0.44177258
13	0x3ea6f6ad	0.32610074
14	0x3e3725a7	0.17885457
15	0x3e8db5d0	0.27677774
16	0x3e12d36d	0.14338465
17	0x3e69a34b	0.22816198

weight f4 [45, 18, 5, 5]
0	0x3d33a20f	0.043855723
1	0x3d13501c	0.03596507
2	0x3d33d188	0.043900996
3	0x3c0a87a7	0.008455194
4	0x3d533146	0.051560663
5	0x3dcde6f7	0.10053819
6	0x3e0603f4	0.13087445
7	0x3df0db33	0.11760559
8	0x3dc72918	0.09724635
9	0x3dcb7f6c	0.09936413
10	0x3bf0f36b	0.0073532364
11	0x3c0c7eda	0.008575166
12	0xbc2b205a	-0.010444725
13	0xbbc47da7	-0.0059964242
14	0xbcc9e0e7	-0.024643375
15	0xbd0c38f8	-0.034234017
16	0xbd239cf8	-0.03994462
17	0xbd21e4ff	-0.03952503
18	0xbbaf608c	-0.0053520855
19	0x3d0d3236	0.034471713
20	0xbc62ba5f	-0.01383838
21	0xbc6caae8	-0.014445044
22	0xbb8a5616	-0.004221688
23	0xbabaa304	-0.0014239256
24	0x3cc429f2	0.023945782
25	0xbd7a1d6e	-0.061063223
26	0x3bc90843	0.006135018
27	0x3d05f2ad	0.032702137
28	0xbc5f3936	-0.01362448
29	0x3d859fe4	0.06524637
30	0xbcea4bf5	-0.028600672
31	0xbca9a60e	-0.020709064
32	0xbce285e0	-0.027651727
33	0x3c818994	0.015812673
34	0x3b0a984a	0.00211479
35	0x3cccbe1a	0.024992991
36	0x3c8361e3	0.016037887
37	0x396c3c9c	0.00022529293
38	0xbcbfda8e	-0.023419645
39	0xbdacbd5d	-0.08434556
40	0x3c43971c	0.011937883
41	0x3bf717a2	0.007540659
42	0x3c84babb	0.016202321
43	0xbc8fcfb0	-0.017555088
44	0x3bdb98c2	0.0067015598
45	0x3c76a30c	0.015053522
46	0xbc810c28	-0.015752867
47	0xbd601f59	-0.054717395
48	0xbd8ed4ff	-0.069742195
49	0xbce57cf7	-0.02801369
50	0xbd25beee	-0.040465288
51	0xbcc9259c	-0.024554066
52	0xba03b29c	-0.0005023868
53	0x3db87e77	0.09008496
54	0x3cf02747	0.029315604
55	0x3ca2d36f	0.01987621
56	0x3dc6c2f6	0.097051546
57	0x3bdd98ee	0.0067626154
58	0xbc9f420c	-0.019440673
59	0xbd3f8869	-0.04676095
60	0xbd079bfa	-0.033107735
61	0xbd4acf4c	-0.0495141
62	0x3d0ae771	0.033912126
63	0x3b814d68	0.003945995
64	0x3ca910f4	0.020637967
65	0x3d32b89b	0.043633085
66	0x3c695f70	0.0142439455
67	0xbc071b71	-0.008246289
68	0xbd362884	-0.044472232
69	0x3c9052e9	0.01761766
70	0xbcccb853	-0.024990236
71	0xbc74d18b	-0.014942537
72	0xbc8251c8	-0.015908137
73	0x3c2fed61	0.010737748
74	0xbccb2a97	-0.024800582
75	0x3c99c4b6	0.018770557
76	0xbc179b38	-0.009253316
77	0x3d09270a	0.033484496
78	0xbccd5312	-0.025064025
79	0x3c4fb589	0.012677559
80	0x3cb9ec35	0.02269564
81	0x3c8f54fd	0.01749658
82	0xbb2f8e79	-0.0026787801
83	0xbc65cb50	-0.014025524
84	0x3b4ee3c4	0.0031568864
85	0x3acb5cad	0.001551529
86	0x3cabd817	0.020977063
87	0xbbb743d2	-0.0055928016
88	0xbcdad76e	-0.026714053
89	0xbc11a262	-0.008888813
90	0x3ce751f1	0.028237315
91	0xbd67fcc4	-0.05663754
92	0xbcc4188f	-0.023937492
93	0xbc9f9c61	-0.019483747
94	0xbd92cc09	-0.07167823
95	0xbcf9bd63	-0.030485814
96	0xbc77859c	-0.015107539
97	0xbd6e88c7	-0.05823591
98	0xbdfccb5b	-0.123434745
99	0xbdb23c17	-0.087028675
100	0x3ccc02d0	0.024903685
101	0x3d64def7	0.0558767
102	0x3c850159	0.016235994
103	0xbcfe9f07	-0.03108169
104	0xbd1fccb5	-0.039013583
105	0x3d4c489b	0.04987393
106	0x3d4a1947	0.049340513
107	0xbcb362eb	-0.021897754
108	0xbbfc6c51	-0.007703342
109	0x3d2b7bdf	0.04186618
110	0xbd70b286	-0.058764003
111	0xbd069b46	-0.032862924
112	0xbcb0c9b1	-0.021580549
113	0x3d0cd012	0.03437812
114	0xbab7c75a	-0.0014021203
115	0x3d20c0ec	0.039246485
116	0x3dc3846d	0.095467426
117	0xbd1b9e7d	-0.037992943
118	0xbda366cb	-0.079785906
119	0xbdcafe93	-0.099118374
120	0xbd951526	-0.07279424
121	0xbc8f6a8f	-0.017506866
122	0xbbb10f56	-0.0054034395
123	0xbd2f1d29	-0.04275242
124	0xbd50954a	-0.050923623
125	0xbaf888c9	-0.0018961664
126	0x3d67c211	0.05658156
127	0x3d311e94	0.043242052
128	0xbba050b9	-0.0048924354
129	0xbc8bdf39	-0.017074214
130	0xbd808cd8	-0.06276864
131	0x3cdbee8c	0.026847146
132	0x3d7897f2	0.06069178
133	0x3d884f1f	0.06655716
134	0x39a2524e	0.0003096037
135	0xbd041151	-0.032243077
136	0x3cb20183	0.021729236
137	0x3d4d0d06	0.05006125
138	0x3d9ce7b5	0.07661382
139	0x3d694888	0.056953937
140	0x38342765	4.2952033e-05
141	0xbd9b80ba	-0.07592912
142	0xbd3f1f08	-0.046660453
143	0xbbc1583b	-0.0059004105
144	0xbcdf9b10	-0.02729562
145	0x3c6f686a	0.014612297
146	0x3c8bd693	0.01707009
147	0xbc86afc8	-0.01644124
148	0x3d5ca868	0.053871542
149	0x3cb965c4	0.022631533
150	0xbc8622a8	-0.016373947
151	0xbce34fca	-0.027748007
152	0x3d17183b	0.036888342
153	0x3dc4368a	0.09580715
154	0x3d13f7f6	0.036125146
155	0x3be4d00c	0.006982809
156	0x3d0322ff	0.032015797
157	0xbdcc72e9	-0.09982855
158	0xbd5a2e73	-0.053266954
159	0xbd09fd5e	-0.033688895
160	0xbcaf556e	-0.02140304
161	0x3d07722c	0.033067867
162	0xbc7e1372	-0.015507566
163	0xba7cc383	-0.00096421706
164	0x3d2045de	0.03912913
165	0xbcd57546	-0.026056897
166	0x3ca67d11	0.020323308
167	0x3cff0f4e	0.031135228
168	0x3b0fc598	0.0021937843
169	0x3d440a55	0.047861416
170	0xbd8c5058	-0.06851262
171	0xbceddd6f	-0.029036252
172	0xbdacf132	-0.08444442
173	0xbc04c447	-0.008103437
174	0x3ad049a8	0.0015891092
175	0xbd962497	-0.07331198
176	0xbda5aa2d	-0.08089099
177	0xb893dc31	-7.05052e-05
178	0xbcb4cf06	-0.022071373
179	0xbd827fbc	-0.0637202
180	0x3d0beef6	0.034163438
181	0x3d9045b9	0.070445485
182	0x3da53762	0.08067204
183	0x3d04f749	0.032462392
184	0xbd54b9a4	-0.051934853
185	0xbd31a63e	-0.04337143
186	0xbc3d3671	-0.011548624
187	0x3c5828ca	0.013193319
188	0x3d183eff	0.037169453
189	0x3ca7cd75	0.020483712
190	0xbd3d21a8	-0.046174675
191	0x3d3da736	0.046302043
192	0x3d518aff	0.051157948
193	0x3b5bf8e7	0.0033565105
194	0x3d50fdb6	0.051023208
195	0xbc3ec84f	-0.011644437
196	0xbd4e16dc	-0.05031477
197	0xba58ff76	-0.0008277813
198	0x3bb12768	0.005406309
199	0x3c233236	0.009960702
200	0x3bbe3826	0.0058050333
201	0xbd690960	-0.056893706
202	0xbc0792ae	-0.008274717
203	0x3c9648f1	0.018345328
204	0x3ccd1019	0.02503209
205	0xbc354105	-0.011062865
206	0xbd5e4150	-0.054261506
207	0x3d5cd4ab	0.053913753
208	0x3dc7bab1	0.097524054
209	0x3cf610ca	0.030037303
210	0x3cf70f6e	0.030158725
211	0x3d06cd6d	0.032910753
212	0x3d86d9b7	0.065844946
213	0x3dcfa583	0.10138991
214	0x3d0a2bb4	0.033733085
215	0xbd648994	-0.055795267
216	0xbdabccd3	-0.083886765
217	0xbd5b160c	-0.053487822
218	0xbd81fea4	-0.06347397
219	0xbd8f5883	-0.06999304
220	0xbda7c728	-0.08192283
221	0xbc01920f	-0.007908358
222	0x3bfdd500	0.007746339
223	0xbce6e6ae	-0.028186169
224	0xbd93768e	-0.07200347
225	0xbce78000	-0.028259277
226	0x3bcede72	0.0063131386
227	0xbd52832d	-0.05139463
228	0xbd2a15a5	-0.041524548
229	0x3b4fbb68	0.0031697396
230	0x3b694e2f	0.003559958
231	0x3c921fc7	0.017837418
232	0xbce6de1c	-0.028182082
233	0x3db82783	0.08991911
234	0x3d4be4d4	0.049778774
235	0xbb704fb9	-0.0036668612
236	0x3d21a9c5	0.039468545
237	0x3d0d597d	0.03450917
238	0x3d2db721	0.042410973
239	0x3be0657f	0.006848037
240	0x3a445526	0.0007489495
241	0x3cf708fc	0.030155651
242	0xbdc26dc9	-0.09493596
243	0xbdad93cd	-0.084754564
244	0xbbbc2f59	-0.005742949
245	0xbd2512a2	-0.040300973
246	0xbd6490b5	-0.055802066
247	0xbd8f6cb0	-0.07003152
248	0xbd566eb0	-0.052351654
249	0xbc9095a6	-0.017649483
250	0x3d3adda7	0.04562154
251	0x3c81c111	0.015839132
252	0x3af78f3b	0.001888729
253	0x3d7efeb2	0.062254615
254	0x3d94cc14	0.07265487
255	0x3d512616	0.051061712

bias f4 [45]
0	0xbb8a483f	-0.004220038
1	0xbcfc932d	-0.030831898
2	0x3b3556d1	0.0027670155
3	0xbc0023da	-0.007821048
4	0x3ccc085e	0.024906334
5	0xbb306d33	-0.0026920557
6	0x3d4f5956	0.050622307
7	0x3cbfff11	0.023437055
8	0x3cb51137	0.022102935
9	0x3cc936d3	0.024562275
10	0xb9a3e777	-0.00031262237
11	0x3b8f96a4	0.0043819714
12	0x3bdeda90	0.006800957
13	0xbceeabb3	-0.029134607
14	0x3c5f775f	0.0136393
15	0xbba20a9c	-0.0049451124
16	0xbaaa239e	-0.0012980585
17	0xbc0f1d49	-0.0087350095
18	0x3d66f5c9	0.056386743
19	0xbc084233	-0.008316564
20	0xb9819f71	-0.0002472359
21	0x3cc58111	0.024109395
22	0xbc50651c	-0.012719419
23	0xbce8d23f	-0.028420566
24	0xbd4507db	-0.048103195
25	0x3d3ebee5	0.04656877
26	0xbcfa0bbd	-0.030523175
27	0x3d12e26b	0.03586046
28	0x3d2263d0	0.03964597
29	0x3d3337e3	0.04375447
30	0x3d1027ba	0.035194136
31	0xbd13597e	-0.03597402
32	0xbd08f14e	-0.03343325
33	0x3c1dbc5a	0.009627426
34	0xbc431da5	-0.011908923
35	0x3c641a5f	0.013922303
36	0x3d1619b4	0.036645606
37	0x3d03bda0	0.032163262
38	0xbd4f55da	-0.050618984
39	0x3c81d636	0.015849214
40	0x3ce6e2e1	0.028184356
41	0xbd2a99dd	-0.04165064
42	0x3b9e39c6	0.0048286645
43	0xbcc3b968	-0.02389212
44	0xbb5f87b4	-0.0034107985

weight f4 [45]
0	0x3f78f406	0.9724735
1	0x3f7a2e3f	0.97726816
2	0x3f81148b	1.0084394
3	0x3f79a607	0.9751896
4	0x3f8398c1	1.0280992
5	0x3f8466dd	1.0343891
6	0x3f772881	0.9654618
7	0x3f73d49b	0.95246285
8	0x3f78c819	0.97180325
9	0x3f7e9267	0.9944214
10	0x3f7b3d4d	0.9814041
11	0x3f853591	1.0406972
12	0x3f81bc28	1.0135546
13	0x3f7e7a10	0.99405
14	0x3f7b9612	0.98275864
15	0x3f8858d5	1.0652109
16	0x3f7fbcbd	0.99897367
17	0x3f68dddf	0.9096355
18	0x3f800d61	1.0004083
19	0x3f719565	0.9436858
20	0x3f6f08cf	0.93372816
21	0x3f7086b4	0.9395554
22	0x3f847925	1.034947
23	0x3f842ba3	1.0325817
24	0x3f88a877	1.0676411
25	0x3f6e7958	0.93153906
26	0x3f8300f3	1.0234665
27	0x3f781bd4	0.9691746
28	0x3f824f68	1.0180483
29	0x3f800e3e	1.0004346
30	0x3f6f76e2	0.93540776
31	0x3f8b54ff	1.0885314
32	0x3f81b748	1.0134058
33	0x3f84d055	1.0376078
34	0x3f79e89d	0.97620565
35	0x3f6dcd92	0.928918
36	0x3f7ed470	0.99542904
37	0x3f707f44	0.9394419
38	0x3f83d098	1.0298033
39	0x3f820a40	1.0159378
40	0x3f8743a4	1.0567517
41	0x3f73f294	0.9529202
42	0x3f837021	1.0268594
43	0x3f785214	0.9700024
44	0x3f83d4a2	1.0299265

bias f4 [45]
0	0xbdc53d1e	-0.09630798
1	0xbd9b2a60	-0.07576442
2	0xbdc20aed	-0.0947474
3	0xbd99b4b7	-0.07505172
4	0xbdb02e0e	-0.08602534
5	0xbe1e13ec	-0.15437287
6	0xbe1cfcbc	-0.15330786
7	0xbd865034	-0.06558266
8	0xbd928dc4	-0.07155946
9	0xbdfb98f3	-0.12285032
10	0xbdf57e99	-0.11987037
11	0xbd99d58a	-0.075114325
12	0xbda23209	-0.079197
13	0xbdf07eba	-0.11742921
14	0xbd811e4f	-0.06304609
15	0xbe0a0ab9	-0.13480653
16	0xbd09fc55	-0.03368791
17	0xbe1f4b8f	-0.15556167
18	0xbddf4b80	-0.10903072
19	0xbdc007b4	-0.09376469
20	0xbddc680e	-0.10762034
21	0xbd51c0c3	-0.051209223
22	0xbdbb730f	-0.09152805
23	0xbdd3bd48	-0.10338837
24	0xbcc11dbc	-0.023573749
25	0xbe1b5318	-0.15168417
26	0xbdd4024d	-0.10352001
27	0xbdeadf78	-0.114684045
28	0xbd78e66e	-0.06076663
29	0x3a934467	0.0011235595
30	0xbe2ad05f	-0.1668105
31	0xbdcb04f2	-0.099130526
32	0xbd9d8461	-0.07691265
33	0xbdf91aaa	-0.12163289
34	0xbd9d2f17	-0.07674997
35	0xbd9864cb	-0.074411
36	0xbd353e37	-0.044248786
37	0xbd703c66	-0.05865135
38	0xbe0ca0f8	-0.1373328
39	0xbdb091d8	-0.086215675
40	0xbd19d553	-0.037556957
41	0x3c0ce401	0.008599282
42	0xbe0350ad	-0.12823744
43	0xbde15c4f	-0.110039346
44	0xbda4aec2	-0.08041145

running_mean f4 [45]
0	0x3ef6e789	0.48223522
1	0x3f97350f	1.1813067
2	0xbeac16d2	-0.3361116
3	0xbeaaf141	-0.33387187
4	0xbe2e3e0c	-0.17015857
5	0x3f850bbd	1.0394207
6	0xbcd018ef	-0.025402514
7	0x3e459dbc	0.19298452
8	0xbf4ae70f	-0.7925882
9	0x3f214e56	0.63010156
10	0x3f25c264	0.6474974
11	0xbf9f3037	-1.2436589
12	0xbfa9214f	-1.321329
13	0xbf377701	-0.7166596
14	0xbf0dffec	-0.5546863
15	0xbf46174c	-0.773793
16	0xbf4424dc	-0.7661874
17	0xbfac016a	-1.3437932
18	0x3f15260d	0.58261186
19	0xbfa82ac9	-1.3138057
20	0xbf54388e	-0.82898796
21	0xbf231abd	-0.63712674
22	0x3dae1936	0.08500902
23	0xbeabbd1b	-0.33542714
24	0xbe0edccf	-0.1395142
25	0x3c898255	0.01678578
26	0xbf246428	-0.64215326
27	0xbe8a3dcf	-0.2700028
28	0xbf18f46c	-0.5974796
29	0xbecc282e	-0.39874405
30	0x3f6abcf4	0.9169457
31	0xbf94f341	-1.1636735
32	0xbf337f9c	-0.7011659
33	0x3ed80317	0.42189857
34	0x3eca311e	0.39490598
35	0x3f1d7323	0.6150381
36	0xbf305db3	-0.68892974
37	0xbf53b441	-0.8269692
38	0x3d2d8a61	0.042368297
39	0xbf9e65e5	-1.2374846
40	0xc01d3a96	-2.4567008
41	0xbf7443d1	-0.9541598
42	0x3f5325f3	0.8247978
43	0xbf2ead6b	-0.68233365
44	0xbf3986cf	-0.72471327

running_var f4 [45]
0	0x3f33a9ef	0.70181173
1	0x3ef577cb	0.47942957
2	0x3f34e166	0.7065643
3	0x3edfb35e	0.43691534
4	0x3eb505b9	0.3535593
5	0x3f86a805	1.0520025
6	0x3eec8e8c	0.46202505
7	0x3f34d84f	0.7064256
8	0x3f407645	0.75180465
9	0x3f32bf05	0.6982272
10	0x3f37d952	0.7181598
11	0x3effbff1	0.49951127
12	0x3eefb060	0.4681425
13	0x3f1c4e25	0.6105674
14	0x3ef692b0	0.4815879
15	0x3f0d85d4	0.5528233
16	0x3ecdfae4	0.40230477
17	0x3f4a02b4	0.78910375
18	0x3f045077	0.5168528
19	0x3f32af86	0.6979908
20	0x3f3317d3	0.6995823
21	0x3f1e233f	0.6177253
22	0x3ec58271	0.3857608
23	0x3f0d91af	0.5530042
24	0x3f25f91b	0.6483323
25	0x3f85ebb3	1.0462555
26	0x3ef3f1aa	0.47645313
27	0x3ef19560	0.47184277
28	0x3f4b9f9b	0.79540414
29	0x3eba8533	0.36429748
30	0x3f3c7527	0.7361626
31	0x3f56d355	0.8391622
32	0x3f040af9	0.5157924
33	0x3f04b4c7	0.51838344
34	0x3f206f2b	0.6266963
35	0x3f27fc74	0.6561959
36	0x3f415214	0.75515866
37	0x3ee6331a	0.44960862
38	0x3ee62f42	0.4495793
39	0x3f1eaa6d	0.619788
40	0x3f3e6791	0.7437678
41	0x3f46d29f	0.7766513
42	0x3ecda3d8	0.40164065
43	0x3f433b42	0.76262295
44	0x3ed1d8ff	0.40985867

weight f4 [18, 45, 5, 5]
0	0xbd9c3454	-0.07627168
1	0xbd495619	-0.049154375
2	0xbc0adb24	-0.008475099
3	0xbc92b59f	-0.01790887
4	0xbdb6ef4d	-0.08932362
5	0xbd4d0378	-0.050052136
6	0xbc254b07	-0.010088689
7	0xbd0b8988	-0.034066707
8	0xbc8cb30e	-0.017175224
9	0x3c28777b	0.010282393
10	0x3cb75c0a	0.022382755
11	0x3cb60f0b	0.02222397
12	0xbd1df447	-0.03856304
13	0x3cbcbb9f	0.023038683
14	0x3d2e7571	0.04259247
15	0xbd37efe6	-0.04490652
16	0x3c999129	0.018745976
17	0xbcc63b3c	-0.024198167
18	0x3bcdca5f	0.006280228
19	0xbc9ee2c2	-0.019395236
20	0xbd82e130	-0.06390607
21	0xbcafa1e4	-0.0214395
22	0x3c6049ce	0.013689471
23	0x3a94a4ad	0.0011340581
24	0xbc20a502	-0.009804966
25	0xbb10da67	-0.0022102834
26	0xbd4b0f24	-0.049574986
27	0x3c0daa1d	0.008646515
28	0x3c2336e9	0.009961822
29	0x3d3439fc	0.04400061
30	0xbcf886a1	-0.030337634
31	0x3d02ac74	0.031902745
32	0x3bb55613	0.0055339425
33	0x3d090588	0.03345254
34	0x3d1134a0	0.035450578
35	0xbcc14830	-0.023593992
36	0x3b51db6a	0.003202165
37	0x3c26f6a3	0.010190639
38	0x3ac8b2dd	0.0015312094
39	0xbc2f2d9a	-0.010692025
40	0xbd7750d3	-0.060379814
41	0xbd868b31	-0.065695174
42	0xbce87796	-0.028377336
43	0x3c3f1c83	0.011664513
44	0xbc2d3720	-0.010572225
45	0xbb75b244	-0.0037490288
46	0xbc4c5d11	-0.012473361
47	0xbd36ddd9	-0.044645164
48	0xbd1291b0	-0.03578347
49	0x3bfde0e3	0.007747756
50	0x3cfd2b77	0.030904515
51	0xbc8ab070	-0.016929835
52	0xbd04dcec	-0.03243725
53	0xbd10b9e1	-0.035333518
54	0xbd3b69a0	-0.04575503
55	0xbce276cf	-0.027644543
56	0xbca047c9	-0.01956548
57	0xbd8684ba	-0.06568284
58	0x3bc94cc9	0.0061431867
59	0xbbe81e3c	-0.0070836823
60	0x3d134a00	0.035959244
61	0xbafc90a3	-0.0019269179
62	0xbb91bf01	-0.0044478183
63	0xbc8141a1	-0.015778365
64	0xbcbc5425	-0.022989342
65	0x3d21c3de	0.039493434
66	0x39954826	0.0002847325
67	0x3cceb56c	0.025232993
68	0xbc30a4d3	-0.010781485
69	0xbd31dead	-0.04342525
70	0xbcfabcd0	-0.030607611
71	0xbd43c6a5	-0.047796864
72	0xbd12ddbd	-0.035855997
73	0x3cbe4e52	0.023230705
74	0xbccf5cca	-0.0253128
75	0x3d95474f	0.07288992
76	0x3d0c226f	0.034212526
77	0x3d7944ad	0.06085651
78	0x3c00bdf0	0.007857785
79	0x3d398c14	0.045299605
80	0x3d149370	0.03627342
81	0x3d5f5e45	0.05453326
82	0x3d71aaea	0.059000887
83	0x3cf65598	0.030070111
84	0x3d431ba4	0.047633782
85	0x3d4f51bf	0.05061507
86	0x3c2a3ea9	0.010390916
87	0x3c927b3a	0.017881025
88	0x3c2ec3d8	0.01066681
89	0x3ce2d37f	0.02768874
90	0x3c4d78be	0.012540994
91	0xbba142c8	-0.004921291
92	0x3cb74d36	0.022375684
93	0x3c99f3be	0.018792983
94	0xbc62cd40	-0.013842881
95	0x3ca63781	0.020290138
96	0x3cac26e3	0.021014636
97	0x3baeff51	0.0053404947
98	0xbd32519c	-0.04353486
99	0x3c223266	0.009899711
100	0x3cbf20aa	0.023331005
101	0x3bb2c8d1	0.005456068
102	0xbb324fe1	-0.0027208256
103	0xbc913320	-0.017724574
104	0xbd371266	-0.04469528
105	0xbbe5fb09	-0.007018451
106	0xbbb04567	-0.005379367
107	0x3c93860a	0.01800825
108	0x3cc8526b	0.024453362
109	0xbcaa23d4	-0.020769037
110	0x3cf6f35e	0.030145343
111	0x3bd010fd	0.0063496814
112	0x3c4fb809	0.012678155
113	0x3ce79297	0.028268142
114	0x3cb947bd	0.022617215
115	0xbccc6a80	-0.024953127
116	0xbcaa396f	-0.02077934
117	0xbd7f93e2	-0.06239689
118	0xbd1d8ac9	-0.038462434
119	0x3cf612c6	0.030038249
120	0xbc209665	-0.009801482
121	0x3d60e2f7	0.05490395
122	0x3d69a375	0.05704065
123	0x3d06ffa3	0.032958638
124	0x3d58eb10	0.052958548
125	0x3d469026	0.048477314
126	0x3d997aab	0.074941
127	0x3c1be770	0.009515628
128	0x3c4983bb	0.012299473
129	0x3bc58d73	0.006028825
130	0x3cc9e021	0.024643006
131	0x3d02e9a7	0.03196111
132	0xbbcd7204	-0.0062696952
133	0x3cee86ab	0.029116949
134	0xbbd63d1a	-0.0065380456
135	0x3cbcb99d	0.023037726
136	0xbd15c994	-0.036569193
137	0xbac9b5e5	-0.0015389292
138	0xbcb3b457	-0.021936579
139	0xbd02ee06	-0.031965278
140	0xba1d4063	-0.0005998669
141	0xbaa05a4c	-0.0012233942
142	0xbd11dc85	-0.035610694
143	0x3bc9a838	0.0061540864
144	0xbd077aa1	-0.033075932
145	0x3b375e68	0.0027979854
146	0x3c9bbb72	0.01901028
147	0x3bdd9782	0.006762446
148	0x3d12a313	0.03580005
149	0x3cfd765b	0.030940225
150	0xbd6074a2	-0.05479873
151	0xbc1bc0c8	-0.009506412
152	0xbc8d0d40	-0.017218232
153	0xbcb02722	-0.021503035
154	0xb9837462	-0.0002507298
155	0xbb2ee4f3	-0.0026686757
156	0xbcbf2e8f	-0.02333763
157	0x3cb33625	0.021876404
158	0x3d617fa5	0.055053372
159	0x3c82c171	0.01596138
160	0x3d387535	0.045033652
161	0x3cea89bf	0.028630136
162	0x3d6c2fa4	0.05766262
163	0xbce4a35e	-0.02790993
164	0x3d032e63	0.03202666
165	0xbd0d04ac	-0.034428284
166	0xbc1ade5f	-0.009452431
167	0x3ce9353b	0.028467765
168	0x3c52a184	0.012855891
169	0x3c72cc11	0.014819161
170	0x3cde58cd	0.027141953
171	0xbc0f7eee	-0.00875829
172	0x3c7c749f	0.015408664
173	0x3adf4877	0.0017035146
174	0x3d363023	0.0444795
175	0x3ca6e402	0.020372394
176	0x3b598d10	0.0033195652
177	0x3cc65676	0.02421115
178	0xbb96abbe	-0.00459811
179	0xbc0f8633	-0.008760023
180	0x3d124ef4	0.035719827
181	0x3c18557e	0.009297727
182	0x3d3d64b6	0.046238624
183	0x3cc36b97	0.023855014
184	0x3c99dd8f	0.018782405
185	0x3c8e7d9c	0.01739388
186	0xbc5dcb93	-0.013537305
187	0x3d343055	0.043991406
188	0x3cbf2c44	0.023336537
189	0xbc80744a	-0.015680451
190	0xbc8f6621	-0.017504754
191	0x3bf81ced	0.0075718076
192	0xbc606a92	-0.013697283
193	0xbd1167fc	-0.035499558
194	0x3a30d199	0.00067450997
195	0x3c7cc628	0.0154281035
196	0xbb0b27b9	-0.0021233393
197	0x3d186291	0.037203375
198	0x3c93b174	0.018028952
199	0x3d183d4d	0.037167836
200	0xbd4f37e0	-0.050590396
201	0xbc40c0b1	-0.011764691
202	0x3d5092d4	0.050921276
203	0x3d8a1d63	0.06743886
204	0x3d9d16e6	0.07670383
205	0xbc92fdab	-0.017943224
206	0xbcd56db4	-0.026053287
207	0x3ad91a57	0.0016563636
208	0xbb89ce22	-0.004205481
209	0x3cb01037	0.021492107
210	0x3d28daef	0.041224416
211	0x3b72c69a	0.0037044645
212	0xbb6ebeeb	-0.0036429714
213	0x3d323edf	0.04351699
214	0x3c124f61	0.008930058
215	0x3d11f18e	0.035630755
216	0x3d08ba35	0.033380706
217	0x3b201e32	0.002443206
218	0xbcbb5b48	-0.022870675
219	0x3cf1b092	0.02950314
220	0x3cee1656	0.029063385
221	0x3c7f1f75	0.015571465
222	0x3c8448b7	0.016147954
223	0x3cd58de5	0.026068637
224	0xbc804fc8	-0.015663043
225	0xbbabe4b9	-0.0052457717
226	0xbd45334c	-0.048144624
227	0xbd8d5c70	-0.06902397
228	0xbd501768	-0.050803572
229	0x3ba8b7f3	0.0051488816
230	0x3c17edda	0.009273017
231	0x3b17f795	0.0023188342
232	0xbb9a285c	-0.0047045182
233	0xbc5b58bb	-0.013387854
234	0xbd6228ad	-0.055214573
235	0xbbe7d732	-0.007075214
236	0x3cf2a7cf	0.029621033
237	0x3cb6ad47	0.022299422
238	0xbd05a78b	-0.032630485
239	0x3bb357b0	0.0054730996
240	0xbb4f878b	-0.0031666483
241	0x3d47b080	0.048752308
242	0x3ca7ca50	0.020482212
243	0xbcd28c9e	-0.025701817
244	0x3c2804a2	0.010255011
245	0x3cd21467	0.025644494
246	0x3ced0ca3	0.02893669
247	0x3bf4feb8	0.007476654
248	0xbd345bf1	-0.044032995
249	0xbc99fda2	-0.0187977
250	0xbc54a8f0	-0.012979731
251	0xbc6c0226	-0.014404809
252	0x3c54fe24	0.013000045
253	0x3c4ae508	0.012383707
254	0xbc42dfe6	-0.011894202
255	0x3b0418f0	0.0020156465

bias f4 [18]
0	0x3c2550f1	0.010090099
1	0xbb8ef478	-0.004362639
2	0x3ce69f9b	0.028152278
3	0xbc0835d3	-0.008313614
4	0x3c1d2f6f	0.009593829
5	0xbc9bcfb3	-0.019019937
6	0xbc8ae44a	-0.01695456
7	0x3c2dc50c	0.010606062
8	0xbbdf4550	-0.0068136826
9	0x3ceaeb8f	0.028676776
10	0xbcf0ea56	-0.029408615
11	0xbb6b4dd3	-0.003590454
12	0x3d0b9141	0.03407407
13	0xbaa32bbc	-0.0012448947
14	0xbc9aa46b	-0.018877229
15	0xbce6405d	-0.028106863
16	0xbce97360	-0.028497398
17	0x3b41e4c2	0.0029585813

weight f4 [18]
0	0x3f7391d0	0.9514437
1	0x3f81e61a	1.0148346
2	0x3f82e907	1.0227364
3	0x3f73ad42	0.95186245
4	0x3f81e2a7	1.0147294
5	0x3f7f4b5f	0.9972438
6	0x3f7a88ab	0.9786479
7	0x3f849793	1.0358757
8	0x3f83fb0e	1.0310991
9	0x3f7588af	0.9591169
10	0x3f83f059	1.0307723
11	0x3f8208c3	1.0158924
12	0x3f86aadb	1.0520891
13	0x3f82f613	1.0231346
14	0x3f7cf5e4	0.988127
15	0x3f7959c5	0.974026
16	0x3f7e5bbc	0.99358726
17	0x3f82a020	1.0205116

bias f4 [18]
0	0xbd47692a	-0.048684277
1	0xbd8003b6	-0.06250708
2	0xbd6bf2e8	-0.0576047
3	0xbdf00a1b	-0.117206775
4	0xbda8a36d	-0.08234296
5	0xbddd4aa5	-0.10805253
6	0xbdd9f6a9	-0.1064275
7	0xbd9d98cf	-0.076951616
8	0xbda65065	-0.08120803
9	0xbc44f593	-0.01202144
10	0xbcf30585	-0.029665718
11	0xbd166607	-0.036718395
12	0xbd014894	-0.031563357
13	0x3c13b890	0.009016171
14	0xbd7cbfb0	-0.061706245
15	0xbc6d4cfd	-0.0144836875
16	0xbce7e2b4	-0.028306343
17	0x3ca5da31	0.020245643

running_mean f4 [18]
0	0x4011b1b6	2.2764716
1	0xbfbf088d	-1.4924484
2	0xbff819bc	-1.9382854
3	0x3f83832d	1.0274407
4	0x3e51e2e5	0.2049671
5	0xbf9c7692	-1.2223685
6	0xc0082cff	-2.1277463
7	0xc006bbe1	-2.1052172
8	0xbffef2ea	-1.9917881
9	0xbc405f54	-0.011741478
10	0xbf7c660c	-0.9859321
11	0xc0581511	-3.3762858
12	0xc05b509e	-3.4267955
13	0xbe7571ec	-0.23969239
14	0x3e0ab81f	0.13546799
15	0x3f95d079	1.1704246
16	0x3fd4525a	1.6587632
17	0xbf9f0004	-1.242188

running_var f4 [18]
0	0x4054e2f3	3.326352
1	0x3fede585	1.8585669
2	0x406a874f	3.6645086
3	0x3f7fdc63	0.9994566
4	0x3f84a765	1.0363585
5	0x3fe62841	1.7981035
6	0x40679fc8	3.6191273
7	0x40930184	4.593935
8	0x40082d62	2.12777
9	0x3f887a28	1.0662279
10	0x3ff3943c	1.9029613
11	0x404afc95	3.1716664
12	0x4085dd90	4.183296
13	0x3fb6a3ad	1.42687
14	0x3fbfcdc8	1.4984674
15	0x3fe7c1de	1.8106039
16	0x409b46cb	4.8523917
17	0x3fdaa255	1.708079

weight f4 [6, 18, 5, 5]
0	0xbd76daa1	-0.060267095
1	0xbc07b766	-0.008283472
2	0xbb0ee889	-0.0021806082
3	0x3cd3df38	0.025863275
4	0x3c870095	0.01647977
5	0xbc8d0b16	-0.0172172
6	0x3c075707	0.008260495
7	0xbd893147	-0.06698852
8	0x3a448b0f	0.0007497528
9	0x3bda7a6b	0.0066674254
10	0xbcded43f	-0.027200816
11	0xb8e85879	-0.000110791014
12	0x3d1b0b14	0.03785236
13	0x3d8cab0a	0.068685606
14	0x3d86d87f	0.06584262
15	0x3c0a0be9	0.008425691
16	0x3d12bd7a	0.03582523
17	0x3cc62b6e	0.02419063
18	0x3cd95f45	0.026534686
19	0x3d19a6d4	0.037512615
20	0xbd40fec9	-0.047117982
21	0xbcd0fae4	-0.025510259
22	0xbc1dc302	-0.009629013
23	0xbd3593ea	-0.044330515
24	0xbc73df30	-0.014884755
25	0x3d8f8c11	0.070091374
26	0x3cbdecf5	0.023184279
27	0xba84f4da	-0.0010143772
28	0x3dd76e6d	0.10519109
29	0x3d8b25d7	0.06794327
30	0xbd4efc93	-0.050533842
31	0x3c02fa9c	0.00799432
32	0xbc0df69b	-0.008664752
33	0xbc9ee03a	-0.019394029
34	0x3c5ebedb	0.013595308
35	0xbd1f7cd4	-0.038937405
36	0xbd013c04	-0.031551376
37	0xbce4677e	-0.02788138
38	0xbd2af1c6	-0.04173448
39	0xbd912906	-0.07087903
40	0xbc0d5ab0	-0.008627579
41	0xbc38dcbf	-0.011283099
42	0xbd0a378f	-0.03374439
43	0x3c8d65a0	0.017260373
44	0xbcb97401	-0.022638323
45	0x3c8df85f	0.017330347
46	0x39cf89d1	0.00039584798
47	0x3d30f538	0.04320261
48	0x3d2d01b8	0.042237967
49	0x3dae4323	0.08508899
50	0x3d208035	0.039184768
51	0x3c06ed7b	0.008235331
52	0xbc8ecad5	-0.017430702
53	0xbcee1dd6	-0.029066961
54	0xbd960b38	-0.073263586
55	0x3c8d30d8	0.017235205
56	0x3b23430e	0.0024911794
57	0xbd2f3efa	-0.04278467
58	0x3cb7a30c	0.022416614
59	0x3bfa8468	0.0076451786
60	0x3a3b5165	0.00071456126
61	0x3d549dc7	0.05190828
62	0xbd0979ad	-0.033563305
63	0xbbaa3a55	-0.005194942
64	0x3c9ac11b	0.018890908
65	0xbd406f1a	-0.046980955
66	0xbbf22e4e	-0.007390774
67	0xbd76c7d5	-0.06024917
68	0xbd84469a	-0.06458779
69	0xbd0625d9	-0.032750938
70	0xbd6cec06	-0.057842277
71	0xbd5d3938	-0.054009646
72	0xbb9573e5	-0.004560935
73	0xbd4dd3d9	-0.05025086
74	0x3c488b17	0.012240193
75	0x3cc21ae3	0.023694461
76	0x3caec5dc	0.021334581
77	0xbbcf023c	-0.006317405
78	0x3d5e693d	0.05429958
79	0x3d1b6ac3	0.037943613
80	0xbd427658	-0.047476143
81	0xbd11f33d	-0.03563236
82	0xbd170633	-0.036871146
83	0xbc54dfa0	-0.0129927695
84	0xbd5435b6	-0.051809035
85	0x3d00a756	0.031409584
86	0xbb5fee08	-0.0034168977
87	0x3d3ebfec	0.04656975
88	0x3cef39c6	0.029202353
89	0x3c73ee9b	0.014888431
90	0xbceeef3b	-0.029166808
91	0xbca9a9c9	-0.020710843
92	0xbd0b03f4	-0.033939317
93	0xbd61059c	-0.05493699
94	0xbdef4730	-0.116835
95	0xbc9949a0	-0.018711865
96	0x3c8edb6d	0.017438615
97	0x3c61c6fd	0.013780353
98	0x3cc5de3d	0.024153823
99	0xbaccae99	-0.0015615999
100	0x3c17ff33	0.009277153
101	0x3aa15ecc	0.0012311577
102	0x3ba46381	0.0050167446
103	0x3d2e4414	0.042545393
104	0x3a6ee09f	0.00091124506
105	0xbd260f54	-0.04054196
106	0xbc6d7143	-0.014492336
107	0xbb351aec	-0.0027634455
108	0xbcf0f369	-0.029412942
109	0xbd84cbb8	-0.06484169
110	0xbd889cf2	-0.0667056
111	0xbd2cd8cd	-0.042198945
112	0xbda7728a	-0.081761435
113	0xbdcad9af	-0.09904801
114	0xbd80b70e	-0.06284915
115	0xbcce2e64	-0.025168605
116	0xbc851b08	-0.016248241
117	0xbce42ec7	-0.027854336
118	0xbd1de621	-0.038549546
119	0xbc6d6de0	-0.014491528
120	0xbc45b2c3	-0.012066546
121	0x3c81487f	0.01578164
122	0x3a06774c	0.0005129471
123	0x3ccf1bd5	0.025281826
124	0x3d257d08	0.040402442
125	0xbd53cb23	-0.0517074
126	0xbc862310	-0.016374141
127	0xbc4a6e64	-0.012355421
128	0xbd2438c8	-0.040093213
129	0xbdc55c4a	-0.09636743
130	0xbd4db5c7	-0.050222185
131	0xbd9e890d	-0.07740984
132	0xbdb48abd	-0.08815525
133	0xbd2ddde9	-0.04244796
134	0xbd46a02b	-0.04849259
135	0xbce764f8	-0.028246388
136	0xbd44448f	-0.047916945
137	0xba7913fc	-0.0009501574
138	0xbd00d30a	-0.031451263
139	0xbd2f81a2	-0.042848237
140	0x3b54be1f	0.0032461954
141	0x3d5a972c	0.053366825
142	0x3cddcf2c	0.027076326
143	0x3bf98208	0.007614378
144	0x3c9f0b49	0.01941456
145	0x3caee6fc	0.021350376
146	0xbcda63db	-0.026658943
147	0x3cf28787	0.02960564
148	0x3cba35c4	0.022730716
149	0xbc831b4c	-0.016004227
150	0xbc5229c3	-0.01282734
151	0xbbc0e667	-0.005886841
152	0x3ca3837b	0.019960156
153	0xbd1fc1ea	-0.03900329
154	0xbd5615d9	-0.05226693
155	0xbc21445c	-0.009842958
156	0x3ce06114	0.02739004
157	0xbd4e974d	-0.05043726
158	0x3b857400	0.004072666
159	0xbdada57c	-0.08478829
160	0xbbc968af	-0.0061465125
161	0x3d1ab841	0.037773374
162	0x3d608c1c	0.05482112
163	0x3da0e149	0.0785547
164	0x3d6777dc	0.05651079
165	0x3d57eaec	0.052714273
166	0x3c750c5a	0.014956558
167	0x3d5d6251	0.05404884
168	0xbc165eb0	-0.009177849
169	0x3d6f9c12	0.05849845
170	0x3d8bd058	0.06826848
171	0x3d6f431d	0.058413614
172	0xbb119ed8	-0.0022219922
173	0x3da543a7	0.08069544
174	0x3d97e075	0.07415859
175	0x3cd4f4c1	0.025995614
176	0x3ca2444a	0.019807953
177	0xba886a90	-0.0010407735
178	0x3d1ef7ff	0.038810726
179	0xbd135b09	-0.03597549
180	0x3d221315	0.03956898
181	0xbb2f3952	-0.0026737046
182	0xb9cd9ca6	-0.0003921736
183	0x3d644d58	0.055737823
184	0xbaf6160e	-0.0018774883
185	0xbd82f9d8	-0.0639531
186	0xbc626939	-0.013819032
187	0xbd92b1be	-0.07162808
188	0xbce36adb	-0.027760914
189	0xbd961215	-0.073276676
190	0x3cc9364b	0.024562022
191	0x3b91a8d2	0.004445174
192	0x3cb0e1eb	0.021592101
193	0x3d997107	0.074922614
194	0x3b28731a	0.0025703372
195	0x3d8c945c	0.06864235
196	0x3ce6de32	0.028182123
197	0xbb047234	-0.0020209672
198	0x3d117ece	0.03552132
199	0x3d501d5c	0.05080925
200	0xbc6a5295	-0.014301916
201	0x3ca00f1e	0.019538458
202	0xbc53d89c	-0.012930062
203	0x3d409876	0.047020398
204	0x3c2244b6	0.009904077
205	0xbd5eeae0	-0.054423213
206	0xbcb21745	-0.021739611
207	0x3c75edaa	0.015010277
208	0xbbcebf73	-0.0063094436
209	0x3c00838f	0.007843866
210	0xbd7c1ce5	-0.061550993
211	0xbd6a4304	-0.057192817
212	0xbd58589a	-0.052818872
213	0xbd3bfec7	-0.04589727
214	0xbd7f09da	-0.062265255
215	0x3cfea549	0.031084673
216	0x3c7c23c7	0.015389389
217	0x3cfe2722	0.03102452
218	0x3c922456	0.017839592
219	0x3b93fb08	0.0045160092
220	0x3cfdc694	0.030978478
221	0xbd2461a9	-0.0401322
222	0xbce6f824	-0.028194495
223	0xbc128b38	-0.008944325
224	0xbd594759	-0.053046558
225	0x3c95e474	0.018297412
226	0xbcb6b86a	-0.022304732
227	0x3c924a8c	0.017857812
228	0x3b15c4bd	0.002285286
229	0x3c906169	0.017624574
230	0xbbbbdf48	-0.0057334043
231	0xbc514a39	-0.012774044
232	0xbb94ff6b	-0.0045470498
233	0x3caeb8d9	0.021328377
234	0xbc81e915	-0.015858212
235	0xbd816923	-0.06318881
236	0x3c7d738c	0.015469443
237	0xbd168700	-0.03674984
238	0xbc73a461	-0.014870734
239	0xbd47e0e0	-0.048798442
240	0xbc91deff	-0.017806528
241	0x3d204f10	0.0391379
242	0xbc4a9cf0	-0.012366518
243	0x3d57d991	0.052697722
244	0xbd4343b2	-0.04767198
245	0xbd5221a7	-0.051301625
246	0xbc262f1b	-0.010143067
247	0xbc9b73e7	-0.018976165
248	0xbcaf0c54	-0.021368183
249	0x3da6aae2	0.08138062
250	0x3cf1e770	0.029529303
251	0x3ce88474	0.028383471
252	0x3a888618	0.001041594
253	0x3d04dd39	0.032437537
254	0x39eb6ba2	0.00044902886
255	0x3d27bd0e	0.04095178

bias f4 [6]
0	0xbd18b6e6	-0.0372838
1	0x3cb89c27	0.022535397
2	0xbce507cd	-0.027957821
3	0x3cf7161a	0.030161906
4	0x3d63a231	0.0555746
5	0x3d465bac	0.04842727

weight f4 [6]
0	0x3f7d69c9	0.9898954
1	0x3f769887	0.9632649
2	0x3f86373f	1.048561
3	0x3f826856	1.0188091
4	0x3f6e7f4a	0.9316298
5	0x3f871494	1.0553155

bias f4 [6]
0	0xbdca55f6	-0.09879677
1	0x3d10d80c	0.03536229
2	0xbd830d75	-0.06399051
3	0xbc8dc153	-0.017304098
4	0x3c3c41cc	0.011490297
5	0xbd757cb7	-0.05993339

running_mean f4 [6]
0	0xbf80da7b	-1.0066675
1	0xbedefe9e	-0.43553632
2	0xbfa115d1	-1.2584783
3	0xbe115a3f	-0.14194582
4	0x3dc6711f	0.09689545
5	0x3c4c55e7	0.012471653

running_var f4 [6]
0	0x3ed258e4	0.41083443
1	0x3f3f8eb1	0.74827105
2	0x3fe4ae47	1.7865685
3	0x3f9ee8d0	1.2414799
4	0x3f0cd5c3	0.55013674
5	0x3f0e224c	0.5552108

weight f4 [1, 6, 5, 3]
0	0xbd34822a	-0.044069447
1	0xbaedf26e	-0.0018153915
2	0xbd4671e8	-0.048448473
3	0x3d855df2	0.06512059
4	0x3c23e7ba	0.010003978
5	0x3dad14ae	0.0845121
6	0xbdb94c2a	-0.0904773
7	0xbd05185d	-0.032493938
8	0xbe047819	-0.12936439
9	0xbc5b7a65	-0.01339588
10	0xbc613df6	-0.013747683
11	0x3b413e9b	0.0029486779
12	0x3c57520b	0.013142119
13	0x3d121fd4	0.035674885
14	0x3b0566f8	0.0020355564
15	0xbdaa62b8	-0.0831961
16	0xbc821f03	-0.015883928
17	0xbd9d7dee	-0.07690035
18	0x3da4ae29	0.08041031
19	0xbc7de4cb	-0.015496443
20	0x3d08472f	0.03327101
21	0x3d6fc109	0.058533702
22	0x3d1238a0	0.035698533
23	0x3d2ff9d4	0.042962864
24	0x3d746a04	0.059671417
25	0x3d1643b4	0.03668566
26	0x3d4083e2	0.047000773
27	0x3ccd3bfc	0.025053017
28	0xb8e269aa	-0.00010796201
29	0x3cfe482f	0.03104028
30	0xbdc759f3	-0.09733953
31	0xbda345d7	-0.07972305
32	0xbd58a280	-0.052889347
33	0xbdfda9a5	-0.12385873
34	0xbdd23c1e	-0.10265373
35	0xbd89afec	-0.067230076
36	0x3e3b7f8f	0.18310378
37	0x3e0a892d	0.13528891
38	0x3d8b09dd	0.06788991
39	0x3d3d57a8	0.046226174
40	0xbc4fc005	-0.012680058
41	0xbcd402bc	-0.02588021
42	0x3cd3a86f	0.025837151
43	0x3ca04280	0.01956296
44	0x3dbceee1	0.0922525
45	0xbd1d8de0	-0.03846538
46	0x3d407e90	0.0469957
47	0x3d2d3c4f	0.042293843
48	0x3c52f1d8	0.012875043
49	0x3d5a08a1	0.053230885
50	0x3c5be129	0.013420382
51	0x3d9d077e	0.07667445
52	0xbcc7da04	-0.02439595
53	0xbd282fea	-0.04106132
54	0x3ce057ec	0.027385674
55	0x3d55ce1e	0.05219852
56	0x3d40911f	0.0470134
57	0xbe0488e4	-0.12942845
58	0xbccf0a5e	-0.025273498
59	0xbe18e9bb	-0.14932911
60	0xbc93516c	-0.01798316
61	0x3c1d2be3	0.009592983
62	0xbcd86f3c	-0.026420228
63	0xbc4eaf5a	-0.012615049
64	0xbbc783cd	-0.00608871
65	0x3d4e3973	0.050347757
66	0x3e05f3ce	0.13081285
67	0x3d6a21d6	0.057161175
68	0x3deb891c	0.11500761
69	0xbcdb1c92	-0.026747022
70	0xbd119fb2	-0.035552688
71	0x3d17e284	0.037081257
72	0x3c849198	0.016182706
73	0x3c803e1b	0.015654614
74	0x3c9706ab	0.018435797
75	0xbe20f023	-0.15716605
76	0x3bd1bd3a	0.0064007314
77	0xbe244f70	-0.16045928
78	0x3dafd522	0.08585574
79	0x3b513328	0.003192136
80	0x3d9ecee9	0.07754309
81	0xbd3e3196	-0.046434008
82	0xbc083461	-0.008313269
83	0xbd33aeb8	-0.043867797
84	0xbd5dacc5	-0.054119844
85	0xbc67d993	-0.014150995
86	0xbd3e4780	-0.046454906
87	0x3d14e855	0.03635438
88	0xbb6a2069	-0.0035724884
89	0x3ba3ebe6	0.0050024865
