source/models/MelodyTimbreCNN/model_256_25_0.002_attempt3.pth (torch, 201935 bytes, 26 tensors)

weight f4 [6, 1, 5, 5]
000000 d9 49 cf bd a0 15 f9 3d 3e 86 20 be c7 c5 96 bd
       -0.10121507 0.12162328 -0.1567621 -0.07361942
000010 fa 82 69 3e 30 6b 0a 3e b2 26 09 be b5 8f 57 3e
       0.2280387 0.13517451 -0.13393667 0.21050914
000020 4f 43 63 3e f8 6b 49 3d d9 50 a4 bd 61 13 1e 3e
       0.22193645 0.049175233 -0.08023233 0.1543708
000030 00 ee 08 be 4a 07 f7 bc 99 2d a4 3d b5 7c c5 bc
       -0.1337204 -0.030154843 0.080165096 -0.024107317
000040 0c fa d3 bd 16 0f 85 3d 62 53 ec bd 08 6c 09 be
       -0.10350427 0.06497018 -0.115393415 -0.13420117
000050 12 3f d7 bd 1a 54 85 3d 02 6c 65 3d a0 5a e1 bd
       -0.105100766 0.06510182 0.056011207 -0.110036135
000060 72 78 3a be 8e 34 26 be 50 8c d2 bc 9b 28 fe bd
       -0.18210009 -0.16230986 -0.025701672 -0.12410089
000070 fb fb bc 3d 8e e8 4e 3d a4 ed 28 3e 90 36 44 3e
       0.09227749 0.05051475 0.16496903 0.19161439
000080 c2 b8 9f bd 1a 3c 08 be ce a2 18 3d e6 88 7b 3d
       -0.07798912 -0.13304177 0.037264638 0.061409853
000090 2b e1 01 be 57 75 01 3e c4 ed 17 3e 36 78 08 be
       -0.12683551 0.12642418 0.14836794 -0.13327107
0000a0 33 22 f8 3c 59 fc 82 bc 2c c9 42 be d4 8f ea bd
       0.030289745 -0.01598947 -0.19022053 -0.11453214
0000b0 c9 f6 7f 3e 03 95 4b 3e c4 63 32 bd 9c ae 12 be
       0.24996485 0.19881062 -0.043552175 -0.1432442
0000c0 18 1b 84 3d 99 48 2d 3e a1 09 ff 3a 2c 66 0a be
       0.0645048 0.16922225 0.0019457826 -0.13515538
0000d0 4d 30 1f be 37 26 4e be 39 59 a3 bd f9 ac 5e 3d
       -0.15545769 -0.20131765 -0.07976002 0.05436418
0000e0 c7 02 21 3e 6d a5 01 3e 5d 4f 46 3e b2 32 6d 3d
       0.15723716 0.12660761 0.19366212 0.057909675
0000f0 f4 3d a5 bc 4f 00 05 3e c5 fd b1 3b 8e 6e 5a bd
       -0.020171143 0.12988399 0.005431863 -0.05332809
000100 b8 48 16 be 4c 34 a3 3c 2c 2d 54 be 8c 41 e8 ba
       -0.14676178 0.019922398 -0.20720357 -0.001771973
000110 e7 82 ca 39 7b b6 88 bd 45 d5 7e bd 1c 0f 99 bd
       0.00038625972 -0.066754304 -0.06221511 -0.07473585
000120 4b 2b 79 3d 4f ab 3c 3e a4 11 0a 3e 89 c7 c7 bd
       0.060832303 0.18424724 0.13483292 -0.09754855
000130 98 ea 65 bc 14 e9 27 bd 9e 93 c2 3d f8 91 c2 3d
       -0.014032982 -0.040993765 0.09500812 0.095004976
000140 c1 f2 44 be 38 4d 57 3e 93 a8 d6 bd 46 65 3f be
       -0.19233228 0.2102555 -0.10481372 -0.18690977
000150 8a d6 d7 3d de 79 f7 3d cb 73 dc bd 14 a2 d9 bd
       0.10538967 0.12083791 -0.10764273 -0.10626617
000160 6b 5e d3 bd 45 d6 60 3e 20 c9 07 3e 96 77 22 be
       -0.10320743 0.21956737 0.13260317 -0.15865931
000170 f8 a5 76 bb 65 8c 1f 3e af e6 22 3e 0b f9 ff bd
       -0.0037635546 0.155809 0.15908311 -0.12498673
000180 b4 76 7e bd c6 ef 88 3d 9d e8 a9 3d 83 9c 03 3e
       -0.062124923 0.06686358 0.082963206 0.12852673
000190 b1 9b 31 be 6f fc 9c bd 07 4c 5d 3c 0c 84 96 bd
       -0.17344548 -0.076653354 0.013506896 -0.07349405
0001a0 1f 23 b8 bc 66 fe e9 3d 31 67 23 3e 5b 50 3c 3e
       -0.022477685 0.11425476 0.15957333 0.18390028
0001b0 30 f6 0f 3c 07 86 b3 3d 55 a7 40 3e 36 78 96 bd
       0.008786723 0.08765798 0.18813832 -0.07347147
0001c0 20 af 76 3e 89 21 41 3d 67 a2 8b 3e bd 1a 59 bc
       0.24090242 0.047151122 0.2727234 -0.013251004
0001d0 28 e0 69 3e 4b 55 ef bd b7 d3 29 3e b6 8b 02 3e
       0.22839415 -0.1168619 0.16584669 0.12748608
0001e0 4e 31 df 3d a2 7a 54 be 29 a1 40 bd 66 ba e7 bd
       0.10898076 -0.20749906 -0.047028694 -0.113148496
0001f0 35 9b 4a bc f1 13 f8 3c b1 f4 f4 bd d6 84 b9 3d
       -0.012366106 0.030282946 -0.11960734 0.090585396
000200 d9 41 0d 3e e0 33 3d 3d 17 97 0d be 5f d7 0b be
       0.1379465 0.04619205 -0.13827167 -0.13656376
000210 99 4a 16 3e ac dc 12 3d 65 ce 8e 3d 68 e3 06 3e
       0.14676894 0.03585498 0.069729604 0.13172686
000220 3d 4a 6e be cd 95 06 bc 56 15 ec 3b 9f 3c 6c be
       -0.23270507 -0.008214426 0.007204692 -0.2307
000230 67 7d 38 3e 6e a1 88 3d 1a 3b a2 3b a6 36 05 bc
       0.18016587 0.06671415 0.004950893 -0.008130705
000240 2f c8 47 be 9c ce 5d 3e d4 1a 46 bd b6 37 13 3e
       -0.19509958 0.21660846 -0.04836543 0.14376721
000250 12 1c b7 b8 7b 9b e0 3d
       -8.7313485e-05 0.109671555

weight f4 [6]
000000 39 4f 80 3f 44 ad 7e 3f 59 76 88 3f 4d 2a 83 3f
       1.0024177 0.9948313 1.0661117 1.0247284
000010 43 8b 69 3f 69 2d 7d 3f
       0.9122812 0.98897415

bias f4 [6]
000000 29 bb 0c 3c 71 da 66 be c8 9f fa bb b4 ae a9 bd
       0.008589544 -0.22544266 -0.007648442 -0.08285275
000010 ae ed f9 bd f4 a9 bc bd
       -0.12203537 -0.092121035

running_mean f4 [6]
000000 1e 7f c2 3b c1 ff d1 ba 42 a9 5b bb 66 f8 bb ba
       0.0059355637 -0.0016021655 -0.0033517634 -0.0014340996
000010 9c bf 80 3b 7e bf d9 ba
       0.0039290916 -0.0016612855

running_var f4 [6]
000000 91 3e 9f 3d 49 2c e8 3d ac 52 04 3d 1b d6 35 3e
       0.077756055 0.11336572 0.032305405 0.17757456
000010 a7 6a 7f 3f f8 46 d3 3d
       0.99772114 0.103162706

weight f4 [18, 6, 5, 5]
000000 09 5c 56 bd c2 2f 93 bd 86 b8 fc bd 46 06 90 bd
       -0.052333865 -0.071868435 -0.123398826 -0.070324466
000010 df 28 e6 3d cf 86 5f 3d 69 3e 2b bd 7d d9 89 3d
       0.11238264 0.054571923 -0.041807566 0.06730936
000020 d5 5e 1b bd a6 86 99 3c 01 d8 d9 3b ed 2f cc bd
       -0.037932236 0.018740963 0.006648064 -0.099700786
000030 fb 4f 97 bd 09 90 6e bb a1 0b 7f 3b b6 eb 14 bc
       -0.07388302 -0.003640177 0.0038916843 -0.009089401
000040 ea 29 4c 3d d1 18 5e 3d 77 03 8b 3c 9c 65 f8 bb
       0.04984466 0.054222886 0.016969426 -0.007580472
000050 f6 c7 65 bc dc d9 4b 3d fb 30 fb 3d 8e a0 99 3d
       -0.014024725 0.049768314 0.12265202 0.075013265
000060 75 43 5c bc d9 bb 99 3d 45 3c b1 bd de 18 7a 3c
       -0.013443817 0.07506532 -0.086540736 0.015264718
000070 f2 4b b8 3d 33 da 77 bc 5c 0d 6d 3d da e8 0d bd
       0.089988604 -0.015127706 0.05787407 -0.034645893
000080 3c b0 a0 3d 06 52 d9 bc 23 e5 0a bb e3 35 b4 3c
       0.07846114 -0.02652837 -0.0021193705 0.021998351
000090 eb 6c b8 bc 8f 4b 05 3e 64 9f b6 b9 80 d4 ec 3d
       -0.022512874 0.13017105 -0.000348325 0.11563969
0000a0 c6 bc 92 3c ba de b5 bc 69 55 f6 3d 20 02 4a bc
       0.01791228 -0.02220093 0.120280094 -0.012329608
0000b0 09 6c d0 3d 10 00 a2 bd 69 6c d8 bd 1f 53 5b bc
       0.10176856 -0.07910168 -0.105675526 -0.013386517
0000c0 2e 97 d2 bd 3d 77 a7 bc 95 b6 de 3c ea 99 31 3d
       -0.102827415 -0.0204426 0.027186671 0.043359675
0000d0 07 18 6d bd 3d 0b 64 3d 35 af 9a 3d f0 79 b9 3c
       -0.057884242 0.05567478 0.07552949 0.022641152
0000e0 55 7e 52 bd 5d f9 28 bd c0 01 7d bc ff 0c b4 3c
       -0.05139001 -0.041253436 -0.015442312 0.021978853
0000f0 af c6 7c bd b3 d1 fe bc a6 1d 78 3d ad fd 6b bd
       -0.061712917 -0.031105852 0.06057515 -0.05761497
000100 f4 70 e2 bd 84 3c 0e bc 2f d4 ae 3c c5 fc 5d 3d
       -0.110567 -0.00868142 0.021341411 0.054196138
000110 b5 81 67 3d 2b 26 9e bd b4 ee 8a 3d f4 70 28 3c
       0.056520183 -0.07722124 0.0678381 0.010280836
000120 1f 67 79 3d f0 cc b8 3c 2f 08 81 3d 67 6a 61 bd
       0.06088936 0.02255866 0.06300389 -0.055033114
000130 1e 9c b0 bb 46 b9 2c bd af 08 21 bd b1 15 cc bb
       -0.0053897044 -0.042168878 -0.039314922 -0.0062281718
000140 aa 50 78 39 06 7e b2 bd 86 e6 7d 3d 76 d7 93 bd
       0.00023681173 -0.08715443 0.061987422 -0.0721883
000150 d1 af d6 bc d6 e1 5e 3d 81 0d 83 bd 0f c6 c3 3d
       -0.026206883 0.054414593 -0.0639906 0.09559261
000160 a5 5d 08 be 16 fb f0 bc 1d 90 9e bb 96 f2 63 3d
       -0.13316973 -0.029416602 -0.004838957 0.05565127
000170 53 63 1b 3e ac 62 3c be a0 e3 90 bc d9 9f 30 bd
       0.15174608 -0.18397015 -0.017686665 -0.043121193
000180 fa 51 82 bd f8 27 ab 3c 84 f5 8e bd 51 44 a5 bd
       -0.06363292 0.020893082 -0.06980422 -0.08069671
000190 11 02 81 bd a7 47 9a bd 57 ca 9a 3c d2 cf a6 bd
       -0.06299222 -0.07533198 0.018895311 -0.08145107
0001a0 28 04 a2 3d ef ca 53 bd 89 c1 b1 3b 48 40 cc bb
       0.07910949 -0.051707204 0.0054246825 -0.006233249
0001b0 54 6e 1e bd 30 77 0c 3c 4e a8 22 3d 1a 3e 8e bc
       -0.038679436 0.008573338 0.03971129 -0.017363597
0001c0 03 1b 5e bd e5 db 43 3d 2f d4 68 3c c3 c3 16 bd
       -0.05422498 0.04781713 0.014210745 -0.036807787
0001d0 d6 90 33 bd 6a 58 21 bd 8c 21 d0 bb a0 c4 34 3d
       -0.0438393 -0.03939096 -0.0063516553 0.04413283
0001e0 88 25 77 bd de b7 0f bd 02 cb c7 3d 48 cc 8e bd
       -0.060338527 -0.03508746 0.097555175 -0.06972557
0001f0 e2 b5 be 3c a3 f6 e3 bc 3c 3d a1 3d d2 8a 95 bd
       0.023280088 -0.027827566 0.07873008 -0.073018685
000200 79 97 b1 bd a0 eb bd 3c c3 c6 95 bd 8e 11 40 bd
       -0.08671469 0.023183644 -0.073133014 -0.04689174
000210 18 49 17 bd 57 bc a6 bc cf 08 a5 3c 6a c8 c0 bb
       -0.036934942 -0.02035348 0.020145802 -0.005883266
000220 04 ee 99 3d db 8f 81 3d ad 8b ed bc 38 e6 63 3d
       0.07516101 0.063262664 -0.028997267 0.055639476
000230 71 ee 4d bd 92 d4 1e bb 88 46 6f 3d 2c b9 06 3d
       -0.050276224 -0.0024235588 0.058416873 0.032891437
000240 57 c3 05 3e 49 5a 8a 3d 71 9d 15 3d 17 7c 69 39
       0.13062797 0.06755502 0.0365271 0.00022266839
000250 b8 ef 7b bd 22 a7 17 3d 84 e7 ce bc fd 08 34 3d
       -0.06150791 0.037024625 -0.02525688 0.043953884
000260 c1 64 ce ba fa b3 bb 3d ff 99 c4 3d 05 8c 65 bd
       -0.001574658 0.09165187 0.09599685 -0.056041736
000270 ae d7 5f 3d fb 08 94 3c 29 8a 95 3d c1 45 99 bc
       0.054649048 0.018070688 0.073017426 -0.018710019
000280 8b 2a f4 bd f3 51 62 bd 7f b9 4a 3d 97 5e 8a bc
       -0.11922177 -0.055253934 0.04949331 -0.016890807
000290 7a 50 0c 3c 62 c8 99 bc 0c d2 2a bd b1 63 da bb
       0.008564109 -0.018772308 -0.041704223 -0.006664716
0002a0 0d f2 40 bc f9 9b b1 3c d3 ac 27 be 88 2a 2e be
       -0.011776459 0.021680819 -0.16374521 -0.17008412
0002b0 1b 45 38 be b1 63 3d be 34 bf c4 bd 9a 88 ab 3d
       -0.17995112 -0.1849506 -0.096067816 0.08375664
0002c0 35 5c a4 3d df df 0b 3b ff eb 38 3c 7e fb 98 bd
       0.080253996 0.0021343154 0.011286735 -0.07469843
0002d0 6e fb 76 3d 3a c3 c7 bc 78 6c 0a 3e 9d 38 13 3d
       0.060298376 -0.024385083 0.1351794 0.035942663
0002e0 df 57 c2 3c db 80 99 3d 71 16 9d bd 0d df bf bc
       0.02372354 0.0749528 -0.07670296 -0.023421789
0002f0 aa a6 49 3c 00 92 06 3c f8 48 30 3c 00 16 7e 3d
       0.012307802 0.00821352 0.010759585 0.0620327
000300 9d 9c 93 3d 3c 74 f6 bc 85 64 2a 3a bd 60 40 3d
       0.07207606 -0.030084722 0.0006499964 0.046967257
000310 63 8d fa bc 35 35 37 bb 19 87 88 bd 91 ef c3 bd
       -0.030584997 -0.0027955298 -0.06666393 -0.09567178
000320 94 32 61 3d 41 e3 d2 bd 7e 01 8d 3d 26 6d 5b 3d
       0.054979876 -0.102972515 0.0688505 0.05357089
000330 24 5c 1b 3c f0 cb e5 3c 6c 23 3a 3c 0e 64 0b bd
       0.009482417 0.028051347 0.011360984 -0.034030966
000340 fc e4 73 3d b5 4a 0d bc 1f 88 8d bd d8 85 e2 bb
       0.05954455 -0.008623769 -0.06910729 -0.006912928
000350 2e 10 5c bd 29 5c b2 bd 13 bc 66 bd bb 6c bf 3c
       -0.053726368 -0.087089844 -0.056331705 0.023367276
000360 0d 59 31 3d 57 83 0d bc bb a9 0e 3d a8 21 00 3e
       0.043297816 -0.008637271 0.034829836 0.12512839
000370 d2 fd 35 bb b1 c0 5a 3d 4b 6a 3d 3d ed ff 3e bd
       -0.0027769697 0.05340642 0.046243947 -0.04663079
000380 c1 f4 95 3d 8f bb 79 bd 17 69 49 bd 79 bb a7 bd
       0.07322074 -0.060969885 -0.049172487 -0.081900544
000390 26 a9 f8 bd a7 c5 cb bd e4 48 bb 3d 93 f7 07 3d
       -0.121416375 -0.099498086 0.09144762 0.03319509
0003a0 40 c6 71 3d 61 4b 65 bc 2f f9 1f bd 43 9d 11 3e
       0.059026957 -0.0139950225 -0.039056 0.14220147
0003b0 a0 57 d7 bd 44 86 59 bd 13 01 95 bc a6 75 89 bd
       -0.1051476 -0.05310656 -0.018188989 -0.06711893
0003c0 a0 94 01 3e 69 65 53 bd 22 d2 74 bd 12 d3 6d bd
       0.12654352 -0.051610384 -0.05977071 -0.05806262
0003d0 c7 8d b0 bc 62 07 3c 3d 67 1e d9 bd fd 0a 8f 3c
       -0.02155198 0.04590548 -0.10601502 0.017461294
0003e0 86 3c 34 3c 99 3d 18 3c 95 b5 fe bd 23 84 db bd
       0.011000758 0.00929203 -0.12436978 -0.107185625
0003f0 57 b0 23 3d 6d e5 50 bd 4c 25 66 3c 39 af 92 3d
       0.039963093 -0.051000047 0.014046978 0.07162327

weight f4 [18]
000000 83 4e 84 3f 5f 6e 8b 3f 5c 73 80 3f 8c dc 7c 3f
       1.033646 1.0893058 1.0035205 0.9877403
000010 51 4f 6d 3f a8 bf 80 3f 59 6b 68 3f 87 42 84 3f
       0.9269915 1.0058489 0.907888 1.0332803
000020 17 84 85 3f a3 6c 7f 3f 6d 85 74 3f 27 56 80 3f
       1.0430936 0.9977514 0.9551609 1.0026292
000030 b4 e6 83 3f 88 81 6b 3f bd 0a 84 3f ae f8 7f 3f
       1.030478 0.91994524 1.0315777 0.9998883
000040 55 ef 87 3f 44 1b 85 3f
       1.0619913 1.0398946

bias f4 [18]
000000 c4 97 05 be c3 aa 9a bd f9 15 2d be 53 99 ae bc
       -0.13046175 -0.075521015 -0.16902913 -0.021313345
000010 a9 7b 4a be 90 33 ce bd a7 f2 f8 bd cd 71 02 be
       -0.19773735 -0.100684285 -0.12155657 -0.12738724
000020 3a 8d 4e bb 2b 9b bc bd 63 d4 b7 3b 8f a8 04 bd
       -0.0031517283 -0.092092834 0.0056100353 -0.032387313
000030 69 7b 02 bd 53 26 0b be 41 b4 04 be 3f e9 86 bd
       -0.031855974 -0.13588838 -0.12959386 -0.06587457
000040 02 5d 37 bd fb 4b 4a be
       -0.044766434 -0.19755547

running_mean f4 [18]
000000 f6 05 89 bd b4 d4 1b bf 4f 04 3a bf 26 0e 2b bf
       -0.0669059 -0.60871434 -0.72662824 -0.66818464
000010 99 0b c7 3e 3f 13 17 bf df 03 24 3f 21 47 77 be
       0.38876036 -0.5901374 0.64068407 -0.24148227
000020 b7 ab f5 be 16 3a 0e bf 77 c4 aa 3e 58 83 32 bd
       -0.4798257 -0.5555738 0.33353016 -0.04358229
000030 2b eb 5e bf 32 6e 65 3f 7a 83 a8 bf 50 b5 a5 bd
       -0.8707759 0.8962127 -1.3165123 -0.08091223
000040 18 e0 40 bf 54 13 36 bf
       -0.7534194 -0.7112324

running_var f4 [18]
000000 97 99 6f 3e ef 46 24 3f 1a d9 0a 3f 81 15 3c 3f
       0.23398434 0.64170736 0.5423752 0.7347031
000010 ee d2 cc 3e d0 97 38 3f 5f db 7d 3f 9d 91 05 3f
       0.40004677 0.7210665 0.9916286 0.52175313
000020 a8 d6 90 3f 3a 10 f8 3e d0 59 c3 3e b5 18 b5 3e
       1.1315508 0.4844988 0.3815446 0.35370412
000030 01 dd 0f 3f b5 11 59 3f 6b 64 46 3f a1 3c ef 3e
       0.561966 0.84792644 0.77496976 0.46725944
000040 24 dc 09 3f e3 63 50 3f
       0.5385153 0.81402415

weight f4 [45, 18, 5, 5]
000000 98 e7 52 3d 91 b1 66 3c d1 cc 8e bc 09 5c 0d bd
       0.051490396 0.014080421 -0.017431648 -0.0345116
000010 9f 52 91 bd ca ea f9 bc 17 fe 61 bd 15 10 00 bd
       -0.07095837 -0.030507464 -0.05517396 -0.031265337
000020 06 f4 a5 3c f3 4a 3e bd ef 33 f2 3d 32 17 66 bc
       0.020257961 -0.046458196 0.11826312 -0.014043616
000030 cd fa 8e bd f3 b6 82 3b 78 a7 98 3c 88 76 2a 3d
       -0.0698143 0.0039890944 0.018634543 0.041616946
000040 d0 fc d3 3c aa b4 06 bd 70 67 db 3d be 9c be 3c
       0.025877386 -0.03288714 0.107130885 0.0232681
000050 10 30 1a 3b c6 a9 1d bd 8a 76 fd 3b 04 d7 de bc
       0.0023527183 -0.038491987 0.007735078 -0.027202137
000060 c3 a1 ea bc 56 93 f2 bd fa ac d2 bb 1f 93 35 3b
       -0.028641587 -0.11844508 -0.006429312 0.00277061
000070 89 67 05 bc f2 a0 6e bd 68 ef 53 bc fd 68 c6 3c
       -0.0081423605 -0.05825896 -0.012935497 0.024219984
000080 cc 0a 7e bc 90 aa 06 bd b5 4b e9 3d 2c 47 0f bd
       -0.015505504 -0.032877505 0.11391393 -0.034979984
000090 f5 ac 8b 39 56 44 37 bd 8a be 46 bd 74 b7 01 3b
       0.0002664101 -0.044742905 -0.048521556 0.0019793184
0000a0 81 e3 1c bc 48 76 f0 3d e5 ab d4 3c ac 0f 17 3d
       -0.0095757255 0.1174131 0.025960872 0.03688018
0000b0 4d c3 ab 3d 57 9b 29 bd 57 ca 59 3d 14 c4 d8 bc
       0.0838686 -0.04140791 0.053171482 -0.026460685
0000c0 d0 05 4f bd 6b 9e cc bc ac 2e 93 3b 8a e2 eb 3c
       -0.050542653 -0.024977883 0.0044916477 0.028794546
0000d0 28 67 ff 3c 57 1f 92 bb 58 35 51 3c 87 3c 17 bd
       0.031177118 -0.0044593024 0.012769066 -0.036922958
0000e0 10 11 39 bd 5f 7d 1b 3d 1f 8b f4 bc 28 40 16 bd
       -0.045182288 0.03796136 -0.029851494 -0.036682278
0000f0 5d 87 e6 bc 5f a8 6c 3c 23 35 66 bd f2 1d 99 bd
       -0.028140718 0.01444444 -0.05620302 -0.07476415
000100 a8 1b 04 bd 3a 63 c7 ba 9e e7 e9 bc b9 4e 10 3d
       -0.032252938 -0.0015212067 -0.028552826 0.035231326
000110 bc 77 bb 3c 89 a6 ae 3d 9f 44 2e 3d 63 61 7e bc
       0.022884242 0.08527858 0.04254591 -0.0155261485
000120 f7 db 95 bc 6f d2 3c bd f7 2b 54 3c 99 09 a6 3c
       -0.018293364 -0.046099123 0.012949935 0.020268248
000130 40 5e 19 3c 50 47 2c bb 9f 2d 35 bc 55 83 bc 3d
       0.00936085 -0.0026287623 -0.01105824 0.09204737
000140 e6 85 18 3d c7 84 3d 3c d0 5f 32 bb 75 5f f3 3b
       0.03723707 0.011567301 -0.0027217753 0.007427151
000150 7a c0 34 bc 65 a8 a8 3c f8 9a 2f 3d 94 43 83 bd
       -0.011032218 0.02058811 0.0428724 -0.06409374
000160 4f 36 bf bc 9b 54 75 3c c9 20 31 3d f2 8a d3 3c
       -0.023341326 0.014973785 0.043244157 0.02582309
000170 5f 5c 5d 3d ea 83 b8 3d 24 a6 44 bb 93 88 29 bd
       0.05404317 0.090095356 -0.0030006254 -0.041390013
000180 21 fa 69 ba d8 42 64 3c e1 ab bb 3c 26 0b 76 3c
       -0.0008925517 0.013931952 0.022909107 0.015017306
000190 45 d4 3f 3d 7f 76 87 3d b2 30 4b bc 33 e3 83 3d
       0.046833295 0.06614398 -0.012401747 0.06439819
0001a0 bc 23 32 3d 51 db 2e bd 54 e7 22 bd 41 98 44 bd
       0.04349111 -0.042689625 -0.039771393 -0.047996763
0001b0 21 5e b1 bd d7 ec be bd 51 12 77 3c bf 70 5b bd
       -0.08660532 -0.09322517 0.015080051 -0.05357432
0001c0 3b 9d f8 bc 26 f7 07 bd 1e aa 60 3d a3 36 b4 bc
       -0.03034841 -0.033194683 0.054849736 -0.021998709
0001d0 48 74 0c bd 9f 59 a1 bc f0 99 9c 3d d1 cf ed 3c
       -0.034290582 -0.019696055 0.07646549 0.029029759
0001e0 9f 19 f9 bd 97 34 12 be 72 ff df bd 4d 88 d7 bd
       -0.1216309 -0.14277874 -0.10937394 -0.10524044
0001f0 3b 4d 6e bd 46 68 53 3d b2 25 85 3d f8 5f 2d 3d
       -0.05817912 0.051613115 0.065013304 0.04232785
000200 bd f8 d3 3c 20 2d c8 3c 24 1d ae bd 3b 5b 1f bc
       0.025875444 0.02443558 -0.08501652 -0.009726341
000210 b2 70 b9 3c 06 03 0d bd c0 06 46 bd bf 4e 11 3d
       0.022636745 -0.03442671 -0.04834628 0.03547549
000220 62 27 87 bc e7 93 30 bd 49 a8 4e bc 93 6a 21 3d
       -0.016498271 -0.0431098 -0.0126133645 0.039408278
000230 f4 5e 5d bd b3 a0 7f 3b f5 51 d6 3c 6d 82 9a bc
       -0.054045632 0.0039005696 0.026162127 -0.01886102
000240 e4 60 20 bd 66 df b0 bc 75 80 2d bc d9 31 c7 3b
       -0.039154902 -0.0215909 -0.010589709 0.0060789404
000250 1a fd cb bc e6 aa 58 bc 9f 48 55 bb 91 cc dc bc
       -0.024900962 -0.013224339 -0.0032544506 -0.026953014
000260 e4 ed 56 bd 0f c9 98 bd 50 e3 80 bd 73 45 89 3d
       -0.052472964 -0.07460224 -0.062933564 0.067026995
000270 8e 3e b2 3c c9 f6 90 bc f6 2a 0b 3d 76 47 87 3d
       0.021758344 -0.017695801 0.033976518 0.06605427
000280 da 79 d9 3b 85 1f 88 bd 57 de d9 bc 71 03 32 3d
       0.0066368403 -0.06646637 -0.026595278 0.043460313
000290 47 eb 62 3d 2b 62 9e bc b4 c2 89 bd 28 03 29 bd
       0.05540016 -0.01933392 -0.0672659 -0.041262776
0002a0 87 16 ce 3b a6 3c ba bb 49 ed 66 bd a3 24 7e 3b
       0.0062893066 -0.0056834994 -0.056378637 0.0038779161
0002b0 43 17 5f 3d 32 45 ad 3c 24 22 91 bd e3 ff 76 bc
       0.054465543 0.021151159 -0.0708659 -0.015075657
0002c0 7d 0f cb bd 01 70 09 bd f1 0e c3 bc d5 09 83 bd
       -0.099150635 -0.03355408 -0.023810836 -0.0639836
0002d0 7a 19 85 3c 8f 8e 9f bb 0a 01 8f 3d 6a 75 09 3d
       0.0162475 -0.004869289 0.0698262 0.03355924
0002e0 21 58 00 3c ce c5 da bb 1f ce 32 3d fc 0f 1f 3d
       0.007833512 -0.006676412 0.043653604 0.038833603
0002f0 44 96 69 3d e2 9b 4c 3d 81 9f f0 bb b3 86 bc bb
       0.05702807 0.04995335 -0.007343233 -0.005753362
000300 d7 a1 df 3c 94 c5 3a 3d 03 d8 4f bd 97 39 aa 3c
       0.027298851 0.04559858 -0.050743114 0.020779414
000310 ac ee 6e 3c bc 57 04 3d 02 6c 15 3d 64 c6 c4 3c
       0.014583271 0.032310233 0.036479957 0.024020381
000320 0d f0 e2 bc d0 5c 13 3d d1 49 31 bd 1c 20 8b 3d
       -0.027702356 0.035977185 -0.043283287 0.06793234
000330 f8 6f 60 3d bf 45 25 3d a1 47 94 bc 94 a7 85 3d
       0.05479428 0.04034972 -0.018100562 0.065261036
000340 f2 b8 36 3e 16 b4 07 3e c0 71 33 bc 81 3e 9a 3d
       0.17843989 0.13252291 -0.010952413 0.07531453
000350 09 3a 1c bb b0 e1 1e 3c 70 f3 c9 3d c5 c5 aa bb
       -0.0023838303 0.009697363 0.09860885 -0.0052115642
000360 b1 3e 64 3d 3d dd 45 bc b4 f8 db ba 50 c7 2e bd
       0.05572385 -0.012076673 -0.0016782493 -0.042670548
000370 95 d6 f7 bd bc 3a 2f bd 4a 51 ed 3c 27 a3 22 bd
       -0.12101475 -0.042780623 0.028969426 -0.039706375
000380 af f4 89 bd c1 a5 3c 3c 68 15 4e bd 25 a2 c6 b9
       -0.06736123 0.011514128 -0.050313383 -0.0003788631
000390 4a 14 f3 bc 78 bd b7 3c ff 7b 63 3d c7 7a 96 3d
       -0.02967276 0.022429213 0.055538174 0.07347637
0003a0 f3 2c 5a 3d a3 23 cb 3d f1 79 ba 3b 88 ec c0 3c
       0.053265523 0.099189065 0.005690806 0.023550287
0003b0 2c da 60 bd 3b e7 42 ba 37 d0 46 3d 55 b9 26 3d
       -0.054895565 -0.0007434969 0.048538413 0.04070409
0003c0 12 3e 81 3d 7f 7b 61 3c 18 5e c2 3d 85 96 80 3d
       0.06310667 0.013762354 0.09490603 0.06278709
0003d0 2d 48 c7 3c 9c e0 89 bd ef 64 e9 bd af aa 20 bc
       0.024326408 -0.06732294 -0.11396205 -0.009806319
0003e0 38 78 47 bd 04 90 30 bd 62 bf 29 bc 8d e8 2c 3d
       -0.048698634 -0.043106094 -0.010360571 0.042213965
0003f0 f6 6c 31 ba 74 75 f4 3b fe cc bc 3d d9 af 49 3c
       -0.00067682506 0.0074602906 0.09218787 0.012309992

weight f4 [45]
000000 07 78 84 3f 23 1a 7c 3f 4f c8 73 3f d6 2d 7b 3f
       1.034913 0.9847738 0.9522752 0.98116815
000010 ba 64 8b 3f 03 47 84 3f 3b d4 82 3f fa 6d 85 3f
       1.0890114 1.0334171 1.0221018 1.0424187
000020 47 fc 82 3f ab db 85 3f c3 97 82 3f 92 9c 73 3f
       1.0233239 1.0457662 1.0202564 0.9516078
000030 40 2d 76 3f 07 c9 7d 3f bd 6e 7f 3f 3c a6 8d 3f
       0.96162796 0.9913487 0.9977835 1.1066356
000040 d4 85 74 3f 4f da 76 3f cc 15 70 3f 0a 52 7f 3f
       0.95516706 0.9642686 0.9378326 0.99734557
000050 c7 43 7f 3f 26 45 69 3f be ca 90 3f 70 8f 7f 3f
       0.99712795 0.9112114 1.1311872 0.99828243
000060 8a 6d 77 3f 3e 04 78 3f 66 8c 75 3f f7 fa 74 3f
       0.9665152 0.96881473 0.95917356 0.9569544
000070 fc f7 62 3f 2b bc 78 3f a7 cd 70 3f 32 ea 85 3f
       0.88659644 0.9716212 0.940638 1.0462096
000080 cf 8d 6b 3f 0f be 8d 3f 4b a4 79 3f e2 11 80 3f
       0.9201326 1.1073626 0.97516316 1.0005457
000090 de 95 77 3f 17 42 7c 3f 80 b7 84 3f 67 85 7a 3f
       0.96713054 0.98538345 1.03685 0.97859806
0000a0 a1 78 84 3f 40 89 7c 3f b7 eb 7b 3f 54 48 7c 3f
       1.0349313 0.98646927 0.9840655 0.98547864
0000b0 b3 88 80 3f
       1.0041717

bias f4 [45]
000000 64 a5 93 bd 35 3d 1e be 4c 79 23 be be ff 22 bd
       -0.0720928 -0.15453036 -0.1596424 -0.039794676
000010 4e 73 8e be fa 3f 60 bd 3e e6 19 be 51 88 93 bd
       -0.27822345 -0.054748513 -0.15029237 -0.07203735
000020 7d df d2 bd 1e cd 1f be 53 09 02 be c7 89 11 be
       -0.10296533 -0.1560559 -0.1269887 -0.14212714
000030 b1 1c 10 be 7d d9 1c be 7e 17 39 be cb 61 2c be
       -0.14073445 -0.1531734 -0.18075368 -0.1683418
000040 3e 4c d1 bd bf 53 4d be a1 fa 87 be 53 f8 06 be
       -0.1021962 -0.20051478 -0.26558402 -0.13180666
000050 f6 f9 25 be 23 53 b0 bd ae c3 20 be d9 4a ba bc
       -0.16208634 -0.08609607 -0.15699646 -0.022740768
000060 56 c5 1d be 00 37 70 bd df 39 d6 bd 7e cb d3 bd
       -0.15407309 -0.058646202 -0.10460257 -0.103415474
000070 bf 8e 8d be 36 17 98 3c 33 c8 f9 bd c7 cf 6a be
       -0.2764797 0.018565755 -0.12196388 -0.22930823
000080 d3 4e a2 bd 39 03 0e be 34 b6 d5 bd 6a 41 1b be
       -0.07925191 -0.13868417 -0.10435143 -0.15161672
000090 c0 8f 30 be 10 b1 62 be 73 78 93 bd 2f 8d 3a be
       -0.17242336 -0.22137856 -0.07200708 -0.1821792
0000a0 2d fe 0c be 51 9a 9b bd 53 a3 3c be f7 58 ec bd
       -0.13768835 -0.07597793 -0.18421678 -0.11540406
0000b0 90 43 23 be
       -0.15943742

running_mean f4 [45]
000000 2d 5d 3e 3f 56 07 c5 be e6 01 82 3e 33 ea 59 3d
       0.74360925 -0.3848216 0.25392073 0.053201865
000010 d0 75 d4 bd 9d d2 04 c0 8c dc 74 3e 90 e0 b8 be
       -0.103740335 -2.0753548 0.23912257 -0.36108828
000020 83 06 e5 bf 35 8c e9 3f 7c 9d ba bf 16 08 8a 3f
       -1.7892612 1.8245913 -1.457931 1.0783718
000030 63 28 bb be 13 c6 b2 bf d4 e1 b9 be 8c 98 04 c0
       -0.3655425 -1.3966697 -0.36305106 -2.0718107
000040 a0 bb 50 bf da c8 7f 3f 28 1e 3c bf 4f a0 ba bf
       -0.81536293 0.9991585 -0.73483515 -1.4580172
000050 c6 e8 bc 3e 5d 41 eb bf c2 7f 7c bf 56 73 df bf
       0.36896342 -1.8379322 -0.9863244 -1.7457073
000060 fd 94 59 3e 35 24 76 bd 1a 3f 0c bf 0f 63 26 bf
       0.21248241 -0.060093123 -0.54783785 -0.649949
000070 46 7c 0d be 4a c7 72 be 30 c2 9f be b7 7f 32 bf
       -0.13816938 -0.23708835 -0.3120284 -0.6972613
000080 70 b1 c5 be 3b 39 8b 3e dc 0b 01 40 1a fa f5 bf
       -0.38611937 0.271921 2.0163488 -1.921695
000090 ea 7a 0d bf 6b bc 63 3f 35 ed cb bf cb 15 31 3f
       -0.55265677 0.8895938 -1.5931765 0.6917388
0000a0 b1 a4 a7 bf fa 63 be be f9 44 f6 3f 08 36 35 bf
       -1.3097135 -0.3718565 1.9239799 -0.7078557
0000b0 1d 4a 9f 3e
       0.3111123

running_var f4 [45]
000000 78 8f ac 3f 39 46 a2 3f d9 c7 32 3f e0 6a 95 3f
       1.3481283 1.267768 0.69836193 1.1673241
000010 9b de 21 3f 66 d5 aa 3f 81 31 ab 3f 06 6c 6c 3f
       0.63230294 1.3346374 1.3374482 0.9235233
000020 b1 fd 36 3f 8a 12 a9 3f b3 c6 8d 3f 2d a6 79 3f
       0.7148085 1.3208783 1.1076263 0.9751919
000030 4c 8a 9b 3f 95 c0 8a 3f ff 00 60 3f 76 22 af 3f
       1.215158 1.0840021 0.8750152 1.3682392
000040 eb dc ad 3f 05 23 54 3f 3c 7b 9b 3f 28 e8 32 3f
       1.3583044 0.82865936 1.2146983 0.6988549
000050 c2 10 a0 3f db 77 8d 3f 37 4b c4 3f c9 ab d7 3f
       1.2505114 1.1052202 1.5335454 1.68493
000060 b1 3a cb 3f d6 22 71 3f 65 0b 8d 3f 0f be c5 3f
       1.5877286 0.9419378 1.1019102 1.5448626
000070 3a fe a2 3f a2 27 a2 3f bd 37 91 3f 9d 72 43 3f
       1.2733834 1.2668345 1.1345135 0.7634676
000080 88 7c b5 3f 85 a7 82 3f c8 59 81 3f c1 75 bb 3f
       1.4178629 1.0207373 1.0105524 1.4645311
000090 f6 3c 97 3f 6f 20 8d 3f 49 94 05 40 f2 48 d4 3f
       1.1815479 1.1025523 2.0871756 1.6584761
0000a0 df bb 66 3f 66 06 83 3f 67 8a 8f 3f 80 b5 26 3f
       0.9013042 1.0236328 1.1214112 0.651207
0000b0 e0 0b 5e 3f
       0.8673687

weight f4 [18, 45, 5, 5]
000000 d2 c0 5f 3d 94 fb 52 3c e3 93 f5 bb ad ae e5 3b
       0.054627247 0.012877364 -0.007494436 0.0070093484
000010 a9 40 f4 3c 80 b4 0c bc b2 09 88 bc 66 9a 57 bd
       0.029815989 -0.008587956 -0.016606186 -0.05263748
000020 05 3d 8e 3b 0a 82 4b 3b 26 b6 f9 3c e0 9e 18 3c
       0.00434077 0.003105285 0.030482363 0.0093152225
000030 d1 ae 94 3b de 43 f8 3c e8 23 d3 bc 8a c8 21 bc
       0.0045374413 0.0303058 -0.025773957 -0.009874472
000040 b1 7c 2a bd f6 d0 11 bc 85 cd 16 bd 53 e2 4e ba
       -0.04162282 -0.008899918 -0.036817092 -0.00078920013
000050 a4 e0 1b 3b bd 4b e7 3b 0e f5 8a bc 5a d6 f9 3c
       0.002378502 0.0070585893 -0.016962554 0.030497719
000060 ec 10 68 bd bd f8 3c 3d e0 80 3c 3d 44 73 8a 3d
       -0.056656763 0.046135653 0.046021342 0.067602664
000070 5a 87 be 3d 48 29 ad 3d d7 03 89 3d 71 7c 39 3d
       0.0930316 0.084551394 0.066901855 0.045284692
000080 c2 32 19 bd 4d cd 3c bd a7 68 b2 3c 64 ab 53 3d
       -0.037401922 -0.046094228 0.021778418 0.051677123
000090 7d ac a9 3a 84 b7 3a bd 4a 5c 54 3d f7 b8 41 3d
       0.0012945082 -0.04558517 0.051845826 0.047295537
0000a0 0e 1e 69 bd 1c 40 5c bd f1 8f 95 bd 56 64 1d bc
       -0.056913428 -0.053772077 -0.07302845 -0.0096064415
0000b0 43 64 d9 bc d5 4d 9a 3d c8 83 3f 3d 1c ce 4e 3b
       -0.026537066 0.075343765 0.046756536 0.0031555956
0000c0 57 7d 12 3d 06 b9 62 3d 10 d4 b2 bd 95 e7 9f bd
       0.035764065 0.055352233 -0.08731854 -0.07807843
0000d0 ff f9 4a bd e0 8c f3 bd 7a 55 65 bd e0 b6 37 3c
       -0.04955482 -0.11892104 -0.05598972 0.011213034
0000e0 a8 0c 4b bb 2b 09 73 3c 62 c5 81 3c 55 ca 07 bc
       -0.0030982886 0.014833729 0.01584119 -0.008287986
0000f0 18 f1 99 bc ef 8f e7 3b e8 fb 42 3b bb 4a 1c bd
       -0.01879172 0.007066719 0.0029752199 -0.038157206
000100 a5 24 3e 3d 22 6d 36 3b 0c 8f c6 bb c5 27 cb 3c
       0.046421666 0.0027836044 -0.006059533 0.024799237
000110 97 7c b9 3a ea 66 84 3c a3 58 3c 3c 52 89 9f bc
       0.001415151 0.016162354 0.011495742 -0.01947466
000120 04 6d 35 bd 0e 7a 36 3c 75 b7 9f bc 30 e3 ac 3c
       -0.04429342 0.011137499 -0.019496659 0.021104425
000130 7c 5c 88 bb 8b 5d d0 bb 46 c4 46 39 0c 84 8e 3c
       -0.0041614156 -0.0063588074 0.00018955869 0.01739695
000140 35 2a c7 bc c6 42 41 bd 45 26 9e bc b4 41 42 bc
       -0.024312118 -0.04718282 -0.019305358 -0.011856485
000150 62 c2 dc bb 6e 1e ab 3b 1c da 21 bd 0b c4 6b bc
       -0.0067370394 0.0052221334 -0.039514646 -0.014390002
000160 75 ce 5f 3c 59 2b 25 3c 3c c3 d0 bd 88 22 8d bd
       0.013660063 0.010081136 -0.10193488 -0.06891352
000170 0c 90 f5 bd 16 15 03 be b7 1c 95 bd 7b 21 10 3d
       -0.119903654 -0.12801012 -0.072808675 0.03518818
000180 c1 87 39 3d 83 e4 16 3d 84 e8 14 3d 4a 8c 4f 3d
       0.04529548 0.03683902 0.036354557 0.0506709
000190 71 8f 07 3c 0b b8 76 bc e3 3f 44 3d 5c 73 2c 3d
       0.008273945 -0.015058528 0.04791249 0.042102203
0001a0 02 bc 75 3c a5 76 f6 bc 7e 92 49 bc 27 f7 2f 3c
       0.014998438 -0.030085871 -0.012302993 0.010740078
0001b0 ac 80 0c 3d a8 bb 77 3d c6 ab 9b 3c 77 1f be bc
       0.0343024 0.060481697 0.019002806 -0.023208363
0001c0 cd 14 24 bd 1f 25 5a bd 74 75 cd bb 95 5a e8 3c
       -0.0400589 -0.053258058 -0.006270105 0.028363505
0001d0 ee 62 3f 3c d6 e3 54 3b 35 1c f7 bc a4 c0 8b bc
       0.0116813015 0.0032484434 -0.030164817 -0.017059632
0001e0 e2 7a 18 bd 84 e9 1a 3d a5 87 71 3d bb ca 99 bb
       -0.037226565 0.037820354 0.05896725 -0.004693357
0001f0 7a 17 3c bd 77 c8 85 3c 1f a2 3e 3d 86 b4 cd 3d
       -0.045920826 0.01633094 0.04654133 0.10044198
000200 a6 e9 18 3c c0 aa a3 3d 58 b7 2f 3d 25 45 d8 bc
       0.00933305 0.07991552 0.04289946 -0.026400158
000210 a1 81 12 bd 83 20 ca 38 02 8a 28 bc 5d 5f 9c bc
       -0.035768155 9.6381664e-05 -0.01028681 -0.019088442
000220 01 9f 63 3d c2 e2 4f 3c 2d b6 a7 bc 01 38 70 3c
       0.05557156 0.012688341 -0.02047261 0.01466179
000230 4d 12 d4 bc d6 eb 5a bd f7 82 26 bd 9a f8 fa bb
       -0.025887633 -0.053447567 -0.04065224 -0.00765903
000240 a7 ed 30 3d 3a a7 c1 bc 37 b9 8c bc c1 b1 c9 3c
       0.043195393 -0.02363931 -0.017178161 0.024620892
000250 b2 ce 96 3b f8 b0 85 3d 96 3b 21 3d d5 19 d0 3d
       0.0046022767 0.06527895 0.039363466 0.10161177
000260 6d 8f e8 3d b5 36 d6 3d 94 1d c0 3d 03 72 3a 3d
       0.11355481 0.10459653 0.093806416 0.045518886
000270 ba d7 e6 b9 1c 14 d7 3c fb 45 25 3d 6f 56 d3 3c
       -0.00044029747 0.026254706 0.04034994 0.02579805
000280 0f 12 f3 3b 96 d1 09 3d d7 2d ed 3b 11 64 1b 3c
       0.0074179242 0.033647142 0.0072381306 0.009484307
000290 c1 d7 cc 3a e5 ee 64 3d fa 0a 14 3d 14 fa fe 3b
       0.0015628265 0.05589189 0.03614328 0.0077812765
0002a0 c6 3a 2e 3c a3 0c 28 bc 06 c0 33 bd bd 4f af bc
       0.01063413 -0.010256919 -0.0438843 -0.021400327
0002b0 e2 80 8a bc b7 b1 33 3d f4 13 2d 3c e5 fa 90 3d
       -0.01690716 0.043870654 0.010563839 0.07079104
0002c0 c9 ca a0 3d a2 3c f3 3d 00 67 7d 3d 25 08 ef 3d
       0.07851178 0.11876799 0.061865807 0.11671475
0002d0 c6 2e ac 3b c8 80 0e bc 5f 66 93 3a 9f ae 2f 3d
       0.0052545993 -0.008697696 0.0011245719 0.04289114
0002e0 87 2f cf 3c a2 53 a6 bc 7e 01 fe 3b 47 cf 4b bd
       0.025291217 -0.020303551 0.0077516427 -0.049758222
0002f0 52 e0 4e bc 02 03 4a 3c 95 a9 2b bd 7b ec bb 3c
       -0.012626724 0.012329819 -0.041909773 0.022939911
000300 48 07 06 3d 71 29 3c bd 79 23 c9 ba f2 dd 10 3d
       0.032721788 -0.04593796 -0.0015345655 0.035367914
000310 25 f6 ad 3b d3 ab f4 bb 9b dd b6 3a 79 52 3a 3c
       0.0053088837 -0.007466772 0.0013951542 0.011372202
000320 23 34 20 3d 45 9b c3 3c 62 fc 54 3c 65 ba b6 bc
       0.03911222 0.02387775 0.012999626 -0.022305677
000330 0d eb 95 bc 43 e6 5c bb 48 2e 84 3d a8 79 bc 3c
       -0.018300558 -0.0033706583 0.0645414 0.023007229
000340 ef 6e ee 3c ea 4d 70 3c c9 4e 4f 3d 34 6c 0d 3d
       0.029105632 0.014667014 0.050612245 0.03452702
000350 d3 5a dd 3c 62 2e 11 3d 85 f1 a2 3d a4 b8 2e 3d
       0.027020847 0.035444625 0.079562224 0.042656556
000360 01 9c 54 3d 50 86 24 3c be 04 51 3c 99 37 9e 3b
       0.05190659 0.010041788 0.012757478 0.004828405
000370 4e 9b cb 3a 09 c6 53 3d cb ed 37 3d aa 64 98 3c
       0.0015533955 0.051702533 0.04490451 0.018602688
000380 b6 a3 6d 3b 11 68 04 3c 8a 18 5f 3c b6 ec 4a 3c
       0.003626091 0.008081452 0.01361669 0.012385538
000390 d6 70 85 3c 9c 6c 12 3c fd 5e 0e 3d 00 6d bc 3c
       0.016289156 0.008937027 0.034758557 0.023001194
0003a0 10 61 24 3d 9c 6e 4b 3d df ae 58 3c e1 60 60 bd
       0.04013163 0.049666032 0.013225286 -0.05477989
0003b0 59 f7 cd 3b 58 e7 3d bc 83 e5 bb 3b 12 18 48 bc
       0.0062855897 -0.011590801 0.005734147 -0.01221277
0003c0 14 fd 67 bd 52 7d f5 bc 61 2b c9 bc 66 7f a3 bc
       -0.05663784 -0.029966984 -0.024556817 -0.01995821
0003d0 1d 2e 17 bd 40 a3 3d 3c 3a 7a a1 3c 0a 53 0f 3c
       -0.03690921 0.011574566 0.019711602 0.008747825
0003e0 3d 7b c0 bc 45 2e 1f 3c db b6 e0 3d 32 99 49 3d
       -0.023496265 0.009715621 0.10972377 0.049218364
0003f0 a7 f3 7c 3d a6 bc 7f 3d 92 35 3e 3d 58 0a 88 3c
       0.061755802 0.06243577 0.046437807 0.016606495

weight f4 [18]
000000 27 76 7c 3f 02 c9 80 3f 3d 47 84 3f 91 4e 70 3f
       0.98617786 1.0061343 1.033424 0.9386988
000010 24 2b 75 3f 59 f3 77 3f 51 3b 77 3f dd c5 83 3f
       0.9576895 0.96855694 0.96574885 1.0294758
000020 d7 c9 7c 3f 64 8d 7a 3f 2d d6 7a 3f db f8 8b 3f
       0.98745483 0.97871995 0.97983056 1.093532
000030 a7 3e 87 3f 60 10 7b 3f 88 eb 82 3f ea d8 7a 3f
       1.0565995 0.9807186 1.0228128 0.97987235
000040 ca f8 7e 3f d0 c4 87 3f
       0.9959837 1.0606937

bias f4 [18]
000000 aa 15 13 bc 38 b7 97 bd f6 1f 0f bd 58 2c 25 be
       -0.008977333 -0.07407993 -0.03494259 -0.16130197
000010 7b 95 83 bd bd 75 4d bd bd cb 95 bd 81 91 24 be
       -0.064249955 -0.050161112 -0.073142506 -0.1607113
000020 08 16 19 be 37 9d c8 3d 92 3e 1e 3c 73 37 47 be
       -0.1494981 0.09795611 0.009658473 -0.19454746
000030 da aa 6d bd 45 01 b7 bd 75 0c 3a bd 53 c9 a0 bd
       -0.058024265 -0.08935789 -0.045422036 -0.078508995
000040 e0 d8 d0 bd 8f fc dc bd
       -0.101976156 -0.10790359

running_mean f4 [18]
000000 31 3c d5 3f 54 8c 38 c0 43 3d 89 c0 df fe d3 3f
       1.6658994 -2.883565 -4.288728 1.6562155
000010 50 2d 6c 3f ab 81 ff bf 18 25 da 3f 7d 43 5f be
       0.9225664 -1.9961447 1.704257 -0.21803088
000020 23 99 94 3f 4c de a3 bf 1a 62 dc 3f 23 62 1d c0
       1.1609234 -1.2802215 1.7217438 -2.4591148
000030 f0 98 01 c0 08 82 84 bf 88 cf ea bf 24 e9 2f c0
       -2.0249596 -1.0352182 -1.8344584 -2.7486048
000040 ba 1e 5f c0 86 6e 25 c0
       -3.4862504 -2.5848708

running_var f4 [18]
000000 bc 1f 8c 40 05 b1 96 40 78 ba 9d 40 3a 16 74 40
       4.378874 4.709109 4.9290123 3.8138566
000010 9c 8e 13 40 44 a8 42 40 04 63 20 40 ec e9 93 40
       2.3055792 3.04152 2.5060434 4.622305
000020 10 c2 08 40 bb 87 12 40 da d5 b8 40 97 85 01 40
       2.1368446 2.2895343 5.776105 2.0237787
000030 16 0a 9a 40 f7 03 20 40 4c 4a 8a 40 c4 f0 8a 40
       4.813731 2.500242 4.3215694 4.3418903
000040 e3 63 89 40 21 71 c9 40
       4.293443 6.2950597

weight f4 [6, 18, 5, 5]
000000 53 8f 86 3c 4d 03 0e bd 6b c9 f2 ba db 59 bd 3b
       0.016425764 -0.034671117 -0.0018523162 0.005778534
000010 9b 25 64 bd 70 13 6f 3b 14 f0 04 3d de 03 56 bd
       -0.055699926 0.0036480092 0.03245552 -0.05224978
000020 3c d8 10 bd d3 6b 3f bd 89 f3 5e 3d 2b 8c ec 3c
       -0.035362467 -0.04673369 0.054431472 0.028875431
000030 3f 1b 96 3d fe a6 b8 3c 42 f3 b0 3d 0c ba e5 3c
       0.073294155 0.022540566 0.08640148 0.028042816
000040 6b 26 61 3d 8f 19 53 3d df bc 96 3c 84 c0 7d bd
       0.05496828 0.051538046 0.018400608 -0.061951175
000050 b5 63 2b bd bf be ef 3c 83 40 3b bd 74 cf 2c bd
       -0.041843135 0.02926576 -0.04571582 -0.04219003
000060 ef 01 a4 bd c2 03 6b 3d 6d 1e 88 3d 3a 26 e2 3d
       -0.08008181 0.05737663 0.06646428 0.110424474
000070 ca 59 79 bc c6 f9 81 3d 52 f5 98 bc 41 5a 97 bc
       -0.015219161 0.063464686 -0.018671665 -0.018475654
000080 ac aa 00 bc 0f fd 6e 3c 1d 1d 79 bd 40 18 9e bd
       -0.007853191 0.014586701 -0.06081878 -0.07719469
000090 4e 64 5a bd 5b de ac bd 47 e9 78 bd f5 db 98 bd
       -0.053318314 -0.084408484 -0.060769346 -0.074638285
0000a0 94 0e 0a 3e 84 02 bf 3c 16 98 e0 3c 1c b0 86 3c
       0.13482124 0.02331663 0.02741627 0.016441397
0000b0 d3 07 e7 3d 8d 14 27 3d 8c d2 81 3c 41 0b 3a 3d
       0.11280789 0.040791083 0.015847467 0.04542089
0000c0 d5 29 aa 3c a3 44 01 bd d7 8e 91 3d d6 a8 25 3d
       0.0207719 -0.031559598 0.07107323 0.040444218
0000d0 f7 57 86 3c 81 7f 83 3d ba e3 20 bd 63 0a e4 38
       0.016399367 0.06420804 -0.039279677 0.00010873822
0000e0 f4 96 35 bb 6a e6 c7 3d e6 27 8d bd 7a dd 9c 3d
       -0.0027708383 0.09760745 -0.06892376 0.07659431
0000f0 2f 86 4a 3d 57 da 66 3d f7 c5 de 3c f3 d7 43 bc
       0.049444374 0.05636057 0.027194006 -0.011953342
000100 28 aa 05 3e c6 dd 95 3c ea e5 8b bb b8 6f 24 3c
       0.1305319 0.018294226 -0.0042693513 0.010036401
000110 64 a4 d1 3c 7b 3e 60 3c 78 74 d0 bd e6 d2 10 bd
       0.025591083 0.0136867715 -0.10178465 -0.03535738
000120 48 e4 11 3c bd 78 a7 3d e8 d7 70 3d 57 8a 0d bd
       0.008904524 0.08177326 0.058799654 -0.03455576
000130 9a 3b 29 ba 78 19 d7 bc 92 46 ab 3c 31 64 71 3c
       -0.00064557197 -0.026257262 0.020907674 0.01473336
000140 30 d3 88 3a bc f3 a2 bc c5 05 6e 3d e0 a5 0d bc
       0.0010438915 -0.019891612 0.05811097 -0.008645505
000150 62 17 db bb 18 c5 bd 3d fd 55 f5 3d 1e 08 de 3b
       -0.006686137 0.09266108 0.119792916 0.00677587
000160 fb cf 19 3d 14 46 12 3d be c6 8c 3c 4e f8 9a 3c
       0.03755186 0.035711363 0.017184611 0.018917229
000170 3e fa b8 bc 52 b5 e3 3c 03 51 d0 bc 9d db 39 bc
       -0.022580262 0.027796421 -0.025429254 -0.011343864
000180 cb da 61 3d 41 9b e2 3c c8 95 07 ba aa 70 40 3c
       0.055140298 0.027661921 -0.00051721605 0.011745611
000190 36 5b 52 bd b4 ef a2 bc fb 8e 52 3c bd 14 0f 3d
       -0.051356517 -0.01988969 0.012851472 0.034931887
0001a0 d1 48 1c bc a0 c3 51 3d 21 ce 4c 3d e4 73 00 bd
       -0.009538845 0.051211953 0.050001267 -0.031360522
0001b0 cd b6 3f bd 90 2f a8 3c f2 6e 51 3d aa b1 01 bd
       -0.04680519 0.020530492 0.051131196 -0.031663574
0001c0 ce c8 19 bd df 62 4a 3d 8f f6 6e 3d cb 30 c9 bd
       -0.037545018 0.049410697 0.058340605 -0.0982376
0001d0 aa 16 d5 bd 65 c6 87 bd 5e e1 33 bd 76 55 7b bd
       -0.104047135 -0.06629638 -0.0439161 -0.0613608
0001e0 98 ef c7 bd eb bb f7 ba c2 24 f4 3c aa 70 08 3b
       -0.09762496 -0.0018900608 0.029802684 0.0020819106
0001f0 2a 33 85 bd a0 f1 c6 3d f6 28 34 bc 8d c7 af 3c
       -0.065038994 0.09714055 -0.010996094 0.021457458
000200 9b f4 f4 3b 57 7c a3 3d f7 1c 49 3d 2a 78 3d 3d
       0.0074754483 0.079827 0.04909989 0.046257176
000210 e7 83 3a 3d ec 3b 77 bd 38 13 c9 bb 0d 2d 1c bd
       0.045535948 -0.06035988 -0.0061363243 -0.0381289
000220 22 ac 83 bd 7a 77 b5 3c 51 f8 cc bc 23 c6 a7 bc
       -0.06429316 0.022151697 -0.02502075 -0.020480221
000230 f9 61 b4 3d 7c f7 a1 bc 18 4c 81 3c 0d 7a 26 bd
       0.08807749 -0.01977133 0.015783355 -0.04064374
000240 5e 6b 52 bc 2a da 24 bd a3 ea 93 bd 86 fa 6e bd
       -0.012842981 -0.04024712 -0.07222488 -0.058344387
000250 e2 46 02 3c cd 95 94 3b a5 0d 8b bd 63 71 08 ba
       0.00795147 0.004534459 -0.06789712 -0.0005204884
000260 1b 48 83 bd a2 b0 ba bc be 8c 62 3c f8 49 5b bb
       -0.064102374 -0.022789303 0.013827501 -0.0033460837
000270 b9 a8 21 bd 62 84 1e bd e7 c4 8a 3b 17 9b e3 b9
       -0.039467547 -0.03870047 0.0042348984 -0.00043412365
000280 81 aa ae bd d9 e0 8e bc be f6 3c bd 55 d6 3e 3d
       -0.08528615 -0.0174412 -0.04613375 0.04659112
000290 ea 73 4e bd 21 98 da 3c 89 74 45 3c f2 c9 be bc
       -0.050403513 0.026683869 0.01205171 -0.023289654
0002a0 9e 6f d4 3d ce 8b d0 3b b2 0a 10 bd 5b f9 0e bd
       0.10372852 0.0063643223 -0.03516645 -0.034905773
0002b0 dc 5a 1e bd 89 77 c1 3c 36 57 57 bd 79 41 0a bd
       -0.03866087 0.02361657 -0.052573405 -0.033753846
0002c0 02 64 47 bd 68 02 16 3d fa 18 02 3c db 77 01 3c
       -0.04867936 0.03662339 0.007940525 0.007902111
0002d0 5e 3e 0b 3d c1 f7 86 3d af ef 6c 3d 5b 0a bd 3d
       0.033995025 0.06590224 0.057845768 0.09230491
0002e0 7f 54 10 3e ba 5a ae bd 35 5d 00 bd ee 5e 80 bd
       0.14094733 -0.085133985 -0.03133889 -0.062681064
0002f0 7d d8 26 3d b1 2f b0 3c 8d 03 eb bd a2 f6 80 bd
       0.040733803 0.021507116 -0.11475287 -0.062970415
000300 ac 72 8a bd 48 eb 90 3c 37 59 81 bd 08 a7 29 3e
       -0.06760153 0.017690316 -0.063158445 0.16567624
000310 22 35 c0 3d 01 e5 78 3d 14 e6 3d 3d 07 d1 a4 3d
       0.09385134 0.06076527 0.046361998 0.08047681
000320 dd e3 ba bc f8 e1 c4 bc 63 9c 42 3d 0f 4f ea ba
       -0.022813732 -0.024033532 0.047512423 -0.0017876345
000330 9b 82 94 3c e9 db 10 be 71 f5 3f bc 71 1b eb bc
       0.018128684 -0.14146389 -0.011716233 -0.028699609
000340 9c 30 cb 3c 0f 16 c6 3d b5 a0 12 3d ce e0 01 bd
       0.024803452 0.09672176 0.035797793 -0.03170853
000350 9b 96 cf 3c b6 d7 e6 3c c4 6c 80 3d 10 db 9e bd
       0.025340369 0.02817903 0.062707454 -0.077566266
000360 b3 41 cf bc f3 6a d9 bc e8 42 6d bd 45 38 78 3c
       -0.025299883 -0.026540255 -0.057925135 0.015150134
000370 fb bf 88 bd bf b5 20 bd 88 38 ab bc b5 46 ac 3c
       -0.06677242 -0.039235827 -0.02090098 0.02102981
000380 cc e1 10 3d e0 c3 0f 3e 89 40 31 3d 58 76 9f bd
       0.035371587 0.14039564 0.043274436 -0.07786244
000390 df ed 58 bd 71 2e 04 bd 5d 5f 8e bd 32 e5 00 3b
       -0.052961227 -0.032270852 -0.06951783 0.001966786
0003a0 a4 1c 5c bd a6 44 75 bc 1a 3f b3 bb ff 5a 46 bb
       -0.05373825 -0.01496998 -0.005470169 -0.003026664
0003b0 39 32 d2 bc 7f ef 07 bd 64 d1 88 bd 96 c6 b3 bd
       -0.025658714 -0.033187386 -0.06680563 -0.08778112
0003c0 d0 5b cb bc 2c e0 69 bd 1d 3d 70 3a 54 1c c8 3c
       -0.024824053 -0.057098553 0.000916438 0.02442757
0003d0 78 be 98 bc 66 08 ad bd 7a 8b a6 bb 56 8a ae bd
       -0.01864551 -0.084488675 -0.005082545 -0.08522479
0003e0 e5 6a a1 bd e9 41 a1 bd 03 fe 44 3d ea 2d be bd
       -0.07881717 -0.078738995 0.048093807 -0.09286101
0003f0 23 88 ca bc d3 59 66 3a cb b9 84 bd 26 48 55 bc
       -0.024723118 0.00087871886 -0.0648075 -0.01301769

weight f4 [6]
000000 cc 0c 84 3f c5 8b 89 3f 6f 7f 86 3f f3 55 7e 3f
       1.0316405 1.0745779 1.050764 0.993499
000010 05 c0 75 3f cf 08 6e 3f
       0.95996124 0.9298219

bias f4 [6]
000000 ab ba 96 bc de 6b cb bd 05 4c 33 bd 5a dd 4e be
       -0.018399557 -0.099326834 -0.04377367 -0.20201626
000010 60 85 3a 3c 12 db ba 3c
       0.011384338 0.022809539

running_mean f4 [6]
000000 8d 9b e8 bd db 9c 7e bf 59 fe 62 bf be 07 2b 3d
       -0.11357794 -0.9945809 -0.88669354 0.04175543
000010 23 ca 44 3e 9b 4c 58 bf
       0.19217734 -0.8449189

running_var f4 [6]
000000 34 f1 12 40 72 13 5b 3f 02 b0 1d 40 65 b7 93 3f
       2.2959719 0.85576546 2.4638677 1.1540343
000010 17 d9 37 40 32 aa 02 40
       2.872625 2.041638

weight f4 [1, 6, 5, 3]
000000 d7 69 40 3e 86 39 eb bd d8 89 8d bc 9b fd af bd
       0.18790375 -0.11485581 -0.017277643 -0.08593293
000010 ef b5 66 bd f8 2b 93 3c 0e d1 09 be f4 b9 1a bd
       -0.05632585 0.017965302 -0.13458654 -0.037774995
000020 ea 65 38 b9 27 27 2f 3d fa 87 27 3d 5a 71 9c 3d
       -0.00017585573 0.042761948 0.04090116 0.076388076
000030 f3 8b 6d bd 09 a3 2d bd 56 77 a2 bd 09 e4 8b 3d
       -0.057994794 -0.04239181 -0.07932918 0.06830604
000040 04 5c 20 bc a0 52 8a 3d 27 21 3d be b9 32 2c 3b
       -0.009787563 0.06754041 -0.18469678 0.002627535
000050 3a 52 62 be cc 41 3e 3d 95 8c 51 3c 58 54 5e 3c
       -0.2210168 0.046449468 0.012789865 0.013569914
000060 58 0f 88 bd 9f d4 6e 3c 03 e4 31 bd 6b 99 43 bd
       -0.066435516 0.01457706 -0.04343034 -0.047753733
000070 0d 4f 92 bb 5b 25 6b bd 2e e8 1f be 7e b0 aa bd
       -0.00446499 -0.05740867 -0.15615913 -0.083344445
000080 20 7d 6a bd 6b 4d aa bd 16 95 ab bd 54 f3 d3 bd
       -0.057248235 -0.083155476 -0.08378045 -0.103491455
000090 07 e2 46 3d 69 7b 2a 3d d8 82 57 3d da a5 9f 3d
       0.0485554 0.0416216 0.052615017 0.077953056
0000a0 75 c7 c7 3c 10 99 ea 3c a9 5b c9 3d 8a 5a 4c 3d
       0.0243871 0.028637439 0.09831936 0.049891032
0000b0 6a 44 03 3e 0c 45 ae 3d da e9 96 3d b3 7c e2 3d
       0.12819067 0.085092634 0.073688224 0.11058941
0000c0 64 9c ab 3d 7f 93 09 3d ff 65 ec 3d 17 d2 b3 3c
       0.083794385 0.03358793 0.11542892 0.021950765
0000d0 ec 44 b5 3c de 0a 10 3d 3c 64 1d 3e e9 6d ef 3b
       0.022127591 0.035166614 0.15370268 0.0073068035
0000e0 30 fb 1a 3e 9c 7a 70 bd 5d 2a 22 bd bb b6 87 bc
       0.15134883 -0.05871068 -0.039591182 -0.016566625
0000f0 ef 75 8c 3d 85 a9 c1 3c 51 8f bf 3d 47 c6 a5 3d
       0.068584315 0.023640404 0.09353507 0.08094459
000100 94 e7 b1 bc 8c 68 8e 3d c1 78 be bc 20 07 53 3c
       -0.02171687 0.069535345 -0.02325094 0.012880117
000110 55 d8 83 3d 4d e4 7b 3c a0 27 57 3d 31 84 1d bd
       0.064377464 0.015374255 0.052528024 -0.038456146
000120 42 65 e9 bc 99 33 ac 3c b6 67 57 3c 63 2f d8 bd
       -0.028490666 0.021020697 0.013147285 -0.10555913
000130 3a d3 fe bc 1e cd 1b bd ee f4 ec bc e9 0b ee bc
       -0.03110658 -0.038037412 -0.028925385 -0.029058414
000140 a3 37 3c bd cc 73 7a bd fb a9 09 3d cf 31 78 bc
       -0.045951497 -0.06114559 0.03360937 -0.015148594
000150 a5 6f 91 bd 9a 68 08 bd 86 82 ae bd a2 d2 5c 3b
       -0.07101373 -0.03330288 -0.08520989 0.0033694883
000160 5d 6f 6e 3d f5 94 61 bd
       0.058211673 -0.055073697
