source/models/MelodyTimbreCNN/model_melody_velocityseg.pth (torch, 204095 bytes, 31 tensors)

weight f4 [6, 1, 5, 5]
00000000: ab89 d5bd e016 dc3d 9a0e b6bd 0bd2 11be
00000010: b933 36bd 47b8 c638 c98c 59bd 245c 1b3e
00000020: 1d4d 653d 071b 93bd 0e7e 1fbd ffdb 06be
00000030: 5ff9 f73c a8c8 03be e161 6b3d f2f1 5dbe
00000040: b9c9 fcbd 8421 e03d b393 e4bd 5207 16be
00000050: 3fa3 19be 968c 78be eb25 19be 06ea 53be
00000060: c03b 89be af7b 223d 396f 87bd aa6c 5bbd
00000070: 5b35 153d 5921 3b3e 2a09 22be 23e8 1fbe
00000080: 4d42 5e3d 4df6 8e3d 5de9 30be a6fa 88bd
00000090: 423c 3b3c d39d e9bd 3aaf 4f3e e001 493c
000000a0: 160e 1d3e 6c33 96bd 1dc1 e2bc edc0 053d
000000b0: cbb3 febd 5bfb 06be aeb8 4f3d dd4e e2bd
000000c0: 01dc 713d 4aa4 473d c16e ef3d 1598 543d
000000d0: 2c13 2d3e 507b f4bd deaa 573e 9bfc 723c
000000e0: c93d 30be 4242 bebc b13e dd3d e253 053d
000000f0: 5fee 34be 8a36 d4bd 41ef d8bc d836 4fbe
00000100: 8571 a53d bb93 86bd cea8 d13d 2339 433d
00000110: e922 2a3e 78c4 59bc 3b7e 09be db2b 8a3d
00000120: 930d 2cbe e4af 31be 0906 08be 7dad 19be
00000130: 96a0 20bc a313 2dbd d726 253e 3dd6 ffbd
00000140: d18f 203e a7c6 0e3e f440 ac3c d7e5 c3bd
00000150: 2265 263e 6f5f 4dbc 7d1d 38be be96 ecbd
00000160: 329b e7bc aba5 20bd 4f70 0d3e b474 1e3e
00000170: 4a93 ecbd 6442 cabd bb26 a03d 7731 293e
00000180: ab31 a13d cc59 a3bd 49c5 1c3d 715b 163d
00000190: 21ed c6bc fde8 533e 3a7f 2fbe 4e16 3dbe
000001a0: 702d 353e c0b5 0b3e 48ab ec3d a733 febd
000001b0: 92db 593b a949 4e3d 0024 d2bd 4079 94bd
000001c0: ba4a e2bd 520d ac3d 0f6c 4abd 7cce 403e
000001d0: 2b1a 3a3d 6f7b 553d 44ae 21be 84d4 21be
000001e0: a693 a737 d42e fe3d 0899 243e da46 043e
000001f0: 8ec0 1abe 6cdf 123e 484f 82bb 6b8e bcbc
00000200: 422c f4bd 1162 c43d 883d 40be a792 d93c
00000210: 280f 413e 6de4 84bd a9aa 383e fad6 23bc
00000220: 4e34 273e ef51 3bbe f701 c2bd 174a bfbd
00000230: afc5 033e be88 b43d 3ae3 6f3d d482 07be
00000240: 4d84 72bd 5506 5bbd d4a7 02be c29b 943c
00000250: b925 203c b44d 023e
-0.10426649 0.107465506 -0.08889504 -0.14240281 -0.04448292 9.4757e-05 -0.05311278 0.15171868
0.055981744 -0.071828894 -0.038938574 -0.1316986 0.030270277 -0.12869513 0.05746639 -0.21674326
-0.12343163 0.109438926 -0.11160984 -0.1465123 -0.1500368 -0.2427238 -0.14955871 -0.20694742
-0.26803398 0.039668735 -0.06613011 -0.053570427 0.036427837 0.1827444 -0.15823808 -0.15615897
0.054262448 0.06980572 -0.17276521 -0.066884324 0.011427941 -0.11407056 0.20281687 0.012268513
0.15337405 -0.07334027 -0.027679974 0.03265469 -0.124366365 -0.13181822 0.050713234 -0.11050198
0.059047703 0.048740663 0.116910465 0.05190285 0.16901845 -0.119375825 0.21061274 0.014830734
-0.17211069 -0.023224954 0.10802973 0.0325507 -0.17669056 -0.10361965 -0.026481273 -0.20235765
0.08078293 -0.06571146 0.10237275 0.04766191 0.1661488 -0.013291471 -0.1342706 0.06746646
-0.16802053 -0.17352253 -0.13283552 -0.15007587 -0.009803912 -0.042255055 0.16128097 -0.124920346
0.15679862 0.13942967 0.021027066 -0.09565323 0.16249517 -0.01253496 -0.17979999 -0.11552189
-0.028272245 -0.039220493 0.13812374 0.15474206 -0.11551531 -0.09875944 0.07819887 0.16522776
0.078708015 -0.07976112 0.038274083 0.0367083 -0.024282994 0.20694347 -0.17138377 -0.1846554
0.17693114 0.13643551 0.11556107 -0.12412196 0.0033242446 0.050363217 -0.10260773 -0.07249689
-0.11049409 0.08400978 -0.04941946 0.18828768 0.045435112 0.05211967 -0.15789133 -0.15803725
1.9976706e-05 0.124112755 0.16074002 0.12917653 -0.15112516 0.14343041 -0.003976736 -0.023017129
-0.11922504 0.09589017 -0.18773472 0.026559187 0.18853438 -0.06488881 0.18033852 -0.009999985
0.16328546 -0.18292974 -0.09473031 -0.093403034 0.12868379 0.08815144 0.05856631 -0.132335
-0.059208203 -0.053472836 -0.12759334 0.018140677 0.009774619 0.12724954

bias f4 [6]
00000000: 5f18 48be c348 48bd 39ff d2bd 5d84 ef3d
00000010: 8efd f4bd 7abb 193e
-0.19540547 -0.048897516 -0.10302586 0.11695168 -0.11962424 0.15012923

weight f4 [6]
00000000: 9e76 7f3f 648e 813f bd2e 853f 3ce4 7d3f
00000010: de7e 803f 9f47 773f
0.9979037 1.0121579 1.0404888 0.99176383 1.0038717 0.9659366

bias f4 [6]
00000000: 7809 00b9 899e c73c b097 393b df1f 293a
00000010: ea17 893c 8a82 553d
-0.00012210559 0.024367588 0.0028319173 0.00064515875 0.016735036 0.052126445

running_mean f4 [6]
00000000: b862 f942 4f67 9d41 72f2 b341 f4df 78c1
00000010: f8f8 30c1 f86a 99c0
124.69281 19.675444 22.493382 -15.554676 -11.060783 -4.7943077

running_var f4 [6]
00000000: ca3e 6c44 9cb7 e041 3098 3c42 53b5 9d41
00000010: de0c 5541 a04f 9040
944.9811 28.089653 47.14862 19.713537 13.315641 4.50972

weight f4 [18, 6, 5, 5]
00000000: a15d a1bd b5bc 37bd 9bc9 30ba 9489 5ebd
00000010: 56ba 9d3b be3c 51bd 4db9 d4bc 3238 6cbd
00000020: 0b1d 063d 0e11 c73c f25b 27bd 2c54 63bd
00000030: 349e 95bd ef89 6a3d f3fe 98bc 47b7 95bd
00000040: b5d4 973c cdbb 393b 8c11 e53c a6a6 8abd
00000050: 4b4f 2b3d 40a3 36b8 5df6 db3c 640d 793c
00000060: d30a bd3d 758e 273d 4949 bb3b f875 a2bd
00000070: eacc 19bd e86f 1c3d 119c 9b3d 3655 3b3d
00000080: 769d a83d 70b5 49bd 4bee 093d 46fe 2fbd
00000090: 5e4e db3d 6a2e a83d ad16 953d f288 aa3d
000000a0: c87d a338 ea99 213d 9d08 763b 0882 9c3d
000000b0: 7a7e 9f3b 4dfb db3c bfa8 2d3d ad0e fdbc
000000c0: 080c d5bc 056c 923d 23ba 8cbd a421 eabd
000000d0: a57b 2cbd cdb2 563d 16f5 82bc cb67 8cbd
000000e0: 6b02 93bc 922a c23c d233 cdbd d018 c1bc
000000f0: 28ec 223d 145e 053d 726a f13c 0733 cb38
00000100: 042c 33bd d9e7 92bd 798d 83bd ad14 ecbb
00000110: 5899 2a3d 7817 c1bb ce5a f83c bba9 64bc
00000120: 9131 933d 6cd3 733d 174d 813c 629b 4b3d
00000130: 1266 31bd eaab 7a3d c9d9 27bd fbfb 95bd
00000140: be00 f3bc 6c6a 47bd 2056 033d d0c0 bc39
00000150: 4628 3fbd eedd 31bd 0a36 ab3d e724 b13d
00000160: a5be 2e3d 2ee9 8f3d d129 95bd 60c0 0dbd
00000170: 1100 3fbd 0a4a 43bd e496 213d fda9 133b
00000180: 5a1e f7bc 1613 18bc 5a28 54bd d111 9dbc
00000190: 8057 9bbd 0caf 74bd 155e 6f3d 8d61 ff3c
000001a0: ee43 aabd da04 3b3d 86ab 57bd 81d3 063c
000001b0: db5b aebd 7b42 3c3d 7c07 8ebd 9e36 8f3d
000001c0: 4c3e 273d 4e39 903d ed6e 923d 0abb a73c
000001d0: 6624 ebbb 5eb0 c13d f6d0 b13d db23 22bd
000001e0: bc6c 9439 78fd febb 44a7 04bd 1f16 6b3b
000001f0: 04a4 3e3d c4a0 a03d e3c4 e5bc 34ec b2bd
00000200: 77d9 bd3c 35af afbc 396f 04bd 7968 38bd
00000210: 8476 63bd c650 6ebd ae19 89bc 925f a43d
00000220: 1410 3a3d 3f1a 3fbd 1148 1bbd bd39 89ba
00000230: c312 143b f414 4abd 5f9c 923d 91cc 963d
00000240: 1b48 3fbd dcd7 ee3c 91da 783d 9173 763d
00000250: 9080 32bd d8c2 b1bd 65a3 013d 2075 5bbd
00000260: 14af a9bc 42b0 123d e303 b13d 3e6f 703d
00000270: a981 56bd a287 793d 5c6e 99bd 583c a73c
00000280: 4369 87bc 87e9 9c3d b2dd 243c 9b9d 46bc
00000290: f708 903b 710d 9e3d fe08 ad3d 4ebb 82bd
000002a0: dbba e03d 193f d03d bca3 1dbd 0afa 0fbd
000002b0: 824e 57bd ab7f 16bd 99ee 9dbc d9d7 223d
000002c0: 8bf0 dcbc 7c30 5dbd ae26 b13d 0c00 b13c
000002d0: 3e08 ecbc 46bf 8d3d 7cd1 0d3d 7428 913d
000002e0: 62e6 84bd 7908 52bd fd83 9abd 9e63 583d
000002f0: 40d3 953d 840d 17bd 3d35 99bb 3bdd 763c
00000300: f668 19bd 546e 1cbd 80f2 cf3d 5481 bfba
00000310: c3a2 83bc 7e16 be3c ee7e 9b3d 6552 86bd
00000320: 2b27 42bd 43fd 373d d617 0bbd 4331 6fbd
00000330: 375e 9b3d 3195 08bd d175 c7bd a0ed 96bc
00000340: 6df8 82bc c486 acbc 94ad dabc f423 b13b
00000350: ccba 6d3d 6d00 20bd 12bc a43d 1c44 853d
00000360: 6df8 91bc b7ac 6e3d a5fe 603d a23b 843d
00000370: f781 323b e83f 7ebd f236 2fbd 57ea 9ebd
00000380: bb35 96bd 5a68 a0bd 4958 a6bd d729 05bb
00000390: fe33 9abd acf2 e23c ed10 64bd d9d8 babd
000003a0: 0198 1f3d 5f4f 833b 83ac b6bb 6b16 0e3d
000003b0: 7147 9cbd e1e9 e1bc a42c 38b9 4cd0 1d3c
000003c0: 3308 e7bc 5a6d b0bd a8f5 343d c308 243d
000003d0: c5c9 90bd 7fbf 1b3d 4098 8b3d 5c36 b43c
000003e0: e7df fbbc d431 693c 523e 8c3d 2a08 3b3d
000003f0: 5d81 f13c daa3 b23b 7711 aebd 2cdd 7abc
-0.078791864 -0.0448577 -0.0006743909 -0.054330423 0.0048134727 -0.05108332 -0.025967265 -0.05767078
0.03274254 0.024300124 -0.04085917 -0.055500194 -0.073055655 0.05726045 -0.018676257 -0.07310348
0.018534044 0.0028340698 0.027962469 -0.06770067 0.041823667 -4.354422e-05 0.026850874 0.0152009465
0.0923058 0.040907342 0.0057155234 -0.07932657 -0.037548937 0.03819266 0.07598127 0.04573556
0.08233158 -0.049245298 0.03367452 -0.042967103 0.10708307 0.08211978 0.07279716 0.083269015
7.795874e-05 0.039453425 0.0037541755 0.07641989 0.004867372 0.026853228 0.042397257 -0.030890787
-0.026006714 0.07149509 -0.0687144 -0.11432198 -0.042110104 0.05241661 -0.015986007 -0.068557344
-0.017945489 0.02370194 -0.100196496 -0.023571402 0.039775997 0.032560423 0.029469702 9.689299e-05
-0.04374315 -0.07173128 -0.06423468 -0.007204613 0.041650146 -0.0058926903 0.030316737 -0.0139564825
0.071871884 0.0595278 0.01578383 0.04970873 -0.043310232 0.061199106 -0.04097918 -0.07323452
-0.02966344 -0.048685476 0.032064557 0.0003600181 -0.046669267 -0.04342454 0.083599165 0.08649617
0.04266228 0.07026897 -0.072833665 -0.03460729 -0.046630923 -0.04767803 0.03945054 0.002253174
-0.03016584 -0.009281894 -0.051796295 -0.019173535 -0.07585049 -0.05973725 0.058439333 0.031174446
-0.08313738 0.045658924 -0.052653812 0.008229137 -0.08513614 0.04596184 -0.06935021 0.06992839
0.040830895 0.0704218 0.07150064 0.02047493 -0.00717597 0.094574675 0.08682434 -0.039584976
0.00028309773 -0.0077816807 -0.03238608 0.003587134 0.046543136 0.078431636 -0.028047984 -0.087364584
0.023174984 -0.02144585 -0.032332633 -0.045021508 -0.055532947 -0.0581825 -0.016735878 0.08026041
0.04542549 -0.04665589 -0.037910525 -0.0010469478 0.002259419 -0.04933639 0.07158732 0.07363237
-0.046699625 0.029155664 0.060755316 0.060168806 -0.043579638 -0.086797416 0.031649966 -0.053578496
-0.020713367 0.035812624 0.086433195 0.05869984 -0.052369747 0.060920365 -0.074917525 0.020414516
-0.016529685 0.07661729 0.010062622 -0.012122537 0.0043956 0.077174075 0.08448981 -0.06383382
0.1097314 0.10168285 -0.038486227 -0.035150565 -0.052565105 -0.036742847 -0.019278811 0.03975663
-0.026970169 -0.054001316 0.08649956 0.021606468 -0.028812524 0.06921248 0.034623608 0.07087794
-0.064892545 -0.05127761 -0.07544706 0.052829377 0.07315683 -0.036878124 -0.004675536 0.015067394
-0.037453614 -0.038191155 0.10153675 -0.0014610686 -0.016068822 0.023204084 0.07592569 -0.06558684
-0.047400635 0.044919264 -0.03395828 -0.05839659 0.075863294 -0.033345405 -0.097392686 -0.018423855
-0.0159876 -0.021060355 -0.026694097 0.0054058973 0.05803947 -0.039062906 0.08043684 0.065071315
-0.017818654 0.058270182 0.054930348 0.064566866 0.002723811 -0.062072664 -0.04277701 -0.077595405
-0.07334467 -0.078324035 -0.08122308 -0.0020319128 -0.07529448 0.027703606 -0.055680204 -0.09123392
0.03896332 0.0040072645 -0.005574764 0.03468935 -0.07630814 -0.027577342 -0.00017564237 0.009632181
-0.028202152 -0.08614607 0.04417959 0.04004742 -0.070697345 0.03802442 0.06816149 0.021998577
-0.030746413 0.014233071 0.06847824 0.045662083 0.02948063 0.0054516615 -0.08499425 -0.015311521

bias f4 [18]
00000000: 9a8a 9cbc d0d0 453d 2e42 07bd d344 1ebd
00000010: db07 1cbc c47f 6f3d 8649 07bc 054e d7bc
00000020: 4154 00bd 3f29 553d 1431 3c3c ae83 9cbd
00000030: a2b0 a1bc 8a8b aa3c 0d41 6dbd 8c14 893d
00000040: 8ed4 133d 2a23 0c3d
-0.01910906 0.048294842 -0.0330221 -0.038639855 -0.009523357 0.058471456 -0.008257275 -0.02628232
-0.03133035 0.05204129 0.0114863105 -0.076423034 -0.019737545 0.02081849 -0.057923365 0.06693372
0.03609138 0.034213223

weight f4 [18]
00000000: 41de 893f 4666 803f 3339 763f 6a5a 813f
00000010: cf1b 853f 79e2 723f 3a26 7a3f 8be2 6f3f
00000020: 9167 7a3f d6ef 843f f8b4 833f dcdd 713f
00000030: 87d0 763f cd78 753f cad4 873f 944a 823f
00000040: 22c2 783f 5f94 7d3f
1.0770952 1.0031211 0.9618103 1.0105717 1.0399112 0.9487682 0.9771458 0.9370505
0.9781428 1.0385692 1.0289602 0.94479156 0.9641194 0.9588745 1.0611813 1.017901
0.97171223 0.9905452

bias f4 [18]
00000000: 8d46 323c ce8c d03c 71fc 95bd 0b67 16bd
00000010: 09a9 5cbd d4e5 debd 9efe 04bd cd05 b6bd
00000020: 9971 94bd 4dee 8d3d 35cf 49bd a234 1fbd
00000030: 6b81 1dbd 0959 9cbd 6d30 163d babe 0bbc
00000040: 422f 54bd 4407 aebd
0.010881078 0.025457766 -0.0732354 -0.036719363 -0.053872142 -0.1088368 -0.032469384 -0.08887825
-0.072482295 0.06930218 -0.049269874 -0.038868554 -0.0384535 -0.076341696 0.036667276 -0.0085293595
-0.05180288 -0.084974796

running_mean f4 [18]
00000000: b158 19bc d30a 2b3e 5ce6 1ebe ac64 10bf
00000010: b8c5 8dbe 7666 103f 5da1 743f 2e3e bcbe
00000020: af16 c9be 2a53 2fbe 7419 8e3e 3f8f f0bd
00000030: 37c5 073f 53c7 3b3e a855 9cbe b551 443e
00000040: ac88 2fbf af4f 10be
-0.009359525 0.16703348 -0.15517563 -0.56403613 -0.2768991 0.56406343 0.9555872 -0.3676619
-0.3927512 -0.17121568 0.27753794 -0.11746072 0.530353 0.18337755 -0.305341 0.19171794
-0.6856792 -0.14092897

running_var f4 [18]
00000000: 35d2 a53d 420e b33d 2157 213e 3235 c33d
00000010: b396 da3d 8b07 093f f807 2c3f 6f14 c23f
00000020: 922b 163e 1f6c cc3d de61 b43d 998a c53e
00000030: 1c28 4b3e 6d2b aa3e 0843 a63d 77b8 883e
00000040: 6185 0e3e dffb 763e
0.080967344 0.08742954 0.15755893 0.095316306 0.10673275 0.53527135 0.6719966 1.5162486
0.14665058 0.0998156 0.08807729 0.38582304 0.1983952 0.33236256 0.08118254 0.26703236
0.13918068 0.24119519

weight f4 [45, 18, 5, 5]
00000000: 3c02 363d c523 98ba 0727 95bc 49d4 14bd
00000010: 1042 43bc fd6a 973c fe4d 28bc eb34 8e3a
00000020: 22a1 5dbd 3b92 b3bc f88e 22bc 9d08 1f3c
00000030: feb5 3e3d 8236 b13c 674d 9d3d 054d 7cbc
00000040: 623a 7ebd 7e08 c8bc 4f4c f4bc ea35 bb3c
00000050: 1f9a 2ebd 62ea 2fbd f86f 05bb 6229 163c
00000060: fd1d 86bc 3ab7 883d 1875 9cbc 45e9 ceba
00000070: 367a 953d 1e8a 8e3d 335f 3b3c e4ad 1dbd
00000080: f8cd c7bc b8e9 373d d43b d23c a5b9 82bd
00000090: 58ff a6bd 9434 a0bd 805c 84bd 43d6 67bd
000000a0: 6873 5a3c b408 a5bc 49e3 a2bc 3059 893c
000000b0: dee1 2bbd 45f9 3d3d 4391 ef3c bbcf 023d
000000c0: 32ab 1e3d 6b76 113b dfba 6ebc 0cce a5bd
000000d0: 8e6d 0bbd 3ef1 133b f17e 61bd 74db 093d
000000e0: 2c8f 58bd 6da4 8ebd 850d b2bc 41d8 51bc
000000f0: 9773 5f3b 511f d63c 972e 75bc 84e5 0dbd
00000100: 5933 aebc cd2e 82bd ba7c 71bd 7d65 9a3c
00000110: 08af 253d 5de8 5c3d 4387 a43c 17ef 9abc
00000120: a596 41bd b035 19bd 0110 233c 470a 373c
00000130: 9fbc 2b3d 9795 793c db1b da3b 592e c63b
00000140: 85e7 89bd ca32 02bd bbd5 40bd 99cf 1abd
00000150: 82a8 e8bc 2116 69bd 2264 c23b 4a95 23bd
00000160: d9bb 163d 06fe 23bd 7629 36bb ee68 653d
00000170: 42bb 0b3d fcc0 4d3c 4a67 b73c c941 36bc
00000180: 12c1 d03c aff4 873c 908b 3fbc 62b6 0b3d
00000190: 7451 05bc 31c2 fd3b 1f41 f43c efa4 193d
000001a0: 37aa 15bd 8486 653d d680 183d 32ae 1e3d
000001b0: 6ad1 9f3c 4478 d3bc 028e bf3c ecd5 85bd
000001c0: d992 2bbd 5dc9 55bc ebb6 a1bb 51ed 14bd
000001d0: d442 04bd e1b2 8f3b 7fcf c03a 021a 893d
000001e0: cf3d 353d 6c1c c8bb c756 01bd 1ca3 1b3d
000001f0: aa3c 1c3c 9834 183d e691 3fbc 265e 92bc
00000200: 8f0e d53b 13ca 693c f4cb 203d 66ff 083d
00000210: 8902 1a3d fbd1 003c d45e f8bc 2a84 9abb
00000220: b4b3 b13b d143 27bd a36d cd3c 4a50 d8bb
00000230: a274 1fbd 55e8 d1bb 22ca 753c 827d 35bd
00000240: 0198 10bd 9324 153c bcd1 e83c 87dc af3c
00000250: 8901 27bd 8ffb d6bc f2ed 61bd d135 c0bb
00000260: 470a a03a a17e d03a c56d 4ebd 4e64 db3b
00000270: 95af 5abd 997e 313b ffc0 16bc 45d9 efbc
00000280: 68d6 89bc 0478 a03c e871 e4bc 7de8 dbbc
00000290: dc4d 363d a5ae 1e3c a06f 79bc 592e bcbb
000002a0: 711f 993b d6dd 9e3c 97cd 733d 86b3 82bc
000002b0: 7a96 ce3c 116e 193c f641 7c3d 07dd ac3c
000002c0: 281c 503c e1b6 3fbd 0b1d 15bd 72f6 18bd
000002d0: c7ca a03c 8aff 46bd 2107 04bd 90ed a4bc
000002e0: 600f 46bd 847c 2c3d 5226 1dbc 232b 1abd
000002f0: 3fc0 2c3d ec65 213d dd23 c5bb ce2e a8bc
00000300: 3608 dfba 3ef0 243c a305 9bbc f197 c93b
00000310: 0ee1 613b 46a8 4b3d 256d 163d 7950 4cbb
00000320: cb54 b0bb 36f4 133d ec5f 4a3d bacd 1dbd
00000330: 64fd 8abd 8770 383d 7353 c83c 0c95 0fbd
00000340: e815 c83c d8a5 933c a0c2 1b3d 9745 d23c
00000350: 88af 533c cc09 ccbb b4e6 d8bb c85e eebc
00000360: 89f2 243d 15ec 543c 0b31 3c3b 9112 ff3b
00000370: d459 1eba 1e47 d8bc f25b f83c 536f 80bc
00000380: 29e4 9bbc 680d fc3c 9153 343d 151e 483d
00000390: 70fc 843d 12e9 ba3b df2f 1abd 8bda 76bc
000003a0: c479 6d3d 55c0 8b3b 78ef 773d 9a22 cdbc
000003b0: 5177 02bd 802f d0bc a225 a4bc 4829 45bc
000003c0: d2dc a83c cf2b 873c da82 b13c 96da d83b
000003d0: b2d1 0e3d 03a0 3bbd 9f95 80bd ff5a dbbc
000003e0: f9b5 fe3c 6a8c 1bbd ab88 353b 14be 19bd
000003f0: edb4 0c3b 8eaf aabb b3eb 1bbd 368b f33c
0.044435725 -0.001160734 -0.018207086 -0.036335263 -0.011917606 0.018483633 -0.010272501 0.0010849511
-0.054108746 -0.021920314 -0.009921782 0.009706643 0.04656028 0.021632437 0.07680779 -0.015399222
-0.062067397 -0.024418112 -0.029821543 0.022852857 -0.04262745 -0.042948134 -0.0020360928 0.00916514
-0.016371721 0.06675573 -0.019098803 -0.0015786072 0.072987005 0.069599375 0.0114362715 -0.038495913
-0.024390206 0.044900626 0.025663294 -0.06383065 -0.08154172 -0.078225285 -0.064629555 -0.05660082
0.013333179 -0.020145752 -0.019883769 0.01676616 -0.04196345 0.0463803 0.02924407 0.03193639
0.038737483 0.0022195827 -0.014570921 -0.08095941 -0.034040026 0.0022574211 -0.0550527 0.033656552
-0.052870914 -0.069649555 -0.021734962 -0.012807907 0.0034095997 0.02613798 -0.014964721 -0.03464271
-0.021264719 -0.06356583 -0.05895684 0.018847222 0.040450126 0.053932536 0.020084029 -0.018912835
-0.047262806 -0.037404716 0.009952546 0.011171884 0.04192793 0.015233419 0.0066561527 0.0060480055
-0.06733612 -0.031786717 -0.04707883 -0.037795637 -0.028400663 -0.05690587 0.005932347 -0.039937295
0.03680024 -0.040037178 -0.0027795709 0.056008272 0.03411413 0.012558218 0.02238812 -0.011124083
0.025482688 0.016596166 -0.011690989 0.03410948 -0.008137096 0.0077440967 0.029816208 0.03751081
-0.036539283 0.056036487 0.037232243 0.038740344 0.019509036 -0.025814183 0.023383144 -0.06534943
-0.04188809 -0.013048497 -0.0049351356 -0.036359135 -0.032290295 0.0043853377 0.0014710276 0.06694414
0.0442484 -0.006106904 -0.031576898 0.03799735 0.009535948 0.037159532 -0.0116925 -0.01786716
0.0065019797 0.01426937 0.039257005 0.033446692 0.037600074 0.007862563 -0.030318655 -0.004715462
0.0054230336 -0.04083616 0.025076693 -0.006601368 -0.03892959 -0.00640587 0.0150018055 -0.044309147
-0.035301212 0.009102958 0.028420322 0.02146746 -0.04077295 -0.026243 -0.055158563 -0.0058657904
0.0012210094 0.0015906879 -0.050397653 0.006695307 -0.053390104 0.0027083515 -0.009201287 -0.029278407
-0.01682587 0.019588478 -0.027886346 -0.026844257 0.044507846 0.009685193 -0.015224367 -0.0057428298
0.0046729376 0.019392889 0.059522238 -0.015954744 0.025218237 0.009364621 0.061586343 0.021101488
0.0127020255 -0.046805266 -0.03640465 -0.037344404 0.019627942 -0.048583545 -0.03223336 -0.02013281
-0.048354506 0.042110935 -0.009591656 -0.037638795 0.042175528 0.03940384 -0.006016238 -0.02053013
-0.0017015997 0.010067044 -0.018923586 0.006152146 0.0034466418 0.049721025 0.036725182 -0.0031175895
-0.005381202 0.03612157 0.049407884 -0.038526274 -0.06786612 0.04502919 0.024453854 -0.03505425
0.024424508 0.018023416 0.038027406 0.025667949 0.012920268 -0.006226754 -0.006619299 -0.02909793
0.040270362 0.0129957395 0.0028715755 0.0077841957 -0.0006040607 -0.026401099 0.03031728 -0.015678084
-0.019029694 0.030768111 0.044025008 0.048856813 0.06493461 0.0057040537 -0.03764331 -0.015066753
0.057977453 0.004264871 0.06053111 -0.025040913 -0.03185207 -0.025413275 -0.020037476 -0.012033768
0.020613108 0.016500382 0.02166884 0.0066178543 0.03486795 -0.045806896 -0.06278538 -0.026776789
0.03109263 -0.037975706 0.0027699869 -0.03753479 0.0021470145 -0.005208916 -0.038066577 0.029729467

bias f4 [45]
00000000: 17e3 a93c b2ba 573d 8551 0fbd 043d 1b3d
00000010: f425 b83b f028 b03b cc2f acbc 0d63 45bc
00000020: 0cde 89bc a944 8b3c 6cda e93a ac08 0fbd
00000030: e118 66bc 3785 3f3c 8d07 6fbd 5b68 bdbb
00000040: 32e2 0fbc 020e 963c bcd0 ecbc 7065 033d
00000050: d824 913c 3208 e63c fa1b 173c 06d1 49bc
00000060: 5239 69bc ab11 53bc 5ee6 053c 1479 bbbc
00000070: 83c8 58bc bc2d bb3c 2fd1 3c3d a161 a73c
00000080: 418e 73bd b0aa d63c 3318 823c 6ba0 603d
00000090: 84c3 13bc b71d ad3c cb09 823d 5fc9 873c
000000a0: f9ff 263c f607 3dbc a4b1 93bc 9ada 1b3d
000000b0: c913 483d
0.020738168 0.05266828 -0.034989852 0.037899986 0.0056197587 0.005375974 -0.021018885 -0.012047541
-0.016829513 0.017000513 0.0017841584 -0.03492038 -0.0140440175 0.011689476 -0.05835681 -0.0057802624
-0.0087819565 0.018317226 -0.028908126 0.03207916 0.017717764 0.02808008 0.009222979 -0.0123179015
-0.014234858 -0.01288263 0.0081726 -0.022884883 -0.0132313995 0.022848956 0.04609793 0.020432295
-0.059461836 0.026204437 0.01588068 0.054840486 -0.0090187825 0.021132333 0.06349524 0.016575513
0.010192865 -0.011537543 -0.018029042 0.03805027 0.048846994

weight f4 [45]
00000000: 63da 873f 7fa5 853f 3d62 853f 971d 803f
00000010: 05f3 763f 91f5 7b3f 0d85 7c3f 792e 863f
00000020: e227 7e3f 149b 813f 3c41 753f b324 803f
00000030: 6b08 7f3f c88d 763f 45bc 823f a6bd 7d3f
00000040: b2b3 7a3f 4a34 823f f107 803f 7d53 823f
00000050: 0b96 7f3f f6e2 843f 12d3 763f b983 703f
00000060: 38ce 823f 7112 853f 0228 823f 4baa 7d3f
00000070: dd79 823f a8a0 7e3f 96b2 793f 6263 803f
00000080: d2cc 813f 4468 763f dc4d 793f 811c 843f
00000090: cdce 793f 3bb0 763f eca0 803f 7fab 6e3f
000000a0: 38ac 803f 0ab0 853f 1a8d 813f 4d07 803f
000000b0: cbc4 863f
1.0613521 1.044113 1.0420605 1.000903 0.9646457 0.9842158 0.9864052 1.0482932
0.99279606 1.0125451 0.95802665 1.00112 0.9962222 0.9631009 1.0213705 0.99117506
0.97930443 1.0172207 1.0002424 1.0181729 0.9983832 1.0381763 0.9641582 0.9395099
1.0219183 1.0396253 1.016846 0.9908797 1.019344 0.9946389 0.97538126 1.0030329
1.0140631 0.96252847 0.9738443 1.0321199 0.9758118 0.96362656 1.004911 0.9323043
1.0052557 1.0444348 1.0121186 1.0002228 1.0528806

bias f4 [45]
00000000: 2045 3c3d d33b 09bd 504b df3c 4e17 d8bb
00000010: d36c cabc 9830 763c 2053 913a 7f41 cf3b
00000020: 9874 7ebd aad4 65bd fcd2 b6bd f5b2 4f3c
00000030: dd38 0dbd b55b 57bd 23fd 09bd 24f1 06bd
00000040: 8a30 8cbd 33a0 f23c ddac e8bc 9e5a 40bd
00000050: 6c3b 17bd 7fca 10bd dfa7 53bd a8e1 69bd
00000060: 9f33 45bd 9a9b a0bb 1378 85bc 4349 1bbd
00000070: 62ae 19bd ed9d e4bc f89f 65bd c83b be3b
00000080: 9466 c1bc 17f9 c6bc a14e f9bb e277 80bc
00000090: 2c31 0cbd d863 93bd aa72 10bd d66b ebbc
000000a0: 818c acbc d676 503c 59da 58bd 51a6 42bd
000000b0: dc4c 81bc
0.04596436 -0.03350432 0.027257591 -0.006594575 -0.024710095 0.015026234 0.0011087395 0.0063249464
-0.06212291 -0.056111015 -0.08926961 0.012676944 -0.034478057 -0.052577693 -0.033688676 -0.032944813
-0.068451956 0.029617405 -0.02840274 -0.04696142 -0.036921903 -0.035349365 -0.051673766 -0.05709997
-0.048144933 -0.0049013617 -0.016292607 -0.037911665 -0.03751982 -0.027907336 -0.05606076 0.0058054663
-0.023608483 -0.024288697 -0.0076082502 -0.015682165 -0.03422658 -0.07196778 -0.035265602 -0.028737944
-0.021063091 0.012723645 -0.052942608 -0.047521893 -0.01578372

running_mean f4 [45]
00000000: 1268 9dbf 65ad b9be 10a9 febe c856 48bf
00000010: c469 0fbf 2a2f 293e c3ba 433e a2e9 35bf
00000020: d1e4 a43e bd57 85bf 72c7 38bf 3c42 dc3e
00000030: f165 103e 37c5 babe 117c d5be 3bb5 5e3c
00000040: bf11 82bf 76d2 55bf bea0 b2bf f32b 0dc0
00000050: 630b f83e e147 143f 64b6 15bf 681e 293f
00000060: 379b 8cbf 2e87 133e 0054 d63e 3231 a0bd
00000070: 603d 303e add2 1dbf 9df0 0cbd a0de 84be
00000080: 751b 583e c5d4 bb3e c769 51bd bb93 88be
00000090: f47e 093e 8980 da3e d777 fd3c 61fa c73e
000000a0: 2685 65bf b2e0 abbe caf5 263e d539 7cbf
000000b0: 0971 603e
-1.2297385 -0.36265102 -0.4973836 -0.7825742 -0.5602076 0.16521898 0.19114213 -0.7105962
0.32205823 -1.0417401 -0.7217933 0.43019283 0.14101388 -0.36478588 -0.41696218 0.013593013
-1.0161666 -0.8352426 -1.3955305 -2.2058074 0.48446187 0.5792218 -0.5848143 0.6606202
-1.0984868 0.14407036 0.41860962 -0.07821883 0.17210913 -0.6164959 -0.034409154 -0.259511
0.21104224 0.36685768 -0.051126268 -0.2667521 0.13427335 0.4267619 0.030940933 0.3905821
-0.89656293 -0.33569866 0.16304699 -0.98525745 0.2191812

running_var f4 [45]
00000000: 0de6 5b3f bb29 223f 9b48 353f cd0f cb3e
00000010: 56a5 b53e d513 e63e 5d8a da3e 99a7 483f
00000020: d593 893f ad41 ce3f 0dbb 6f3f 34cf ba3e
00000030: 347f bc3e 5838 703e 3486 7e3f ee61 823f
00000040: 40cc e63f d035 dc3e 6206 b73f 1137 1340
00000050: 5226 733e a453 b73e 93dc a53f 5885 373f
00000060: fd1e 433f 3db5 f23e 83e5 493f 0efe 953e
00000070: 2abf 4b3f 4a2c c33f 4a29 393f c655 ec3e
00000080: b784 643f 3c6f d83e 393f bf3e ea28 5d3f
00000090: aa65 ad3f 9d89 053f e96f d23e d543 af3e
000000a0: 250a 723f cd53 4a3f c690 053f c573 133f
000000b0: 3be5 693f
0.85897905 0.63344926 0.7081391 0.39660493 0.35477704 0.44937006 0.42683688 0.78380734
1.074824 1.6113793 0.9364479 0.36486208 0.36815798 0.23458993 0.9942353 1.0186136
1.8031082 0.43009806 1.4298823 2.300236 0.23745087 0.35806 1.2957939 0.7168784
0.7621916 0.474039 0.7886583 0.2929539 0.7958857 1.5247891 0.7232863 0.4615919
0.89265007 0.42272365 0.37352923 0.86390555 1.354665 0.52163106 0.41101006 0.3423144
0.9454673 0.7903412 0.5217403 0.57598525 0.913654

weight f4 [18, 45, 5, 5]
00000000: ce6c 34bd 6fa1 8cbd 5ab9 75bd cf0d fcbc
00000010: 7a42 6fbd 36ec bf3b 5019 d33b 6149 953c
00000020: 6efd fc3b becd 52bc 190d df3b 2890 19bd
00000030: 1a02 a6bd ba97 82bd 26a7 f4bc 49bc d2bc
00000040: bb36 e9bc b1cb 14bd 7afb c9bc 23e2 fcbc
00000050: 44fe 4abd 0091 e93b e786 8bbd 999c d1bc
00000060: 7c73 c8bc 2c26 6039 6bfa 343c 7190 00bd
00000070: 295b e0bc 368f 25bd 4625 be3a f9fb dfbc
00000080: 9198 7abc 6cae acbc aca6 dcbb ff51 343c
00000090: e879 89bc fe89 dc3c 813d 4c3c 3b75 023c
000000a0: 386d 16bd de8f 21bc 7fc4 65bd 24a2 90bb
000000b0: 239e 86bc 0d12 40bc ed00 a0bc ffeb 1abc
000000c0: c819 bfba f8ee eebb f8d7 173b 15e0 08bd
000000d0: 63ab 88bc 8e11 223c b99c dbbc 9ba3 203d
000000e0: c7e1 98bc 2062 d93c 7013 b83c a22a c7bc
000000f0: 3564 71bb c100 3bbd cdf1 9fbc 7537 aa3c
00000100: 3991 10bb f22b 57bc ddc9 28bd 0748 d0bc
00000110: 385b 2abd 6c99 d1bc 21b9 14bd 90e3 533c
00000120: d8ae 9ebc dfd3 0dbd de43 c0bc 4091 e03b
00000130: df95 a0bc 28b6 20bc 76ea 373c 8db0 943c
00000140: dc54 12bd 13f8 d2bc 720c 0cbb 68c7 6f3a
00000150: 566e c3bb d187 59bc f5ad 423b 270f adbc
00000160: 04c7 b23b 8724 c1bb 3e63 26bd de91 0dbd
00000170: 191e 11bd eb64 d4bc 9c8f 95bc f1da 6fbb
00000180: 211b 0e3c c98b 8bbb 6688 d93c 26aa 8c3a
00000190: 877d b33c d3be fdbb 2774 4dbb a1e8 a6bc
000001a0: 3872 fb3c 293b d63b cf9e b2bc e601 d93b
000001b0: c857 6bbc cf90 1a3c 4f55 b63a ddab db3c
000001c0: f50d ce3c 3474 73bc b110 ed3c 609a bebb
000001d0: 14c6 143d 4072 193d da3e be3c 598d 413d
000001e0: 5003 3d3c 3158 44bb 828a ea3c 893f f33c
000001f0: 22a1 f4bc 826b df3c 32d8 be3c 9f5b a5bb
00000200: a1a4 043c c102 093d 7543 12bd 0054 2e3a
00000210: ba1b dfbc e643 dabb f469 1cbc 6c8a 883c
00000220: 6bae b73c aa2f 98bc 41ac 2cbd dd67 a1bc
00000230: b37a 8dbc df4b 37bc 7239 6d3c 4b39 193d
00000240: 20d2 3fbc 93a5 96bc 5db1 d63b ab5b 0c3d
00000250: 5dae 6fbb 8fbc 803b ed6c 41bd 1636 6dbd
00000260: f047 63bd f48e 16bc f910 bbbc 5b6a a7bc
00000270: 5c9c 3b3c 301c fabc d62b 63bd 3875 debc
00000280: a465 1cbd cce0 9cbc 9df4 a43c 3355 20bd
00000290: d047 e03c 93db 28bc d19e 473d f957 d63c
000002a0: c4c8 963c 48cd c33c fab9 e1bc 1060 443d
000002b0: cb6b f2bb ce83 ad3c 60b2 1a3c b711 f1bc
000002c0: 6ddd 40bd f36f fbbc a0bb 04bd a7c2 34bc
000002d0: 7038 d83c 5829 05bd 5233 a1bc 387f aebc
000002e0: 7bb1 843c bbc6 203d 5f6e 353d d5ed b2bc
000002f0: d88e 153b 881b 5abc 65f0 a2bc 8eac 9dbc
00000300: d413 32bd 39e7 09bc d609 323c 5e8a d73a
00000310: f602 00bc ec86 c33b de1b 533c 5588 843c
00000320: d08d 81bc 4810 9bbc c218 1ebd 4af6 cabc
00000330: 7112 d8bc c7ce a03c c3ab 0dba b0c0 b1bc
00000340: b34a 773c a9e5 9c3c b845 cc3c cdc2 3e3c
00000350: 55cd d0bb 2e0d eb3c df62 233d 4f2a 03bc
00000360: 1ffb 0d3c 1980 cebc 96ad 833c 58b2 e8ba
00000370: 8450 933c ee01 6c3c 8975 fa3b 37b4 073d
00000380: 84af 633c 735b 3cbd f89b dcbb 5840 20bd
00000390: a8e4 15bd 7fd0 2c3c a51d b13c 4940 5dbc
000003a0: be78 cbbc 0cdf eebb 649a 0dbb e89a 2dbc
000003b0: bd3c 13bd 2bf4 8c3c 1ade 05bc 1157 77bc
000003c0: 90b7 2ebd 63f4 e63a 0b1d 853c f311 2ebc
000003d0: abc3 bebc c343 28bc 351f b8bb 7e53 a0bb
000003e0: fd7b 03bd f3b4 b8bc e6d5 d3bc 602f 26bd
000003f0: 7ccb d9bc d8c2 14bd d474 03bc feb0 efbc
-0.044049077 -0.068667285 -0.05999122 -0.030768303 -0.058413006 0.005857016 0.0064422265 0.018223466
0.007720641 -0.012866436 0.0068069813 -0.037490994 -0.081058696 -0.06376596 -0.029864859 -0.025724547
-0.02846848 -0.036327068 -0.024656046 -0.03086955 -0.049558893 0.007127881 -0.0681284 -0.025587367
-0.02446913 0.00021376525 0.011046032 -0.03138775 -0.027387219 -0.04041978 0.0014506958 -0.02734183
-0.015295164 -0.021079265 -0.006733736 0.0110058775 -0.016781762 0.026921269 0.012465836 0.00796252
-0.036725253 -0.009860961 -0.056095596 -0.00441386 -0.016432827 -0.011723054 -0.019531691 -0.00945568
-0.0014579827 -0.007291671 0.00231695 -0.033416826 -0.016683286 0.009891881 -0.02680813 0.039218526
-0.018662347 0.026536047 0.022470206 -0.024312321 -0.003683341 -0.045655016 -0.01952448 0.020778397
-0.0022059216 -0.013133036 -0.041208137 -0.02542497 -0.0415909 -0.025585853 -0.036309365 0.012932673
-0.019370481 -0.034625884 -0.023469862 0.0068532526 -0.019602714 -0.009809054 0.011225333 0.018150592
-0.03572546 -0.025753057 -0.0021369723 0.00091468403 -0.005964081 -0.01327701 0.0029705737 -0.02112539
0.0054558534 -0.005894247 -0.04062199 -0.034562938 -0.035429094 -0.025927028 -0.018256955 -0.0036599005
0.00867346 -0.004258607 0.026554298 0.001073186 0.021910442 -0.0077436953 -0.003134975 -0.020374598
0.030694112 0.006537814 -0.021804241 0.0066225408 -0.01436419 0.009433939 0.0013910922 0.02681535
0.02515314 -0.014859248 0.028938623 -0.005816743 0.036321715 0.037462473 0.02322333 0.04725394
0.011536434 -0.0029959793 0.028630499 0.029693382 -0.02986199 0.027272943 0.02329645 -0.0050463225
0.008095891 0.033449892 -0.035708863 0.000665009 -0.0272349 -0.006660926 -0.009546746 0.016667567
0.022422036 -0.018577415 -0.04215646 -0.019702846 -0.017270422 -0.011187523 0.014479028 0.037408154
-0.011707813 -0.018389499 0.006551905 0.03426711 -0.0036572434 0.003928728 -0.04722302 -0.05791291
-0.055488527 -0.009189356 -0.022835242 -0.020436456 0.011450853 -0.030531019 -0.055461727 -0.027155504
-0.03818287 -0.01915016 0.020136172 -0.039143752 0.027377993 -0.010306257 0.048735444 0.026164996
0.01840628 0.023901597 -0.0275545 0.047943175 -0.007398104 0.021181013 0.009441942 -0.029427392
-0.047086168 -0.03069303 -0.032405496 -0.011032737 0.026394099 -0.03251013 -0.019677792 -0.021300897
0.01619791 0.039252024 0.04429471 -0.021841923 0.0022820737 -0.013312228 -0.01989002 -0.01924732
-0.04347594 -0.008416944 0.010866603 0.0016444435 -0.007813206 0.0059670117 0.012885062 0.01617829
-0.015814692 -0.018928662 -0.03859783 -0.024775643 -0.026375981 0.01962985 -0.00054043176 -0.021698326
0.015093493 0.01915248 0.024935588 0.011643124 -0.0063721337 0.028692808 0.039889213 -0.008005693
0.008665829 -0.025207566 0.016073983 -0.0017753346 0.017982729 0.014404757 0.007643406 0.03313085
0.013896827 -0.04598565 -0.00673246 -0.039123863 -0.036595017 0.010547756 0.02162058 -0.013504096
-0.024837848 -0.007289773 -0.0021606917 -0.010596015 -0.035946596 0.017206272 -0.008170629 -0.015096442
-0.042655528 0.001762044 0.0162492 -0.010624397 -0.023286661 -0.010270062 -0.0056189545 -0.0048927655
-0.032100666 -0.02254722 -0.02585883 -0.040572524 -0.026586287 -0.03631863 -0.008023459 -0.029259201

bias f4 [18]
00000000: 5d4a 47bc 4b30 4ebb de97 8bbc 78a9 dabb
00000010: a4da 0dbd a6ac cf3c 1aa3 b33c d750 81ba
00000020: 4825 18bd 72d1 b3bb 71cd fbbc f75f 203c
00000030: d612 a63b 747a 08bc 1f3b b7bb 1377 fab9
00000040: de6b ef3b 3250 62bc
-0.012163726 -0.003146189 -0.01704019 -0.0066730343 -0.03463234 0.02535088 0.021928359 -0.0009866011
-0.03714493 -0.0054876143 -0.03073761 0.009788505 0.0050681634 -0.008329976 -0.0055917646 -0.00047772433
0.00730656 -0.013813065

weight f4 [18]
00000000: 4227 843f 2e7d 7e3f 60d4 7c3f eb97 843f
00000010: 2e71 803f 2098 803f 854f 813f a32f 823f
00000020: 7415 763f f18d 803f 7e19 863f 0002 803f
00000030: 96c4 753f da98 7b3f d9c9 7a3f e819 7f3f
00000040: 636a 7b3f 3d42 813f
1.032448 0.9940976 0.9876156 1.0358862 1.003454 1.0046425 1.0102392 1.0170788
0.96126485 1.0043317 1.047653 1.000061 0.9600309 0.9828011 0.97964245 0.99648905
0.9820921 1.0098339

bias f4 [18]
00000000: 79e1 35bd 06e8 46bd 535c d3bc 696d 0cbd
00000010: a661 debc c365 6dbc ac80 71bd 2d5c 96bd
00000020: 024f 22bd c3f8 48bc 0e25 12bc 33be dfbc
00000030: 01f3 4fbc bc20 983b de5d 89bd cfe2 fcbb
00000040: 8a20 8dbc f6c1 7bbd
-0.04440448 -0.04856112 -0.02580086 -0.03428403 -0.027146172 -0.014489594 -0.0589606 -0.073418
-0.03962613 -0.012266341 -0.008919967 -0.027312374 -0.012692214 0.004642574 -0.06707357 -0.0077174674
-0.01722743 -0.061464272

running_mean f4 [18]
00000000: 317e bdbf aa45 a2bf da52 9e3e e05e 03c0
00000010: 1f99 833f aec7 02c0 e80b 82bf fd42 22bf
00000020: b009 413f 185b 54c0 2705 7e3f f4ed a0bf
00000030: 9618 3f3f e7ab f23e a1c8 05c0 0ab2 a13f
00000040: f331 9a3f eb40 79be
-1.4804136 -1.267751 0.30922586 -2.0526657 1.0281104 -2.0434375 -1.0159883 -0.63383466
0.75405407 -3.31806 0.9922661 -1.2572618 0.7464689 0.47396776 -2.0903704 1.2632458
1.2046493 -0.2434117

running_var f4 [18]
00000000: ae4a 853f 63a2 fc3f 6768 833f 19d4 943f
00000010: a326 b73f ef73 0640 51ce 863f d175 803f
00000020: bfb3 d73f c0b1 0740 a6e5 e13f d898 293f
00000030: 5edc a43f ab66 ef3e 8c39 5f3f cd39 5b3f
00000040: 7971 873f 16b7 0140
1.0413415 1.9737056 1.0266236 1.1627227 1.4308666 2.100826 1.0531713 1.0035955
1.6851729 2.120224 1.7648208 0.66248846 1.2879751 0.46758017 0.87197185 0.8563507
1.0581504 2.0267997

weight f4 [6, 18, 5, 5]
00000000: ed00 613d 2125 f83b 54ea 643d e585 e23b
00000010: dd4c 813d aa03 6a3d 9124 283d edf4 843c
00000020: 9fe3 443d de34 083d 1688 343d 9487 f63c
00000030: 7951 353d f847 583c d966 8dbc 2a4c b43a
00000040: 06d1 c93c 2481 5bbd f735 d63c 8c44 1bbd
00000050: 444b b43c df6a cb3c eaa2 a83c 4ab4 203d
00000060: b024 07bd 7690 c73c f659 573d 5ac7 363c
00000070: 60fc 553d 2f14 92bc b942 0ebd cb14 1b3c
00000080: b5d5 08bd 41b6 39bd 626f 0abd 370a 1dbc
00000090: 65d2 65bc 709e 8b3c 60f1 0cbd 0351 9abc
000000a0: 7068 cb3b 5824 983c 4b5c 50bd 1e13 593d
000000b0: 38c3 513d 394f d03c a78b 4abc 5cc1 f73c
000000c0: e23c 913b e925 21bd ed8c 8a3c 82bc 253d
000000d0: eaeb 473c 5479 603c 2ac5 323d 11d7 49bc
000000e0: da64 29bd 1468 43bd 1d77 a0bc b343 863c
000000f0: 6f99 6dbd e58c ac3c 3bf7 70bd f07f e3bc
00000100: 4441 f5bc 2c9f f2bc 0ce0 cd3c b105 263d
00000110: 397b 8e3b 34c8 813c d302 2ebd 7142 1e3d
00000120: 0547 993c 09ba bc3c b5e5 d0bc 37e1 adbb
00000130: 462a a1bc b081 413c 07ad ad3c b0f8 d8bb
00000140: 66a0 e73c 4f33 6ebc a14d 043b 3053 0b3d
00000150: fc94 023d e1e4 1b3d 7145 023d 0264 5a3d
00000160: 90f3 c7ba 646d 223d ddb5 8e3d b203 9f3d
00000170: 4804 2d3a f00b af3d 693f a43d 04d8 3abd
00000180: 2401 47bd 4ddc 1ebc 2d92 fe3c baab 053b
00000190: 6b40 b7bb e442 babb 69a7 8a3d 351c 0c3d
000001a0: 6c0c 553d feb2 debc 8d1b dabc a80e b53c
000001b0: 11a1 813b 78f3 a43b 30c3 203d fb74 213c
000001c0: af46 26bc 71f6 ce3c a359 b4bc bd66 b2b9
000001d0: 926f 293d 8f4e 6b3d b654 703c 21da d73c
000001e0: 38b8 d13c 86af 68bc 5b52 213b f372 f83c
000001f0: da39 6f3b c6a9 79bd 7f21 883b 6d56 83bb
00000200: 22c0 cabc e426 de3c 67fb b5ba dcad 3dbc
00000210: 0e5f 3ebb 0fb5 2a3d d1e0 cbbc 01c6 f93c
00000220: 2711 95bd 0582 1bbd 0026 3dbd 4419 9ebc
00000230: 169e fcbc c736 5cbd f7d2 483c 1cb3 a9bc
00000240: 1a8c ac3c c182 99bd 4b78 e7bc caec 9ebc
00000250: 0dbd 4fbd a7c5 f5bc bbed 413d 565a b13d
00000260: f67c 3a3d a654 1d3d f9af 193d c2e4 13ba
00000270: c95b 91bc c906 ebbc 526b 9bbc 8a34 bcbc
00000280: bfff 00ba 2b75 69bc 46f4 8c3c d6b0 4a3d
00000290: 4315 7f3d a92e 04bd e8c8 d1bc b54b 113c
000002a0: 8b40 253c d94a 073d eaf8 f33c d042 073d
000002b0: 91d0 46bd 6576 babb ba55 273d dab6 2dbd
000002c0: 76aa 84bd e0cb 31bd 19e0 39bd 4f9b 78bd
000002d0: fdf9 073d 2b8e 163d 3d30 0dbb a9d0 a13c
000002e0: 93b5 7e3b 8abc 693d 4a62 3439 a18f d73c
000002f0: 6fe9 813d 63a8 083c 5ba6 aebc 4cac 0d3d
00000300: 8112 14bd d64f b23a f820 a63c 1fdd dabc
00000310: 22be 20bd 6d27 36bd ad01 acbb 9858 38bd
00000320: 0174 b3bb 5565 98bb 9f82 efbc 2f98 143c
00000330: e9e7 a3bc 7e89 8ebc 6add c4bc c933 6d3c
00000340: f672 023c 6c3f 343d 6999 cd3b 10f2 c4bc
00000350: eacd e73b f5bb 203d b28a 91bc 0344 8bbc
00000360: 85db 6abc 316b 87bc bb5f 95bc 0481 a6bc
00000370: 7420 ab3c 5624 41bd b6ec 3f3c 32a5 9fbc
00000380: f228 a03c 3f93 083c bd55 a4bc fca1 8cbd
00000390: 0cc7 7bbd e08e 75bd 26ce 02bd b3a1 8fb8
000003a0: 2967 19bd 349a c9bc 447c 9abc 7683 07bd
000003b0: c66d 17bd 1d5c 2dbb f667 763d c7be f7bc
000003c0: aca2 0ebd ab05 3bbd fa12 743b 6453 183c
000003d0: 47ba f63c b223 b1bd 8ca0 82bd fb15 60bd
000003e0: 4c89 a5bc 51c7 4abc a831 343d f49e 5a3d
000003f0: e501 57ba 1462 4d3c 1143 e1bc 93b0 2ebc
0.054932524 0.0075727855 0.055887535 0.006912934 0.06313489 0.0571324 0.041050497 0.016230071
0.04806864 0.033253543 0.044075094 0.030093946 0.04426715 0.013200752 -0.017260956 0.0013755609
0.024635803 -0.053589955 0.02614878 -0.03790717 0.022008546 0.024831234 0.020585496 0.039234437
-0.032993972 0.024360877 0.052576028 0.011155928 0.052242637 -0.01783189 -0.0347316 0.009465407
-0.033406932 -0.045339826 -0.03379763 -0.009584955 -0.014027213 0.017043322 -0.03440988 -0.018837458
0.0062075183 0.018572018 -0.050869267 0.052996747 0.051211566 0.025428401 -0.012362397 0.030243568
0.0044323066 -0.039342795 0.016912902 0.04046298 0.012202242 0.013700802 0.04364506 -0.012319342
-0.041355945 -0.04770668 -0.019588048 0.016389703 -0.058007654 0.021063277 -0.058829527 -0.027770966
-0.029938348 -0.029616915 0.025131248 0.04053277 0.0043481854 0.015842535 -0.042483162 0.038637582
0.018710623 0.023037927 -0.025500158 -0.0053063887 -0.019673478 0.011810705 0.02120067 -0.0066214427
0.028274726 -0.0145386 0.0020187872 0.03401488 0.031880364 0.038060073 0.031804506 0.05331803
-0.0015255082 0.039655104 0.069682814 0.07764377 0.0006600064 0.08547199 0.08019907 -0.045616165
-0.048585072 -0.0096960785 0.031075561 0.0020396546 -0.005592396 -0.0056842435 0.06770212 0.034206588
0.0520138 -0.02718496 -0.026624465 0.022101715 0.003955968 0.0050339065 0.039248645 0.0098545505
-0.010148688 0.025263997 -0.022015398 -0.00034027352 0.041366167 0.057447966 0.014668634 0.02634913
0.025600538 -0.014202004 0.0024615738 0.03032825 0.0036502988 -0.060952924 0.0041543837 -0.0040081055
-0.02474982 0.027118154 -0.0013884128 -0.011577096 -0.0029048356 0.041676577 -0.024887474 0.030489923
-0.07278662 -0.037965793 -0.046178818 -0.019299157 -0.0308371 -0.053763177 0.012257329 -0.020715289
0.0210629 -0.074956425 -0.028255602 -0.01940002 -0.050717402 -0.030001475 0.047345858 0.08659808
0.04552933 0.038410805 0.037521336 -0.00056416926 -0.017743962 -0.028689759 -0.018972073 -0.022974271
-0.00049209216 -0.014249126 0.017206322 0.04948505 0.062276136 -0.03227106 -0.025608495 0.008868148
0.010086189 0.033030365 0.029781777 0.0330227 -0.04853875 -0.0056903833 0.04085324 -0.04241071
-0.06477825 -0.04340732 -0.04537973 -0.06069499 0.03319739 0.036756676 -0.0021543645 0.019752817
0.003886555 0.05706457 0.00017202753 0.026313605 0.06343352 0.008340928 -0.021319559 0.034588143
-0.03615046 0.0013604115 0.020279393 -0.026716767 -0.039243825 -0.044471193 -0.005249223 -0.045006365
-0.005476475 -0.0046507516 -0.02923709 0.0090694865 -0.020008044 -0.017399546 -0.02403136 0.014477679
0.007961979 0.044005796 0.0062743914 -0.024041206 0.0070741074 0.03924175 -0.01776633 -0.017000204
-0.014334564 -0.016530605 -0.018234124 -0.020325191 0.020889498 -0.047153793 0.011714151 -0.019487951
0.019550774 0.008335887 -0.020060414 -0.068668336 -0.061469123 -0.05995071 -0.03193488 -6.84889e-05
-0.037451897 -0.024609663 -0.018858083 -0.033084355 -0.036969922 -0.002645261 0.06015774 -0.030242337
-0.034823105 -0.045659702 0.0037242756 0.009297226 0.03011812 -0.086493865 -0.06378278 -0.054708462
-0.02020707 -0.012376622 0.04399267 0.053374246 -0.00082018814 0.012535591 -0.0274978 -0.010662216

bias f4 [6]
00000000: b3f8 38bd 6bc9 6f3c f3ec 9f3b 3734 293d
00000010: f9e3 0d3b 5d0a f33c
-0.045159053 0.014635424 0.0048805415 0.04130956 0.0021650775 0.029668028

weight f4 [6]
00000000: 12ef 7b3f a45c 833f 4f9d 753f 3335 7b3f
00000010: 4b30 843f d2ac 7d3f
0.9841167 1.0262647 0.9594316 0.9812805 1.0327238 0.9909183

bias f4 [6]
00000000: 4145 423d 1f59 4b3d 6082 b63c 4c92 fe3c
00000010: 5a13 3a3d 8472 abbb
0.047429327 0.04964554 0.022278965 0.03107562 0.04542861 -0.005232157

running_mean f4 [6]
00000000: 13b7 3f3f e5b9 c2be 0b3b 37bf a3c7 e63e
00000010: 9038 28bf 0afc e43e
0.74888724 -0.3803245 -0.7157447 0.45074186 -0.6571131 0.4472354

running_var f4 [6]
00000000: 9f94 cc3f 4724 253f 643a 263f ebf0 1740
00000010: 5fc9 183f 4ec9 3f3f
1.5982856 0.6450848 0.6493285 2.3740795 0.5968227 0.7491654

weight f4 [1, 6, 5, 3]
00000000: c734 af3d 1545 843b 7549 c83d 2a3a a83c
00000010: e118 af3d 4179 383c 6ed8 56bd d221 88bd
00000020: 6b6a 0b3c 8bb1 ce3d ca46 263d 249d d8bc
00000030: 571d 88bd 7ca3 01bd 8819 6ebd 7fc7 b63d
00000040: 8358 813d 77c2 c73d 4b7b 553d b37b 6d3d
00000050: c4dc a43d 24b0 0dbc 0bcf ac3c 79c2 79bd
00000060: 2548 7a3d 2899 873d a21e 533d 5e7a 9f3c
00000070: 4e5c 0b3d aa2c ed3d 052d 3cbd 6b78 30bd
00000080: dc93 84bd eecd 113d 276c d23c b62c cfbc
00000090: 187e 223d 44e8 ba3d 9b95 22bd e318 1bbd
000000a0: d081 303d 0d53 a73d 05d8 93bd cdcd f4bc
000000b0: 03b4 bb3b 558f 963d 90ae ffbc 6fa0 8fbd
000000c0: 92c3 ffbb 4249 cf3c 3b22 133d 2d8d e6bd
000000d0: 7fca cbbc ada2 98bd 9b3a 08be d27e 96bd
000000e0: c2f2 3dbc 9b76 a5bb ecd4 823c 1a0d c8bb
000000f0: adad 2f3d 10f3 7ebc 2da9 ad3c 157f 163e
00000100: 843f 943d 45e1 2e3e 0df5 7dbd 80bd 66bd
00000110: c403 03be 27e9 3dbd e0cf 30bd bc84 8dbc
00000120: 5995 75bc 4c71 74bd be8d 00bc 299f 0cbe
00000130: 1032 18bd 9d5f b9bd 3915 933d a241 343c
00000140: 0cd4 443d 48e2 543d bba8 c63c 6e63 abbc
00000150: 4f2b 963a c695 c6bc 1c2e a3bd cfda 6fbd
00000160: 411f 663b dc43 563d
0.08554988 0.0040365555 0.09779636 0.020535547 0.08549667 0.011259378 -0.052452497 -0.06647076
0.008509259 0.100924574 0.040594853 -0.026442118 -0.06646221 -0.03165005 -0.058129817 0.089247696
0.063157104 0.09753888 0.052119534 0.057979297 0.0804992 -0.008647952 0.02109482 -0.06097648
0.06110396 0.06621009 0.051542886 0.019467529 0.034023575 0.115807846 -0.04594137 -0.04308359
-0.064735144 0.03559678 0.025686337 -0.025289875 0.039671034 0.091263324 -0.039693456 -0.03786553
0.04309255 0.081701376 -0.07218937 -0.02988329 0.005728246 0.07351557 -0.031211168 -0.07013022
-0.007805296 0.025303487 0.035921317 -0.11257396 -0.024876831 -0.07452903 -0.13303606 -0.07348408
-0.0115935225 -0.0050495393 0.01597067 -0.0061050775 0.04289024 -0.01556088 0.021198833 0.14696915
0.07238677 0.17078121 -0.062001277 -0.056333065 -0.12794405 -0.04636493 -0.043166995 -0.017275207
-0.014989221 -0.05967836 -0.007846294 -0.1373259 -0.03715712 -0.0905144 0.07181782 0.011001976
0.048053786 0.05197361 0.024250379 -0.020921435 0.0011456999 -0.02424134 -0.07967779 -0.05855828
0.0035113844 0.05231081
