source/models/MelodyTimbreCNN/model_MIDIsampledseen_try2.pth (torch, 204095 bytes, 31 tensors)

weight f4 [6, 1, 5, 5]
-0.057800885 -0.13328734 -0.19552669 0.089642346 -0.049080312 0.026740447 -0.01731156 0.1711925
0.23876542 -0.04693039 0.011480849 0.13284217 -0.13377169 -0.08365914 0.08791028 -0.13765153
-0.11815041 -0.040284302 -0.014231821 0.094615646 -0.20156315 0.15235925 0.04665248 0.14074218
0.12561332 -0.1657107 -0.04946818 -0.10257547 0.0090887565 0.115068264 -0.027186729 -0.070438534
0.026539382 0.07760853 0.04804237 -0.18540858 -0.025616482 0.027643573 0.15882833 0.14326379
-0.14686532 -0.12553714 0.02574465 -0.1309573 -0.0847666 0.11249013 -0.037071347 0.095450476
-0.24288926 -0.09169835 0.13531944 0.050542418 0.06700418 -0.09006883 0.05567561 0.15750512
0.06780472 -0.23056857 0.07106392 0.04633678 -0.002583221 -0.07317122 0.20778137 0.11927464
-0.14582606 0.0665438 -0.05115162 0.04759403 0.042606797 -0.14797738 0.19544418 0.17122938
-0.192132 -0.035334606 0.00029991762 0.02269503 -0.03448346 -0.006594193 -0.0897477 0.1513818
0.026264349 -0.019195465 0.03494274 0.076393105 0.175315 0.17387892 0.091184475 0.10866859
0.06678517 0.27482545 -0.13266896 -0.0060147378 -0.21516737 -0.07602538 0.045727376 -0.07811959
-0.057227414 -0.0697336 -0.092390604 0.17699152 0.17667802 0.2455915 0.029806502 -0.04108807
0.08097032 0.052955694 0.12205566 -0.018866356 -0.04144818 0.0375045 -0.14920887 -0.13308309
-0.08202832 -0.15377879 -0.11656581 -0.07160279 0.13915409 0.07150604 0.1594937 0.08149222
-0.09394452 0.003935233 0.09407735 0.08827312 0.025716174 0.03404682 -0.19400103 0.08022037
0.090804555 -0.02468794 0.17841886 0.046582002 0.14801003 0.20144159 -0.20373648 -0.054433204
-0.13459687 0.11319519 -0.011412082 0.09575253 -0.21007 0.01598137 0.08264717 0.11248286
-0.16427815 0.01862178 -0.1223735 -0.094711244 -0.011848727 -0.15157199
00000000: 9fc0 6cbd 7a7c 08be 2638 48be 6896 b73d
00000010: 7008 49bd c80e db3c f9d0 8dbc 164d 2f3e
00000020: ec7e 743e 153a 40bd 2c1a 3c3c c707 083e
00000030: 72fb 08be 7c55 abbd 4e0a b43d 86f4 0cbe
00000040: d8f8 f1bd 2701 25bd 952c 69bc d9c5 c13d
00000050: 9266 4ebe 1004 1c3e ac16 3f3d b81e 103e
00000060: c7a0 003e 11b0 29be 259f 4abd 1713 d2bd
00000070: 02e9 143c e9a8 eb3d b4b6 debc 1442 90bd
00000080: 1e69 d93c 39f1 9e3d 13c8 443d bfdb 3dbe
00000090: a8d9 d1bc c674 e23c e5a3 223e beb3 123e
000000a0: dd63 16be cf8c 00be 72e6 d23c ac19 06be
000000b0: 1c9a adbd 3a61 e63d 20d8 17bd 8a7b c33d
000000c0: f6b7 78be 58cc bbbd 2e91 0a3e 9105 4f3d
000000d0: 7d39 893d 0276 b8bd 1c0c 643d 0649 213e
000000e0: 33dd 8a3d 2b1a 6cbe f689 913d a3cb 3d3d
000000f0: 424b 29bb cbda 95bd a4c4 543e 4346 f43d
00000100: 6d53 15be 1e48 883d 5c84 51bd f5f1 423d
00000110: 7784 2e3d 6287 17be 8522 483e c156 2f3e
00000120: 40be 44be 05bb 10bd 433e 9d39 edea b93c
00000130: 873e 0dbd 1a14 d8bb a4cd b7bd d503 1b3e
00000140: 5528 d73c cf3f 9dbc 1e20 0f3d fd73 9c3d
00000150: c685 333e 510d 323e edbe ba3d a38d de3d
00000160: aac6 883d ecb5 8c3e 5fda 07be 4717 c5bb
00000170: d654 5cbe 32b3 9bbd a14c 3b3d 2afd 9fbd
00000180: 4b67 6abd 7dd0 8ebd 4937 bdbd 443d 353e
00000190: 15eb 343e 577c 7b3e c42c f43c f74b 28bd
000001a0: c4d3 a53d 12e8 583d 51f8 f93d 9e8d 9abc
000001b0: 91c5 29bd 529e 193d 36ca 18be ef46 08be
000001c0: 77fe a7bd 3078 1dbe 0eba eebd 7ca4 92bd
000001d0: 697e 0e3e c271 923d 5152 233e 65e5 a63d
000001e0: fc65 c0bd 21f3 803b a0ab c03d 8ac8 b43d
000001f0: baaa d23c ae74 0b3d 35a8 46be 944a a43d
00000200: bdf7 b93d 5d3e cabc 6fb3 363e c5cc 3e3d
00000210: f18f 173e b446 4e3e 4ca0 50be 5af5 5ebd
00000220: c3d3 09be e1d2 e73d bef9 3abc e719 c43d
00000230: 971c 57be 5deb 823c eb42 a93d 6a5d e63d
00000240: 8838 28be b48c 983c f59e fabd f8f7 c1bd
00000250: 2a21 42bc b035 1bbe

bias f4 [6]
-0.10625419 0.051637035 -0.016893955 0.14750554 0.0072772535 -0.14990658
00000000: cc9b d9bd 5b81 533d 3165 8abc b10b 173e
00000010: 0776 ee3b 1c81 19be

weight f4 [6]
1.0764298 0.9615768 0.9279248 0.9788351 0.93644893 1.0764518
00000000: 74c8 893f e629 763f 7b8c 6d3f f094 7a3f
00000010: 1ebb 6f3f 2cc9 893f

bias f4 [6]
0.0115127405 -0.061449066 -0.07236486 -0.073077515 -0.07613784 -0.008890266
00000000: ef9f 3c3c 04b2 7bbd 0734 94bd aaa9 95bd
00000010: 28ee 9bbd 7aa8 11bc

running_mean f4 [6]
-0.10825988 0.051493805 -0.013851889 0.15408619 0.011068296 -0.14514166
00000000: 5bb7 ddbd 2beb 523d 09f3 62bc c5c8 1d3e
00000010: cc57 353c 04a0 14be

running_var f4 [6]
0.087472014 0.39937645 0.29324612 0.3847698 0.23364627 0.0999181
00000000: 8724 b33d 127b cc3e 5b24 963e 8c00 c53e
00000010: f840 6f3e dca1 cc3d

weight f4 [18, 6, 5, 5]
0.11606621 0.09776698 -0.015163662 -0.09402936 0.014894525 -0.02116981 0.019913854 -0.01673761
-0.12910277 -0.11253214 0.096123315 0.091677874 0.033119187 -0.038367838 0.0007697064 -0.010766283
-0.008971982 0.05426829 0.03915686 -0.039922874 -0.0005892494 -0.07310119 -0.010223247 0.0999212
-0.026987584 -0.040795762 0.10859368 0.102823794 -0.0068270657 -0.02572925 0.05132777 0.015748695
0.08954932 -0.041732755 0.04963538 0.027401432 0.116330355 0.0544164 0.0056707105 -0.04462599
-0.044518862 0.047414087 -0.04261906 -0.0010643974 -0.06017066 0.025840228 0.04699506 0.053986937
-0.016836192 -0.06563332 0.030908914 0.061728697 0.08160093 0.021727348 -0.03887523 -0.040360127
0.058856014 0.03430174 0.123374574 0.061739236 -0.050599128 0.06851769 0.022260204 -0.00554319
-0.02197555 -0.05608075 0.014875164 -0.0013630857 0.08030926 0.016427606 0.04663672 0.05733629
-0.06896044 0.013256251 -0.053357974 -0.08673287 0.07045259 0.05209296 0.00045600376 -0.11749993
0.030833986 0.08469328 0.004236789 0.06369609 0.06566269 0.048996273 -0.0035779527 0.02194733
0.06382788 0.066224165 0.098642744 0.09059702 -0.077653274 -0.00064859085 -0.007375258 -0.028387696
-0.07325183 -0.0871091 -0.023658196 -0.036381774 0.022408968 0.08236638 0.04304926 0.025059886
0.004716574 -0.050810013 -0.02052742 0.056305178 -0.024644122 -0.07966756 -0.012847524 0.07186015
-0.042566698 0.03525536 -0.003140718 -0.08140881 0.047894605 0.022404803 0.035499252 0.06523278
-0.011727138 -0.056023307 -0.023363193 0.044956196 0.035253912 -0.09093337 -0.13478269 -0.054113045
-0.057477858 -0.1262758 -8.292098e-05 0.0080602635 0.040949147 0.04601334 -0.0018378424 -0.08758167
0.017775334 -0.038317654 -0.036285736 -0.14243025 -0.053371992 -0.059503455 -0.06313396 -0.078469336
-0.13866265 0.04509318 0.044773445 0.026722847 0.017455159 0.021110754 0.05245515 -0.0065718316
-0.08960364 0.084093 0.013157578 -0.051859368 -0.0766258 0.06179035 -0.014536484 0.015986616
-0.022741862 0.027980728 0.062473994 -0.009119966 -0.042564895 -0.12687448 0.0651996 0.085551046
-0.027023228 -0.058471497 -0.024677664 -0.045940593 0.036498617 -0.06667472 0.0032827451 -0.091413155
-0.102398224 -0.045465212 0.043015663 -0.019645669 0.0916501 0.0042260494 -0.054579962 0.05954149
0.031165669 0.12674192 -0.000251087 -0.0018436771 0.066934675 0.1379675 0.06817239 0.055134587
0.014959989 0.0815856 0.11006079 -0.04000158 -0.012667801 0.030824723 0.022001294 0.11575451
-0.068126045 0.011981035 -0.004694287 -0.085340135 0.03765065 -0.0065827924 0.08208845 -0.016732955
0.06852282 0.054360513 0.06655332 0.07846463 -0.09791435 0.031302087 0.012705845 -0.07216398
-0.015165888 -0.0340104 0.0870706 0.040082898 -0.03142722 0.11033293 -0.098985314 0.15887359
-0.024230616 -0.07738264 -0.0601982 -0.056810293 -0.06621475 -0.09698578 0.0036517514 0.08703759
0.058308013 -0.038515486 -0.015666654 -0.09635044 -0.047853444 0.017039388 -0.016505262 0.054167565
-0.07506623 -0.019386446 0.009831402 0.013278284 0.03460094 0.057290338 0.08048017 -0.030288689
-0.048355944 0.010618458 -0.031832334 -0.041544262 -0.07005841 -0.121242106 -0.07929299 -0.082511015
00000000: 1fb4 ed3d 0e3a c83d 0271 78bc 7792 c0bd
00000010: 2a08 743c 4f6c adbc 6122 a33c 501d 89bc
00000020: 8433 04be 4077 e6bd 4ddc c43d 9cc1 bb3d
00000030: fca7 073d 9827 1dbd 1fc6 493a 1065 30bc
00000040: 38ff 12bc 6d48 5e3d f262 203d 2b86 23bd
00000050: dc77 1aba 14b6 95bd 687f 27bc 7ca3 cc3d
00000060: 1115 ddbc 7519 27bd 5d66 de3d 4895 d23d
00000070: 94b5 dfbb 26c6 d2bc 113d 523d 6803 813c
00000080: a265 b73d f7ef 2abd 784e 4b3d f878 e03c
00000090: 9c3e ee3d bbe3 5e3d 5ed1 b93b bec9 36bd
000000a0: 6959 36bd 4635 423d 5391 2ebd 4083 8bba
000000b0: 8375 76bd e3ae d33c e47d 403d 6821 5d3d
000000c0: 0eec 89bc c36a 86bd b134 fd3c 3bd7 7c3d
000000d0: 631e a73d 8dfd b13c a23b 1fbd a950 25bd
000000e0: 0113 713d fb7f 0c3d cfab fc3d 48e2 7c3d
000000f0: 0841 4fbd 0153 8c3d 085b b63c a6a3 b5bb
00000100: 1206 b4bc eeb4 65bd f6b6 733c 91a9 b2ba
00000110: 2e79 a43d 3093 863c 2506 3f3d 75d9 6a3d
00000120: 223b 8dbd bf30 593c e48d 5abd 01a1 b1bd
00000130: 7349 903d 6d5f 553d ca13 ef39 cea3 f0bd
00000140: 8e97 fc3c ac73 ad3d c3d4 8a3b 1873 823d
00000150: 297a 863d 51b0 483d 167c 6abb e3ca b33c
00000160: 31b8 823d 89a0 873d 3505 ca3d ee8a b93d
00000170: ae08 9fbd 3206 2aba 26ac f1bb 508d e8bc
00000180: 0e05 96bd 4166 b2bd d5ce c1bc 0e05 15bd
00000190: 0393 b73c b4af a83d 6c54 303d 644a cd3c
000001a0: 7e8d 9a3b 291e 50bd 1f29 a8bc 42a0 663d
000001b0: 78e2 c9bc bf28 a3bd 6c7e 52bc 6a2b 933d
000001c0: 6b5a 2ebd ed67 103d 81d4 4dbb aab9 a6bd
000001d0: 222d 443d 478a b73c aa67 113d c498 853d
000001e0: 2f23 40bc b278 65bd 2b64 bfbc fd23 383d
000001f0: 6866 103d 463b babd 7904 0abe a4a5 5dbd
00000200: e76d 6bbd 714e 01be dde5 adb8 320f 043c
00000210: 4bba 273d 7c78 3c3d c2e3 f0ba 055e b3bd
00000220: 949d 913c f9f2 1cbd 5aa0 14bd 3cd9 11be
00000230: 979c 5abd e5b9 73bd 614c 81bd 88b4 a0bd
00000240: 95fd 0dbe a0b3 383d 5c64 373d dfe9 da3c
00000250: 1ffe 8e3c 76f0 ac3c 36db 563d 8558 d7bb
00000260: 1d82 b7bd f338 ac3d e292 573c 7d6a 54bd
00000270: fded 9cbd e117 7d3d 6f2a 6ebc 5df6 823c
00000280: 244d babc d737 e53c bbe4 7f3d e96b 15bc
00000290: 8758 2ebd 62eb 01be 5e87 853d 6335 af3d
000002a0: d15f ddbc cf7f 6fbd d028 cabc 342c 3cbd
000002b0: 937f 153d c18c 88bd 5323 573b d236 bbbd
000002c0: 29b6 d1bd bb39 3abd 3131 303d f4ef a0bc
000002d0: 0cb3 bb3d ac7a 8a3b 3d8f 5fbd c7e1 733d
000002e0: 254f ff3c a2c8 013e 54a4 83b9 8aa7 f1ba
000002f0: 0c15 893d 5a47 0d3e f79d 8b3d ced4 613d
00000300: be1a 753c 5a16 a73d 8d67 e13d b2d8 23bd
00000310: 9c8c 4fbc 2184 fc3c 0f3c b43c b310 ed3d
00000320: ab85 8bbd 1a4c 443c 89d2 99bb cfc6 aebd
00000330: 9137 1a3d 77b4 d7bb fd1d a83d 8d13 89bc
00000340: b155 8c3d 21a9 5e3d 1b4d 883d 10b2 a03d
00000350: 5287 c8bd 9e36 003d 2d2c 503c b5ca 93bd
00000360: 587a 78bc 7d4e 0bbd 1252 b23d f72d 243d
00000370: d4b9 00bd 3bf6 e13d d0b8 cabd c2af 223e
00000380: 497f c6bc ca7a 9ebd 6392 76bd e9b1 68bd
00000390: 999b 87bd 7ba0 c6bd 3952 6f3b c440 b23d
000003a0: 62d4 6e3d 6ac2 1dbd 5b57 80bc 6153 c5bd
000003b0: f901 44bd 3096 8b3c 0b36 87bc cfde 5d3d
000003c0: 53bc 99bd 53d0 9ebc e413 213c 298d 593c
000003d0: b7b9 0d3d 46a9 6a3d cad2 a43d fc1f f8bc
000003e0: e210 46bd 0af9 2d3c 9f62 02bd 512a 2abd
000003f0: c97a 8fbd c84d f8bd 5d64 a2bd 89fb a8bd

bias f4 [18]
0.029281043 0.06855724 0.009548225 -0.02891638 0.059180662 -0.015826263 -0.061158925 -0.011837416
0.013777481 -0.049057603 0.03266708 -0.061434284 0.039795663 0.038259268 -0.011288334 -0.027162354
-0.037242297 -0.04605848
00000000: ccde ef3c bd67 8c3d 2970 1c3c 0be2 ecbc
00000010: 6c67 723d 14a6 81bc c881 7abd b9f1 41bc
00000020: f2ba 613c a0f0 48bd ebcd 053d 84a2 7bbd
00000030: c700 233d c0b5 1c3d b4f2 38bc 9683 debc
00000040: 618b 18bd d1a7 3cbd

weight f4 [18]
0.8358331 0.97883415 0.8780527 1.0488852 1.0389338 1.0380203 1.1293355 1.0329149
0.9807125 0.99507123 1.0034035 0.9934335 0.87196887 1.0033097 0.9674928 1.0110902
1.1612779 1.0275921
00000000: 28f9 553f e094 7a3f 10c8 603f df41 863f
00000010: c8fb 843f d9dd 843f 118e 903f 8e36 843f
00000020: f90f 7b3f fdbc 7e3f 876f 803f a851 7e3f
00000030: 5a39 5f3f 746c 803f 9cad 773f 676b 813f
00000040: c1a4 943f 2388 833f

bias f4 [18]
-0.20876504 -0.1483554 -0.1153538 -0.11262803 -0.12640452 -0.12583834 -0.022827357 0.021989787
-0.07526572 -0.14388084 -0.085403636 -0.008989027 -0.18102328 -0.031021295 -0.09173135 0.022048637
-0.112664476 -0.058490545
00000000: 81c6 55be 7aea 17be 9d3e ecbd 86a9 e6bd
00000010: 3070 01be c4db 00be 7000 bbbc ed23 b43c
00000020: ea24 9abd 8055 13be 1ae8 aebd b646 13bc
00000030: 2b5e 39be 5f20 febc a5dd bbbd 589f b43c
00000040: a2bc e6bd c893 6fbd

running_mean f4 [18]
0.08730841 0.19064128 0.34017274 -0.5000528 0.12110736 -0.20890701 -0.70517325 -0.5507861
-0.23234737 -0.9976184 0.64850277 -1.0982159 0.2596228 -0.16502489 -0.11055539 -0.25167045
-0.5126647 -0.24495675
00000000: c0ce b23d 7837 433e 1f2b ae3e 7603 00bf
00000010: 2307 f83d b8eb 55be 3c86 34bf 5100 0dbf
00000020: 78ec 6dbe eb63 7fbf 4704 263f 5792 8cbf
00000030: 48ed 843e 49fc 28be dd6a e2bd f3da 80be
00000040: fe3d 03bf f1d5 7abe

running_var f4 [18]
0.61957765 0.54395723 0.38868588 0.78496027 0.21371247 0.29684165 0.440896 0.33552045
0.36587325 0.56061894 0.21413817 0.47634894 0.43151596 0.36740986 0.36782247 0.17134935
0.50133747 0.64408207
00000000: a49c 1e3f c840 0b3f d601 c73e 28f3 483f
00000010: 71d7 5a3e a1fb 973e 1fbd e13e 56c9 ab3e
00000020: bd53 bb3e b984 0f3f 0947 5b3e 02e4 f33e
00000030: a9ef dc3e 251d bc3e 3a53 bc3e 3476 2f3e
00000040: a757 003f 90e2 243f

weight f4 [45, 18, 5, 5]
0.050965775 0.055423748 0.06022467 0.053011265 0.009712095 -0.04885313 0.011641705 0.048469678
0.060454335 0.034645274 0.056523874 0.0161782 0.09459634 0.025775075 -0.024209207 -0.03566413
0.0067042173 0.02304928 -0.05945522 -0.03677479 0.0039944286 0.0019009431 0.045808643 -0.011798037
-0.0062270863 -0.04614224 0.032016233 0.07344609 -0.011507826 0.08406559 -0.04633844 0.03008084
0.070309736 -0.029912721 0.041469287 0.025130834 -0.028933806 0.04074357 0.044341832 0.049061205
-0.05174958 0.004277868 -0.004524914 0.01157578 0.024269968 0.058132395 0.03775424 0.042154994
-0.008007164 0.04721869 0.051432546 0.052246287 0.003140445 0.043528836 0.011962175 -0.015296986
-0.021204447 0.012922371 0.0032565466 0.024738805 0.015743831 0.0035867637 0.02304622 0.078883804
0.09879072 -0.00827172 0.006177007 -0.026713906 0.023052042 -0.008197506 -0.04332017 0.00043209863
-0.02903962 0.022688836 -0.045542963 0.010168916 0.0037712764 0.04390129 -0.006171086 0.054680023
-0.02519027 -0.07634785 -0.013713788 -0.0023729403 -0.017190674 0.012867479 -0.028566306 -0.059360564
-0.027853917 -0.06095145 0.047718335 0.018072763 -0.00073453167 0.0061122957 -0.02775119 -0.036546506
-0.034592032 -0.03530459 -0.021658279 -0.0016104007 -0.009336763 -0.04604564 -0.02271318 -0.028027669
0.047747243 0.005594942 -0.01088693 0.075485185 0.01185135 -0.03267662 -0.008776122 0.029910171
-0.008659857 -0.025177727 -0.09725932 -0.0407376 -0.003709228 0.0082531 0.041153703 0.038111288
0.0072111525 0.010543767 0.020294193 0.042123783 0.03566351 -0.072373845 -0.01442053 -0.03593189
-0.0037832 -0.068244904 0.06892239 0.055244952 0.059554975 0.038061023 -0.0057757758 -0.04691825
-0.0028683888 -0.005320815 -0.032166824 0.0014935405 0.01668205 0.03356713 0.025552657 0.064369075
0.08978037 -0.028950972 -0.011496411 0.0044177724 -0.03679809 -0.020941125 -0.004338175 0.0033809473
0.119237885 0.096091524 0.015428499 0.056156874 0.0073979287 0.03350847 0.09137413 0.022853814
-0.091365784 -0.092144 -0.08126242 -0.07307712 0.030593414 0.09110131 0.023945378 0.00041125197
-0.023362882 0.09863388 0.10770007 0.016330533 0.01624954 0.07403853 0.1184268 -0.027885748
-0.03451526 -0.019156357 -0.055393662 -0.03983487 0.00590312 -0.0739859 -0.047655676 -0.049232606
0.011468211 -0.048279654 0.022092981 -0.008334469 -0.045643657 0.013949088 0.048489414 0.020394463
0.02831912 0.002950449 -0.010100937 0.0071206414 0.05729133 -0.0076277363 0.035144888 -0.017241472
0.00017853522 0.08797363 0.014790115 0.06366281 0.025330259 0.015559103 0.03808132 -0.019349279
0.013970465 -0.017796453 -0.09387079 -0.09092262 -0.028868042 -0.091550596 -0.043663092 -0.029140571
-0.028437074 0.012209302 -0.043423746 -0.058235172 -0.014511316 0.05520202 0.032396115 0.024929212
0.0028039431 0.030218022 0.05874315 -0.06041629 -0.07389171 -0.04104363 0.0034857243 -0.06671893
-0.089203104 -0.08280305 -0.07150778 -0.032930735 -0.10155162 -0.025584996 -0.092930764 -0.07168467
-0.0034745084 0.0153570445 -0.032372225 -0.06116814 -0.00024458612 -0.024230655 0.021191541 -0.082789876
-0.019460399 -0.08467208 -0.0035245388 -0.017977338 -0.06382119 -0.028428363 0.008927826 0.0104430085
00000000: 7dc1 503d 0304 633d 25ae 763d 5722 593d
00000010: 7b1f 1f3c 381a 48bd dabc 3e3c 2488 463d
00000020: f79e 773d 34e8 0d3d 9485 673d 2588 843c
00000030: babb c13d 4026 d33c 6352 c6bc 8d14 12bd
00000040: 0daf db3b d8d1 bc3c 5187 73bd 2aa1 16bd
00000050: b2e3 823b 1129 f93a d8a1 3b3d 8e4c 41bc
00000060: 960c ccbb a5ff 3cbd 7423 033d e76a 963d
00000070: 528b 3cbc 942a ac3d 60cd 3dbd 186c f63c
00000080: 8dfe 8f3d 860b f5bc b3db 293d 2edf cd3c
00000090: 9706 edbc bbe2 263d c89f 353d 67f4 483d
000000a0: 5ef7 53bd 5c2d 8c3b bb45 94bb 57a8 3d3c
000000b0: d0d1 c63c 3c1c 6e3d 31a4 1a3d b7aa 2c3d
000000c0: 7b30 03bc 6368 413d efaa 523d 3400 563d
000000d0: edcf 4d3b 4b4b 323d 00fd 433c 36a0 7abc
000000e0: f3b4 adbc 5ab8 533c c96b 553b 09a9 ca3c
000000f0: 35f9 803c e90f 6b3b 6dcb bc3c d58d a13d
00000100: ca52 ca3d 1c86 07bc 7e68 ca3b 1fd7 dabc
00000110: a3d7 bc3c d54e 06bc 7e70 31bd 4c8b e239
00000120: 7fe4 edbc f0dd b93c 428b 3abd 869b 263c
00000130: 8527 773b d7d1 333d d236 cabb 29f8 5f3d
00000140: d35b cebc 435c 9cbd ccaf 60bc 5583 1bbb
00000150: 75d3 8cbc 1ed2 523c e303 eabc 1024 73bd
00000160: e62d e4bc 3aa8 79bd 4d74 433d 550d 943c
00000170: 968d 40ba a749 c83b 7756 e3bc cab1 15bd
00000180: 60b0 0dbd 8c9b 10bd b46c b1bc 1514 d3ba
00000190: 39f9 18bc 5a9a 3cbd fe10 babc 489a e5bc
000001a0: 9d92 433d c655 b73b 185f 32bc fa97 9a3d
000001b0: 2a2c 423c ebd7 05bd b9c9 0fbc 2d06 f53c
000001c0: 13e2 0dbc 8541 cebc e52f c7bd 78dc 26bd
000001d0: 8516 73bb 0338 073c c990 283d 951a 1c3d
000001e0: 884b ec3b c4bf 2c3c 0240 a63c fd89 2c3d
000001f0: e713 123d bd38 94bd 1644 6cbc 512d 13bd
00000200: 90ef 77bb fcc3 8bbd 2f27 8d3d 8848 623d
00000210: ebef 733d e0e5 1b3d b842 bdbb 5a2d 40bd
00000220: 94fb 3bbb 3b5a aebb 5cc1 03bd e7c2 c33a
00000230: cba8 883c b07d 093d ce53 d13c efd3 833d
00000240: c5de b73d 972a edbc 715b 3cbc f6c2 903b
00000250: 98b9 16bd b98c abbc 4027 8ebb e292 5d3b
00000260: fe32 f43d a2cb c43d d1c7 7c3c c004 663d
00000270: 536a f23b 2d40 093d 5c22 bb3d ec37 bb3c
00000280: fc1d bbbd feb5 bcbd e96c a6bd 75a9 95bd
00000290: 0a9f fa3c 5393 ba3d 1929 c43c 4e9d d739
000002a0: 8463 bfbc 8f00 ca3d db91 dc3d 9cc7 853c
000002b0: c11d 853c 83a1 973d c089 f23d a770 e4bc
000002c0: e05f 0dbd cbed 9cbc 77e4 62bd e329 23bd
000002d0: f66e c13b eb85 97bd 9932 43bd 21a8 49bd
000002e0: 2ae5 3b3c e3c0 45bd 57fc b43c 4c8d 08bc
000002f0: d8f4 3abd b78a 643c d69c 463d 4a12 a73c
00000300: 80fd e73c 525c 413b 677e 25bc 4554 e93b
00000310: 50aa 6a3d 17f2 f9bb 16f4 0f3d fd3d 8dbc
00000320: 2f35 3b39 852b b43d 3d52 723c a661 823d
00000330: 6781 cf3c 9ceb 7e3c 28fb 1b3d 6182 9ebc
00000340: 61e4 643c dec9 91bc 543f c0bd a335 babd
00000350: ac7c ecbc e17e bbbd 12d8 32bd 35b8 eebc
00000360: def4 e8bc 8609 483c 19dd 31bd 0188 6ebd
00000370: dfc0 6dbc 831b 623d cab1 043d 5938 cc3c
00000380: 5cc2 373b c98b f73c a89c 703d 1277 77bd
00000390: 8954 97bd 5e1d 28bd c070 643b efa3 88bd
000003a0: 1eb0 b6bd a594 a9bd ac72 92bd 61e2 06bd
000003b0: 4cfa cfbd a097 d1bc 7c52 bebd 6acf 92bd
000003c0: 94b4 63bb 1d9c 7b3c bd98 04bd 728b 7abd
000003d0: cb3b 80b9 5e7f c6bc e299 ad3c bd8d a9bd
000003e0: 6a6b 9fbc 8e68 adbd f3fb 66bb 3645 93bc
000003f0: afb4 82bd 99e2 e8bc 0446 123c 2719 2b3c

bias f4 [45]
-0.022262612 -0.019416949 0.00463931 0.009267327 0.04439085 0.022672601 0.008679478 -0.05028625
0.048069227 -0.017738272 0.02091562 -0.02060925 -0.00042937798 -0.023103029 0.02984161 -0.0031000879
-0.047731265 -0.0324308 -0.017456282 0.050745882 0.045849152 -0.04390133 -0.025853392 0.016097853
0.036045846 -0.009273504 0.027785162 -0.014394923 0.02607899 -0.011282051 0.0015484744 -0.04230961
0.027950715 0.023129594 -0.0374388 0.009361333 0.057276975 0.024095783 0.016162427 -0.042337462
0.04585303 0.00030383377 0.040534053 -0.044303097 -0.004432933
00000000: 1560 b6bc 4b10 9fbc 5a05 983b fdd5 173c
00000010: 2ed3 353d e4bb b93c 5f34 0e3c f4f8 4dbd
00000020: 3de4 443d da4f 91bc 3c57 ab3c bbd4 a8bc
00000030: 231e e1b9 9042 bdbc 6476 f43c d82a 4bbb
00000040: dc81 43bd 29d6 04bd 7a00 8fbc eada 4f3d
00000050: 52cc 3b3d e2d1 33bd 7eca d3bc a5df 833c
00000060: cfa4 133d e5ef 17bc b59d e33c afd8 6bbc
00000070: 9ba3 d53c 5ad8 38bc 2ef6 ca3a d74c 2dbd
00000080: e6f8 e43c 467a bd3c 6d59 19bd 4760 193c
00000090: 439b 6a3d 8564 c53c 1167 843c 0c6a 2dbd
000000a0: 63d0 3b3d e14b 9f39 0907 263d 2a77 35bd
000000b0: 2342 91bb

weight f4 [45]
0.95065135 0.95657206 1.0639098 1.0099411 0.9613144 1.0938461 0.94037944 1.0447739
1.0756353 0.94184613 1.021475 0.99448717 0.9644113 0.93410206 0.9829433 1.0139797
1.0309727 0.971693 0.9422962 1.0417047 1.0356761 0.9879199 0.96620536 0.95609856
1.0376916 1.0412545 1.0500828 1.0034618 1.0194316 0.88958716 1.0862291 1.0362493
1.0011803 1.0126811 0.96858114 1.0073508 0.9613154 1.0091511 0.9293397 0.9947517
0.9955536 1.020142 1.0219376 1.0047742 0.9687986
00000000: e35d 733f e8e1 743f 322e 883f c045 813f
00000010: b318 763f 2603 8c3f b5bc 703f 27bb 853f
00000020: 6bae 893f d41c 713f b1bf 823f b696 7e3f
00000030: a9e3 763f 5021 6f3f 2ca2 7b3f 16ca 813f
00000040: eaf6 833f dfc0 783f 533a 713f 9456 853f
00000050: 0991 843f 52e8 7c3f 3c59 773f e0c2 743f
00000060: 14d3 843f d447 853f 1d69 863f 7071 803f
00000070: bc7c 823f fcbb 633f 8e09 8b3f d1a3 843f
00000080: ad26 803f 899f 813f eff4 773f dff0 803f
00000090: c418 763f dd2b 813f 35e9 6d3f 0ca8 7e3f
000000a0: 9adc 7e3f 0394 823f dace 823f 719c 803f
000000b0: 2f03 783f

bias f4 [45]
-0.21901597 -0.09781224 -0.14515117 -0.09946351 -0.0996407 -0.08829748 -0.04992391 -0.0872074
-0.0922967 -0.10135649 -0.043620247 -0.04700529 -0.13151258 -0.1607369 -0.14860013 -0.13635421
-0.07547819 -0.1065851 -0.17223735 -0.12323394 -0.10893896 -0.108336605 -0.08738778 -0.05838078
-0.06927226 -0.08105827 -0.06470641 -0.07261393 -0.10895377 -0.1143046 -0.13129339 -0.11788933
-0.13155666 -0.12139656 -0.075564764 -0.03795408 -0.08659445 -0.091788165 -0.14935026 -0.09147238
-0.15346555 -0.09300362 -0.118350804 -0.15150495 -0.074804574
00000000: b945 60be c951 c8bd 82a2 14be 86b3 cbbd
00000010: 6c10 ccbd 4fd5 b4bd 047d 4cbd cb99 b2bd
00000020: 0d06 bdbd fe93 cfbd 25ab 32bd 9e88 40bd
00000030: 3cab 06be 3798 24be a22a 18be 70a0 0bbe
00000040: 4f94 9abd 4a49 dabd fd5e 30be 1362 fcbd
00000050: 641b dfbd 95df ddbd 5df8 b2bd af20 6fbd
00000060: 9dde 8dbd e101 a6bd cb84 84bd 9db6 94bd
00000070: 2723 dfbd 8818 eabd c671 06be f66f f1bd
00000080: cab6 06be c29e f8bd b3c1 9abd bd75 1bbd
00000090: 6e58 b1bd 6ffb bbbd 46ef 18be df55 bbbd
000000a0: 1326 1dbe af78 bebd e861 f2bd 1d24 1bbe
000000b0: 2433 99bd

running_mean f4 [45]
0.74769044 0.7255071 -0.7263256 -0.04287737 -0.10572409 0.43395758 0.07328188 -0.40685415
-1.1412163 0.123104386 -0.82952744 0.3879009 -0.19802709 -1.5388718 -1.7343719 -0.4115395
-0.8667432 -0.45097053 1.0543753 -1.0065486 -0.016601808 -0.83235794 0.52885205 1.2983845
-0.20803313 -1.1917557 0.29982987 -1.1756682 -0.0869636 0.6588881 -0.9688533 -0.5100786
-0.58990526 -0.7814374 0.031030392 0.38703057 -1.535076 -0.4896121 1.669965 -0.15926486
0.14581384 0.06569827 0.7598203 -0.15274063 -0.6701713
00000000: a468 3f3f d5ba 393f 79f0 39bf 2ea0 2fbd
00000010: df85 d8bd b02f de3e cf14 963d 304f d0be
00000020: 6013 92bf 271e fc3d e95b 54bf f29a c63e
00000030: 9dc7 4abe c0f9 c4bf e6ff ddbf 4eb5 d2be
00000040: e2e2 5dbf 9ce5 e6be c5f5 863f 96d6 80bf
00000050: 8400 88bc 6915 55bf d962 073f 7731 a63f
00000060: a306 55be 738b 98bf 4d83 993e 4c7c 96bf
00000070: f919 b2bd e4ac 283f c506 78bf 8394 02bf
00000080: 0804 17bf 480c 48bf 7333 fe3c df28 c63e
00000090: 5f7d c4bf 70ae fabe 6ac1 d53f 5416 23be
000000a0: 3950 153e d18c 863d 9583 423f 0a68 1cbe
000000b0: 5990 2bbf

running_var f4 [45]
0.5084025 0.8017787 0.9998947 0.9405488 0.33332917 0.7764443 0.76294976 0.7595686
0.5917401 0.37963492 0.93088776 0.64465755 0.41564554 0.8141129 0.8245245 0.7748443
0.46892667 0.7377652 1.1088856 0.970697 0.75611955 0.6456313 0.5282048 0.85272926
0.48458794 1.3462045 0.6502699 0.7667535 0.65125185 0.9531857 1.196314 0.7729312
0.60912246 0.77348334 0.89489424 0.55524224 0.7411072 0.36511898 1.3114369 0.6630436
0.5868942 0.47173673 0.80755395 0.55130094 0.30370465
00000000: ab26 023f 5e41 4d3f 19f9 7f3f cec7 703f
00000010: 1faa aa3e 0ec5 463f ad50 433f 1673 423f
00000020: 477c 173f 825f c23e a94e 6e3f 4708 253f
00000030: 7ecf d43e b469 503f 0a14 533f 325c 463f
00000040: 2817 f03e 2ede 3c3f f7ef 8d3f 997f 783f
00000050: 0d91 413f 1848 253f 6e38 073f 774c 5a3f
00000060: e91b f83e 6e50 ac3f 1778 263f f549 443f
00000070: 71b8 263f fa03 743f d120 993f d2de 453f
00000080: 73ef 1b3f 0103 463f ca17 653f 5b24 0e3f
00000090: 34b9 3d3f e0f0 ba3e 2add a73f 3abd 293f
000000a0: b33e 163f 7a87 f13e dbbb 4e3f 0f22 0d3f
000000b0: 2d7f 9b3e

weight f4 [18, 45, 5, 5]
0.02458073 0.023513915 0.063066535 0.033749286 -0.01649259 0.00031948095 0.012204783 0.023894856
-0.0070533743 -0.0764066 -0.017135818 -0.045801327 -0.07496366 -0.041272208 -0.067046374 -0.044007223
-0.0028559994 0.01769213 0.024841579 0.07835315 0.028210437 0.010209972 0.009770185 0.051695324
0.004384717 0.015722262 0.00037990013 0.043584235 -0.004548658 0.008463764 -0.013757343 -0.022546941
-0.013550168 -0.0075916345 -0.03532186 0.015402329 -0.0018545446 -0.03671121 0.025213784 0.016652524
0.0020593738 0.008698515 0.014472985 -0.010534841 -0.01600556 -0.02915946 -0.01813764 0.0009893986
0.009744717 0.0063384995 -0.074435435 -0.07321153 -0.08498965 -0.09934804 -0.054511234 -0.04139191
-0.06986427 -0.0252085 0.0052183047 -0.05852613 0.019408945 0.065587476 0.04869869 0.0028307259
0.031401888 0.032972526 0.063634686 0.060688518 0.004071118 0.10460565 0.027207404 0.009530972
0.05041899 0.006495145 0.004035378 -0.0135095185 0.024903014 -0.01686586 -0.011274851 -0.027718822
-0.017159982 -0.047983132 -0.054255076 -0.000830538 -0.01096881 -0.018816285 -0.009068316 -0.038871955
-0.031704303 -0.057273567 0.032094218 0.014956733 -0.018296883 -0.034056652 -0.008245711 -0.03920343
-0.015483814 -0.05143999 -0.0062792804 -0.028267913 0.05747332 0.052612904 0.07664951 0.029998135
-0.011467009 -0.04406249 -0.047690324 -0.020779511 -0.05134486 -0.0256308 0.008891488 0.00601809
0.023445543 0.017214278 -0.028205996 -0.05330496 -0.0036209126 -0.029274536 -0.0056390683 -0.07792273
-0.006972438 -0.018653153 -0.003316724 0.032946408 0.008219186 -0.015582865 -0.005871975 0.0027410523
0.0373868 0.061613705 -0.015106353 0.0035583226 -0.027122034 0.015528379 0.03627049 -0.070093244
-0.037169468 -0.009562774 0.01825416 0.0076313894 -0.009061849 0.03825077 -0.01918572 -0.013268271
-0.023723762 0.0061272723 0.0271102 -0.01509274 0.023241572 0.013073819 0.019766228 0.021614697
-0.011248704 0.013753674 0.016504485 -0.005318148 -0.023035731 -0.038031302 -0.06012162 -0.06812409
-0.049874198 -0.045315888 -0.034814212 -0.00834626 -0.058146466 0.0024751837 -0.03650426 -0.03074968
-0.0532398 0.0024981387 -0.01173123 0.031035695 -0.007922697 0.0007825831 -0.018145526 0.056898817
0.021694645 0.030136146 0.031097783 0.011904012 0.050909523 0.017512018 0.009513959 0.0043293266
0.0011635509 0.0009324948 0.02875806 0.045111198 0.01713167 -0.024833975 -0.049151838 -0.039699472
0.0012934549 -0.031456854 0.028021997 -0.008955092 -0.011106047 -0.0559438 -0.047764234 -0.030970262
-0.050000492 -0.06573572 -0.01899129 -0.037613552 -0.06585313 0.022717595 0.019472912 0.007829864
0.04102964 0.022106925 -0.057741065 -0.01612806 -0.051116887 -0.015064891 0.05467483 -0.06591504
-0.041945886 -0.06564604 -0.03570023 -0.03190875 -0.044721574 -0.011891132 0.0050500617 -0.0019321908
0.022116784 0.053936422 0.029030131 0.051268324 0.015730338 0.021635033 -0.022546869 0.0022714403
-0.001959627 -0.015392096 -0.018055376 -0.06856644 -0.034968708 -0.014305111 -0.031196292 -0.011864086
0.03591857 0.008180472 0.029827632 -0.021058112 -0.019123798 -0.034089983 -0.052486613 -0.060722444
-0.06903123 0.0012492586 -0.028865159 -0.04604072 -0.05866681 -0.10653675 -0.06847021 0.03741809
00000000: 875d c93c 41a0 c03c 0729 813d b13c 0a3d
00000010: 781b 87bc 0280 a739 92f6 473c 25bf c33c
00000020: fe1f e7bb 107b 9cbd 6a60 8cbc 2c9a 3bbd
00000030: 8c86 99bd 0c0d 29bd 9c4f 89bd eb40 34bd
00000040: b82b 3bbb 16ef 903c 9180 cb3c 9e77 a03d
00000050: 9319 e73c ba47 273c 2013 203c 7abe 533d
00000060: acad 8f3b f9cb 803c 552d c739 6285 323d
00000070: e90c 95bb 99ab 0a3c 7b66 61bc 5db4 b8bc
00000080: 8601 5ebc 3fc3 f8bb a8ad 10bd 0d5a 7c3c
00000090: 3114 f3ba 7e5e 16bd 238d ce3c e06a 883c
000000a0: 8ff6 063b 3784 0e3c 1920 6d3c 539a 2cbc
000000b0: 181e 83bc d2df eebc 6395 94bc b5ae 813a
000000c0: 4ea8 1f3c 30b3 cf3b 9b71 98bd edef 95bd
000000d0: 0e0f aebd fc76 cbbd 2c47 5fbd 908a 29bd
000000e0: 0015 8fbd 0e82 cebc 50fe aa3b 18b9 6fbd
000000f0: 82ff 9e3c ba52 863d 4778 473d b383 393b
00000100: 449f 003d 330e 073d e752 823d 8694 783d
00000110: 0367 853b 7d3b d63d 10e2 de3c cb27 1c3c
00000120: 2584 4e3d 3ad5 d43b 343b 843b 0757 5dbc
00000130: 6801 cc3c 462a 8abc 27ba 38bc 9512 e3bc
00000140: 1793 8cbc f689 44bd 923a 5ebd 76b8 59ba
00000150: 86b6 33bc 9c24 9abc 4693 14bc 3338 1fbd
00000160: 5fdc 01bd b097 6abd 3a75 033d 160d 753c
00000170: 58e3 95bc fd7e 0bbd 0519 07bc c793 20bd
00000180: d3af 7dbc bdb2 52bd 6cc2 cdbb 1c92 e7bc
00000190: 2569 6b3d a180 573d 6bfa 9c3d a6be f53c
000001a0: 1fe0 3bbc df7a 34bd ee56 43bd cb39 aabc
000001b0: fd4e 52bd aff7 d1bc 9bad 113c 6633 c53b
000001c0: de10 c03c f504 8d3c 4310 e7bc 4d56 5abd
000001d0: d54c 6dbb 27d1 efbc efc7 b8bb f495 9fbd
000001e0: 0d79 e4bb 7fce 98bc 655d 59bb d0f2 063d
000001f0: c4a9 063c 464f 7fbc b269 c0bb 3aa3 333b
00000200: e722 193d a75e 7c3d a380 77bc bf32 693b
00000210: 072f debc be6a 7e3c 5e90 143d 0c8d 8fbd
00000220: 033f 18bd 2ead 1cbc c089 953c bc10 fa3b
00000230: 2678 14bc d7ac 1c3d 5f2b 9dbc 2a63 59bc
00000240: 5658 c2bc 49c7 c83b 3616 de3c 8a47 77bc
00000250: 1c65 be3c 9233 563c c9ec a13c 4e11 b13c
00000260: 7c4c 38bc 1757 613c 6a34 873c dc43 aebb
00000270: 6eb5 bcbc b6c6 1bbd 1642 76bd a584 8bbd
00000280: e348 4cbd 279d 39bd 5999 0ebd c0be 08bc
00000290: fd2a 6ebd b136 223b 7e85 15bd c1e6 fbbc
000002a0: fa11 5abd d0b7 233b 5834 40bc 923e fe3c
000002b0: 33ce 01bc 4326 4d3a eda5 94bc bc0e 693d
000002c0: f8b8 b13c 14e0 f63c c7c0 fe3c 0c09 433c
000002d0: 8186 503d 5d75 8f3c 70e0 1b3c 06dd 8d3b
000002e0: 4a82 983a ab72 743a 0696 eb3c 85c6 383d
000002f0: b757 8c3c 9f70 cbbc 7053 49bd ea9b 22bd
00000300: 2589 a93a e7d8 00bd 638e e53c 61b8 12bc
00000310: 23f6 35bc 5325 65bd 6ea4 43bd 59b5 fdbc
00000320: 51cd 4cbd 73a0 86bd 9f93 9bbc ab10 1abd
00000330: 01de 86bd 401a ba3c a885 9f3c d448 003c
00000340: b20e 283d 9519 b53c e581 6cbd fe1e 84bc
00000350: f15f 51bd bcd2 76bc b7f2 5f3d 77fe 86bd
00000360: 73cf 2bbd 6e71 86bd 683a 12bd c0b2 02bd
00000370: f82d 37bd 06d3 42bc fd7a a53b 9141 fdba
00000380: 422e b53c 70ec 5c3d 99d0 ed3c bcfe 513d
00000390: e9dc 803c f43b b13c 36b4 b8bc 72dc 143b
000003a0: 166d 00bb 212f 7cbc dee8 93bc 906c 8cbd
000003b0: 593b 0fbd fc5f 6abc 5e8f ffbc 9561 42bc
000003c0: 5a1f 133d 6307 063c 1459 f43c 1082 acbc
000003d0: 83a9 9cbc f0a1 0bbd 34fc 56bd 19b8 78bd
000003e0: 3f60 8dbd 2abe a33a a076 ecbc 3295 3cbd
000003f0: 9c4c 70bd f12f dabd 1c3a 8cbd b643 193d

bias f4 [18]
0.0042930734 0.023763575 -0.013202043 -0.02624932 0.02126742 -0.0017846477 0.020756718 -0.0013301484
-0.02180457 -0.023392636 -0.004844309 0.0010648648 0.015607148 -0.016154218 -0.01438367 0.0148170125
0.0046624606 -0.003064197
00000000: e9ac 8c3b d4ab c23c 624d 58bc d008 d7bc
00000010: 0339 ae3c d7ea e9ba fe09 aa3c 6058 aeba
00000020: 7f9f b2bc eaa1 bfbc 02bd 9ebb ef92 8b3a
00000030: 20b5 7f3c da55 84bc 7ca9 6bbc 0ec3 723c
00000040: 8ec7 983b b2d0 48bb

weight f4 [18]
0.99074703 1.0073925 1.0294822 1.0079262 0.96587765 1.055799 0.9511789 1.0490199
1.000027 0.99794525 0.9311877 1.0094256 0.9376314 1.0151292 1.0181496 1.0379492
0.99629784 1.0132165
00000000: 99a1 7d3f 3df2 803f 13c6 833f ba03 813f
00000010: c243 773f 6c24 873f 7680 733f 4946 863f
00000020: e200 803f 5779 7f3f 5162 6e3f dc34 813f
00000030: 9d08 703f c1ef 813f ba52 823f 85db 843f
00000040: 600d 7f3f 14b1 813f

bias f4 [18]
-0.09235141 -0.03866313 -0.009056199 -0.09927976 0.05368 -0.04866364 -0.056899466 -0.08356445
-0.024432365 0.005514106 0.026922256 -0.032984473 -0.051500503 -0.11418318 -0.12112629 -0.012670597
-0.049442533 -0.044704534
00000000: bc22 bdbd 3b5d 1ebd 7460 14bc 3053 cbbd
00000010: 8fdf 5b3d 8653 47bd 6a0f 69bd d723 abbd
00000020: 6226 c8bc acaf b43b 108c dc3c ba1a 07bd
00000030: 31f2 52bd dfd8 e9bd 0f11 f8bd 5698 4fbc
00000040: 4184 4abd 1a1c 37bd

running_mean f4 [18]
-2.0248034 -1.1021935 0.7350242 -3.2926846 3.164823 -0.3427748 -0.16788122 -2.3888175
-0.23071215 0.7262048 1.1072385 0.3300104 0.9248493 -2.840296 -1.0734859 -1.1880186
-0.030291377 -1.9335234
00000000: 6196 01c0 ad14 8dbf 8c2a 3c3f 58bb 52c0
00000010: 768c 4a40 2e80 afbe 0ee9 2bbe 63e2 18c0
00000020: ce3f 6cbe 8fe8 393f feb9 8d3f 20f7 a83e
00000030: ecc2 6c3f 69c7 35c0 fc67 89bf fe10 98bf
00000040: 9f25 f8bc b27d f7bf

running_var f4 [18]
4.0814567 1.6981668 2.6055324 3.6311886 3.3726022 1.298248 2.3532822 3.7516193
1.6584481 2.6729658 0.8754931 1.2352109 0.79385895 3.0625005 1.8946111 2.375768
1.1048847 3.272421
00000000: 4b9b 8240 885d d93f 0bc1 2640 6565 6840
00000010: b7d8 5740 fe2c a63f 2d9c 1640 881a 7040
00000020: 0748 d43f df11 2b40 5120 603f 641b 9e3f
00000030: 573a 4b3f 0200 4440 9e82 f23f 950c 1840
00000040: dd6c 8d3f 586f 5140

weight f4 [6, 18, 5, 5]
-0.027287165 0.071163386 -0.050190426 -0.02283014 -0.07068501 0.00044975235 -0.050009426 0.012928085
-0.017960235 -0.103839554 0.046313435 0.004962605 -0.061939493 -0.090843074 -0.100053355 -0.06545999
-0.033372227 -0.03948422 -0.062861435 0.018978063 -0.0022265154 -0.0031956478 -0.01971972 0.035372328
-0.080045186 -0.051543616 0.021541376 -0.040454194 -0.052304033 -0.027068734 0.002382127 0.008230347
0.020468088 0.05427889 -0.047693226 0.00672277 -0.081336215 -0.04225676 -0.022329401 -0.071862385
0.0038724644 0.00039389206 -0.010186494 0.020212054 -0.00061571604 0.00021741068 -0.020399576 -0.0041501406
0.049358234 0.024901338 0.040917795 0.01657488 0.028054504 0.048162457 0.0428943 -0.01716746
-0.0030910808 -0.017629404 -0.0043940726 -0.01848094 -0.013686196 0.010247415 0.024887966 -0.028781462
0.0052272202 -0.00083595095 0.013948376 0.026020933 0.00052161847 0.047430884 -0.0019536403 -0.017408745
0.04260975 -0.01594543 0.09914879 -0.021799276 0.04964371 -0.012027499 0.027360644 -0.05061078
0.062688015 0.08500842 0.030037986 0.040657748 0.06513251 -0.011293456 0.07540377 -0.0238493
0.006644514 -0.043458775 0.009834007 -0.015259171 -0.026260354 -0.03287996 -0.089361966 0.026950184
2.6201902e-05 -0.018078053 -0.06686731 -0.054608356 -0.009942412 -0.034123562 0.019369092 -0.047483068
0.062484514 0.046236027 -0.034731314 0.03375763 -0.018976076 0.05896266 -0.026332749 0.024253547
-0.039662052 -0.028015591 0.0027903698 0.018665537 -0.022673909 -0.045155756 0.02340318 -0.023273313
0.0082857385 0.04709569 -0.014331412 -0.026724583 0.06888694 -0.017900296 -0.0010127923 0.091070294
-0.001691276 0.03327003 -0.018720144 -0.025170526 -0.0140660675 -0.010336061 -0.00022401189 0.025920387
0.014833239 -0.025273351 0.014990009 0.008900063 0.025909262 -0.0011165709 -0.017953303 0.017222583
0.029536147 -0.022922296 0.019125298 -0.039330047 0.025089106 0.014118103 -0.0017750511 0.004143007
-0.047124162 -0.01298998 0.027397329 0.02953119 0.021912126 0.050485864 0.02216531 0.08281814
0.033575132 0.008752165 0.025180373 -0.027549988 -0.010358439 -0.022933334 0.0010851473 -0.017205898
0.04149091 0.005821243 0.051998086 0.023827171 -0.03605627 -0.0032978419 0.0008158987 -0.03040739
-0.007891546 -0.009273835 -0.0046930723 -0.04869907 -0.020147061 -0.031512517 -0.030703759 -0.03648637
-0.057870265 -0.0072283326 -0.015975907 -0.0751701 -0.03132593 -0.013486476 -0.05149439 0.02572979
-0.014455191 -0.036938872 -0.09518695 0.019003939 -0.013217788 -0.062569104 -0.01364665 -0.06121972
-0.05108257 0.0023099473 0.055558488 0.05804089 0.06994047 0.03464611 0.008198503 0.067047976
0.007884876 0.04785619 -0.027918145 0.027276915 -0.018008603 -0.031259432 -0.036471877 -0.005988876
-0.009850958 -0.012923747 0.0071036695 0.021520568 0.039564986 0.0344133 0.02310197 0.017676739
0.005546487 0.0034028867 0.051703278 0.0051609008 0.0055108285 0.045616124 0.05375784 -0.030337572
0.0326422 0.017555984 0.049524818 0.034519617 0.029833673 0.034456287 -0.023138538 0.05278102
0.025428183 0.057556827 -0.007057652 0.017985022 0.037694898 0.06119436 0.021400506 0.068289556
0.08794285 0.014265228 0.013557237 -0.0060664457 0.013537415 -0.059403192 0.034981165 -0.010411869
00000000: 5589 dfbc 1cbe 913d 7a94 4dbd 4606 bbbc
00000010: 4dc3 90bd bdcc eb39 afd6 4cbd 52d0 533c
00000020: 5821 93bc d5a9 d4bd 28b3 3d3d 599d a23b
00000030: 44b4 7dbd ef0b babd c6e8 ccbd e30f 86bd
00000040: 51b1 08bd 35ba 21bd 7fbd 80bd e277 9b3c
00000050: bbea 11bb 136e 51bb 408b a1bc 93e2 103d
00000060: bbee a3bd 661f 53bd 8a77 b03c 4cb3 25bd
00000070: c13c 56bd 40bf ddbc 761d 1c3b 94d8 063c
00000080: b1ac a73c 8b53 5e3d f959 43bd af4a dc3b
00000090: 9a93 a6bd 6d15 2dbd 26ec b6bc 962c 93bd
000000a0: 2cc9 7d3b 4c83 ce39 41e5 26bc c093 a53c
000000b0: 0168 21ba bcf8 6339 031d a7bc e7fd 87bb
000000c0: dc2b 4a3d e4fd cb3c 6b99 273d 0bc8 873c
000000d0: 8fd2 e53c ff45 453d efb1 2f3d c6a2 8cbc
000000e0: bb93 4abb 8a6b 90bc 27fc 8fbb 5765 97bc
000000f0: 113c 60bc c6e4 273c d9e1 cb3c 1ac7 ebbc
00000100: 1a49 ab3b b823 5bba bb87 643c da29 d53c
00000110: 39bd 083a e346 423d a508 00bb c99c 8ebc
00000120: 9087 2e3d fe9f 82bc 850e cb3d 6594 b2bc
00000130: 3457 4b3d fd0e 45bc 6e23 e03c 404d 4fbd
00000140: 9362 803d e518 ae3d 3912 f63c bd88 263d
00000150: 3264 853d 3008 39bc 4b6d 9a3d 9b5f c3bc
00000160: 39ba d93b d401 32bd d11e 213c 9a01 7abc
00000170: f41f d7bc 23ad 06bd 6803 b7bd a2c6 dc3c
00000180: 28cc db37 6d18 94bc baf1 88bd 03ad 5fbd
00000190: 80e5 22bc 26c5 0bbd eeab 9e3c 9b7d 42bd
000001a0: c3ef 7f3d fd61 3d3d 6c42 0ebd 7145 0a3d
000001b0: b773 9bbc d582 713d c7b7 d7bc 60af c63c
000001c0: ad74 22bd f480 e5bc a3de 363b 78e8 983c
000001d0: a2be b9bc 3ef5 38bd 07b8 bf3c ada7 bebc
000001e0: e8c0 073c 69e7 403d 4cce 6abc 83ed dabc
000001f0: 9914 8d3d a4a3 92bc acbf 84ba 1083 ba3d
00000200: cead ddba 2846 083d fd5a 99bc 6b32 cebc
00000210: 5d75 66bc 9558 29bc bce4 6ab9 fe56 d43c
00000220: 1d07 733c 0f0a cfbc a898 753c 92d1 113c
00000230: a93f d43c e759 92ba ce12 93bc 6016 8d3c
00000240: caf5 f13c 8ac7 bbbc a8ac 9c3c 8b18 21bd
00000250: ab87 cd3c 9e4f 673c d5a8 e8ba 10c2 873b
00000260: 4405 41bd edd3 54bc 5d70 e03c 65eb f13c
00000270: 0f81 b33c 44ca 4e3d 0694 b53c 8f9c a93d
00000280: 1486 093d 3e65 0f3c 1247 ce3c 83b0 e1bc
00000290: 71b6 29bc b0de bbbc 803b 8e3a 62f3 8cbc
000002a0: 5ff2 293d 20c0 be3b f2fb 543d 3331 c33c
000002b0: bdaf 13bd 9b20 58bb 09e2 553a eb18 f9bc
000002c0: 8b4b 01bc 49f1 17bc 58c8 99bb ad78 47bd
000002d0: 730b a5bc 4513 01bd 7386 fbbc bb72 15bd
000002e0: 5f09 6dbd a6db ecbb e8df 82bc c8f2 99bd
000002f0: 9e4f 00bd 61f6 5cbc c8eb 52bd 48c7 d23c
00000300: 77d5 6cbc 374d 17bd 60f1 c2bd 26ae 9b3c
00000310: 6c8f 58bc 3b24 80bd 3396 5fbc 87c1 7abd
00000320: f53b 51bd 7c62 173b 4c91 633d 49bc 6d3d
00000330: f33c 8f3d 14e9 0d3d 0453 063c 7350 893d
00000340: 912f 013c da04 443d 98b4 e4bc d673 df3c
00000350: c786 93bc e409 00bd 8963 15bd 553e c4bb
00000360: ea65 21bc 20be 53bc e6c5 e83b e74b b03c
00000370: e50e 223d f6f4 0c3d 5840 bd3c cfce 903c
00000380: 4ebf b53b f702 5f3b d1c6 533d c61c a93b
00000390: 2e94 b43b f9d7 3a3d 2e31 5c3d 8086 f8bc
000003a0: d4b3 053d 91d1 8f3c 89da 4a3d 7164 0d3d
000003b0: bf65 f43c 0922 0d3d 088d bdbc e930 583d
000003c0: c44e d03c b5c0 6b3d e043 e7bb 5355 933c
000003d0: f765 1a3d f0a6 7a3d 1d50 af3c 65db 8b3d
000003e0: 621b b43d b4b8 693c 2c1f 5e3c 09c9 c6bb
000003f0: 09cc 5d3c c350 73bd 6948 0f3d 8b96 2abc

bias f4 [6]
-0.020051315 0.03969298 0.050227564 -0.047755256 0.0322684 -0.0155863855
00000000: a842 a4bc 1b95 223d 6bbb 4d3d 049b 43bd
00000010: df2b 043d 0a5e 7fbc

weight f4 [6]
0.8985845 1.0063951 1.0902752 0.9652756 0.98981637 1.00001
00000000: a209 663f 8ed1 803f 238e 8b3f 4d1c 773f
00000010: 9b64 7d3f 5400 803f

bias f4 [6]
0.047573615 -0.023863165 -0.055560973 -0.015255163 -0.07871932 -0.057663385
00000000: 8ddc 423d af7c c3bc e793 63bd cbf0 79bc
00000010: 9837 a1bd 7130 6cbd

running_mean f4 [6]
0.45131585 -1.9640881 -0.35588682 -1.0826234 -2.1532652 -2.0992815
00000000: df12 e73e 3d67 fbbf cc36 b6be 6793 8abf
00000010: 19cf 09c0 a15a 06c0

running_var f4 [6]
6.048045 3.7515283 1.1319563 0.9367449 1.5992962 1.9312544
00000000: 9689 c140 0a19 7040 f2e3 903f 84ce 6f3f
00000010: bdb5 cc3f 5833 f73f

weight f4 [1, 6, 5, 3]
-0.010710684 0.053557944 -0.05495396 0.02136353 0.027158411 0.063847646 0.03797346 0.06473053
-0.051856857 0.033852093 0.028056027 0.0508148 0.033333175 -0.098952346 -0.10364554 -0.0010850916
-0.09138547 0.0049454733 -0.10786609 -0.05551049 -0.020113904 -0.04069072 0.010827344 0.023346877
0.110297404 0.026844447 0.15134524 -0.021318026 -0.016271036 -0.06287714 -0.21669976 0.035091672
-0.22485055 0.017207796 -0.007999653 0.0056754313 0.015311755 -0.010067966 0.009286085 0.015196583
-0.009820445 0.0076325284 0.022614723 0.007647483 0.022437269 -0.023939585 -0.00842843 -0.020544697
-0.02208314 -0.016666718 -0.025876008 0.07854765 0.08294425 0.09246296 0.019298855 0.019651921
0.028632512 -0.014040557 -0.009334091 -0.034150694 0.18858881 -0.09238057 0.08789921 -0.010135988
-0.022016414 -0.044029552 -0.06620396 -0.034953754 -0.06886453 0.042833123 0.0010893426 0.05513212
-0.009651228 -0.012544675 -0.04166021 0.034019932 0.06166846 0.006855013 -0.13123217 -0.062234566
-0.1428596 0.05435104 0.032472186 0.030654341 -0.047614627 -0.00073878583 -0.0440897 -0.030493665
0.0015539088 -0.019901648
00000000: dd7b 2fbc 935f 5b3d 6717 61bd 9202 af3c
00000010: 517b de3c 8ec2 823d 0f8a 1b3d 7191 843d
00000020: db67 54bd 7ea8 0a3d c1d5 e53c 2e23 503d
00000030: 5e88 083d 87a7 cabd 1d44 d4bd a239 8eba
00000040: 4e28 bbbd a30d a23b e6e8 dcbd f85e 63bd
00000050: eac5 a4bc 50ab 26bd 2c65 313c f341 bf3c
00000060: 9be3 e13d e3e8 db3c 3ffa 1a3e 24a3 aebc
00000070: d64a 85bc bbc5 80bd 8be6 5dbe 49bc 0f3d
00000080: 393f 66be 5df7 8c3c fa10 03bc f8f8 b93b
00000090: 28de 7a3c 1cf4 24bc aa24 183c 17fb 783c
000000a0: efe5 20bc 4a1a fa3b 8342 b93c bd97 fa3b
000000b0: 5dce b73c f31c c4bc 6617 0abc 5a4d a8bc
000000c0: b4e7 b4bc a488 88bc ecf9 d3bc 97dd a03d
000000d0: adde a93d 385d bd3d a218 9e3c 11fd a03c
000000e0: bb8e ea3c 5d0a 66bc 04ee 18bc 99e1 0bbd
000000f0: 6d1d 413e 0632 bdbd 8004 b43d 6a11 26bc
00000100: c45b b4bc 5558 34bd f195 87bd ab2b 0fbd
00000110: d908 8dbd c971 2f3d 46c8 8e3a 38d2 613d
00000120: 2f20 1ebc 2e88 4dbc e5a3 2abd 7c58 0b3d
00000130: 1198 7c3d 04a0 e03b ba61 06be ace9 7ebd
00000140: c949 12be 329f 5e3d 8e01 053d d01e fb3c
00000150: 8e07 43bd 14ab 41ba 6797 34bd dacd f9bc
00000160: 87ac cb3a c808 a3bc
