source/models/MelodyTimbreCNN/model_128_25_0.003_retrained2.pth (torch, 202227 bytes, 26 tensors)

weight f4 [6, 1, 5, 5]
0	0x3d3aad15	0.04557522
1	0x3dff757a	0.12473579
2	0xbe9df009	-0.30847195
3	0xbe6aa88d	-0.2291586
4	0xbe8703c0	-0.2637005
5	0x3f02b4e2	0.51057255
6	0xbce805a5	-0.028323004
7	0xbdc11d0d	-0.09429369
8	0x3dec4a42	0.11537601
9	0xbc2bce4a	-0.010486195
10	0x3ecf8267	0.40529177
11	0xbe8203a3	-0.253934
12	0xbb2b981f	-0.00261832
13	0x3d993629	0.07481033
14	0xbe537f3d	-0.20654006
15	0x3ebbc08f	0.36670348
16	0xbe0cb784	-0.1374188
17	0x3e003763	0.12521128
18	0xbda614e8	-0.08109456
19	0xbddb1d62	-0.10698964
20	0x3c0cf5ba	0.008603508
21	0x3e692352	0.2276738
22	0xbd619db9	-0.055082057
23	0xbd9d94d3	-0.076944016
24	0x3d2124d4	0.039341763
25	0xbe5361d5	-0.20642789
26	0x3dbc7325	0.092016496
27	0x3e4844dc	0.19557518
28	0x3e9971ef	0.29969737
29	0xbe40181a	-0.18759194
30	0x3d9c0bce	0.07619439
31	0xbdb1fcbe	-0.08690785
32	0x3e4d0ade	0.20023677
33	0x3e443d1e	0.1916394
34	0xbeb01574	-0.34391367
35	0x3e58dc84	0.2117787
36	0xbe09c5f0	-0.13454413
37	0x3d0a5259	0.03376994
38	0x3eb76766	0.35821074
39	0xbe0ef2bf	-0.13959788
40	0x3e31a34e	0.17347452
41	0xbd7fab6e	-0.062419347
42	0x3e1d562c	0.15364903
43	0x3e4ae8e8	0.19815409
44	0xbe2b573d	-0.16732498
45	0xbe30f53d	-0.17281051
46	0xbe970abc	-0.29500377
47	0xbe825337	-0.25454113
48	0xbdc51ab5	-0.096242346
49	0xbdf375a0	-0.118876696
50	0xbdb0976d	-0.08622632
51	0xbe4e2a50	-0.20133328
52	0x3e1be141	0.15222646
53	0x3d4d4991	0.050118987
54	0x3dad9389	0.08475406
55	0xbea26f4e	-0.31725544
56	0xbea99fae	-0.33129638
57	0xbe114f4f	-0.1419041
58	0x3c940241	0.018067481
59	0xbde468b8	-0.11152786
60	0xbdcc5eb1	-0.099789985
61	0x3e4e384d	0.20138665
62	0x3ec97224	0.39344895
63	0x3f11dad0	0.56974506
64	0x3e864b64	0.26229393
65	0xbdef2152	-0.11676277
66	0x3d937144	0.07199338
67	0x3d0aef52	0.03391964
68	0x3e93dbd9	0.28878668
69	0x3e0e909e	0.13922355
70	0xbe588879	-0.2114581
71	0xbd81dd90	-0.06341088
72	0x3e1de3fc	0.15419
73	0xbe23497e	-0.15946004
74	0xbde5bab6	-0.11217253
75	0xbe6122ad	-0.21985884
76	0xbedfcb1e	-0.43709654
77	0xbd34afef	-0.044113096
78	0xbe41d1ee	-0.18927738
79	0x3d50e87d	0.051002968
80	0x3d0f5a69	0.03499833
81	0xbed076ef	-0.4071574
82	0xbe92fa9e	-0.2870683
83	0x3e5c759e	0.21529242
84	0xbe74109b	-0.2383446
85	0x3d9a3cb7	0.07531112
86	0x3d6cfff3	0.05786128
87	0xbd95b8ff	-0.07310676
88	0x3ea73d06	0.32663745
89	0x3e7f6a63	0.24942927
90	0x3e29971a	0.16561547
91	0xbc4e04cd	-0.012574387
92	0xbca378b3	-0.019955015
93	0xbd854d1d	-0.06508849
94	0x3dabd3cb	0.08390006
95	0x3e03b67c	0.12862581
96	0x3d7563cb	0.059909623
97	0xbdb33b4b	-0.087515436
98	0x3e53d013	0.20684843
99	0xbe7c18e6	-0.24618873
100	0x3d00f791	0.031486098
101	0x3dcf1bdc	0.10112736
102	0xbe144592	-0.14479664
103	0x3d3624de	0.044468753
104	0x3dd77c52	0.10521759
105	0xbd81e397	-0.063422374
106	0x3edb131e	0.42788023
107	0x3e643ae5	0.22288091
108	0xbcb43bb5	-0.022001127
109	0xbe5154db	-0.20442526
110	0xbce0babc	-0.027432792
111	0x3eb454c9	0.35220936
112	0xbe05da8b	-0.13071649
113	0xbd0703e6	-0.032962702
114	0x3d8000c4	0.06250146
115	0xbe0f1ff7	-0.13977037
116	0x3f084ac4	0.53239083
117	0x3da41a61	0.08012844
118	0xbe07a4ee	-0.1324651
119	0xbe8efad6	-0.27925748
120	0x3e16fd71	0.14745118
121	0x3e9ad692	0.3024183
122	0xbd8a38f1	-0.06749142
123	0x3dd4f8e1	0.103990324
124	0x3e5d2059	0.21594371
125	0xbd8824f3	-0.066476725
126	0xbd7e856d	-0.062138963
127	0x3d851839	0.06498761
128	0xbd99c49c	-0.075082034
129	0xbe6c8161	-0.23096229
130	0xbddb8c8f	-0.10720169
131	0xbe9b61a3	-0.30347928
132	0x3ea204bd	0.3164424
133	0x3df83327	0.121191315
134	0x3d275a6e	0.040857725
135	0x3eab4e90	0.33458376
136	0xbcf0198c	-0.029309057
137	0x3d9f695c	0.077837676
138	0xbd07a7de	-0.033119075
139	0xbe7074d6	-0.2348207
140	0x3eb502c7	0.3535368
141	0xbe15347a	-0.145708
142	0xbc8ecba3	-0.017431086
143	0x3dbc1ea2	0.0918553
144	0xbe08a63e	-0.13344666
145	0x3f12e563	0.57381266
146	0x3e1aaa7d	0.15104099
147	0x3e7aa5be	0.24477288
148	0x3de46a49	0.11153085
149	0xbea8983c	-0.32928646

weight f4 [6]
0	0x3f68d278	0.9094615
1	0x3fa4c177	1.2871541
2	0x3f6d6d52	0.92744935
3	0x3f81091a	1.0080903
4	0x3f428518	0.75984335
5	0x3f8365f1	1.0265485

bias f4 [6]
0	0xbe147c92	-0.14500645
1	0x3bb7692b	0.005597254
2	0xbd6ed5d0	-0.058309376
3	0x3e721445	0.23640545
4	0xbec3ba7b	-0.3822821
5	0xbd3ab68b	-0.045584243

running_mean f4 [6]
0	0xbb934b8d	-0.0044950903
1	0x3c09b408	0.008404739
2	0xba048763	-0.00050555746
3	0xbc5ac4b4	-0.013352562
4	0x3aa852eb	0.0012842094
5	0xbbfcb4c5	-0.007711979

running_var f4 [6]
0	0x3efd675a	0.49492913
1	0x3e7439b8	0.23850143
2	0x3f340dbe	0.7033347
3	0x3f2c0f7e	0.6721114
4	0x4007c99b	2.12168
5	0x3f5cd631	0.8626433

weight f4 [18, 6, 5, 5]
0	0x3e43dcf7	0.1912726
1	0x3d9394f2	0.072061434
2	0x3dc44c9a	0.09584923
3	0x3d88627f	0.06659412
4	0xbd9bd74c	-0.07609424
5	0x3e8d6be8	0.27621388
6	0x3e048010	0.12939477
7	0x3dd39fe4	0.10333231
8	0xbbcb01f8	-0.006195303
9	0xbe5ecc82	-0.21757701
10	0x3e8bde38	0.27317977
11	0x3df9cc0f	0.12197124
12	0xbd87d3c5	-0.06632189
13	0x3d68ed61	0.056867007
14	0xbe39a8bd	-0.18130775
15	0xbca8a054	-0.020584263
16	0xbde1be53	-0.110226296
17	0xbe0b75ad	-0.13619108
18	0xbd54c1c3	-0.051942598
19	0xbea72cc7	-0.3265135
20	0xbdcde7ed	-0.10054002
21	0xbe2fe2d3	-0.1717637
22	0xbe63c1f0	-0.2224195
23	0xbe8026b5	-0.2502953
24	0xbe8c8195	-0.27442613
25	0x3c534a46	0.012896126
26	0xbd285c29	-0.041103516
27	0x3e0d4fa8	0.13799918
28	0xbd8b1987	-0.06791978
29	0x3eb7745c	0.35830963
30	0xbd592dd4	-0.05302222
31	0xbdab5799	-0.08366317
32	0x3d4cb557	0.049977627
33	0xbdeef346	-0.116674945
34	0x3e128b5f	0.14310978
35	0xbdbc25fa	-0.09186931
36	0x3e3fa92a	0.18716875
37	0xbca437ea	-0.020046193
38	0xbe1864f7	-0.14882265
39	0x3e23a086	0.15979204
40	0x3ca2c674	0.01987002
41	0x3dfc7d40	0.12328577
42	0x3d16537e	0.036700718
43	0xbdb3f51a	-0.08786984
44	0x3d7b1788	0.061301738
45	0xbd1106f1	-0.03540701
46	0x3d6ad4e1	0.057331923
47	0xbdec8e82	-0.11550619
48	0xbd2944c8	-0.04132536
49	0x3e5a2093	0.21301489
50	0xbe7dfc50	-0.24803281
51	0xbe894af3	-0.26814994
52	0xbe2ee6f9	-0.17080297
53	0xbe975885	-0.29559723
54	0xbe183936	-0.14865574
55	0xbe11c898	-0.14236677
56	0xbe9becfd	-0.30454245
57	0xbe318b91	-0.17338397
58	0xbe36ce43	-0.1785212
59	0x3dd3d6e8	0.103437245
60	0xbdf86fc7	-0.12130695
61	0xbd968ef5	-0.07351486
62	0xbdd48e14	-0.10378662
63	0xbdc891fd	-0.0979347
64	0x3e1c5d1d	0.15269895
65	0xbe81e597	-0.25370476
66	0xbe4589d6	-0.19290861
67	0xbea66dba	-0.3250559
68	0xbdc8324d	-0.09775219
69	0xbd373e75	-0.044737298
70	0xbe4a5d59	-0.19762172
71	0xbe220269	-0.15821232
72	0xbda4bacc	-0.08043441
73	0x3d926166	0.071474835
74	0x3e0dd053	0.13849
75	0x3dab62a7	0.08368426
76	0xbd726155	-0.059174854
77	0xbd216130	-0.039399326
78	0xbde91f5f	-0.11382937
79	0xbd8fc7dc	-0.07020542
80	0x3c75e574	0.015008319
81	0xbdc63321	-0.09677721
82	0xbd5d8b87	-0.05408814
83	0xbd856846	-0.06514029
84	0xbcf9a5d1	-0.030474575
85	0x3db64502	0.08899881
86	0x3bf1f9a7	0.007384497
87	0x3d900cd6	0.07033698
88	0x3dea2a68	0.114338696
89	0x3ce2981a	0.027660418
90	0xbe8648ca	-0.2622741
91	0xbe80c9c7	-0.25153944
92	0xbeeb89a2	-0.46003443
93	0xbebdfac6	-0.37105387
94	0xbebc2476	-0.36746567
95	0x3dc7971c	0.09745619
96	0xbbc95ff0	-0.00614547
97	0xbda58597	-0.08082121
98	0xbbd8689d	-0.0066042677
99	0x3c847ce9	0.016172843
100	0x3d86d211	0.06583036
101	0xbe0ce8b3	-0.13760643
102	0xbe1763e3	-0.14784198
103	0xbea00913	-0.31256923
104	0xbf1f63b8	-0.62261534
105	0x3e163bfc	0.1467132
106	0xbd9d28de	-0.076738104
107	0xba40af1e	-0.0007350313
108	0xbe84907f	-0.25891492
109	0xbea89345	-0.32924858
110	0x3deffbfd	0.11717985
111	0xbdd14f84	-0.102202445
112	0xbd120726	-0.03565135
113	0xbe774b0c	-0.24149722
114	0xbe51fe81	-0.20507242
115	0x3da0083c	0.078140706
116	0x3d491bfd	0.049098957
117	0xbdf3c073	-0.11901941
118	0xbe83169a	-0.2560318
119	0x3b7a92ed	0.0038234547
120	0x3d68f53c	0.0568745
121	0xbdf2f6a0	-0.11863446
122	0xbe9821e0	-0.29713345
123	0xbea8becc	-0.32958066
124	0xbe21800a	-0.157715
125	0x3e4b6395	0.19862206
126	0x3da0aa86	0.07845025
127	0x3dcacb4a	0.099020556
128	0xbd784bfe	-0.060619347
129	0xbe9a8a1d	-0.30183497
130	0x3e7be940	0.24600697
131	0x3e21e5a4	0.15810257
132	0x3cc70cc2	0.024298076
133	0xbd874249	-0.0660444
134	0xbe0b4019	-0.1359867
135	0x3c33a5b8	0.010964803
136	0x3c804d86	0.015661966
137	0xbdc64d0d	-0.09682665
138	0xbe5e760f	-0.21724723
139	0xbeb236c2	-0.34807402
140	0x3e209929	0.15683426
141	0xbd6a511c	-0.05720626
142	0xbddbc0cc	-0.107301325
143	0xbe41731a	-0.18891564
144	0xbd7ec9c0	-0.062204123
145	0xbd66b1bb	-0.05632184
146	0xbe586f33	-0.21136169
147	0xbdd8aecd	-0.105802156
148	0xbe6953c3	-0.22785859
149	0xbe873486	-0.2640726
150	0x3cd3c989	0.025852935
151	0xbdc964a3	-0.09833648
152	0xbe32743d	-0.17427154
153	0xba0d7065	-0.0005395471
154	0x3e95b140	0.29236794
155	0x3c2c5fa4	0.010520849
156	0xbdf70133	-0.120607756
157	0xbe0d24ac	-0.1378352
158	0xbdd491af	-0.103793494
159	0x3e14acc1	0.14519025
160	0x3b71a4f1	0.0036871994
161	0xbe2594a7	-0.16169988
162	0xbe92b465	-0.28653255
163	0xbdfc1410	-0.12308514
164	0x3deafac7	0.11473613
165	0x3d1e9d08	0.038723975
166	0x3ca57519	0.020197438
167	0xbe09f23f	-0.13471316
168	0x3d5f7aba	0.0545604
169	0x3e6d01d0	0.23145223
170	0x3dd08cd7	0.10183113
171	0x3d362ea5	0.044478077
172	0x3db99784	0.090621024
173	0x3cbed6fd	0.023295874
174	0x3e0d97d4	0.13827449
175	0x3cd72ae5	0.02626557
176	0x3b25a38f	0.002527449
177	0xbddfebbb	-0.10933634
178	0xbd2971e1	-0.04136837
179	0x3d123e9e	0.035704248
180	0x3e60f3be	0.2196798
181	0x3e428c30	0.1899879
182	0x3e593e77	0.21215235
183	0x3e8d4e2c	0.27598703
184	0x3e766ca7	0.24064885
185	0x3e8849af	0.26618716
186	0x3e8360fb	0.25659928
187	0x3edfa5ae	0.4368109
188	0x3ecb5707	0.39714834
189	0x3e5b8a52	0.21439484
190	0xbe3e4f40	-0.18584919
191	0xbe5fd282	-0.21857646
192	0x3e059870	0.13046432
193	0xbd8b8858	-0.06813115
194	0xbeec0091	-0.46094182
195	0xbde01834	-0.109421164
196	0x3e4f191e	0.20224425
197	0x3e990516	0.29886693
198	0x3df9e019	0.12200946
199	0xbd9b4aa7	-0.07582598
200	0xbe4131b4	-0.18866616
201	0xbe60f126	-0.21966991
202	0xbd69606a	-0.056976713
203	0x3dba5e74	0.09100047
204	0xbe5f25fe	-0.21791837
205	0xbde9adf4	-0.11410132
206	0x3c869be0	0.016431749
207	0x3e3a20c2	0.18176559
208	0x3e98e922	0.29865366
209	0xbcacf472	-0.021112654
210	0xbddd1d0f	-0.10796558
211	0x3c8cb29d	0.017175013
212	0x3e36fdc4	0.17870241
213	0x3e14d044	0.14532572
214	0xbe5258f2	-0.20541742
215	0x3c28821e	0.010284929
216	0x3e264ab4	0.16239434
217	0x3e25dac0	0.16196728
218	0x3db2284e	0.08699094
219	0x3d04c230	0.032411754
220	0xbccf09af	-0.025273172
221	0xbc969292	-0.018380437
222	0x3d2bd7c3	0.041953813
223	0x3dd9c752	0.106337205
224	0x3d0326ea	0.032019533
225	0x3e373763	0.17892222
226	0x3e648444	0.2231608
227	0x3e43c1f2	0.19116953
228	0x3ea63b82	0.32467276
229	0x3e0b6397	0.1361221
230	0xbe11067f	-0.14162634
231	0xbe4748c2	-0.19461349
232	0x3c3b098b	0.011415849
233	0x3e08cdf2	0.13359812
234	0xbdccdf8e	-0.10003577
235	0x3e3c1dc4	0.1837073
236	0x3e2ceeaa	0.16887918
237	0x3dfaca1e	0.12245582
238	0x3ec75520	0.38932133
239	0x3e658a3a	0.2241601
240	0x3d089769	0.03334752
241	0x3d990b20	0.07472825
242	0x3db5fe33	0.08886375
243	0x3e659442	0.22419837
244	0xbc86c792	-0.016452584
245	0xbe29b68b	-0.16573541
246	0xbe1f2398	-0.15540922
247	0xbe100858	-0.14065683
248	0xbd5dab1d	-0.054118264
249	0xbc951c6a	-0.018202025
250	0xbd079f97	-0.03311118
251	0xbdc3ea92	-0.09566225
252	0xbd7ec8a7	-0.062203076
253	0x3e4e67e0	0.20156813
254	0x3e6af687	0.22945605
255	0x3d00c3a1	0.031436566

weight f4 [18]
0	0x3f792d14	0.9733441
1	0x3f269721	0.65074354
2	0x3f115e3d	0.5678442
3	0x3f87395b	1.0564378
4	0x3f81f67f	1.015335
5	0x3f8debea	1.108762
6	0x3f2a0c5d	0.66425115
7	0x3f9f2579	1.2433311
8	0x3f9c876a	1.2228825
9	0x3f6ca97c	0.9244611
10	0x3f4d7393	0.8025448
11	0x3f7b67f0	0.9820547
12	0x3f6a4837	0.9151644
13	0x3f9626d3	1.1730598
14	0x3f80f93e	1.0076063
15	0x3f91d9d7	1.1394604
16	0x3f91aa57	1.1380109
17	0x3f47c075	0.7802804

bias f4 [18]
0	0xbe894f47	-0.26818296
1	0xbf26f75c	-0.6522119
2	0xbedd48f9	-0.43219736
3	0xbe0bd118	-0.13653982
4	0xbe8fbedb	-0.280753
5	0xbe146ebb	-0.14495365
6	0xbeef9294	-0.46791518
7	0xbe7b7117	-0.24554859
8	0xbedb6372	-0.42849308
9	0xbce76a44	-0.028248914
10	0xbdaa2347	-0.0830751
11	0xbef95269	-0.48695686
12	0xbecd16cc	-0.40056455
13	0xbe1fae23	-0.15593772
14	0xbe289324	-0.1646238
15	0xbe81656b	-0.25272688
16	0xbcf4eb89	-0.029897468
17	0xbefec8fa	-0.49762708

running_mean f4 [18]
0	0xc07ff2ab	-3.9991863
1	0x402455e6	2.5677428
2	0x3e10711c	0.14105648
3	0xbfff14b9	-1.9928199
4	0xbfd24f29	-1.6430408
5	0xc08aae5f	-4.3337855
6	0xc0307f8b	-2.7577846
7	0xbf8d1ceb	-1.102445
8	0xbfb97d84	-1.4491429
9	0xbfdbba39	-1.7166206
10	0x4010bda7	2.2615755
11	0xbfec2c95	-1.8451105
12	0xc0049c3a	-2.0720353
13	0xbfc8194e	-1.5632722
14	0x3e1b47f2	0.15164164
15	0xbf5fde7e	-0.8744887
16	0x3f0ffa33	0.5624115
17	0xbff903cb	-1.9454283

running_var f4 [18]
0	0x4184425a	16.532398
1	0x40a5ba1a	5.1789675
2	0x41639440	14.223694
3	0x409949c8	4.7902565
4	0x411258b5	9.146657
5	0x41c9bbfd	25.216791
6	0x411810bc	9.504086
7	0x40e2aa03	7.0832534
8	0x40f40249	7.625279
9	0x4105835e	8.344572
10	0x40890313	4.2816253
11	0x40c23d00	6.0699463
12	0x40ad0e49	5.407994
13	0x40a8d5bb	5.27609
14	0x413186c0	11.095398
15	0x3f9d3b03	1.2283634
16	0x412f268c	10.946911
17	0x410e9d93	8.91347

weight f4 [45, 18, 5, 5]
0	0xbd158fb4	-0.036514
1	0xbcf0cb4a	-0.02939381
2	0xbdafd69b	-0.085858546
3	0x3ca0fc42	0.019651536
4	0xbd62f0f0	-0.055405557
5	0xbde2f08f	-0.11081039
6	0xbdea78b2	-0.11448802
7	0xbd30afdb	-0.04313646
8	0xba9574f7	-0.0011402656
9	0xb9f6c63a	-0.00047068467
10	0x3d9536ab	0.07285818
11	0x3da2c745	0.07948164
12	0x3b81e718	0.003964316
13	0x3d003957	0.031304684
14	0x3d97b0db	0.074067794
15	0x3e7732ca	0.24140468
16	0x3e215919	0.15756644
17	0x3d982e6b	0.074307285
18	0x3e4428f4	0.19156247
19	0x3d765beb	0.060146254
20	0x3d164407	0.03668597
21	0xbca38646	-0.019961488
22	0x3dd86570	0.10566223
23	0x3db08814	0.08619705
24	0xbc83ceea	-0.016089875
25	0xbe194a67	-0.14969788
26	0xbeadec08	-0.3396914
27	0xbe6572e4	-0.22407109
28	0xbe78a7cd	-0.24282761
29	0xbe60c6ee	-0.21950886
30	0xbd69bf39	-0.05706713
31	0xbe1e69d9	-0.15470065
32	0xbc7f8db6	-0.015597751
33	0xbe09a7f7	-0.1344298
34	0xbd63d61d	-0.055624116
35	0xbcd13c43	-0.02554143
36	0x3bb7a7e7	0.0056047323
37	0xbd94fb5a	-0.07274504
38	0xbdcb308b	-0.09921368
39	0xbcc31eca	-0.023818392
40	0xbd6b48c7	-0.057442453
41	0x3b8f6983	0.0043765916
42	0xbd47aa3b	-0.04874633
43	0xbcef7096	-0.02922849
44	0xbd4321a5	-0.047639508
45	0x3e5e83b4	0.21729928
46	0x3e9dfd50	0.30857325
47	0x3e276a95	0.16349252
48	0x3e5d95df	0.21639203
49	0x3df166a6	0.11787157
50	0xbd94c66a	-0.07264407
51	0xbe2497cb	-0.1607353
52	0xbe4f3d8c	-0.20238322
53	0xbe26786b	-0.16256873
54	0xbe38c085	-0.1804219
55	0xb9bab040	-0.00035608
56	0x3cab2c4f	0.020895151
57	0x3d9041e5	0.070438184
58	0x3b88f741	0.0041798656
59	0x3bc9b49e	0.0061555644
60	0xbba9ccac	-0.0051818695
61	0x3d7f1d97	0.06228408
62	0x3d942fad	0.07235656
63	0x3dfc6e8c	0.12325773
64	0x3decbae1	0.11559082
65	0xbda7f62e	-0.08201252
66	0x3da63b33	0.0811676
67	0x3d626217	0.055269327
68	0x3da596ff	0.08085441
69	0x3dc85e6b	0.09783634
70	0x3d560bdf	0.052257415
71	0x3e6ddcf8	0.23228824
72	0x3e03d632	0.12874678
73	0x3e311644	0.1729365
74	0x3e79ab51	0.24381758
75	0x3c88ea43	0.016713267
76	0xbcda71aa	-0.026665527
77	0x3c3e2844	0.01160628
78	0xbdef74f3	-0.11692228
79	0xbd8dbf5e	-0.06921266
80	0xbd9d9d29	-0.076959915
81	0xbd8b4ee3	-0.06802156
82	0xbd34cf66	-0.044143103
83	0x3d5a1668	0.053244025
84	0x3d84e89f	0.064896815
85	0xbd80f283	-0.062962554
86	0xbdd0fa0d	-0.102039434
87	0x3c9ab90e	0.01888707
88	0x3cab5980	0.0209167
89	0xbd9b47fa	-0.07582088
90	0x3c9134d1	0.01772538
91	0x3dcb3d7f	0.09923839
92	0x3c9e080e	0.01929095
93	0x3dba4c0b	0.09096535
94	0x3d3f4ecb	0.046706002
95	0xbdaa6b65	-0.08321265
96	0xbe973f61	-0.29540542
97	0xbe54071c	-0.20705837
98	0xbd885668	-0.06657106
99	0xbe19e920	-0.15030336
100	0xbe1e9dee	-0.15489933
101	0xbdef62aa	-0.116887406
102	0xbe51c2e6	-0.20484504
103	0xbe26ce67	-0.16289674
104	0xbda20b37	-0.07912295
105	0x3aba4cd2	0.0014213568
106	0x3cf97f27	0.030456139
107	0x3d80ee4f	0.06295454
108	0x3bdba8de	0.00670348
109	0xbc085eca	-0.008323381
110	0xbd10220e	-0.035188727
111	0xbd7d59f5	-0.061853368
112	0xbde3da2c	-0.11125597
113	0xbd31d46f	-0.043415483
114	0xbda1dbf8	-0.07903284
115	0xbd891719	-0.06693859
116	0xbdd74595	-0.105113186
117	0xbd0e784b	-0.03478269
118	0xbcb8a77a	-0.022540797
119	0xbd0a792c	-0.033806965
120	0x3d7383fd	0.059452046
121	0x3db2df32	0.087339774
122	0x3ecbe84f	0.39825675
123	0x3e935ca9	0.28781632
124	0x3e5f5606	0.21810159
125	0xbba25caa	-0.004954894
126	0xbded9bbc	-0.116019696
127	0xbd89b2fa	-0.0672359
128	0xbd9200f7	-0.0712909
129	0xbd0d9545	-0.034566183
130	0x3d4b31e0	0.04960811
131	0xbd2e1ecd	-0.042509843
132	0xbc977f09	-0.018493192
133	0x3c92b6a8	0.017909363
134	0xbbfd6e91	-0.007734128
135	0xbe8a7a82	-0.2704659
136	0xbe4c704d	-0.19964714
137	0xbdd066f3	-0.10175886
138	0xbe3e93f6	-0.1861113
139	0xbe74e334	-0.23914796
140	0xbd1f83b8	-0.038943976
141	0xbe478e4f	-0.1948788
142	0xbe84c686	-0.2593271
143	0xbe9dc44f	-0.30813834
144	0xbe9001e5	-0.28126445
145	0xbd23c795	-0.039985258
146	0xbdd2bd86	-0.10290055
147	0xbcc87e66	-0.024474334
148	0xbc54f3e6	-0.012997603
149	0xbd76bb5e	-0.06023728
150	0x3d1db3da	0.038501598
151	0x3c513f8d	0.012771499
152	0xbc7946ae	-0.015214605
153	0x3c5d2caf	0.013499423
154	0x3c680c87	0.014163143
155	0xbd7670ca	-0.060166158
156	0xbcc725c5	-0.024310002
157	0xb9c3bcd7	-0.00037333995
158	0xbd02d898	-0.03194484
159	0x3d4aeb29	0.049540672
160	0x3d4a9ae4	0.04946412
161	0x3db4df6d	0.088316776
162	0x3da56b71	0.080771334
163	0x3d9841bd	0.074344136
164	0x3e337ee5	0.17528875
165	0xbc421af7	-0.011847249
166	0x3e510253	0.20411043
167	0x3e21b82d	0.15792914
168	0x3e1b00ee	0.15137073
169	0x3df6c6ff	0.12049674
170	0xbd59182e	-0.053001575
171	0x3cc14675	0.023593167
172	0xbd0fbbc9	-0.035091195
173	0xbcb695ac	-0.022288166
174	0x3dc833a4	0.09775475
175	0x3e0cd193	0.13751821
176	0x3e954e7c	0.2916144
177	0x3d983472	0.07431878
178	0x3e31fd4d	0.17381783
179	0x3e09465f	0.1340575
180	0x3dc6db0f	0.09709751
181	0x3e55d72a	0.2088286
182	0x3e4a554c	0.197591
183	0x3e8caef6	0.27477235
184	0x3e806742	0.2507878
185	0x3cbce0f0	0.023056477
186	0x3cb39f6d	0.021926606
187	0xbe0994c7	-0.1343566
188	0x3d59ea31	0.053201858
189	0x3c487760	0.0122354925
190	0x3dc2232e	0.09479366
191	0x3d98cf39	0.074613996
192	0xbc94bb10	-0.018155605
193	0x3daf2186	0.08551316
194	0xbd8400fd	-0.06445501
195	0xbe209e30	-0.15685344
196	0xbecbe974	-0.39826548
197	0xbe95ca46	-0.29255885
198	0xbe2d54e5	-0.16926916
199	0xbe6216aa	-0.22078958
200	0x3c8d0f4c	0.017219208
201	0xbc78d23f	-0.015186845
202	0x3d2dc7c9	0.042426858
203	0x3b754a12	0.0037428183
204	0xbc35da46	-0.011099404
205	0x3e7be950	0.2460072
206	0x3e372af7	0.17887484
207	0x3e823360	0.2542982
208	0x3eac4af0	0.33650923
209	0x3e5518ba	0.20810214
210	0xbd37d556	-0.044881187
211	0xbda4d951	-0.08049262
212	0x3dc3abde	0.095542654
213	0xbde990a0	-0.11404538
214	0x3c96bc70	0.0184004
215	0x3d242809	0.040077243
216	0xbd520456	-0.051273666
217	0x3e54f681	0.20797159
218	0xbd18eb41	-0.03733373
219	0xbc94e761	-0.018176736
220	0x3c93fca3	0.018064803
221	0xbdaef93c	-0.085436314
222	0x3d582fca	0.05277995
223	0xbd60735d	-0.05479752
224	0x3e1cd6a1	0.1531625
225	0xbdf88cff	-0.12136268
226	0xbdb4610f	-0.08807575
227	0xbdb3fdc7	-0.087886386
228	0xbdce3bd9	-0.10070009
229	0x3d3eea5a	0.046610214
230	0xbd58f345	-0.052966375
231	0x3d9ed4d1	0.07755435
232	0x3cd5f28d	0.026116634
233	0x3c0473b6	0.008084228
234	0xbd54a57e	-0.05191564
235	0x3e8c6355	0.27419534
236	0x3e2b1b11	0.16709544
237	0x3dd9b987	0.1063109
238	0x3dd49e3c	0.10381743
239	0x3ddb2f54	0.107023865
240	0x3c07cdf2	0.008288847
241	0x3dbaac12	0.09114851
242	0x3b16727d	0.0022956424
243	0xbe1716a8	-0.14754736
244	0xbe0eeccb	-0.13957517
245	0x3d773526	0.06035342
246	0xbd7821a1	-0.060578946
247	0x3c4f2f6d	0.0126455845
248	0xbe30c317	-0.17261921
249	0xbe7372e2	-0.23774293
250	0xbd5d4219	-0.054018114
251	0xbe077cee	-0.1323125
252	0xbe0d12a2	-0.13776639
253	0xbd99983d	-0.0749974
254	0xbddc2eb0	-0.107510924
255	0xbdc9fa24	-0.09862164

weight f4 [45]
0	0x3f8576b2	1.0426848
1	0x3f8b3077	1.0874165
2	0x3f945ba2	1.1590464
3	0x3f715c03	0.94281024
4	0x3f8d39aa	1.1033223
5	0x3f87c21f	1.0606116
6	0x3f626e93	0.8844997
7	0x3f763b8b	0.96184605
8	0x3f8188da	1.0119889
9	0x3f56a635	0.8384736
10	0x3f82fae7	1.0232819
11	0x3f138390	0.57622623
12	0x3f77ebbc	0.9684408
13	0x3f6a524a	0.91531813
14	0x3f264146	0.6494335
15	0x3f8a2c18	1.0794706
16	0x3fa72e7a	1.3061059
17	0x3f5ccf46	0.86253774
18	0x3f7939c1	0.9735375
19	0x3f443e74	0.76657796
20	0x3f586559	0.84529644
21	0x3f5af988	0.85537004
22	0x3f4e5c84	0.8060992
23	0x3f894977	1.0725545
24	0x3f645e5c	0.8920648
25	0x3f5f0dda	0.8713051
26	0x3f6315bf	0.88705057
27	0x3f91bd76	1.1385944
28	0x3f7fca02	0.99917614
29	0x3f589f1e	0.84617794
30	0x3f755b38	0.95842314
31	0x3f269ab7	0.65079826
32	0x3f1649bc	0.5870626
33	0x3f6f3a40	0.9344826
34	0x3f8f454e	1.1193025
35	0x3f73e2d7	0.95268005
36	0x3fa4388a	1.2829754
37	0x3f73965a	0.95151293
38	0x3f44ef60	0.7692776
39	0x3f6ab9ee	0.91689956
40	0x3f836761	1.0265924
41	0x3f47a29b	0.7798249
42	0x3f62db7d	0.8861616
43	0x3f849845	1.0358969
44	0x3f8ce496	1.1007259

bias f4 [45]
0	0xbeb123f6	-0.3459775
1	0xbf26ff4f	-0.6523332
2	0xbf27302a	-0.6530787
3	0xbed5d5d0	-0.41764688
4	0xbe3b38dd	-0.1828341
5	0xbed21322	-0.41030222
6	0xbe91334b	-0.28359446
7	0xbe68a589	-0.22719397
8	0xbe6f0433	-0.23341446
9	0xbebcd521	-0.36881354
10	0xbe93c29a	-0.28859407
11	0xbf0320e9	-0.5122209
12	0xbe702758	-0.23452508
13	0xbf038312	-0.5137187
14	0xbf301d9a	-0.6879517
15	0xbe8fe0fc	-0.28101337
16	0xbed4425c	-0.41456878
17	0xbe960d14	-0.29306853
18	0xbee20226	-0.44142264
19	0xbe38682e	-0.18008491
20	0xbe8f18aa	-0.27948505
21	0xbea47370	-0.32119322
22	0xbefd12ce	-0.4942841
23	0xbeda871d	-0.42681208
24	0xbeb01141	-0.34388164
25	0xbf03218d	-0.5122307
26	0xbeb6be9a	-0.35692292
27	0xbed1612a	-0.40894443
28	0xbefef704	-0.49797833
29	0xbf0b19fe	-0.54336536
30	0xbf03e28d	-0.51517564
31	0xbefeb9c4	-0.49751103
32	0xbf035740	-0.5130501
33	0xbf4c2cc1	-0.7975579
34	0xbeb3b41e	-0.35098356
35	0xbee6ce4b	-0.45079264
36	0xbeef3c79	-0.46725824
37	0xbec816d4	-0.39079916
38	0xbe905ea9	-0.2819722
39	0xbeaf132a	-0.3419431
40	0xbf2f300e	-0.684327
41	0xbed40563	-0.4141036
42	0xbf0acbe6	-0.54217374
43	0xbeea19ab	-0.45722708
44	0xbe3cfa92	-0.1845496

running_mean f4 [45]
0	0xc002f6a1	-2.046303
1	0xc09fff3e	-4.9999075
2	0xc017ca40	-2.3717194
3	0xc0aad4e8	-5.3384895
4	0xc038914f	-2.883869
5	0xc03eee82	-2.9833074
6	0x408f4be5	4.4780145
7	0xc0c1af7f	-6.052673
8	0xc0809bbb	-4.01901
9	0xbf536f3b	-0.825916
10	0xc08e3902	-4.444459
11	0x3fa01312	1.250582
12	0xc05831aa	-3.3780313
13	0x404994ac	3.1496992
14	0x407569fc	3.8345938
15	0xc062ef1c	-3.545844
16	0xc0128fc4	-2.2900248
17	0xbefa3696	-0.4886977
18	0xbf35ee08	-0.7106633
19	0xc0291fcf	-2.6425664
20	0xc09cd185	-4.900576
21	0xbfef3da5	-1.8690687
22	0x3edf7c6f	0.43649623
23	0xbe8f0b38	-0.27938247
24	0xc09e0105	-4.9376245
25	0xc03702b4	-2.85954
26	0xc07f6a8d	-3.9908783
27	0xc0c2ef76	-6.091731
28	0xc0b4133d	-5.6273484
29	0xc0375d85	-2.865083
30	0x400e93d5	2.227773
31	0x3eacfb55	0.337855
32	0xbf775a77	-0.96622413
33	0xbe84aa51	-0.2591119
34	0xc0e38d01	-7.1109624
35	0x3fd4fc57	1.6639508
36	0xbf9a67eb	-1.2062963
37	0xc03b9f1a	-2.9315858
38	0xbf7c7f73	-0.9863197
39	0x3fda4ff1	1.7055646
40	0xc026269f	-2.5961072
41	0xbf66996f	-0.9007787
42	0x3d688fd7	0.0567778
43	0x40038272	2.0548368
44	0x400983bb	2.1486652

running_var f4 [45]
0	0x41170041	9.437562
1	0x415626ab	13.38444
2	0x412dd36f	10.86412
3	0x41c099e7	24.075148
4	0x413e45dd	11.892056
5	0x416b67d9	14.712853
6	0x41823738	16.276962
7	0x41407a1a	12.02981
8	0x413cdc0e	11.803724
9	0x41c02c24	24.021553
10	0x41c49603	24.573248
11	0x4130d6f9	11.052484
12	0x4173755f	15.216155
13	0x4160e724	14.056431
14	0x4182265b	16.268728
15	0x4109b0cb	8.605662
16	0x413a5a59	11.647058
17	0x409f3add	4.9759355
18	0x41813b30	16.1539
19	0x410d1e1d	8.819852
20	0x414faff8	12.980461
21	0x41442392	12.258684
22	0x40e3bbb7	7.1166644
23	0x413b6f04	11.714603
24	0x41802bef	16.021452
25	0x40fbd7b0	7.870079
26	0x413468b2	11.27556
27	0x419a457a	19.283924
28	0x4180f0c1	16.117556
29	0x4115d432	9.3643055
30	0x41179001	9.472657
31	0x40bbe901	5.872193
32	0x418a8c1b	17.31841
33	0x410058ce	8.021681
34	0x41896dc6	17.1786
35	0x412f6aa5	10.963536
36	0x40d56bda	6.6694155
37	0x412ac6cb	10.673533
38	0x413bec97	11.745261
39	0x410f2e95	8.948873
40	0x412089e1	10.033662
41	0x41613aec	14.076885
42	0x40da85f7	6.828853
43	0x415e7510	13.90358
44	0x41382030	11.507858

weight f4 [18, 45, 5, 5]
0	0x3e78141d	0.24226423
1	0x3dc8a16e	0.09796415
2	0x3e3cb463	0.18428187
3	0x3e86d983	0.26337823
4	0x3e8037ad	0.25042477
5	0xbe016f62	-0.12640145
6	0xbe872c91	-0.2640119
7	0xbe030259	-0.12793864
8	0xbdd1a6f7	-0.10236924
9	0xbbbd7c03	-0.0057826056
10	0xbd9be9e2	-0.07612969
11	0xbd92cc62	-0.07167889
12	0xbe05f977	-0.13083445
13	0xbd2767df	-0.040870544
14	0xbd5f0315	-0.0544463
15	0xbdc7de4a	-0.09759195
16	0x3d065cb4	0.032803252
17	0x3e0dc70e	0.13845465
18	0x3e0e6bb9	0.1390828
19	0x3e1085d0	0.14113545
20	0xbd4ef813	-0.05052955
21	0x3ce96b2d	0.028493488
22	0x3dab76e2	0.083722845
23	0x3d9fac26	0.077965066
24	0x3dea7244	0.11447576
25	0x3dd6a6af	0.10481011
26	0x3e5daf78	0.21648967
27	0x3e3c3bd4	0.18382198
28	0xbc2ba3e7	-0.010476089
29	0xbb828c12	-0.003983983
30	0xbe89ef24	-0.26940262
31	0xbe1fb23f	-0.15595339
32	0xbe7394ad	-0.23787184
33	0xbe96223f	-0.29323003
34	0xbe0998d7	-0.1343721
35	0xbe5af3ae	-0.21382019
36	0xbe0bf0df	-0.13666104
37	0xbe37f127	-0.17963086
38	0xbea1bca2	-0.31589228
39	0xbe83621f	-0.25660798
40	0x3d4e9854	0.05043824
41	0x3e727ac1	0.2367964
42	0x3e784410	0.24244714
43	0x3ab86b04	0.0014069979
44	0x3d2c266d	0.042028833
45	0x3d7986d9	0.060919616
46	0x3e13d6c4	0.14437395
47	0x3de9952a	0.11405404
48	0xbd085bfb	-0.033290844
49	0xbc882cf7	-0.016623003
50	0x3ca17601	0.019709589
51	0xbd20bce6	-0.039242648
52	0xbcb780f9	-0.022400366
53	0xbdea62f6	-0.114446566
54	0x3ce7a0a9	0.02827485
55	0xbcaf14b6	-0.02137218
56	0xbe299d02	-0.165638
57	0xbdc04451	-0.0938803
58	0xbd766c78	-0.060162038
59	0xbdd45759	-0.10368223
60	0x3d41c294	0.047304705
61	0x3deb080c	0.11476144
62	0xbb7a9a9c	-0.0038239127
63	0xbd571ba4	-0.052516595
64	0xbc3ea14c	-0.011635136
65	0x3ec66fc7	0.38757154
66	0x3e722f01	0.23650743
67	0x3d918a42	0.07106449
68	0x3acde1d5	0.0015707562
69	0x3e22577f	0.1585369
70	0xbdb09256	-0.08621661
71	0xbe36386a	-0.17794958
72	0xbd9698d9	-0.07353372
73	0xbe3eba7d	-0.18625827
74	0x3cba6481	0.022753002
75	0x3e061ef8	0.13097751
76	0x3dc343c2	0.09534408
77	0x3e3ac408	0.18238842
78	0x3e66c52c	0.22536153
79	0x3d635d07	0.05550864
80	0x3e47bf8a	0.1950666
81	0x3e4c5038	0.19952476
82	0x3e3aa144	0.1822558
83	0x3e912077	0.2834508
84	0x3e4f63a9	0.20252861
85	0xbe5defe1	-0.21673538
86	0xbdef908e	-0.116974935
87	0xbe24eca5	-0.16105898
88	0xbe28dec7	-0.16491233
89	0xbeb337d3	-0.35003528
90	0xbe6b1eb9	-0.22960939
91	0xbe1828f6	-0.14859375
92	0xbdcfe2f2	-0.10150708
93	0xbdd69abd	-0.10478733
94	0xbe31a967	-0.17349778
95	0x3e17fb26	0.148419
96	0x3e4133b5	0.18867381
97	0x3d919922	0.07109286
98	0x3deb5320	0.11490464
99	0xbd8b4c9a	-0.0680172
100	0xbce52dc9	-0.027975934
101	0xbe42b5d5	-0.19014676
102	0xbe19c32f	-0.15015863
103	0xbe208b6f	-0.1567819
104	0xbe082dfa	-0.13298789
105	0x3d838812	0.06422438
106	0x3bed8061	0.00724797
107	0x3e20601d	0.15661664
108	0x3e9f2094	0.31079543
109	0x3eb27378	0.3485372
110	0x3da055c0	0.078288555
111	0xbdd34c0d	-0.1031724
112	0x3df29165	0.11844138
113	0x3e092212	0.13391903
114	0xbd72bb83	-0.059260856
115	0xbd195278	-0.037432164
116	0xbc9455fb	-0.018107405
117	0x3e35cae7	0.17753182
118	0x3d779861	0.060448054
119	0xbdaddfd2	-0.08489956
120	0xbe3e3b13	-0.18577223
121	0xbd37a361	-0.044833545
122	0x3d180be1	0.037120704
123	0x3ae063cf	0.0017119589
124	0xbe991baf	-0.29903933
125	0x39b6592f	0.00034780192
126	0xbdceee9b	-0.10104104
127	0xbdd164d8	-0.102243125
128	0x3d77cb7d	0.060496796
129	0xbd33b149	-0.043870244
130	0x3e845279	0.25844172
131	0x3e99b56e	0.30021232
132	0x3ea3b6ce	0.31975406
133	0x3e886770	0.26641417
134	0x3e4842e1	0.19556762
135	0x3cb33c48	0.02187933
136	0x3c20b0e0	0.009807795
137	0x3c9a97cc	0.01887121
138	0x3d027253	0.03184731
139	0x3d09520a	0.033525504
140	0xbd1fffb4	-0.039062217
141	0x3dbde6af	0.09272515
142	0x3d956a17	0.07295626
143	0x3e059799	0.13046111
144	0x3d95ef63	0.0732105
145	0x3cc98d13	0.024603402
146	0x3dcbe53b	0.099558316
147	0x3d882582	0.06647779
148	0xbda0c36b	-0.07849773
149	0xbe87b38c	-0.2650417
150	0x3deca6f9	0.11555285
151	0x3d1b2e1d	0.037885774
152	0xbc540639	-0.012940937
153	0x3dcec793	0.100966595
154	0x3dbb2827	0.09138518
155	0xbdbb3467	-0.09140854
156	0xbdd372c3	-0.103246234
157	0xbddfa487	-0.10920053
158	0xbe008791	-0.12551714
159	0xbc782a94	-0.01514687
160	0x3d0bc638	0.034124583
161	0x3c574351	0.013138608
162	0x3bfcdd8a	0.007716839
163	0xbd23902f	-0.039932426
164	0xbcb08bc4	-0.02155102
165	0xbc043579	-0.0080693895
166	0x3db4965e	0.08817743
167	0x3db899a7	0.09013682
168	0xbd90992f	-0.070604675
169	0xbe3d36ac	-0.18477887
170	0xbe31efec	-0.17376679
171	0xbe0a33cc	-0.13496321
172	0xbe3806b1	-0.17971303
173	0xbe9b966d	-0.30388203
174	0xbea14c51	-0.31503537
175	0xbda2db56	-0.07951991
176	0x3d15fc9c	0.03661786
177	0x3cf7c3e5	0.030244777
178	0xbe084263	-0.13306575
179	0x3b27adba	0.0025585727
180	0x3db82a3c	0.089924306
181	0x3e1d5852	0.15365723
182	0x3e3889a0	0.1802125
183	0x3de860fb	0.113466226
184	0x3e9d2ae8	0.30696797
185	0xbcfe5896	-0.0310481
186	0xbd1faddd	-0.03898417
187	0xbd521585	-0.051290054
188	0x3b31f16f	0.0027151962
189	0x3d540baa	0.051768936
190	0xbc7cc4f0	-0.015427813
191	0x3d81b297	0.063328914
192	0x3d32748e	0.043568186
193	0x3d82f046	0.06393485
194	0x3e41744b	0.18892018
195	0xbc5b494b	-0.013384174
196	0x3cde7744	0.02715648
197	0xbc20a3b8	-0.009804659
198	0xbd1dfa5f	-0.03856885
199	0x3dcd058a	0.10010822
200	0x3c321a1e	0.010870485
201	0xbdcb937d	-0.099402405
202	0x3c67a41f	0.014138251
203	0x3d1381c9	0.036012445
204	0x3c918277	0.017762406
205	0x3da7418e	0.081668004
206	0x3d7d4ab7	0.06183883
207	0x3de7da9c	0.11320993
208	0x3e0d6cbe	0.13811013
209	0x3db852ac	0.090001434
210	0xbdf1d0d4	-0.11807409
211	0xbcd45f17	-0.025924249
212	0x3d122989	0.035684142
213	0xbdca474a	-0.098768786
214	0x3d67efe7	0.056625273
215	0xbdbb2111	-0.09137166
216	0xbcf2f36a	-0.029657084
217	0x3ce3b1a8	0.027794674
218	0xbe81c1c0	-0.25343132
219	0xbded5725	-0.11588887
220	0x3e8a5212	0.2701574
221	0x3eb4f10b	0.3534015
222	0x3eb82ab8	0.35970092
223	0x3ea2a9c2	0.3177014
224	0x3f010872	0.5040351
225	0x3e0e8191	0.13916613
226	0x3db14037	0.08654826
227	0xbd2b52aa	-0.04182688
228	0x3c962a50	0.018330723
229	0xbd41e153	-0.047334027
230	0x3da7e90c	0.08198747
231	0x3da732bb	0.08163973
232	0x3d80c0df	0.06286787
233	0x3decaa89	0.115559645
234	0x3e0cb582	0.13741115
235	0xbd34507e	-0.044022076
236	0xbcc0793b	-0.023495307
237	0xbd82af7f	-0.063811295
238	0xbcf097cc	-0.029369257
239	0xbde9c997	-0.11415403
240	0x3dbb6ef8	0.09152025
241	0x3d2fb672	0.042898603
242	0x3d5fef50	0.054671586
243	0xbc1d34df	-0.009595125
244	0xbcdca2b9	-0.026933061
245	0xbddc9313	-0.1077024
246	0xbd9ad8c0	-0.07560873
247	0xbd73b3aa	-0.059497513
248	0xbe14b84b	-0.14523427
249	0xbea9aa4f	-0.33137748
250	0x3e099305	0.1343499
251	0x3e3b2fa6	0.18279895
252	0x3e576cc0	0.21037579
253	0x3e883590	0.26603365
254	0xbb816631	-0.0039489497
255	0x3da54458	0.08069676

weight f4 [18]
0	0x3f453486	0.7703327
1	0x3f7f9b96	0.9984678
2	0x3f78ed51	0.97237116
3	0x3f448582	0.76766217
4	0x3f6a42f9	0.9150844
5	0x3f6bd043	0.9211466
6	0x3f344943	0.7042429
7	0x3f798662	0.97470677
8	0x3f8ba1e8	1.0908785
9	0x3f5ff627	0.87484974
10	0x3f86b235	1.0523134
11	0x3f87d2e9	1.061124
12	0x3f8237b4	1.0173249
13	0x3f6e8250	0.9316759
14	0x3f710d76	0.94161165
15	0x3f9e160c	1.2350478
16	0x3f82d22e	1.0220392
17	0x3f7f05fb	0.996185

bias f4 [18]
0	0xbdf17be8	-0.11791211
1	0xbdd9e708	-0.10639769
2	0xbe826311	-0.25466207
3	0xbef58bf7	-0.47958347
4	0xbf33d8d4	-0.7025273
5	0xbe843c01	-0.2582703
6	0xbee6c724	-0.45073807
7	0xbe2cbae7	-0.16868173
8	0xbf0e572d	-0.5560177
9	0xbde22278	-0.11041731
10	0xbe0963e4	-0.13417011
11	0xbe43b836	-0.1911324
12	0xbe0af1f6	-0.13568863
13	0xbed0e327	-0.40798303
14	0xbe8418eb	-0.2580026
15	0xbed65dbe	-0.41868395
16	0xbe9bd8ff	-0.30438992
17	0xbed986ce	-0.4248566

running_mean f4 [18]
0	0x4060c679	3.5121138
1	0xc083718f	-4.107612
2	0xbf5c9778	-0.8616862
3	0x3f2d8fc8	0.6779752
4	0x3ea37d01	0.31931308
5	0xc01c0c1b	-2.4382389
6	0xbff4129a	-1.9068177
7	0xc100dd38	-8.0540085
8	0x3fb9b74e	1.4509065
9	0xc10b59a5	-8.709386
10	0xc01f9601	-2.4935305
11	0xc00719f1	-2.1109583
12	0xc0bb1545	-5.8463464
13	0xbd86e615	-0.065868534
14	0xbfe3d2a1	-1.7798654
15	0xbf5636a5	-0.8367713
16	0xc1090303	-8.563235
17	0xc09cf748	-4.9051857

running_var f4 [18]
0	0x418c7b73	17.560278
1	0x4198e01c	19.109428
2	0x421b9f5a	38.905617
3	0x419eea4f	19.864408
4	0x420f6c20	35.85559
5	0x41c6c4e0	24.84613
6	0x418a59fd	17.29394
7	0x42067bdc	33.620956
8	0x41710c49	15.065499
9	0x4256c467	53.6918
10	0x41a9a064	21.203316
11	0x42989384	76.28812
12	0x4256bb9e	53.68322
13	0x41d6670e	26.80032
14	0x41e18b33	28.192968
15	0x42145b32	37.089058
16	0x41d4ad09	26.58449
17	0x41e3f6a3	28.495428

weight f4 [6, 18, 5, 5]
0	0x3cb2a62a	0.021807749
1	0x3e39427e	0.18091771
2	0x3d872960	0.065996885
3	0x3d314bef	0.043285307
4	0x3e33f2cb	0.17573087
5	0xbc8d3741	-0.017238261
6	0x3da23edd	0.079221465
7	0x3cc5f2e9	0.02416368
8	0x3d90f240	0.070774555
9	0x3dbc7b70	0.09203231
10	0xbdb65c8a	-0.08904369
11	0x3e04b260	0.1295867
12	0x3d6d21d3	0.057893585
13	0xbd1aa254	-0.037752464
14	0x3c0530ef	0.008129342
15	0x3dd66242	0.1046796
16	0x3e6a64d7	0.2289003
17	0x3df1b812	0.11802687
18	0x3d435d81	0.047696594
19	0x3d5a2387	0.053256538
20	0xbe1b49a9	-0.15164818
21	0xbde6cfc4	-0.11270097
22	0xbdcd8558	-0.10035199
23	0xbdbf6a3a	-0.09346433
24	0xbe1d557f	-0.15364645
25	0xbd2a1ecf	-0.041533288
26	0x3c2a4a7f	0.010393738
27	0x3d90be67	0.07067566
28	0x3d9bafa5	0.07601861
29	0x3e0c606e	0.1370866
30	0xbe158c9e	-0.14604422
31	0xbd988e72	-0.07449044
32	0xbe16f0d1	-0.14740302
33	0xbda96345	-0.08270887
34	0xbec4d994	-0.3844725
35	0xbe16d578	-0.1472987
36	0xbde54f1d	-0.1119673
37	0xbe3d206b	-0.18469398
38	0xbe38cc6d	-0.18046732
39	0xbe4cfd2c	-0.20018452
40	0x3d8cca16	0.06874482
41	0x3d0b3150	0.033982575
42	0xbd6bf690	-0.057608187
43	0xbc9c22c5	-0.019059548
44	0x3d3be4f5	0.045872647
45	0x3db377e5	0.087631024
46	0x3d7c308d	0.06156974
47	0x3d6af011	0.05735785
48	0x3e026940	0.12735462
49	0x3ea4a3f3	0.32156333
50	0xbde0949e	-0.109658465
51	0xbcb8f5d9	-0.022578167
52	0x3d64087a	0.055672146
53	0x3cac621a	0.021042872
54	0xbd833544	-0.06406644
55	0xbd23db7c	-0.04000424
56	0x3ceda569	0.029009538
57	0x3d88364f	0.066509835
58	0x3de2124d	0.11038647
59	0x3d7c7330	0.06163329
60	0xbc00a9af	-0.007852956
61	0xbd04bbb3	-0.032405566
62	0x3dbae9cd	0.09126625
63	0x3dba4a22	0.09096171
64	0x3db50bbe	0.0884013
65	0xbdba3f70	-0.09094131
66	0xbd844d67	-0.06460076
67	0xbd615bd6	-0.055019222
68	0x3b17bfd2	0.0023155105
69	0x3e214483	0.15748791
70	0xbdd1020f	-0.10205471
71	0xbdbbdc67	-0.09172898
72	0xbe0a0f29	-0.13482346
73	0xbe011a12	-0.12607601
74	0xbe02268d	-0.12710018
75	0xbd99bbdb	-0.07506534
76	0xbe0cc4d0	-0.13746953
77	0xbdd8a9ca	-0.1057926
78	0xbd99219f	-0.07477116
79	0xbe6f8cb4	-0.23393518
80	0x3e33ccec	0.1755864
81	0x3de7b63f	0.113140576
82	0x3e268f89	0.16265692
83	0x3e6df481	0.23237802
84	0x3e86a758	0.26299548
85	0xbe1008f4	-0.14065915
86	0xbe0ee099	-0.13952865
87	0xbdb43323	-0.08798816
88	0xbe167e77	-0.1469668
89	0xbea7b073	-0.32751808
90	0x3d2fccad	0.042919803
91	0xbdb36ec9	-0.08761365
92	0xbcef209f	-0.02919036
93	0xbd5a2054	-0.053253487
94	0xbe86b949	-0.26313236
95	0xbd0b2879	-0.033974145
96	0xbd0d4c43	-0.034496557
97	0xbc6f2bab	-0.014597814
98	0x3e05d07f	0.13067816
99	0xbcd07090	-0.025444299
100	0xba933e6e	-0.0011233815
101	0x3cb2c419	0.021822022
102	0x3d429664	0.047506705
103	0xbc9add75	-0.018904427
104	0x3dc2e21b	0.095157824
105	0x3d2220b2	0.039581962
106	0xbc4eab9c	-0.012614157
107	0x3c6ab9c8	0.01432652
108	0x3cb6a2e2	0.022294465
109	0x3e7f1449	0.24910082
110	0xbc9fa68c	-0.019488595
111	0xbdcb6ad8	-0.09932488
112	0xbd3bc217	-0.045839395
113	0x3d324d03	0.043530475
114	0x3d4ae25d	0.049532283
115	0x3c8e0f1d	0.017341191
116	0x3d89031b	0.066900454
117	0x3d794108	0.060853034
118	0x3d90d276	0.07071392
119	0xbdcd2e09	-0.10018546
120	0xbd6ac4a8	-0.057316452
121	0xbc8f41a5	-0.017487356
122	0x3b58b7e7	0.0033068599
123	0x3d14dc16	0.036342703
124	0xbd168d52	-0.036755867
125	0x3cbbec36	0.022939783
126	0xbd050cd7	-0.03248295
127	0x3ac36d4a	0.001490989
128	0x3d0279be	0.031854384
129	0x3ddc0562	0.10743214
130	0xbdccf0d0	-0.10006869
131	0x3d12f403	0.03587724
132	0xbc6a2ec3	-0.014293375
133	0xbce2dd84	-0.027693518
134	0xbe092247	-0.13391982
135	0xbc80735d	-0.01568001
136	0x3bb857cf	0.005625702
137	0x3dd7c931	0.10536421
138	0x3ce5d2b9	0.028054582
139	0x3d9a92b2	0.07547511
140	0x3d803e02	0.06261827
141	0x3e5b59d9	0.21420993
142	0x3e580b65	0.21098097
143	0x3db9a3a7	0.09064417
144	0x3d97165a	0.0737731
145	0xbe9ce54e	-0.30643696
146	0xbe6b4769	-0.2297646
147	0xbe39e63e	-0.18154237
148	0xbe810641	-0.25200084
149	0xbea9fbe4	-0.3319999
150	0x3c9d1350	0.019174248
151	0x3d850882	0.06495763
152	0x3deb1903	0.1147938
153	0x3e21b335	0.15791018
154	0x3dad87b8	0.08473152
155	0xbe32393b	-0.17404644
156	0xbdbc39a0	-0.091906786
157	0xbde0a9f3	-0.10969915
158	0xbc0e7c1f	-0.008696585
159	0xbda86a1e	-0.08223365
160	0xbdfdb78a	-0.12388523
161	0x3ccc223f	0.024918674
162	0xbd66de8a	-0.056364574
163	0xbd62d6ed	-0.05538075
164	0xbd821149	-0.06350953
165	0x3cb624af	0.022234289
166	0x3d4b40eb	0.049622457
167	0x3cf83af7	0.030301554
168	0xbd38a25b	-0.04507671
169	0x3cec3a39	0.028836356
170	0x3d295f11	0.041350428
171	0x3ca850fc	0.020546429
172	0xbd1f6b34	-0.038920596
173	0xbe2acaca	-0.1667892
174	0xbd51e2e7	-0.05124178
175	0xbe792761	-0.24331428
176	0xbe1bdbcc	-0.15220565
177	0xbe6e2a91	-0.23258425
178	0xbe939d9d	-0.28831187
179	0xbe7c58c0	-0.2464323
180	0x3cad91c2	0.021187667
181	0x3c9566a1	0.018237414
182	0x3d108e9e	0.03529226
183	0x3d95d3be	0.07315777
184	0x3df2f732	0.11863555
185	0x3e236579	0.15956677
186	0x3e28c5be	0.16481683
187	0x3d11713c	0.03550838
188	0x3db608cb	0.08888396
189	0x3b693043	0.0035581745
190	0xbdf22d91	-0.11825097
191	0xbd83d31e	-0.06436752
192	0xbd983074	-0.07431117
193	0xbe532883	-0.20620923
194	0xbe511125	-0.20416696
195	0x3dbb143f	0.09134721
196	0x3bd9052d	0.0066229315
197	0x3ce915b6	0.028452735
198	0xbe1e8c83	-0.15483288
199	0xbdfbf029	-0.12301666
200	0x3e339158	0.17535913
201	0x3d9d3ec6	0.07677989
202	0x3e9df988	0.3085444
203	0x3e66d309	0.22541441
204	0x3ea3afac	0.31969965
205	0x3e09142a	0.13386598
206	0x3d2c126d	0.04200976
207	0x3e91e032	0.2849136
208	0xbcbad615	-0.02280716
209	0x3e33941a	0.17536965
210	0x3e2d0c55	0.16899236
211	0x3d9adb90	0.075614095
212	0x3e3cf196	0.18451533
213	0x3dab8029	0.08374054
214	0x3e47d214	0.19513732
215	0x3e0fb785	0.14034851
216	0x3d336cd8	0.043804973
217	0x3e222e48	0.15837967
218	0x3de641e8	0.11243039
219	0x3d491602	0.049093254
220	0x3e0e5201	0.1389847
221	0x3e04eaf3	0.12980251
222	0x3e0d84e6	0.13820228
223	0x3d4d9c25	0.05019774
224	0xb9bbc269	-0.00035812266
225	0xbdcccc63	-0.09999921
226	0x3ca86167	0.020554258
227	0xbdaa04cf	-0.083016984
228	0xbc101dc0	-0.008796155
229	0xbd937665	-0.07200316
230	0xbd381481	-0.04494143
231	0xbd84bd7c	-0.06481454
232	0xbe2809f4	-0.16410047
233	0xbdb081c0	-0.08618498
234	0xbe6a4f4c	-0.22881812
235	0x3d8082f5	0.06274978
236	0x3dca072d	0.0986465
237	0x3dc4eb02	0.09615137
238	0x3e0f767d	0.14010043
239	0xbd9325c9	-0.07184941
240	0xbdc11429	-0.09427673
241	0x3d22c41f	0.039737817
242	0x3c4d2a29	0.012522259
243	0xbd31935f	-0.043353435
244	0xbdb6d9ab	-0.089282356
245	0xbd0d0b5d	-0.034434665
246	0xbd999722	-0.074995294
247	0xbe2820a9	-0.16418709
248	0xbdbf9672	-0.09354867
249	0xbda3d70f	-0.080000035
250	0xbe3013cd	-0.17195053
251	0xbc100c08	-0.008791931
252	0xbd3acbb9	-0.04560444
253	0xbdd3b5f2	-0.10337438
254	0xbe73d37c	-0.23811144
255	0x3da80292	0.08203615

weight f4 [6]
0	0x3f7d46fa	0.98936427
1	0x3f90f19a	1.1323731
2	0x3f635ea0	0.8881626
3	0x3f72e522	0.9488088
4	0x3f83604e	1.0263765
5	0x3f71a6e0	0.94395256

bias f4 [6]
0	0xbe5fb76d	-0.21847315
1	0xbdfef546	-0.12449126
2	0xbe17569d	-0.14779134
3	0xbe6fccd6	-0.23417982
4	0xbe8d68b6	-0.2761895
5	0xbe8987a6	-0.26861304

running_mean f4 [6]
0	0x401a6755	2.412557
1	0xbfe2ecf5	-1.7728564
2	0xc0acc7f0	-5.3994064
3	0xc01b055b	-2.4222019
4	0xc0a17ea2	-5.046708
5	0xc02c88a3	-2.6958396

running_var f4 [6]
0	0x419c62ed	19.548304
1	0x416aa9ce	14.666456
2	0x41be2e74	23.772682
3	0x41bf96ca	23.948627
4	0x415ce376	13.805532
5	0x414d20ac	12.820477

weight f4 [1, 6, 5, 3]
0	0x3c6cb055	0.014446338
1	0xbd44cf11	-0.048049036
2	0x3dc5524d	0.09634838
3	0xbd26efba	-0.040755965
4	0xbd4b21a7	-0.04959264
5	0xbdb719a6	-0.08940439
6	0x3ea0cd69	0.31406716
7	0xbe34bd68	-0.17650378
8	0x3ee1ba96	0.44087666
9	0xbca24fed	-0.019813502
10	0xbd933ea1	-0.0718968
11	0xbbff1fed	-0.0077857883
12	0x3d946383	0.07245543
13	0xb9a4d1ad	-0.00031436738
14	0x3dd1c4b5	0.10242597
15	0xbeb31792	-0.3497892
16	0x3e1ee896	0.15518412
17	0xbec65430	-0.38736105
18	0x3d5218b9	0.05129311
19	0xbd1b2784	-0.037879482
20	0x3d315c6b	0.043301027
21	0xbc69be6b	-0.014266591
22	0x3cb88293	0.0225232
23	0xbc98cc92	-0.018652234
24	0xbce43129	-0.027855473
25	0xbbc667a5	-0.006054836
26	0xbcfd177b	-0.030894985
27	0x3d89aaac	0.06722006
28	0xbd298204	-0.04138376
29	0x3cd04f4e	0.02542844
30	0x3db4ca9b	0.088277064
31	0x3d96f1ea	0.0737036
32	0x3dde01f0	0.10840213
33	0xbeac6521	-0.33670905
34	0xbdb6d75d	-0.08927796
35	0xbe7ab3c7	-0.24482642
36	0xbdc1c573	-0.094614886
37	0x3d26cdbd	0.04072355
38	0xbdb93d9b	-0.090449534
39	0xbd4f1a67	-0.05056229
40	0xbccfb767	-0.025356008
41	0x3d114b83	0.035472404
42	0x3e38b9b7	0.18039595
43	0x3c8972d6	0.01677839
44	0x3e7cc385	0.2468396
45	0x3e14e2b4	0.14539605
46	0x3cdd4c46	0.02701391
47	0x3d2496e6	0.04018297
48	0x3d988da2	0.07448889
49	0xbd105c04	-0.035244003
50	0x3c88aa6b	0.016682824
51	0xbe4fbc78	-0.20286739
52	0xbd9841e3	-0.07434442
53	0xbe81113c	-0.2520846
54	0xbe46757f	-0.19380759
55	0xbbc334b1	-0.005957209
56	0xbe272b8c	-0.16325206
57	0x3ea1d021	0.31604102
58	0x3d7602fd	0.060061444
59	0x3e730e7d	0.23735996
60	0x3e1ecb51	0.15507247
61	0xbc8510f1	-0.01624343
62	0x3e0133a0	0.1261735
63	0xbea26f89	-0.3172572
64	0x3e0da1a2	0.1383119
65	0xbeacfa4b	-0.33784708
66	0xbd1f3acc	-0.038874432
67	0x3b80b3d7	0.0039276886
68	0xbd38cc15	-0.045116503
69	0x3e38a33f	0.18031023
70	0x3c488a86	0.012240058
71	0x3e09cb03	0.13456349
72	0x3d9d48bd	0.07679889
73	0x3a8a44f7	0.0010549118
74	0x3d8f9b22	0.07012011
75	0xbe8a28cd	-0.26984254
76	0xbc646bfb	-0.01394176
77	0xbe1c521e	-0.152657
78	0x3e958d3a	0.2920931
79	0x3c99950e	0.018747833
80	0x3dc7fe2b	0.097652756
81	0xbe8c3b7b	-0.2738913
82	0xbb59148f	-0.0033123826
83	0xbdb1892d	-0.08668742
84	0x3dcfeb4f	0.101523034
85	0x3cc34d36	0.023840528
86	0x3d9041eb	0.07043823
87	0xbe2791b3	-0.16364174
88	0xbd918253	-0.071049355
89	0xbe81d71d	-0.2535943
