source/models/MelodyTimbreCNN/model_segment_velocities_diff-melodies_test.pth (torch, 204095 bytes, 31 tensors)

weight f4 [6, 1, 5, 5]
000000 42 e7 13 3e fe e9 4a be b2 1a 3d 3e 98 48 52 3c
       0.14443687 -0.19815823 0.18467215 0.0128346905
000010 9d 49 e7 3b d6 a7 d2 bd 45 ac a4 3c 7e 66 09 be
       0.007058336 -0.102859184 0.020101676 -0.13418004
000020 47 5d 08 be 4f c6 28 bd ab a0 b9 3d 01 39 4f 3d
       -0.13316832 -0.041204747 0.09063848 0.050591473
000030 41 05 26 3d 27 1c 0d 3d c9 1c fc bd a5 0d 22 be
       0.040532354 0.034450676 -0.12310178 -0.15825517
000040 56 6f 51 3e b8 26 b4 bd 2d b0 97 bd 7d 23 23 3e
       0.20452628 -0.087964475 -0.0740665 0.15931506
000050 bb 76 97 bd 23 d5 14 3c 34 cf 1f 3e b9 eb 09 bd
       -0.07395693 0.009084019 0.15606385 -0.03367207
000060 bd 67 f3 bd 59 88 cb bd d6 7c a5 bc dd 57 91 bd
       -0.11885021 -0.099381156 -0.020201128 -0.07096837
000070 24 c3 4f be 4f d1 26 bd 22 d6 e8 3d 7d 56 0b be
       -0.20289284 -0.040726956 0.113689676 -0.13607211
000080 9d 40 51 3e e6 7e 25 3e 7c 1f 20 be 94 0e f3 bb
       0.20434804 0.16161689 -0.1563701 -0.0074175093
000090 f0 81 d7 3d 74 25 c4 3d 53 5d 96 bd 77 8a a0 bd
       0.105228305 0.09577456 -0.07342019 -0.0783891
0000a0 51 94 da 3d c1 ad 03 bd 1e aa 38 3e 35 7e 03 be
       0.1067282 -0.032148127 0.18033645 -0.12841113
0000b0 ee 6b 15 be 7c c8 87 3d 90 80 ac 3b b4 cd 0e be
       -0.14591953 0.06630036 0.0052643493 -0.13945657
0000c0 18 64 d4 bd b2 b0 f9 bc ee 0b 14 bd 30 f8 a1 bb
       -0.10370654 -0.030479763 -0.03614419 -0.0049429163
0000d0 0d 17 f3 bc 38 b8 cb 3d 95 c1 bc bd aa 7c 6f bd
       -0.029674077 0.09947246 -0.0921661 -0.0584685
0000e0 1a 7d ba bd b0 1e 89 bc 24 26 02 be c1 ce 1d 3e
       -0.091058925 -0.016738266 -0.12709862 0.15410902
0000f0 0d 76 01 be 77 41 cd 3b 49 0f b9 bd 59 db 72 3d
       -0.12642689 0.0062639075 -0.090361185 0.059291217
000100 90 18 10 3e 7c f5 0c be 55 01 53 3e 4e bb 9c bc
       0.1407187 -0.1376552 0.20605977 -0.019132283
000110 4d ed ea 3d c1 15 c7 3c 2c 27 cf bd e6 78 3c 3e
       0.11471043 0.024302365 -0.10114893 0.18405494
000120 c1 10 46 3e e5 20 41 be 7a 66 c8 3d 22 a8 fb bd
       0.19342329 -0.18860205 0.09785171 -0.12287928
000130 32 a8 15 3e 90 53 99 3d b0 96 3e be 85 cb 02 be
       0.14614943 0.074866414 -0.1861217 -0.12772949
000140 65 fc 32 3c e4 54 24 be 0c ac 32 3e 8b 17 53 bd
       0.010924433 -0.16048008 0.17448443 -0.051536124
000150 80 13 e2 bd 83 61 0b bd d5 26 05 3e 2f 30 3d 3e
       -0.110388756 -0.03402854 0.13003094 0.18475412
000160 57 12 d6 bd f1 84 dc bd bc 1c ae bd a4 32 fb 39
       -0.10452717 -0.10767544 -0.085015744 0.0004791218
000170 c4 8a bb 3d fd 81 12 be 8f 01 7e 3d 54 4c d8 bd
       0.09157327 -0.14307399 0.062013205 -0.105614334
000180 a8 4a ab bd 4b 35 f8 3d e7 fa 06 bd 21 c4 31 bd
       -0.08363849 0.1211954 -0.032954123 -0.043399934
000190 2f df 0d 3b df 7b 37 3d 46 9c 30 be d3 bd de 3d
       0.002164792 0.044795867 -0.17247114 0.1087605
0001a0 30 76 26 3e 2d 24 24 be 1a cc 02 3e fc ac 1d bd
       0.16256022 -0.16029425 0.12773171 -0.03849505
0001b0 97 98 90 3d 0f 35 87 bd 94 bc ff bc 9f 5c 36 3e
       0.07060354 -0.06601917 -0.03121785 0.1780877
0001c0 09 b4 2d 3e 5c 49 c4 3d b5 41 40 3e 01 65 f1 bd
       0.16963209 0.09584305 0.18775065 -0.11786843
0001d0 90 83 fa bd ee 0b 2b bd 90 a6 39 be 20 40 43 be
       -0.12232125 -0.041759424 -0.18129945 -0.1906743
0001e0 f2 34 26 3e 58 d5 2e be 5c f7 e7 3d 19 83 d0 3c
       0.16231135 -0.17073572 0.11326477 0.025453137
0001f0 f8 f8 31 be 18 64 5f bd 9b 5d c2 bd 38 f0 5f bd
       -0.1738013 -0.054538816 -0.0949051 -0.05467245
000200 0e 08 5f 3d cf 89 25 3c 7d 14 15 3e a1 ef 2b be
       0.05445104 0.010103657 0.14558597 -0.1679063
000210 6d 00 ef bc eb 2c c5 3d 1a 96 38 3e f4 8e 72 3d
       -0.029175008 0.09627708 0.18026009 0.059218362
000220 73 1d 71 3d d7 93 c2 3d 38 1d 4e bc 17 f3 ec 3d
       0.058865976 0.095008545 -0.0125802085 0.11569803
000230 6d 10 14 3e b4 2b f7 3d 36 41 30 be a9 57 13 be
       0.14459391 0.120688826 -0.17212376 -0.14388908
000240 77 45 19 3c 04 13 fc bb 73 31 f1 bd 9e 0b 3c 3e
       0.009354941 -0.0076926965 -0.1177701 0.18363807
000250 26 ca 22 be 82 19 b8 3d
       -0.15897426 0.0898924

bias f4 [6]
000000 27 33 db 3d a4 36 1b be 4c f3 92 bd 32 c5 36 be
       0.10703116 -0.15157562 -0.071753114 -0.17848662
000010 16 22 4a 3e fa 1f 42 bd
       0.19739565 -0.047393776

weight f4 [6]
000000 69 97 7f 3f a4 43 81 3f 38 96 7b 3f 47 8c 7b 3f
       0.9984041 1.0098767 0.9827609 0.9826092
000010 b3 a3 82 3f 63 15 7e 3f
       1.0206207 0.99251384

bias f4 [6]
000000 f9 7e 99 bb d0 c3 f3 3b b9 f0 a5 3c 50 56 04 3c
       -0.004684326 0.007439114 0.020256387 0.008077219
000010 6c bb bc 3c f2 76 91 bc
       0.023038588 -0.017756913

running_mean f4 [6]
000000 73 98 db 3d 73 e2 1b be 4a d9 9e bd a7 0d 37 be
       0.10722437 -0.15223102 -0.07756288 -0.17876302
000010 09 8c 50 3e 0d 08 45 bd
       0.20365919 -0.04810338

running_var f4 [6]
000000 f4 30 11 3d b4 73 3d 3e bc a9 70 3d d5 fe 7c 3e
       0.035447076 0.18501168 0.05875562 0.24706586
000010 60 c5 27 3d d6 dc 05 3e
       0.040959716 0.13072523

weight f4 [18, 6, 5, 5]
000000 cb fb 73 bd c1 0f 17 bd 48 84 dd 3c 2b 49 9a 3d
       -0.0595663 -0.03688026 0.027040616 0.07533487
000010 cd 17 b1 bd 4e 8b 3e bd 0b 2b 5b bd ab 92 e6 bc
       -0.08647118 -0.04651957 -0.053507846 -0.028146109
000020 0c 64 b4 3d 0f a2 44 bc 6a 87 2d bd 51 ff 86 3d
       0.08808145 -0.012001528 -0.04236547 0.065916665
000030 fd b5 e9 3c c6 9d 4a bc 0e fa ca bc 7a 6d 47 3d
       0.028529162 -0.012366718 -0.024777438 0.04868839
000040 70 39 8d 3c 81 73 8e 3d 97 4d 32 bd 3f 3e d2 3b
       0.017239302 0.06955624 -0.043531027 0.0064161117
000050 47 c8 a7 bd 7e ef 18 3d 45 26 49 bd 51 af a7 bd
       -0.08192497 0.037337773 -0.049108762 -0.08187736
000060 19 17 5d 3c f8 ae b6 3d 0c a7 26 3d 0f 1f 18 bd
       0.013494276 0.089200914 0.040686652 -0.037138995
000070 df db bc bc 91 b8 6e 3d c1 8e 84 3d 4c 18 96 3c
       -0.023054061 0.058281485 0.06472541 0.018322133
000080 1c 54 70 3d 28 8b fe bc 9f ca af 3b 58 45 26 bd
       0.058673963 -0.031072214 0.0053647305 -0.040593475
000090 34 62 7c bc 43 18 76 3c 3a 6f 16 3c 53 9b 98 bd
       -0.015404273 0.015020433 0.009181792 -0.07451501
0000a0 b0 02 2f bd 94 cd 40 bd 4c 94 18 3d fa d2 12 bd
       -0.042727172 -0.047071055 0.037250802 -0.035845734
0000b0 e2 a2 57 bd 9a b2 1d bc a1 e7 48 bd af 78 9c 3b
       -0.05264557 -0.009625101 -0.049049024 0.004775129
0000c0 ba 86 89 3c 81 f1 81 bd ba a4 47 bd f8 8c 30 bc
       0.016787875 -0.06344891 -0.04874108 -0.010775797
0000d0 49 b7 49 3d 23 6e 47 bd 6e 5d 0c 3d 10 36 97 3c
       0.04924706 -0.04868902 0.03426879 0.018458396
0000e0 57 fb 9c 3d 97 20 bd bc a5 4b 80 3d d9 e5 11 3d
       0.07665127 -0.02308683 0.06264428 0.03561959
0000f0 c0 37 95 3d a4 b8 f1 3c 19 b4 f6 3c f4 a6 96 3a
       0.07286024 0.029506989 0.030115174 0.0011493848
000100 76 ce 56 bd 57 a3 f7 3c dc 15 89 ba ec e7 e0 bb
       -0.05244299 0.030229254 -0.0010458785 -0.0068635847
000110 c8 70 36 3d 2a 6b 87 bd 03 c2 45 bd 50 88 68 bd
       0.04454115 -0.06612237 -0.048280727 -0.056770623
000120 72 62 83 3d c1 9b e3 bc 60 34 13 bb 23 12 11 3d
       0.06415261 -0.02778423 -0.0022461638 0.035417687
000130 d3 ee 86 bd 48 26 4a 3d 6b 36 a5 3d 5a 18 56 bd
       -0.06588521 0.049352914 0.0806702 -0.052269317
000140 21 f2 78 bd 28 91 62 3c c4 52 78 bd c5 1a 9d 3d
       -0.060777787 0.013828553 -0.060625806 0.076711215
000150 a7 f9 74 bd 6b 19 e6 3c d5 11 34 bd b0 bf 9d bd
       -0.0598084 0.028088292 -0.04396232 -0.07702577
000160 8a de 56 3d 30 f7 f4 3b 37 36 15 bc 92 9d 82 3d
       0.052458324 0.007475756 -0.009107164 0.063777104
000170 d7 62 71 3c c0 2b a7 3d 06 50 1e 3d 64 5f 83 bd
       0.014733038 0.081626415 0.038650535 -0.06414679
000180 c7 0c 3f bc 43 e9 b2 3c 4d c6 73 bd bf d1 9e bd
       -0.011660761 0.021839743 -0.059515286 -0.0775485
000190 64 bc ad bd 25 67 e7 bc fb fb dc 3c 52 57 79 3d
       -0.08483198 -0.028247425 0.026975622 0.06087429
0001a0 c7 1a eb bc 87 3d b1 bd 08 80 8c 3d 67 8d 88 bd
       -0.028699292 -0.086543135 0.068603575 -0.06667595
0001b0 82 1f 0b bc 40 3f 4a 3d e5 c5 9e 3d d5 86 34 3d
       -0.008491399 0.049376726 0.07752589 0.0440739
0001c0 91 ef 45 3d 27 c3 9e bd f8 d8 a9 bc 31 f2 27 bd
       0.04832417 -0.07752066 -0.020733342 -0.041002456
0001d0 f1 0d 60 3d 9f aa c7 bd ce 79 06 bd 12 15 b5 bd
       0.054700796 -0.0974934 -0.032831006 -0.088419095
0001e0 e2 47 8b 3d d0 19 2d 3c 49 1f 86 bd fd d1 9c bc
       0.0680082 0.010565236 -0.06548936 -0.019143099
0001f0 92 00 a1 bc f4 0a bc 3c 89 c7 a9 3a 15 38 68 bc
       -0.019653592 0.022954442 0.0012953143 -0.014173527
000200 96 4b a5 3c 70 ff 2a 3d cc b2 82 bd 85 b1 9e bd
       0.020177644 0.04174751 -0.06381759 -0.07748703
000210 ed d5 b3 bd f7 ea 89 3d c7 e1 79 3c 60 bc a0 3d
       -0.087810375 0.06734269 0.015251583 0.0784843
000220 67 62 a8 bd 2b d9 aa bd ea 51 2d bd 66 68 52 bd
       -0.08221894 -0.08342203 -0.042314447 -0.051369093
000230 c3 c5 98 bd 5d 6a d2 bc d8 60 d0 ba 5e 18 a3 3c
       -0.07459595 -0.025685484 -0.0015898002 0.01990908
000240 ca 1c c1 bc dd 27 43 bd 90 e9 7c bd d1 4f f0 bc
       -0.023573298 -0.04764544 -0.06174618 -0.029334934
000250 ee 7e cb 3c cf 54 a2 bd 52 3b 3d 3d 75 7b 08 bd
       0.024840798 -0.07926332 0.04619915 -0.033320863
000260 33 6d 36 bc 31 85 b5 bb 5d 0a 30 bd c6 6c 45 bd
       -0.011134434 -0.0055395593 -0.042978633 -0.048199438
000270 8c 1a ce bc 51 63 37 bb f7 00 16 3d ff c1 95 bd
       -0.025159143 -0.0027982781 0.036622014 -0.073123924
000280 fd b8 f2 39 d6 dc 2d 3d 1f 32 55 3d f6 f1 60 3d
       0.00046295664 0.042446934 0.052049752 0.054918252
000290 69 13 84 3d ef e7 66 3d 5d 31 89 3d 53 1f 3a bd
       0.06449015 0.056373533 0.066988684 -0.04544003
0002a0 6a 35 91 bd 3c c3 9a bd 49 2a 8d bc b7 03 09 3d
       -0.07090266 -0.07556769 -0.017232077 0.03345081
0002b0 fe 00 1a bc b3 f2 8c 3c e0 99 84 3d 1f d3 67 bd
       -0.009399651 0.017205572 0.06474662 -0.056597825
0002c0 68 eb 5d bd e7 7d dc bc 72 1e 73 bd 23 07 b9 bc
       -0.05417958 -0.026915504 -0.059355207 -0.02258641
0002d0 bc fa fa 3a e3 10 85 bd 6e 3f 64 3d d1 26 d0 bd
       0.0019148211 -0.064973615 0.055724554 -0.10163654
0002e0 82 25 a5 bd 5c 22 ef bc 85 34 c0 3c 61 8d 57 3d
       -0.08063795 -0.029191189 0.023462543 0.052625064
0002f0 9a 90 09 3d 09 ee e7 bc b3 ad 8c 3c 76 1c 4b bd
       0.03358517 -0.028311746 0.01717267 -0.04958769
000300 c1 cf bf 3c e2 2a c6 3c f4 32 98 bc 27 aa 68 bc
       0.023414494 0.02419037 -0.018578984 -0.014200724
000310 cc 29 9b bd 41 56 c6 3b 67 03 81 3d 09 bd 52 3d
       -0.075763315 0.0060527627 0.06299477 0.05144981
000320 2a f0 91 3d 61 86 93 bd 28 7a 7c 3c 3e 57 46 3c
       0.07125886 -0.07203365 0.015409984 0.012105761
000330 25 9c ba bd 9c e8 e4 bc f6 36 59 3d ab b2 a4 3d
       -0.091118135 -0.027942948 0.05303093 0.08041891
000340 a1 26 6f bd 88 22 a5 3d 98 b5 0b bd 77 b4 54 3c
       -0.05838645 0.08063227 -0.03410873 0.012982479
000350 a8 75 80 bd 3c 29 ab 3d f0 58 38 3d 68 8d 54 bb
       -0.06272441 0.08357474 0.045006692 -0.0032432918
000360 e6 6b 52 3c 21 09 2d bc c6 88 b3 bb e0 5f bd 3c
       0.012843108 -0.0105612585 -0.005478951 0.023117006
000370 9d 07 ee bc 51 bf 8b 3d e5 3d 18 bd c2 90 73 3d
       -0.029056365 0.068236 -0.037168402 0.059464224
000380 44 c6 ee bb 9f dc 88 3d 14 81 54 bd 28 7c 8d bd
       -0.0072868187 0.06682705 -0.05188091 -0.069084466
000390 51 aa 68 bd d3 e7 e4 bc 83 82 72 ba cc 6e 69 bd
       -0.05680305 -0.027942574 -0.0009251015 -0.05699043
0003a0 ca 52 e4 3c 31 9f 23 bd d8 77 ed 3c 77 65 da 3c
       0.027871508 -0.03994674 0.02898781 0.02665971
0003b0 0d 8c 39 bd ce e1 75 3d f2 90 e3 3c fa f8 81 bc
       -0.04529958 0.060029797 0.027779076 -0.015865792
0003c0 6d 6e e2 3c 4e cb 96 3d 50 2d 7c 3c 23 01 eb bc
       0.027640546 0.07362996 0.015391663 -0.028687065
0003d0 36 6b af bd b3 c9 34 3d 1d 58 17 bd c8 06 21 3d
       -0.08565371 0.044137668 -0.036949266 0.039313108
0003e0 ca 9f b9 3d bb d4 9b bd 2c f9 cc bc b6 0b c3 bc
       0.090636805 -0.076089345 -0.025021158 -0.023809295
0003f0 c2 c2 80 bd 8f a7 8e 3d 24 d2 5b 3d f8 a5 1f bd
       -0.06287147 0.06965553 0.053667203 -0.03897664

bias f4 [18]
000000 c3 f8 aa 3b 52 05 80 3a aa a5 65 3d a6 37 95 bd
       0.005217643 0.000976721 0.056066193 -0.07286005
000010 cc 11 02 bc 7f dd 7d bd 6f e7 12 bc 82 08 38 3d
       -0.007938813 -0.061978813 -0.008966311 0.04492999
000020 83 7d 75 bd a7 6c 17 3d 07 85 a5 bb c3 5f 26 3d
       -0.05993415 0.036968853 -0.0050512585 0.04061867
000030 4a 4d 70 bd f1 3f 04 bd 2b c7 0e 3d 69 ed a7 bd
       -0.05866746 -0.03228754 0.03485791 -0.08199579
000040 0e d5 82 3b 52 02 9c bd
       0.0039926833 -0.0761763

weight f4 [18]
000000 d6 87 80 3f 8a d6 7c 3f 53 94 7b 3f e2 de 7d 3f
       1.0041454 0.9876486 0.982732 0.9916822
000010 2c c1 7f 3f 87 16 80 3f 6b d2 81 3f a0 cd 81 3f
       0.9990413 1.0006875 1.014234 1.0140877
000020 2b 84 7e 3f e3 94 77 3f 14 2a 7e 3f 5e 31 83 3f
       0.9942042 0.9671156 0.99282956 1.0249441
000030 c7 c8 88 3f 61 65 7f 3f 87 94 7f 3f e1 b7 7d 3f
       1.0686272 0.99764067 0.9983601 0.991087
000040 bd da 7f 3f be 73 81 3f
       0.99943143 1.0113447

bias f4 [18]
000000 29 8e fe b9 e1 1d c6 bc c4 5d 1c bc 01 96 3d ba
       -0.00048552573 -0.02418417 -0.00954384 -0.000723213
000010 b9 d3 b9 bc df f0 8d 3c 1a ef 2e bc 10 db fa bc
       -0.022683965 0.01732677 -0.010677123 -0.030622035
000020 43 c0 0d 3b 7a fb 2d bd ca ca 93 bc e5 e5 63 bc
       0.002162949 -0.042476155 -0.018041033 -0.013909792
000030 05 38 bc 3a d9 a8 f9 bb 4c 7f 56 3c 70 ee e8 bc
       0.0014359957 -0.007619005 0.013091873 -0.028434008
000040 ca 20 a3 bc 70 f0 85 bc
       -0.019913096 -0.016350001

running_mean f4 [18]
000000 ea 8e 0f bf ac 2a 79 bd f6 5f d6 3d 3a d5 a6 3d
       -0.56077445 -0.06083171 0.10467522 0.081461385
000010 cc f5 84 bc 15 a2 b3 bd 74 b3 11 be 49 af 9b 3e
       -0.016230486 -0.08771149 -0.14228612 0.3040717
000020 4c 65 6e be 51 89 5e be 46 dc 2f be 06 51 ef 3b
       -0.23280829 -0.2173207 -0.17173871 0.00730336
000030 99 83 14 bf 5c 60 fc bd f8 b5 86 3d 54 23 2b 3e
       -0.580133 -0.123230666 0.065776765 0.16712695
000040 78 b3 26 bf 9b d7 a2 bd
       -0.651176 -0.0795128

running_var f4 [18]
000000 c8 2d 0c 3e 55 40 0c 3e 78 a0 a3 3d 75 88 63 3e
       0.13689339 0.13696416 0.07989591 0.22220023
000010 44 3c ed 3d 3b a8 99 3d dc d6 0d 3e c0 9b 3c 3e
       0.115837604 0.075027905 0.13851494 0.18418789
000020 b5 1f 9b 3d 78 d9 10 3e 14 2e f5 3d 96 5f bd 3d
       0.07574407 0.14145458 0.11971679 0.09246747
000030 ef 9b 31 3e 07 2c 46 3e e8 96 10 3e 18 ed ab 3e
       0.1734464 0.19352733 0.14120066 0.33579326
000040 4c e4 0e 3f 71 44 c1 3d
       0.55817103 0.09436882

weight f4 [45, 18, 5, 5]
000000 95 ca 28 3d 2e b1 ac bc 1c 02 a2 bc 5e 62 14 3d
       0.041208822 -0.02108058 -0.019776396 0.036226623
000010 cf a6 51 bc 17 39 ac 3c f0 ee fe 3b 04 4d 07 bd
       -0.012796118 0.021023316 0.0077799484 -0.033032432
000020 47 2b 29 bd 89 bb be 3b 84 6b 37 bb c9 2e 14 bc
       -0.041301038 0.005820696 -0.0027987668 -0.009044358
000030 0b 5f 8b bc 63 70 0b bd 56 a3 02 3d 28 6c d5 bc
       -0.017013093 -0.034042727 0.03189405 -0.02605255
000040 97 2c 3d bd bb 4a 72 3c ee 38 fb 3c 60 ff 91 3a
       -0.046185102 0.014788325 0.030666795 0.001113873
000050 5a ea 10 3d ed 47 81 3d 43 77 b2 bc 24 a3 91 bc
       0.035379745 0.06312547 -0.021785384 -0.017777987
000060 e9 ce d5 3c 0d ff da 3c d7 8b 09 bd 06 b7 15 bd
       0.026099639 0.026732946 -0.033580627 -0.036551498
000070 33 8b 51 bd fd a4 ff bb a0 1d 40 3c 60 9b 5c bc
       -0.05115814 -0.0078016506 0.011725813 -0.013464779
000080 13 21 b2 bc 87 d7 82 bc e4 d3 42 bd 63 14 70 3c
       -0.021744287 -0.015971912 -0.047565356 0.014653298
000090 98 63 72 3c 4a 1b 03 3d ee 10 5f 3c 2e 69 9b bc
       0.014794253 0.032008447 0.013614876 -0.018971052
0000a0 4f 12 84 3c a3 a2 26 ba 6b 76 3b bc 25 1a d7 bc
       0.016122011 -0.0006356632 -0.011441807 -0.026257584
0000b0 44 13 25 3d ff a1 4e 3c 1a 39 61 bc 9a 3f 2f 3d
       0.040301576 0.012611865 -0.013746524 0.042785265
0000c0 d7 fe 58 3d 23 80 d9 3b e1 aa 21 ba c5 3a aa bb
       0.05297741 0.0066375895 -0.00061671255 -0.005194994
0000d0 07 08 f4 bc 0f e0 49 3c c2 a1 4a bd c1 60 ff 3c
       -0.029788984 0.012321486 -0.04947067 0.031174066
0000e0 ee da f1 3b bf 33 4b 3c 8f c6 65 3b cc 60 25 3d
       0.007380835 0.012402474 0.0035060977 0.040375516
0000f0 f8 51 06 bd 0d df f8 bc 18 70 ff bc a0 4b 3a bd
       -0.032793015 -0.030379796 -0.03118138 -0.045482278
000100 fb 28 c3 3c e4 4c fa bc 71 da d2 bc 3a a9 9f 3c
       0.023823252 -0.030554242 -0.025738927 0.019489873
000110 0e 8f 2a bd 22 3d 21 3d 75 30 7b 3c ac 92 4a bb
       -0.041640334 0.03936494 0.015331377 -0.0030910177
000120 38 0e 6a 3c e7 40 f6 3c 31 a7 f2 3c 90 ae 90 3c
       0.014285617 0.030060245 0.029620739 0.017661363
000130 83 ad 27 bd 7d 08 1a 3c 21 48 94 3c 28 e5 ad bc
       -0.040936958 0.009401438 0.0181008 -0.021227434
000140 3e d9 22 3d 4f 9e 63 ba a7 64 8f bc 86 22 42 3b
       0.03975796 -0.00086829526 -0.01750405 0.0029622628
000150 92 68 1e 3d 85 e6 ef bc fe 96 46 bd 87 1a 3a 3d
       0.038673945 -0.029284725 -0.04848384 0.045435455
000160 45 97 e7 bc dc 3f 48 bd b9 33 02 3d da c7 3c 3c
       -0.028270373 -0.048889026 0.031787608 0.011522258
000170 fc 45 f3 3c 38 49 13 3d 55 1a ff 3c 0f 83 1a 3d
       0.029696457 0.0359585 0.031140486 0.037722643
000180 a2 23 a2 3c a4 74 30 3d 3b fe 1b 3d 09 7d 03 3c
       0.019792382 0.043079987 0.03808425 0.008025416
000190 a4 9e 06 bd 8e f2 0a 3d 56 c0 be 3c 78 c4 ee 3a
       -0.032866135 0.033922724 0.023285072 0.0018216511
0001a0 62 0b 10 bd a5 32 3c bc 90 e9 43 bd d8 22 d0 3c
       -0.035167105 -0.011486684 -0.047830164 0.02540724
0001b0 a1 75 ae bc 98 a2 35 bd 25 5c 36 bd 2b c9 cf 3c
       -0.021296324 -0.044344515 -0.04452147 0.025364479
0001c0 0d 26 13 bd 7b cb d8 3c 81 99 d0 bc bb 2a 83 3c
       -0.03592496 0.026464215 -0.025463821 0.016011586
0001d0 77 45 92 b9 79 d3 e7 3c f6 b8 9a 3a a3 7f 68 3d
       -0.00027899045 0.02829908 0.001180439 0.05676235
0001e0 5a f1 e4 3c 99 0d 8d bc d2 ac e7 bc ce f2 bb bb
       0.027947117 -0.017218398 -0.02828065 -0.0057357317
0001f0 48 4c 0c 3d 30 f8 06 3d d5 81 02 3c ed 5a 4a 3c
       0.034252435 0.032951534 0.007965525 0.01235078
000200 1d de 05 bd 1b 4b f2 bc 38 6d b0 bc 49 9c 24 bc
       -0.032682527 -0.029576829 -0.021536455 -0.010047027
000210 9a 16 30 bc 29 b9 5f bd e0 35 c3 bb ab d9 a7 bc
       -0.010747576 -0.05461994 -0.00595735 -0.020489534
000220 78 08 37 bd 8d fc 61 3c 10 01 04 bd 2f 53 51 3d
       -0.04468581 0.013793123 -0.032227576 0.05110472
000230 20 29 89 3b 90 ff d5 bc 89 4c 4e bb 48 58 92 3b
       0.0041858107 -0.026122838 -0.0031478724 0.0044660904
000240 42 37 4d 3d fa 82 c8 bc b6 6c d7 bc 92 1a eb 3c
       0.050101526 -0.024476517 -0.026296955 0.028699193
000250 c1 af aa 3c 87 87 4f 3d 2d ca 33 3d 54 95 a7 bc
       0.02083576 0.05066636 0.04389398 -0.020456947
000260 f5 4a 8e 3a cb 4d 86 bb db bc 07 3c 57 d3 e6 bb
       0.0010856079 -0.004098629 0.008284773 -0.0070442366
000270 1f 8d 5c 3d 5c 45 35 bd b4 3f fb bc 2c e1 a0 bb
       0.05384552 -0.0442556 -0.030670024 -0.004909655
000280 95 a8 1b 3c f2 06 c9 bb ee 69 c7 3c 9c ec 78 bc
       0.009500642 -0.006134861 0.024342503 -0.015193131
000290 01 79 27 bd 31 a1 ea bb a1 c5 f0 3c a9 5d 51 ba
       -0.040886883 -0.007160329 0.029391112 -0.0007986674
0002a0 7c 09 4a 3d 52 63 4b 3c 3a 0f 43 bc d3 1d 9f 3c
       0.04932545 0.0124138165 -0.011905486 0.019423401
0002b0 77 30 c2 bb a6 1f 36 3d 00 b8 7e 3d 25 02 df bb
       -0.0059261876 0.044463776 0.062187195 -0.0068056756
0002c0 01 ef 0b bd 44 76 d8 bb 51 d7 bf 3c 24 a0 c4 bb
       -0.03416348 -0.0066058952 0.0234181 -0.0060005356
0002d0 33 e2 21 bd 5b fe 2a bd 31 ad d6 3b 57 a1 01 bd
       -0.03952236 -0.04174648 0.0065514077 -0.031648006
0002e0 ab 5e 6c bd d2 27 e3 bc fa 1d 8c bc 92 78 39 bd
       -0.05770747 -0.027728949 -0.017104138 -0.045281
0002f0 ce 9f ae 3b 3b e7 d2 bc 42 68 18 3d a9 13 48 3d
       0.005329109 -0.025745025 0.037208803 0.048846874
000300 3d e6 7c 3d e0 66 84 3c fa f8 99 bc c7 57 28 3c
       0.06174301 0.016162336 -0.01879548 0.010274834
000310 4e b8 1d 3d 24 9b 31 bd 68 75 d4 3c 5c 0a 70 bc
       0.038505845 -0.043360844 0.02593489 -0.014650907
000320 73 cf f8 bc b6 e5 b5 3c 68 21 05 bd 8f af eb bc
       -0.030372357 0.022204261 -0.03250256 -0.028770236
000330 a4 9a d1 3c 76 8b b0 bc f7 60 8b 3c 85 20 9e bb
       0.025586434 -0.021550875 0.01701401 -0.004825654
000340 54 3c 4d bd e9 4f 82 3c ca 09 f7 3c 9a a5 d5 bc
       -0.05010636 0.015907245 0.030156035 -0.026079942
000350 0d 9e 23 bd d5 25 95 3a 1f bd 9d bc 2a db 53 3b
       -0.03994565 0.0011379073 -0.019255219 0.0032326677
000360 b1 4a de 3b f9 89 f3 3c e4 aa 8d 3c 6a 2e 66 3d
       0.0067838063 0.029728876 0.017293401 0.056196608
000370 aa 98 23 3d 79 64 de 3c c4 09 c3 bc 38 06 51 3d
       0.039940514 0.027147518 -0.023808368 0.05103132
000380 9e 5c 36 bd 26 44 eb bc b0 9c ef bc e7 49 cf 3c
       -0.04452192 -0.02871902 -0.02924952 0.025303794
000390 8a 92 3d 3c 44 08 1b bd 87 31 7e bc 52 f9 89 3b
       0.011570582 -0.03784968 -0.015514738 0.0042106295
0003a0 83 a6 1f bd 01 2c 01 bd 64 e2 a8 3c 59 fa e0 3c
       -0.038977157 -0.031536106 0.020615764 0.027463125
0003b0 1d 6d 3f bd ef c4 32 bd 1b bb cd bc 2b dd 64 bd
       -0.046734918 -0.04364484 -0.025113633 -0.055874985
0003c0 dc 94 df bc a4 96 e8 bb e1 85 15 3d 5d 49 f9 3c
       -0.027292661 -0.007098036 0.03650463 0.03043049
0003d0 0f 2c c3 bc cb 55 e4 bc b1 ef bf 3c 85 46 ef bb
       -0.02382472 -0.02787294 0.023429723 -0.0073021078
0003e0 75 32 51 3d f4 13 14 3d 89 fd 91 bb a4 04 b8 3c
       0.05107351 0.03615184 -0.0044552726 0.02246315
0003f0 08 1f 3c bd 70 d2 eb bc 4c 04 10 3b ae e1 98 3b
       -0.04592803 -0.028786868 0.0021975217 0.004665575

bias f4 [45]
000000 a4 af 3e 3c c9 09 94 3c 52 af 97 3b 0f 64 bd bc
       0.011638556 0.018071072 0.004629054 -0.023119
000010 96 3d 21 3d e2 d4 34 bd 46 74 be bc 59 fd d8 bc
       0.039365374 -0.044148333 -0.023248803 -0.026487993
000020 5a dc 1b bd 7a e9 9d bc 23 9c b0 3c 5c 99 db bb
       -0.03805194 -0.01927637 0.021558827 -0.0067016315
000030 9b a1 3c 3c bd cb f4 3c 7f 75 fc 3c c9 3a 25 3a
       0.011513139 0.029882306 0.030817745 0.000630301
000040 30 2c 38 3d 30 ea e0 bb 94 53 2e 3d 37 29 b3 3b
       0.044964015 -0.006863855 0.042560175 0.0054675597
000050 e5 c5 1f bd f1 73 63 bc 5d fc 45 3d 51 42 8d 3b
       -0.039007086 -0.013882623 0.048336376 0.004310884
000060 09 8a 05 3c 1c 34 90 3b af 55 4b 3a 59 d8 ae 3c
       0.008150586 0.004400743 0.00077566033 0.021343397
000070 e4 00 a9 bc 43 8e 22 3d e5 90 12 3d 18 33 38 bd
       -0.020630307 0.039686453 0.035782713 -0.0449706
000080 3e 5e a2 bc f0 29 2a bd 48 28 e2 3c 9a 1b 30 3c
       -0.019820329 -0.0415439 0.027607098 0.010748768
000090 4c 10 f7 3c 38 e8 c4 bb a0 74 90 39 a2 2b 84 bc
       0.030159138 -0.006009128 0.00027552713 -0.016134087
0000a0 3f 76 1a bb 17 23 3f bb 47 b0 fd bc 35 87 3b 3d
       -0.0023569015 -0.0029165202 -0.030967845 0.04578324
0000b0 f8 20 34 bd
       -0.043976754

weight f4 [45]
000000 2b 0a 7c 3f d9 4f 7e 3f cb 38 7f 3f 60 a6 7f 3f
       0.98453015 0.9934059 0.99696034 0.99863243
000010 46 82 7f 3f 1d 8e 80 3f 7f 70 80 3f 36 1d 80 3f
       0.99808156 1.004337 1.0034331 1.0008914
000020 34 a0 7f 3f 05 90 7c 3f 9c c7 7d 3f 88 0e 80 3f
       0.99853826 0.98657256 0.99132705 1.0004435
000030 f1 cd 7d 3f a4 f9 82 3f 84 2a 81 3f cd 5a 7e 3f
       0.99142367 1.0232434 1.00911 0.993573
000040 bf 68 7d 3f aa cf 80 3f fc c7 7e 3f 00 9e 81 3f
       0.98987955 1.0063374 0.995239 1.0126343
000050 a4 e1 81 3f 11 37 7f 3f 6a c1 7d 3f de cb 7e 3f
       1.0146985 0.996934 0.9912325 0.99529827
000060 92 32 7a 3f 5a af 80 3f 2c c5 7f 3f 27 5f 81 3f
       0.97733414 1.0053513 0.99910235 1.0107163
000070 cb 1d 80 3f df 88 78 3f 29 50 79 3f 60 ce 81 3f
       1.0009092 0.9708385 0.9738794 1.0141106
000080 72 30 85 3f 95 54 7e 3f 8a 4f 7d 3f ee 45 80 3f
       1.0405409 0.9934781 0.9894949 1.0021341
000090 97 b8 7b 3f 31 59 81 3f 7c 57 82 3f b5 ee 79 3f
       0.98328537 1.0105344 1.0182948 0.97629863
0000a0 78 a1 82 3f d3 aa 81 3f f0 9f 81 3f 3e 13 80 3f
       1.0205526 1.0130256 1.0126934 1.0005872
0000b0 3f 7f 7e 3f
       0.9941291

bias f4 [45]
000000 57 25 22 3d 5f 26 a7 bc 1c b7 4f bc 1d 00 85 3c
       0.03958639 -0.020404039 -0.012677934 0.016235406
000010 2b 31 e8 bc 87 33 c3 bc 64 4b 2b bb 1d e4 31 bd
       -0.028343758 -0.023828281 -0.0026137466 -0.043430436
000020 e3 35 74 bc a5 79 ed bc 2d 33 b4 3c 5c 3d 1e bc
       -0.014905426 -0.028988669 0.021997059 -0.009658184
000030 c4 d5 e4 bb 9d ac dc bc e3 f6 70 3c 93 ff ed bc
       -0.0069834907 -0.026937777 0.0147073 -0.029052531
000040 43 32 83 bb 12 5d a7 bc be af 8f bd f4 27 bb bc
       -0.0040037944 -0.020430122 -0.07015942 -0.0228462
000050 56 e7 b2 ba 41 ba c8 3c e8 0f d9 3a 5d c5 05 bb
       -0.0013649266 0.024502875 0.0016560527 -0.0020411827
000060 6e e2 ef bc 54 bd 5b bc a7 a6 cc bc 06 33 b9 3b
       -0.029282775 -0.013411839 -0.02498181 0.0056518344
000070 0a a4 0c bd 95 ab 3a bb d9 9c 30 bc 0a 7d cd bc
       -0.034336127 -0.0028483619 -0.010779583 -0.025084037
000080 00 f1 84 3c 9e 40 b7 bb 38 22 9e bc c6 2a fd bc
       0.016228199 -0.0055924198 -0.019303426 -0.030904185
000090 36 2e 62 bb 3f 9e 7f bc bd ac d3 bc 28 be 7e bc
       -0.0034512407 -0.015601694 -0.025839204 -0.0155482665
0000a0 27 60 d9 ba ba 9b b4 bc 11 0f d6 3b c4 64 8f bc
       -0.0016584442 -0.022046912 0.006532558 -0.017504103
0000b0 e3 22 4f 3b
       0.0031606487

running_mean f4 [45]
000000 4b c7 84 be c3 31 c9 be 2d 2a 42 3f b2 e7 8f be
       -0.25933298 -0.39295778 0.75845605 -0.28106457
000010 f0 1d 26 bf d1 4f 58 bf 9f 16 2e 3e 8e e4 f2 be
       -0.6488943 -0.8449679 0.17000817 -0.47439998
000020 63 0b 2c bf 40 5f 18 bf 07 9e c6 be e4 26 e1 bf
       -0.67204875 -0.5952034 -0.3879244 -1.7589993
000030 c3 ba ab 3d dc dd dd 3b a4 d2 0a 3e 2c 84 2b bf
       0.08385231 0.0067708325 0.13556916 -0.66998553
000040 f1 6e 1b 3f 70 14 8f be 1e 84 c7 3e 9d 6d 90 bd
       0.6071616 -0.2794528 0.38967985 -0.07052157
000050 a0 9e dd 3d 7d 53 bf be 19 74 66 3f da c3 51 bd
       0.10821271 -0.37368384 0.900209 -0.05121217
000060 d9 4f 21 bf 83 f6 86 be 43 8e 00 3e 66 d6 3b bf
       -0.6301246 -0.2635995 0.12554269 -0.7337402
000070 d0 5a 55 3e d4 1c 41 bd 3b b1 6a bf 2b 78 28 bd
       0.20835423 -0.047146633 -0.9167668 -0.041130226
000080 8d a3 14 bf ac 2f af bf fe 9f 24 3e cf 07 2d be
       -0.5806206 -1.3686423 0.16076657 -0.1689751
000090 8e 25 0f bf 9e de 1a bf b3 24 34 bf 16 2c f9 be
       -0.5591668 -0.60495937 -0.703685 -0.48666447
0000a0 a4 c4 44 bf 42 25 62 be a6 f4 d7 bd ad 1e d3 be
       -0.7686255 -0.22084525 -0.1054471 -0.4123434
0000b0 f6 05 09 bf
       -0.5352472

running_var f4 [45]
000000 66 17 8a 3e 67 ca 95 3e 11 21 d9 3e 3b bf 81 3e
       0.26970977 0.29255983 0.4240804 0.2534121
000010 bf 4b 89 3e 4e 19 d2 3e 04 e9 8d 3e b7 09 3e 3e
       0.26815602 0.4103493 0.2771684 0.18558393
000020 f9 19 68 3e 8e 35 e4 3e 6d 9c 87 3e a0 67 fe 3e
       0.22666158 0.4457211 0.2648653 0.49688435
000030 ea 81 75 3e bf c3 7a 3e 8c 93 44 3e ad 05 f2 3e
       0.2397534 0.24488734 0.1919691 0.47269955
000040 b1 3f fb 3e 6f 92 6a 3e fe dd aa 3e 0f e4 8f 3e
       0.4907203 0.22907422 0.33372492 0.28103682
000050 93 13 ac 3e 40 c0 64 3e b4 9e 04 3f 28 89 85 3e
       0.33608684 0.22338963 0.5180466 0.26081204
000060 1f 29 3d 3e 02 3e 9f 3e ec 28 31 3e 36 c5 ae 3e
       0.18472718 0.31101996 0.17300767 0.34134835
000070 52 b1 b8 3e 40 32 a5 3e df 24 f7 3e f1 bd 8f 3e
       0.36072785 0.322649 0.48270318 0.280746
000080 a2 7b 95 3e eb 91 10 3f f3 34 d5 3e 07 1f 88 3e
       0.29195887 0.56472653 0.4164196 0.26586172
000090 d8 f3 56 3e d6 d1 84 3e f2 18 08 3f 74 55 93 3e
       0.20991457 0.25941342 0.53163064 0.28776133
0000a0 18 bd c3 3e c8 43 83 3e 92 c7 5a 3e b3 23 6a 3e
       0.38230205 0.2563765 0.21365193 0.2286518
0000b0 83 83 0f 3f
       0.56060046

weight f4 [18, 45, 5, 5]
000000 59 f3 2c 3d cc 37 a3 bc 2c 63 71 bc 56 f1 87 3a
       0.042224262 -0.019924067 -0.014733117 0.0010371606
000010 6c aa 01 bd 4e ee 7e ba b3 16 0f bd 26 92 ab 3a
       -0.031656668 -0.0009724841 -0.034933757 0.001308982
000020 55 e3 0c 3c 4f 41 fc 3b 87 36 89 ba 1e f7 e1 3b
       0.008599122 0.007698215 -0.0010468521 0.0068959137
000030 83 bd 21 bd e9 84 54 3b 26 83 c4 bc 06 2d ad 3c
       -0.039487373 0.0032427853 -0.023988318 0.021139633
000040 39 59 67 3b a8 bd 05 bc 4f 2a 32 3c a6 5b 86 3c
       0.0035300984 -0.008162893 0.010874345 0.016401123
000050 29 1c de 3b e2 5f 54 bc 8d 09 9c 3c bb 4a 55 3c
       0.0067782593 -0.012962313 0.019047523 0.013018305
000060 8d ed c4 3c 56 2a 60 3c 6b 55 b5 bc 4c ff 46 bc
       0.024039054 0.013681969 -0.022135457 -0.012145828
000070 a1 bd f2 bb 01 50 01 3b 6d 62 16 3d 09 7f 87 3c
       -0.0074078594 0.0019731524 0.03671496 0.016540067
000080 c5 48 64 3c b4 b6 f9 bc 5f 27 55 bc 97 89 b4 ba
       0.013933365 -0.030482627 -0.013009875 -0.0013773915
000090 fa 9e 6d 3c 52 23 1c 3b 21 1b 0d 3d 3b 12 09 3d
       0.014503235 0.0023824763 0.0344497 0.03346465
0000a0 9e 69 e1 ba 30 0d 31 bc 43 c9 e3 bc d7 a6 01 3c
       -0.0017197614 -0.010806367 -0.02780593 0.007913313
0000b0 cc 7a 7d bb 80 0a 9e bc a9 a6 90 bc fc 22 cd bc
       -0.003867793 -0.019292116 -0.017657595 -0.025041096
0000c0 8c f6 aa ba 64 75 d9 3a 4b 6a b0 3a 05 66 b7 bb
       -0.0013043447 0.0016590771 0.0013459412 -0.0055968785
0000d0 08 60 25 3c 72 49 72 3c 91 95 c0 bb a0 2a f0 bc
       0.010093696 0.014788019 -0.0058772047 -0.0293172
0000e0 f9 8d 41 3c 9c e6 58 3c f3 b2 64 3b 49 9a 1b 3c
       0.011813634 0.013238575 0.00348967 0.009497234
0000f0 e0 f4 c7 3c f8 e2 db bc da 3b b8 bc e7 95 79 bc
       0.024408758 -0.026841626 -0.022489477 -0.015233493
000100 11 34 30 3c d9 c7 04 3c 10 c4 07 bc 61 68 08 bc
       0.010754601 0.008104288 -0.008286491 -0.008325667
000110 dd 9b 8e 3c bb 89 ab 3c c9 84 a5 3c 8f 1b d2 ba
       0.017408306 0.020939698 0.020204918 -0.0016029942
000120 eb 86 74 bc 1d 7a bd 3a e4 c8 00 bd fd 8d b2 bc
       -0.014924745 0.0014455948 -0.031441584 -0.02179622
000130 c8 a9 be 3c 5b 2f 68 3c 97 49 10 bd ff b1 8a bc
       0.023274317 0.014171447 -0.03522643 -0.016930578
000140 2c b8 4c bc eb cf e2 3c 67 25 96 bc 66 62 10 3b
       -0.012495082 0.027687034 -0.018328382 0.0022031306
000150 d1 39 f4 bc 71 3a e4 bb 40 b4 82 3c a3 95 95 bc
       -0.029812725 -0.0069649746 0.01595509 -0.018259829
000160 a8 b6 0d bd 71 5f 90 3c 1d 3f 27 bb 14 62 11 bd
       -0.034598023 0.017623635 -0.0025519796 -0.035493925
000170 c3 d1 db 39 93 f6 df bb 85 ee 00 3d b1 ed 45 3b
       0.0004192722 -0.006834814 0.03147747 0.003020149
000180 ce 4a a0 3c e1 f1 34 3d 60 7f 43 3d fc ae 42 3d
       0.01956692 0.044175986 0.047728896 0.04753016
000190 fb 1d 9c bb dc 78 d7 3c 4d 19 8a 3c f4 e6 ff b9
       -0.004764316 0.026302747 0.016857767 -0.00048809464
0001a0 67 71 c9 bc 0c 3d 47 3c f3 24 48 3d a8 06 15 3c
       -0.024590207 0.012160551 0.048863363 0.009095825
0001b0 6f a6 73 bc 5f 24 83 bc 2d 3b 90 3c 39 7a 46 3d
       -0.014871224 -0.016008554 0.017606342 0.048456404
0001c0 a7 95 1d 3d a7 4d 10 bb 0f 46 93 3c 3f d9 25 bd
       0.038472798 -0.002201894 0.017977742 -0.040490385
0001d0 a2 ec d0 bc 94 ae 9b bc f6 af 7a 3c 98 3d 9d bb
       -0.02550346 -0.019004144 0.015300741 -0.0047986023
0001e0 2d b7 4e bc 80 07 c9 3c c8 3e ab 3b 63 19 e3 3c
       -0.012616915 0.02453971 0.00522599 0.027722066
0001f0 6d 63 3e 3c b8 ce cd bb 4d 64 7c ba 76 b0 b6 3b
       0.011620385 -0.0062807463 -0.0009627983 0.005575235
000200 58 91 31 3d d3 e4 0c 3d 72 ee f8 bc 6e 17 99 bc
       0.0433515 0.03439791 -0.030387137 -0.01868793
000210 eb 4b 62 bc ed c4 83 39 bc ed 15 3c db e0 fa bc
       -0.013812046 0.00025132988 0.009150919 -0.030624798
000220 5c 09 a0 3c 4c d4 b0 3c 89 72 2d 3c 6b d0 24 3b
       0.019535713 0.021585606 0.010586389 0.002514864
000230 5e 66 03 3d 76 8b 89 bc c6 ff 9c 3c 53 03 03 bd
       0.032080047 -0.016790133 0.019164931 -0.031985592
000240 a3 42 be bc fe 8a 90 bc 12 2c fe 3c 27 2f 17 3d
       -0.023225134 -0.017644402 0.031026874 0.036910202
000250 b7 47 9f bc 6a 1b cc 3c 7b cb 8d 3c 6d 4a d8 bc
       -0.019443376 0.024915416 0.017308941 -0.026402676
000260 48 85 e5 bc f5 07 87 bc c4 e8 3c bc f3 b2 9e 3c
       -0.028017655 -0.016483286 -0.011530105 0.019372439
000270 af 75 28 bc 65 df e3 bc a0 88 9d bc a1 60 6f 3c
       -0.010281964 -0.027816484 -0.019230187 0.0146104405
000280 b7 b4 97 3c 04 27 f0 bc 0c 51 a0 3a bd 7d 3d 3c
       0.018518789 -0.02931548 0.0012231185 0.011565623
000290 bd d3 62 bc dd 63 00 bc 52 da d6 bc 78 ff 0b bd
       -0.013844428 -0.007836309 -0.02622715 -0.03417918
0002a0 c4 b1 5c ba 7d ca c7 3c a5 f3 ce bb eb 62 47 bc
       -0.0008418823 0.024388546 -0.006315666 -0.01216958
0002b0 47 32 80 bc 7a cc 56 3c 6a e9 b2 bc ab 05 b8 bc
       -0.015648974 0.013110274 -0.021839816 -0.02246364
0002c0 7c de e1 bc 2d ed 78 3d 56 71 29 3d 83 b7 96 bb
       -0.02757191 0.060773063 0.04136785 -0.004599513
0002d0 32 69 64 bc 26 51 e3 3a 96 9b ec 3c e3 e5 cd 3c
       -0.013941096 0.001734291 0.028882783 0.025134033
0002e0 07 10 9b 3c 8b d6 53 3a 0c 8d a0 bb a9 59 41 3d
       0.01892854 0.00080809806 -0.0048996266 0.047204647
0002f0 b8 16 43 3c ef 60 1d bd fa 5d 10 bd 36 ca d4 bc
       0.011907272 -0.03842252 -0.035245873 -0.025975328
000300 fe 3c 16 3d 95 1b 8a 3c 92 10 25 3c c0 b4 13 bd
       0.03667926 0.016858855 0.010074751 -0.03606105
000310 97 40 d0 bc 6a ac 89 3b 51 2f a4 bc c4 8c 1b bd
       -0.025421424 0.0042014616 -0.020042093 -0.03797604
000320 7b 5c bb bb aa 20 3b 3a e4 b5 ce 3c 7d 0b 29 bd
       -0.0057178116 0.0007138351 0.025233217 -0.04127072
000330 c8 8c d0 3b 18 1c 1d 3c 83 43 9a bc a2 0e 63 3c
       0.0063644387 0.009589218 -0.01883102 0.013858469
000340 e2 fd fd 3c df 75 06 3d 6a 38 8a 3c 6d 6a f2 bb
       0.03100485 0.032827254 0.016872603 -0.007397941
000350 b3 d2 84 bc d4 08 8c bc 1d 20 d9 bc 75 ee 72 bb
       -0.01621375 -0.017094053 -0.02650457 -0.00370684
000360 da 07 3f 3c 6c a1 33 bd b0 85 4a bd e8 f2 96 3c
       0.011659587 -0.043855116 -0.0494439 0.018426374
000370 2f b3 ee 3a 4f f9 ad bc 98 ab e2 bc 32 4c c8 bc
       0.001821136 -0.021237044 -0.027669713 -0.024450395
000380 07 f0 0c bb f8 31 18 bd fb 2a 04 3d fe fe 33 bb
       -0.0021505372 -0.03715703 0.032267552 -0.002746522
000390 8f ac 7b 3c 64 c0 26 3a 54 b2 d9 bc c9 5b bd bc
       0.015360965 0.0006361066 -0.026574291 -0.023115056
0003a0 4a c0 fc 3c c3 ee 31 3b 5b e5 a1 3b 86 50 5e 3a
       0.03085341 0.002715037 0.0049406714 0.0008480627
0003b0 bf ec fa 3c 8c 0a 96 39 d6 86 ba 3a ee 16 85 bb
       0.030630467 0.00028618088 0.0014230858 -0.0040615713
0003c0 b5 9d 55 3c 36 40 3d 3c 34 3e 86 3c ac 2c 9d bc
       0.013038089 0.011550954 0.016387083 -0.01918634
0003d0 e4 f9 98 bc 12 a3 c8 3b 20 b2 06 bd a8 de 56 bc
       -0.018673845 0.006122955 -0.032884717 -0.013114609
0003e0 de da d1 bc 1f 65 35 b9 ae e1 f2 ba 53 87 ee 3b
       -0.02561706 -0.00017299176 -0.0018530393 0.0072793155
0003f0 fe 78 0e 3d 4d 2a fc 3c 58 e2 8e 3c ca a0 74 3c
       0.034783356 0.03078189 0.017441913 0.014930913

bias f4 [18]
000000 b8 ab c7 3c fc 2f a5 bc 8b 0e e6 bc 23 a5 be bc
       0.024373874 -0.020164482 -0.028083107 -0.023272103
000010 1b e6 63 bc 53 38 1d bb 7a 80 da 3a 40 a0 c1 bc
       -0.013909842 -0.002398987 0.0016670369 -0.023635983
000020 00 1a 67 3c 84 9d 59 3c 47 37 8a 3c 8b 19 d6 3c
       0.01410532 0.013282184 0.016872061 0.026135227
000030 a2 96 43 3c c7 c2 f2 3c a7 fd 36 bc 45 6a e4 3c
       0.011937769 0.029633893 -0.011168874 0.027882705
000040 c3 0a d9 bb c3 6c 90 bc
       -0.0066235973 -0.017629987

weight f4 [18]
000000 3c 07 7b 3f ee a3 7b 3f 31 7b 82 3f d2 ea 79 3f
       0.98057914 0.9829701 1.0193845 0.9762393
000010 e5 c9 7a 3f 29 7b 80 3f fd 12 85 3f ae e1 80 3f
       0.97964317 1.0037585 1.039642 1.0068872
000020 10 3e 7c 3f db 97 81 3f ab e2 7e 3f 32 5b 81 3f
       0.985322 1.0124468 0.9956462 1.0105956
000030 94 e6 7e 3f 05 3e 7a 3f 0a 5b 84 3f 8c c9 80 3f
       0.99570584 0.97750884 1.0340283 1.0061507
000040 9a 52 81 3f c7 0b 7e 3f
       1.0103333 0.9923672

bias f4 [18]
000000 99 0b be 3a 72 18 57 bc 0e 7a 42 3b af a1 94 bc
       0.0014499306 -0.013128387 0.00296748 -0.018143503
000010 57 e9 8f bc 04 0d 48 bc 55 e4 9b bc 7a ed a3 39
       -0.01756732 -0.012210134 -0.019029776 0.00031266717
000020 c7 7d 86 3c 35 00 02 bd 95 27 05 bc 8f c4 14 bb
       0.016417397 -0.03173848 -0.008127113 -0.0022700166
000030 89 5a 92 bc 96 a9 d4 bc 72 17 51 3c b6 f1 d0 bb
       -0.017865436 -0.025959771 0.012761937 -0.0063764704
000040 ba 71 a2 bb 8e fe a7 bc
       -0.004957405 -0.020507123

running_mean f4 [18]
000000 20 a3 81 3f 01 5d c2 3f 17 78 04 be 9f 11 d2 3f
       1.0127907 1.5184633 -0.12936436 1.6411628
000010 26 1e 9c 3f cd 71 62 3f 18 d3 13 bf 91 f0 5a 3f
       1.21967 0.88454896 -0.5774398 0.85523325
000020 36 a3 a5 3f 92 fe df bf 97 12 77 be 8f b7 e5 bf
       1.2940433 -1.7499564 -0.24128185 -1.7946643
000030 ed f1 de bf 3a db 1f 3f 7f d2 50 bf 67 07 08 c0
       -1.741758 0.6244389 -0.8157119 -2.1254518
000040 99 12 21 3e fe d9 de 3f
       0.1572975 1.7410276

running_var f4 [18]
000000 b4 11 d5 3e 98 e4 2a 3f 7f fe de 3e ca ee f2 3e
       0.4161507 0.66755056 0.4355354 0.47447807
000010 27 b6 04 3f 55 2c ca 3e 53 cc f1 3e c0 53 d6 3e
       0.5184044 0.39486948 0.472262 0.4186077
000020 6a e0 4e 3f 28 27 0b 3f c0 24 cf 3e 23 a5 6e 3f
       0.8081118 0.5435662 0.40457726 0.9322073
000030 bd 04 dd 3f 43 d5 5d 3f d2 bb 24 3f ce fe 95 3f
       1.7267071 0.86653537 0.6434909 1.1718385
000040 9c 35 25 3f 82 61 86 3f
       0.64534926 1.0498507

weight f4 [6, 18, 5, 5]
000000 14 19 40 3d 41 05 98 3c 75 73 35 3d d3 e9 e4 bc
       0.046898916 0.018557193 0.04429956 -0.027943527
000010 c3 1c eb bb ab 2d 9e 3b 6c dd 9d 3c 6b 61 aa 3b
       -0.0071750595 0.0048272214 0.019270621 0.0051996014
000020 40 36 47 3c 65 2a 97 bc 43 9f 82 bc 62 6f d2 bb
       0.01215893 -0.018452832 -0.015945083 -0.0064219693
000030 6c de 37 3d c1 db d6 3c a2 b0 58 3d 6f 07 31 bd
       0.044889852 0.026227834 0.052902825 -0.04321998
000040 03 c4 22 bb b5 8f 32 bc c2 f1 e4 bc c1 17 42 3d
       -0.002483607 -0.01089852 -0.02794731 0.047385935
000050 49 ba 9c 39 ed 32 24 bd 4a 35 bf 3c 99 25 4a 39
       0.00029893432 -0.04008763 0.02334084 0.00019278227
000060 ae 22 ad 3c 3f e5 d5 3c 1b 77 17 3d f0 30 8e bc
       0.0211347 0.02611029 0.036978822 -0.01735732
000070 3d 8e c8 3b fb bb 01 bd 80 19 16 3d 60 7f a9 bb
       0.0061204717 -0.031673413 0.036645412 -0.005172655
000080 b3 3f 12 bd 73 ab 3a 3d 4e 4e 7a 3c 99 cd a8 3c
       -0.03570528 0.045573663 0.015277458 0.02060585
000090 dd a0 77 3c 7b cc 62 3c f9 a2 e4 3c da 65 ad bc
       0.015114036 0.013842697 0.027909743 -0.02116673
0000a0 38 78 02 3d 81 d6 63 bc 2d 50 2e 3d a2 79 51 3b
       0.03185293 -0.013906122 0.04255693 0.0031963368
0000b0 38 00 85 bc 77 63 91 3a 93 92 ca bc 00 67 23 bd
       -0.016235456 0.0011092265 -0.024728095 -0.03989315
0000c0 e5 5a 51 bd 7e 91 83 3c 77 34 ec 3c 1e 65 8b 3c
       -0.051112074 0.016060587 0.028833611 0.01701599
0000d0 29 62 5a bc 1c 75 05 3d 73 22 6b 3d 08 c1 58 bd
       -0.013329067 0.032582387 0.0574059 -0.052918464
0000e0 bd db f8 bb 1f 0b 2b 3c f0 22 a4 bc 03 6a 57 3d
       -0.007594554 0.010439663 -0.02003619 0.052591335
0000f0 93 10 4c 3d 0b 68 db 3c 8c 6b 9f 3c f0 13 d7 bc
       0.049820494 0.02678301 0.019460462 -0.026254624
000100 f6 17 85 3d 25 7a ef 3c 31 40 1c 3d c1 38 af 3c
       0.06498711 0.029233048 0.038147155 0.021389367
000110 ac d4 30 bd 9a 5f 00 bc f5 0b a2 bb ec fa 22 bd
       -0.04317157 -0.007835293 -0.004945273 -0.03979008
000120 b7 ab b6 3c c1 1f 48 bd 6b 52 42 bd d0 52 be 3c
       0.022298677 -0.048858408 -0.04744188 0.023232847
000130 2b c2 6d bc 9b f7 01 3d f5 3f 69 bc 8e e8 2c 3c
       -0.014511625 0.031730276 -0.01423644 0.010553492
000140 42 ef 35 3c 0b 57 fd 3c 95 2b 1f bd 66 63 df bc
       0.011104407 0.030925294 -0.038859922 -0.027269077
000150 26 a4 5a 3d 53 cc 19 bd 8e 63 06 bd 04 0e 2c bd
       0.0533792 -0.037548374 -0.032809786 -0.042005554
000160 17 8a 2d bc 9c 1e 4e bc b5 2b a0 3c a8 34 d4 bc
       -0.010592005 -0.01258054 0.019552091 -0.025904015
000170 28 67 ff 3c cf 39 ae 3a 5e 91 84 bc 32 7f a6 bb
       0.031177118 0.0013292375 -0.016182598 -0.005081081
000180 65 c8 8d bc 93 7b df 3b bb 14 ca 3c df 9f 19 bc
       -0.01730747 0.006820151 0.024668088 -0.009376495
000190 f6 67 1c 3d 9d 4a 95 bc e9 a2 12 3c 43 e6 70 3c
       0.038185082 -0.018224055 0.008949974 0.014703336
0001a0 88 a1 02 bc bb e9 9a bb d3 75 73 3c 2e fb 39 bd
       -0.007973082 -0.00472757 0.014859634 -0.04540556
0001b0 b8 d3 3a bc 38 56 df 3c a1 9c 5e 3c be b1 36 3b
       -0.011403017 0.027262792 0.013587148 0.0027876939
0001c0 0b fe dc 3a c2 b6 2e 3d cf 52 0f bd 43 26 a5 bc
       0.0016860379 0.04265476 -0.03499108 -0.020159846
0001d0 9e 55 66 bd ef 56 41 bd 8e 86 2e 3c 04 93 21 bc
       -0.056233995 -0.047202047 0.0106521975 -0.009861711
0001e0 c8 de be bc 66 02 49 bd 7c ed 0b 3d 22 a8 92 3a
       -0.02329959 -0.049074553 0.03416203 0.0011189023
0001f0 9f fe 89 3c 42 57 48 bd 4f bf 9a bc 15 70 13 bd
       0.016845046 -0.04891134 -0.018890051 -0.03599556
000200 f4 91 18 bd 52 13 2c bd d9 c7 95 3c 4f 70 24 3c
       -0.037248567 -0.042010613 0.018283771 0.010036542
000210 a9 8e a9 3c b7 71 27 bd 8b 38 2e bd 0f a1 59 bc
       0.020697908 -0.04087993 -0.042534392 -0.013283028
000220 00 71 61 bc 3e 01 1b bd 4f 49 c3 3c 47 c9 b2 bc
       -0.013759851 -0.03784298 0.023838667 -0.021824492
000230 bb 63 b0 3c 63 0b 4b bd 3c 94 48 bd 11 e4 8a bc
       0.02153193 -0.049571406 -0.048969492 -0.016954454
000240 97 aa fc bc a1 22 21 bd 9c a0 05 3d ff 99 b8 bc
       -0.030843062 -0.039339665 0.032623872 -0.022534369
000250 ce d5 8a 3c 35 d4 c1 bc 3e 1a 6b 3b 91 54 3d bd
       0.016947653 -0.023660759 0.0035873796 -0.046223227
000260 e7 7d 8c bc 68 46 11 bd 32 c6 b1 ba 2f d2 23 bd
       -0.017149879 -0.035467535 -0.0013563095 -0.03999537
000270 9b 28 17 bd 19 e9 0d 3d 40 a6 10 bb 30 8f 3f bc
       -0.03690396 0.034646127 -0.002207175 -0.011691853
000280 cf b9 c1 bc 3c 8a c7 bc f1 b7 e1 3c 45 f0 15 bd
       -0.02364817 -0.024357907 0.02755353 -0.036606092
000290 80 c0 e4 bb 90 77 73 bc f2 5a ec bc 0a ca a7 3a
       -0.0069809556 -0.014860049 -0.02885196 0.0012801301
0002a0 a1 b5 2e bc 5b 8a 4a bd a3 48 a3 bc 95 87 21 bd
       -0.010663421 -0.049448352 -0.019932097 -0.03943594
0002b0 1e 2c 2c bd c9 ac d3 bc 56 ea a4 bb 8b 64 6c bc
       -0.04203426 -0.025839226 -0.005032818 -0.014428268
0002c0 5f 27 78 3c 3a 61 0b 3d aa 40 4c 3c b0 83 df 3c
       0.015146106 0.03402827 0.012466589 0.027284473
0002d0 f8 95 7b bb 2e 38 0a 3c b9 28 54 bc e6 dd af 3c
       -0.003838895 0.008436246 -0.012949162 0.021468114
0002e0 7f 59 0e 3d db 16 58 3d 0e 55 d8 3c 78 b6 e9 3c
       0.03475332 0.05275617 0.026407745 0.02852939
0002f0 4e 44 80 3c 2d 8c 38 3d f3 49 1c 3d fe db 45 bc
       0.01565757 0.045055557 0.03815646 -0.012076376
000300 5f cb 3f 3c c2 75 dc bc 77 29 1b bd 41 41 41 ba
       0.011706202 -0.02691162 -0.03788134 -0.00073720893
000310 9b 03 be bc fb 67 27 bb e6 e0 a0 bc ae 07 84 bc
       -0.023195079 -0.0025544155 -0.01963849 -0.016116943
000320 4d 35 72 3c ac 19 bf 3c 8d c1 38 bd 88 b7 a0 bc
       0.014783216 0.023327671 -0.04510646 -0.019618765
000330 42 21 fa 3c 72 6b dd 3c 30 e7 85 3c f7 0c d1 bc
       0.030533437 0.027028773 0.01634559 -0.025518877
000340 da 0b af bc 32 77 db bb be 5e 3e bc 33 47 2c 3d
       -0.021367956 -0.006697559 -0.011619268 0.04206009
000350 e0 39 ad 3b 72 74 b8 bc a9 85 08 3d b8 5c 29 3c
       0.0052864403 -0.022516463 0.033330593 0.010337047
000360 46 79 48 3d 9d 98 41 3d a1 df 47 bc b5 45 4d 3b
       0.04894378 0.047264684 -0.012199313 0.0031322066
000370 7e 0b 00 bd 31 eb 01 3d 3c 8e 5f 3d 0b 61 b7 bc
       -0.03126096 0.031718437 0.054579005 -0.02238514
000380 70 e1 43 3d a5 f7 54 3c 5f 8d 80 bd 85 45 15 bd
       0.047822416 0.012998496 -0.062769644 -0.036443252
000390 68 51 f3 bc 68 78 53 bc a5 1b f1 bc 16 b0 3f b9
       -0.029701903 -0.012907125 -0.029432127 -0.00018280777
0003a0 63 20 2e 3a ee 2e 2d bd 90 8d 17 3c b4 78 08 3d
       0.0006642399 -0.042281084 0.00925006 0.033318236
0003b0 b4 83 be bc 1e 4f 40 bd a0 4b f3 bc 3f ee d4 bb
       -0.02325616 -0.046950452 -0.029699147 -0.0064981277
0003c0 36 ec 74 bc 4f 56 3b 3c eb e9 1a 3d 4f d7 2a 3d
       -0.014948895 0.011434152 0.037820738 0.04170924
0003d0 2b 76 19 3d bc 9b 3b 3d c6 eb 69 3b 89 26 1f 3d
       0.03746621 0.045802817 0.003569351 0.03885511
0003e0 46 fd 17 3d d7 4f 13 3d e6 6a 47 3d 72 d0 7a 3c
       0.037106775 0.035964813 0.04868593 0.015308486
0003f0 b8 5d 8e 3c e0 5a 58 3b 8f 69 2c 3d 79 76 bd 3b
       0.017378673 0.003301315 0.042092856 0.0057819453

bias f4 [6]
000000 4c 56 c0 bc aa be 19 bc 56 42 2a bd 5a 4e 0d bc
       -0.02347865 -0.009383837 -0.04156717 -0.0086246375
000010 02 fb ee 3c 0f 4f 15 3d
       0.029172424 0.03645235

weight f4 [6]
000000 fc 54 82 3f 9c ee 84 3f da 33 7c 3f 1b 76 79 3f
       1.0182185 1.0385318 0.9851662 0.9744584
000010 c9 7b 82 3f 94 09 77 3f
       1.0194026 0.9649899

bias f4 [6]
000000 11 3b 88 bd 40 bb b2 3c c8 9e dc 3c 2e 88 96 bd
       -0.06651891 0.021817803 0.026931182 -0.07350193
000010 8e e0 45 bc 25 f5 e4 3b
       -0.012077464 0.0069872313

running_mean f4 [6]
000000 de 2b 20 bf 0d 50 91 3e 4a f1 b8 bf 76 d4 33 bf
       -0.62566936 0.28381386 -1.4448636 -0.70246065
000010 44 a3 97 3e d7 fb 07 3f
       0.2961675 0.5311865

running_var f4 [6]
000000 7b 0c cb 3e 09 c2 fd 3e 9d 7d a5 3e d6 77 0d 3f
       0.3965796 0.495621 0.32322398 0.5526098
000010 d6 0c c4 3e d5 5e 04 3f
       0.38291043 0.517072

weight f4 [1, 6, 5, 3]
000000 38 ce a9 3b a3 2e cb bd a1 dc 1e bd 69 80 75 bc
       0.005182054 -0.099210046 -0.038784627 -0.014984229
000010 99 c9 f7 3c b5 db e7 bc b7 7a f1 3d bc 91 fe 3d
       0.030247496 -0.028303007 0.11790984 0.124301404
000020 ef 87 9f 3d d8 3a e7 3c e5 47 94 3d 09 b0 e1 3d
       0.07789599 0.028226301 0.07240275 0.11019904
000030 e3 16 0c 3d de e8 ab 3c 8d 69 1c bc 34 00 24 3d
       0.034201514 0.020985063 -0.00954665 0.040039256
000040 a2 41 51 3d df 95 10 3d 59 3b 0c 3e a0 81 3d 3d
       0.051087983 0.03529918 0.13694514 0.0462662
000050 b0 54 25 3e 38 39 17 3d 22 57 c1 3c 1b a3 1d bd
       0.16145587 0.036919802 0.023601118 -0.038485628
000060 31 2f 95 3c 68 86 03 3d 08 51 6d bd 66 61 93 bd
       0.01821098 0.0321106 -0.057938606 -0.07196312
000070 1b 43 7e bd 5a 02 9e 3b 41 19 9d 3c 0d 50 13 bb
       -0.062075716 0.0048220577 0.019177081 -0.0022478134
000080 2f 29 12 3d b8 e4 e4 3c 7b a7 75 3d 35 2e e6 bc
       0.035683807 0.027941093 0.059974175 -0.028098205
000090 a0 6d 0c bd 20 9d 0c bd f3 f4 cd bd b9 76 9f 3c
       -0.034284234 -0.034329534 -0.10056486 0.019465791
0000a0 03 06 0e 3c 06 87 bf bb f9 db af 3d a3 f9 24 bd
       0.0086684255 -0.0058449535 0.08586878 -0.040277135
0000b0 ad bd 8a 3d b5 54 65 3a fe 0d 44 3d 5c b8 6a 3d
       0.06774459 0.0008748279 0.047864906 0.057304725
0000c0 45 4a 95 3d 30 5a bd bd 70 54 4d 3d ef b1 61 3d
       0.072895564 -0.092457175 0.050129354 0.05510133
0000d0 4f b8 38 bd 88 fd 56 bd 07 cb ba 3d d5 f2 ac 3d
       -0.045097645 -0.05248788 0.09120756 0.08444754
0000e0 ba 43 c8 3d d6 1c cb bb a2 1e 8e 3c 35 24 6b bd
       0.09778543 -0.006198506 0.017348591 -0.057407577
0000f0 d0 9c 96 3d cb cf 07 3d 60 02 d3 3d c4 61 bc bd
       0.07354128 0.03315715 0.10303187 -0.09198335
000100 a3 d6 ae 3d b5 e0 18 bc fe 66 2e 3d 7d 0e 76 bb
       0.085370325 -0.009330918 0.04257869 -0.0037545257
000110 8e 84 9c 3d 53 e8 ab bc bc be 95 bb 9e 90 af bc
       0.0764247 -0.020984804 -0.0045698564 -0.021431264
000120 6d 55 be 3d e5 1f 28 3d 18 4c f0 3c ff 27 9b 3d
       0.092936374 0.041046042 0.02933316 0.07575988
000130 b2 40 23 bd aa 81 96 bc a5 aa 82 3d 84 13 a3 3d
       -0.03985662 -0.018372376 0.06380204 0.07962707
000140 0c 59 dc 3b fb 61 bd bd 15 08 0b bd d0 62 59 bd
       0.0067244824 -0.09247204 -0.033943255 -0.05307275
000150 be d9 10 bd 7a 24 f4 bc 83 a3 a6 3b 52 74 1c 3d
       -0.035363905 -0.02980255 0.00508541 0.03819687
000160 8c 91 49 3d f9 0a 88 bd
       0.04921107 -0.06642718
