source/models/MelodyTimbreCNN/model_512_25_0.002_MIDIsampledseen_evalmode_attempt2.pth (torch, 202227 bytes, 26 tensors)

weight f4 [6, 1, 5, 5]
0	0x3d9b81ba	0.07593103
1	0x3e164a98	0.14676893
2	0x3d83c8bd	0.06434772
3	0xbd46649b	-0.04843579
4	0x3de11f26	0.10992269
5	0x3e3e6a21	0.18595172
6	0xbd510c4f	-0.05103713
7	0xbd540580	-0.051763058
8	0x3e0acd1f	0.1355481
9	0xbe2d0cb4	-0.16899377
10	0x3ca83dc2	0.02053726
11	0x3d2069a8	0.03916326
12	0xbe20676e	-0.15664455
13	0xbc6630e9	-0.014049747
14	0xbe41faac	-0.1894328
15	0x3e35f2c8	0.17768395
16	0xbe3d3651	-0.18477751
17	0xbe38afb1	-0.18035771
18	0xbe17e9bf	-0.14835261
19	0x3d9c19f6	0.07622139
20	0x3e59c348	0.212659
21	0xbe05f44f	-0.13081478
22	0x3d186c52	0.037212677
23	0x3e3c3f03	0.18383412
24	0x3d42da3f	0.047571417
25	0xbcbaebbc	-0.022817485
26	0x3e0bac75	0.13640006
27	0xbda75646	-0.08170752
28	0x3d90ea3e	0.07075928
29	0x3d2a81e4	0.04162778
30	0xbe5dbada	-0.2165331
31	0xbc7efead	-0.015563649
32	0xbd3f5d45	-0.046719808
33	0x3e0820a4	0.13293701
34	0x3e27a827	0.16372739
35	0xbe3ec085	-0.18628128
36	0xbe183631	-0.14864422
37	0x3e79e821	0.24404956
38	0x3e0c7323	0.13715796
39	0x3e3406e7	0.17580758
40	0x3dffb425	0.12485532
41	0x3ddec801	0.108779915
42	0xbe21154b	-0.15730779
43	0xbcda5a05	-0.026654253
44	0xbd8f0865	-0.06984023
45	0xbe35697e	-0.17716023
46	0x3def9119	0.11697597
47	0x3d4d943f	0.050190207
48	0x3c03c987	0.008043653
49	0x3db40b9d	0.087912776
50	0x3dbb5268	0.09146577
51	0xbe1fa07a	-0.1558856
52	0x3ca65853	0.020305788
53	0x3ced6339	0.028977977
54	0x3cfc15d8	0.030772135
55	0x3ca7a258	0.020463154
56	0x3e06cc38	0.13163841
57	0x3dd6ffe5	0.10498027
58	0x3e00e934	0.1258896
59	0xbd078ede	-0.033095233
60	0x3c6d32b6	0.014477422
61	0xbdc12a43	-0.09431889
62	0x3da739d3	0.08165326
63	0xbe0d531f	-0.1380124
64	0xbdcac06e	-0.09899984
65	0x3d9b7a9f	0.075917475
66	0xbd83d514	-0.06437126
67	0xbdd6375e	-0.10459779
68	0xbe3254a1	-0.17415096
69	0xbd9a4835	-0.07533304
70	0xbe3178e6	-0.17331275
71	0x3e3428a4	0.17593628
72	0x3de9ca08	0.114154875
73	0xbd312b0e	-0.04325395
74	0xbdc48199	-0.09595031
75	0xbdb720b7	-0.08941787
76	0xbe03a768	-0.12856829
77	0x3d1aab1d	0.037760843
78	0x3dead4b6	0.11466353
79	0xbe168804	-0.14700323
80	0x3e1adb22	0.15122655
81	0x3ce1eb14	0.027577914
82	0xbd5e74bf	-0.054310557
83	0x3e45c166	0.19312057
84	0xbde5579c	-0.11198351
85	0xbe089b93	-0.13340597
86	0x3dfb47c3	0.12269547
87	0x3e5c047f	0.2148609
88	0x3ea0fc0b	0.31442294
89	0x3cef70a5	0.029228518
90	0x3b284c20	0.002568014
91	0xbe53dcca	-0.20689693
92	0xbd803881	-0.06260777
93	0x3e0384d3	0.12843637
94	0x3c2a2184	0.010383967
95	0xbdcf149b	-0.10111352
96	0xbd6a3fdd	-0.05718981
97	0xbdd1ca5e	-0.102436766
98	0x3dc2f420	0.095192194
99	0x3dd02858	0.10163945
100	0x3dd28952	0.10280098
101	0x3da1e06e	0.07904135
102	0x3d53d13d	0.051713217
103	0x3dcd0ed8	0.10012597
104	0xbc4db4d2	-0.012555318
105	0xbd20a979	-0.03922412
106	0xbce52f89	-0.027976768
107	0x3e068c7a	0.13139525
108	0x3e56ccfc	0.20976633
109	0x3dd460c8	0.10370022
110	0x3d3dbd24	0.046322957
111	0xbe60a1b2	-0.21936682
112	0x3e1732bb	0.14765446
113	0x3dfbcdeb	0.12295135
114	0xbe82e2df	-0.25563714
115	0xbe6d4be2	-0.23173478
116	0x3e156343	0.14588647
117	0x3d6b9cb1	0.05752248
118	0x3dad2805	0.08454899
119	0xbd7d31fd	-0.06181525
120	0x3e12e2e3	0.14344363
121	0x3d95eb44	0.07320264
122	0x3e01f669	0.12691654
123	0x3e108da2	0.14116529
124	0x3d965ae5	0.073415555
125	0x3e3f1074	0.1865862
126	0x3b87f848	0.0041494705
127	0x3e87de98	0.26537013
128	0xbd8fcd20	-0.07021546
129	0x3e45947e	0.19294927
130	0xbd9f5f1f	-0.07781815
131	0x3d64def2	0.05587668
132	0xbd15d1a1	-0.03657687
133	0xbc391764	-0.011297081
134	0x3e0c2bf2	0.13688639
135	0x3e454084	0.19262892
136	0x3d1b0faf	0.037856754
137	0x3d960dfe	0.073268875
138	0xbdf7a8a0	-0.120927095
139	0xbdcd7cc1	-0.100335605
140	0x3e3066a1	0.1722665
141	0x3dcebc21	0.100944765
142	0xbccc43de	-0.024934705
143	0x3da6c684	0.081433326
144	0x3db4cd89	0.08828265
145	0x3cb3b025	0.021934578
146	0xbe1560b9	-0.14587678
147	0xbd18a6c5	-0.03726842
148	0x3bedc060	0.007255599
149	0xbdcba5a6	-0.09943704

weight f4 [6]
0	0x3f90065c	1.1251941
1	0x3f78cc52	0.9718677
2	0x3f7dfd63	0.9921476
3	0x3f7b3dc9	0.9814115
4	0x3f726976	0.9469217
5	0x3f700056	0.9375051

bias f4 [6]
0	0x3c0e6e32	0.008693265
1	0xbd4a9c61	-0.04946554
2	0x3b5268d6	0.0032105944
3	0xbdd76072	-0.10516442
4	0xbd040c9c	-0.032238588
5	0xbd31b94c	-0.043389603

running_mean f4 [6]
0	0x3ad38536	0.0016137722
1	0x3b264769	0.0025372154
2	0x3b269764	0.0025419826
3	0x3ae6ec04	0.0017617946
4	0x3b4bd325	0.0031101194
5	0x3c0b87af	0.008516236

running_var f4 [6]
0	0x3dcf10f7	0.10110658
1	0x3e8d783e	0.276308
2	0x3dbb6feb	0.09152206
3	0x3e6812a6	0.22663364
4	0x3f884c6e	1.0648324
5	0x3f39f80f	0.7264413

weight f4 [18, 6, 5, 5]
0	0x3e066f7c	0.13128465
1	0x3db8f2cd	0.090306856
2	0x3d30638e	0.043063693
3	0x3d246a21	0.040140275
4	0x3d9cfdfa	0.0766563
5	0xbcd04510	-0.025423557
6	0xbdad0267	-0.08447724
7	0xbdaec718	-0.08534068
8	0xbdd41d9b	-0.10357209
9	0xbc6b9fe3	-0.014381382
10	0x3d98afae	0.07455383
11	0x3d18f7a0	0.03734553
12	0xbd980154	-0.07422128
13	0xbcf85c9f	-0.030317603
14	0x3d3a1760	0.04543245
15	0x3dab1bcf	0.083549134
16	0x3d3b570a	0.045737304
17	0x3d3619bf	0.044458147
18	0xbbde13c2	-0.0067772577
19	0xbcf61d10	-0.030043155
20	0x3a21bb31	0.0006169556
21	0xbd9e70be	-0.077363476
22	0x3ca7ca8c	0.020482324
23	0xbdafcf58	-0.085844696
24	0xbd55267d	-0.05203866
25	0xbd76d7b5	-0.060264308
26	0x3d12874d	0.035773564
27	0xbd483bd2	-0.048885174
28	0xbd6b9884	-0.057518497
29	0xbd8b7d91	-0.06811059
30	0xbc8f2634	-0.017474271
31	0xbd0b0265	-0.03393783
32	0xbdaedde3	-0.08538415
33	0xbb61a9e0	-0.0034433529
34	0xbdf9352d	-0.121683456
35	0x3da39475	0.079873
36	0xbd829ebd	-0.06377933
37	0xbdd09d23	-0.101862215
38	0xbc13570c	-0.008992922
39	0xbc997576	-0.018732768
40	0x3cb7c82e	0.02243432
41	0x3d1576c5	0.03649022
42	0xbd199c39	-0.0375025
43	0xbdb1a4f9	-0.08674044
44	0x3c8a70c3	0.016899472
45	0x3cbbbaa9	0.022916155
46	0xbcb8b000	-0.02254486
47	0x3b9a9a30	0.0047180876
48	0xbda3197d	-0.07963846
49	0xbb82113e	-0.0039693406
50	0x3cfed088	0.031105295
51	0xbd04866a	-0.03235475
52	0x3d6e0cab	0.05811755
53	0x3cb3d807	0.021953596
54	0x3cc46dae	0.02397808
55	0x3d5a2033	0.053253364
56	0xbd7426c9	-0.0596073
57	0xbcd58ae7	-0.02606721
58	0x3d115134	0.035477832
59	0xbdc3aadd	-0.09554074
60	0x3b589aae	0.003305118
61	0x3d8db7e2	0.069198385
62	0x3de23972	0.11046113
63	0x3db5103c	0.08840987
64	0x3d856845	0.065140285
65	0xbd5fa38d	-0.054599334
66	0x3d7251f4	0.059160188
67	0x3d61d9b2	0.05513925
68	0xbd5fd285	-0.054644126
69	0xbc0c8537	-0.008576683
70	0x3c08c2bf	0.008347212
71	0xbd7cb15d	-0.061692584
72	0x3d726c62	0.059185393
73	0x3d08dc53	0.033413243
74	0x3c186f71	0.009303913
75	0x3d21e0d5	0.039521057
76	0xbd208bdb	-0.039195877
77	0xbd0dd247	-0.034624364
78	0x3c8e3e9d	0.01736384
79	0x3cbd446a	0.023103911
80	0x3d9846a3	0.07435348
81	0xbcfb2b29	-0.030660229
82	0x3cb9bacc	0.02267208
83	0xbdc9e0aa	-0.098573044
84	0x3c5fd72d	0.013662142
85	0x3cdbbaab	0.026822409
86	0x3d9bb57c	0.07602975
87	0x3d409cb4	0.047024444
88	0xbc499063	-0.012302491
89	0x3cb74774	0.022372939
90	0x3c1358f0	0.008993372
91	0xbcb25190	-0.021767408
92	0x3d3603ab	0.04443709
93	0xbd259acb	-0.040430825
94	0xbd860ed4	-0.06545797
95	0xbd290d14	-0.041272238
96	0xbc791424	-0.015202556
97	0xbcf2cb89	-0.029638069
98	0x3d865d12	0.065607205
99	0x3cc17b18	0.023618266
100	0x3d0b9c16	0.034084402
101	0x3d9e3a3e	0.077259526
102	0xbac74985	-0.0015204406
103	0x3ca35482	0.019937757
104	0xbcf1a5f6	-0.029498082
105	0xbcac63ac	-0.021043621
106	0x381bc503	3.713836e-05
107	0xbc9f0eef	-0.0194163
108	0x3c24dc29	0.010062256
109	0xbd21a7a3	-0.03946651
110	0x3b650c7d	0.003495007
111	0x3cdee0de	0.027206834
112	0x3da1b48f	0.07895767
113	0xbd3fdfef	-0.04684442
114	0xbcfb4d6b	-0.030676564
115	0x3d3ff667	0.046865847
116	0x3d851562	0.06498219
117	0x3d70d993	0.058801245
118	0xbd812ea5	-0.06307725
119	0x3c8dbe7e	0.017302748
120	0x3d52558a	0.051351108
121	0x3b9424d2	0.004520991
122	0xbd9df997	-0.07713621
123	0x3d631103	0.055436146
124	0xbc627681	-0.013822199
125	0x3d982a8f	0.074299924
126	0x3d8bd71c	0.06828138
127	0xbd397385	-0.045276184
128	0xbc247541	-0.010037721
129	0xbd5ab0cf	-0.053391274
130	0x3d7109e9	0.05884734
131	0xbcf3cc39	-0.029760467
132	0x3d386ab4	0.045023635
133	0x3c8b81bb	0.017029634
134	0xbdd02821	-0.10163904
135	0xbbedac79	-0.0072532264
136	0x3d9c3400	0.07627106
137	0xbd4218cc	-0.04738693
138	0x3cf6f1da	0.03014462
139	0xbd847d6a	-0.06469233
140	0x3d991ef6	0.074766085
141	0x3d9dbbd1	0.07701839
142	0xbc92d27e	-0.017922636
143	0x3b30849e	0.0026934515
144	0x3d119f61	0.035552386
145	0xbd28e7f0	-0.041236818
146	0x3b9dc34e	0.004814542
147	0xbb48d256	-0.0030642948
148	0x3cd3c716	0.025851768
149	0xbcd2a544	-0.02571357
150	0xbcfec3eb	-0.03109928
151	0x3d43f3dd	0.047839988
152	0xbb8d3f4b	-0.0043105236
153	0x3d170801	0.036872867
154	0xbbe8adb9	-0.0071007875
155	0x3d1fd10e	0.03901773
156	0xbcc79689	-0.024363773
157	0x3de53f55	0.1119372
158	0x3da44785	0.08021454
159	0x3d4d2ed8	0.0500935
160	0xbd618a03	-0.05506326
161	0xbdbefa00	-0.093250275
162	0x3d30f4b0	0.043202102
163	0x3d407db0	0.046994865
164	0xbd528d21	-0.051404122
165	0x3d7359d0	0.059411824
166	0x3beafb4a	0.0071710693
167	0x3d8602d5	0.06543509
168	0x3d1b1a96	0.03786715
169	0xbd715427	-0.058918145
170	0xbd817bdc	-0.063224524
171	0x3d81c438	0.06336254
172	0xbc395235	-0.011311104
173	0xbd2d98aa	-0.04238192
174	0xbc7eb169	-0.015545228
175	0x3c955ef5	0.018233756
176	0x3d80ea6f	0.06294715
177	0x3c8a1f20	0.016860545
178	0xbd106c19	-0.03525934
179	0xbd91ccb2	-0.07119121
180	0x3d210cb0	0.03931874
181	0x3c6a429a	0.014298106
182	0xbadb3fa7	-0.0016727344
183	0xbd481981	-0.048852447
184	0xbc0abcff	-0.008467912
185	0xbcad0bdc	-0.021123819
186	0x3cf2387f	0.029567955
187	0xbd8906c6	-0.06690745
188	0xbcccaf26	-0.024985861
189	0xbd3b6975	-0.04575487
190	0xbd13aecb	-0.036055367
191	0xbd9232c4	-0.07138589
192	0x3d19c4d5	0.03754123
193	0x3d1c9922	0.038231976
194	0x3d86b144	0.065767795
195	0xbd9c9aa3	-0.07646682
196	0xbd5de446	-0.054172777
197	0xbd60631b	-0.054782014
198	0xbd04f5f1	-0.03246111
199	0xbc99d2d5	-0.01877729
200	0x3da9310e	0.082613096
201	0x3db6bdc9	0.089229174
202	0xbd8c0bcd	-0.06838188
203	0xbd1f0206	-0.03882029
204	0x3cc69f27	0.024245812
205	0x3d94c281	0.07263661
206	0xbcccc2bc	-0.0249952
207	0xbdec154e	-0.11527501
208	0x3d544363	0.051822077
209	0xbdb2e4e4	-0.08735064
210	0x3d958a56	0.07301776
211	0xbc5b515d	-0.013386098
212	0x3c975504	0.018473156
213	0x3d1df92c	0.038567707
214	0x3d0e5223	0.0347463
215	0x3d927051	0.07150329
216	0x3d1c6596	0.038182817
217	0xbd7a1f21	-0.061064843
218	0x3c106ce5	0.008815025
219	0x3d1806b3	0.037115764
220	0x3dc13fc3	0.0943599
221	0x3dd9aa57	0.10628193
222	0x3d2d0343	0.04223944
223	0xbd7e8504	-0.062138572
224	0x3dd37c20	0.10326409
225	0xbd23eb95	-0.04001959
226	0x3cbd2f3f	0.023093818
227	0xbb61f173	-0.003447619
228	0x3d010c12	0.03150565
229	0xbda75931	-0.08171309
230	0x3d5f899d	0.054574598
231	0x3d8d7ffe	0.06909178
232	0xbd90591f	-0.070482485
233	0xbe04bdfd	-0.129631
234	0xbde128b5	-0.109940924
235	0x3c6e6838	0.014551215
236	0x3d2ebe79	0.042662118
237	0x3da9ecdc	0.082971305
238	0xbc9e420c	-0.019318603
239	0x3d9173d7	0.07102173
240	0x3d4c6666	0.049902342
241	0x3d99321f	0.07480263
242	0x3c0690ea	0.008213261
243	0xbd8061d3	-0.062686585
244	0xbc51eb4a	-0.012812445
245	0xbdeeb550	-0.11655676
246	0x3c59d74f	0.0132959625
247	0xbd4b1a2b	-0.049585503
248	0xbd780d60	-0.06055963
249	0x3d86b3f5	0.06577293
250	0x3ca78e02	0.020453457
251	0x3d525480	0.051350117
252	0x3d864016	0.06555192
253	0x3d598b85	0.05311157
254	0xbd74e5cb	-0.05978946
255	0xbd7166a5	-0.05893578

weight f4 [18]
0	0x3f89b3f3	1.0758041
1	0x3f82c7ea	1.0217259
2	0x3f701e3e	0.93796146
3	0x3f6e99ee	0.9320363
4	0x3f80a6c7	1.0050896
5	0x3f7dc833	0.99133605
6	0x3f7e719a	0.9939209
7	0x3f82a851	1.0207616
8	0x3f80f015	1.0073267
9	0x3f77cf73	0.9680092
10	0x3f754f4e	0.95824134
11	0x3f8ab223	1.0835613
12	0x3f663456	0.8992361
13	0x3f6600b4	0.8984482
14	0x3f812a26	1.0090988
15	0x3f8b775a	1.0895798
16	0x3f82b5b3	1.02117
17	0x3f7633bc	0.9617269

bias f4 [18]
0	0xbc937c7e	-0.018003698
1	0xbe0fc388	-0.14039433
2	0xbe0cf2c1	-0.13764478
3	0xbe34bfe9	-0.17651333
4	0xbd622055	-0.055206615
5	0xbcedf22e	-0.029046144
6	0xbdfd434e	-0.12366353
7	0xbd6ab45c	-0.05730091
8	0xbb3f2c82	-0.0029170816
9	0xbd561aa3	-0.052271497
10	0xbda72b5a	-0.081625655
11	0xbd4f13ea	-0.0505561
12	0xbe189c03	-0.14903264
13	0xbdf0158c	-0.1172286
14	0xbd182c52	-0.037151642
15	0xbbdb55ae	-0.0066935634
16	0x3c82cb02	0.015965942
17	0xbdd24512	-0.1026708

running_mean f4 [18]
0	0x3df6c0ce	0.12048493
1	0x3ec523a1	0.38503745
2	0x3e9c5dda	0.30540353
3	0xbec4e6a8	-0.38457227
4	0xbe81fbbf	-0.2538738
5	0xbdd10420	-0.10205865
6	0x3c6c6142	0.014427485
7	0xbee36e31	-0.44420007
8	0xbf18d3f2	-0.596984
9	0xbf63c784	-0.8897631
10	0xbefd4c76	-0.49472398
11	0xbeeda1b2	-0.46412426
12	0x3cffc8a1	0.031223597
13	0x3f9d233e	1.227638
14	0xbec7e90f	-0.39044997
15	0xbdd44032	-0.10363807
16	0x3c799d26	0.015235221
17	0xbf1ea9d7	-0.61977905

running_var f4 [18]
0	0x3e8aa46a	0.27078563
1	0x3e627fca	0.2211906
2	0x3e335283	0.17511944
3	0x3f0ec898	0.5577483
4	0x3f2a59ab	0.6654307
5	0x3e679a7b	0.22617523
6	0x3df79be6	0.12090282
7	0x3edbd391	0.4293485
8	0x3eae0d9e	0.33994764
9	0x3f982f11	1.1889364
10	0x3f503412	0.81329453
11	0x3eb90665	0.3613769
12	0x3ea6ff5a	0.32616693
13	0x3fb572ef	1.41757
14	0x3e680b05	0.22660454
15	0x3e315d51	0.17320754
16	0x3ec5f801	0.38665774
17	0x3f4d75ed	0.80258065

weight f4 [45, 18, 5, 5]
0	0x3ca98ef1	0.020698043
1	0x3cdeecb5	0.02721248
2	0x3c7d44af	0.01545827
3	0x3d55f5fe	0.05223655
4	0x3da28780	0.07936001
5	0x3a7dd78f	0.0009683305
6	0xbd452176	-0.048127614
7	0xbca9ee29	-0.020743446
8	0xbd943f8f	-0.07238685
9	0xbcf4f4ad	-0.029901827
10	0x3acdb64b	0.0015694586
11	0xbcbf866f	-0.023379533
12	0x3d98d080	0.07461643
13	0x3d43bfa2	0.047790177
14	0x3d818efc	0.063261
15	0x3d5bb243	0.0536368
16	0x3c192c69	0.009348967
17	0x3d577d07	0.05260947
18	0x3a31492e	0.0006762919
19	0x3ad1ebea	0.0016015742
20	0xbd488592	-0.048955508
21	0xbda1403b	-0.07873579
22	0x3d602ba1	0.054729108
23	0xbc697124	-0.014248166
24	0xbcd6493d	-0.02615797
25	0x3d3c9c2a	0.046047367
26	0xbb64c102	-0.003490508
27	0x3d309cc6	0.04311826
28	0xbd07683a	-0.033058383
29	0xbd0b0264	-0.033937827
30	0xbcca123a	-0.024666894
31	0x3ca3a4fa	0.019976128
32	0xbd6a5dbe	-0.057218306
33	0xbc838d3c	-0.016058557
34	0xbd4860d5	-0.04892047
35	0xbd93fe54	-0.072262436
36	0xbca991e9	-0.020699458
37	0x3c94bb63	0.01815576
38	0xbb8f4e72	-0.004373365
39	0x3c6f45a0	0.014604002
40	0x3ce765d5	0.0282468
41	0xbd1bcb93	-0.03803594
42	0x3d4499a4	0.047998086
43	0xbd8aed90	-0.06783593
44	0xbd9ebdc9	-0.077510424
45	0x3d13fbac	0.036128685
46	0x3d0888b1	0.033333484
47	0x3c9d7ca5	0.019224474
48	0xbbd003d3	-0.006348112
49	0x3c0bc0c4	0.008529846
50	0xbc87ceda	-0.016578127
51	0xbc2f379e	-0.0106944125
52	0xbd1b82e0	-0.03796661
53	0xbda60352	-0.08106102
54	0xbe01f37e	-0.12690541
55	0x3d774b1d	0.060374368
56	0xbd06195c	-0.03273903
57	0x3ca4b5cf	0.020106224
58	0x3d70767a	0.058706738
59	0xbc99e566	-0.018786144
60	0xbc43c702	-0.011949303
61	0x3bb120dc	0.0054055285
62	0xbd6b9ba9	-0.057521496
63	0xbc96e090	-0.018417627
64	0x3b5a82e7	0.0033342184
65	0x3b5b706f	0.0033483764
66	0x3d3a54cf	0.045491036
67	0xbbb4bc3d	-0.005515604
68	0xbcf35cf8	-0.029707417
69	0xbd43de65	-0.047819514
70	0xbc8a946b	-0.016916474
71	0x3c9419f9	0.018078791
72	0x3c7055e7	0.014668918
73	0x3b9f5c56	0.004863302
74	0xbc63f516	-0.0139134135
75	0x3c15509b	0.009113456
76	0xbb956908	-0.00455964
77	0xbd8f83b2	-0.07007541
78	0xbd825279	-0.06363387
79	0x3d1b2f51	0.03788692
80	0x3bab4a8e	0.0052273935
81	0xbd6d3a4f	-0.057916936
82	0xbd4c874e	-0.049933724
83	0x3b14736f	0.0022651812
84	0xbce68ee4	-0.028144307
85	0xbcdbad87	-0.026816143
86	0x3c4dc9e2	0.01256034
87	0x3d0f0318	0.03491506
88	0xbd294479	-0.041325066
89	0x3ce82c63	0.028341478
90	0xbc966353	-0.018357908
91	0x3c9ac49d	0.01889258
92	0xbcbc8c3d	-0.02301609
93	0xbd3c2060	-0.045929313
94	0x3c90bc8d	0.017668033
95	0x3c2ac99c	0.010424044
96	0x3c1d4d1e	0.009600906
97	0xbc8f3137	-0.017479522
98	0x3c2d3985	0.010572796
99	0x3d14b933	0.036309432
100	0xbcecd3f7	-0.028909666
101	0x3cb3cca9	0.021948176
102	0xbb82b254	-0.0039885435
103	0xbbc0cd55	-0.0058838525
104	0x3d2ae16e	0.041718893
105	0xbd3b5708	-0.045737296
106	0x3cf55276	0.029946547
107	0xbd015502	-0.03157521
108	0xbd0972ab	-0.03355662
109	0x3cc3c3c8	0.023897067
110	0xbd8caa6a	-0.068684414
111	0xbbf3a2dd	-0.0074351863
112	0x3c1b2fd9	0.009471857
113	0xbcc42268	-0.023942187
114	0xbc8dc5ea	-0.017306287
115	0x3ce5706f	0.028007714
116	0xbc48bfdc	-0.012252774
117	0xbd3a7e6c	-0.04553072
118	0x3cf0263a	0.029315103
119	0x3c1af71a	0.009458328
120	0xbd8640f2	-0.06555356
121	0xbc8c9ff6	-0.01716612
122	0x39f780c8	0.0004720746
123	0xbd64ecea	-0.05589
124	0x3c72697b	0.014795656
125	0xbbce186c	-0.0062895324
126	0xbd006163	-0.031342875
127	0xbcc18c7b	-0.023626557
128	0x3cd1cc70	0.025610179
129	0x3b913714	0.0044316147
130	0xbc9ed50a	-0.019388694
131	0xbd8f6d35	-0.070032515
132	0xbd79da54	-0.06099923
133	0x3d85b1b4	0.06528035
134	0xbc0c7ce4	-0.008574698
135	0x3c80f80c	0.015743278
136	0x3c44cab0	0.012011215
137	0x3d4df353	0.05028088
138	0x3d807726	0.06272726
139	0xbbceea03	-0.0063145175
140	0x3c994c7a	0.018713225
141	0xbb40b024	-0.0029401863
142	0xbda7fae2	-0.08202149
143	0x3d73ff0b	0.0595694
144	0xbc496a7f	-0.012293457
145	0xba6f39de	-0.00091257493
146	0x3d227002	0.0396576
147	0xbcb87a69	-0.022519307
148	0x3ce44aac	0.027867638
149	0xbc95b335	-0.01827393
150	0x3b9e5d42	0.0048328945
151	0x3cbfdcdf	0.02342075
152	0xbc82cf02	-0.01596785
153	0x3c51f14d	0.012813878
154	0xbccadbcd	-0.024763012
155	0xbd688d2d	-0.05677526
156	0xbda08fdf	-0.07839941
157	0xbcb81043	-0.022468692
158	0x3cd8a181	0.026444199
159	0x3c069bb7	0.008215836
160	0xbd575c5e	-0.052578323
161	0xbc88b4d4	-0.016687788
162	0x3d6ddecc	0.058073804
163	0xbbdcbcaf	-0.00673636
164	0x3cc9fae8	0.024655774
165	0xbb852a3b	-0.004063872
166	0xbd8ae0c6	-0.067811534
167	0xbd3eb625	-0.046560425
168	0xbce1ed9a	-0.027579118
169	0xbce19689	-0.027537601
170	0x3c47baf5	0.01219057
171	0xbcea5b6b	-0.028608045
172	0x3cc2fcd4	0.023802198
173	0xbd300049	-0.042969022
174	0x3c2f8e0b	0.010715018
175	0xbc74796b	-0.014921526
176	0x3bdc64bd	0.006725876
177	0x3c98cb50	0.018651634
178	0x3ccd9590	0.025095731
179	0x3c168d15	0.00918891
180	0x3ce40ada	0.027837206
181	0xbd1b7720	-0.037955403
182	0xbcb226ea	-0.021747071
183	0x3d284cc1	0.041088823
184	0xbc223ad0	-0.009901717
185	0xbc20a8f4	-0.009805907
186	0xba97939d	-0.0011564378
187	0xbd048d34	-0.032361224
188	0xbcfbe12d	-0.03074702
189	0xbd558cdc	-0.052136287
190	0x3c122ed0	0.008922294
191	0xbd42abc7	-0.0475271
192	0xbd44afa9	-0.048019085
193	0xbca18f10	-0.019721538
194	0x3ce62a2a	0.028096277
195	0xbc12056b	-0.008912425
196	0x3d88fd57	0.06688946
197	0xbb150828	-0.0022740457
198	0x3d20efac	0.03929107
199	0xbc9021ef	-0.017594306
200	0x3d5fcc68	0.054638296
201	0x3d6a7753	0.057242703
202	0x3d50776e	0.050895147
203	0x3a68c0e0	0.0008878838
204	0x3d0e00da	0.03466878
205	0x3cc7dc6b	0.024397096
206	0xbd58f3e0	-0.052966952
207	0xbdaac2a1	-0.08337904
208	0xbd66463b	-0.05621932
209	0xbd31fee7	-0.043455984
210	0xbba790a8	-0.00511368
211	0xbd16bb47	-0.036799695
212	0x3cf6aa05	0.030110369
213	0x3c04e286	0.008110648
214	0xbb110edb	-0.0022134099
215	0xbd3f343a	-0.046680667
216	0xbce55f6e	-0.027999606
217	0x3c8957b8	0.01676546
218	0xbd59265f	-0.05301511
219	0xbcc1934d	-0.023629809
220	0xba7cf742	-0.00096498814
221	0x3c8223a7	0.015886141
222	0x3d090741	0.033454183
223	0x3c8cc11d	0.017181927
224	0x3d081d54	0.033231094
225	0xbd192f7c	-0.0373988
226	0xbc2a0ea2	-0.010379465
227	0x3ca79811	0.020458253
228	0xbcb03d15	-0.021513501
229	0x3d8b2e50	0.06795943
230	0xb85cde9a	-5.26594e-05
231	0xbd626ecb	-0.05528144
232	0xbab98000	-0.0014152527
233	0xbb1b3f7e	-0.0023688967
234	0x3ce521ac	0.027970158
235	0x3bb19877	0.0054197866
236	0xbd3ab01e	-0.045578115
237	0x3c75b0cf	0.014995768
238	0x3b5e4482	0.0033915346
239	0x3d122a42	0.03568483
240	0xbd3be8cf	-0.04587632
241	0xbcdff15b	-0.027336767
242	0x3d054456	0.032535873
243	0xbc99fc0b	-0.018796941
244	0x3cfc3371	0.030786248
245	0x3c0e7b72	0.008696424
246	0xbc8e7f1d	-0.017394597
247	0x3d314d80	0.0432868
248	0xbd0f6b0b	-0.035014194
249	0x3d06c860	0.032905936
250	0x3ce33e86	0.027739774
251	0xbc76a6ae	-0.015054388
252	0x3db14d49	0.08657319
253	0x3af2affd	0.0018515583
254	0x3d8777d1	0.0661465
255	0xbc67b2b6	-0.014141729

weight f4 [45]
0	0x3f87297b	1.0559534
1	0x3f83c768	1.0295229
2	0x3f710ce1	0.94160277
3	0x3f84ba70	1.0369396
4	0x3f85b860	1.0446892
5	0x3f76a3b1	0.96343523
6	0x3f856776	1.0422199
7	0x3f771f37	0.96532005
8	0x3f7758b6	0.9661974
9	0x3f6afd83	0.9179308
10	0x3f808803	1.0041507
11	0x3f7c3add	0.9852732
12	0x3f7edba2	0.99553883
13	0x3f79c95f	0.9757289
14	0x3f80e541	1.0069963
15	0x3f82d3cd	1.0220886
16	0x3f74d129	0.95631653
17	0x3f784c6e	0.9699162
18	0x3f6aae6e	0.9167241
19	0x3f802e19	1.0014068
20	0x3f804cc0	1.0023422
21	0x3f84febe	1.0390241
22	0x3f78c476	0.97174776
23	0x3f83a86e	1.0285776
24	0x3f7a7b24	0.9784415
25	0x3f840559	1.0314132
26	0x3f873423	1.0562786
27	0x3f7d9a89	0.99063927
28	0x3f8ae101	1.0849916
29	0x3f80d5fa	1.00653
30	0x3f7a17b0	0.97692394
31	0x3f84fb3f	1.0389174
32	0x3f861c9d	1.0477482
33	0x3f82b9c1	1.0212938
34	0x3f7c9ef5	0.9868005
35	0x3f85d85a	1.045665
36	0x3f84c74e	1.0373323
37	0x3f80e043	1.0068439
38	0x3f7d313c	0.9890325
39	0x3f7531cb	0.95779103
40	0x3f800b91	1.000353
41	0x3f764375	0.9619668
42	0x3f873efb	1.0566095
43	0x3f85d9ab	1.0457052
44	0x3f88b5ff	1.0680541

bias f4 [45]
0	0xbd6e3899	-0.058159444
1	0xbd2535cb	-0.040334504
2	0xbde47634	-0.11155358
3	0xbd41c405	-0.04730608
4	0xbd9586f9	-0.073011346
5	0xbd92f9b9	-0.07176537
6	0xbd30d914	-0.04317577
7	0xbde50227	-0.11182051
8	0xbdadef1b	-0.084928714
9	0xbdf7e82a	-0.12104829
10	0xbd305ab9	-0.04305527
11	0xbd82b372	-0.06381883
12	0xbd03113e	-0.031998865
13	0xbe28caa7	-0.16483556
14	0xbda13788	-0.0787192
15	0xbdd6ac1f	-0.10482048
16	0xbdd89c4b	-0.105766855
17	0xbdbf5cdf	-0.09343886
18	0xbe031afb	-0.12803261
19	0xbe0ad694	-0.13558418
20	0xbddf8e69	-0.109158345
21	0xbd974cf5	-0.07387725
22	0xbd8012b9	-0.06253571
23	0xbd30b3db	-0.043140274
24	0xbc9cc2bd	-0.019135827
25	0xbd7c4210	-0.06158644
26	0xbd06adbe	-0.032880537
27	0xbde602cb	-0.112310015
28	0xbd1ed159	-0.03877387
29	0xbda94285	-0.08264641
30	0xbdbfe7d6	-0.09370391
31	0xbe05716c	-0.13031548
32	0xbd1221da	-0.035676815
33	0xbd96a691	-0.07355989
34	0xbdf1c4d9	-0.11805124
35	0xbdb51461	-0.088417776
36	0xbe42923f	-0.19001101
37	0xbd6bec28	-0.057598263
38	0xbd56eed7	-0.05247387
39	0xbd828848	-0.0637365
40	0xbdd31903	-0.10307505
41	0xbdd45d16	-0.10369317
42	0xbcbb71d1	-0.02288142
43	0xbd89c38e	-0.06726752
44	0xbd091748	-0.03346947

running_mean f4 [45]
0	0xbf2c1ae7	-0.6722855
1	0xc002f91b	-2.0464542
2	0xbe5142cd	-0.20435639
3	0xbf66c5c4	-0.90145516
4	0xbf760d2e	-0.9611386
5	0xbfaded6d	-1.3588082
6	0xbeeab5f9	-0.4584196
7	0xbdb260ce	-0.0870987
8	0x3e9f49e1	0.31111053
9	0xbf2be3dd	-0.67144567
10	0xbe15b3a7	-0.14619313
11	0x3f214528	0.6299615
12	0x3cd6361f	0.026148854
13	0xbf44dccd	-0.76899415
14	0xbf73765d	-0.95102483
15	0x3d2eabad	0.04264419
16	0xbea58ea3	-0.32335386
17	0x3e622c93	0.22087316
18	0xbfb560c0	-1.4170151
19	0xbfa6549d	-1.2994572
20	0x3eef2d42	0.46714216
21	0xbf38b45c	-0.72150207
22	0xbe8bcaec	-0.27303255
23	0xbf96b893	-1.1775078
24	0x3bc39718	0.0059689395
25	0xbf98e34e	-1.1944368
26	0xbfb4ba82	-1.4119418
27	0xbe2d7a0b	-0.16941087
28	0xbec68a42	-0.38777357
29	0xbefa7cea	-0.48923427
30	0x3de081c7	0.10962253
31	0xbfdd8867	-1.7307252
32	0xbf908b1f	-1.1292456
33	0xbfcc78c0	-1.597435
34	0x3fc4afa8	1.5366106
35	0xbfd9e444	-1.7022786
36	0xbf4438f7	-0.7664942
37	0xc0453ef9	-3.0819685
38	0xbe37a53c	-0.17934126
39	0xbf8a10d0	-1.0786381
40	0xbf8de6ee	-1.1086099
41	0x3f739bb1	0.9515944
42	0xbf4eecd7	-0.8083014
43	0xbfe3f544	-1.7809224
44	0xc03e2931	-2.9712641

running_var f4 [45]
0	0x3f6ab8dc	0.91688323
1	0x3fab36b4	1.3376069
2	0x3f42fe2c	0.76169086
3	0x3f37362d	0.7156704
4	0x3ffce6c3	1.9757923
5	0x3f28d26c	0.6594608
6	0x3f9caddf	1.2240561
7	0x3f5fb24f	0.8738145
8	0x3f23533f	0.637989
9	0x3f6d6bee	0.9274281
10	0x3f926526	1.1437118
11	0x3f01fb0e	0.50773704
12	0x3efbeb86	0.49203128
13	0x3f452ba6	0.7701973
14	0x3f658218	0.8965163
15	0x3f339c40	0.70160294
16	0x3f7fe520	0.9995899
17	0x3f574d62	0.8410245
18	0x3fa9704e	1.3237398
19	0x3f6ec821	0.9327412
20	0x3f913fbf	1.1347579
21	0x3f57b112	0.8425456
22	0x3fbf4759	1.4943649
23	0x3f9326e9	1.149625
24	0x3f3ec9d7	0.74526733
25	0x3f058f3d	0.5217169
26	0x3fe114f1	1.7584516
27	0x3fa56c7e	1.2923734
28	0x3f560c3d	0.83612424
29	0x3ea72022	0.32641703
30	0x3f08ecde	0.5348643
31	0x3f48fea9	0.7851358
32	0x3f309490	0.6897669
33	0x3f8789c3	1.0588917
34	0x3f326c9a	0.6969696
35	0x3fd110ac	1.6333213
36	0x3f301b8c	0.68792033
37	0x3f91159c	1.133472
38	0x3f810ede	1.0082662
39	0x3f7a6fbf	0.9782676
40	0x3f32de94	0.6987088
41	0x3f133668	0.5750489
42	0x3f89a935	1.0754763
43	0x3f9af637	1.2106389
44	0x3f8a1d1f	1.0790137

weight f4 [18, 45, 5, 5]
0	0xbc94793b	-0.018124213
1	0xbbc7272f	-0.006077669
2	0x3d3a395a	0.04546485
3	0x3d27ec8e	0.04099708
4	0x3d2b0940	0.04175687
5	0xbc6fadc2	-0.014628829
6	0x3c129b9e	0.008948235
7	0xbd708598	-0.058721155
8	0x3a36879a	0.0006962955
9	0x3c61395a	0.013746584
10	0xbcea6500	-0.028612614
11	0xbd500520	-0.050786138
12	0xbd818a13	-0.06325164
13	0xbd29004e	-0.041260056
14	0xbab13586	-0.001351998
15	0xbdb86719	-0.09004039
16	0xbc6e98a9	-0.014562764
17	0xbbc05782	-0.0058698067
18	0xbc1bc802	-0.009508135
19	0x3ce9197e	0.028454538
20	0x3d0ef31b	0.034899812
21	0x3cedd043	0.029029971
22	0x3bcb1fc5	0.0061988556
23	0x3d13309c	0.03593503
24	0x3d6a624d	0.057222653
25	0xbd99e7ce	-0.07514916
26	0xbd05d95c	-0.032677993
27	0xbc9659d7	-0.018353386
28	0xbb4d58e0	-0.0031333491
29	0xbbee6b69	-0.007275988
30	0x3c7e4e6a	0.015521625
31	0x3c9b4933	0.018955803
32	0x3c570ea7	0.013126052
33	0xbb0af467	-0.0021202804
34	0xbc74a0d2	-0.014930921
35	0x3ce45d67	0.027876569
36	0xbb41be16	-0.0029562763
37	0xbc3b1ee8	-0.011420943
38	0xbbca2bdf	-0.0061697806
39	0xbd04f68c	-0.032461688
40	0xbd37c12f	-0.04486197
41	0xbd5d17c7	-0.053977754
42	0xbc552e97	-0.013011596
43	0x3bdcb8ee	0.0067359125
44	0x3c615fca	0.013755748
45	0x3d14b0b4	0.03630133
46	0xba410082	-0.00073624414
47	0xbcce8150	-0.025208145
48	0x3c5f29f1	0.013620839
49	0xbd15067c	-0.036383137
50	0xbbf10d6f	-0.0073563377
51	0xbd15464c	-0.036443993
52	0xbd25ab1d	-0.04044639
53	0x3cb57517	0.02215056
54	0x3caa5a02	0.020794872
55	0x3c9886f1	0.018619033
56	0xbbaa7dfc	-0.005203007
57	0xbc355ab3	-0.011068988
58	0xbc02c6a5	-0.007981931
59	0x3c0ec914	0.008714933
60	0x3b7932fb	0.0038024771
61	0x3d000213	0.031251978
62	0xbc11dae4	-0.008902285
63	0x3ad7f651	0.0016476606
64	0x3c008dfb	0.007846351
65	0xbd89f543	-0.06736233
66	0xbd187a1d	-0.03722583
67	0xbda608ad	-0.081071235
68	0xbcf212d9	-0.029550003
69	0xbce4134c	-0.027841233
70	0x3b1f554c	0.0024312316
71	0x3c814c24	0.015783377
72	0xbca877c2	-0.020564917
73	0xbd0e91cd	-0.034807015
74	0x3d001c85	0.0312772
75	0xbc0d297d	-0.008615849
76	0xbc388fb7	-0.011264733
77	0xbcbd6ebe	-0.023124095
78	0x3b96eeb6	0.0046060933
79	0xbcd29aed	-0.02570864
80	0xbcbcc47c	-0.02304291
81	0xbbf741ab	-0.00754567
82	0xbbc07cf3	-0.00587427
83	0xbc51ead6	-0.012812337
84	0xbce42676	-0.02785037
85	0xbce73590	-0.028223783
86	0x3ae023fc	0.0017100568
87	0x3c85aaa0	0.016316712
88	0xbbbbe3ea	-0.0057339566
89	0xbc57ed07	-0.01317907
90	0xbca37236	-0.019951921
91	0xba732dd7	-0.0009276545
92	0x3cf164a9	0.029466944
93	0xbc90c26f	-0.017670838
94	0x3c112d7a	0.00886094
95	0x3d3d3d47	0.046201017
96	0x3ca5f427	0.020258022
97	0x3cdff8af	0.027340261
98	0x3d31dd82	0.043424137
99	0x3d26b3cf	0.040698823
100	0x3b460523	0.0030215464
101	0xbc8ad6b7	-0.016948087
102	0x3d1892dc	0.03724943
103	0x3cda5a91	0.026654514
104	0x3d06eab5	0.032938678
105	0xbc21832a	-0.009857932
106	0xbd09068f	-0.03345352
107	0xbd73879b	-0.059455495
108	0xbd91b1be	-0.0711398
109	0xbc5fc47f	-0.013657688
110	0x3a0d625f	0.00053933816
111	0xbc081152	-0.008304911
112	0xbd25eb63	-0.040507685
113	0xbd025fdb	-0.031829696
114	0xbdc28726	-0.09498434
115	0xbcaacc24	-0.020849295
116	0x3c1668c5	0.009180252
117	0xbc826dab	-0.015921434
118	0x3d4590b1	0.04823369
119	0x3d3a6cab	0.04551379
120	0x3c2af261	0.010433764
121	0x3d4857ce	0.048911862
122	0x3d8447e1	0.06459022
123	0x3d2ad87a	0.041710354
124	0x3ceb27b2	0.028705452
125	0xbc55a82c	-0.013040584
126	0xbcb1d187	-0.021706356
127	0x3d6f0f2f	0.05836409
128	0x3d585a8b	0.052820724
129	0xbb5d4620	-0.0033763722
130	0x3c2c538b	0.010517965
131	0xbc48870f	-0.012239232
132	0xbc8358a0	-0.01603347
133	0xbb2b4816	-0.0026135496
134	0xbbbad5f5	-0.005701775
135	0x3cb753d6	0.022378843
136	0xba75414d	-0.0009355739
137	0x3c958a10	0.01825431
138	0x3c47df14	0.012199182
139	0x3d256066	0.040375136
140	0x3b2cf2df	0.002638988
141	0x3b4aab95	0.0030925025
142	0xbc5a4757	-0.013322673
143	0x3a4961ac	0.0007682096
144	0xbc6b5c41	-0.014365257
145	0xbd70ea69	-0.0588173
146	0xbabf9355	-0.0014616052
147	0x3c5f1a70	0.013617143
148	0xbcb0c16e	-0.02157661
149	0x3ca8cf47	0.02060665
150	0x3d0437e3	0.03227986
151	0x3c69a03e	0.014259396
152	0xbc427123	-0.011867794
153	0x3bef726d	0.007307342
154	0x3c532a71	0.012888537
155	0x3c84da6f	0.016217439
156	0xbc7b406f	-0.015335186
157	0xbc1b6c0a	-0.009486208
158	0xbd1f4f98	-0.038894266
159	0xbc9480d4	-0.018127836
160	0xbc931d5e	-0.01795834
161	0x3c68f406	0.014218336
162	0x3c9420e0	0.018082082
163	0xbb3fb9ae	-0.002925496
164	0x3c05ec68	0.008174039
165	0x3cd19f58	0.025588676
166	0x3d2837eb	0.041068953
167	0x3d17ea90	0.03708893
168	0x3cd492b4	0.02594886
169	0x3cdaf603	0.026728636
170	0xbc38989c	-0.011266854
171	0x3c36f6f6	0.0111672785
172	0xbd295840	-0.041343927
173	0xbd23bdfb	-0.0399761
174	0xbdb71753	-0.089399956
175	0xbcdb17e8	-0.026744798
176	0x3cc080ec	0.023498975
177	0x3c8b8cac	0.017034851
178	0x3d5c0e7d	0.053724755
179	0x3c9dbc28	0.019254759
180	0xbc6dac85	-0.014506464
181	0x3bb9c533	0.00566926
182	0x3cf58d75	0.029974679
183	0x3d59c1df	0.053163406
184	0x3cf72ba6	0.03017218
185	0xbd04ceb4	-0.03242369
186	0x3aa8be48	0.0012874091
187	0xbc8a2d5c	-0.016867332
188	0x3cd1d529	0.025614338
189	0x3ca6fa73	0.020383095
190	0xbd1a6479	-0.037693474
191	0xbce01f70	-0.02735874
192	0xbc0b5e55	-0.008506377
193	0xbcb8f730	-0.022578806
194	0xbbef2f32	-0.0072993273
195	0x3c2a2443	0.010384622
196	0xbc932900	-0.017963886
197	0x3cdce7ab	0.026965937
198	0x3cc40dd1	0.02393237
199	0x3d10a3ed	0.03531258
200	0xbceca165	-0.028885553
201	0x3c0ea5eb	0.00870655
202	0xbc7bed2a	-0.015376369
203	0x3d01e204	0.031709686
204	0x3c756b5c	0.01497921
205	0x38f30c09	0.00011589385
206	0x3c55b116	0.013042709
207	0xbca336d3	-0.019923603
208	0x3b049543	0.0020230568
209	0xbbc8f986	-0.006133261
210	0x3d3a126a	0.045427717
211	0x3cc39716	0.023875754
212	0x3d01e5af	0.031713184
213	0x3d5cf6a2	0.053946145
214	0x3d31d44f	0.043415364
215	0xbcb13ab0	-0.02163443
216	0xbb9ff49d	-0.004881455
217	0xbbef8ff9	-0.007310864
218	0xbc048d40	-0.008090317
219	0xbd1a0a90	-0.03760773
220	0xbbd91661	-0.006624982
221	0x3cb6c78e	0.022311952
222	0xbb4df5f2	-0.0031427112
223	0x3cc21c62	0.023695175
224	0x3d072c75	0.033001382
225	0xbc7105d5	-0.014710863
226	0xbc98d1a7	-0.018654658
227	0xba21cf75	-0.0006172576
228	0x3c125176	0.008930555
229	0x3d0cd2f4	0.034380868
230	0xbb2fa903	-0.002680362
231	0x3d1e1009	0.03858951
232	0xbc895b03	-0.01676703
233	0xbc544de7	-0.0129580265
234	0x3ce30e62	0.02771682
235	0x3c1b4c87	0.009478695
236	0x3ca0e7b3	0.019641733
237	0xbd0090b4	-0.031388
238	0x3d087dc3	0.03332306
239	0x3bf8878a	0.007584517
240	0x3c4c853b	0.0124829365
241	0xba5ee844	-0.0008503238
242	0xbc292ade	-0.010325162
243	0x3c86172e	0.016368475
244	0x3c5fdea5	0.013663922
245	0xbd2f25e5	-0.04276075
246	0xbc8ac4f2	-0.016939614
247	0xbd41720f	-0.047227915
248	0xbce2829a	-0.027650166
249	0x3c18e786	0.009332543
250	0xbc72efe5	-0.014827703
251	0x3cb4b17f	0.022057293
252	0x3c56d97c	0.013113376
253	0xbb7283c3	-0.0037004806
254	0xbcc1f5fc	-0.023676865
255	0xbc959349	-0.018258708

weight f4 [18]
0	0x3f781254	0.96902966
1	0x3f857589	1.0426494
2	0x3f7b0b68	0.9806428
3	0x3f7df236	0.9919771
4	0x3f87bc98	1.0604429
5	0x3f84c3ac	1.0372214
6	0x3f806f34	1.0033937
7	0x3f73fbb1	0.95305926
8	0x3f7bfb35	0.98430187
9	0x3f84d8c0	1.0378647
10	0x3f855e48	1.0419397
11	0x3f825447	1.018197
12	0x3f81b0d2	1.0132086
13	0x3f86740c	1.0504165
14	0x3f73a726	0.95176923
15	0x3f7c4eb1	0.98557574
16	0x3f7fb5c9	0.9988676
17	0x3f8286b6	1.019736

bias f4 [18]
0	0xbc7ea4a6	-0.015542185
1	0xbcc4a9e5	-0.024006793
2	0xbd92dc59	-0.07170934
3	0xbd80dc1b	-0.06291982
4	0xbd50b03e	-0.050949328
5	0xbd3061c9	-0.043062005
6	0xbc7051d6	-0.014667949
7	0xbdbe3945	-0.09288267
8	0xbc182917	-0.00928714
9	0xbd3ca384	-0.04605438
10	0xbc9442e5	-0.018098304
11	0xbe4224a7	-0.18959294
12	0x3d19df6d	0.03756659
13	0xbd95b4c4	-0.07309869
14	0xbd3110fc	-0.04322909
15	0xbc218e02	-0.009860517
16	0xbcb21736	-0.021739583
17	0xbd7f076b	-0.062262934

running_mean f4 [18]
0	0x3ee5219e	0.4475221
1	0xbfb49ecd	-1.4110962
2	0x406feedf	3.7489545
3	0xc02b5fd4	-2.677724
4	0xc043d09a	-3.059607
5	0xc01777fd	-2.3666985
6	0x3fbd6fc6	1.4799736
7	0x402b39b7	2.6753976
8	0x3ea74d71	0.3267627
9	0xbd885f35	-0.06658784
10	0xc050705d	-3.256858
11	0xbed190ec	-0.4093088
12	0xbf2f2a65	-0.68424064
13	0xbf8c1032	-1.0942442
14	0xbf0aa4dc	-0.54157805
15	0xbf83514f	-1.0259188
16	0x3fde2fd6	1.7358348
17	0x3eb99878	0.36249137

running_var f4 [18]
0	0x3f83203c	1.0244212
1	0x4044ac6c	3.0730238
2	0x3ffedfe2	1.9912074
3	0x4056885b	3.3520725
4	0x4018fd69	2.390467
5	0x4016fb5b	2.3590915
6	0x3fdb801c	1.7148471
7	0x40a9d84d	5.307654
8	0x3fa01d01	1.2508851
9	0x3f9700ce	1.179712
10	0x4089b56d	4.3033967
11	0x3fd20ce6	1.6410186
12	0x3f83aea5	1.0287672
13	0x40771a06	3.8609633
14	0x3fb18b28	1.3870592
15	0x3fb063a2	1.3780406
16	0x403db640	2.9642487
17	0x3f7f99d9	0.9984413

weight f4 [6, 18, 5, 5]
0	0xbd80a58e	-0.06281577
1	0xbc8ef67b	-0.017451515
2	0xbc4a5662	-0.012349697
3	0x3bb91afc	0.0056489687
4	0x3d0d4497	0.03448924
5	0x3dae96e6	0.08524875
6	0xbc3321b3	-0.0109333275
7	0x3c8e91fd	0.017403597
8	0xbc0b3719	-0.008497023
9	0xbab27e3d	-0.0013617944
10	0x3cc098f2	0.02351043
11	0x3c3a64f8	0.011376612
12	0xbad3d15f	-0.001616042
13	0x39d382de	0.0004034256
14	0x3c6ee341	0.014580549
15	0x3bc51373	0.0060142814
16	0xbc815b74	-0.015790679
17	0x3d26d6a5	0.040732045
18	0x3aaac2da	0.0013028041
19	0x3d8b3c4e	0.067986116
20	0x3ccbdf20	0.024886668
21	0x3c8d6706	0.01726104
22	0xbbbfbf78	-0.0058516823
23	0xbd24a43d	-0.040195692
24	0xbd9173e0	-0.071021795
25	0x3d62db0b	0.055384677
26	0x3d85245f	0.06501078
27	0x3d2ec009	0.042663608
28	0x3ca54962	0.020176593
29	0x3d1b0c53	0.03785355
30	0x3d5b4ac6	0.053538106
31	0xba8f347b	-0.0010925675
32	0xbc7b523f	-0.015339433
33	0x3aae6385	0.0013304806
34	0x3d8653f9	0.06558985
35	0x3d876d7f	0.066126816
36	0x3d9ef0b9	0.07760758
37	0x3d649e86	0.055815242
38	0x3cd7b976	0.026333552
39	0x3da17af4	0.078847796
40	0x3d80012b	0.06250223
41	0x3b8fc59b	0.00438757
42	0xbb7519b6	-0.0037399358
43	0xbd12cd47	-0.0358403
44	0x3d6d4893	0.05793054
45	0x3bbcb9a6	0.0057594357
46	0x3ca4fc99	0.02013998
47	0x3d40be31	0.04705638
48	0x3cfd6d54	0.03093592
49	0xbbcaf001	-0.0061931615
50	0x3d996a38	0.07490963
51	0x3d9ed63d	0.077557065
52	0xba3af652	-0.00071320415
53	0xbc8787b5	-0.016544202
54	0x3becc0e8	0.0072251447
55	0x3ce7b1ad	0.028282965
56	0xbb65f2f8	-0.0035087448
57	0xbce95456	-0.028482597
58	0x3b994663	0.00467758
59	0xbd9e3b4b	-0.07726153
60	0x3d102ff1	0.03520197
61	0x39e33dfd	0.00043343
62	0x3d12f46f	0.03587764
63	0x3cca8aff	0.024724482
64	0xbd154402	-0.03644181
65	0x3cdf2ff4	0.027244546
66	0xbd2cb727	-0.042166855
67	0xbc793925	-0.015211378
68	0xbbb2dcb5	-0.0054584392
69	0x3d0d4a62	0.034494765
70	0xbd16c418	-0.036808103
71	0x3cbd517a	0.02311014
72	0xbc241b44	-0.010016266
73	0xbc827d7f	-0.015928982
74	0xbc911477	-0.017709954
75	0x3d2cb836	0.042167865
76	0x3d92a2e7	0.071599774
77	0x3c4b36ef	0.012403234
78	0xbb3e715c	-0.0029059267
79	0xbc851781	-0.01624656
80	0x3d635e75	0.055510003
81	0x3c869446	0.016428124
82	0xbc6c0db1	-0.014407561
83	0x3c12b41c	0.008954074
84	0xbbe4e303	-0.0069850697
85	0x3d3612de	0.044451587
86	0x3d0293dc	0.03187929
87	0x3d6f906e	0.05848735
88	0xbca0ad64	-0.01961393
89	0x3d06ab6c	0.032878324
90	0xbb677743	-0.0035318888
91	0xbc8d1d79	-0.017225968
92	0x3d14fdef	0.036374982
93	0x3cd14126	0.02554376
94	0x3cfaa172	0.030594561
95	0x3d44a0cb	0.048004907
96	0x3d1fb162	0.038987525
97	0xbd32c714	-0.043646887
98	0xbcc73fca	-0.02432241
99	0xbd72ed2a	-0.05930821
100	0x3da7f36d	0.08200727
101	0x3d47b2a8	0.048754364
102	0x3d04e6f8	0.03244683
103	0x3bdeb816	0.006796847
104	0x3d4d3261	0.050096873
105	0x3d164a15	0.036691744
106	0xb9ee8421	-0.0004549334
107	0x3c65c857	0.0140248155
108	0xbbdc4813	-0.006722459
109	0x3d96ad44	0.073572665
110	0x3cbe4188	0.023224607
111	0x3d45f6c9	0.048331056
112	0x3d1acd52	0.037793465
113	0x3bfa4712	0.007637867
114	0xbc2cbc5f	-0.010542958
115	0x3d523337	0.051318374
116	0x3cd7fd66	0.026365947
117	0xbcc5431f	-0.024079857
118	0x3c4a2715	0.012338419
119	0xbc2b798d	-0.010465992
120	0x3aaaba31	0.001302546
121	0x3d4f8b99	0.05067024
122	0x3c72244a	0.01477916
123	0x3cfe33c7	0.031030549
124	0xbc40becd	-0.01176424
125	0xbd1cf584	-0.03832008
126	0xbd279199	-0.040910337
127	0x3d076595	0.03305586
128	0x3c4c5ef1	0.012473808
129	0xbd1ffd97	-0.0390602
130	0xbdbbfa65	-0.09178618
131	0xbd4d44a7	-0.0501143
132	0x3cb0e433	0.021593189
133	0xbd198f04	-0.037489906
134	0xbcffbf15	-0.031219045
135	0x3d16e8cb	0.036843102
136	0x3d01433a	0.031558253
137	0x3bff430c	0.007789975
138	0x3c106595	0.008813282
139	0xbca480ea	-0.020081002
140	0xbd02fedd	-0.031981338
141	0x3c5b4ac6	0.013384527
142	0xbcba9698	-0.022776887
143	0xbcf516d3	-0.02991811
144	0x3c890305	0.016725073
145	0xbd0c6d81	-0.03428412
146	0xbd005706	-0.031332992
147	0xbc72233a	-0.0147789065
148	0xbc810ea1	-0.015754046
149	0xbd487f47	-0.048949506
150	0xbcf9b810	-0.030483276
151	0xbcc89673	-0.024485802
152	0x3c8dee51	0.017325552
153	0x3cb0ec8b	0.021597167
154	0x3d1337de	0.03594195
155	0xbcf34116	-0.029694121
156	0xbd337195	-0.043809492
157	0x3c96b202	0.018395428
158	0xbc854fe0	-0.016273439
159	0xbdb87b23	-0.090078615
160	0xbbf2dd38	-0.0074116252
161	0xbc01818a	-0.00790442
162	0x3d40475a	0.046943046
163	0xbceca671	-0.02888796
164	0xbd7c75be	-0.061635725
165	0x3aefddcc	0.0018300354
166	0x3b6b82b7	0.0035936066
167	0x3c6f2931	0.014597223
168	0xbd1f3381	-0.038867477
169	0xbcecbfe4	-0.028900094
170	0xb9d7556e	-0.00041071646
171	0xbd1b9d58	-0.03799185
172	0xbd1cd4c6	-0.038288854
173	0xbd787ebd	-0.060667742
174	0x3bfcbf53	0.0077132373
175	0xbd2a7337	-0.041613784
176	0x3ca454c1	0.020059945
177	0x3ca635d3	0.020289337
178	0xbceb35e7	-0.028712226
179	0xbd4d6051	-0.050140683
180	0xbd3c4124	-0.04596056
181	0xbd0f63d9	-0.03500733
182	0x3c5a35cc	0.01331849
183	0x3c1c55d9	0.009541952
184	0xbbe658fc	-0.0070296507
185	0x3c92c6f1	0.017917128
186	0xbce1e238	-0.02757369
187	0x3c7e312d	0.015514654
188	0x3c7bd450	0.015370443
189	0xbcf5d519	-0.03000884
190	0x3d3e22f3	0.04642005
191	0x3ccc1dce	0.024916556
192	0x3bb65a63	0.005564974
193	0x3c7c0211	0.015381352
194	0xbc8c2351	-0.017106684
195	0xbcabeb80	-0.020986319
196	0x3d549875	0.051903207
197	0xbb7e0b23	-0.0038763962
198	0xbbd3bea2	-0.006461934
199	0x3d2337e0	0.03984821
200	0xbd1fec20	-0.039043546
201	0xbce921ef	-0.028458564
202	0xbbc5e70e	-0.0060395068
203	0xbd0e9845	-0.034813184
204	0xbd3851cd	-0.044999886
205	0xbc6ab456	-0.014325222
206	0xbcfe52f4	-0.031045415
207	0x3bbb8485	0.0057225847
208	0xbd129dce	-0.035795026
209	0xbd1578c0	-0.03649211
210	0x3d1b5951	0.037926976
211	0x3c04fc3c	0.008116778
212	0xbd273695	-0.040823538
213	0xbd41c161	-0.04730356
214	0xbd268393	-0.040652823
215	0x3d90930f	0.07059299
216	0x3cc8758f	0.024470119
217	0xbb6e9e71	-0.0036410356
218	0x3bf4f4f5	0.00747549
219	0xbbb03972	-0.0053779418
220	0x3d04ea62	0.032450087
221	0x3d22dbf4	0.039760545
222	0x3cb4e2e8	0.022080854
223	0xbc8faf5b	-0.01753967
224	0xbc5d8288	-0.013519891
225	0xbd3c6692	-0.045996256
226	0xbcf4344c	-0.029810093
227	0x3d119b83	0.0355487
228	0x3c9046a4	0.01761181
229	0x3cf6bd02	0.030119423
230	0xbc4103f5	-0.011780729
231	0x3cf2e109	0.02964832
232	0xbd00ba91	-0.031427924
233	0x3b16ea95	0.0023028005
234	0xbda4512d	-0.080232956
235	0xbd04dfac	-0.032439873
236	0xbd507a04	-0.050897613
237	0xbc266259	-0.010155284
238	0xbce7cb2d	-0.028295124
239	0xbd6b8924	-0.057503834
240	0x3d9587dc	0.07301304
241	0xb9cb3667	-0.0003875971
242	0x3c73a97a	0.014871949
243	0x3d5e9d42	0.05434919
244	0xbd67d367	-0.056598093
245	0x3d3e8fbb	0.04652379
246	0xbcee9ac9	-0.029126542
247	0x3d22347f	0.039600845
248	0xbd21ca47	-0.039499547
249	0xbd32dc5e	-0.04366719
250	0x3cd8b3b8	0.026452884
251	0x3d79dc00	0.061000824
252	0x3d86c05f	0.065796606
253	0x3d0ab4aa	0.0338637
254	0x3ca28689	0.019839542
255	0x3d71d513	0.059041094

weight f4 [6]
0	0x3f81afcc	1.0131774
1	0x3f7718ce	0.96522224
2	0x3f72cd28	0.94844294
3	0x3f8dc288	1.1074991
4	0x3f817324	1.0113263
5	0x3f78eadb	0.9723336

bias f4 [6]
0	0xbb5e5adc	-0.0033928668
1	0x3d995569	0.07486994
2	0xbc71c687	-0.014756805
3	0xbc2b6fad	-0.010463637
4	0xbdb9a1a1	-0.090640314
5	0x3dadc427	0.08484679

running_mean f4 [6]
0	0x3ee1fb7a	0.44137174
1	0xbd4c5325	-0.04988398
2	0xbff5e756	-1.9211223
3	0xbcd2295b	-0.025654485
4	0xbf90ef88	-1.1323099
5	0xbeec6bd2	-0.4617601

running_var f4 [6]
0	0x3f8db9fe	1.1072385
1	0x3f888b89	1.0667583
2	0x3ec68b37	0.38778087
3	0x3f03de95	0.5151151
4	0x3eddfee6	0.43358535
5	0x3f356fb3	0.70873564

weight f4 [1, 6, 5, 3]
0	0xbd189760	-0.037253737
1	0xbd7afaa2	-0.06127418
2	0x3d76954a	0.060200967
3	0x3cb3c622	0.021945063
4	0xbcab9c8a	-0.020948667
5	0xbe1f5215	-0.15558656
6	0xbc99fb20	-0.018796504
7	0xbd193225	-0.037401337
8	0xbdae1bd8	-0.085014045
9	0xbdc54557	-0.09632366
10	0x3ae836e1	0.001771655
11	0xb9f735f0	-0.00047151698
12	0x3da55e06	0.08074574
13	0xbc5f05c4	-0.0136122145
14	0x3dd05e4e	0.10174237
15	0xbbbef61a	-0.0058276774
16	0xbd82a99b	-0.06380006
17	0xbc7bbe2f	-0.0153651675
18	0x3d230642	0.03980089
19	0xbc3a0997	-0.011354825
20	0x3d53e747	0.051734235
21	0x3ca2261e	0.019793566
22	0xbc76df7e	-0.015067933
23	0x3d3b9916	0.04580029
24	0x3c7f95e1	0.015599699
25	0x3c11f135	0.008907606
26	0x3cbeadcb	0.02327623
27	0xbcbc28fc	-0.022968762
28	0xbd2c665f	-0.042089816
29	0xbd382342	-0.0449555
30	0x3d0b3cdd	0.03399359
31	0x3ad30de0	0.0016102158
32	0x3bc66717	0.0060547697
33	0xbdaa74cc	-0.083230585
34	0xbc7a676f	-0.01528345
35	0xbd0f1f5a	-0.03494201
36	0xbdaa5ac9	-0.08318097
37	0xbccf3a77	-0.025296433
38	0xbd4d3a25	-0.05010428
39	0x3de26b0a	0.11055572
40	0x3d8d95eb	0.0691336
41	0x3ddbd757	0.10734432
42	0x3cca9af2	0.024732087
43	0xbcc0db27	-0.023542
44	0x3d561b65	0.05227222
45	0xbe534dbc	-0.20635122
46	0x3d00f587	0.031484153
47	0xbe6a1b16	-0.22861895
48	0xbc2b9133	-0.01047163
49	0x3c54f7b8	0.012998514
50	0xbb723a2b	-0.003696094
51	0x3d1cb50f	0.03825861
52	0xbc37e754	-0.0112245865
53	0x3d35b137	0.04435846
54	0x3c832cc7	0.016012562
55	0xbb5f1c34	-0.003404391
56	0x39376c73	0.0001749264
57	0x3be623ff	0.007023334
58	0xbbadeef8	-0.0053080283
59	0x3b825f3f	0.0039786394
60	0xbd8cc513	-0.068735264
61	0x3b4dbc5f	0.0031392795
62	0xbd788534	-0.060673907
63	0x3db765ae	0.08954941
64	0xbb8ed332	-0.0043586725
65	0x3d9f5099	0.07779045
66	0xbe1a3aae	-0.15061447
67	0xbce244c8	-0.027620688
68	0xbe3d9605	-0.18514259
69	0x3c8faf16	0.017539542
70	0x3c8e027e	0.017335173
71	0x3cb40eb7	0.021979673
72	0x3d33b67a	0.043875195
73	0x3cd1edbc	0.025626056
74	0x3d82257a	0.06354804
75	0xbde840d1	-0.11340488
76	0xbdbe1582	-0.09281446
77	0xbe1ab369	-0.15107502
78	0xbd375c9c	-0.044766054
79	0x3b4376c9	0.002982544
80	0xbd27711d	-0.040879358
81	0xbb4095fc	-0.0029386273
82	0xbb173819	-0.0023074208
83	0xbc8ea3f4	-0.017412163
84	0x3cffedf8	0.031241402
85	0xbce0bb21	-0.02743298
86	0x3d47e0df	0.04879844
87	0xbdcb106d	-0.09915242
88	0x3c42d313	0.011891144
89	0xbd818b8b	-0.06325444
