source/models/MelodyTimbreCNN/model_segment_instruments_diff-melodies.pth (torch, 204095 bytes, 31 tensors)

weight f4 [6, 1, 5, 5]
00000000: ee8f 993d 9211 883d e5c4 113e fcd7 1d3e
00000010: 867a b1bd a5f3 bd3d 4033 13bd f612 403e
00000020: 318d 6c3c 6d57 3d3e 5171 7b3d ab2a 0fbe
00000030: 0063 0fbd 9dcb 233e 30bb cdbd e1fa a6bd
00000040: 7f5e 45bd a535 4bbe dffd bd3c e1bd 0f3d
00000050: d753 26be 9cdb 14be 2609 e63b cd84 813d
00000060: 5e43 43be d370 dc3c 1f7d f8bc e358 d33d
00000070: c030 433e 852e 7f3d 27b7 48be f2cb f4bc
00000080: 68df 01bd 07c4 633d fa5b 24be d5a9 ff3d
00000090: 279e 123d 239f 683c 6286 8dbc 078c fb3d
000000a0: 1f6f df3d 0b1d b6bd f938 8abd 4e7a 3ebe
000000b0: d0a4 0e3e 214d a63d 8a3c c1bd 4d40 9a3d
000000c0: 385d 663d cea1 953d 193d 283d b232 fb3d
000000d0: b433 48bd e5d1 4e3e 3c6b 483e 0217 243d
000000e0: 53f0 ee3d 4477 d4bd e2d9 633d 004e 463d
000000f0: 67a2 23be 1e08 7fbd e6f9 c53d 9b4b 133e
00000100: 6971 283e 7ac9 383d 94b4 3cbe ead4 48bc
00000110: befe 173e b772 313c b17b 7dbd 1ef4 163d
00000120: 64c7 31be bdc8 233e 2e8b 103e c357 8bbd
00000130: ee3c 003e cd45 1e3e ac4b 343e db75 52bd
00000140: 8e06 21be 7527 7bbd 9515 dbbd 597c 26be
00000150: 7c47 07be dc55 27bd 03e5 8b3d e250 003e
00000160: b5e7 88bd f5bc 253e 1834 2bbd eb67 203e
00000170: a9f9 1a3e 2466 793c 2a45 39be be15 213e
00000180: faa2 f93d 5352 dfbd 24fd 2fbe b331 38be
00000190: 6ab5 6d3e cf8e 4f3e d8dd 06be 2da0 32be
000001a0: 1c06 fcbd 9495 8dbd 2175 373e e357 3dbe
000001b0: 52d4 8b3c 24a1 063d 1343 dfbc a644 9b3d
000001c0: 286a d5bd 1ada c43d 5f41 423e 3521 343e
000001d0: 0e84 a8bd f670 1abc 69b2 993c b6e7 f23c
000001e0: f708 f6bd f43e 7f3d bcca 2bbe 4b7c 063d
000001f0: e6a0 15be 8658 1fbe 4d93 b5bd 7a15 2fbe
00000200: 85e4 2ebd 6636 21be 0ea2 76bc b955 1cbd
00000210: f0d3 9d3d 80be 8c3d ffd3 2a3e 868c bdbd
00000220: dfae fd3d 6f3c 2d3e 464e 0a3e 13f2 163e
00000230: 5f07 38be 2b9b 04be 801e 36be ae2b 693d
00000240: 5deb 1ebe f24f 163e dde5 bbbd 433c 1a3d
00000250: cb5a 4b3e 4fb9 113e
0.074981555 0.06643976 0.14235266 0.15414423 -0.086659476 0.09274987 -0.035937548 0.18757233
0.0144379595 0.18490382 0.061387364 -0.1398112 -0.035006523 0.15995641 -0.10045469 -0.0815332
-0.04818582 -0.19844683 0.023192344 0.035093192 -0.1624292 -0.145369 0.0070201335 0.06324158
-0.19068667 0.026909268 -0.0303331 0.10319688 0.19061565 0.062300224 -0.19601117 -0.029882405
-0.031707197 0.055606868 -0.16050711 0.12483565 0.035795357 0.014198097 -0.017275993 0.122825675
0.109098665 -0.08892258 -0.06749148 -0.18601343 0.13930058 0.0812018 -0.09435375 0.07531796
0.056241244 0.073062524 0.041073892 0.12265529 -0.048877433 0.20197256 0.19572157 0.040061004
0.11666932 -0.103743106 0.05562771 0.04841423 -0.1597992 -0.0622636 0.09666805 0.1438431
0.16449513 0.045114018 -0.1842826 -0.012257794 0.1484327 0.010830573 -0.06188554 0.036853902
-0.17361218 0.15994544 0.14115593 -0.068038486 0.12523243 0.15456314 0.17606992 -0.051381927
-0.15725157 -0.061316926 -0.10697476 -0.16258372 -0.13210863 -0.040853366 0.0683079 0.12530854
-0.066848196 0.16185363 -0.041797727 0.15664642 0.151343 0.015222106 -0.1809279 0.1573095
0.121892884 -0.10904374 -0.17186409 -0.17987709 0.23213735 0.20269321 -0.13170564 -0.17443915
-0.12305853 -0.069132954 0.17915775 -0.18490557 0.017069016 0.03286852 -0.027253663 0.07581453
-0.10420638 0.09611912 0.1897025 0.17590792 -0.082283124 -0.009426346 0.01876183 0.029651504
-0.12013429 0.062315896 -0.16776556 0.03283338 -0.14612159 -0.15561113 -0.08865986 -0.17098036
-0.042698402 -0.15743408 -0.015053285 -0.03816769 0.077064395 0.068722725 0.16682433 -0.09255318
0.1238687 0.16917585 0.13506421 0.14740781 -0.17971562 -0.12949817 -0.17785072 0.05692642
-0.15519471 0.14678934 -0.09174702 0.037655126 0.19858854 0.14230846

bias f4 [6]
00000000: 3196 363e 79eb 04be 1a92 f8bd 994f 173d
00000010: e5c2 823d 90b9 7dbb
0.17830731 -0.1298045 -0.12137242 0.036941145 0.063848294 -0.003871534

weight f4 [6]
00000000: e8d7 7f3f ce89 6e3f 8899 783f e104 863f
00000010: f272 7f3f b430 853f
0.9993882 0.93179023 0.9710927 1.0470239 0.9978477 1.0405488

bias f4 [6]
00000000: 7694 0ebd 8fbe 64bd a542 a0bd b0c1 03bb
00000010: 101b 533d 55a1 903d
-0.034809552 -0.055845793 -0.078252114 -0.002010446 0.05153948 0.07062022

running_mean f4 [6]
00000000: 2e5a 443e 134c 04be 3c4b ebbd 3f2b 1e3d
00000010: 7d24 893d 770a 38bc
0.19175026 -0.12919645 -0.11488959 0.03861546 0.06696413 -0.011232964

running_var f4 [6]
00000000: c386 373e 9c56 fd3d 2ebe 5e3f a028 5c3d
00000010: fd42 283d 8204 b13d
0.17922501 0.12370035 0.8700894 0.05374968 0.04107951 0.08643438

weight f4 [18, 6, 5, 5]
00000000: 012c 30bd a032 94bc bf9e 673d 18a6 923d
00000010: 7463 963c 5c8f 3dbb 6c4a e3bc 64cd cdbd
00000020: 2a98 073d 37e1 50bd a206 cdba 9a90 873d
00000030: 55c8 82b9 5396 a53c 9955 b23b cbaf ed3b
00000040: e29c d33d 58ee c83c 4f39 e5bc 5112 6b3d
00000050: e0ee 66bd 6952 243d 744e 8ebd 4231 28bd
00000060: fce6 bd3a f999 593d b83e 903d 5eb6 1a3d
00000070: 61a8 e7bb e85c 08bd 3209 bebd 32d7 eebb
00000080: b8bb bfbb ac28 5d3d 74ab 37bc bb9d 013d
00000090: 16fa a93c 6240 083d 332f 783d 1f4d 3dbd
000000a0: 0388 23bd 55d9 103d b066 d83c a2b3 603d
000000b0: e424 873c 8bcc 8e3c a137 89bd f0fd 69bd
000000c0: 1050 79bd b3a0 4d3b 3a34 67bd e0fd 9fbb
000000d0: f8f3 283d 466c 8dbd 6c89 fabc 73a9 a83d
000000e0: 205c 483c 6539 b73c 4371 6e3d ffcf 0f3d
000000f0: fb31 ae3d 9ce8 5ebc b500 a33c 0e66 88bd
00000100: 0fe1 4bbd 6bd9 c63c 3d24 873d fc19 09bd
00000110: 32bb 40bd c759 fdbb a148 28bd 5631 8dbd
00000120: 6755 083d 218f 813d 1a21 88bb 2a6d cbbc
00000130: bd43 ebbc 3654 a0bc 72c3 873c be3c 963d
00000140: bef2 bdbc 98cf 31bc feb8 a43c 9387 55bc
00000150: 6373 1bbd dfa9 56bd 3f89 a9bd 7543 6ebd
00000160: dfc0 573b 83d0 8ebc b393 ebbc 0f98 d4bc
00000170: 4783 50bd e911 953d b137 833b 3854 95bd
00000180: d381 31bd 6da7 04bc e3f7 5a3d 83e8 d43c
00000190: 1625 243d 197c 3c3d 1e73 51bc e1bb 92bd
000001a0: 8335 cebc 359d a1bd 2342 5bbd 6717 34bd
000001b0: 0872 a13d cbd1 25bd 24e8 93bd d99b 36ba
000001c0: 6733 3a3d 53ab e63d 9fe7 87bd 06b3 efbc
000001d0: 82bd de3c 3878 ce3c a50d 5d3d 4524 32bd
000001e0: 3c30 9cbd 0741 c1bd 2055 f4bc 47a8 a73d
000001f0: 3d67 1dbd 9c94 94bc d9ed c8bd f161 dfbd
00000200: 9334 cfbd 01b4 8ebc 9d53 d13d 6193 913d
00000210: f4c7 853d 7750 ea3c 9446 8e3d d6ab 163d
00000220: 1b29 a2bc fb69 8ebc 67b2 3c3c ae7e 59bd
00000230: f284 7ebd 5ffd 95bd 3cca ed3b bceb b0bc
00000240: 133d 023b bdd1 523d 24d9 04bd 00cd 57bc
00000250: b086 673d a6fd 2b3d 2f0a 8ebd 4d94 a33d
00000260: f5f4 813d 2de1 8c3d 721d ac3d a44f c53c
00000270: 0142 9b3d 371d 723d 3081 23bd 95f4 78bd
00000280: a298 c4bc d452 08bc b0ea 893b 6ca3 a73d
00000290: 3353 073d 4f07 db3c 5359 8c3d 9a7e 4abd
000002a0: f8b9 29bd 1b4e 46bc 6751 41bd f9fd 68bd
000002b0: 72a1 c9bd 2010 15bc 9861 cabd cb69 343d
000002c0: cd47 823d e30d dfbc 60fd b53d 063e 953b
000002d0: f798 20bc aaff 593c 9d3a e8bc b0ac 65bd
000002e0: 3511 63bd 468b 653c 583d 8b3d 4384 98bd
000002f0: 93fa c7bb 3d25 40bd a0b1 aabd 48eb 8cbb
00000300: d37a c93c 7720 ffbc 711c 793c 58af 243d
00000310: 538f 93bd a68c a2bd 472a 933d ee64 94bd
00000320: b09e 843d 98c4 783d 8bdd 263d cdd5 ec3c
00000330: 08e9 ddbc f6fc 153d 451b bcbc 3238 0ebd
00000340: c150 60bd 1264 23bd 73b3 123d 845d dbbb
00000350: 36a4 13bc d931 c13d 29dc 4cbd f05f 7fbd
00000360: 2bb6 afbd 5404 06bd e84f c73d 3317 e3bc
00000370: f273 243c 42e1 4dbd 561f 4abd fb0a 86bd
00000380: a7c9 c53b 046b 17bd 5fe7 cfbc fe03 983d
00000390: 59cb 6e3c b721 e43d a40e 74bc fb21 d23c
000003a0: 3b06 4ebd a625 29ba e028 8e3d 4edb f4b8
000003b0: e099 39bd c7e6 5e3d c209 bd3b 706f b93d
000003c0: 0bb5 a7bc 9902 343c 595b aebc d490 b4bc
000003d0: 09a7 6d3d 247d b93d d32b 12bd cbf3 18bd
000003e0: f771 d2bd 4a05 013d 2143 1ebd 0192 47bd
000003f0: 21d4 373a 3899 0d3d 03b4 2c3c 40c7 4abc
-0.043010715 -0.018090546 0.056547876 0.07160586 0.01835797 -0.002892456 -0.027745448 -0.10048941
0.0331041 -0.05099603 -0.0015642236 0.066193774 -0.0002494479 0.020213282 0.005442333 0.007253622
0.103326574 0.024527714 -0.027981428 0.057390515 -0.056380153 0.040117655 -0.069485575 -0.0410626
0.0014488394 0.053125355 0.07043213 0.037771575 -0.007069633 -0.033291727 -0.092790976 -0.007288837
-0.0058512352 0.053993866 -0.011210311 0.031644564 0.020749133 0.033264525 0.060591888 -0.046216127
-0.039924633 0.035363514 0.026416153 0.05485881 0.016497083 0.017431518 -0.067000635 -0.05712694
-0.06086737 0.0031376302 -0.05644629 -0.004882559 0.04124829 -0.06905417 -0.030583106 0.08235445
0.012228996 0.022366235 0.058213484 0.03511047 0.08505627 -0.013605263 0.019897798 -0.066600904
-0.04977518 0.024273595 0.06598709 -0.033472046 -0.047053523 -0.0077316496 -0.04108489 -0.06894176
0.03328457 0.06326128 -0.0041543366 -0.024832327 -0.028718824 -0.019571405 0.016572688 0.073358044
-0.023187038 -0.010852717 0.020107742 -0.013032812 -0.03795184 -0.052408095 -0.08278131 -0.0581698
0.0032921357 -0.01743341 -0.028756952 -0.025951413 -0.050906446 0.07278807 0.0040044417 -0.07291454
-0.0433367 -0.008096558 0.05345906 0.025989776 0.04007443 0.046016786 -0.012783794 -0.07164741
-0.025172 -0.07891313 -0.05352987 -0.04396763 0.07883078 -0.040483277 -0.07222012 -0.0006965972
0.045459177 0.11263146 -0.06635975 -0.02926017 0.027189974 0.02520381 0.05396809 -0.04349162
-0.076263875 -0.09436231 -0.029825747 0.08186393 -0.038428534 -0.018137269 -0.09810991 -0.10907353
-0.101174496 -0.017419817 0.10221026 0.071081884 0.06532279 0.028602822 0.069470555 0.03678497
-0.019794991 -0.01738452 0.011517144 -0.053099327 -0.062138505 -0.07323717 0.007256774 -0.021596782
0.001987283 0.051469553 -0.032433644 -0.013171434 0.056524932 0.041989945 -0.06935536 0.079872705
0.0634555 0.06878886 0.08404054 0.024085827 0.075809486 0.059109893 -0.039918125 -0.060780127
-0.023998562 -0.008320529 0.004208885 0.08185467 0.03303833 0.026736883 0.06852975 -0.049437143
-0.04143712 -0.012103583 -0.047196772 -0.056882832 -0.098452464 -0.009098083 -0.09881896 0.044046205
0.06361351 -0.027228301 0.08886218 0.004554513 -0.009802095 0.013305584 -0.028348261 -0.05607289
-0.05543633 0.014010256 0.0679881 -0.07447102 -0.006102869 -0.046910513 -0.083346605 -0.0043005086
0.0245947 -0.03114341 0.015204535 0.040206283 -0.07205071 -0.07936983 0.07185798 -0.07245813
0.0647558 0.06073436 0.040738624 0.028910542 -0.027088657 0.036618195 -0.022962222 -0.03472156
-0.054764513 -0.039890356 0.035815667 -0.0066944975 -0.009011319 0.09433336 -0.05001465 -0.062347353
-0.08579668 -0.03271897 0.09732038 -0.027721023 0.010037409 -0.05026365 -0.04934629 -0.06545063
0.0060360017 -0.036967292 -0.025378881 0.074226364 0.014574849 0.11139243 -0.014896069 0.025650969
-0.05029891 -0.00064524484 0.0694139 -0.00011675675 -0.045312762 0.054419305 0.0057689855 0.09054458
-0.02047207 0.010986947 -0.021283792 -0.022041716 0.058020625 0.09057072 -0.035686325 -0.037341874
-0.10275643 0.031499185 -0.038638238 -0.048723225 0.00070125057 0.03456995 0.010540965 -0.012376606

bias f4 [18]
00000000: a481 3e3c 8ca8 9cbd 76f2 8a3c bddf b9bc
00000010: 22af 39bc 81dd 7d3d 346b 873d cfff 50bd
00000020: 6cb2 683d 542f 703b f47d acbd 81b8 90bd
00000030: aaf5 8c3c 650f 8ebd 6b4d 06bb 4778 2dbd
00000040: d6ea 6cbd a411 93bd
0.011627588 -0.07649335 0.016961318 -0.022689695 -0.011333259 0.06197882 0.06612244 -0.051025208
0.05681078 0.0036649304 -0.08422461 -0.07066441 0.017206986 -0.0693653 -0.0020492922 -0.042351034
-0.057841145 -0.07181099

weight f4 [18]
00000000: 1935 833f d4cf 783f 44cc 823f 807f 803f
00000010: 69d3 743f 7c75 7e3f 5e7a 833f 83b7 6f3f
00000020: 3ea5 813f 8e86 783f 20c8 863f 55b9 863f
00000030: 9699 803f 4480 7d3f 150e 743f 31f6 783f
00000040: 27bb 823f 648b 823f
1.0250579 0.9719212 1.0218587 1.003891 0.95635086 0.99398017 1.0271719 0.9363939
1.0128553 0.97080314 1.0529823 1.0525309 1.0046871 0.9902384 0.9533399 0.9725066
1.0213364 1.0198789

bias f4 [18]
00000000: cf49 17bd 723f ecbb 7569 58bd 69c2 ad3b
00000010: 07a3 86bd fcd6 2bbd ad67 f0bb 5dcf eabc
00000020: 4696 b5bb edfc 053c 75da 1dbb 1bb6 923c
00000030: 32b6 ecbc 64ed 22bd 8519 c1bd 1c2b bcbc
00000040: be4f 263c 691b b9bb
-0.036935624 -0.0072097117 -0.052834947 0.0053027165 -0.06574064 -0.041953072 -0.007336578 -0.028663332
-0.0055415956 0.008177978 -0.002408651 0.0179091 -0.028895471 -0.039777175 -0.094286956 -0.022969775
0.010150848 -0.0056490195

running_mean f4 [18]
00000000: b20e b4be f7ff abbe b2e0 1fbf a801 f7bd
00000010: 38df 0cbf 2d6d 123f dd4d 8abd fc90 9b3d
00000020: 9385 88bd d3c0 cabe fd7a 2bbf e13d 80be
00000030: cb46 183d f551 c93d b563 14bf f651 7dbe
00000040: f3b3 fbbe 110b f7be
-0.35167462 -0.33593723 -0.6245223 -0.12060863 -0.55028105 0.5719784 -0.067531325 0.07596013
-0.06666102 -0.39600238 -0.6698454 -0.2504721 0.03717689 0.09830085 -0.5796464 -0.24738297
-0.49160728 -0.4825063

running_var f4 [18]
00000000: ac86 523e 0584 083f 7edd 213f fcc5 463e
00000010: 53cd de3e 5175 9a3e 681c 483e f483 9f3e
00000020: a71a 083e e477 8c3e 3a50 513e 4f2c 7f3e
00000030: 9fd5 da3e 776c e43e 98db 293f f7e1 233e
00000040: d6a8 203e 9565 f83d
0.20559186 0.53326446 0.63228595 0.19411463 0.43516025 0.3016763 0.19542086 0.3115536
0.13291417 0.2743522 0.2044076 0.24919246 0.42741105 0.44614002 0.663507 0.16004167
0.15689406 0.1212875

weight f4 [45, 18, 5, 5]
00000000: 593e cebb 19b8 0c3d 3e20 9fbc 32fa c43c
00000010: a534 933d a1e9 163d 9d4d 183c 70e1 923c
00000020: 0dfb 06bd ad63 893d 8637 e43c c434 4bbd
00000030: 4971 283c 6536 52bc e20d 74bb a6d8 cabc
00000040: 2add 98bd 7fca 55bd c018 75bd 5403 4f3d
00000050: be54 cdbb 2586 bd3c bfd6 13bc 5c8c a13b
00000060: f705 cebc 1ddb 853c c662 babb 95ba efbc
00000070: d398 5b3b 5292 1b3d 3b8b 5f3c 2301 983d
00000080: 7e1a 0c3c 7cc9 48bb ccd6 ff3b c2fd 3e3d
00000090: 27e6 843d a69d 2ebc df71 1a3c 8427 c53c
000000a0: b1c3 063d 86f8 7c3c 23fd b7bc 298b 98bd
000000b0: 0c9c 3bbd d8a0 633d 806e 283d 6e33 27bd
000000c0: 98f7 3fbc fc12 93bc de23 5bbc f317 5b3d
000000d0: cc47 6b3d 84eb 613c 48d6 193d 3759 023c
000000e0: 4614 d3bc bcb6 ef3b 8595 873c fb0e 083d
000000f0: 501a adbb d764 dc3c 7baf ba3b 15e6 513c
00000100: e895 a8bc 83b2 01bd 0048 dcbb 78d6 013d
00000110: 6d84 65bd d257 a1bd 974e 083b 657a 163c
00000120: e9e1 eb3c 8e20 093b e11b ac3b 7ab2 50bd
00000130: 19c0 093b 8ecc 4b3d 2f21 e33c 9732 9abb
00000140: 7351 52bd c1bc ccbc 9372 39bc 6cbd 89bc
00000150: d516 a2bc 7502 2dbb ad51 5fba 66ab 85b9
00000160: acf5 38bb f708 e43c 6483 49bd 2d6a c2bc
00000170: 3bc6 96bc dbc6 a7bc abad 6abd 9306 f1bc
00000180: 37fe 19bd b44c 34bc 719f e6bc a056 a7bb
00000190: e983 02bd 8eb8 f8bb 0789 e4bc 4871 9c3b
000001a0: 240f de3b d4d7 8fbc 63b8 b0bb 2709 c63c
000001b0: 35b5 7d3c ddfd 84bb 8463 a53c a351 22bc
000001c0: 2981 c4bc 0ef7 01bd d2ce 23bd 13d7 d93c
000001d0: 41a4 7e3d 4db6 653c ef58 3d3d d0ef 32bc
000001e0: 2e48 603d 2731 903d 4d43 8f3d c034 a43d
000001f0: 45b9 afbc 23ef deb9 fdd6 9abc 054e 053d
00000200: c5f9 f33b e89c 9bbc 6562 41bc e8c1 76bc
00000210: 20c2 06bd cf6e 9f3c 6c23 903c e2e1 6d3a
00000220: be02 83bd 4e82 70bd 2de7 37bd d70d aebc
00000230: cd77 86bb 27c0 8bbd 2543 08bd 56b3 433c
00000240: 7f88 e8bb 298b 1abd c4ec 1a3c d512 fdbc
00000250: 86dc 3e3c 2c64 e03c 8c0f ec3b dee1 25bd
00000260: b113 8e3b 239c d8bb afe5 08bd 492c 87bc
00000270: 9052 8ebc 6a73 f53c 86f5 783d 1d09 c8bc
00000280: 5b45 cbbc 9ed0 05bd e0f9 853b 0f8d 473d
00000290: 11cc e63c e3d0 9b3c b1a6 33bc cbd1 4e3c
000002a0: 7681 303d d874 343d 27f5 f4bb 1260 8abd
000002b0: 56c5 683b 16a1 2dbb 3a75 2dbd 17e9 3fba
000002c0: 961d 053d be50 8a3b 1dbd 4f3c 6d01 723c
000002d0: 522e 023c 4b29 163d a782 f5bc 5385 a43b
000002e0: 60ae 323d df30 a2bb 5845 f5bc 5d7e 06bd
000002f0: 148e 37bd ded8 73bd e6f2 fa3c 6662 c0bb
00000300: 34de 6dbd c21f a73c a171 203c 80c9 febb
00000310: 6e24 afbb 2618 8abd 600a 11bd c9b4 09bd
00000320: cec6 903c 1d54 62ba 169b 4fbd 3dcd 80bb
00000330: 9e6d 403d 249c 1a3d 6c68 5a3d b891 d1bc
00000340: 2487 e2bb 6541 4fbb 0196 583d 2dd7 643c
00000350: 11eb 61bd 1f85 5cbd b1d9 38bd 9500 2e3d
00000360: 50d2 2b3d 099f 64bd 2092 37bd 5d63 18bc
00000370: aafc 473d 7aff 303d ea7a e53b 0928 693d
00000380: 6691 8a3d 243c b03d 8df1 373c ca5a b63b
00000390: 0e1c a0bb b01c c53c 2dd2 a13b 8600 93ba
000003a0: c79c 7ebd 4782 03bc a37d 373d feee cc3b
000003b0: aea5 533c 07cd 02bd 40bd a83c dfb5 3b3c
000003c0: 6afb 9abb e5a4 7cbd a10a b3bd 0723 15bd
000003d0: b934 a7bc 6a90 973c 95ee e03b e521 663d
000003e0: 6d4a df3b 67f9 1d3d 9788 20bd eb4d 763c
000003f0: 5f3c 9a3c d7c1 fa3c f117 043c 945b 76bd
-0.0062940535 0.034355257 -0.019424554 0.024045084 0.071877755 0.0368439 0.009295848 0.017929763
-0.032954264 0.06708465 0.027858507 -0.049610868 0.010280916 -0.0128303515 -0.003723972 -0.02476151
-0.07464059 -0.05219507 -0.059838057 0.050540283 -0.0062662056 0.023135254 -0.009023367 0.004930062
-0.025149329 0.016339833 -0.0056880442 -0.029263774 0.0033507838 0.03798134 0.013644035 0.07422092
0.008551238 -0.0030637672 0.007807588 0.04662872 0.064892106 -0.0106577035 0.009426563 0.024066694
0.03290147 0.015440112 -0.022459572 -0.07448418 -0.045803115 0.055573314 0.041121006 -0.04082053
-0.011716746 -0.017953388 -0.013375251 0.053489637 0.057441518 0.013789061 0.03755787 0.007955841
-0.025766503 0.007315485 0.016550789 0.03321741 -0.0052826777 0.026903553 0.0056971884 0.0128112035
-0.020579293 -0.031664383 -0.0067224503 0.031698674 -0.056034494 -0.078780785 0.0020798796 0.009184455
0.028794246 0.0020923945 0.005252347 -0.05095146 0.002101904 0.049755625 0.027725784 -0.004705738
-0.051347207 -0.024992349 -0.0113188205 -0.016813956 -0.019786278 -0.002639917 -0.00085189455 -0.0002549544
-0.0028222604 0.027836306 -0.04919757 -0.02373227 -0.01840507 -0.020480564 -0.05729453 -0.02942208
-0.037595954 -0.011004616 -0.0281522 -0.005106762 -0.03186408 -0.00759036 -0.027897371 0.0047742464
0.0067767072 -0.01755897 -0.0053930744 0.024174286 0.015485098 -0.004058583 0.020189054 -0.009907159
-0.02398737 -0.03172975 -0.03999216 0.026591813 0.062168363 0.014020515 0.04622739 -0.010921434
0.054756336 0.07040625 0.069952585 0.08017874 -0.021450648 -0.0004252131 -0.018901343 0.03254511
0.0074455463 -0.018995717 -0.011803244 -0.015060879 -0.032899976 0.019462017 0.017595015 0.00090744917
-0.063970074 -0.05871802 -0.0448982 -0.021246834 -0.004103637 -0.068237595 -0.03326716 0.0119446125
-0.0070963497 -0.03773037 0.009455863 -0.030892769 0.011649257 0.027391516 0.007204002 -0.040498607
0.0043358435 -0.00661041 -0.03342217 -0.016500609 -0.017373353 0.02996226 0.060781024 -0.024418408
-0.024813345 -0.032669656 0.0040886253 0.04871851 0.028173478 0.019020503 -0.010965035 0.012623261
0.043092214 0.044056743 -0.0074755135 -0.06756605 0.0035518012 -0.002649372 -0.042348124 -0.0007320805
0.03249892 0.004221051 0.012679365 0.014770848 0.007945614 0.036660474 -0.029969526 0.0050207763
0.04362333 -0.0049496735 -0.029940292 -0.032835353 -0.04481323 -0.059532993 0.030633401 -0.005871105
-0.058073238 0.020400885 0.009792716 -0.0077754855 -0.005344919 -0.06742887 -0.035410285 -0.033619676
0.017672922 -0.00086337497 -0.05068501 -0.0039307163 0.04697954 0.037746564 0.05332224 -0.02558218
-0.0069130827 -0.0031624672 0.05287743 0.0139673175 -0.055155817 -0.05383789 -0.04512948 0.042481024
0.041948617 -0.05581573 -0.04481709 -0.009301034 0.048824944 0.04321239 0.007003178 0.056922946
0.06766014 0.08605221 0.011227024 0.005565022 -0.004886157 0.02406153 0.004938385 -0.0011215366
-0.062161233 -0.008026666 0.04479755 0.006254076 0.012917919 -0.03193381 0.020598054 0.011456936
-0.004729678 -0.061680693 -0.08742262 -0.036410358 -0.020410882 0.01850148 0.0068643787 0.056184668
0.006814292 0.038567927 -0.039192762 0.0150332255 0.018827615 0.030610008 0.008062349 -0.06014593

bias f4 [45]
00000000: 7e00 893b e504 9bbc f157 a3bc 3276 1f3c
00000010: e711 423d 9761 9d3b 3eff 223d e88a 03bb
00000020: b308 ccbc f711 e03b d7cb b53b 98b8 a03b
00000030: 1de3 2bbd 7cc0 d6bc 216b 10bd eddd 01bd
00000040: 1c67 c9bc 05d7 22bd e52a 0d3d bcb5 16bd
00000050: e65a 05bd 5637 013d 1428 ccbc e197 3cbd
00000060: b749 d13c d205 2bbd 6135 f93c f9a7 b8bb
00000070: daf8 563d 9ebc 8a3c b411 613c 37e8 78bc
00000080: 3570 73ba 682e c43c 7cc2 4cbd e7d1 d13c
00000090: 2bc5 fb3c 8450 1d3c cea8 f6bc 33d7 39bd
000000a0: 88c0 4bba 3c68 ef3c c434 adbc 1c05 06bd
000000b0: a945 603b
0.004180967 -0.018923232 -0.019939395 0.00973277 0.047380354 0.0048028934 0.0397942 -0.0020071808
-0.024906492 0.006838079 0.0055479812 0.004904818 -0.04196464 -0.02621483 -0.035258416 -0.031705786
-0.0245853 -0.03975584 0.034464736 -0.03679441 -0.03255739 0.031546913 -0.024921454 -0.04604328
0.025547845 -0.041753598 0.03042096 -0.0056352583 0.052483417 0.016935643 0.013737131 -0.015192083
-0.00092864345 0.02394791 -0.049990162 0.025612785 0.030733665 0.009601716 -0.03010979 -0.045371246
-0.0007772525 0.029224508 -0.021143325 -0.032719716 0.0034221208

weight f4 [45]
00000000: c0d5 843f f70c 823f 2fc4 7d3f 9603 823f
00000010: fd4c 7b3f ba6b 813f 2cfe 813f 30e7 7f3f
00000020: 3c50 813f 5c9d 7f3f 286c 803f 08ca 853f
00000030: 642f 7c3f d0ec 843f c22a 863f 9dab 803f
00000040: d91f 7c3f 17a0 723f 0e89 753f 744d 6f3f
00000050: 6eb4 843f 5ad6 763f ae85 813f 468c 7a3f
00000060: d529 703f 691b 813f 48ad 823f ce47 813f
00000070: bff2 803f 5144 743f 37af 7f3f d6f4 813f
00000080: 004b 7f3f 9149 813f 7dc2 743f 91b5 833f
00000090: 0602 7d3f 3e81 7f3f 8ed8 783f 6f1c 843f
000000a0: a63e 7e3f 61c7 7d3f c6bf 783f 6012 8e3f
000000b0: 04ca 7f3f
1.0377731 1.0160207 0.9912748 1.0157344 0.9816435 1.0111 1.0155692 0.9996214
1.010261 0.99849486 1.0033007 1.045228 0.9850981 1.038477 1.0481799 1.0052372
0.98486096 0.9477553 0.95912254 0.9347756 1.0367563 0.96420825 1.0118921 0.9787029
0.9381383 1.008649 1.0209131 1.0100038 1.007408 0.9541674 0.9987673 1.0152843
0.99723816 1.0100576 0.95609266 1.0289785 0.9883121 0.9980658 0.97205436 1.0321177
0.99314344 0.99132353 0.97167623 1.1099358 0.99917626

bias f4 [45]
00000000: 229c 49bd 81cf 84bd 639e 9dbd c632 213b
00000010: e141 95bd 9b10 92bc 4d3b 6fbd fceb aebd
00000020: 7813 16bd 6208 a3bc 2fd5 b2bd 7331 e7bb
00000030: b749 e5bd 282d 6dbd dc08 a5bd ec40 56bb
00000040: 7738 4cbd 4133 1abe ce69 a9bd 6da0 e2bd
00000050: 4bf4 37bd aebb eabd 3968 e3ba 377c dabd
00000060: bf96 bebd fff7 07bd 1e19 edbd f027 8d3b
00000070: e42f 3cbd 842a 80bc 2de0 3dbd b695 12be
00000080: 70e6 a9bd 5f6e beb9 c977 44bd e2b4 32bc
00000090: 97c9 30bc 903c 4bbd 1fbe 9fbd 07c2 fabc
000000a0: 89a9 82bd 7fd5 10bd f3e3 66bd bf13 97bd
000000b0: 201b e6bc
-0.049221165 -0.06484891 -0.076962255 0.0024596914 -0.07287956 -0.017830184 -0.058406163 -0.08541104
-0.03663966 -0.019901458 -0.08732068 -0.0070554554 -0.111957006 -0.057904392 -0.080583304 -0.0032692505
-0.049858537 -0.15058614 -0.08272134 -0.11065755 -0.04491071 -0.11461578 -0.0017349786 -0.10668223
-0.09306096 -0.033195492 -0.11577056 0.0043077394 -0.04594411 -0.015645273 -0.04635637 -0.14314923
-0.082959056 -0.00036321857 -0.0479658 -0.010907384 -0.01079025 -0.049618304 -0.077999346 -0.030610098
-0.063799925 -0.035359856 -0.056369733 -0.07376813 -0.028089106

running_mean f4 [45]
00000000: 78de 9dbe 02ac 15c0 48b2 94bf 318c c53c
00000010: 901a 3cbf 47ae 79bf 8461 95be 277e 993e
00000020: 74a4 8dbf 91da c5bf 0726 b2bf ef45 c5bf
00000030: e1c3 c5be 1539 abbf f50e 0cbf 86a5 c1be
00000040: b78d 20be f9ee ebbe ac68 c13e 0905 1b3e
00000050: a538 89bf a140 90bf 67d3 d8be 9108 43bf
00000060: e130 53be 558d 2bbf daa8 22bf 81f5 8ebe
00000070: e84c 95bf a4d8 493e 5848 6ebe c93b a6bf
00000080: b233 2dbf e6fa 1f3f d68c 95be eed7 98bf
00000090: 9d1e a8bf c0d5 203f 4efd 1abf 8a7e cf3e
000000a0: 60d3 b3bf e32e f7be 4df2 e23e 9d44 83bf
000000b0: 5c1e 8cbf
-0.30833793 -2.3386235 -1.1616907 0.0241147 -0.7347803 -0.9753155 -0.2917596 0.2997906
-1.1065812 -1.5457326 -1.3917855 -1.5411967 -0.38626006 -1.3376795 -0.5471032 -0.37821597
-0.1567906 -0.4608076 0.3777517 0.1513864 -1.0720412 -1.1269723 -0.42348787 -0.76184946
-0.20624115 -0.6701253 -0.635389 -0.2792168 -1.1664095 0.19711548 -0.23269784 -1.2986995
-0.67657006 0.62492216 -0.29209012 -1.1940897 -1.3134342 0.62826157 -0.6054276 0.4052623
-1.4048882 -0.4827796 0.44325486 -1.0255314 -1.0946765

running_var f4 [45]
00000000: 5730 103f 9bb1 523f 4a5a 163f 2dcb fb3e
00000010: 353b b53e 62a0 cd3e f06a 873f cf2d 183f
00000020: 2c38 ca3e 7782 293f b604 073f 083c 1e3f
00000030: 320c a03e ab57 9f3f fbcd 423f 5698 843e
00000040: aae1 243f a6c8 0f3f 8a24 c83e cf95 363f
00000050: 2ae3 373f 662b 103f 2fe8 b23e 9371 e23e
00000060: 9cb0 133f 4804 df3e 638b bb3e cefc 393f
00000070: d62d 0a3f dc85 043f 6d44 103f 718a 193f
00000080: 87d6 043f e976 1b3f 4b31 cb3e f845 823f
00000090: 9420 ed3e adbe 283f ed94 a23e 9b5a 0e3f
000000a0: 8182 a13e 366f 1c3f 15bf d13e ac62 253f
000000b0: 8678 1e3f
0.5632376 0.82302254 0.5873152 0.49178448 0.35396734 0.40161425 1.057951 0.594449
0.3949598 0.662147 0.52741563 0.6181035 0.31259304 1.2448629 0.7609555 0.25897473
0.64406836 0.5616554 0.39090377 0.7132234 0.71831 0.5631622 0.34942767 0.44227275
0.5769136 0.43557954 0.3662978 0.72651374 0.5397619 0.51766753 0.5635441 0.5997687
0.5188984 0.6072832 0.39686045 1.0177603 0.46313918 0.6591595 0.31754246 0.55607
0.3154488 0.61107194 0.40966097 0.64603686 0.61902654

weight f4 [18, 45, 5, 5]
00000000: 4731 dfbc 545c ecbc b70f f33b 5ca0 673b
00000010: 657b 00bd ba12 1e3c 692b afbc b16c e6bc
00000020: f8d4 c4bc eaeb 8abd 6917 f5bc e3fb 37bd
00000030: 900c b7bc 686e 3cbd 5d69 8cbd b63e 37bc
00000040: 4263 05bd 0857 d23b 8266 f93b e357 66bd
00000050: 3fc8 03bc b842 ffbc ecdc 22bc bce7 e5bc
00000060: 1320 7cbc f5a7 9a3c 82f8 ecbc eefe 81bc
00000070: 10a7 acbc a246 fd3c 2f16 89bc b322 67bd
00000080: 27e1 4dbc 4f0e b8bc f746 3dbc b35e 7dbd
00000090: 968c 32bd 6db7 04bd 4043 05bd ef6c 6cbd
000000a0: 946a 66bd 8b84 5cbd c8eb 80bc de00 97bb
000000b0: c6aa 7abd 7536 11bc ed15 53bd 7dab 8abc
000000c0: 3eea 99bc 4490 fdbc 499d a5bc f9cf 24bc
000000d0: e7dc 1b3b 3caa 703c 05d4 5cbc 6543 44bd
000000e0: 68da 963a 27ba caba 8882 823a 827d 09bd
000000f0: 3997 abbc f486 c2bb 1df0 003c 25c3 45bc
00000100: f551 27bc 3706 68bd 3418 d3bc c590 24bd
00000110: 1a50 ffbc 64ec cbbb da15 0cbd 4b11 3d3b
00000120: 02ee d4bb 63c4 533c 8db9 c53c f3f8 8a3c
00000130: fcb4 293a b334 cf3c 7a4b 9d3c a1af c23b
00000140: fb9f c3bb 61fc 073c 0c90 303c b965 ffba
00000150: 9e44 453d 8daa a8bc 7ad5 373b f9e6 ed3c
00000160: edb1 063d 9524 af3c d743 f3bb e5c1 06bc
00000170: d876 f2bc 6c40 80bc eaa9 243c 0ed2 3bbc
00000180: ef12 753c 27d6 33bc cb5d 183c 0738 bd3b
00000190: 9d3a 4dbc a574 a13c 24d6 4dbb 8233 a7bc
000001a0: fa17 5abc e65d a33c d88d 23bc 6944 a73c
000001b0: f4f9 9ebb 6ff7 98bc 2a8f 85bc 5a98 e7bc
000001c0: e4b1 5e3b 02f0 ebbb 9a05 8fbc f20b ba3b
000001d0: 716f c1bc 771b b4bc 325b 7ebc 3afc adbc
000001e0: c0a2 e6bc a558 8fbc db40 27bd 4dff 1bbd
000001f0: 16f2 45bd e535 0d3d fd46 ed3c e3db 893a
00000200: 72b8 9c3c 7774 e3bc d3e9 343d 02ad 843c
00000210: d8cf d5bb 80bf fa3b 4b15 87bb ed18 7ebc
00000220: d6ac 1d3d 1d21 d7bb 2463 95bc 3cfe 7c3c
00000230: c76d d2bb 53e6 693c 22fe e1ba b3f4 1d3d
00000240: 7d15 9fbb ab9c c73b ecb4 863b 0801 0d3d
00000250: b6a8 79bc 865d 77bc b02e f83b 684b e5bc
00000260: 4d97 e6bc 9c6d 62bb c9c6 9c3b b78f 4ebc
00000270: 4493 80bc 28d0 0abd 425b 343b 2fc1 41bd
00000280: d0fe 533c 9f2b dbbc e107 9dbc 9594 91bc
00000290: c402 863c d078 8cbc e676 e7ba 62b6 d8bc
000002a0: 721d f339 1bdb 05bd 327b 0dbd 6bc6 183c
000002b0: f87e 62bc 635d a73c f666 b9bc 5074 483b
000002c0: 0d64 853c 8ba7 79bb 6877 e5bc a88d 953b
000002d0: 93b1 22ba d2d5 f6bc 98da 31bb 0d9a 6e3c
000002e0: 7511 083b 88f7 09bd e7e7 08bd f334 97bc
000002f0: 14ba c03c 18ad 1abc 71ab ad3c b954 6fbc
00000300: 6210 f8bb c82e 133d bef3 05bd 3354 e0bc
00000310: 17fc 2b3c 872b 24bd 22aa 62bd e4ac a5ba
00000320: 51e6 09bd d87e c0bc 7603 0f3d 5f48 8b3b
00000330: c624 933c 4d6f aa3c 8e71 c23c 9ae9 4e3c
00000340: 0ae8 77bb 8d2e fe3c 57ad fc3c 353b 32bc
00000350: de79 a0bc 97db 99bb 1a2c dcbc 607b 9ebc
00000360: b2d3 a4ba 39fa 0ebd 975d 87bc e76f 0ebd
00000370: 076a daba 1f64 87bc a62d 4dbd ecc2 60bd
00000380: 14d8 29bd 803e a73b 2cfd 01bc 5f19 d0bc
00000390: aa70 13bd bb5a 5bbc f921 11bd c7f9 22bd
000003a0: 79e9 45bd 4e5c d3bb 8e75 2ebd 37f0 d93b
000003b0: dbd6 9d3c 68cd d33c 8549 e63c d455 9bbc
000003c0: 42aa cf3a 4d6f f43c 3f36 953b d1cc 10bd
000003d0: 9357 3abd 9347 4b3c 7d29 b7bc 830a b6bc
000003e0: d428 303c 723f 06bd 7726 b03c 863c 64bb
000003f0: 7ce0 003d 065a a73c 3944 e03c f13e 0c3c
-0.027245177 -0.02885262 0.007417645 0.0035343384 -0.03136768 0.009648019 -0.021383004 -0.028128
-0.024027333 -0.06783278 -0.02991839 -0.044917952 -0.022344857 -0.04600373 -0.06856034 -0.011184385
-0.032565363 0.0064190663 0.007611097 -0.05623616 -0.008043348 -0.031159744 -0.009940367 -0.028064601
-0.015388506 0.018878916 -0.028927092 -0.01586863 -0.021075755 0.03091747 -0.01673421 -0.056429576
-0.0125658875 -0.02246776 -0.011552564 -0.06185789 -0.043591104 -0.03240149 -0.032534838 -0.057721075
-0.056253985 -0.05383734 -0.01573743 -0.0046082577 -0.06119802 -0.008863081 -0.051534582 -0.016927475
-0.018788453 -0.03095258 -0.020216601 -0.01005935 0.002378279 0.014689025 -0.013478284 -0.047915835
0.0011509182 -0.0015466855 0.0009957114 -0.03356696 -0.020946132 -0.005936498 0.0078697475 -0.012070452
-0.010212411 -0.056646552 -0.025768377 -0.040177125 -0.031166125 -0.0062232483 -0.034200527 0.0028849419
-0.0064980993 0.01292524 0.02413633 0.016964411 0.0006473807 0.025293684 0.01920103 0.0059413468
-0.005969999 0.008299918 0.010776531 -0.0019485272 0.04816114 -0.020589137 0.0028050826 0.0290408
0.032884527 0.021379748 -0.0074238586 -0.008224939 -0.029597685 -0.015655719 0.010050276 -0.011463655
0.014958127 -0.010976351 0.009299706 0.0057745012 -0.0125261815 0.01970894 -0.0031408155 -0.020410303
-0.0133113805 0.019942235 -0.009982549 0.020418363 -0.004851574 -0.018672673 -0.016303618 -0.02827089
0.0033980543 -0.007200242 -0.017458726 0.0056776935 -0.02361271 -0.021985753 -0.015524672 -0.021238435
-0.028153777 -0.017498324 -0.040833335 -0.03808527 -0.048326574 0.034475226 0.028964514 0.0010517802
0.01913092 -0.027765496 0.044168305 0.016195778 -0.006525021 0.007652223 -0.0041224114 -0.015508872
0.038494907 -0.0065652267 -0.01823575 0.015441474 -0.006421778 0.014276105 -0.0017241875 0.03856344
-0.0048548565 0.0060916743 0.004110923 0.03442481 -0.015237978 -0.015097981 0.007573925 -0.027990058
-0.028148318 -0.0034550196 0.004784439 -0.0126075065 -0.015695222 -0.03388992 0.0027520214 -0.047303375
0.01293917 -0.026754199 -0.019168796 -0.017771045 0.01635874 -0.017147452 -0.0017659336 -0.026454154
0.0004637051 -0.03267966 -0.034541316 0.00932465 -0.013824217 0.020430272 -0.022632103 0.0030586906
0.01628306 -0.0038094248 -0.028011039 0.004564006 -0.000620627 -0.030131254 -0.0027138349 0.014563096
0.0020762358 -0.03368333 -0.033424284 -0.018457865 0.023526229 -0.009440683 0.021199914 -0.014607602
-0.0075703124 0.035933286 -0.032703154 -0.0273839 0.010497115 -0.040080573 -0.055338033 -0.0012640026
-0.033666912 -0.023497984 0.03491541 0.0042505707 0.01796187 0.020805025 0.023735788 0.012628937
-0.0037827515 0.031028057 0.030844374 -0.010878374 -0.01958936 -0.0046953666 -0.026876498 -0.01934594
-0.0012575297 -0.0349066 -0.01652412 -0.034774687 -0.0016663679 -0.016527234 -0.050092362 -0.054873392
-0.041465834 0.005103886 -0.007933896 -0.025402723 -0.035996117 -0.013388331 -0.03543279 -0.039788987
-0.04831836 -0.0064502126 -0.042592578 0.0066509503 0.01926749 0.025854781 0.028111229 -0.018961824
0.0015843587 0.029838229 0.004553586 -0.03535158 -0.045493674 0.012407201 -0.02235865 -0.02222181
0.010751922 -0.03277535 0.021502716 -0.0034826114 0.031464085 0.020428669 0.027376281 0.008559928

bias f4 [18]
00000000: 1393 e83b 2509 6bbc 7908 28bb ff7f 63bc
00000010: b8c4 7cbc 3f6d 1dbc 04de afbc 4acb a4bc
00000020: 0e52 41bc 2d04 c73b f988 063c 094b d0bb
00000030: ab30 a6b9 ed1b 7fbb a132 9ebc 1e82 9c3c
00000040: ac3e a2bc 5afb ccbc
0.0070976107 -0.014345442 -0.0025639816 -0.013885497 -0.015427761 -0.009608566 -0.02146817 -0.020116467
-0.0117993485 0.006073496 0.008211368 -0.006356601 -0.00031698248 -0.0038926557 -0.019311251 0.019105013
-0.019805275 -0.025022198

weight f4 [18]
00000000: 2cee 813f 7722 7f3f 09c6 863f 1392 813f
00000010: 49a1 833f 0d27 7c3f 7bc4 833f 7eb4 7e3f
00000020: 29ed 723f c5f9 743f 13eb 813f 57df 793f
00000030: 04fb 813f d3c2 773f 4947 7b3f a8aa 783f
00000040: c5e6 7d3f bfd9 803f
1.0150809 0.99661964 1.0529186 1.0122703 1.0283595 0.98497087 1.0294336 0.9949416
0.9489313 0.9569362 1.0149864 0.97606415 1.0154729 0.96781653 0.9815565 0.971354
0.9918025 1.0066451

bias f4 [18]
00000000: 93bb ddbd ee1a a5bd d3c8 e0bc 67f2 29bd
00000010: 4bc2 873c 161d c0bd ebf7 2cbd 0250 27bd
00000020: 0a14 753c 0dce 37be c00e 0bbd 83e1 e5bb
00000030: e44f fcba 5d78 d6bd 670d d4bc 8d8f d5bc
00000040: 880b d4bd db62 8cbc
-0.108267926 -0.08061777 -0.02743951 -0.04149094 0.016572138 -0.09380548 -0.04222862 -0.040847786
0.014958391 -0.17949696 -0.033949614 -0.0070154085 -0.0019249883 -0.10472176 -0.025885297 -0.026069427
-0.10353762 -0.017136982

running_mean f4 [18]
00000000: ecdc 65c0 6d11 eb3f e8fc 4c3e 0b98 d5bf
00000010: 4f1c 18c0 3bd5 8b3e e5fc 75be f1db a4bf
00000020: 0bc1 3740 7213 3a40 f9e2 da3f 466b dabe
00000030: bd47 2bbf c137 963f 9771 733f 7e21 1cc0
00000040: aeb3 0e40 1573 8bbf
-3.591609 1.8364693 0.20018351 -1.6687025 -2.3767278 0.2731112 -0.24022253 -1.2879621
2.8711574 2.9074368 1.7100517 -0.42659968 -0.6690634 1.1735765 0.950952 -2.4395442
2.2297168 -1.0894495

running_var f4 [18]
00000000: 262e 5d3f 6d86 ab3f 0770 8b3f 0061 a93f
00000010: b302 fd3f a9d3 8b3f 0294 a43f 407a ff3f
00000020: 6571 2040 d8dd 773f 3a50 0440 793f dc3f
00000030: c977 0540 b618 b23f fcf7 673f 7fa9 c63f
00000040: 885f c33f 1297 823f
0.8639854 1.3400398 1.0893563 1.3232727 1.9766449 1.0923969 1.2857668 1.9959183
2.506921 0.9682288 2.0673966 1.720687 2.085436 1.3913791 0.9061277 1.5520476
1.5263529 1.0202353

weight f4 [6, 18, 5, 5]
00000000: b27c 11bd 2a38 33bd b43c 8abc 03b1 99bd
00000010: ebbd c43c 0c6c 65bb 88d8 713c a8ff d73c
00000020: 288e efbb 2ea8 1fbd 4b56 bbbc 7428 093d
00000030: 867e 3a3b b4d6 a03c a0c0 bcbc 2078 38bc
00000040: e363 d33c d6cc 2ebc 44f3 9d3c b8fc 223c
00000050: 6b5f 1c3d 3ca7 2bbd 76cd 7ebc 3d4a cfbc
00000060: fd00 b83c 211a e9bb d876 e4bc 66f2 b2bc
00000070: 158a 023b c3f9 9abc b910 8e3d 1364 72bc
00000080: c4f4 473c b60c 2abc 48c9 723d 65c1 4e3c
00000090: f37b 503d 37d6 ccba cd55 9bbb fe1b 833c
000000a0: 2bbf 44bd a4a7 53bc 996d abbc ea86 04ba
000000b0: 5c11 45bc b6b4 023d 7a16 38bc 4b6f 393d
000000c0: 99de ee3c e4c7 84bc fc11 123d 6b35 0d3c
000000d0: e0ed 1b3d f87b 283d c44a 503d d7f5 6c3d
000000e0: 9100 0cbd a62d 103d dafc 8b3d 9816 663d
000000f0: a30d 933c 1cf8 fc3c b686 cbbc 7a4b 093d
00000100: 8ec3 a3bc f9e0 23bc 7f72 603d 38ed 3cbb
00000110: 4f88 33bd 9514 09bc d06f 9fbc a752 80bb
00000120: 4683 0abc aad6 d83b 45a8 c43b 3a9c 9a3c
00000130: c9ce 4fbb a1cb c3bc 473d 73bb 1eba 1dbd
00000140: 1ef1 843c a704 c03b dabd 1d3d a9c6 413b
00000150: cb1a 503d 716c ed3c 6c98 01bd 6441 16bd
00000160: 53c9 f9bc dde4 3a3d 5626 8e3d 0d07 cb3c
00000170: 50d7 773d ca21 2d3b 8932 103d 6062 eb3c
00000180: 5624 e5bc 0f16 18bd df21 0e3c dcb4 183d
00000190: 20a3 c53c ef96 81bb e45c 0cbd 184d e13c
000001a0: b4e6 143d 8d0d 3e3c 6dc2 353d 7540 683c
000001b0: ebd3 593c d793 22bc 5230 82bc ddb7 cbbb
000001c0: 2bbe f7bb ed8b d6bc 7c0b 05bd d64b 35bc
000001d0: 409c d03a a711 873c d0b8 0e3d ccbd 3f3d
000001e0: 8217 423d b260 183d 0081 5a3c 20d2 6a3d
000001f0: 93fd 9b3c 6441 1b3d c292 2b3d fae9 633d
00000200: e859 353c 0b86 f33a 10b1 fe3c 6302 9e3c
00000210: 7260 ef3c 6312 47bc 9b77 0fbd c87a 74bd
00000220: e0b5 43bd dd7a 7cbd 10e6 88bd 56ea 4cbd
00000230: 2531 90bb 8e78 d83b edff 5dbd 295a 94bc
00000240: e29a 89bc 44b3 28bd ce60 1a3c e7ae 4a3c
00000250: d21b 23bd ef11 d73a a02b 1f3d 5b60 02bc
00000260: 644a fb3c 5c86 3d3d 0df5 013d 1006 5d3c
00000270: c61f fb3c 8023 ff3b 3065 febc 286e 9bbc
00000280: 7e35 0ebd 386a fdbc bef8 333d 675b fd3c
00000290: 8a8d 523c a337 3dbd 974f 573c addb 81bc
000002a0: 7b97 bf3a 8661 1f3b 3b99 4f3b 8f26 f5bc
000002b0: 375c 4ebc b294 79bc 23c5 283d 8f18 303c
000002c0: bfc8 4cbd 679f aeb8 5d93 33bd 8b77 dcbb
000002d0: 4f25 1d3d 636b 23bc 6bdb ba3c adfb 843c
000002e0: d3e5 993c 6aea 83bc 5fa0 0cbd ee89 a73c
000002f0: 8d65 b13c 7c17 1abd 09c0 cbbc e075 55bd
00000300: b90e c9bc b7c1 67bd 4da4 37bd 3865 08bd
00000310: d83b 72bd 3186 ba3b adb6 83bc d6b8 5ebc
00000320: a8d9 13bd 06d0 393b 4770 1bbc 4431 773b
00000330: 83ea 87bb be75 8b3c 38d3 a8bc f8a3 dabc
00000340: c13b 043c 75d7 07bd e6b6 653c f907 03bd
00000350: a977 eb3b 5765 2ebc 9beb 96bc 948d aabb
00000360: 5565 2fbd 7ec1 afbc 56e1 bfbc 3aa0 c9bc
00000370: 4806 c23c 0e32 49bc 784c d33c f851 f4bc
00000380: b471 40bc d268 b8bd 8abd ffbb 4e00 56bd
00000390: c5c8 91bc 64a6 5d3c 84ef aebc 2c0c b7bb
000003a0: 71db 24bd 658b a43c 590e 8fbb 735c 1cbc
000003b0: 3802 433c 6b3f 5abc cf3a 1b3c a1b7 b33a
000003c0: d5ca 2a3b 7e1a 08bd 4f21 b03c 5847 ef3a
000003d0: 53f8 143c c4ed 0cbd d362 163b 0706 fe3c
000003e0: 4d6c 033c 13b1 e7bb 5275 22bd 532c 47bc
000003f0: cb0e 473c 239d acbc 9860 66bd 5171 73bd
-0.03551931 -0.043754734 -0.016874649 -0.075044654 0.024016341 -0.0035007028 0.014761098 0.026367024
-0.0073106475 -0.038978748 -0.022868296 0.033485845 0.0028456762 0.019633628 -0.02304107 -0.011259109
0.025804466 -0.010668954 0.019281037 0.009947948 0.038176935 -0.041907534 -0.015551915 -0.025303954
0.022461409 -0.0071137105 -0.0278887 -0.0218441 0.001991873 -0.018917924 0.06936783 -0.014794367
0.012204353 -0.010379007 0.059273988 0.012619351 0.050899457 -0.0015627806 -0.004740453 0.016004559
-0.048033874 -0.012918387 -0.020926284 -0.0005055504 -0.012028065 0.03191062 -0.011235828 0.045272153
0.029158877 -0.016208597 0.035661682 0.008618693 0.038068652 0.04113385 0.050852552 0.05785164
-0.034180228 0.035199784 0.06835337 0.05617389 0.017950838 0.030880027 -0.024844509 0.033519246
-0.019990709 -0.010002368 0.054796692 -0.0028827917 -0.043831166 -0.008366724 -0.019462496 -0.003916103
-0.00845415 0.006617387 0.0060015046 0.018873323 -0.0031708947 -0.023900809 -0.0037115382 -0.038507573
0.016228255 0.0058599296 0.038511135 0.0029567874 0.0508068 0.028982373 -0.0316395 -0.036683455
-0.030491507 0.045628417 0.06940906 0.024783636 0.060508072 0.0026417845 0.035204444 0.028733432
-0.027971428 -0.03713041 0.008675068 0.037281856 0.024125636 -0.0039547603 -0.034268275 0.027502581
0.03635283 0.01159991 0.044374872 0.014175524 0.013295154 -0.009922943 -0.015892182 -0.0062169866
-0.0075605116 -0.026189769 -0.032481655 -0.011065444 0.0015915707 0.01648791 0.03484422 0.046811864
0.0473857 0.03720159 0.01333642 0.057329297 0.019041812 0.03790416 0.041888006 0.05564306
0.011068799 0.0018579377 0.03109029 0.019288247 0.029220793 -0.01215038 -0.035026174 -0.059687406
-0.04778087 -0.06164061 -0.06684506 -0.050028168 -0.0044003897 0.006606168 -0.054199148 -0.018109398
-0.016797487 -0.041186586 0.009422494 0.0123708015 -0.039821453 0.0016408543 0.038859963 -0.007957543
0.03067512 0.046270713 0.03172784 0.013490215 0.0306548 0.0077862144 -0.03105411 -0.018973425
-0.034718983 -0.030934438 0.04393839 0.030927373 0.012851128 -0.046195637 0.013141534 -0.01585182
0.0014617288 0.0024319603 0.0031677026 -0.029925613 -0.012595228 -0.015233206 0.04120363 0.010748043
-0.049996134 -8.3266576e-05 -0.04384171 -0.006728118 0.03836566 -0.009974333 0.022809705 0.01623329
0.018786347 -0.016102988 -0.03433263 0.020451512 0.021654868 -0.037620053 -0.024871843 -0.052114367
-0.024543153 -0.056581225 -0.044834424 -0.033299655 -0.059139103 0.0056922664 -0.016078318 -0.013593873
-0.036096245 0.0028352751 -0.009487218 0.0037718574 -0.004147829 0.017023917 -0.02060853 -0.026689515
0.008070887 -0.03316446 0.014020657 -0.031990025 0.0071858955 -0.0106442785 -0.018422892 -0.0052048657
-0.042821247 -0.021454569 -0.023422878 -0.024612535 0.023684636 -0.01228 0.0257933 -0.029824242
-0.011745859 -0.09004368 -0.0078045772 -0.052246384 -0.01779593 0.01352844 -0.021354444 -0.005586168
-0.040248338 0.020086 -0.004365724 -0.009543526 0.011902384 -0.013320784 0.00947447 0.0013711342
0.0026060839 -0.03322839 0.021500258 0.0018255515 0.009092408 -0.03440644 0.0022947087 0.031008733
0.008021426 -0.0070706694 -0.039662667 -0.012156564 0.012149523 -0.021071022 -0.056244463 -0.05943424

bias f4 [6]
00000000: 4f84 bf3c c837 a5bc fce8 be3c ca51 11bc
00000010: a796 aebc 7782 09bd
0.02337852 -0.0201682 0.023304455 -0.008869598 -0.021312071 -0.033571687

weight f4 [6]
00000000: 132c 643f b1bd 743f 95a4 743f da2e 853f
00000010: eaf0 833f 64fa 853f
0.8912975 0.95601946 0.9556363 1.0404923 1.0307896 1.0467038

bias f4 [6]
00000000: 888d fd3c 5df9 073c e8ad cf3d e348 dcbd
00000010: 6b74 5f3d 45a5 20be
0.030951276 0.008299199 0.10140592 -0.107560895 0.054554384 -0.15688045

running_mean f4 [6]
00000000: 796a b9bf 78d4 88be ba90 64bf 8b15 0f3f
00000010: c7db adbf 4072 4fbf
-1.4485618 -0.267246 -0.89283335 0.55892247 -1.3582696 -0.81033707

running_var f4 [6]
00000000: 4157 403f f0d2 1340 27d9 8a3f 4f17 073f
00000010: 9f00 5c3f 3a9d 023f
0.7513314 2.3097496 1.084752 0.5276994 0.8593845 0.5102116

weight f4 [1, 6, 5, 3]
00000000: 5270 c2bc e17b 2abc 1953 6ebd 9210 ab3d
00000010: bde0 2f3d 8f9b 223c dea7 d6bd 744e 8ebd
00000020: 2629 41bb 2648 90bd 9e88 f33c 4c03 3fbd
00000030: c0a7 e0bc 7e63 1c3d 8540 a4bd 3cad edbb
00000040: 4706 953d 48d6 9e3d 6010 403d 917b 9d3d
00000050: 21f9 b13c f661 7d3d d18e 2dbd a870 6fbd
00000060: 026e 29bd d913 1bbd 74b8 49bd bc8b f3bc
00000070: 15a3 803d 4882 3d3d e542 c63d f004 8c3d
00000080: 033d 183c 8642 4fbd 6efd 9abd 4f9e e4bd
00000090: 685e fcbc 5ef5 a6bc 8ba4 093d 8752 9a3d
000000a0: 56df a8bc f839 e83b 9ce3 723c 355c 673d
000000b0: 84f6 e83c bda2 363e fcea 873d e1cf 0b3e
000000c0: 9674 89bc fac7 c3bc 1348 22bd 4d7e 59bc
000000d0: bb38 1e3a 754a 2ebd 8238 06bd 0c15 d03c
000000e0: e1e4 37bd 2f24 4bbd 2dfa 1a3c 408f 233d
000000f0: 914a 4abe d4f8 4ebd 5581 41be 203a abba
00000100: 3faa 3f3d 4df2 a33c 10a7 943c ab45 babb
00000110: c2d9 f73c 0df5 893c 3424 37bc 355e fb3b
00000120: a142 90bc be32 123d 5ef5 553d 23ec 5f3c
00000130: 8714 da3c 442a e13d 6369 24bd b66b acbb
00000140: 32e1 1ebd 0515 3d3e 99d7 733d f14a 443e
00000150: 11ac 08bc 8eeb 97bc fd8e 8b3b ab26 b13c
00000160: b37d 46bc 24b5 14bc
-0.0237352 -0.010405512 -0.058184717 0.0835277 0.042938937 0.009924783 -0.10481237 -0.069485575
-0.002947399 -0.07045011 0.02972823 -0.046634004 -0.02742374 0.03818082 -0.080201186 -0.007253317
0.07276588 0.07755715 0.046890616 0.07689584 0.02172524 0.061861 -0.04237253 -0.058457047
-0.041364677 -0.037860725 -0.049248174 -0.029729716 0.062811054 0.046266824 0.09680728 0.06836879
0.00929189 -0.05060055 -0.07567869 -0.111630075 -0.030806735 -0.020380672 0.033604186 0.07535272
-0.020614307 0.0070869885 0.014824774 0.05648442 0.02843786 0.17835517 0.066366166 0.13653518
-0.016779225 -0.023899067 -0.039619517 -0.013274741 0.0006035675 -0.042551477 -0.032768734 0.025400661
-0.04489601 -0.049595054 0.009459061 0.039931536 -0.19755007 -0.05053027 -0.18896993 -0.0013063587
0.04679322 0.020012999 0.018146068 -0.0056845746 0.030255202 0.016840482 -0.011178065 0.0076711425
-0.017609896 0.035692923 0.052235954 0.013667139 0.026621116 0.1099439 -0.040139567 -0.0052618636
-0.03878898 0.1846505 0.05953178 0.19169213 -0.008341805 -0.018544938 0.004258989 0.021624884
-0.01211493 -0.00907639
