source/model_single_note_velocityseg.pth (torch, 204095 bytes, 31 tensors)

weight f4 [6, 1, 5, 5]
000000 6f 6e 17 3d 31 09 37 bc dd 99 d3 3c 81 40 8e 3d
       0.036970552 -0.011171625 0.025830204 0.06945897
000010 c0 d7 fc bc 0f ff 1f 3d 1c fc 61 bd 58 f6 29 be
       -0.030864596 0.039061602 -0.05517207 -0.16597879
000020 9b 72 36 3c 0f 61 ac 3a 12 cd 6c 3d a3 04 ba bd
       0.0111357225 0.0013151484 0.057812758 -0.09082916
000030 e9 bf 2a bd 93 1a 2a bd 92 13 98 3d 06 40 3c be
       -0.041686926 -0.04152925 0.07425608 -0.18383798
000040 7e f9 cf 3d 6e a0 1f be 62 b6 f9 3d 1d 10 30 3e
       0.10155009 -0.15588543 0.1219299 0.17193647
000050 d7 f4 d2 bd 0a 16 1a 3e 35 a7 42 bd 6d 63 98 bd
       -0.10300606 0.1504747 -0.047522742 -0.07440839
000060 dc 08 98 bd e0 ce b8 bd 06 cf 29 be e4 04 23 3e
       -0.07423565 -0.09023833 -0.1658288 0.15919834
000070 64 31 1a be e0 43 1a be f4 f8 13 3d 30 29 9a 39
       -0.15057904 -0.15064955 0.036126092 0.00029403856
000080 59 3c c0 bd 16 9e 37 3e 43 92 82 3d 27 e2 78 bd
       -0.093865104 0.17931399 0.063755535 -0.06076255
000090 3a c9 bc 3d d5 2f bd bd cd b5 89 bd dc 3e 7a bd
       0.092180684 -0.09237639 -0.06724129 -0.061095104
0000a0 20 d0 0f bb 0f d5 2f 3e 97 d7 51 3e 02 9e 3f 3e
       -0.002194412 0.17171119 0.20492397 0.18712619
0000b0 b9 d3 13 be 21 00 0e 3d 38 fe 38 3d 69 37 0e be
       -0.14436235 0.03466809 0.045164317 -0.13888325
0000c0 0d f1 00 3e 89 ca 2d 3e 0e 71 91 bd 64 ee 58 bc
       0.12591954 0.16971792 -0.071016416 -0.0132404305
0000d0 33 7c ca bc f8 40 d4 bd 3b b5 f0 bd 68 22 bd 3d
       -0.024717426 -0.10363954 -0.11753317 0.09235078
0000e0 a4 4e 3d 3d 7b 85 15 3d 53 f0 bb 3d 45 4d 30 be
       0.046217576 0.03650425 0.091766976 -0.17216976
0000f0 8d 57 bd bd ac fc eb bd b9 a1 e6 bd e4 bf 2c bd
       -0.092452146 -0.11522803 -0.11261315 -0.04217519
000100 a1 33 35 be 92 8b 26 3e 1e d2 18 3e b3 48 48 3d
       -0.17695476 0.1626418 0.14923903 0.048897456
000110 fa 08 f1 bc 0a 52 ec bd 7a 23 9c b9 d0 2a a0 3c
       -0.029423226 -0.11539085 -0.0002978107 0.019551665
000120 3e dd 53 3d bc c0 4d be dc 77 c4 bd 21 a3 28 3e
       0.051724665 -0.20093054 -0.09593174 0.16468479
000130 34 71 9f 3d 33 fe 2f 3e 56 c5 e6 3d 93 b7 31 be
       0.07785264 0.17186813 0.112681076 -0.17355184
000140 5c b4 9e bd 83 44 b4 bc eb f5 b7 3c db d2 56 bd
       -0.077492446 -0.022005325 0.02245613 -0.05244718
000150 ba ca 38 bc 61 64 d9 bd 98 51 a7 bd d5 ce 33 be
       -0.0112788025 -0.10614849 -0.0816986 -0.17559369
000160 be ae bd 3d 26 7f ad 3d d5 7c 26 bd 75 13 11 be
       0.09261845 0.08471517 -0.040646393 -0.14167579
000170 37 ad 56 be 8f b4 fc 3d a0 c6 6b bc 51 5d a0 3d
       -0.20964514 0.12339126 -0.014390618 0.07830299
000180 93 42 a9 3d db 17 e5 bd 64 02 91 3d 53 78 0b 3e
       0.08264651 -0.11186191 0.07080534 0.13620119
000190 0e a6 9d 3d d3 f5 e3 bd 84 d6 c7 39 27 b4 09 bd
       0.07697688 -0.111308716 0.00038116064 -0.033619072
0001a0 ac 02 18 3d e3 fc 10 3e bf 56 dd bd a5 7e 2e be
       0.037111923 0.14158969 -0.10807561 -0.17040499
0001b0 be ea 1d 3e ab 1b 32 3d 9e 1f e9 3d 61 51 a0 3d
       0.15421578 0.043483417 0.113829836 0.07828022
0001c0 6c bf 02 be f9 52 f4 bc ff d4 d5 3d 41 46 31 3c
       -0.12768334 -0.02982472 0.104410164 0.0108199725
0001d0 62 d4 0b 3e 02 7c c9 3d 40 f1 12 3c 21 33 a0 bd
       0.13655236 0.09838106 0.008968651 -0.07822252
0001e0 c5 db bd bd ee 1a 46 bd c3 fc 53 3c 2a f9 29 be
       -0.09270433 -0.048365526 0.012938681 -0.16598955
0001f0 aa d9 21 3e 52 b6 36 3d 27 6c 37 be f0 f2 e5 3d
       0.15805689 0.044607468 -0.1791235 0.11227977
000200 dc 16 2f 3e f4 3d 49 3e 7d bf 6d 3d a6 77 48 be
       0.17098564 0.1965254 0.058043946 -0.19576892
000210 dc 32 4c 3c 84 26 cb bb ce 89 fa 3d 15 b8 ad 3d
       0.012463298 -0.00619966 0.122333154 0.084823765
000220 69 07 3e 3e a6 a2 09 bd 7b bd 8e bd 87 af 5e bd
       0.18557514 -0.03360238 -0.06969734 -0.054366615
000230 d5 96 ca 3c 8f 0f 7a bd 95 57 5d bd 6e c9 86 bd
       0.024730125 -0.061049994 -0.054038603 -0.065813884
000240 55 55 28 3e 5c 3c 1d 3b a2 9b 5b bd b3 fd 37 3e
       0.16438802 0.0023992276 -0.05361522 0.17967872
000250 60 58 52 bd 07 29 64 3c
       -0.051353812 0.013925797

bias f4 [6]
000000 8f e3 9c 3d 0e 88 35 bc 9f 2e 0b 3c e7 d6 50 bc
       0.07660591 -0.011079801 0.008495002 -0.012746549
000010 2f e8 0f 3e 02 07 22 be
       0.14053415 -0.15822986

weight f4 [6]
000000 4d 6c 80 3f 6e 20 7f 3f 81 1a 7e 3f 83 dd 80 3f
       1.0033051 0.9965886 0.9925919 1.00676
000010 dd 9e 80 3f 7c 9a 7e 3f
       1.0048481 0.99454474

bias f4 [6]
000000 cb 7e f7 ba ec 34 51 bc 71 91 59 bc b2 38 22 3c
       -0.0018882392 -0.012768965 -0.013279305 0.0099012125
000010 f0 9b 7e 38 d2 e3 1c 3b
       6.0703547e-05 0.0023939502

running_mean f4 [6]
000000 5a 9d 9d 3d ab cb ad bc eb 73 44 3c 21 e9 37 bc
       0.07696028 -0.02121528 0.011990528 -0.011225016
000010 35 40 0e 3e 25 54 22 be
       0.1389168 -0.15852411

running_var f4 [6]
000000 5b 9f 58 3d 50 38 04 3e fe 09 12 3f 7e 81 f4 3c
       0.05288635 0.12912107 0.57046497 0.029846903
000010 01 80 4e 3d ac 9e 8f 3e
       0.050415043 0.28050745

weight f4 [18, 6, 5, 5]
000000 7b f0 35 3d 63 a5 09 3b 6a 69 11 bc 94 35 59 bd
       0.044418793 0.002100312 -0.00887523 -0.05302961
000010 09 9e 8b 3d 66 9e 2d 3d cd 74 05 bd e6 d9 52 3c
       0.06817252 0.04238739 -0.032582093 0.012869334
000020 7f 7a 7d 3d 2a ed 26 3d 48 99 78 3c 50 8e 49 3c
       0.0618844 0.04075352 0.015173264 0.012301996
000030 e8 a2 82 bd 90 e9 f9 3c 4c bd 85 bd 7d 64 a0 bd
       -0.06378728 0.03050688 -0.06530246 -0.078316666
000040 f0 2f be 3b ce b6 3c 3c 33 d1 56 3b 27 f2 6b 3d
       0.0058040544 0.011518193 0.00327785 0.05760398
000050 03 cd 63 3d 12 d2 2e 3d fb 92 ad 3c 84 0f 18 3d
       0.055615436 0.042680807 0.02118825 0.03712417
000060 e3 74 6c 3d 09 8b 88 3d 1a 5b 53 bd 24 cd 0e bd
       0.05772866 0.06667144 -0.051600553 -0.034863606
000070 1a 31 09 3d 02 ff 97 3d f2 ce 77 3d 6f f9 96 3d
       0.033494093 0.07421686 0.060500093 0.073717944
000080 8f 73 7b bd 4a 11 30 3d 45 93 91 3c 2c 8c d2 3c
       -0.061389502 0.042985238 0.017770419 0.025701605
000090 31 2f 7f 3d 67 a5 da 3c 8a 3f 36 bd f6 ee 94 bc
       0.062300865 0.026690198 -0.04449419 -0.018180352
0000a0 ce 8a 5a bd 03 87 4d 3d 9e 48 8a 3c 4a 45 1a bd
       -0.05335503 0.050177585 0.01688033 -0.037663735
0000b0 d1 26 50 bd 1e 39 36 3d 59 f1 02 3d 53 c0 00 3d
       -0.05081827 0.044488065 0.03196845 0.031433415
0000c0 30 f4 78 bc 68 6e 5b 3d 51 cb 98 3d 21 1e 0f 3d
       -0.015194938 0.05357209 0.074606545 0.034940843
0000d0 8b f9 8f 3d eb 3f 1a 3c 30 3a 40 bc b9 a9 99 3d
       0.070300184 0.009414653 -0.011732623 0.07503075
0000e0 e9 42 9b 3d c7 38 a8 3d 37 1a 06 3d 3f 9d 8d bd
       0.075811215 0.082139544 0.032739844 -0.06914758
0000f0 63 42 1d bd 10 0e 99 3c d7 9e 88 bd a1 d4 78 bd
       -0.03839339 0.018683463 -0.06670921 -0.060749654
000100 57 43 7f 3d df 17 97 bc 04 61 75 bd d4 97 ed bc
       0.06232008 -0.018444 -0.059906974 -0.029003061
000110 15 66 45 3d c7 fa 53 3d 57 32 1f bd 22 23 09 3d
       0.048193056 0.05175283 -0.038866367 0.03348077
000120 5e 65 a2 b9 fd d8 46 3c 5f f7 97 3c 0b 93 6d 3c
       -0.00030974572 0.012136695 0.018550573 0.01450039
000130 98 90 2f 3d 62 39 7a 3c a1 8b 9a 3c bf 59 6a bd
       0.042862505 0.01527247 0.018865408 -0.057214495
000140 a7 94 4b bc ae c1 8c 3d 67 c5 08 bd e4 ca 9f 3d
       -0.012425578 0.06872879 -0.033391383 0.0780237
000150 17 ef 3a bd 8d 05 ab 3d 84 ef 4a bd dc f9 a4 3d
       -0.04563817 0.08350668 -0.049544826 0.080554694
000160 62 0e 91 bd 51 b7 0d 3c 1a af 1e bc 04 03 0f 3d
       -0.070828214 0.008649663 -0.009685302 0.034914985
000170 9f 36 88 bc 49 05 91 bd c1 a8 52 3d 65 1d 39 bd
       -0.016627608 -0.07081086 0.051430468 -0.04519405
000180 11 5f 3e bd 07 69 02 bd 08 bc 3e bc 00 4b e8 bc
       -0.04647738 -0.031838443 -0.01164151 -0.028356075
000190 40 8b 7e bd 44 21 5f bd b3 39 9e bc 45 a8 37 bc
       -0.062144518 -0.054475084 -0.019314623 -0.011209552
0001a0 d2 43 96 3d ca d2 ad bc bf a0 4f 3c 81 3b 48 3d
       0.073371544 -0.021218676 0.012672602 0.048884872
0001b0 57 30 7a bd b8 fb 4b bd c0 f6 84 bd e5 51 8f bd
       -0.061081257 -0.049800605 -0.06492376 -0.06998042
0001c0 12 57 de bc bf b0 66 3c c1 4d e9 bc 61 46 a2 3d
       -0.027141128 0.0140802255 -0.028479459 0.0792358
0001d0 56 ea 2f 3d 23 cc ec bc 1a d2 37 bd db 61 03 bd
       0.04294809 -0.028905934 -0.044878103 -0.032075744
0001e0 55 ee 9e bc 76 b5 68 3d 5a 88 02 3d f5 29 2d 3d
       -0.019400755 0.05681368 0.031868316 0.04227634
0001f0 d7 f6 93 bd fe 33 6b bd 29 22 99 3c eb 12 83 3d
       -0.07224815 -0.05742263 0.018693047 0.06400093
000200 f9 5b 99 bd 3d b6 63 3d 70 30 4a 3d 9c b1 2f bd
       -0.074882455 0.055593718 0.0493626 -0.04289399
000210 9f f7 bb 3c a1 03 89 3d 51 16 ff bb a3 1c ab 3c
       0.022945223 0.06690145 -0.0077846427 0.020887678
000220 67 8a d8 3c 65 e4 c5 bc 04 d6 42 3c 3d 3b 9e bd
       0.026433183 -0.024156759 0.011891846 -0.077261426
000230 1d 89 2f 3d 9e 9d 63 bd 01 54 90 3b 0b 35 8d 3d
       0.04285537 -0.055570237 0.0044045453 0.06894883
000240 97 89 81 bd 62 8a ae 3b d7 b8 03 3d e8 87 41 3d
       -0.06325071 0.005326555 0.0321587 0.04724875
000250 6b 93 4f bd d1 f3 9e bd 6c 52 eb 3c 9a 67 ae 3d
       -0.050677698 -0.07761348 0.028725825 0.08515854
000260 b4 e3 99 bd a0 ca 1a 3d f0 65 63 3b 93 c0 7a 3d
       -0.07514134 0.037790895 0.003469821 0.06121881
000270 34 f1 dd 3c 4b da 27 bd 3e bd f2 3b 9e 4d 4e bc
       0.027092554 -0.040979665 0.0074078133 -0.012591748
000280 58 6f 7f bd 82 8a 55 3d 2e a8 91 bb d8 0f 84 3c
       -0.062362045 0.052134044 -0.0044450974 0.016120836
000290 d2 ee 1b bd a7 bc 63 3d 78 8d bb bc 4b c3 07 3d
       -0.038069554 0.055599835 -0.022894606 0.03314523
0002a0 7e 9a 5b 3d ed f6 a9 3d 6d 3f 96 bd e1 cb ef 3c
       0.053614132 0.082990505 -0.07336316 0.029272022
0002b0 35 e5 97 bd a7 19 a3 3d c9 01 9f 3d 02 27 a6 3b
       -0.07416765 0.07963877 0.07764012 0.005070568
0002c0 52 5c 16 3d 2f a6 18 bd b5 18 d1 bc 7c 30 f1 3c
       0.036709137 -0.03726786 -0.025524477 0.029442064
0002d0 b1 e5 9c bc 8f 49 0c bc e8 f6 6d 3d c8 42 12 3d
       -0.019152494 -0.00856246 0.058096796 0.03570822
0002e0 f1 10 97 bd 20 10 93 bd 59 1d 85 3c ea ee 25 bd
       -0.07376278 -0.0718081 0.016249346 -0.04051105
0002f0 46 4d 84 bd 03 d1 71 bd 48 30 42 3c d4 f0 77 bc
       -0.06460051 -0.05903722 0.011852331 -0.0151331015
000300 0d 45 84 3d 9c 70 d9 bc 5c 02 17 3c 32 d4 82 3d
       0.06458483 -0.026542954 0.009216871 0.06388129
000310 15 be a0 3c 5e 39 1f bd fe 4f 30 bd 92 58 4e bd
       0.019621888 -0.03887307 -0.043045036 -0.050377436
000320 27 6e 38 3c 1e 9b a4 3c 02 dc 25 bd b9 85 2c 3c
       0.011256731 0.020093497 -0.04049302 0.010529929
000330 c2 fa 73 3d 2c d1 30 3d bb 78 3f bd 1d 70 4c bc
       0.059565313 0.04316823 -0.046745997 -0.012477902
000340 3d 7f 57 3d 2f a8 87 bd e5 dd 9e bd 4e 8b 9f bd
       0.05261158 -0.06623875 -0.07757167 -0.07790242
000350 89 f0 9d bc 8b 22 69 3d b1 c1 5a bd 57 59 91 3b
       -0.019279735 0.05691771 -0.053407375 0.004435699
000360 de 7b 60 bd 5d f7 5e bd 31 dc 08 3d e8 d1 5b bd
       -0.05480563 -0.054435123 0.033413116 -0.05366698
000370 9d de 3e bc 05 1a 6a bc e2 4b 72 3d f3 55 ab bc
       -0.011649755 -0.01428843 0.0591544 -0.020915007
000380 68 42 82 bb 85 92 9f bd 78 c1 7d bd 13 eb 90 bd
       -0.0039752014 -0.07791618 -0.061952084 -0.07076087
000390 0d 84 74 3c d3 ae 0e 3d 46 60 a9 3b 6b 31 be bc
       0.0149240615 0.034834694 0.0051689474 -0.023216924
0003a0 62 73 de 3b d8 94 97 3d d9 81 dc bc 9d 2e a2 3d
       0.006788657 0.074014366 -0.026917385 0.07919047
0003b0 87 88 81 3d d0 1e 18 3d 09 9c 98 bd a4 a3 65 3b
       0.06324869 0.03713876 -0.07451636 0.0035040164
0003c0 49 b1 27 bd 9a c0 10 38 a7 52 8b bd 9e c1 2f 3d
       -0.040940557 3.451165e-05 -0.06802874 0.042909257
0003d0 99 fe 4f 3d d2 1c ad 3c 3b f7 3f 3c c4 29 72 3d
       0.050779913 0.021131907 0.011716659 0.059121862
0003e0 d6 90 62 3d 6f f4 c8 bc cc c0 fd bc 43 a1 23 3d
       0.055313908 -0.024530618 -0.030975722 0.039948713
0003f0 84 f2 a0 bd d4 a6 ae bd 96 eb 8d bd a5 61 aa bd
       -0.07858756 -0.08527914 -0.069297 -0.083194055

bias f4 [18]
000000 0e 69 0f 3d b6 ad 80 3d 1c 8b 7b bc 30 48 c2 3c
       0.035012297 0.06283133 -0.0153529905 0.023716062
000010 cc d3 2b 3c fe 74 a5 bc a9 06 4d bd 2a 1b 22 bd
       0.010487508 -0.020197388 -0.05005518 -0.039576687
000020 9d e7 80 3c 4d 2a 6b 3c ac 2e 0b bb 58 6b ba bb
       0.015735442 0.014353347 -0.0021237535 -0.005689066
000030 64 ad 2d 3a 7a c8 57 bd c9 68 89 39 28 3d 84 bd
       0.00066252635 -0.052681424 0.00026208747 -0.06456977
000040 65 ea 5a bd e7 ef 07 bd
       -0.053446192 -0.033187773

weight f4 [18]
000000 cc 81 81 3f 3d 4d 7e 3f 23 6e 7f 3f 26 4b 7f 3f
       1.0117736 0.99336606 0.9977743 0.9972404
000010 50 d0 7e 3f c6 1d 81 3f ee fa 7e 3f 99 62 7f 3f
       0.9953661 1.0087211 0.9960164 0.99759823
000020 3e 66 7d 3f e6 d0 7f 3f 8e 20 80 3f 7e 34 7e 3f
       0.98984134 0.9992813 1.0009935 0.99298847
000030 5a 4b 81 3f 3b d4 80 3f 74 f5 80 3f d7 17 81 3f
       1.010112 1.0064768 1.0074906 1.00854
000040 84 01 80 3f 9d 5c 81 3f
       1.0000463 1.0106388

bias f4 [18]
000000 c8 6d 39 3b 89 85 69 bc ee 8a 7b 3a df 8e dc b9
       0.0028294194 -0.014253029 0.0009595592 -0.00042068117
000010 5c 14 90 bb cb 4e 02 3c 35 73 94 3b e8 dc 84 bc
       -0.0043969583 0.007953356 0.0045303353 -0.016218618
000020 2c 16 57 bc 64 6a 3f 3c 07 7a be 3b 7b 4f c2 bb
       -0.013127845 0.01168308 0.0058128866 -0.005929885
000030 44 10 57 bc 5e 6e bd 3b f4 4c 06 bc 8f 9c 88 3c
       -0.013126437 0.005780979 -0.008197058 0.016676215
000040 ed b0 1a ba 0d 4b 72 3b
       -0.0005900998 0.0036971003

running_mean f4 [18]
000000 fa b1 b1 3e d1 f8 4a be a5 c7 5d be ca 98 38 be
       0.34706098 -0.19821478 -0.2165819 -0.18027034
000010 9e 07 b7 3e dc f6 16 3f 2d 96 40 be 23 91 02 3e
       0.35748 0.5897043 -0.18807288 0.12750678
000020 02 c8 af 3e a3 20 f4 3d 09 31 d8 3e 3e 33 a2 bc
       0.3433228 0.119202875 0.4222491 -0.019799825
000030 14 6c 23 3f d9 f9 86 be 74 8e c0 bd 2b 06 ee bd
       0.6383679 -0.26362494 -0.09402171 -0.1162227
000040 a1 e2 18 bf 64 d7 a7 be
       -0.5972081 -0.32781518

running_var f4 [18]
000000 dd e7 ae 3d 41 fb 88 3e e1 ca 61 3d 3b 13 a3 3e
       0.08540318 0.26754192 0.05512512 0.3185061
000010 0e 7c 8b 3e ab 8e e2 3d d2 3c b0 3e c3 a1 b1 3e
       0.27243084 0.11062368 0.34421402 0.34693727
000020 b3 49 d3 3d 89 3c ea 3d 79 69 f0 3d 00 42 d7 3d
       0.103167914 0.114373274 0.11738867 0.105106354
000030 04 6b a3 3e e7 52 fa 3e d0 77 5e 3e 31 cc 9e 3e
       0.31917584 0.48891374 0.21725392 0.3101516
000040 51 3a 17 3e ba 62 7b 3e
       0.1476834 0.2454938

weight f4 [45, 18, 5, 5]
000000 ab ae ee bc 87 c0 14 bc 94 71 8f bc 56 20 07 3d
       -0.029136023 -0.009079105 -0.017510213 0.032989822
000010 8b 7d 09 bd 8a 49 de bc 78 1f 20 3d fe 1f b9 3b
       -0.033566993 -0.027134676 0.03909251 0.0056495657
000020 e0 a3 ee bc 0d 46 ec 3c 48 dd b2 3c f2 2d d3 bc
       -0.029130876 0.028841997 0.02183403 -0.025778744
000030 03 c1 4a bc b6 e7 0a 3d 20 12 94 3b 1f 65 0c 3c
       -0.012375119 0.033912383 0.004518762 0.008569031
000040 96 a6 9c 3a b8 c8 93 3c 13 41 2b 3c 29 0b 05 bd
       0.0011951502 0.018040046 0.010452527 -0.032481346
000050 d6 ab 13 3d a4 50 93 bb 11 8f a9 3c b0 a4 f2 bc
       0.036052547 -0.004495697 0.020698102 -0.029619545
000060 81 42 dc 3c 93 ee 07 3d cb 02 4a bd bf 9c 1b bd
       0.02688718 0.033186506 -0.04931907 -0.03799128
000070 35 21 89 3c 0e eb 2a 3d 81 3d bd bc c2 20 c6 3c
       0.016739467 0.041728072 -0.023100616 0.024185542
000080 3d f4 84 bc 56 f1 c6 bc 82 da b9 bc 2d ce 38 bd
       -0.016229743 -0.024285 -0.0226872 -0.0451185
000090 18 da 86 3b 71 f6 77 bc 92 de 09 bd 89 f8 d0 3c
       0.0041153543 -0.01513444 -0.033659525 0.025509136
0000a0 bd b6 0b bd 77 d1 0d bc b1 05 14 3d 3e ea e7 3b
       -0.03410982 -0.008655897 0.03613824 0.0070774844
0000b0 e1 1e 9c bb 1d a1 0b bd 28 b6 40 3b 34 c7 90 3c
       -0.0047644232 -0.034089196 0.0029405449 0.017673112
0000c0 4d b4 2d bd cd 61 06 3d 06 47 31 bd 14 1d fb 3c
       -0.042408276 0.032808114 -0.043280624 0.030653514
0000d0 61 86 bc 3c 66 5a 17 3d 15 27 f5 bc 36 75 74 b8
       0.023013296 0.036951445 -0.029925862 -5.8283294e-05
0000e0 ff 0f f5 3c 4b 68 49 3d 1c d4 d8 3c 05 87 c1 3c
       0.029914854 0.049171727 0.02646833 0.023623953
0000f0 8e e1 da 3c 44 e4 7d 3b 7b cc 35 3c 09 6b 3e bd
       0.026718881 0.0038740793 0.011096115 -0.046488795
000100 2e c7 38 3c d5 ff 30 3d 98 d2 98 3c 48 3e 18 3d
       0.011277957 0.04321273 0.018655106 0.03716877
000110 eb f7 53 3d 23 2f f8 3b 91 e6 eb bc c1 bf 10 bd
       0.051750105 0.0075739785 -0.028796466 -0.03533912
000120 21 9d 03 3d c1 87 19 3d 1c fd 2e 3d b3 4b 26 3d
       0.03213227 0.03748298 0.042721853 0.040599536
000130 c1 84 27 bd 08 d6 2a bc 68 d0 19 3d 48 0e ae 39
       -0.04089809 -0.010427006 0.037552267 0.00033198507
000140 ea be 68 bb 47 57 36 3b ae a3 0a 3d 4a 9d 55 3d
       -0.0035514184 0.0027823017 0.033847503 0.052151956
000150 ff 2b 0f 3c 9b 72 eb bc 37 20 45 3c 73 5f 2f bd
       0.008738517 -0.028741172 0.012031606 -0.042815637
000160 cf 94 ca bc 09 b1 76 bc f0 0f a1 bc 88 c9 b6 3b
       -0.02472916 -0.015056857 -0.01966092 0.0055782236
000170 d8 18 60 bc 3f 9e 65 bb 4f aa 31 3d 3c 96 e1 3b
       -0.013677798 -0.003503695 0.04337531 0.0068843644
000180 cd 34 6d 3d 34 87 63 bc d3 87 b3 3c c2 ee ec ba
       0.057911683 -0.013887215 0.021915352 -0.0018076526
000190 e7 12 92 bc f8 b6 da bc 3d 3f 3c 3d 62 15 34 bc
       -0.017831279 -0.026698574 0.045958746 -0.010991426
0001a0 9c c2 17 3d 28 66 2d bd de cd 48 bc 3b 95 1c bc
       0.03705083 -0.042333752 -0.012256114 -0.009557064
0001b0 59 75 95 bc 29 43 ae 3b 9c 9d 14 bd 84 dd d1 3c
       -0.018244432 0.0053180647 -0.03628312 0.025618322
0001c0 82 98 01 3d 9a 37 0b bc 78 d8 ad bb cc 94 41 bd
       0.031639583 -0.008497143 -0.005305346 -0.047261044
0001d0 27 e1 1e bd b6 ec 35 3d 34 67 16 bd 0f 13 f7 3c
       -0.03878894 0.0444152 -0.036719516 0.030160455
0001e0 7b 57 04 bd d1 b9 f7 bc bc c1 20 3d 7a 1e e2 bc
       -0.03230999 -0.030239971 0.03924726 -0.027602423
0001f0 36 83 91 3c 8a 5a cf 3c 16 f6 f8 3b 7c d3 62 3c
       0.017762762 0.025311727 0.007597695 0.013844367
000200 1e db 81 bb 72 3b 8d bc 7c 06 ea bc b4 be 00 3d
       -0.0039628884 -0.01724026 -0.028567545 0.03143187
000210 f2 2c 21 bd ca 89 f4 3c 10 8e 5c 3d 53 89 2d 3d
       -0.039349504 0.02985086 0.05384642 0.04236729
000220 ea 71 85 3c bc 0b d7 3c b1 80 bc bc d0 fc 35 bd
       0.01628967 0.026250713 -0.023010584 -0.044430554
000230 d0 40 27 bc 69 be 16 3b ba 0c e7 3c 94 61 8f bc
       -0.010208324 0.0023001677 0.02820431 -0.017502584
000240 b3 db ad 3c 09 c9 2f 3d 0d bf 1a 3d a9 3d b3 3c
       0.021222925 0.04291633 0.037779856 0.021879988
000250 72 6f 02 3d 64 cc 03 bc 1f 26 12 3c 82 0f 6d bc
       0.031844564 -0.008044336 0.008920222 -0.014469029
000260 29 fd 21 3c 1c 4b d0 3c 64 8a cd 3c c9 d9 81 38
       0.009887018 0.02542644 0.025090404 6.191765e-05
000270 4b 0e 53 bc 2a e7 99 bb 57 2f 20 3d 87 3e 85 3b
       -0.012881826 -0.0046967464 0.039107647 0.0040662917
000280 b6 60 47 bc 30 3d f6 3c 94 9b 8e bc 36 33 b7 bb
       -0.012169054 0.030058473 -0.01740817 -0.0055908216
000290 0f b9 88 3c fd e9 e3 3c ac 6c 1e 3d ab 57 0a 3d
       0.016689805 0.027821535 0.038677856 0.033775013
0002a0 56 34 2c bd 41 18 a3 bb 40 b2 64 bc 7e 0c 36 3c
       -0.0420421 -0.0049772565 -0.013958514 0.011111377
0002b0 52 d7 71 3a 1a 9b 2e bc eb da d0 3b 4f 8c 67 b9
       0.00092255056 -0.010657096 0.0063737533 -0.00022082146
0002c0 29 94 0f 3d 13 3d 4a 3c 63 0c 34 3d f3 16 34 3b
       0.035053406 0.012343663 0.043957125 0.00274795
0002d0 62 9e d6 3c 65 46 26 3d 6a 3a 87 3b 8d 6f 6f 3d
       0.02619857 0.040594477 0.0041268365 0.058455992
0002e0 8b 9c d0 3b 14 50 2c bd b9 58 16 3c 23 ac 90 bc
       0.0063663176 -0.042068556 0.009176427 -0.017660206
0002f0 e8 f9 08 bd 57 4a 2a bd 4d 17 07 bd 0c 4f a9 3c
       -0.033441454 -0.041574802 -0.032981206 0.020667575
000300 7a e9 d5 3c 5c ba a7 3b df 36 44 3d 72 69 39 bd
       0.026112307 0.0051186513 0.04790389 -0.045266576
000310 01 69 8c bc 61 67 56 bc f5 20 5e 3c 64 82 0b 3d
       -0.017139914 -0.013086171 0.013557662 0.034059897
000320 6e a3 94 3c d0 1d fe 3c 3e e9 d8 3c 54 de 3d bd
       0.018144336 0.031020075 0.026478406 -0.046354607
000330 83 0c ac bc 34 d4 de bc 50 21 2e bd dc 9f d4 bc
       -0.02100206 -0.027200796 -0.042512238 -0.025955133
000340 b1 d1 fb bc 0a 02 a5 bc cb 21 1b 3d a8 70 c0 bc
       -0.030739637 -0.020142574 0.037874024 -0.023491219
000350 5e 3d 0c bd 44 c3 35 3c 53 db ad 3a dc 34 6a 3d
       -0.03423821 0.011093918 0.0013264216 0.057179317
000360 02 9f 50 3c 64 ff d6 bb fd 5e 69 3d e8 a2 18 3c
       0.012733223 -0.0065612067 0.056975354 0.009316184
000370 64 15 14 bb 24 ea 18 3d 23 d3 7e bc ac 61 26 bd
       -0.0022595758 0.03733267 -0.015553269 -0.04062049
000380 f5 4d 50 bd 9a ad f2 bc 12 9d 13 bd a8 da 2b bd
       -0.050855596 -0.029623795 -0.036038466 -0.041956574
000390 64 da 20 bd 20 b6 24 bd 43 df 3c bd 30 45 40 3d
       -0.039270774 -0.04021275 -0.046111356 0.046940982
0003a0 a4 cb e1 bc 85 fe d2 bc fa 90 08 3d 47 6e 35 bc
       -0.027562924 -0.02575613 0.033341385 -0.011073655
0003b0 22 ba 01 bd 18 49 9f 3c d1 6b 43 3c 42 a1 0c 3d
       -0.03167165 0.019444034 0.011927561 0.034333475
0003c0 04 7e f2 3c 6d 80 e5 bb 3b 4d a2 3c 1f dc 63 3c
       0.029601105 -0.007003835 0.019812217 0.013907461
0003d0 f5 87 45 bd c5 2a 22 bd 78 86 15 bc da c5 52 3b
       -0.04822536 -0.03959157 -0.009126298 0.0032161386
0003e0 5d 80 20 3b 1b df aa bc 6f 74 62 b9 74 80 8e ba
       0.0024490573 -0.020858338 -0.00021596414 -0.0010872022
0003f0 ef 73 ef 3c 13 50 65 bd a3 36 53 bc 52 c7 8c bc
       0.029230086 -0.055984568 -0.012891444 -0.017184887

bias f4 [45]
000000 a8 64 3e 3d a3 24 8b bb fa 3f 41 3d 67 cf d1 3c
       0.046482712 -0.004246311 0.047180153 0.025611592
000010 9a 7b 15 bd 55 50 7e 3b dd 91 1a 3b fe 92 5c 3c
       -0.03649483 0.0038805206 0.0023585476 0.01346278
000020 5c ec 4c bc de 10 92 3b 44 9f 54 3c 5b 7f 8d bb
       -0.012507524 0.004457577 0.012977425 -0.0043181605
000030 07 7a ee 3b 1a 6c 3d 3c 83 24 0f 3d 33 8f cb bc
       0.0072777304 0.011561418 0.03494693 -0.024848556
000040 d7 cd fb bc 00 9e b5 bc 0b 6f fa 3c c1 b7 2d bc
       -0.0307378 -0.022170067 0.030570528 -0.010602892
000050 ce 3c 13 3d 61 e0 f7 bc d0 5f 5d 3c 2d 94 32 bd
       0.03594666 -0.03025836 0.013511613 -0.043598343
000060 05 b4 08 bd 88 3b 1c 3d a5 97 47 bd 9d 50 1e bd
       -0.033374805 0.03814271 -0.048728604 -0.038651098
000070 8b c9 95 bc 72 3e 2b bd 43 1e b5 3c a4 ff 95 bc
       -0.01828458 -0.0418076 0.022109156 -0.018310376
000080 44 4d 0a bd 74 6c ab bc 66 67 cd bc 35 d4 8b 3c
       -0.033765092 -0.020925738 -0.025073718 0.017068962
000090 eb c1 3f bc 1b 8f 2a bd 1a f1 3b bc f7 29 d8 bc
       -0.0117039485 -0.041640382 -0.011471057 -0.026387198
0000a0 ab 52 25 3d 9a 64 02 3d a2 58 63 3b c7 a8 83 bc
       0.04036204 0.031834222 0.003469028 -0.01607169
0000b0 c5 41 b0 3c
       0.021515736

weight f4 [45]
000000 8a 8c 7e 3f 03 80 80 3f da 45 7f 3f 13 92 80 3f
       0.99433196 1.0039066 0.9971596 1.0044578
000010 76 78 7d 3f 4e 16 80 3f 1a 89 80 3f b6 4a 80 3f
       0.99011934 1.0006807 1.004184 1.00228
000020 69 fb 80 3f 55 fa 80 3f 0a e8 80 3f e8 98 80 3f
       1.0076724 1.0076395 1.0070813 1.0046663
000030 83 23 81 3f 7e 25 7e 3f f0 f2 81 3f 9d 4b 80 3f
       1.0088962 0.9927596 1.0152264 1.0023075
000040 b7 63 7d 3f 00 28 80 3f 4d ad 80 3f c7 e1 7d 3f
       0.9898028 1.0012207 1.0052887 0.99172634
000050 93 13 80 3f 5e 9e 7f 3f 62 92 81 3f 1f a7 80 3f
       1.0005974 0.99851024 1.0122797 1.0051001
000060 92 af 7c 3f a4 4d 80 3f 4d 04 7f 3f 59 50 7e 3f
       0.987054 1.0023694 0.9961594 0.9934135
000070 cd 34 82 3f 45 e0 7c 3f bb 93 80 3f 1b 67 7e 3f
       1.0172364 0.9877971 1.0045084 0.99376076
000080 0e 8f 7f 3f 5d ad 81 3f 4a bc 7f 3f 97 b0 7d 3f
       0.9982766 1.0131031 0.9989668 0.9909758
000090 83 53 80 3f e1 a0 7f 3f a3 af 79 3f 6a 80 80 3f
       1.0025486 0.99854857 0.97533625 1.0039189
0000a0 26 84 7d 3f b5 45 7c 3f 13 6d 81 3f bd 51 7d 3f
       0.9902977 0.98543864 1.0111412 0.9895285
0000b0 83 0b 7f 3f
       0.9962694

bias f4 [45]
000000 4d 9e 0a bc 54 9e 7a bc 40 45 f2 3b c0 6b e2 3a
       -0.008460593 -0.015296537 0.007393509 0.0017274544
000010 56 31 c8 bb df 90 5d bb 05 06 51 bc 9e da 5e b7
       -0.006109397 -0.0033808274 -0.012757783 -1.3283132e-05
000020 b1 1e 0f bb 59 4a be 3b 28 3f 6c 3b 74 0b 8e b9
       -0.0021838362 0.005807203 0.0036048386 -0.00027092884
000030 35 f3 30 3c 52 21 4e 3a d4 63 48 bc 84 77 2a bc
       0.010800173 0.00078632415 -0.012230832 -0.010404471
000040 6b ea 0f bc b2 8c c6 ba e4 2c 26 3c f0 29 e1 bb
       -0.008783917 -0.0015148132 0.010142539 -0.0068714544
000050 86 df 10 bc d4 bb 02 3c b9 5b 1c 3c 2b 0d 92 bc
       -0.008842355 0.007979352 0.009543353 -0.017828545
000060 3c 88 7c bc 76 d0 a8 bb 77 63 1f 3a 49 5c 75 bb
       -0.01541334 -0.0051518036 0.000608019 -0.003743904
000070 4a 29 3f 3c 5b a0 2f 3b 3b 42 7c 3a 3f 2d 2f bb
       0.011667559 0.002679846 0.0009622906 -0.002672985
000080 4e 74 2c bc a5 b6 df bb 77 fd 38 3b 12 85 87 3b
       -0.010525776 -0.006827193 0.0028227249 0.0041357363
000090 81 56 d9 3b 16 39 24 bc c2 56 78 bc 1c ec 60 3b
       0.0066326265 -0.010023376 -0.015157403 0.003432042
0000a0 3b 14 1b 3a 46 65 44 bc ba ab 61 bc fb 71 09 bb
       0.00059157953 -0.011987036 -0.013773853 -0.0020972479
0000b0 01 82 a8 bb
       -0.005142451

running_mean f4 [45]
000000 96 9f 07 3f 9f b2 fa 3d 5f d9 c4 bf 00 c0 58 3e
       0.52977884 0.122411005 -1.5378836 0.21166992
000010 26 a2 c5 be 07 a8 9d bf df 70 94 3e 6b 4e 80 3f
       -0.38600272 -1.2316903 0.28992364 1.0023931
000020 44 55 9b be 28 2e 1b 3e 1c 19 91 be 2e 85 0f bf
       -0.3033849 0.15154326 -0.2833947 -0.5606259
000030 cc 3f 8a be 80 79 40 bf f9 54 08 bf 0e cb 43 3e
       -0.27001798 -0.75185394 -0.5325466 0.19120428
000040 69 ee 51 3c 25 24 55 3f 8e 29 70 bc bc 81 0a 3f
       0.012813189 0.8325828 -0.014658345 0.5410421
000050 2a d3 7d 3f ce 8d ce bd bd 52 93 bd a2 0a b2 be
       0.99150336 -0.10085641 -0.071935154 -0.34773737
000060 c8 b6 94 be 29 26 ee be b0 4d aa bf 81 fb c6 be
       -0.290457 -0.4651349 -1.3304958 -0.38863757
000070 df c8 2b bf 99 4e 43 bf 3e dc 41 3e 3f 39 cf bf
       -0.6710338 -0.76291806 0.18931672 -1.6189345
000080 de 5c a4 bf 27 d4 1c bf 6f 43 05 be bd 21 36 bf
       -1.2840841 -0.6126122 -0.13014005 -0.7114523
000090 3b 73 4a bf a8 de 69 3e ac 70 a3 bf c5 04 05 3e
       -0.7908208 0.22838843 -1.276876 0.129901
0000a0 e6 65 f2 3d 9c e4 37 3f a1 28 80 3e 0b 51 fe 3e
       0.11835842 0.71833205 0.25030997 0.49671206
0000b0 dc ce 8e bf
       -1.1156878

running_var f4 [45]
000000 88 6c d3 3e 87 18 92 3e fe 47 77 3f fc eb 42 3e
       0.4129374 0.28534338 0.96594226 0.19035333
000010 58 70 f0 3e ed 1f 4c 3f d9 c3 9c 3e b8 00 9f 3e
       0.4696071 0.79736215 0.3061817 0.31055236
000020 c1 8a af 3e 60 cf ae 3e 28 ce 69 3e de 74 8e 3e
       0.34285548 0.3414259 0.22832549 0.27823538
000030 ec 11 ce 3e 37 ed 33 3f 41 dd 7f 3e 07 f3 12 3f
       0.40248048 0.70283836 0.24986745 0.5740208
000040 dc 07 07 3f 84 c7 1f 3f be f3 e3 3e a4 d2 9b 3e
       0.5274637 0.6241381 0.44521898 0.30434144
000050 a7 96 2e 3f 13 e9 3b 3f 08 92 7a 3e c5 60 12 3f
       0.6819863 0.7340252 0.24469769 0.5717891
000060 5f da 46 3f 55 15 62 3e 49 74 1d 3f 64 41 e2 3e
       0.7767696 0.2207845 0.6150556 0.44190514
000070 60 3b 4b 3e 9f ff 8c 3f af 4e 59 3e d2 10 34 3f
       0.19846869 1.1015509 0.21221422 0.70338166
000080 34 2c c3 3e 78 4d a2 3e de 34 f4 3d 33 80 85 3e
       0.38119662 0.3169973 0.11924146 0.2607437
000090 e5 a7 91 3e e7 c0 2e 3f a0 cc 47 3f 99 02 47 3f
       0.28448406 0.68263096 0.7804661 0.7773834
0000a0 15 e4 8c 3e d1 cb 36 3f 4c 68 af 3e 85 f2 32 3f
       0.27517763 0.7140475 0.3425926 0.69901305
0000b0 e0 92 f5 3e
       0.4796362

weight f4 [18, 45, 5, 5]
000000 35 96 46 bb 2a 77 a4 3c 07 3e 3c 3c c0 5a b4 3b
       -0.0030301933 0.020076353 0.011489398 0.0055039823
000010 9c 29 05 3c 93 73 d9 bb 8b f5 e4 3c 70 6c 9f 3c
       0.008127596 -0.006636092 0.027949115 0.019460887
000020 f4 7c 3f b9 90 32 f5 bc bc 9e 53 bb 42 1c 0f bc
       -0.00018261728 -0.029931337 -0.0032290658 -0.0087347645
000030 0e 87 3b 3c 89 00 13 bc eb 8f b8 bb bc 9d d0 bc
       0.011445774 -0.008972296 -0.0056323907 -0.025465839
000040 da 77 76 bc 0f 79 8c bc 3a f7 cd 3c 7f c9 9a 3b
       -0.015043223 -0.017147569 0.0251423 0.0047237272
000050 48 4f 26 bc c5 e7 32 3c 50 dc 13 3d be 21 d1 3c
       -0.010150738 0.010919516 0.03609878 0.025528785
000060 e8 b0 86 bc f3 29 ea 3b 0f a3 f8 bc 5a 5b 20 bd
       -0.016441777 0.007146114 -0.03035119 -0.03914962
000070 26 77 2c 3c 62 ac 78 bb 35 5a aa 3c d4 86 8b b9
       0.010526454 -0.0037944545 0.020794967 -0.000266126
000080 ec 30 c4 3c 84 de 25 3c 43 99 b3 bc 42 f9 f8 bc
       0.023949109 0.010123853 -0.021923667 -0.030392293
000090 c7 e6 95 bc 2d a8 80 bc 49 5f 2f ba ee 55 9c 3b
       -0.01829852 -0.015705192 -0.0006689919 0.004770986
0000a0 e2 f8 46 3c 74 9d 89 bc 6c 82 de bc 33 f2 26 3c
       0.012144299 -0.016798712 -0.0271618 0.010189581
0000b0 d4 16 46 3c cb 82 da 3c 43 00 78 3c 22 54 70 bc
       0.012090404 0.026673695 0.015136781 -0.014668496
0000c0 35 de c2 3c 87 09 b4 3a 02 a8 cb 3c 0f 52 d0 3c
       0.023787597 0.001373575 0.024860386 0.025429754
0000d0 7c b4 10 3b 13 7e 0b 3c c8 45 3e bc 20 56 46 3c
       0.0022080233 0.008513945 -0.011613317 0.012105495
0000e0 85 a4 53 3c 65 4f f4 3b 1e b6 25 37 b4 39 d9 3b
       0.0129176425 0.0074557536 9.877169e-06 0.006629193
0000f0 a8 13 08 3d 3b c9 89 bc 90 82 6a 3c 2f a3 83 bc
       0.03322187 -0.016819587 0.014313355 -0.016069023
000100 0b 33 ea 3a 89 b6 77 39 c9 77 85 3b 46 db 2b bc
       0.0017867995 0.00023623755 0.0040731174 -0.010489291
000110 b9 69 08 bc 0c 6d 7d 3c 82 01 a7 3c 5b 6d 76 3c
       -0.0083259875 0.015467893 0.020386461 0.015040721
000120 f7 63 21 3c 81 25 0c bb 30 f2 e4 3b d1 1f 88 bc
       0.009850494 -0.0021384659 0.006986879 -0.016616734
000130 4a 13 d3 3a cc 0f d6 bc 20 4d e6 3b 5c 25 69 3c
       0.0016103771 -0.02613058 0.007028237 0.014230099
000140 ca 37 50 3c 4b 4f 68 bb b5 1b 2f 3c 5b 1c a6 3c
       0.012708614 -0.0035447653 0.010687758 0.020277193
000150 50 ed a6 bc 1b 03 25 bb 4c 37 e9 3c aa d9 80 bb
       -0.020376831 -0.0025178853 0.02846875 -0.0039321976
000160 30 4b 34 3a af b5 c6 3c 78 c5 ae bc 56 25 1a bc
       0.0006877659 0.024256555 -0.021334395 -0.009408316
000170 ec 32 54 bc 3a 55 d7 bb 61 98 27 bc 14 13 04 bc
       -0.012951594 -0.006571439 -0.010229201 -0.008061189
000180 b3 df dd 3c 16 08 96 3c 6a 4f 18 bb 26 03 39 bc
       0.027084207 0.018314403 -0.0023240694 -0.011292255
000190 78 01 0f bc c9 69 62 bc c6 cc 02 3c c5 ab a4 bb
       -0.0087283775 -0.013819166 0.007983392 -0.0050253593
0001a0 00 14 fc 3b a8 8d 2b bb 48 f6 73 3c cd 16 1e 3b
       0.007692814 -0.0026176963 0.014890261 0.0024122477
0001b0 60 01 03 3d a5 75 84 bc e1 ee f3 b9 98 84 ca 3c
       0.031983733 -0.016169379 -0.0004652655 0.024721429
0001c0 6f af da bc 5e 6b f8 bb 3d 88 4b 3b e2 18 cb bc
       -0.026694981 -0.0075811585 0.0031056546 -0.024792138
0001d0 fe 65 44 3c 5c 64 86 3c 89 5b 1f 3c 03 81 fe 3c
       0.011987207 0.016405277 0.0097264135 0.031067377
0001e0 77 c5 9a 3c 22 59 e7 bc 92 5a e5 3c 2c f6 52 3c
       0.018892987 -0.028240744 0.027997289 0.012876075
0001f0 7a 97 71 bc 8c aa ec bb ea d6 13 bc 3c e0 0f bd
       -0.0147455875 -0.007222479 -0.0090234075 -0.035125956
000200 23 70 38 bc c9 06 e8 bc f0 52 c1 bb ac 38 b8 bc
       -0.011257204 -0.028323548 -0.0058997795 -0.02248796
000210 d7 ad c2 bb 10 ea 01 bb 20 ad 4b 3c 8d ca 71 3c
       -0.0059411335 -0.001982335 0.012431413 0.0147577645
000220 d8 36 ab bc 32 d0 a0 ba b8 5b 05 3c 55 f1 d0 bc
       -0.020900175 -0.0012269078 0.008139543 -0.025505701
000230 d7 95 ac 3c 81 4c 56 bc e9 bf 8b bc aa 59 d3 3b
       0.021067543 -0.013079763 -0.017059283 0.006449898
000240 bf 14 fd 3b 12 4f c2 3c 4b 93 98 bc 75 6b c9 3c
       0.0077234204 0.023719344 -0.018624922 0.024587372
000250 93 d2 c3 bb fc df ab bc f8 44 ad bc 60 7f f1 3a
       -0.00597603 -0.020980828 -0.02115105 0.0018424802
000260 62 64 42 3b 8d 70 a5 bb 60 ad e6 bc b6 27 cc bb
       0.0029661884 -0.0050488175 -0.028158844 -0.00623032
000270 75 54 03 bd c0 e0 94 3c bd 7c 03 3d 70 c8 52 3b
       -0.032062966 0.018173575 0.03210138 0.0032162927
000280 e5 3d 84 3c e7 b9 b3 bc 9d 3d da bc 0a 3c e4 bc
       0.016142795 -0.021939231 -0.026640708 -0.02786066
000290 8c a4 a9 37 86 2d 07 bd f3 0d 16 bd 60 d0 1c bc
       2.0222993e-05 -0.0330024 -0.036634397 -0.009571165
0002a0 19 79 ff 3b b1 16 d4 bc c1 cc 24 bc 72 5d 17 bd
       0.0077964184 -0.025889726 -0.010058583 -0.03695435
0002b0 a0 c0 1d bb 9d c6 d8 bc 2b 7b f6 bc 22 0f dc bb
       -0.0024071112 -0.026461894 -0.030088028 -0.006715671
0002c0 e7 e4 cb bc 12 23 cb bc 27 74 b6 3c 39 c4 27 bd
       -0.024889423 -0.024796996 0.022272183 -0.040958617
0002d0 36 4d 97 bc 95 2d 5a bc 1f 8a 05 bd 85 4d b2 bc
       -0.018469434 -0.013316532 -0.032602426 -0.02176548
0002e0 3f 3d 0b bc fd c6 6f 3b 1d f6 43 bc b0 ca 9a bb
       -0.008498489 0.0036587112 -0.011960533 -0.0047238693
0002f0 a9 48 97 bc 20 fb 89 3c b6 7e 19 3c bb 2a c1 bc
       -0.018467264 0.016843379 0.009368589 -0.023579946
000300 9e b3 2a 3a 4b 4c fd bc 74 df 6c 3b 40 54 8b bc
       0.00065117504 -0.030920168 0.003614393 -0.017007947
000310 3e 71 a1 bc b2 6c 6e bb 97 0d 94 3c 84 89 7e bc
       -0.019707318 -0.0036380705 0.018072886 -0.015535716
000320 78 08 87 bc c5 63 cd 3c 9b 29 96 3b fc 9b 7e bb
       -0.01648353 0.025071988 0.0045825965 -0.0038850298
000330 0b 97 ad bb 00 d0 82 3c 7f fc cd 3c c1 04 ef 3c
       -0.0052975467 0.015968323 0.025144814 0.029177072
000340 72 b2 d6 3c 1d 4d 3f 3c 29 fd 03 3d 48 06 5f 3c
       0.026208136 0.0116761 0.032223854 0.013612337
000350 66 35 bf 3c bb 0f d5 3c 71 b1 5b 3c d0 3a d1 3c
       0.023340892 0.026008477 0.013409005 0.02554074
000360 ba fb ce 3c ca 44 7c bc 3b 56 81 bc 85 a1 ba bc
       0.025266517 -0.01539726 -0.015788188 -0.022782097
000370 bb 23 b7 3c 0d 74 8d 3b f0 61 c9 3c 02 7b 01 bd
       0.022355905 0.004316813 0.024582833 -0.03161145
000380 35 94 ca bc 58 e4 b0 3c 6d 65 96 3c 59 67 09 bb
       -0.024728874 0.021593258 0.01835891 -0.002096614
000390 31 20 87 bc 6e ea 6f bc 1e 37 27 3c 35 ba 0f 3c
       -0.016494842 -0.014643295 0.010206012 0.008772423
0003a0 70 ce 29 3b 7c 42 0d 3d 1e b2 b7 3c d8 ca 05 3d
       0.00259104 0.034487233 0.0224238 0.03266415
0003b0 0a e3 ae 3c 91 23 b1 3c 74 a5 d3 3b ec 1e ac bc
       0.021348495 0.021623405 0.0064589325 -0.021010838
0003c0 18 5d 60 3c 18 fb f8 3c 5d 93 66 3c aa a6 9f bc
       0.01369407 0.030393168 0.01407322 -0.019488651
0003d0 0c 28 af bb de 90 8d 3c 9f 7f ef 3c b9 9c 11 3c
       -0.00534535 0.017280992 0.02923566 0.008887463
0003e0 94 0d bc 3b 83 51 87 bc 17 f7 ae 3c 25 89 c8 3c
       0.0057389233 -0.01651836 0.021358056 0.024479458
0003f0 40 ff f5 3c ae c7 7d ba b6 43 ff bb 21 d7 02 3d
       0.03002894 -0.00096809387 -0.007790054 0.031943444

bias f4 [18]
000000 93 6c 69 3c 24 ea bd 3c 76 a2 85 3a b6 23 ce bc
       0.0142470775 0.023182936 0.0010195512 -0.025163513
000010 93 52 b2 bb af 8c e4 bb ba cb 50 bb 38 3d 4a bc
       -0.0054419725 -0.0069747786 -0.0031859712 -0.012343697
000020 bd 67 be 3a 77 54 0e 3c df 97 86 ba aa 91 81 3b
       0.0014526766 0.00868713 -0.001026865 0.003954132
000030 c4 cf a2 3c 4c 22 64 bc 66 e1 ed 3b a2 a4 47 3c
       0.019874461 -0.013924193 0.0072595356 0.012185248
000040 22 e7 4c bc 5f 74 f8 bb
       -0.012506278 -0.007582232

weight f4 [18]
000000 5b 08 81 3f 8e a6 80 3f 69 b8 7c 3f 2f b1 80 3f
       1.0080675 1.0050828 0.9871889 1.0054072
000010 ce f0 7f 3f 1d 9d 80 3f c6 25 80 3f 73 e1 80 3f
       0.99976814 1.0047947 1.0011528 1.0068802
000020 92 64 7f 3f 0b 9c 7f 3f 43 e2 7e 3f 51 a8 7e 3f
       0.99762833 0.9984748 0.99564 0.9947558
000030 ce 6f 80 3f 40 0a 80 3f 2c 41 80 3f 76 28 81 3f
       1.003412 1.0003128 1.0019889 1.0090473
000040 e1 e3 80 3f c0 a3 7f 3f
       1.0069543 0.9985924

bias f4 [18]
000000 fd 48 9e 3b a2 dc a5 bb e4 98 58 bc af fd 4a bc
       0.004830478 -0.005061702 -0.013220046 -0.012389584
000010 ee ab 4c 3c 38 9d 31 3c 7c 6e 8b bc 9b 7d 67 3c
       0.012492163 0.0108407065 -0.017020456 0.014129068
000020 a9 e5 9d bb 15 ef 06 3b 0a da 2c bc bc bf 22 ba
       -0.0048186374 0.0020589281 -0.010550031 -0.000620838
000030 8b de 31 bc d9 64 e3 3b a3 4f b4 bb 4c 7e 65 3c
       -0.010856281 0.006939512 -0.0055026575 0.014007162
000040 35 35 fc 3b 24 65 46 3a
       0.0076967725 0.0007568172

running_mean f4 [18]
000000 e1 0b 33 3f 74 cd a3 bf 2a 42 84 3e d7 23 a0 3d
       0.6994 -1.2797074 0.2583173 0.07819336
000010 41 05 14 be 0b 18 0a 3f 12 17 01 40 7f 2f 49 bf
       -0.14455129 0.53942937 2.017033 -0.785881
000020 cd b8 d2 3f 75 46 9f 3f ea 59 ab 3f f7 c2 7e bf
       1.6462647 1.2443377 1.3386815 -0.9951624
000030 44 b9 48 bf 46 84 2e bf 63 9d af 3f d7 32 5d 3f
       -0.7840769 -0.68170583 1.3719906 0.864057
000040 10 1a 0e bf 42 91 ba 3f
       -0.5550852 1.4575579

running_var f4 [18]
000000 a7 5d c6 3f ea 5a b1 3f 4f b0 5c 3f 9b 3b d6 3f
       1.549733 1.385587 0.86206526 1.673694
000010 f3 f4 04 3f 50 06 09 3f e9 3f 02 40 9d da be 3e
       0.5193626 0.5352526 2.0351508 0.37276164
000020 7b ed 39 40 90 9e ac 3f 55 a0 8d 3f a2 5f 07 40
       2.9051197 1.348589 1.1064554 2.115212
000030 1b 81 38 40 63 06 70 3f 9f 67 ca 3f 1e f8 9f 3f
       2.88288 0.93759745 1.5812873 1.2497594
000040 e6 9f 1f 3f 0a 9e 00 40
       0.6235336 2.009646

weight f4 [6, 18, 5, 5]
000000 2c a7 ad 3d ed f0 73 3d 05 b1 40 3d ba d6 27 bd
       0.08479151 0.059555937 0.04704382 -0.040976264
000010 45 c9 68 3a da 3b 85 3d 89 95 e6 3c 61 14 79 3c
       0.0008880089 0.065055564 0.028147476 0.015202613
000020 23 31 02 3d a6 c1 a3 3c 6a 9d c2 bc 20 bd ca bc
       0.03178514 0.0199898 -0.023756701 -0.024748385
000030 f3 5d 77 bc 9c 4e bf 3c fb 73 e1 3c 40 95 31 3c
       -0.015098083 0.023352914 0.027521124 0.010838807
000040 48 fb 53 3c 78 a2 3a bd c6 1d 15 3d 23 da 03 3c
       0.012938328 -0.0455651 0.036405347 0.008047613
000050 d9 74 60 3b 9f 97 2a bd aa 03 11 bd 63 54 79 3c
       0.0034249334 -0.041648503 -0.035403885 0.015217873
000060 6c 87 4e 3c f0 cc 3c bd 08 b3 bb ba 3a 4b 58 3c
       0.012605529 -0.04609388 -0.0014320323 0.013201529
000070 62 2f 51 bd 0a f0 62 bd 26 e1 c9 bc f3 94 a5 3c
       -0.05107058 -0.0554047 -0.024643492 0.020212626
000080 b5 b6 b4 bc e8 bb 19 bd de 55 3e 3a 11 a5 ee 3b
       -0.022059778 -0.037532717 0.000726072 0.007282861
000090 7e 0b 69 3c f8 24 43 bd a4 a5 19 bd 56 f5 0c 3d
       0.014223931 -0.047642678 -0.037511483 0.034413658
0000a0 0d 16 59 bc 49 f4 9a 3c 3a df e9 bc 35 b2 1c 3d
       -0.013249886 0.018915312 -0.028548826 0.03825589
0000b0 a8 16 2b 3d 55 6a cc 3b 94 c8 b2 3c 93 10 a0 3c
       0.041769654 0.0062382617 0.021824159 0.019539153
0000c0 e6 9b 0b 3d 05 ba 7a bc fe 2f e2 bc f0 cb 7b 3c
       0.034084223 -0.01530314 -0.027610775 0.015368447
0000d0 98 54 21 bd b6 ca 2b bd 0f 1d 18 3d 9f 0d 96 b8
       -0.039387316 -0.041941367 0.037137087 -7.1550945e-05
0000e0 20 5a 51 bc bf d7 b2 3c 1a fa 12 3d 46 c6 ea 3c
       -0.012777835 0.021831391 0.035883047 0.028658997
0000f0 93 91 2d bd 8f 69 23 bd 51 12 25 bd 2a 97 39 bd
       -0.04237516 -0.03989559 -0.04030067 -0.045310177
000100 a9 f5 31 3c 16 4d c5 bc ee d8 12 bd 68 f6 10 bc
       0.010861793 -0.024084609 -0.03585141 -0.00884781
000110 e4 7a 3e bd 73 1b 1c bd 2f 55 78 bc 47 cf b0 3c
       -0.046503916 -0.038112115 -0.015157028 0.021583213
000120 90 64 86 3c af 9b 61 bd 11 7a 0a 3d a3 71 a1 3c
       0.016405374 -0.055080112 0.033807818 0.019707507
000130 12 0e 3a 3c 48 b4 6c 3b 10 52 a5 3c ae f4 6c ba
       0.011355894 0.0036118198 0.020180732 -0.00090391457
000140 3e 4d 84 bc a1 b5 27 3d b4 66 19 bc 94 2d 0a 3d
       -0.016150113 0.0409447 -0.009362865 0.033734873
000150 47 de 63 bd 68 40 ae 3c 0d cf aa 3c dc c8 03 bd
       -0.055631902 0.021270946 0.020850683 -0.032173976
000160 f1 65 29 bd 8d a5 ee 3c 69 b4 b5 bc 30 61 ba bc
       -0.041356985 0.029131675 -0.022180753 -0.02275142
000170 5b b3 4c 3c 07 a0 3a bc b3 65 53 bc d3 db 2d 3d
       0.012493934 -0.011390693 -0.012902665 0.04244597
000180 66 58 b2 bc 0b 34 98 3b 54 6f 37 3d c3 8a 07 3c
       -0.021770667 0.004644876 0.044783905 0.008272829
000190 c0 d2 b1 3c f0 a5 28 3d cd 41 11 3d d7 2b 8e bc
       0.021706939 0.041173875 0.035463143 -0.017354889
0001a0 fc ba b4 bc 7d 60 21 3d 9e 5b 94 b9 ca b8 c6 bc
       -0.022061817 0.03939866 -0.0002829702 -0.024258036
0001b0 03 10 2c 3c 67 4d 6a 3c 94 f8 a1 bc d7 a4 3d bb
       0.010501864 0.014300681 -0.019771852 -0.0028937364
0001c0 19 c2 69 bc e1 de 8c bc 2c c8 df 3c 70 0e f7 bc
       -0.014267468 -0.01719612 0.02731713 -0.030158252
0001d0 22 55 e7 3c de d6 4b 3d ac ce 04 3d 7c 08 03 bc
       0.028238837 0.04976546 0.03242366 -0.007997628
0001e0 ab b1 5c bd 80 ab 54 bd 08 2d 8e bc 62 26 b3 3c
       -0.053880375 -0.051921368 -0.017355457 0.021868888
0001f0 07 dc 06 bc eb 8e b6 3c 0b 8a ee bc 3c 3b 62 3c
       -0.00823117 0.022284945 -0.029118558 0.013808068
000200 be 1b 1d 3d 65 e5 0e 3d dd 44 33 bc 46 ef 3d bd
       0.038356535 0.034886736 -0.010941711 -0.046370767
000210 b0 4c 10 3d c0 a8 03 3d d5 69 35 3d a2 d5 57 bd
       0.035229385 0.032143354 0.044290382 -0.05269397
000220 4f 6b 05 bd 3b 87 4a bd 31 05 40 bd cf ad d8 bc
       -0.03257304 -0.049445372 -0.04687995 -0.026450066
000230 74 14 71 bd 39 09 79 bd 0e 98 02 bd bf 2c df 3c
       -0.058857396 -0.06079981 -0.031883292 0.027243016
000240 a2 aa 12 bd 33 a6 bd 3b 23 d2 ec 3a 6a 0e 18 bb
       -0.03580726 0.0057876348 0.0018067997 -0.002320195
000250 a1 f6 26 bd ab 0c c8 3c 74 73 cb 3c b1 09 12 3d
       -0.040762547 0.024420103 0.024835326 0.035653774
000260 05 ae 5e bb 7a da 8b bc 98 37 0d bc 74 ab 3c bd
       -0.0033978235 -0.017071951 -0.008619212 -0.046061948
000270 c8 95 04 3c c1 e5 98 3c a5 ae 9f bc 19 79 1f bd
       0.008092351 0.018664243 -0.019492457 -0.038933847
000280 d2 ae 32 bd 97 fa c6 3c 03 28 69 bc 71 81 fd 3b
       -0.043623753 0.024289412 -0.014230731 0.007736378
000290 d3 51 2a bd 4a 72 a7 3c fd e4 48 bd f8 0d d3 3b
       -0.04158194 0.02044024 -0.049046505 0.006440874
0002a0 97 a8 5e bd 96 c0 0f bd fa 79 0c bd b4 f2 dd 3c
       -0.05436 -0.035095774 -0.034296013 0.027093269
0002b0 a0 ae ed 3c a8 c7 d1 bc 2b 2c 18 3c cf ff 15 bd
       0.029013932 -0.025607899 0.009287874 -0.03662091
0002c0 c1 dd 0d 3d dc 88 fc bc 18 a1 2c bd ff 26 7f bc
       0.03463531 -0.030826978 -0.04214582 -0.015573262
0002d0 ea 89 53 3c b2 18 2f 3c 0e 23 90 bc 89 8c df bc
       0.012911299 0.01068704 -0.01759484 -0.027288692
0002e0 3d 7a 12 bd dc 9a 32 3c 9f 48 f8 bc bb de af bb
       -0.035761107 0.010901179 -0.030308066 -0.0053671277
0002f0 1e 62 f1 bb a0 31 7e bc de 0e 68 bb 37 5e 5c bc
       -0.007366433 -0.015514761 -0.0035409252 -0.013450197
000300 9b e3 4b bc 00 c3 05 bc 6b 4b 41 bd 09 5f a7 3c
       -0.012444402 -0.008164167 -0.047191065 0.020431058
000310 d4 60 4c bd a7 02 eb bc a1 67 8d 3c 34 f8 7c 3c
       -0.04989703 -0.028687788 0.017261328 0.015440036
000320 7f dd fb 3c 73 59 4b bd 67 34 c6 3c 86 6b 1f bc
       0.030745266 -0.049645852 0.02419491 -0.009730225
000330 3f 24 3e bd 68 94 d9 bb 95 f0 a5 3c 43 6f 20 3c
       -0.046421286 -0.006640006 0.02025632 0.009792152
000340 58 0e 44 3c 6a 7a 43 bd 20 3c 1c 3d 66 c0 e9 3c
       0.01196631 -0.047724165 0.038143277 0.028534126
000350 21 16 e0 bc 48 e9 73 bc e5 9f c0 bc 7d 2c 18 3c
       -0.027354302 -0.014887162 -0.023513744 0.009287951
000360 e2 5f b3 3c 1d 63 a5 3c ed 18 26 3d 4a f1 4f 3d
       0.021896306 0.020188862 0.040551115 0.05076722
000370 7a 11 68 bc 16 f0 82 3a fb 0f 1b bc 55 41 0c 3c
       -0.014164323 0.0009989764 -0.009464259 0.008560498
000380 31 bc 9f 3c 8b 46 0e 3d 3f 79 13 bd 96 5f 18 bd
       0.019498916 0.034735244 -0.0360043 -0.037200533
000390 73 77 08 3d 71 92 0a 3d b6 fd 4f 3c 9e 44 32 3d
       0.03331704 0.033831064 0.012694767 0.04352247
0003a0 6f e2 b9 bc 49 b5 b9 bb d0 f9 04 bd 95 23 27 3d
       -0.02269098 -0.005667363 -0.032464802 0.040805418
0003b0 dc 8a 26 bc 35 34 43 bc ec 3f ac 3b 29 8e ae bc
       -0.010164943 -0.011914303 0.0052566435 -0.021308022
0003c0 fc 1c a4 bc 7d 4f 68 3c c3 19 81 bc 6f 8e ab bb
       -0.020033352 0.014179108 -0.015759354 -0.0052354853
0003d0 49 79 46 3d 7c 8b 01 bd f8 15 b2 3c c6 96 43 bc
       0.04845551 -0.031627163 0.021738991 -0.011937803
0003e0 89 be ab 3c 72 dc 12 3d 4c 48 25 3d 69 4e 16 3d
       0.020964878 0.035854764 0.04035215 0.03669587
0003f0 cb 92 dd 3c 11 eb 87 bc 3e 9f 8d bc 5a 74 58 bc
       0.027047535 -0.01659158 -0.017287847 -0.013211334

bias f4 [6]
000000 34 3f 5b 3c 1f f2 29 3c fe 8a e5 3b 88 8f 96 bb
       0.013381768 0.010372668 0.0070050946 -0.004594747
000010 f9 7f e4 3c c7 3c 87 3c
       0.027893053 0.016508473

weight f4 [6]
000000 3c 4a 80 3f 8e 76 7f 3f 07 6f 81 3f c3 7b 7e 3f
       1.0022655 0.99790275 1.0112008 0.99407595
000010 ed 6f 7e 3f aa 50 80 3f
       0.99389535 1.0024617

bias f4 [6]
000000 29 71 8a bb 6b c9 80 3a 49 5a fc 3c 0c d6 1e ba
       -0.0042249155 0.0009825652 0.03080477 -0.0006059117
000010 4f 8e eb 35 db 2f 93 3b
       1.7550282e-06 0.004491789

running_mean f4 [6]
000000 a0 0c 29 bf 07 5f e9 be 0e de 24 bf c0 16 51 3f
       -0.6603489 -0.45580313 -0.6440133 0.8167534
000010 ac a8 38 3f 35 a5 05 bf
       0.7213237 -0.5220521

running_var f4 [6]
000000 fe 1e 7e 3e 40 f9 90 3e 86 64 a8 3d 5e 56 40 3f
       0.2481651 0.28315163 0.08222298 0.75131786
000010 1e aa 73 3e 64 ef 23 3f
       0.23795363 0.64037156

weight f4 [1, 6, 5, 3]
000000 5d eb 20 bb 20 e8 6f bc 38 00 74 bd ad ba 89 bd
       -0.002455435 -0.014642745 -0.05957052 -0.06725059
000010 df be 35 bd f5 26 fe bc 34 d6 89 bd 92 3c 7b 3d
       -0.044371482 -0.031024436 -0.06730309 0.06133706
000020 a2 74 7e bd 04 de eb bd 3b 9c 25 3d 23 0a 0e bd
       -0.06212295 -0.115169555 0.040432196 -0.034677636
000030 08 ed 0f bd ff 6c 0e bb 94 6a 24 bd 99 6c ab 3d
       -0.03513816 -0.0021732447 -0.040140703 0.08370323
000040 d2 bb 1d 3d 93 b3 9a bc f8 9f 50 bd da 79 e6 3d
       0.038509198 -0.018884456 -0.050933808 0.1125371
000050 9e a4 14 bd 4a ea c3 bd 69 b8 90 bd ea 43 3a 3d
       -0.036289804 -0.095661715 -0.070664234 0.045474924
000060 1e 23 e9 3d 35 ac 85 bd 7e 84 ad bd ca a3 bf 3d
       0.11383651 -0.065269865 -0.084725365 0.09357412
000070 7b cf 05 bd 3a 10 ae 3d 87 e1 b9 3d 25 b8 d2 bd
       -0.032668572 0.08499189 0.09076219 -0.10289029
000080 ca 6b 83 3d 76 72 35 3d 18 cd 16 3d 61 90 cc bd
       0.064170435 0.04429861 0.036816686 -0.099884756
000090 51 56 a1 bd 17 5f 73 bd 8a ee 8f 3d c4 c3 59 3c
       -0.07877792 -0.059416857 0.070279196 0.013291303
0000a0 22 4d da 3c 49 9e 81 3d d3 45 e9 ba eb d1 d8 bd
       0.026648108 0.063290186 -0.0017797298 -0.10586914
0000b0 39 00 be bd 0d b5 f6 3c 99 c0 99 bd 9d 98 9c 3d
       -0.09277386 0.030115629 -0.07507438 0.07646296
0000c0 f0 42 e1 bc de f7 56 bd 33 1d 49 bd 04 21 90 bd
       -0.027497739 -0.05248248 -0.049100112 -0.07037547
0000d0 59 96 71 3d b2 39 49 bd ff 5c af bd e1 28 d5 3d
       0.058981273 -0.04912729 -0.085626595 0.10408188
0000e0 65 46 23 bc 07 6e d9 bd e9 f3 84 bd 9b 88 cb 3d
       -0.009965514 -0.10616689 -0.06491835 0.09938165
0000f0 06 88 a0 3d 39 f7 af bd 56 9e b6 bc ed 8c b6 bc
       0.078384444 -0.08592076 -0.022292297 -0.022283996
000100 4d 3f e5 3b 24 6c 96 bd b6 06 6b 3d fd 23 92 bd
       0.0069960714 -0.07344845 0.057379447 -0.071357705
000110 5d b9 14 3d 92 d6 c5 bd ee 9a c4 3d 10 6a 15 bd
       0.03630959 -0.09660067 0.09599863 -0.036478102
000120 c2 0f 9e 3d 7b 3d 5b 3d 70 87 44 bc e3 e8 91 bc
       0.07717849 0.05352543 -0.011995181 -0.017811244
000130 54 2c f3 bb d8 a8 9e bc f1 a9 f7 bc d2 40 21 bd
       -0.007421056 -0.01936762 -0.030232402 -0.039368458
000140 df e1 7c 3d 89 ac 7b 3b a2 fc 81 3d 9b 57 82 bd
       0.061738845 0.00384024 0.06347014 -0.06364366
000150 b7 ab 48 bd e8 a5 da bd 9a af cb bd 8b ba 35 3d
       -0.048991885 -0.10676175 -0.09945603 0.044367354
000160 7a 5e 77 bd 0e 84 92 bc
       -0.060392834 -0.017885234
